verification_set/verification_state.pt (torch, 57845 bytes, 14 tensors)

lstm.ih.mu_weight f4 [128, 14]
00000000: 5268 fd3e 3ae6 dd3e 39a7 d13e 73b7 c53d
00000010: f107 d53e 5e79 4c3e c3d3 813e cdbe c53d
00000020: e297 7e3e 9d3d df3e 6e56 873e d0e9 353e
00000030: 251a 733e 9329 3e3e afbb 743e 13ca be3e
00000040: b867 f13e 9b3d 963e 5526 8f3e a657 b93e
00000050: da46 613e 93bf cd3e e2a3 cd3e e18f ea3e
00000060: 2097 e33e f5d0 de3e 053d bb3e 5c42 d93e
00000070: 4d07 e13d 3b51 0b3e dd9a d43d 6f9b 553e
00000080: 8fe6 b53b 3544 8e3c b7a3 913d 9c1e 953e
00000090: 7347 2c3e 811f 983d 3c55 113e 3aef 983d
000000a0: 2ac6 f0bc 98d0 623e 937a 533e 4f72 743e
000000b0: 2997 1d3e 6f74 fe3e a857 413e 2bb8 6b3e
000000c0: d479 373e 6b30 5a3e ccfe a03e bf3b a63e
000000d0: b4dc 6c3e eb5b d43e bffe 553e ec4f 573e
000000e0: 8e3b bb3d 6c5e 6f3e 95e6 533e f730 903e
000000f0: ee57 6e3e ef37 c63e 2c78 b03d 5848 af3e
00000100: 2ad1 c33e b6e1 983e 3fcf db3e 3523 8b3e
00000110: 8a8c 843e d454 493e 4109 663c 3189 823e
00000120: 8173 e23d 282a 313e 7d39 0e3e 2770 253e
00000130: 76cb 343e 4945 803d 0cfe b6bd 0f2d 613d
00000140: 7420 003e 5d2f d03d e175 08bc 15ea 953d
00000150: 2a9f 323e cf5f 4f3e ae70 823e 4427 063e
00000160: 4650 513e a6b8 673d cfbe 00bd bcc4 243e
00000170: 86a0 6abc 23bc f33c f317 6b3e be28 313e
00000180: 7729 a4bd 61a8 333e 5c9a 3a3e 8314 0b3e
00000190: 8068 1f3e 5e0f 073e 9461 3d3e b06e bf3c
000001a0: d1c8 233d 82b0 1a3e 58d4 0f3e ff7f 093e
000001b0: fe42 e73d 104c 613e 5661 b53d f306 7e3d
000001c0: 0881 ffbd 13de 5cbc 5151 b7bd 1dca 413d
000001d0: f2de 643d f7f0 35bb 6367 d9bd df0f 073d
000001e0: 46cf ecbc 4b60 6cbc 8f8d efbc 6128 943c
000001f0: c097 c73d 32f4 b83c d21d 0b3e 3368 d13d
00000200: 5b55 893e 2c66 2c3e 18b6 7cbd 4d82 44bd
00000210: 5b9f 5f3d 191a 6c3e 5d1a 0f3e cbe4 013e
00000220: 4e13 2f3e a642 8b3d b0b9 dabd b3fd 223e
00000230: 6b32 273d 2d97 ac3d 8111 fabc 0b40 b03d
00000240: 5348 07bd f9d0 e93d 16e0 303e f849 053e
00000250: 3910 d93d 25d2 82bd f629 62bc 46b7 703d
00000260: 39e6 7c3d 5533 d13d 9ab9 443e 5bc4 cb3e
00000270: 5da8 803c 9fff 513e 858b 123e 2498 a33e
00000280: 5c88 1a3d f0d4 833e 828d 803e 1ef1 3b3e
00000290: 13c4 8c3e f2d1 2d3e f548 8a3e 08db 073e
000002a0: 4873 da3d ed86 c53e da16 c93e cae0 893e
000002b0: 73c9 053e 1690 b23e 00b4 ad3e df20 ed3e
000002c0: ae0d 8a3e 5cd2 853e 94fe 453e a6b9 793e
000002d0: 0fd1 353e e020 c53d d831 ff39 ec60 a63d
000002e0: c652 673d c4d2 9cbc c18f a1bd abf7 c43d
000002f0: e32e 323e 1181 bd3c d113 453e d64e 4d3e
00000300: 8cb2 953e 8804 073d ef4a 563e 3d58 a33d
00000310: d271 6c3b 9e58 1f3e ad45 183e 59b0 673e
00000320: 0c5c 373e 9c42 933e 3959 143d 1e9d a03b
00000330: 379e 0b3e 6adf 453e 0d16 633e 5dcf 233e
00000340: 447a 663c e104 1aba 370c 7f3d 8c02 cf3c
00000350: 73f7 dc3d 5668 033e addc ae3d 7bbb 1cbe
00000360: 20ca 223d a576 4a3e c6c3 c9bd a3f5 633e
00000370: afba e63d 6e9f 3c3d 34e0 4b3e 080d 7d3e
00000380: 2c03 4c3d 6798 f73d c92f 813c e9b5 cfbd
00000390: 047b 87bc 642e 283d b828 263d 06a0 5e3e
000003a0: 0fa7 e53c bdc2 cfbd 4ae7 24be 76d5 58bd
000003b0: c053 f53b d8f8 ffbb 4025 d53d b170 ed3d
000003c0: 72a9 0bbb 97c4 ef3d 0eed 043d 9846 053e
000003d0: 0929 293b c3e0 aa3d c2bc 3d3d 0633 6c3e
000003e0: 6ad7 563e 49f4 b63b 7d44 2e3e 9dd8 0c3e
000003f0: 68c2 2c3e ef34 313e 6ace 2c3e 9e02 0f3e
0.49493653 0.4333971 0.40947893 0.09654131 0.4160762 0.19968173 0.25356874 0.09655533
0.24862626 0.43601695 0.26433128 0.17764974 0.23740442 0.18570547 0.2389972 0.37263545
0.47149444 0.29343876 0.27958933 0.36199683 0.21999684 0.40185222 0.40164095 0.45812896
0.44451237 0.43518797 0.36569992 0.4243344 0.10987721 0.13605206 0.103811 0.20860074
0.0055511664 0.017366508 0.07111304 0.29124916 0.1682413 0.07427884 0.1419267 0.07467504
-0.029391367 0.22149885 0.20652227 0.2387173 0.15389694 0.49698207 0.18881094 0.23019473
0.17917567 0.21307532 0.31444395 0.32467458 0.23131067 0.41476378 0.20897959 0.21026582
0.091422185 0.23375863 0.20693429 0.28162357 0.2327573 0.3871455 0.08616671 0.3423488
0.38245517 0.29859704 0.42931554 0.27175298 0.25888473 0.19661266 0.014040292 0.25495294
0.11057187 0.17301238 0.13889118 0.16156064 0.17655739 0.06263215 -0.08935174 0.05497461
0.1251238 0.10165284 -0.008328886 0.07320038 0.17443529 0.20251392 0.25476593 0.13100916
0.20440778 0.05657258 -0.03143197 0.16090673 -0.014320498 0.029752797 0.22958355 0.17300698
-0.08015721 0.175447 0.18222946 0.13582043 0.15567207 0.13189456 0.18494254 0.02336821
0.039986435 0.15106395 0.14045846 0.13427733 0.112920746 0.22001672 0.08856456 0.062018346
-0.12475783 -0.013480681 -0.08951057 0.04731189 0.05587668 -0.0027762034 -0.106154226 0.03297412
-0.02890743 -0.014427255 -0.029242305 0.01808566 0.09745741 0.022577379 0.13585594 0.102249525
0.26822934 0.1683585 -0.061697096 -0.047975827 0.054595333 0.2305683 0.139749 0.12684934
0.17097208 0.067998216 -0.10679948 0.15917091 0.040819567 0.08427272 -0.030525925 0.08605965
-0.033027958 0.114168115 0.17272982 0.13016498 0.10598797 -0.06387738 -0.01380395 0.058768533
0.061742995 0.10214869 0.19211426 0.39798245 0.015705282 0.20507668 0.14311035 0.31952012
0.0377277 0.25748396 0.25107962 0.18353698 0.27493343 0.16974619 0.27008787 0.13267148
0.106665194 0.38579503 0.39275247 0.26929313 0.13065128 0.34875554 0.33926392 0.4631414
0.26963562 0.26137054 0.19335395 0.24387226 0.17755531 0.09625411 0.00048674527 0.08123955
0.056475423 -0.01914347 -0.07888747 0.096175514 0.17400698 0.023132833 0.1924584 0.20049605
0.29237783 0.032963306 0.20927022 0.079758145 0.0036078584 0.15561149 0.14870329 0.22625865
0.17906207 0.28761756 0.0362179 0.0049015423 0.13634573 0.19323507 0.2217638 0.15997072
0.014067236 -0.0005875361 0.06226751 0.02526977 0.10789385 0.1283277 0.08538184 -0.15305893
0.039743543 0.19771822 -0.09851794 0.22261672 0.11266076 0.04605048 0.19909745 0.24712002
0.049807712 0.12089615 0.015769856 -0.101421185 -0.01653815 0.041059867 0.040566176 0.21740732
0.028033761 -0.10144565 -0.16103855 -0.052937947 0.0074867904 -0.007811647 0.104074955 0.1159376
-0.0021310714 0.117074184 0.032452635 0.1301521 0.0025811812 0.08343651 0.04632259 0.23066339
0.20980611 0.0055833203 0.17018314 0.13754506 0.16871035 0.17305349 0.16875616 0.13965842

lstm.ih.rho_weight f4 [128, 14]
00000000: 1561 30c0 2ff1 28c0 50f3 1cc0 26b6 25c0
00000010: a12d 20c0 3b63 3dc0 c32d 22c0 3ab0 32c0
00000020: 041a 34c0 cfe7 2dc0 9ecc 2dc0 c375 31c0
00000030: 4934 1fc0 886b 32c0 67e7 23c0 d3ba 26c0
00000040: 7614 39c0 446b 25c0 654b 31c0 5a48 28c0
00000050: 0b9d 2cc0 68b8 26c0 a318 32c0 0909 26c0
00000060: 6aa9 33c0 1881 0cc0 8077 31c0 9ea5 24c0
00000070: 5eaf 24c0 438a 51c0 9d99 2ac0 685e 3dc0
00000080: 8203 2ac0 b76f 34c0 6eaa 29c0 616f 1ec0
00000090: 1d98 17c0 2823 3cc0 0f74 19c0 4d3e 44c0
000000a0: 1e73 35c0 a42f 28c0 a279 39c0 e019 41c0
000000b0: aad9 2ac0 4183 37c0 dcfe 3dc0 ca2a 34c0
000000c0: 9ec8 2ac0 a530 23c0 6792 36c0 b8b9 36c0
000000d0: 41cc 2dc0 42a5 28c0 fd64 26c0 9552 36c0
000000e0: 4623 32c0 30ad 18c0 fb7f 21c0 6378 27c0
000000f0: ceed 31c0 da11 2cc0 c4e0 44c0 d0c2 2bc0
00000100: 59aa 22c0 6daf 20c0 16f5 22c0 72c1 1ac0
00000110: 6496 26c0 8986 37c0 3688 2fc0 12b6 27c0
00000120: fe32 32c0 f7bf 2ec0 8d19 3ac0 ce8c 25c0
00000130: e099 31c0 4013 37c0 a48a 34c0 f1a0 3ac0
00000140: 2790 32c0 e24b 2fc0 e2d0 36c0 b30c 34c0
00000150: 7528 25c0 3929 13c0 01d4 23c0 32f2 1ec0
00000160: 3e59 15c0 f814 36c0 c7c5 09c0 8f53 13c0
00000170: b0ab 12c0 bce2 17c0 5f07 2dc0 80dc 0bc0
00000180: bb43 28c0 49cf 2ac0 843b 18c0 65b2 27c0
00000190: 1787 09c0 d95a 12c0 7202 18c0 2939 18c0
000001a0: 9b81 1ac0 60e0 10c0 e1ed 1fc0 90bf 18c0
000001b0: 1e7a 1dc0 f60e 14c0 9f8a 16c0 0415 0bc0
000001c0: bb8c 16c0 ed22 2fc0 568a 32c0 febc 2ac0
000001d0: 94bc 30c0 67c8 27c0 0170 30c0 0c78 40c0
000001e0: 689f 28c0 ac73 36c0 727f 2ec0 8445 2cc0
000001f0: a819 42c0 23d8 1bc0 5c5a 22c0 3424 1cc0
00000200: fad1 1cc0 0427 1ac0 1121 20c0 37a6 26c0
00000210: b453 17c0 ce72 29c0 2f25 21c0 3097 10c0
00000220: 2b86 1dc0 fae6 24c0 e181 2bc0 773e 00c0
00000230: 5fa8 1ac0 cad2 08c0 f9ca 11c0 081b febf
00000240: b182 0cc0 1221 22c0 ac23 15c0 6e3d 01c0
00000250: a3a2 f3bf 3ce2 0cc0 d5d4 01c0 c8a2 0ac0
00000260: e9a8 0bc0 b867 1ac0 8f7b 1ec0 62b8 15c0
00000270: 1f31 2dc0 b67f 0fc0 50b7 1cc0 1acf 21c0
00000280: a592 10c0 c172 1dc0 d661 36c0 ce59 14c0
00000290: f1c7 3bc0 8f1e 12c0 ae56 07c0 1c07 06c0
000002a0: b095 1dc0 0561 1fc0 d818 34c0 53ea 2cc0
000002b0: d11e 06c0 78f8 18c0 e61e 17c0 ca7e 33c0
000002c0: e01d 17c0 b0fc 24c0 1680 13c0 a698 21c0
000002d0: fa18 24c0 01aa 2ac0 da8b 24c0 2540 14c0
000002e0: f184 1cc0 30c3 3bc0 bb2d 24c0 ab20 20c0
000002f0: 3b11 03c0 1a7b 1bc0 b518 1fc0 0352 2bc0
00000300: 72e1 1cc0 fb68 35c0 ddeb 26c0 8344 18c0
00000310: e174 29c0 28a8 21c0 e4b2 29c0 ada9 1bc0
00000320: 17f5 1fc0 e244 15c0 eed1 2ac0 d656 43c0
00000330: e628 1ac0 ea9d 3ec0 8403 2ec0 f3d6 21c0
00000340: 4e24 20c0 e10b 32c0 b770 22c0 b473 39c0
00000350: 2299 33c0 effc 27c0 69b4 37c0 ca98 2fc0
00000360: 6632 31c0 d136 30c0 d2a8 34c0 5a5e 31c0
00000370: 88c2 1dc0 3e38 2dc0 edd2 34c0 efc8 36c0
00000380: e321 34c0 328a 2dc0 c7b9 21c0 6582 28c0
00000390: eb9f 3ec0 cf4f 39c0 3353 2ec0 2bf9 38c0
000003a0: 0239 43c0 cb1a 3ec0 ab6c 30c0 9f30 2ec0
000003b0: 76ef 22c0 256b 26c0 b82c 33c0 01b4 1bc0
000003c0: c05d 37c0 f0b3 21c0 8a0d 23c0 0b40 2fc0
000003d0: e3c5 31c0 6632 2cc0 c42b 3fc0 bcac 1fc0
000003e0: a531 22c0 ab81 36c0 3f31 2fc0 0ce2 2bc0
000003f0: d17f 31c0 dc9e 25c0 f983 2ec0 4032 2bc0
-2.7559254 -2.6397207 -2.4523506 -2.5892425 -2.502785 -2.9591815 -2.534043 -2.792006
-2.8140879 -2.7172735 -2.7156138 -2.7728126 -2.4875662 -2.7878132 -2.5609987 -2.6051528
-2.8918738 -2.584672 -2.7702267 -2.629416 -2.6970851 -2.6050053 -2.7827537 -2.5943015
-2.8072152 -2.1953793 -2.7729187 -2.5726085 -2.5732036 -3.2740638 -2.6656258 -2.958887
-2.656464 -2.8193185 -2.6510272 -2.475548 -2.3686593 -2.9396458 -2.3977087 -3.0663025
-2.8351512 -2.6279078 -2.8980489 -3.0172043 -2.6695352 -2.867386 -2.9686804 -2.8151116
-2.6684947 -2.549844 -2.8526857 -2.8550854 -2.7155917 -2.6350865 -2.5999138 -2.8487904
-2.783403 -2.3855705 -2.5234363 -2.6167228 -2.7801394 -2.6885896 -3.0762186 -2.6837654
-2.5416472 -2.5107071 -2.5462089 -2.418057 -2.602929 -2.8675864 -2.7426887 -2.6204877
-2.7843623 -2.7304666 -2.9078095 -2.586719 -2.7750168 -2.86055 -2.820962 -2.916073
-2.7900484 -2.7390065 -2.8564992 -2.813275 -2.5805943 -2.299391 -2.5598147 -2.4835324
-2.333572 -2.8450298 -2.1526964 -2.301975 -2.291729 -2.3732138 -2.703575 -2.1853333
-2.629134 -2.6689017 -2.3786325 -2.6202633 -2.1488702 -2.286795 -2.3751493 -2.3784888
-2.4141605 -2.2636948 -2.498894 -2.386692 -2.4605784 -2.3134131 -2.3522108 -2.1731577
-2.3523395 -2.7365067 -2.7896934 -2.6677852 -2.76151 -2.6216066 -2.7568362 -3.007327
-2.6347294 -2.85081 -2.7265286 -2.691743 -3.032816 -2.435067 -2.536765 -2.4397097
-2.450316 -2.4086313 -2.5020182 -2.603895 -2.3644838 -2.6476321 -2.5178945 -2.2592278
-2.461314 -2.5765977 -2.6798022 -2.0038126 -2.4165266 -2.1378655 -2.2780135 -1.9851999
-2.1954768 -2.5332685 -2.3303022 -2.0193744 -1.9034008 -2.2013083 -2.0286152 -2.1661854
-2.1821845 -2.4125805 -2.4762914 -2.3393788 -2.706123 -2.2421699 -2.4486885 -2.5282655
-2.2589505 -2.460129 -2.8497214 -2.3179812 -2.9340785 -2.2831151 -2.1146655 -2.094184
-2.4622612 -2.4902966 -2.8140163 -2.701802 -2.095631 -2.3901653 -2.361261 -2.8046136
-2.3611984 -2.5779228 -2.3046927 -2.524942 -2.5640244 -2.6666262 -2.5710359 -2.316415
-2.445614 -2.9337883 -2.5652912 -2.501994 -2.0479267 -2.4293885 -2.485883 -2.6768806
-2.45126 -2.8345325 -2.608146 -2.3791816 -2.6477587 -2.5258884 -2.6515436 -2.4322312
-2.499334 -2.3323293 -2.669063 -3.052175 -2.4087462 -2.9783883 -2.7189646 -2.5287445
-2.5022159 -2.781975 -2.5381296 -2.897687 -2.8062215 -2.6248128 -2.8703864 -2.7437005
-2.768701 -2.7533457 -2.822804 -2.7713838 -2.4649982 -2.7065578 -2.825374 -2.856014
-2.8145683 -2.7115598 -2.526964 -2.6329587 -2.9785106 -2.8954961 -2.723828 -2.890208
-3.0503545 -2.9703853 -2.7566326 -2.7217176 -2.5458655 -2.6002896 -2.7996044 -2.4328616
-2.865097 -2.5266075 -2.5477014 -2.7382839 -2.777703 -2.690576 -2.9870462 -2.4949179
-2.53428 -2.8516643 -2.7373807 -2.6856718 -2.7734263 -2.587821 -2.726805 -2.674942

lstm.ih.mu_bias f4 [128]
00000000: 61b2 453d c062 5c3d 2a96 8ebe 766a 9dbb
00000010: d52b b9bc b516 af3e 3406 713e dc33 32be
00000020: b23f 65be a2cb 133e 0d47 d0bd 01e8 333e
00000030: 32ab 803e aefb 46be 17bd 50be 14de eb3c
00000040: 6b8d bebe 8424 d73b 6e20 9b3d ad35 c93d
00000050: d7f9 ae3c 9a88 24be ebc5 50be 3db3 a93e
00000060: 978c bb3d a271 7c3d 3773 1a3e 7659 aebd
00000070: 253c 92bd 7035 7abe 254c 15be e0b6 bcbe
00000080: a9b0 2f3e a935 2dbc f6ad 20be 4472 cf3d
00000090: 89b1 74bc 4fac 7e3e 732b d33c 373c debc
000000a0: ee83 50be ef3e be3e 6082 16bd fb76 063e
000000b0: d22f ca3d 4355 2abe 24c5 4cbe ed01 d33d
000000c0: 1c65 afbd 022c 203e a34d e03e 9b52 2bbd
000000d0: 3201 67be fe76 17bd cce5 9fbd e9a5 943d
000000e0: 742b 0ebd 8f2e 8dbd 4999 c33d b9fd 3bbd
000000f0: 9486 d2bb 5505 44be 5063 7b3d 19bb 8ebe
00000100: dd7e 41be 0a18 363e 5b69 803d c283 fabd
00000110: bc92 223e 22e9 bbbd c6ee bc3d bf38 d13c
00000120: 07b4 bfbd c71b afbe 8e24 35bd 5dbc a43d
00000130: 76a7 0bbe 3226 b339 80c9 15bd a334 00bc
00000140: 8e9a 6b3d 7480 64be 093d 803e 8a7a 033d
00000150: a70a bfbd 99c0 12bd c95c 95bc 1a6d bbbd
00000160: f4e4 0abe a84a dd3d 17dc b63d 6f44 f9bc
00000170: 1d37 fbbc a7c9 a93e a911 8f3d 7931 873d
00000180: 1502 07bb 6644 8dbd 0613 8fbe 70fe 9dbe
00000190: 1d3f 72be bd07 003f a017 dabe fcd7 8abd
000001a0: b4df 64be ac14 d03e 6a8e c3bd 96d5 90be
000001b0: 5f59 65bd 6e88 30be ca72 68be 44e4 8c3e
000001c0: 9074 06bd 4454 ec3e 2b65 ea3e 13cf 81be
000001d0: 2d2f 8bbe ef94 91be 354d b2be 2500 163e
000001e0: 21c3 80be 6120 0fbd 50cd bcbe fd26 cdbd
000001f0: 30de 383c 7634 da3d 95e3 8bbe a44b 9fbe
0.04826582 0.053805113 -0.2784894 -0.004803951 -0.022603909 0.34197012 0.23537523 -0.17402595
-0.22387579 0.14433149 -0.10169802 0.17568971 0.25130612 -0.19431946 -0.20384632 0.028792419
-0.37217268 0.0065656323 0.07574545 0.09824691 0.021359367 -0.16067734 -0.20388 0.3314456
0.09157675 0.061631806 0.15083013 -0.08513157 -0.07140378 -0.24434447 -0.14579828 -0.36858273
0.17157234 -0.010571876 -0.15691361 0.10129216 -0.014934906 0.24870418 0.025777554 -0.027128322
-0.20362827 0.3715739 -0.03674543 0.13131325 0.09872402 -0.16634087 -0.19997078 0.10303102
-0.08564207 0.15641788 0.43809232 -0.041826826 -0.2255905 -0.036978714 -0.07807502 0.07258207
-0.03470941 -0.06893646 0.09550721 -0.045896266 -0.0064247344 -0.19142659 0.06137401 -0.2787712
-0.18896051 0.17782608 0.06270095 -0.12232162 0.15876287 -0.09175326 0.0922523 0.025539754
-0.09360509 -0.3420088 -0.044224314 0.0804374 -0.136381 0.00034169998 -0.03656912 -0.00782505
0.05752044 -0.22314626 0.25046566 0.032099284 -0.09328204 -0.035828207 -0.01823272 -0.09151669
-0.13563901 0.10805255 0.089286976 -0.03042814 -0.030665928 0.3316166 0.0698579 0.06601233
-0.0020600606 -0.068978116 -0.279442 -0.30858183 -0.23656888 0.5001181 -0.4259615 -0.06779477
-0.22350961 0.4064077 -0.09548648 -0.28287953 -0.055993434 -0.17239544 -0.22700039 0.27517903
-0.032826006 0.4615804 0.4578031 -0.25353298 -0.2718443 -0.2843394 -0.3482453 0.14648493
-0.25148872 -0.03494299 -0.3687539 -0.10017202 0.011283442 0.106545374 -0.2732207 -0.31112397

lstm.ih.rho_bias f4 [128]
00000000: 5157 0ec0 ba04 fcbf 2ca1 01c0 a752 06c0
00000010: 288c 23c0 8860 08c0 77a5 f5bf 4357 cabf
00000020: db8d 2cc0 9129 d2bf 61c2 0cc0 5ee9 ecbf
00000030: 494d d4bf 1e09 0bc0 de44 debf 5c63 0dc0
00000040: 7fe6 0cc0 0433 09c0 2dc8 03c0 7d04 08c0
00000050: 5f41 ffbf 06c5 0ac0 3ad2 1fc0 ac70 0fc0
00000060: 3ac1 f8bf 76f7 fdbf c0ac debf fccf 0bc0
00000070: 90fe 0cc0 e0e8 13c0 b796 0dc0 ccde 0cc0
00000080: 844f 14c0 bfdc 05c0 bbf4 f1bf cd63 1dc0
00000090: fb29 13c0 28c3 16c0 e23b 15c0 8433 00c0
000000a0: 8c5a 15c0 4dd8 ffbf e1cb 08c0 ce43 16c0
000000b0: 9e56 f1bf 333f 00c0 78eb 1dc0 ac15 04c0
000000c0: 3de2 03c0 58ac 10c0 f709 11c0 be25 0dc0
000000d0: 1c65 0bc0 928c 20c0 e192 02c0 6423 06c0
000000e0: df5b 1ec0 9916 28c0 c2dc 0ec0 cf8c 16c0
000000f0: 490a 16c0 9266 17c0 b724 f9bf 7e10 ebbf
00000100: df4c 3ec0 aeee 1fc0 dcc9 f7bf 8f3b 21c0
00000110: 5575 1cc0 1e57 10c0 a90a 1dc0 c46c 19c0
00000120: 1e58 2ac0 8b3e fbbf 2e3d edbf 4dee 33c0
00000130: 73fe 1ec0 0da5 22c0 020b 21c0 b41c 04c0
00000140: 279d 1ac0 e574 eabf d664 14c0 6d9a 1cc0
00000150: 052f 12c0 9184 29c0 638e 15c0 e788 1cc0
00000160: bfac 4dc0 0896 1ac0 c05e 28c0 472f 1bc0
00000170: eee2 25c0 e138 25c0 0ad9 21c0 32a8 34c0
00000180: 2450 31c0 ea03 4fc0 c51d 24c0 039a 3bc0
00000190: 9290 39c0 e2e2 1cc0 f2f3 40c0 3914 3dc0
000001a0: 3fa6 2cc0 8544 26c0 95bb 22c0 2bb2 3bc0
000001b0: 243d 1bc0 5052 32c0 552c 27c0 78bf 2fc0
000001c0: df90 41c0 b5c8 21c0 8eff 1bc0 4e0f 26c0
000001d0: 1435 20c0 81f4 29c0 99e9 34c0 ba21 2bc0
000001e0: 683c 3bc0 3eb7 34c0 1be0 24c0 0149 21c0
000001f0: f2f3 1fc0 4b62 37c0 651b 37c0 059b 45c0
-2.2240794 -1.9688942 -2.0254622 -2.0987947 -2.5554295 -2.1308918 -1.9191121 -1.580788
-2.6961582 -1.6418935 -2.199364 -1.8508718 -1.6586086 -2.1724315 -1.7364767 -2.2091894
-2.2015684 -2.1437387 -2.0590928 -2.125274 -1.9941825 -2.1682754 -2.4972062 -2.241252
-1.9433968 -1.9841144 -1.7396469 -2.1845694 -2.2030373 -2.3110886 -2.212324 -2.2010984
-2.3173532 -2.0915983 -1.8902811 -2.4592164 -2.2994373 -2.3556614 -2.33178 -2.0031443
-2.3336515 -1.9987885 -2.1374438 -2.3478885 -1.8854558 -2.0038574 -2.4674969 -2.0638227
-2.0606835 -2.260519 -2.2662332 -2.2054286 -2.1780462 -2.5085797 -2.0402148 -2.09591
-2.4743574 -2.6263793 -2.232224 -2.3523443 -2.3443778 -2.3656354 -1.946433 -1.8364408
-2.9734418 -2.4989429 -1.9358478 -2.5192602 -2.4446614 -2.2553172 -2.4537756 -2.3972635
-2.6616282 -1.9628462 -1.8534296 -2.8114197 -2.4842803 -2.541324 -2.5162969 -2.064252
-2.4158418 -1.8316923 -2.3186545 -2.4469254 -2.2841198 -2.6487162 -2.3368156 -2.4458559
-3.2136686 -2.4154072 -2.630783 -2.4247606 -2.5919757 -2.5815966 -2.528872 -2.8227658
-2.7705164 -3.234614 -2.564317 -2.9312751 -2.8994489 -2.4513478 -3.0148892 -2.9543593
-2.6976469 -2.597932 -2.542699 -2.9327495 -2.4256067 -2.786274 -2.6120808 -2.7460613
-3.0244672 -2.5278752 -2.4374728 -2.5946841 -2.5032396 -2.6555483 -2.8267577 -2.6739335
-2.925562 -2.8236842 -2.5761783 -2.5200808 -2.4992642 -2.8653743 -2.861047 -3.0875866

lstm.hh.mu_weight f4 [128, 32]
00000000: 543f 4ebe cd35 643e cb50 943e b2f6 f2bd
00000010: 6d5b d73d 29d8 423d c7a7 1fbe 7786 9abe
00000020: dc61 873e 958a 4f3e 7b2d 27bc 82e0 3c3e
00000030: aa1f 8dbe e79c 863d bb1c 533e f23d 12bd
00000040: 8a36 18be 0e6d 8abd 2416 56be cc89 a33d
00000050: be51 37bd 2191 493d d981 89bd d25d 2f3c
00000060: 791f 73be 2fba f2bd af48 26be ba66 fc3d
00000070: edcb 99bc de62 90bd 0a73 1dbe 003b 92bc
00000080: 3d88 1abd 0cd1 bb3e d659 da3d b40a e2bd
00000090: 9a9e 9c3e 0782 2fbe 79fa 1d3b ba9b 71be
000000a0: 834a 513e 88b4 2b3d 8cf7 e63c 6980 e8bb
000000b0: 4161 43be 01cd ae3e 43e8 933e 1bc4 a4bd
000000c0: 7f3b 293e b430 08bd 0168 8e3d 6f9d 423e
000000d0: 9b6a 34be 1acc a03e 6ee0 96be 7663 fc3d
000000e0: 371e 5abe b3cb df3d d46a d6bd 6daa 343e
000000f0: 5462 3ebe 4bd2 d63c 32af 19be 3e3b 5bbe
00000100: 2045 343c b248 9e3c 8334 f93d 1e8b dabd
00000110: 9477 363e fe74 9d3e 23c6 4a3d 4f83 b2be
00000120: 5e2f d33d 3111 b43e bfd9 c1bd b0f6 f93d
00000130: 21d9 34be 6a18 433e acb9 923e 9b76 aebd
00000140: 3ab7 e9bd 68c5 833e a374 08bf 7388 b83e
00000150: 0eb0 793d e629 4e3e c28d bcbd 1fec 463d
00000160: ceba e3bd b2ff bb3d c4a9 cdbe 6ca8 2a39
00000170: 6eeb a83e 2060 5bbe 0430 62be f0c1 58be
00000180: c4f1 273e be7b 8b3d 7489 a43c 3254 bebd
00000190: 0733 ca3d fa24 cdbd e7d6 af3d e891 6abe
000001a0: 5e7d f63d 54fb 9d3c 46ae f6bd de9d 9c3b
000001b0: 179c d5bd 7cc3 c93e 8e68 1cbd 66d9 d33c
000001c0: 8b78 e9bd ca7a 003e a083 b8be 0e21 723d
000001d0: 2914 62bd d6ce 9e3e 0a34 35be 0288 733d
000001e0: d56c 88be b668 c83d 5e92 b8bd 62a3 5c3e
000001f0: 6082 753d ae98 8cbd eb8b 8bbe 4fbb 7bbe
00000200: 9cbb 913d 2c28 9c3d 0552 c43d 85e0 cbbd
00000210: 90ce 6e3e 4128 02ba 873f 71bd 1187 8cbe
00000220: b08b bd3d 1656 f53c cf62 ffbd 77dd 18be
00000230: d352 d1bd 5459 1f3d 5eed a73d 2196 08be
00000240: ecce 8b3d 738c 1ebd b78d 42be 722d 193e
00000250: 8a7b 09be 7a0b b73d 7339 91bd 41d9 1d3d
00000260: 6d4d 46be f8da cf3d 4bb5 87be 72c7 063e
00000270: 31f6 78bd 9198 de3c 33e7 bbbd ecbe 5f3c
00000280: 11cb d0be ef15 903e 06cb dc3d 2e53 eebd
00000290: 6f48 293e 8a8e b1bc b1d7 67bd 3ef8 89be
000002a0: a100 79bd f488 35be 8249 913e 72bb 393d
000002b0: 4891 12be bc80 913e 0fa5 d9bb 467d 4abe
000002c0: 14cf 06bd f912 8cbe 6e77 013e 8b2e c23d
000002d0: 5155 6dbe 1899 ad3d e852 28be dcbf a0be
000002e0: 96dd 0bbe 8102 81be 5229 bebe e119 043e
000002f0: 41c0 05bd 95a4 d3be 5bb8 0dbe b1be 83be
00000300: 6df1 14be b9db 813d 7f48 013d 2550 8cbd
00000310: bbe8 3f3e 1b44 d93b 31e5 33be 9b16 68bd
00000320: c298 a63c bc9e 6cbd 104b a6b8 f037 bfbd
00000330: 2d25 38be c776 ec3b 6e13 973e 03f2 373d
00000340: 8447 edbc 945e a33d eb71 c0bd 3552 bb3c
00000350: 43a9 38bd b416 8f3e 0c83 a3bd bd7b 25be
00000360: a835 38be f0ad d83d 3842 c8bd 8673 c1bd
00000370: d77a 6cbd 56af 94bd 83e5 5fbe 3db4 8bbe
00000380: a691 113d 89b7 5b3d dcec 2c3d bfac 1fbe
00000390: 4ccf 1f3d 7f3d a33e f850 17be 1f86 25be
000003a0: c80a 7d3e e227 853e 9ec3 37be 6a26 3d3e
000003b0: a589 69be 5e6a 273e 4647 5e3e 6258 6cbe
000003c0: 068c 21b9 385d 893e 8557 13be 41e5 7f3e
000003d0: 3bdc eebd 0f42 253e 094f 96bd e7e6 93bd
000003e0: 82e1 dd3b 9c5d 88bd b60d 5dbe 7b26 94bd
000003f0: 305c 9a3e 28ab 56be 2ebc c8bc a388 fbbd
-0.20141345 0.22286148 0.2896789 -0.1186346 0.10515485 0.047569428 -0.15591346 -0.30180714
0.26441848 0.20267709 -0.0102037145 0.18445018 -0.2756322 0.065728955 0.20616429 -0.035703607
-0.14864555 -0.06759082 -0.20906883 0.07985267 -0.04475569 0.04921067 -0.067142196 0.010703521
-0.23742475 -0.11851918 -0.16238664 0.12324281 -0.018773997 -0.070501074 -0.15375915 -0.017850399
-0.037727583 0.36682928 0.10661666 -0.11037198 0.30589753 -0.17139445 0.0024105592 -0.23594561
0.2043858 0.041920215 0.028194211 -0.007095386 -0.19080068 0.3414078 0.2888814 -0.08045217
0.16526602 -0.033249572 0.06953431 0.19005369 -0.17618792 0.31405717 -0.294681 0.12323658
-0.21300589 0.109275244 -0.104695946 0.17643137 -0.18592197 0.026223322 -0.15008238 -0.21409318
0.011002809 0.019321773 0.12168219 -0.10671066 0.17819053 0.3075332 0.049505364 -0.34865806
0.10311769 0.35169366 -0.0946536 0.12205255 -0.17660953 0.19052282 0.2865728 -0.08518716
-0.11411901 0.25736547 -0.53302974 0.36041602 0.060958914 0.2013317 -0.09206726 0.048565026
-0.111196145 0.091796294 -0.40168583 0.00016275205 0.3299212 -0.21423388 -0.22088629 -0.21167731
0.1640082 0.06810711 0.020085074 -0.09293403 0.09873014 -0.10016818 0.08585911 -0.22907221
0.12035631 0.019284882 -0.12044959 0.0047795614 -0.104301624 0.39406955 -0.03818565 0.0258605
-0.11399945 0.1254684 -0.36037922 0.059113555 -0.055195007 0.31017178 -0.17695633 0.05945588
-0.26645532 0.09785597 -0.09012292 0.215467 0.05993879 -0.06865059 -0.27255186 -0.24583171
0.07115862 0.0762485 0.095859565 -0.09954933 0.23320985 -0.0004965105 -0.058898475 -0.27446797
0.09255159 0.029948276 -0.12470018 -0.14928232 -0.102208756 0.03890355 0.08199571 -0.1333852
0.068265766 -0.03870816 -0.18999372 0.14958742 -0.13426033 0.08937736 -0.07091036 0.038537268
-0.19365473 0.10149187 -0.26505503 0.1316202 -0.06078166 0.027172359 -0.09174957 0.013656359
-0.40779927 0.28141734 0.10780911 -0.11636959 0.16531537 -0.021674413 -0.056602184 -0.26947206
-0.060791615 -0.17728025 0.28376395 0.045344777 -0.14313233 0.2841853 -0.006641991 -0.1977435
-0.03291233 -0.27358225 0.12643215 0.094815336 -0.23177077 0.08476466 -0.16437876 -0.31396377
-0.13658747 -0.25197223 -0.371409 0.12900497 -0.03265405 -0.41336504 -0.13839857 -0.25731423
-0.14545222 0.06340737 0.03156328 -0.06851224 0.18741123 0.0066304333 -0.17567898 -0.056662183
0.020336512 -0.05776857 -7.929478e-05 -0.09336841 -0.17982931 0.007216308 0.2950701 0.044908535
-0.028964765 0.07977024 -0.09396728 0.022866348 -0.045083296 0.2794701 -0.079839796 -0.16160484
-0.17989218 0.10580051 -0.09778255 -0.094458625 -0.057734337 -0.07260005 -0.21864896 -0.27285948
0.03553929 0.05364183 0.042218074 -0.15593241 0.039016053 0.31882855 -0.14776981 -0.16164444
0.24711144 0.2600699 -0.17945716 0.18471685 -0.22806413 0.1634917 0.21706876 -0.2308059
-0.0001540632 0.26828933 -0.14388855 0.24989797 -0.116630994 0.1613848 -0.073392935 -0.072217755
0.0067712674 -0.066584796 -0.21587262 -0.07233902 0.30148458 -0.20963728 -0.024503794 -0.12281921

lstm.hh.rho_weight f4 [128, 32]
00000000: f6c9 2bc0 a799 36c0 e3ed 3fc0 4c47 29c0
00000010: beaf 3ac0 6856 43c0 b0c1 36c0 a28c 3ac0
00000020: db10 3cc0 b8c3 22c0 e5b8 39c0 17f9 21c0
00000030: dbb3 32c0 502f 2ec0 4c14 37c0 6b07 20c0
00000040: df21 25c0 a5a8 11c0 b823 f2bf de54 22c0
00000050: 529e 48c0 e624 3dc0 04b1 37c0 b161 34c0
00000060: c1f0 2ac0 b262 2dc0 7abb 31c0 f373 3fc0
00000070: 3a93 24c0 0f4e 35c0 ee7e 32c0 4da4 34c0
00000080: 27af 35c0 37be 35c0 c8b5 28c0 a5bd 15c0
00000090: 6e37 2ec0 5734 19c0 f4d8 1bc0 1d8b 21c0
000000a0: fdeb 3bc0 8a7e 01c0 a490 1cc0 6ee2 2bc0
000000b0: 3855 37c0 706e 2fc0 af98 30c0 85ff 0fc0
000000c0: cffe 20c0 ca45 1dc0 5800 1fc0 bdaa 35c0
000000d0: 19c5 26c0 6128 2fc0 00ef 20c0 80e9 22c0
000000e0: 13d0 37c0 441a 30c0 8280 2ac0 4ee6 4dc0
000000f0: 96af 2fc0 81b1 29c0 f54a 2ac0 495a 27c0
00000100: db23 33c0 a355 3dc0 bdaf 32c0 393e 42c0
00000110: c1c2 4cc0 2303 2ac0 1779 42c0 4956 2cc0
00000120: 3701 13c0 b674 14c0 5ed7 4bc0 84af 3fc0
00000130: 9ca1 32c0 725c 35c0 a166 2ec0 6234 25c0
00000140: 03f6 33c0 79d2 39c0 4a52 12c0 4ea3 3bc0
00000150: 892f 2ac0 cf1c 47c0 6dc8 19c0 11d3 18c0
00000160: 58d4 37c0 80d1 2fc0 b997 2fc0 184b 3fc0
00000170: 0c1e 3ac0 8683 41c0 f793 4dc0 6e3b 36c0
00000180: 8099 41c0 912c 28c0 2e54 37c0 02be 3ac0
00000190: 28c5 3cc0 76c2 24c0 9e6f 36c0 d42a 26c0
000001a0: c643 2ac0 5d51 23c0 ff1f 34c0 020f 3bc0
000001b0: 6cc9 30c0 bdde 39c0 f8ac 38c0 52a4 e4bf
000001c0: 6f6c 19c0 c68a 27c0 37d9 1dc0 cbd6 2fc0
000001d0: e22d 28c0 2729 42c0 dcc3 36c0 0613 23c0
000001e0: 6f9d 33c0 f7c3 26c0 043f 34c0 786b 40c0
000001f0: 9df6 24c0 19d9 2fc0 4ac9 3cc0 9669 2ec0
00000200: 6f51 1dc0 9df9 3ac0 1c95 34c0 6b32 38c0
00000210: d4a0 25c0 2d52 1dc0 56f8 39c0 29f6 3fc0
00000220: 7424 1ec0 1b03 08c0 15ec 29c0 d4e7 3fc0
00000230: f9c9 47c0 85b5 38c0 a712 2ec0 9f89 22c0
00000240: 9046 13c0 a82e 36c0 f667 13c0 1f8c 38c0
00000250: ec85 3ec0 afba 39c0 01cc 36c0 f8b7 2ec0
00000260: e7a8 1ec0 7690 1ec0 fdac 29c0 771f 23c0
00000270: 27d1 3ec0 2c4d 2ac0 e591 3ac0 f75b 2ec0
00000280: 9a59 36c0 9fc6 39c0 9bc3 41c0 1cc1 3fc0
00000290: 2aa8 37c0 914a 43c0 3cbd 38c0 e22a 2ec0
000002a0: de62 4bc0 efc3 2bc0 47be 36c0 7de2 40c0
000002b0: 66c6 3ec0 3856 34c0 bda0 39c0 1d32 41c0
000002c0: bbc9 38c0 a5c2 26c0 bd96 1dc0 f3e5 2dc0
000002d0: ddcd 30c0 b8bc 3fc0 8349 3ac0 ad5f 34c0
000002e0: 1b31 34c0 bf09 3ac0 4c75 40c0 56b9 46c0
000002f0: 043f 43c0 c12c 3fc0 964b 49c0 18ff 28c0
00000300: 239b 36c0 78ef 41c0 ce68 29c0 6c51 3cc0
00000310: c3d1 35c0 6064 1cc0 5ce2 25c0 ceab 2bc0
00000320: 2440 3cc0 7d22 0fc0 0265 36c0 29ed 30c0
00000330: e999 36c0 77c7 33c0 c0f3 09c0 aff8 24c0
00000340: 7991 20c0 c906 19c0 af0c 10c0 d104 2cc0
00000350: f224 1fc0 1a7d 27c0 3e96 23c0 1164 1ac0
00000360: 59cf 32c0 b2e9 40c0 174b 25c0 3b8b 2ec0
00000370: 18d5 29c0 c5b0 3ac0 36e0 23c0 c656 24c0
00000380: 4163 11c0 16b7 0cc0 ae41 2bc0 1fb4 3ec0
00000390: 42d7 22c0 15c6 17c0 6998 25c0 257f 15c0
000003a0: abff 23c0 c3ba 0dc0 2643 fdbf 47b0 39c0
000003b0: e296 16c0 1ef2 30c0 1eda 28c0 c0a8 0fc0
000003c0: cc92 06c0 1bfe 07c0 4017 0fc0 1f3a 2dc0
000003d0: e5f9 01c0 8cc3 31c0 886e 23c0 8b16 2dc0
000003e0: c946 31c0 3af7 ffbf 6768 18c0 644c 3bc0
000003f0: de41 22c0 7de0 01c0 cd04 0dc0 8291 0cc0
-2.6842017 -2.8531282 -2.9988945 -2.6449766 -2.9169765 -3.0521488 -2.8555717 -2.9148335
-2.9385288 -2.5431957 -2.90191 -2.5308282 -2.7922275 -2.7216377 -2.8606138 -2.5004528
-2.5801923 -2.2759182 -1.891715 -2.53643 -3.134663 -2.955377 -2.8701792 -2.8184626
-2.6709445 -2.709149 -2.7770677 -2.991452 -2.571486 -2.8328893 -2.7889972 -2.8225281
-2.8388155 -2.8397348 -2.636095 -2.3397 -2.7221332 -2.3938196 -2.4351168 -2.5241158
-2.9362786 -2.0233483 -2.4463282 -2.6856952 -2.8645763 -2.7411156 -2.759319 -2.2499707
-2.5155523 -2.4573846 -2.484396 -2.838546 -2.60578 -2.7368395 -2.5145874 -2.5455017
-2.8720748 -2.7516031 -2.6640935 -3.2171817 -2.745092 -2.651459 -2.660825 -2.6148856
-2.7990634 -2.9583519 -2.7919762 -3.0350478 -3.1993868 -2.6564415 -3.0386407 -2.6927664
-2.2969491 -2.3196235 -3.18502 -2.9950876 -2.7911139 -2.8337674 -2.725014 -2.5813222
-2.8118904 -2.9034712 -2.2862725 -2.9318423 -2.6591513 -3.1111333 -2.402858 -2.3878825
-2.8723354 -2.7471619 -2.7436354 -2.9889584 -2.908084 -3.0236526 -3.212156 -2.8473773
-3.024994 -2.62772 -2.864513 -2.9178472 -2.9495335 -2.574369 -2.8505626 -2.596364
-2.6603866 -2.551841 -2.814453 -2.922791 -2.7622938 -2.9042199 -2.8855572 -1.7862647
-2.3972433 -2.617845 -2.4663827 -2.747485 -2.6278005 -3.0337617 -2.8557043 -2.548036
-2.806484 -2.6057107 -2.8163462 -3.0065594 -2.577552 -2.7476256 -2.9497857 -2.7251945
-2.4580953 -2.9214852 -2.821601 -2.8780773 -2.5879412 -2.4581406 -2.9057822 -2.9993994
-2.470975 -2.1251895 -2.6550343 -2.9985247 -3.1217024 -2.886079 -2.7198884 -2.5396497
-2.3011818 -2.8465977 -2.3032203 -2.8835523 -2.976924 -2.9020193 -2.8562014 -2.7299786
-2.479059 -2.4775672 -2.6511834 -2.5487955 -2.9815156 -2.6609602 -2.9151547 -2.724363
-2.8492188 -2.9027479 -3.0275638 -2.9961615 -2.869639 -3.0514262 -2.88655 -2.7213674
-3.1779094 -2.6838338 -2.8553636 -3.0138237 -2.9808593 -2.8177624 -2.9004357 -3.0186837
-2.8873127 -2.6056302 -2.4623253 -2.71716 -2.762565 -2.9958935 -2.9107368 -2.8183396
-2.8154972 -2.9068449 -3.0071592 -3.105062 -3.0507212 -2.9871066 -3.1452384 -2.6405697
-2.8532188 -3.030241 -2.6470218 -2.9424696 -2.8409278 -2.4436264 -2.5919409 -2.6823611
-2.9414148 -2.23648 -2.849915 -2.764475 -2.853144 -2.8090494 -2.1555023 -2.5776784
-2.508879 -2.3910391 -2.2507741 -2.687794 -2.48663 -2.6170106 -2.556045 -2.4123576
-2.7939055 -3.0142636 -2.5827081 -2.727248 -2.6536312 -2.9170392 -2.5605597 -2.5677962
-2.271683 -2.1986747 -2.6758838 -2.9797437 -2.5443883 -2.371465 -2.5874274 -2.3358853
-2.5624797 -2.214524 -1.9786117 -2.901384 -2.3529592 -2.7647777 -2.6383128 -2.2446747
-2.1027098 -2.1248844 -2.235794 -2.7066724 -2.0308774 -2.7775602 -2.5536213 -2.704501
-2.7699454 -1.9997323 -2.3813722 -2.9265375 -2.5352702 -2.0293267 -2.203418 -2.196381

lstm.hh.mu_bias f4 [128]
00000000: e8c0 953e f6d5 263e 42b7 77be 9d04 a43d
00000010: 4a36 513d 14a4 733d 34e7 2bbd 65c1 afbd
00000020: 918a 81be 1af6 7a3e cfed e0bd 5319 413e
00000030: 8dd0 8a3e 748c 59be b5ca 34be 21f2 a8bd
00000040: edee 5abe 64b2 4d3e a1fa 453e d81e b43d
00000050: 81b1 24be 056c f1bb a721 223e ba0b 873e
00000060: cdaf 383e 1b63 073e d2fd 36bd 6728 59be
00000070: ad98 49be 1318 4fbe c685 d53c 1758 3dbe
00000080: 5623 823c 92ed 333c f214 58be 6546 c8bd
00000090: 84ed 30be e8c0 473e 18d1 633d 807c c23d
000000a0: 272d acbe 4387 023f 7861 60be dab3 f83d
000000b0: 2dcb ff3d 8cc4 89bd 2670 02be 7a38 51bc
000000c0: ae47 8cbd 21dc 923e e85d 753e 5cb1 c73b
000000d0: 5192 6b3d 4e6a a73c 66c6 99bd d012 213e
000000e0: 8dde 9f3e c01f c23c f0fb ec3d 60ee 93bd
000000f0: b782 e0bc a338 e3bd 71a8 f7bd f188 ed3d
00000100: cf40 9f3d aa60 82bb 6137 cf3c 83f6 eebd
00000110: fd9f ee3d 4002 4cbc a106 abbd 1b41 a63d
00000120: 0dce 0dbd 4d2a cabe 651d a3bd 986c 07bd
00000130: 0227 7b3d f7c5 a3bd 0860 96bd cef1 ea3d
00000140: 059f 0fbc b973 a7be 75e7 943e 2f12 c63d
00000150: 14fb 563e d9bc adbc c361 2abe 76f7 ea3d
00000160: 85f6 a03d 2621 84bc aa55 853e 0cc1 5b3d
00000170: 65fc 80bb 84b3 d43d c262 02be 57b8 17bd
00000180: 1fcb 713d ec10 80be f1fc 07be 930f 3abd
00000190: f4ba 51be efdc cf3e 499d ffbd b6d0 9cbe
000001a0: 3871 7abe 64aa cd3e e18f 593d 9ca0 52be
000001b0: b1a1 e8bd 39f0 27be dc71 abbd 0ec0 e13e
000001c0: b0fd 3fbc daa9 8f3e 327c d83e c8e9 a9be
000001d0: 4d20 87be ec8e 6fbd 1a54 2bbe 990a 8e3c
000001e0: 8ea1 a3be d206 1dbe ad7c 87bd c7c9 c9bc
000001f0: 8de3 a73d 84a7 d8bd 5d06 36be 8f4c 50be
0.29248738 0.16292557 -0.24191001 0.080086924 0.051077165 0.05948265 -0.04196854 -0.08581809
-0.2530103 0.24507943 -0.109828584 0.18857317 0.27112237 -0.21244985 -0.17655452 -0.082493074
-0.21380205 0.20087582 0.19333889 0.087949455 -0.16083337 -0.0073676133 0.1583315 0.26376134
0.18035813 0.132214 -0.044675656 -0.21206819 -0.19687147 -0.20224027 0.026064765 -0.18490635
0.01588599 0.010981934 -0.2110174 -0.09779052 -0.17278105 0.19507182 0.05561933 0.09496403
-0.33628199 0.50987643 -0.21912181 0.12143679 0.124899246 -0.067269415 -0.12738094 -0.012769813
-0.06849609 0.2868357 0.23961604 0.006094141 0.057512585 0.020436432 -0.075085446 0.15729833
0.3122448 0.02369678 0.11571491 -0.07223201 -0.02740608 -0.11094787 -0.120926745 0.11598385
0.07776033 -0.0039788084 0.025294961 -0.11668112 0.11651609 -0.012451708 -0.08350874 0.08117887
-0.034620333 -0.39485398 -0.07964591 -0.033062547 0.061316498 -0.07996743 -0.07342535 0.11471902
-0.008765941 -0.32705477 0.29082838 0.09671437 0.20994216 -0.021208214 -0.16638856 0.11472981
0.0785952 -0.016129088 0.2604192 0.0536509 -0.003936338 0.103858024 -0.12732986 -0.037041035
0.059031602 -0.2501291 -0.13280083 -0.04542501 -0.20481473 0.40598246 -0.12481172 -0.30627984
-0.24457252 0.4016906 0.05311573 -0.2056908 -0.11358965 -0.16400231 -0.08371326 0.4409184
-0.011718199 0.28059274 0.42282254 -0.33186173 -0.2639183 -0.05848591 -0.16731301 0.017339038
-0.31959194 -0.15334633 -0.06615577 -0.024632348 0.08197699 -0.10578826 -0.17775865 -0.20341705

lstm.hh.rho_bias f4 [128]
00000000: f442 20c0 11a2 0fc0 e160 0bc0 247a 00c0
00000010: 4597 0cc0 daef 0dc0 010e 05c0 42fc e5bf
00000020: a5d9 00c0 c623 b0bf df86 efbf 9bb0 f1bf
00000030: 6c2f 06c0 88b9 dabf be1b 09c0 2a0c 13c0
00000040: de65 14c0 6879 09c0 3330 06c0 77d8 b5bf
00000050: 15be ffbf 5420 f7bf c010 08c0 72ac fabf
00000060: 6ae6 09c0 3cb4 fdbf 3763 03c0 7f7d f9bf
00000070: 48b9 f9bf 578a 15c0 65f7 12c0 fb8b 11c0
00000080: 50f0 10c0 cf16 1fc0 2288 f4bf 3f8f 18c0
00000090: 0fec 18c0 32c0 14c0 304b 1fc0 a5f5 ffbf
000000a0: 7704 2dc0 0f7d 03c0 823a 07c0 e81e f4bf
000000b0: dc06 fdbf 7e9d 05c0 31f7 1dc0 d62d ffbf
000000c0: 5a31 1cc0 d865 febf 505b 25c0 c731 0cc0
000000d0: 7fed 0dc0 26d9 10c0 32c0 05c0 2ddd 0bc0
000000e0: 78e2 23c0 46af 23c0 0bac 13c0 ad12 fdbf
000000f0: 73f0 20c0 9d32 21c0 4354 08c0 ab8b 06c0
00000100: d604 2dc0 0368 1dc0 2b5e 13c0 8760 18c0
00000110: 2918 1dc0 d8eb 1fc0 5a0f 07c0 dd22 3ec0
00000120: c7d7 2fc0 37d4 d4bf dad4 13c0 9815 26c0
00000130: a316 23c0 6d6d 1cc0 dd38 02c0 0649 1bc0
00000140: 896f 1ac0 c0fd e1bf 2a11 d0bf 3098 36c0
00000150: 8585 0dc0 dd13 24c0 23c9 2dc0 d90a 2ec0
00000160: 23d3 15c0 fc66 0cc0 a2f9 10c0 36fd 2bc0
00000170: e4b1 2ec0 cc5b 24c0 6435 4cc0 44e3 36c0
00000180: 343f 19c0 b606 4ac0 00e9 1dc0 7334 1ec0
00000190: 0e33 21c0 a181 19c0 2c38 2ac0 0a20 46c0
000001a0: a827 22c0 e125 27c0 a4e4 31c0 f4e8 21c0
000001b0: b3f4 3fc0 f3d1 45c0 b613 26c0 2c73 23c0
000001c0: d9b4 22c0 56f8 1bc0 868d 1ec0 60b8 29c0
000001d0: 61fa 34c0 3669 28c0 ec00 29c0 0d7b 1dc0
000001e0: c6b1 2ec0 289d 30c0 2d48 0ec0 d893 2bc0
000001f0: f431 25c0 2817 27c0 9177 17c0 2ecb 1ac0
-2.5040865 -2.2442667 -2.177788 -2.0074549 -2.1967328 -2.2177644 -2.0789797 -1.7967608
-2.013284 -1.3760917 -1.8713034 -1.8882021 -2.0966444 -1.708787 -2.1423182 -2.2976174
-2.3187175 -2.148035 -2.0966918 -1.4206685 -1.9979883 -1.9306741 -2.1260223 -1.9583876
-2.1546884 -1.9820628 -2.0529306 -1.9491423 -1.9509668 -2.3365686 -2.2963498 -2.2741687
-2.2646675 -2.4857671 -1.9104044 -2.383743 -2.3894079 -2.3242307 -2.488964 -1.999684
-2.7033975 -2.054508 -2.112946 -1.9071932 -1.9767718 -2.0877376 -2.4682124 -1.9935863
-2.4405122 -1.987483 -2.5836983 -2.1905382 -2.2176206 -2.2632537 -2.0898557 -2.1853745
-2.5606976 -2.5575728 -2.3073757 -1.9771324 -2.5146759 -2.5187142 -2.130143 -2.1022747
-2.7034202 -2.4594734 -2.3026226 -2.3808916 -2.4545996 -2.4987698 -2.110312 -2.970878
-2.747545 -1.6627263 -2.3098664 -2.595068 -2.5482566 -2.4441788 -2.0347207 -2.426332
-2.4130576 -1.7655563 -1.6255238 -2.8530388 -2.2112744 -2.5637124 -2.7154014 -2.719412
-2.3410118 -2.1937857 -2.2652364 -2.6873298 -2.7296076 -2.5681028 -3.1907587 -2.8576212
-2.3944826 -3.1566596 -2.4673462 -2.4719512 -2.5187411 -2.398537 -2.6596785 -3.0957055
-2.5336704 -2.611687 -2.77958 -2.5298433 -2.9993103 -3.0909393 -2.594953 -2.5539045
-2.542288 -2.4370322 -2.477388 -2.6518784 -2.827782 -2.6314216 -2.6406813 -2.4606354
-2.7296004 -2.759592 -2.2231553 -2.6808987 -2.581174 -2.6107883 -2.3666728 -2.418651

l1.mu_weight f4 [16, 32]
00000000: 710f 013f fda5 f5be 59c3 c3be 7b95 b73e
00000010: 4990 c3be ce89 963e 3a6b a23e 1b0c 8c3e
00000020: ae61 bcbe 6a2d 9d3e e228 97be 0ca5 f7be
00000030: 0f35 cb3e 5194 9ebe a3c4 36be 1eea b83e
00000040: cb14 8c3e da39 843e 602e 33be 2ec7 9abe
00000050: be2a db3e 5068 c2be 5876 dd3e d024 873e
00000060: 1756 0e3f a2e9 9b3e 1c9f aa3e 17d0 debe
00000070: d3cf 233e a9d2 cb3e d604 c23e 89d5 173f
00000080: 6e5b dfbe db20 023f eb8b 023f 907d e1be
00000090: 14d8 c63e 5203 0abf 680f 0bbf 87a3 a3be
000000a0: 8296 1c3f c261 b8be 821e f43e b041 043f
000000b0: 46e4 9ebe a115 0b3f c68b d13e 019b bbbe
000000c0: a446 b2be 275a 8fbe ee0e a33e 48f4 073f
000000d0: 63ce 93be c551 cb3e 64fc c5be e9c0 17bf
000000e0: 32c4 f5be dd18 04bf b90a a5be 94e1 bd3e
000000f0: fe60 e3be 795a 23bf b305 fdbe 1537 08bf
00000100: 98b4 90be 2e04 273f dc20 f73e 9a83 c6be
00000110: eef9 d33e f93f 84be ed60 00bf c34f cebe
00000120: 1bcc be3e 39aa 84be 71c7 683e 1196 b13e
00000130: 55ab 0ebf e700 183f 1e6a 023f 7629 cabe
00000140: 76a5 d2be 59e2 26be 0e22 2b3e 21de d53e
00000150: 25d7 05bf 3cbc df3e 63ab e2be f355 05be
00000160: 8e7d 0cbf fc43 19bf 5582 6fbe 6402 cd3e
00000170: b2f7 f7be 697c fbbe 6f20 dcbe 17df 0cbf
00000180: 0142 09bf f8bb c63e 1c28 6e3e f906 a7be
00000190: 11b7 c83e 93f3 ffbe a0ae 29bf 6f0a fbbe
000001a0: 6fd2 123f 2f35 05bf fd1f 7e3e 6ac6 ef3e
000001b0: e61d 01bf 7755 e23e d23d ba3e 34cb babe
000001c0: 3f7b dabe e15b 97be 27f0 753e d8d6 003f
000001d0: 2e2c b7be a600 023f f641 01bf ff6e f4be
000001e0: 71b1 e0be f86b e8be f602 d5be b996 2c3f
000001f0: 0a5a c2be c90b 1abf 13ee babe d50c 10bf
00000200: a929 25bf f1b4 ab3e a1d1 fa3e 92aa 10bf
00000210: acd2 e73e 78b2 93be 6a0d 0fbf 97d8 00bf
00000220: a9f0 813e 9de9 2cbc 9d9e bc3e 6b15 f33e
00000230: 434e 00bf 5da2 a63e cf67 b43e deb9 d6be
00000240: 6dfd f8be be72 5dbe 5396 bf3e 9d54 263f
00000250: 9b30 c7be 77fa 023f c4f8 a2be 795e a0be
00000260: 8da2 cfbe ce24 02bf 9741 9bbe 46e3 023f
00000270: c33f 1bbf f00d 85be 7dfe 11bf d48a c2be
00000280: 5817 e5be e497 003f 6436 1f3f 5be9 cfbe
00000290: 3596 e43e 1de9 c8be bbdb f5be e05d cdbe
000002a0: c11f de3e 077d a6be bd57 9e3e 63a1 d43e
000002b0: 874e dcbe 3389 123f fe9b 053f 957e c5be
000002c0: 563f 7fbe b9b3 78be 49b7 f23d 4b2d ce3e
000002d0: 0507 3cbe 9675 203f 4fd4 9dbe 5fa8 20bf
000002e0: 5004 0abf c03a 0bbf 4644 e5be a12f 003f
000002f0: cbf4 1abf d38f e1be 4f8d 17bf aa09 dbbe
00000300: 55f9 f3be 3714 f63e e68e eb3e df21 01bf
00000310: 3451 d33e 5acb 69be ca01 c5be 8097 e8be
00000320: 89a2 c03e ca8e 5fbe 05e3 023f f0f9 1b3f
00000330: 15f0 0cbf 1552 e43e bab5 0b3f bc60 dcbe
00000340: c14f 02bf 3a7b 02be 133b 633e cb0f be3e
00000350: 8381 0ebf 99e6 b93e 092e e1be 1e97 1bbf
00000360: d083 cebe 96bc 0cbf bd34 d1be bce7 cb3e
00000370: 3ee3 f3be 94e2 f5be ab45 16bf 51f0 04bf
00000380: 6216 d8be 6eab 2e3f da99 313f de0f bdbe
00000390: 51ea f43e 3dff b3be c68e 06bf 1fad e3be
000003a0: 7267 bf3e 34cc 33be 304c e13e 72d2 033f
000003b0: c0b6 e7be 2273 9a3e 88da dd3e e07a cabe
000003c0: 6121 14bf 6895 6abe 1594 4e3e 3d2b f93e
000003d0: 0f1d efbe 7a83 e53e 4247 12bf 3b0d ddbe
000003e0: 4b79 09bf fef7 debe 944a b4be a80a ec3e
000003f0: 9dff 0abf 5f99 06bf 2ca1 29bf 7e92 e5be
0.50414187 -0.47978202 -0.38234976 0.35856232 -0.38196018 0.29402012 0.31722432 0.27352986
-0.36793274 0.3069871 -0.2952338 -0.48368108 0.39688918 -0.3097253 -0.17848448 0.36116117
0.27359614 0.25825387 -0.1749816 -0.30230087 0.42806047 -0.3797021 0.43254352 0.26395273
0.5560011 0.30451685 0.33324516 -0.43518135 0.15997247 0.39809158 0.37894315 0.59310204
-0.43624443 0.50831383 0.5099475 -0.4404111 0.3883673 -0.53911316 -0.54320383 -0.319607
0.61167157 -0.36012083 0.47679526 0.5166273 -0.31033534 0.5432988 0.4092695 -0.36641696
-0.3481952 -0.27998468 0.31847328 0.5310712 -0.28868398 0.39710823 -0.3866912 -0.5927873
-0.48001248 -0.5160044 -0.32234743 0.37086165 -0.44409937 -0.63809925 -0.4941841 -0.5320905
-0.28262782 0.6524075 0.48267257 -0.3877228 0.4140162 -0.25830057 -0.50147897 -0.40295228
0.37265095 -0.2591112 0.22732331 0.34684804 -0.5573018 0.59376377 0.5094317 -0.39484757
-0.41141862 -0.16297282 0.1671221 0.41771033 -0.5228141 0.436983 -0.44271383 -0.13021068
-0.5487908 -0.5986936 -0.23389561 0.40040886 -0.48431164 -0.49118355 -0.42993495 -0.5502791
-0.5361634 0.38815284 0.23257488 -0.32622507 0.3920217 -0.4999052 -0.6628208 -0.49031398
0.57352346 -0.52034277 0.2481689 0.46831065 -0.50436246 0.4420583 0.3637529 -0.36483157
-0.42672154 -0.29562286 0.24017392 0.50327826 -0.35775894 0.5078224 -0.50491273 -0.47740933
-0.43885377 -0.45394874 -0.41603822 0.67417485 -0.3795932 -0.6017423 -0.3650976 -0.5626958
-0.64516693 0.33536485 0.4898806 -0.5651027 0.45277917 -0.28847098 -0.55879843 -0.5033049
0.25378922 -0.010553745 0.36839762 0.47477278 -0.5011942 0.32545748 0.3523545 -0.4193868
-0.4863085 -0.21625802 0.37419376 0.6497286 -0.3890427 0.5116343 -0.31830418 -0.31322077
-0.40553704 -0.5083741 -0.3032348 0.5112804 -0.6064417 -0.25987196 -0.57028943 -0.37996542
-0.44744372 0.50231767 0.6219237 -0.40607724 0.4464585 -0.3924035 -0.48019204 -0.40110683
0.433836 -0.32517263 0.30926314 0.41529378 -0.43028662 0.572406 0.5219115 -0.38573137
-0.24926504 -0.24287309 0.11851365 0.4026893 -0.18362053 0.6267942 -0.3082604 -0.62756914
-0.5391283 -0.5438652 -0.4477865 0.50072676 -0.60529774 -0.44055042 -0.59199995 -0.4278081
-0.47651163 0.48062298 0.4600746 -0.5044231 0.4127289 -0.22831479 -0.38477927 -0.45428085
0.37624004 -0.21831813 0.51127654 0.6092825 -0.55053836 0.44593874 0.5457417 -0.43042552
-0.50902945 -0.1274232 0.22190504 0.37121424 -0.5566637 0.36308745 -0.43980435 -0.6077746
-0.4033494 -0.5497526 -0.4086055 0.39825237 -0.4763431 -0.48024428 -0.58700055 -0.51929194
-0.42204577 0.6823033 0.69375384 -0.36926168 0.4783502 -0.3515567 -0.52561605 -0.44468018
0.3738361 -0.17558366 0.4400344 0.5149299 -0.45256615 0.30165964 0.4333079 -0.3954687
-0.5786343 -0.22908556 0.20173676 0.486658 -0.46701857 0.4482687 -0.5713998 -0.43174157
-0.53700703 -0.43548578 -0.3521315 0.4610188 -0.54296285 -0.52577776 -0.66261554 -0.44838327

l1.rho_weight f4 [16, 32]
00000000: 06ff 36c0 d58e 44c0 9cd6 5cc0 103a 49c0
00000010: e6d2 40c0 4f82 33c0 6d36 3cc0 0a28 36c0
00000020: 4b90 35c0 ebde 4cc0 7d1e 3ec0 b8fc 31c0
00000030: 92ab 4fc0 8bf2 30c0 e322 3ac0 b48d 3dc0
00000040: 5d91 3cc0 d355 3dc0 2b23 3fc0 590c 3fc0
00000050: 08cd 39c0 8aef 41c0 2724 3fc0 ff35 3cc0
00000060: 92bd 41c0 fa0c 3fc0 0d99 30c0 8ac3 30c0
00000070: 7e9c 39c0 3fc6 43c0 52a8 4ac0 9035 40c0
00000080: 1094 2dc0 407d 37c0 f97b 3dc0 088b 2ac0
00000090: 27c5 3cc0 b4f7 56c0 3b3c 38c0 301b 4ac0
000000a0: 7e10 3ec0 b740 3fc0 0d23 4dc0 930a 38c0
000000b0: 6349 3fc0 2da4 48c0 ccbb 47c0 9f43 3bc0
000000c0: 7305 34c0 d3df 2fc0 b3db 51c0 8489 3ec0
000000d0: 1415 4bc0 a050 31c0 9333 28c0 8e79 4ac0
000000e0: 45da 3ec0 3c6e 45c0 3943 45c0 3835 2ac0
000000f0: 906c 49c0 633d 2ac0 4585 45c0 fbcf 53c0
00000100: 9624 52c0 66f8 20c0 a06c 4ac0 4c96 4ac0
00000110: 733f 3ac0 9ab6 3cc0 e0eb 49c0 1c5a 2ec0
00000120: 950a 49c0 149b 3ec0 27d7 3bc0 3f72 41c0
00000130: ae5a 37c0 9140 4fc0 8aa2 4fc0 671f 42c0
00000140: 49d7 48c0 16fb 2dc0 844e 33c0 02e3 41c0
00000150: 4ae7 35c0 6b1b 3ac0 dfee 3fc0 d271 48c0
00000160: 525b 37c0 74f7 3bc0 f0f7 36c0 caf3 48c0
00000170: 455c 47c0 6fe6 34c0 29da 3ac0 46bd 32c0
00000180: d98b 3ec0 8ab5 4ec0 9458 37c0 3d73 39c0
00000190: 99da 43c0 5eec 45c0 3623 33c0 2cca 31c0
000001a0: 3484 30c0 1769 3ec0 0648 4cc0 c6c4 50c0
000001b0: 5035 3ec0 42e5 47c0 01f5 42c0 7ec0 3bc0
000001c0: 4fbd 3bc0 51b2 4bc0 67ac 41c0 8e6a 2fc0
000001d0: f18e 36c0 1bc4 54c0 7d39 48c0 e3da 39c0
000001e0: b89c 4ec0 1960 3cc0 6afb 55c0 3a86 2cc0
000001f0: ad76 37c0 0d18 4ac0 70bb 4fc0 e5ec 38c0
00000200: 78e1 2dc0 b8e3 45c0 5322 51c0 acf0 39c0
00000210: 796a 4dc0 ed4d 3dc0 5db7 3bc0 a42a 2dc0
00000220: 651c 39c0 1524 37c0 4928 46c0 2a06 49c0
00000230: 0c7c 3cc0 8ace 3dc0 244f 3dc0 0921 30c0
00000240: 36c8 37c0 85b5 4ac0 1a14 50c0 1fe0 43c0
00000250: 7a46 3ec0 009b 43c0 85b0 59c0 8b10 3dc0
00000260: 8d30 42c0 f08b 3bc0 2d85 3ac0 4e4f 3bc0
00000270: a617 35c0 1ff0 3ac0 d5ae 43c0 b51c 25c0
00000280: 037c 43c0 93eb 33c0 a2d6 40c0 f6a7 35c0
00000290: 1eb7 44c0 ff5a 2bc0 648f 3ac0 3c19 33c0
000002a0: 2caf 41c0 5d49 38c0 6ea0 3fc0 389e 43c0
000002b0: 757c 3bc0 f86a 34c0 f2b4 43c0 cb43 41c0
000002c0: 00ef 21c0 7fed 45c0 bb52 3cc0 242d 4dc0
000002d0: 700d 44c0 8c9d 5bc0 a1bb 3ac0 90e2 33c0
000002e0: 2651 2fc0 3ed6 2ec0 7bf8 4ec0 31c0 3dc0
000002f0: e9ce 24c0 3687 58c0 2a13 34c0 0ef8 30c0
00000300: 5290 34c0 e131 43c0 addd 56c0 a2b8 46c0
00000310: d896 4bc0 8c95 4dc0 41b1 46c0 36ad 3dc0
00000320: 37e6 47c0 8485 36c0 ab52 46c0 60f7 3fc0
00000330: e20b 41c0 31de 39c0 90ce 45c0 25ac 44c0
00000340: 6c11 33c0 1c23 37c0 c6fb 1fc0 0e04 45c0
00000350: ec31 4dc0 1a46 36c0 88d3 30c0 6ec5 33c0
00000360: db6d 46c0 9a89 3fc0 cbb4 4bc0 a7a7 40c0
00000370: 688a 3ec0 d5d2 3dc0 8e20 3fc0 fd4b 3cc0
00000380: 0697 51c0 13df 49c0 242e 25c0 0bed 37c0
00000390: e88b 3dc0 5c89 44c0 b2e0 4dc0 2576 47c0
000003a0: fd55 2cc0 3c18 3ac0 2a4f 31c0 7fdc 50c0
000003b0: 91ec 41c0 6d00 41c0 6a66 40c0 1b36 4bc0
000003c0: b05a 38c0 9e91 55c0 1509 30c0 581b 3bc0
000003d0: 0381 4ac0 7b33 39c0 b79f 34c0 e652 42c0
000003e0: 3b25 38c0 0ab2 40c0 8864 42c0 76c8 44c0
000003f0: a19c 18c0 c1c3 2dc0 ff48 42c0 5ab9 34c0
-2.8593154 -3.0712178 -3.4505987 -3.1441689 -3.0128722 -2.8048284 -2.940822 -2.8461938
-2.836932 -3.2011058 -2.9706109 -2.7810497 -3.2448468 -2.7648036 -2.9083793 -2.9617739
-2.9463723 -2.9583633 -2.9865215 -2.9851286 -2.903139 -3.0302453 -2.9865816 -2.9407957
-3.0271955 -2.985167 -2.7593415 -2.7619348 -2.9001765 -3.058975 -3.1665235 -3.0032692
-2.712162 -2.8670197 -2.9606917 -2.6647358 -2.9495332 -3.3588686 -2.8786762 -3.1579094
-2.9697566 -2.9883249 -3.2052643 -2.8756454 -2.9888542 -3.1350205 -3.1208372 -2.9260023
-2.8128326 -2.7480361 -3.2790344 -2.9771433 -3.1731615 -2.770546 -2.6281478 -3.163669
-2.982072 -3.0848532 -3.082228 -2.6594982 -3.1472511 -2.6599967 -3.0862591 -3.3095691
-3.283483 -2.515161 -3.16288 -3.1654234 -2.9101226 -2.948645 -3.1550217 -2.7242498
-3.1412709 -2.9782152 -2.9350069 -3.022598 -2.8649096 -3.2383158 -3.2442956 -3.0331666
-3.13814 -2.71845 -2.8016672 -3.0294805 -2.8422418 -2.9079235 -2.9989545 -3.131947
-2.8649487 -2.9369783 -2.858883 -3.1398797 -3.1150067 -2.8265646 -2.9195654 -2.7928023
-2.9772856 -3.2298303 -2.8647814 -2.8976586 -3.0602171 -3.0925517 -2.799024 -2.7779646
-2.758069 -2.9751642 -3.191896 -3.26201 -2.972004 -3.1233678 -3.0462039 -2.9336238
-2.9334295 -3.1827586 -3.0261476 -2.7408786 -2.8524745 -3.3244693 -3.1285088 -2.9039848
-3.2283154 -2.9433653 -3.34347 -2.6956925 -2.8666184 -3.157718 -3.2458153 -2.889459
-2.7168865 -3.0920238 -3.26772 -2.9053144 -3.2096236 -2.9578812 -2.9330666 -2.7057276
-2.892358 -2.8615773 -3.0962088 -3.1410012 -2.9450712 -2.9657311 -2.9579554 -2.7520163
-2.871595 -3.167329 -3.251227 -3.0605543 -2.9730515 -3.0563354 -3.401399 -2.9541347
-3.0342133 -2.930416 -2.9143784 -2.9267154 -2.8295684 -2.9209058 -3.057546 -2.5798771
-3.054444 -2.8112533 -3.0131001 -2.8383765 -3.0736766 -2.677429 -2.9150019 -2.7984152
-3.0263166 -2.8794777 -2.9941669 -3.056532 -2.9294713 -2.8190289 -3.057919 -3.0197628
-2.5302124 -3.0926206 -2.9425495 -3.2058802 -3.0633202 -3.431491 -2.917702 -2.8107033
-2.739328 -2.7318263 -3.233916 -2.9648554 -2.5751288 -3.3832526 -2.8136697 -2.76514
-2.8213086 -3.0499194 -3.35728 -3.105019 -3.1810818 -3.2122526 -3.1045687 -2.963697
-3.1234262 -2.8518991 -3.0987957 -2.9994736 -3.0163503 -2.9041865 -3.0907326 -3.0730069
-2.7979383 -2.861518 -2.499742 -3.0783725 -3.206172 -2.8480287 -2.7629108 -2.8089252
-3.100455 -2.9927735 -3.1829097 -3.0102327 -2.9771976 -2.9659932 -2.986362 -2.942138
-3.2748427 -3.1542404 -2.5809412 -2.873843 -2.9616642 -3.0708838 -3.2168393 -3.116586
-2.6927483 -2.9077291 -2.7704568 -3.263458 -3.0300639 -3.015651 -3.0062509 -3.1751773
-2.8805351 -3.3370128 -2.7505543 -2.923544 -3.1641243 -2.893767 -2.8222482 -3.0363097
-2.8772724 -3.0108666 -3.037386 -3.0747352 -2.3845599 -2.7150729 -3.0357053 -2.823813

l1.mu_bias f4 [16]
00000000: 8b63 c6be 32d9 ee3e 6ff3 c03e 96be 103f
00000010: 4e3d c63e e823 9b3e 8458 0c3f f392 d03e
00000020: 351c c73e 48d3 ddbe 6c03 aabe 3673 eabe
00000030: 024c 893e e657 ef3e cb03 fb3e d207 efbe
-0.3874782 0.46650082 0.37685725 0.5654081 0.38718647 0.30300832 0.54822564 0.40737113
0.38888708 -0.43325257 -0.33205736 -0.45791024 0.26815802 0.4674675 0.4902633 -0.46685654

l1.rho_bias f4 [16]
00000000: 8b75 2bc0 7879 37c0 f529 46c0 d901 38c0
00000010: bc8b 38c0 0753 48c0 fa58 37c0 8063 3dc0
00000020: 6ea4 3fc0 6b7c 30c0 b1cf 29c0 b7fd 3ec0
00000030: c1d8 37c0 6442 33c0 f340 34c0 1a19 47c0
-2.6790493 -2.8667889 -3.0963109 -2.8751128 -2.8835287 -3.1300676 -2.8648057 -2.959198
-2.994411 -2.7575939 -2.6533015 -2.9842355 -2.8726046 -2.8009272 -2.8164642 -3.110907

l2.mu_weight f4 [1, 16]
00000000: 808e f8be 01a6 1e3f 3000 053f 9084 173f
00000010: a2f1 0c3f 0c8a 0b3f d26f 2d3f 25fb 0b3f
00000020: c496 083f d04f 10bf ae81 00bf 506a 1abf
00000030: 9ed3 123f 4b66 0c3f 9ce2 103f 7c7f 13bf
-0.4854622 0.6197205 0.5195341 0.5918665 0.550562 0.5450752 0.6774875 0.5468009
0.5335505 -0.56371784 -0.50197875 -0.6031847 0.5735415 0.54843587 0.5659578 -0.576164

l2.rho_weight f4 [1, 16]
00000000: 1ed4 52c0 ff12 52c0 1c0b 42c0 2c4a 51c0
00000010: 4348 5ac0 6d38 4bc0 90e9 4ac0 53d9 44c0
00000020: f2ca 5bc0 4d20 4bc0 6c2f 36c0 61e8 5ac0
00000030: 1181 4fc0 9939 45c0 c048 4ec0 3563 54c0
-3.2941966 -3.2824094 -3.031928 -3.270152 -3.4106605 -3.175319 -3.1705055 -3.0757644
-3.4342618 -3.1738465 -2.8466444 -3.4204333 -3.2422526 -3.0816405 -3.2231903 -3.318555
