verification_set/verification_state.pt (torch, 57845 bytes, 14 tensors)

lstm.ih.mu_weight f4 [128, 14]
000000 2d d0 d8 bf 67 b4 42 bf 9a 24 4f bf 5b 00 ad be
       -1.693853 -0.7605652 -0.80915225 -0.33789334
000010 43 00 f0 be 03 94 5f bc 7e 13 e1 bf 06 c7 16 be
       -0.468752 -0.013646129 -1.7584074 -0.14724359
000020 76 1e 54 bf 7f 32 22 3e 4c b8 fe 3d 6a e3 ae be
       -0.8285898 0.15839575 0.124374956 -0.34157878
000030 50 60 f4 bf dc 87 59 3e ad 4c 83 be 01 be 8e 3e
       -1.9091892 0.21243232 -0.25644436 0.27879336
000040 5d a7 1f 3e 6d 76 69 bb 96 14 f6 3d ab 8c c4 3e
       0.15591188 -0.0035623566 0.12015645 0.3838857
000050 fc 8a e3 3b 18 df e2 3e cd 0d 09 bd 4b a7 6c 3d
       0.0069440585 0.44310832 -0.033460427 0.05777673
000060 86 30 e3 3e df 3d ac 3e 83 81 2e 3f 56 bc e4 bc
       0.44372958 0.33640954 0.6816637 -0.027921837
000070 1e f3 85 bd 48 52 8c be b4 e0 92 3e 3a b5 33 3e
       -0.065405115 -0.27406526 0.2868706 0.17549601
000080 02 44 ff 3d da 23 81 3d 93 0a 9f 3e 46 01 80 3e
       0.12464143 0.06305666 0.31062755 0.25000972
000090 ba a5 02 be c4 ec 5e 3f 26 ca 91 3e 47 19 86 3e
       -0.12758532 0.87080026 0.2847454 0.2619116
0000a0 b2 db 73 bf 68 5d 06 3e db 87 00 3e be 28 2e 3e
       -0.95257103 0.13121569 0.12551825 0.1700773
0000b0 2c 36 b7 3e b3 40 36 3f c6 13 12 3e 42 7b 34 3f
       0.35783517 0.71192473 0.14265355 0.70500576
0000c0 0c 16 4d 3e 15 6a 71 3e 20 c5 e1 3d e1 6f 92 3d
       0.20027941 0.23575623 0.11023927 0.071502455
0000d0 e0 8a c7 bd 87 64 a3 3e f1 a2 e5 bd e7 33 8f 3d
       -0.09743285 0.31912634 -0.11212719 0.069923215
0000e0 d0 73 8a 3e b1 0f 88 3e 29 40 9b 3e 6c 28 73 3e
       0.27041483 0.26574472 0.30322388 0.23745888
0000f0 f3 22 7c 3e 75 3e be 3e 71 7d 49 3e 17 a2 be 3e
       0.24622707 0.37157026 0.19676758 0.3723304
000100 00 ba 9f 3e 9d 73 8a 3e 1d c9 8f 3e 85 58 b6 3e
       0.31196594 0.2704133 0.28083125 0.3561441
000110 46 17 e8 3e 67 67 93 3e 20 10 61 3e 28 58 33 3e
       0.45330256 0.28789827 0.21978807 0.17514098
000120 9f 53 c1 3d 2c c6 06 3e c5 d2 f8 3d 0e b5 a9 3d
       0.094397776 0.13161534 0.12149576 0.082864866
000130 12 19 ea 3d a2 18 2e 3e 03 81 c0 3d 13 c8 0e 3e
       0.11430563 0.17001584 0.09399607 0.1394351
000140 16 31 eb 3b b7 fb 20 bd 80 3e 41 3e 49 62 f6 3d
       0.0071774824 -0.039302554 0.18871498 0.12030465
000150 e8 3e 3e bf ee 7f a9 be e6 5f 5f be b3 9a 61 bc
       -0.7431474 -0.33105415 -0.21813926 -0.013769793
000160 40 dd 1c be ad 13 84 be de 04 2c bf 5f ca ff be
       -0.15318775 -0.2579626 -0.67194927 -0.49959084
000170 17 42 4c be b1 1f 45 be 26 4a 7c be 96 ef 69 be
       -0.19947086 -0.1925037 -0.2463766 -0.22845301
000180 0f 5b 9b bf 8b 95 37 ba 4b b4 78 3f 9e b6 1b 3f
       -1.2137164 -0.00070031796 0.97150105 0.60825527
000190 43 8f 66 3f ab 93 4a 3c a1 5a ef 3e 6c b4 9b 3d
       0.9006235 0.012364308 0.46748832 0.07602772
0001a0 27 d8 aa 3e 04 6f aa 3d f4 9e ba 3d ab a8 25 3f
       0.33368036 0.08321956 0.09112349 0.6471049
0001b0 5a 84 02 3f 14 1f 23 3f 13 c0 8b 3f 87 b3 2d 3f
       0.509832 0.63719296 1.0917991 0.6785206
0001c0 8f a5 84 3e f8 f0 a8 3e 89 b8 a3 3e 08 4b a6 3e
       0.2590756 0.32996345 0.31976727 0.3247912
0001d0 b5 43 c4 3e 89 51 bd 3e d5 bb a5 3e 45 b8 a6 3e
       0.38332906 0.3697627 0.32369867 0.32562461
0001e0 4d df a8 3e 53 a9 ad 3e c9 cb b0 3e b7 b6 ce 3e
       0.32982865 0.33918247 0.34530476 0.40373775
0001f0 26 50 d0 3e bb ea 99 3e 07 8e 8f be 90 2f a9 be
       0.40686148 0.30061898 -0.28038046 -0.330441
000200 23 2f 87 be 2e 71 1e bf 7a 9c f9 be 7a 21 90 be
       -0.2640315 -0.6189145 -0.48752195 -0.2815054
000210 23 ac fe be 26 a9 cb bd 85 fc 33 bf c0 66 14 bf
       -0.49740705 -0.09944372 -0.7030719 -0.57969284
000220 72 f2 76 be 6d 8d af be d8 62 1e bf 87 7e 4d bd
       -0.24115923 -0.34287587 -0.61869574 -0.050169494
000230 3c b1 b4 3e 27 8b 16 3f b9 35 c2 3e 74 f1 dc 3e
       0.3529147 0.5880608 0.37931612 0.43152964
000240 66 60 45 3e a3 18 39 3e fc 4c 8b 3e dc 13 55 3f
       0.19275054 0.18075804 0.27207172 0.8323343
000250 2b a9 21 3f 54 bd ac 3e 93 1f ec 3e ce 12 17 3e
       0.63148755 0.33738196 0.4611784 0.14753267
000260 9c db f9 3e e3 4f 73 3f a7 91 e9 3e 26 bd a4 3f
       0.4880036 0.9504377 0.45618936 1.2870224
000270 fc d5 2d 3f ee 13 79 3f 7b b9 d8 3e 10 94 a0 3f
       0.6790464 0.97296035 0.4232901 1.2545185
000280 1a 8c 7a be b8 20 a9 3f d3 5a 0e 3f b5 c0 79 3f
       -0.24467507 1.321311 0.55607337 0.9755967
000290 b1 4e bc 3f 06 be 36 3f 77 47 02 bf 52 6e 69 3f
       1.4711515 0.713837 -0.50890297 0.9118396
0002a0 34 8b 9e bf 87 98 20 bf c3 26 32 bf cf 3f 27 3c
       -1.2386231 -0.6273274 -0.69590396 0.010208084
0002b0 e1 59 19 bf 5b 42 05 bf 50 b9 8d bf 3c af ee be
       -0.5990277 -0.52054375 -1.1072178 -0.46618068
0002c0 af b1 6d bf 4f 7f 7b be 56 6c 4b be 29 a5 2a bf
       -0.9284925 -0.24560283 -0.19865546 -0.66658264
0002d0 95 55 ca bf d0 34 1b bf 4f 98 ab be 7a 51 7a be
       -1.5807368 -0.6062746 -0.3351464 -0.24445143
0002e0 98 70 4b be d3 23 8a be 45 14 81 be 0a 67 c6 bd
       -0.1986717 -0.26980457 -0.25210777 -0.09687622
0002f0 bc 09 85 3c 76 ce 01 be 14 bf b1 bd aa 2c 9f be
       0.016239993 -0.12676415 -0.086790234 -0.31088763
000300 f7 3d f7 3c 60 98 3d be f8 7f a6 bd 96 1d 0c be
       0.030180914 -0.18515158 -0.08129877 -0.13683161
000310 52 2b 85 3e c4 c9 1c 3f da 51 82 3c 7b b8 e9 3e
       0.26009613 0.6124537 0.01590817 0.4564856
000320 71 a7 54 3e bb d7 e8 3e 29 5f 1a 3f 63 99 8e bd
       0.20766999 0.4547709 0.6030145 -0.0696285
000330 20 e5 ae 3e be ca e2 3c 90 9e 50 bc d0 2f 4b bd
       0.34159184 0.027684566 -0.012733117 -0.049606144
000340 e1 a4 17 bd ae d0 b5 be f2 34 d3 bd e5 ef 69 3e
       -0.037022475 -0.35510772 -0.10312833 0.22845419
000350 ba 98 18 bd a0 dc 36 3e 25 34 bb bc 11 d5 9c 3a
       -0.037255026 0.178576 -0.022852013 0.0011965354
000360 79 17 2d be 26 4a 82 3e b0 3c 06 bc 70 07 d6 be
       -0.16903485 0.25447196 -0.00819318 -0.4180255
000370 38 be 9a 3d b1 08 e7 3e 89 79 b5 3e 6a 66 6a 3f
       0.075558126 0.4512382 0.35444286 0.9156252
000380 d2 6f 13 bf 89 20 ad be e5 f6 20 bf a2 f6 08 bf
       -0.575925 -0.33813885 -0.6287673 -0.5350133
000390 5e 4d 2d bf 9d 93 08 bf 4f f4 19 bf fb c2 af be
       -0.6769618 -0.5335024 -0.6013841 -0.34328446
0003a0 d7 43 42 bf 7e e3 f4 be 37 67 34 bf 67 53 e1 be
       -0.75884765 -0.47829813 -0.70469993 -0.44008943
0003b0 29 cc 31 bf 5e 73 2e bf 4f ec b2 be 71 8d 0b 3f
       -0.6945215 -0.68144786 -0.34945914 0.545127
0003c0 ce d4 fb 3d d6 d6 e3 3e 0d 28 83 3e 9a 6f 08 3e
       0.12296449 0.44499844 0.25616494 0.13323823
0003d0 c7 05 df be 84 26 3a 3f 81 da 19 bf 0b 28 3f 3f
       -0.43559095 0.7271502 -0.60099036 0.74670476
0003e0 7f d0 81 3f 6f a3 e4 3e 62 51 84 bf 28 cf 97 3e
       1.0141753 0.4465594 -1.0337336 0.29650235
0003f0 2d 0e 81 bf d7 09 46 bf 8b ee b6 be 2c d7 db be
       -1.0082451 -0.77358764 -0.3572887 -0.429376

lstm.ih.rho_weight f4 [128, 14]
000000 a9 76 b2 bf 0e 43 9c 3d 07 30 c4 be c7 c8 63 be
       -1.3942462 0.07629977 -0.38317892 -0.22244559
000010 d8 52 3b 3f 00 b6 e4 bf 76 e8 c7 be 5f 6d 5c bf
       0.73173285 -1.7868042 -0.3904454 -0.8610439
000020 e5 d2 95 bf ce 6e 85 bd f2 36 76 bf bc 87 1e 3e
       -1.1704985 -0.06515275 -0.9617759 0.15481466
000030 7a f2 89 bf 46 98 09 be 7a cc 6b c0 d5 0a 53 c0
       -1.0777123 -0.13436994 -3.6843553 -3.2975361
000040 ea 08 6b c0 02 63 4b c0 da a2 74 c0 15 2b 64 c0
       -3.672419 -3.177918 -3.8224397 -3.5651295
000050 e9 a1 54 c0 5b be 74 c0 c9 59 3d c0 e4 3f 51 c0
       -3.3223822 -3.8241184 -2.958605 -3.2695246
000060 4f 4c 6f c0 d1 37 5a c0 5b 64 80 c0 5a d1 59 c0
       -3.7390325 -3.4096568 -4.0122504 -3.4034028
000070 99 fa 21 c0 4a d3 5a c0 ca 69 5d c0 08 4d 7d c0
       -2.5309203 -3.419146 -3.4595819 -3.9578266
000080 79 5f 72 c0 c0 b2 59 c0 c3 f6 85 c0 c5 ee 2a c0
       -3.7870772 -3.401535 -4.1863723 -2.6708233
000090 26 2a 42 c0 eb 51 40 c0 e5 ae 3d c0 86 d6 25 c0
       -3.0338225 -3.0049999 -2.9637997 -2.5912185
0000a0 f1 06 5b c0 74 46 38 c0 3f a2 51 c0 c2 1f 64 c0
       -3.4222987 -2.8793 -3.2755277 -3.5644383
0000b0 d7 c7 4d c0 90 36 6a c0 0d 1a 8c c0 ab 77 45 c0
       -3.2153223 -3.6595802 -4.37818 -3.085429
0000c0 6f 3d 85 c0 de d5 92 c0 88 be 4e c0 0d fc 76 c0
       -4.163749 -4.588607 -3.230379 -3.859134
0000d0 4c bf 55 c0 b9 39 43 c0 ac d3 68 c0 dd c7 80 c0
       -3.3398008 -3.050398 -3.6379194 -4.0243974
0000e0 3f cb 02 3c ee e4 18 3f d2 39 a0 3d 54 06 19 3f
       0.007983028 0.5972432 0.07823528 0.5977528
0000f0 78 3e 11 3f fc d0 3e 3e b2 5f 28 3f 1e aa 0a 3f
       0.56735945 0.18634409 0.6577102 0.5416583
000100 ba 33 0f 3f 41 0c f3 3e 3e 58 0d 3f f3 93 03 3e
       0.55938303 0.47470286 0.5521277 0.12849407
000110 06 d5 16 3e b0 e1 b2 3e 32 b2 26 3f 33 0a 07 3f
       0.147297 0.3493781 0.65115654 0.5274994
000120 e4 f3 e0 3d ee 49 1b 3f 04 b5 f1 3e 6f 5c e3 3e
       0.109840184 0.6065968 0.47208416 0.4440646
000130 16 2b d7 3e c1 ba 2d 3f 67 e7 a7 3e 07 69 4d 3f
       0.4202506 0.6786309 0.32793733 0.80238384
000140 38 ff d9 3e fd 2f 26 3f 1c eb 8e 3f 43 08 b3 3e
       0.4257753 0.64916974 1.11655 0.3496724
000150 0b 13 d9 bf f1 f8 79 bf 0f 65 d9 bf 6c a2 15 c0
       -1.6958936 -0.9764548 -1.6983966 -2.3380384
000160 e0 d0 84 bf fc 99 91 bf 14 43 17 c0 8d 4c b0 bf
       -1.0376244 -1.1375117 -2.3634691 -1.3773361
000170 26 3d 0f c0 73 86 de bf 97 f6 ee bf 38 92 b4 bf
       -2.2381072 -1.7384781 -1.8669003 -1.4107122
000180 f9 16 ab bf 68 5b 03 c0 7e c9 0e c0 5f 7c 3a c0
       -1.3366386 -2.052454 -2.231048 -2.913841
000190 38 7d 31 c0 03 09 7e c0 19 a0 4f c0 18 f4 10 c0
       -2.7732677 -3.9693 -3.2441466 -2.2648983
0001a0 bb 47 7b c0 4e 48 1a c0 82 c2 49 c0 8e 7c 75 c0
       -3.926253 -2.4106631 -3.1524968 -3.8357272
0001b0 ea 81 29 c0 bd 0e 4d c0 68 b7 45 c0 96 ff 49 c0
       -2.6485543 -3.2040246 -3.0893192 -3.1562247
0001c0 38 4f 4f bf 39 f8 27 bf a2 e7 55 bf de 92 a9 bf
       -0.80980253 -0.6561313 -0.8355657 -1.3247945
0001d0 cb f7 89 be e6 cd 30 bf de e1 80 bf 71 27 af bf
       -0.26946864 -0.69064176 -1.0068929 -1.3683912
0001e0 be 48 1d bf 3f 2f 1a bf 38 cf ea bf 16 79 d0 be
       -0.6143912 -0.6022834 -1.8344488 -0.4071738
0001f0 12 fa 4f be c1 ae 93 bf b3 44 b1 bf 11 cf 8f bf
       -0.20310238 -1.1537706 -1.384909 -1.1235067
000200 3d 33 cb bf 37 fb 27 bf e8 3f 95 bf 6d 1b 5c bf
       -1.5875012 -0.656177 -1.1660128 -0.8597935
000210 90 99 a7 bf 96 ab c5 bf e0 5e dd bf 89 af 82 bf
       -1.3093739 -1.5442989 -1.7294579 -1.0209819
000220 19 95 5a bf 5d 7a 83 bf 81 f3 a0 bf 27 b0 92 bf
       -0.85383755 -1.0271717 -1.2574311 -1.1460007
000230 78 31 99 3e 08 be 81 3e 18 2f 2f be 81 c7 d6 be
       0.29920554 0.25340295 -0.17107809 -0.41949084
000240 d4 e4 dd bd 04 90 55 3e c1 6a 0a be 72 ec c2 bd
       -0.10834661 0.20855719 -0.13517286 -0.095177546
000250 ca 0e 1b 3f fc 01 be bd 04 46 85 3f 3f a7 55 3c
       0.6056944 -0.09277722 1.0411992 0.013040363
000260 1f 44 20 3e cb 18 64 3f d2 26 92 bf 76 40 e3 bf
       0.15650986 0.8910033 -1.1418097 -1.7754047
000270 20 ff 9c bf 02 7d 68 bf 88 0d d5 be 43 1a b4 bf
       -1.2265358 -0.90815747 -0.41611886 -1.4070514
000280 96 10 c1 bf 82 97 b3 be 2d 08 21 bf d6 56 57 bf
       -1.5083187 -0.3507653 -0.629031 -0.84116876
000290 4a 54 84 bf 9e 09 bb bf 18 e9 d0 bf 83 ad b8 bf
       -1.0338223 -1.461231 -1.6321135 -1.4427952
0002a0 2e 5f 1f c0 c3 23 21 c0 1b ea e5 bf 58 d1 ab bf
       -2.4901843 -2.5178077 -1.7962068 -1.3423262
0002b0 e6 02 0a bf c7 12 0d c0 10 0c 9f bf 7a 0b 06 c0
       -0.5391067 -2.204271 -1.2425556 -2.0944505
0002c0 92 27 11 c0 13 b0 10 c0 76 36 8b bf 3d 42 36 c0
       -2.2680402 -2.2607467 -1.0875995 -2.8477929
0002d0 75 f9 f2 bf 6b 1c 0e c0 50 37 08 c0 f4 3f d2 bf
       -1.8982378 -2.2204845 -2.128376 -1.6425767
0002e0 78 95 d9 bf 98 17 0c c0 69 7c e8 bf 42 72 04 c0
       -1.6998739 -2.18894 -1.8162967 -2.0694737
0002f0 cf 35 08 c0 46 3a d9 bf 6f 10 dc bf 67 83 0a c0
       -2.1282842 -1.6970909 -1.7192515 -2.1642702
000300 41 85 ed bf 97 f9 fc bf 1f 0f f6 bf 2c b4 15 c0
       -1.8556291 -1.9763669 -1.9223365 -2.3391218
000310 c3 55 72 c0 e5 db 71 c0 43 73 37 c0 57 18 5b c0
       -3.7864845 -3.7790463 -2.86641 -3.4233606
000320 11 af 5a c0 96 b8 83 c0 10 f0 55 c0 f0 3b 76 c0
       -3.4169352 -4.1162825 -3.3427773 -3.8474083
000330 51 01 87 c0 5d 92 7d c0 17 ad 3d c0 c9 1d 69 c0
       -4.2189107 -3.9620583 -2.9636896 -3.642443
000340 b2 a6 49 c0 0a be 4e c0 cd ce 3e c0 41 8b 65 c0
       -3.1507993 -3.230349 -2.981372 -3.5866244
000350 6c 1c 66 c0 bb 06 5c c0 7a 45 85 c0 bf a9 51 c0
       -3.5954847 -3.4379108 -4.164731 -3.2759855
000360 f7 f5 62 c0 fa e8 6f c0 0a d3 2b c0 bb ac 54 c0
       -3.5462625 -3.7485948 -2.6847558 -3.3230426
000370 52 cb 26 c0 29 e6 3c c0 7f 1c 55 c0 a0 60 44 c0
       -2.6061597 -2.9515479 -3.3298643 -3.0683975
000380 ad 16 ab be f0 9b c9 bd 7d 12 8d be dd 61 e4 bc
       -0.33415738 -0.09844196 -0.27553168 -0.027878696
000390 51 de b5 3d 7c ca ea be 41 1e a8 be bb 85 39 bb
       0.08880294 -0.45857608 -0.32835582 -0.002830847
0003a0 8d bc 08 bf e2 a0 e8 be 21 e9 6d bc 93 cc 8c be
       -0.53412706 -0.45435244 -0.014520914 -0.27499828
0003b0 53 09 15 3d 37 f2 02 be cd 68 b9 bf 45 fc 9f bf
       0.036385845 -0.1278771 -1.4485108 -1.2498862
0003c0 50 ae d8 bf 5d 09 7b bf a6 a9 80 bf 60 cf 5f bf
       -1.6928196 -0.9806116 -1.0051773 -0.87425804
0003d0 73 4e 35 c0 6a be e4 bf fe 39 b5 bf 3a 46 e9 bf
       -2.8329132 -1.787061 -1.4158323 -1.8224556
0003e0 8b 11 05 c0 76 6a 1f c0 96 b0 1f c0 69 99 cb bf
       -2.0791957 -2.4908729 -2.495153 -1.5906192
0003f0 69 08 27 c0 d5 cc ff bf 9e 9c d8 bf a8 0e 1e c0
       -2.6098883 -1.9984385 -1.6922796 -2.4696445

lstm.ih.mu_bias f4 [128]
000000 0b f0 a0 bf 26 be 89 bf d3 b9 16 bf d4 02 14 bf
       -1.2573255 -1.0761154 -0.58877295 -0.57816815
000010 4b 98 34 3f 85 da 49 be 94 22 1f bf 4b 1d 20 bf
       0.7054488 -0.19712265 -0.6216214 -0.625447
000020 1d 6b bf 3e e7 03 0b bd b4 51 c4 be f7 52 4d be
       0.37386408 -0.03393927 -0.38343585 -0.2005118
000030 e4 aa 77 bf 93 fb 5a bf fc 69 dd be 4e e6 60 be
       -0.96745133 -0.8554012 -0.43244922 -0.21962854
000040 5f 31 2c bf 13 08 0a bf 6a 96 a7 bf 31 6a 61 bf
       -0.67262834 -0.5391857 -1.3092778 -0.8805266
000050 2c 5a 86 bf 6c 58 03 bd 4c 0d a3 be 54 41 5b 3d
       -1.0496268 -0.032066748 -0.31846082 0.0535291
000060 38 de f1 3d 7c aa 18 bf c3 d2 0b bf b7 a1 c9 bd
       0.11809963 -0.5963514 -0.5461847 -0.09845298
000070 6d f4 39 bf a2 ed 7e 3f 3d de dc 3e ae aa 3a 3f
       -0.7263859 0.9958135 0.43138304 0.72916687
000080 56 05 f6 bd 46 45 20 be 3e 61 23 3e 7f aa 2f be
       -0.120127365 -0.15651426 0.15955064 -0.17154883
000090 b1 18 63 3d 5e dc 25 bd ae 68 13 3f c3 73 e8 be
       0.05544347 -0.04049336 0.57581604 -0.4540082
0000a0 90 8f 59 3d 1c bb 86 3c c5 bf bb bd 77 4b 5c 3f
       0.053115427 0.016446643 -0.091674365 0.8605265
0000b0 6d fc a4 3d e6 bc 11 be 0d e0 ef 3d 29 a4 7f bd
       0.08055959 -0.14232215 0.11712656 -0.062412415
0000c0 25 e5 c5 bd f3 0d c2 3e 0d 5b 7d bc da fd c1 be
       -0.096628465 0.37901267 -0.015463603 -0.37888986
0000d0 e2 96 a0 ba 01 46 0a be 4d 27 93 be bd 7a e5 bc
       -0.0012251998 -0.13503267 -0.28740922 -0.028012628
0000e0 4a 8e 36 bf 7b 2a b1 3d 10 5d 0b 3c 68 3d 5f 3d
       -0.71310866 0.08650681 0.008506075 0.05450192
0000f0 2b 29 b8 be e8 2c 1e bf 1b a6 6d be 69 e9 91 be
       -0.3596891 -0.6178727 -0.23207895 -0.2849839
000100 49 b7 71 be 6b 53 2c 3d e4 9b 4e bf ea 91 c0 bf
       -0.23605074 0.04207174 -0.8070662 -1.504453
000110 04 02 2d bf 93 a9 23 bf 66 ba 5e 3d ba 6b 6a bf
       -0.675812 -0.63930625 0.054376982 -0.9157063
000120 66 23 6f 3f cc 73 af 3f 0d c6 18 3c 71 1e 36 bf
       0.9341339 1.3707213 0.009324563 -0.711402
000130 dc e5 cd bd 5a 08 b0 be 4f ca a4 3f 2d 5c c0 bf
       -0.10053608 -0.34381372 1.287424 -1.502813
000140 a2 4f 0e be d0 a5 37 bf 90 f5 b8 3d 05 77 b1 bc
       -0.13897565 -0.71737385 0.09031212 -0.021663198
000150 cc 0b f7 bc 32 0c 0b 3f 48 25 cd 3e 47 86 b8 bf
       -0.030156992 0.54315484 0.40067506 -1.4415978
000160 67 42 07 bf 1b a9 0d bf c8 54 11 bf 3d 2d 8a bf
       -0.52835697 -0.5533616 -0.5676999 -1.0795056
000170 b7 3d 5d 3e 03 45 92 bf c4 5d b7 bf f6 4f 20 bf
       0.21605574 -1.1427311 -1.432549 -0.6262201
000180 c1 a1 8c bf 67 90 03 be 60 b8 3c bd d8 47 cb 3e
       -1.0986863 -0.12848054 -0.04607427 0.3970325
000190 a7 de 8b bf ce b6 8b bf 47 3a 18 bf 86 ba a3 3e
       -1.0927323 -1.0915163 -0.59463924 0.31978244
0001a0 10 10 a3 bf ef a8 87 bf 46 fd 2f bf 47 ac 8a bf
       -1.2739277 -1.059843 -0.6874584 -1.0833825
0001b0 c2 87 15 be 27 27 71 bf e9 f5 0f 3e 84 22 43 bc
       -0.14602569 -0.94200367 0.14058651 -0.011910085
0001c0 ed 8c 81 bf 3e 23 f5 be cf d9 25 bf 0f bc 08 3f
       -1.0121132 -0.4787845 -0.64785475 0.53411955
0001d0 d6 35 f8 be 3a 80 2c bf 1d 4c 16 bf 18 01 a3 bf
       -0.48478574 -0.6738316 -0.5870989 -1.2734709
0001e0 c2 cb 85 bf a7 0b 78 bf f7 49 c7 be 12 2b 6b bf
       -1.0452807 -0.9689278 -0.38923618 -0.91862595
0001f0 4e b9 ad 3d 38 ac 77 be a8 f2 6e be 98 60 34 bf
       0.0848261 -0.2418679 -0.23334754 -0.7045989

lstm.ih.rho_bias f4 [128]
000000 3d 66 26 bf 37 7b 28 c0 4e 5f 25 c0 97 44 3b c0
       -0.64999753 -2.6325204 -2.583942 -2.9260614
000010 f3 6d 30 3f c7 58 90 3e 07 41 9a bf d3 32 47 c0
       0.6891777 0.28192732 -1.2051095 -3.112477
000020 96 b4 9a 3e 38 6c 9a be 57 4c 31 3f b5 1c 08 3d
       0.302159 -0.3016069 0.6925711 0.033230502
000030 d0 d1 c7 bf fb b0 71 be 94 83 c9 bf ad 8d 6a c0
       -1.5610905 -0.23602669 -1.574328 -3.6648972
000040 0b ff 82 3f 52 95 0a c0 69 74 ab bf bd 4f ee bf
       1.0234083 -2.1653638 -1.33949 -1.8618084
000050 b4 0e 02 bf a9 34 1d 3f d3 5d fb be 50 3e 0e c0
       -0.50803685 0.6140848 -0.4909502 -2.2225533
000060 1f 61 3c 3f 3f 2c 86 3e 49 c0 e3 bf 61 ac 17 c0
       0.73585695 0.26205632 -1.7793056 -2.3698962
000070 4a 3a 86 bf d9 1b 67 3f 6a bf 8a bd 2f d7 f6 3e
       -1.0486538 0.9027687 -0.067747906 0.48211047
000080 37 bb 21 3f 86 e5 02 bf ac a1 bc bf f0 d3 5a bf
       0.6317629 -0.51131475 -1.4736838 -0.8547964
000090 94 8d 09 3f 89 47 f6 3e 2f f3 11 3f 6f 3f a8 bd
       0.53731656 0.48101452 0.57011694 -0.08215224
0000a0 d4 64 1a 3f 83 fa a9 3d f4 d2 ee 3e 81 da a7 3e
       0.603101 0.082997344 0.4664532 0.32783893
0000b0 c4 95 0b 3f 11 18 c6 3e 14 c5 1b c0 d3 77 d9 bf
       0.545254 0.38690236 -2.4339037 -1.6989692
0000c0 e4 1b 15 3f b0 c7 0f 3f e6 9b a8 3f 92 2e 04 3f
       0.5824568 0.56164074 1.3172576 0.5163356
0000d0 3a f1 1d 3f 46 67 1d 3f 9f dc cc bf b2 45 f0 3e
       0.6169621 0.6148571 -1.6004828 0.46928173
0000e0 f5 a1 17 be 45 ed 18 3f 92 e7 a8 3e 3b dc 3b bf
       -0.14807875 0.59737045 0.32989174 -0.7338292
0000f0 2e 8f 42 3f c8 97 6c 3f af ec 00 3f 02 2c 03 3f
       0.75999725 0.924191 0.5036115 0.51239026
000100 47 ef 98 bf 00 5e 52 bf f4 96 7e bf d2 e5 57 3f
       -1.1948022 -0.8217468 -0.99449086 0.8433505
000110 c9 47 64 be d5 de 3e 3e 04 ed fb bf 19 d1 67 bf
       -0.22293009 0.18639691 -1.9681706 -0.9055343
000120 a1 4c aa 3e e9 eb 44 bf 08 98 24 c0 b9 9c b9 bf
       0.33261588 -0.7692247 -2.5717793 -1.4500953
000130 0e 1d ee bf a6 f3 7d be 71 bf 1c bf 1e 79 2d bf
       -1.8602617 -0.24799976 -0.61229616 -0.67762935
000140 d1 29 bc bc 53 b8 12 c0 38 c7 0f bf 6b 9d 3b c0
       -0.022969158 -2.2925003 -0.5616336 -2.931483
000150 37 b0 a1 bf 6e 68 4e bf ad 22 e4 bf 4a 37 3c 3d
       -1.2631902 -0.806281 -1.7823082 0.045951165
000160 3a c4 f3 be 39 44 eb 3d 16 9a d9 bf a5 2f 8d bf
       -0.47610646 0.11487622 -1.7000148 -1.1030165
000170 63 26 b7 bf de 48 d4 be 79 0c 94 3e 1d c6 9d bf
       -1.430859 -0.41461843 0.28915766 -1.2326084
000180 18 0a 67 3e 8d c3 c6 3e b5 5b a3 3f b5 0f 8c be
       0.22562444 0.38821068 1.2762362 -0.27355734
000190 45 78 e7 bf 3e 05 0a bf c5 e3 c1 bf 80 e0 9d bf
       -1.8083578 -0.5391425 -1.5147635 -1.2334137
0001a0 74 f7 ef bf 2b b8 04 be 40 7c 35 c0 c8 74 13 3f
       -1.8747392 -0.1296088 -2.8357086 0.5760007
0001b0 6c 09 07 3f 75 d5 14 3f 3d 32 97 be 1f 54 4d 3f
       0.5274875 0.5813821 -0.29530516 0.80206484
0001c0 0b e6 ae 3e 12 d0 81 bf 13 84 2a 3f 33 9b 14 3f
       0.34159884 -1.0141623 0.6660778 0.58049315
0001d0 d6 54 36 c0 8f 15 27 bf 87 42 29 c0 44 89 1d bf
       -2.848928 -0.6526727 -2.6446855 -0.61537576
0001e0 50 d0 bc bf cb c5 59 3e 91 56 ad be 01 10 84 bf
       -1.4751072 0.21266858 -0.33855107 -1.0317384
0001f0 61 d6 15 3f bf 7d 30 c0 5b 1e 4b 3f b8 d0 a0 bf
       0.5853024 -2.757675 0.79343194 -1.2563696

lstm.hh.mu_weight f4 [128, 32]
000000 af ff 73 be 5d 73 7b 3f 2e 42 31 bf cb bf c9 bf
       -0.23828004 0.98222905 -0.6924161 -1.5761656
000010 34 4e a5 bf 2f 24 53 bf ba 88 1e 3f 5c 29 b9 bf
       -1.2914491 -0.82477087 0.6192738 -1.4465747
000020 d1 2c 95 3f a4 02 e6 3e d6 5f bc 3e 88 ba c6 be
       1.1654302 0.4492389 0.36791867 -0.38814187
000030 bd 08 d2 bd c7 47 e4 be ec a3 b7 3f d6 32 9c bf
       -0.10255573 -0.44586012 1.43469 -1.2203014
000040 6e 2b 4f 3f 12 cf 19 bf 44 3a 83 3e 9e 87 b1 3f
       0.80925643 -0.6008159 0.2563039 1.3869512
000050 ad 44 24 bf 7c 38 b6 be 86 e5 fa 3f 17 4f 93 be
       -0.6416729 -0.3558997 1.9601295 -0.28771278
000060 f6 74 ca bf fd 6d 0a 3f 6d e1 d0 bf d2 98 b3 bf
       -1.5816944 0.5407408 -1.6318794 -1.4031012
000070 3b 24 62 bf fd cc 06 c0 ee e7 10 bf 25 21 a0 3f
       -0.88336533 -2.1062615 -0.56603897 1.2510115
000080 6a 5a 82 bf f8 0a c1 bf d7 8e d3 3e ee 95 11 3f
       -1.0183842 -1.5081472 0.41319916 0.568694
000090 18 80 a6 bf 12 d1 18 bf 97 d6 8f bf b1 57 79 3f
       -1.3007841 -0.59694016 -1.1237363 0.9739943
0000a0 bf 1e e4 3e 3f 00 75 bf e2 c9 75 bf e4 62 2e 3e
       0.44554707 -0.957035 -0.96011174 0.17029911
0000b0 1c 02 d8 be 43 5a 4b 3e ea ed c0 3c 0d 4d f8 3c
       -0.4218911 0.19858651 0.023550946 0.030310178
0000c0 60 29 e6 be 4b a7 3d be ef 7d 8f 3f ed 26 11 3c
       -0.44953442 -0.18520848 1.1210307 0.008859378
0000d0 f2 f2 7b 3f 54 bc 0c bf 87 91 84 bf 68 9b 42 3f
       0.9841758 -0.54974866 -1.0356911 0.7601838
0000e0 dc b3 eb be 64 8f 10 3f fd 4a 62 3f d5 4b 42 3f
       -0.4603566 0.56468797 0.88395673 0.7589696
0000f0 47 5b 84 3f 30 9a db 3e d7 9e 49 be 77 67 f2 3e
       1.0340356 0.42891073 -0.19689499 0.47344562
000100 8e 9d 8d bf f7 67 ae bd 6b a6 95 3f 4c 38 36 bd
       -1.1063707 -0.085159235 1.1691412 -0.044487283
000110 f9 86 25 bf 51 2c ce be e6 75 72 bf 61 93 31 3f
       -0.64659077 -0.40268186 -0.9471115 0.6936551
000120 26 7d b6 3f 0e 87 13 bf 33 08 75 bf 95 88 7f bd
       1.4256942 -0.5762795 -0.95715636 -0.062386114
000130 69 2b af bf 7b e4 d4 3d 71 dd 02 3f 36 02 3c bf
       -1.3685123 0.10395142 0.5111914 -0.73440874
000140 ed f1 02 3f 54 01 1e 3f 41 78 6d 3f 49 0b 98 3e
       0.511504 0.61720777 0.9276162 0.2969611
000150 57 7f 89 3f d1 b1 6c 3f 79 d1 53 bf 30 9c df 3b
       1.0741986 0.92458826 -0.82741505 0.006824039
000160 5c af 74 bf 39 57 45 bf b2 5a 28 3f 1a 6d 3e 3e
       -0.9558008 -0.77086216 0.6576339 0.18596306
000170 e2 86 90 3f 07 6c 18 be 71 60 e0 bf b0 a5 db be
       1.1291163 -0.14884959 -1.7529432 -0.42899847
000180 a8 37 33 bf 6c b7 f7 3f 45 c1 4a 3f 75 d6 bf 3f
       -0.700068 1.9352851 0.79201156 1.4987322
000190 20 68 ed 3e 22 fb 2f bf 28 0d 43 bf cd fb 93 3c
       0.46368504 -0.68742573 -0.7619195 0.018064404
0001a0 50 20 97 be 22 fc 75 bf 42 08 01 bf 49 36 59 3f
       -0.2951684 -0.9608785 -0.50403225 0.8484846
0001b0 1c 08 4f bf 02 c3 9e 3d b7 0d a4 3c 3c ce 62 bf
       -0.8087175 0.077520385 0.020026071 -0.8859594
0001c0 94 4b 35 3e 1d 6d 86 3f 65 a8 1e 3f 48 8d ee be
       0.17704612 1.0502049 0.619757 -0.46592164
0001d0 e2 cb 14 3f bf 34 c8 3e e5 15 1b bf 9c 25 36 3e
       0.581236 0.39102742 -0.60580283 0.17787784
0001e0 8f 14 4c 3c de 5f c4 bd 7e 79 21 3f 7a d5 79 3f
       0.012456073 -0.09588598 0.6307601 0.97591364
0001f0 c5 7b 39 3f 7c 78 3e bf 30 67 3f bf 40 51 27 bf
       0.7245448 -0.74402595 -0.74766827 -0.6535835
000200 7a 41 13 3e b3 96 d8 3d 03 3b 5c bb d0 b4 52 be
       0.14380446 0.105756186 -0.003360451 -0.20576787
000210 f6 3b ba bc 3c fb 23 be 35 9b 97 3d d0 41 84 be
       -0.02273367 -0.16013807 0.0740265 -0.2583146
000220 c4 2e 0c 3d de 86 2c 3e 41 74 e9 3d 98 13 9f bd
       0.034224287 0.16848323 0.11399127 -0.07767409
000230 d6 e1 e7 3c 9c 7a 18 3c b8 12 26 3e b2 37 97 bd
       0.02830593 0.009306576 0.16218078 -0.0738367
000240 37 c2 60 bd 95 a2 3e be ef a6 88 bc 82 81 f5 3b
       -0.054872718 -0.18616708 -0.016681163 0.007492245
000250 0f 01 fe bd cc 09 9a bd de 92 10 3e 25 27 d0 bd
       -0.12402546 -0.075214 0.14118525 -0.10163716
000260 45 f5 be bd df 53 b7 3e fb 8b 33 be 49 48 a7 bd
       -0.09324125 0.35806176 -0.17533867 -0.08168084
000270 63 e1 0d be 98 eb 78 be 7b 0c e2 bd de ed 23 bc
       -0.1385551 -0.24308622 -0.11037537 -0.010005442
000280 a7 dd bb bc c8 36 84 3e cf 1f 2d be 06 5d c0 bd
       -0.02293284 0.25823045 -0.16906665 -0.09392743
000290 20 e7 87 3e e5 80 ca 3d a6 b3 3f 3d 66 76 10 3e
       0.26543522 0.09887866 0.046802185 0.14107665
0002a0 dd 02 45 be 6b 84 f6 bd 12 fe 04 bd e6 29 db bd
       -0.19239374 -0.120369755 -0.032468863 -0.10701351
0002b0 0c 32 92 3d ca df ad 3d 84 ba 80 3d 14 41 66 bc
       0.07138452 0.0848995 0.06285575 -0.014053602
0002c0 19 5a a3 3e 1e 37 0d bb 24 17 6f 3d d2 35 5e 3b
       0.31904677 -0.0021547745 0.058371678 0.003390659
0002d0 c4 5d 9d 3c 7f 89 87 3e 3b 0d 3c be 16 c6 8c bd
       0.01920975 0.2647209 -0.18364422 -0.068737194
0002e0 56 2a 34 3d fd a1 b3 3e c1 86 a3 3e 8f 07 0d 3e
       0.043985687 0.35084525 0.31938747 0.13772415
0002f0 e1 a0 ab be 4e f6 99 3d 3c 18 b1 bd d0 57 30 3e
       -0.33521178 0.07517682 -0.086472005 0.17220998
000300 94 dc 08 3f 18 5f 3c bd 34 c5 05 bf 26 10 54 be
       0.53461576 -0.045989126 -0.52254033 -0.20709285
000310 ab 87 30 3d f8 89 94 bd a3 b9 77 3e fc 21 df be
       0.043098133 -0.07252878 0.24191909 -0.43580616
000320 43 3d a1 bc a8 db c9 3e 0e ed 84 3f 59 0b 04 bf
       -0.019682532 0.39425397 1.0384843 -0.51579815
000330 04 3a 19 3d 6d d6 d0 be 8c d6 3a 3f 44 6a 90 be
       0.037408844 -0.40788594 0.7298362 -0.28206074
000340 6f 5a d0 be 24 7e e8 be 1a cd 92 be 62 6f 33 3b
       -0.40693995 -0.45408738 -0.28672105 0.0027379622
000350 73 cf ea be 3c 36 6c bd e0 40 61 3f a7 d7 8d bd
       -0.45861396 -0.05766891 0.87989616 -0.06925898
000360 86 e7 0c be 8f 05 ae 3e 34 be 24 bf 63 63 bf bd
       -0.13760194 0.33988616 -0.64352727 -0.093451284
000370 70 da 48 bf 11 a2 36 bf 26 70 d7 3e b8 41 90 3f
       -0.7845831 -0.71341044 0.4207775 1.1270056
000380 45 b7 50 bf a2 bc 86 be db d1 4e 3f e3 e7 31 bf
       -0.8152965 -0.2631579 0.80788964 -0.69494456
000390 e0 b3 85 3e 7f 22 fd 3d 22 bf 55 bf 96 e9 e2 3f
       0.26113796 0.12360095 -0.8349477 1.7727535
0003a0 7a 96 75 be fe ca 8b bf d7 9e e8 be 5e 56 7c 3f
       -0.23983184 -1.0921323 -0.45433685 0.98569286
0003b0 ca 34 8d bf 57 54 3a 3b 75 13 af 3f 1d 48 b0 bf
       -1.1031735 0.0028431618 1.3677813 -1.3772007
0003c0 92 44 0b bf 0a ba 5f 3f 05 7f 5c 3f fa ef 4d be
       -0.54401505 0.8739325 0.86131316 -0.20111075
0003d0 ef 39 b3 3e 47 86 2b 3e e9 b6 ef bd f2 29 06 bf
       0.35005137 0.16750441 -0.11704809 -0.52407753
0003e0 d3 27 b4 3d a4 fe a5 3d 57 66 f4 3d 8f b7 e3 bf
       0.08796658 0.081052095 0.11933582 -1.7790393
0003f0 a5 65 6d 3f a7 01 a6 bf ef d7 1f bf f7 50 04 c0
       0.9273322 -1.2969254 -0.62438864 -2.0674417

lstm.hh.rho_weight f4 [128, 32]
000000 5a cd 98 bf c8 a0 5d bf 26 66 4f 3f df 6e ec bf
       -1.1937668 -0.8657346 0.8101524 -1.8471335
000010 48 5b bf bf 9a af 6f 3e 1e b9 1f c0 70 e1 e0 bf
       -1.4949732 0.2340683 -2.4956737 -1.7568798
000020 66 b9 ec 3e 79 ce 06 3f 89 ff ad 3f b3 83 1f c0
       0.46235198 0.526588 1.3593608 -2.4924133
000030 b5 27 2b c0 21 87 ca 3f 4e a3 9e 3e a4 62 0d 3f
       -2.6742985 1.5822488 0.30983967 0.5522864
000040 ec fc 51 3f b4 3e 59 c0 03 e0 95 bf 4d d8 8d 3f
       0.82026553 -3.394452 -1.1708988 1.1081635
000050 5e d0 06 bf 46 19 ae 3f 8b 24 d2 bf c1 a4 ba 3e
       -0.52661693 1.3601463 -1.6417402 0.36453822
000060 2f b2 d2 be f4 13 92 3e 8f c0 e6 bf 9f 45 17 bf
       -0.41151568 0.28530848 -1.8027514 -0.5909061
000070 fd 0d 3b bf d4 1c ce 3f 14 95 06 3f 0e 03 96 3f
       -0.7306822 1.6102548 0.52571225 1.1719682
000080 ef 8f 12 c0 1b eb 6d c0 91 6e 52 c0 2a 34 13 c0
       -2.290035 -3.7174747 -3.2879984 -2.3000588
000090 f4 4d 1d c0 86 a9 f9 bf 55 77 18 c0 f9 2b 46 c0
       -2.457883 -1.950486 -2.3822834 -3.0964339
0000a0 ad 84 24 c0 f7 9a 68 c0 b5 0e c3 bf b1 4b 81 c0
       -2.570598 -3.6344583 -1.5238863 -4.0404897
0000b0 ab 1d 3a c0 7c 33 7d bf c9 98 09 c0 d5 bf 13 c0
       -2.9080608 -0.98906684 -2.1499503 -2.3085835
0000c0 74 c8 b5 bf c9 68 55 c0 aa 6d 09 c0 96 fe 05 c0
       -1.4201798 -3.3345206 -2.1473184 -2.0936637
0000d0 57 19 0d c0 66 05 a4 bf 0e a6 36 c0 4b 8a 61 c0
       -2.2046716 -1.2814147 -2.8538852 -3.5240657
0000e0 ea 35 35 c0 d3 d5 86 bf 05 0f 2a c0 0b 0b 15 c0
       -2.8314157 -1.0534004 -2.6571667 -2.328799
0000f0 66 87 18 c0 17 40 46 c0 7f 09 87 bf 3b 7b 2c c0
       -2.383264 -3.0976617 -1.0549773 -2.6950214
000100 3d 8e 2d c0 a8 a1 1e c0 5b 17 46 c0 e0 0b dd bf
       -2.7118065 -2.4786167 -3.0951755 -1.7269249
000110 da fb 54 c0 cb e7 3f c0 d3 d5 27 c0 26 de 42 c0
       -3.3278718 -2.9985225 -2.6224258 -3.0448089
000120 16 af 45 c0 5b 90 23 c0 bb 34 52 c0 29 7e b8 bf
       -3.0888114 -2.5556858 -3.2844684 -1.4413501
000130 b6 6c 06 c0 4d 94 2e bf d8 7e d5 bf 58 18 9c bf
       -2.1003852 -0.6819504 -1.6679335 -1.2194929
000140 fa 6d 65 3e 78 2d 31 c0 b6 72 72 c0 07 7a 56 c0
       0.22405234 -2.7684002 -3.7882514 -3.351198
000150 a5 cf e8 bf 1f 37 8c 3f fd 85 f1 bf 2c bd ae bf
       -1.8188368 1.0954322 -1.8869015 -1.3651481
000160 cc 4c 3a c0 c7 b2 a8 bf a3 6d 73 c0 fa 40 45 c0
       -2.9109373 -1.3179559 -3.8035667 -3.0820909
000170 d0 bf 23 c0 b0 17 47 c0 d0 39 0b bf 1f da 5d bf
       -2.5585823 -3.1108208 -0.5438509 -0.8666095
000180 30 ec 60 c0 65 0d 3a c0 11 04 07 c0 d3 14 1d c0
       -3.5144157 -2.9070675 -2.1096232 -2.454396
000190 0f c7 17 c0 f7 57 e2 bf 9f e5 1b c0 f5 ae 51 c0
       -2.3715246 -1.7683095 -2.43589 -3.2763035
0001a0 64 88 e7 bf 8c 85 04 c0 1b 41 8d c0 57 8a 80 c0
       -1.8088498 -2.070651 -4.4141974 -4.016887
0001b0 4b 49 81 c0 13 ca b0 bf 10 07 97 bf 6d ef 00 c0
       -4.040197 -1.3811668 -1.179903 -2.0146134
0001c0 d6 d0 b6 bf e3 bf 26 c0 4c 56 39 c0 71 75 67 c0
       -1.4282482 -2.6054618 -2.8958921 -3.616543
0001d0 41 39 16 c0 f3 b1 73 bf b9 ae 5a c0 af 20 05 c0
       -2.3472445 -0.95193404 -3.4169142 -2.0801198
0001e0 8a 8a 1d c0 bd 29 19 c0 52 c7 39 c0 cf b0 5c c0
       -2.4615808 -2.3931725 -2.9027905 -3.4482915
0001f0 65 1e 2d c0 a8 38 25 c0 6b 51 bd bf 95 b0 3f c0
       -2.7049801 -2.581583 -1.4790472 -2.9951527
000200 c0 3e 61 3e 79 2e 3d 3f a9 7b f3 3b a3 7b 74 3f
       0.21996593 0.73899037 0.007430513 0.95501155
000210 d3 de 27 3f 3d d4 4a 3f cb 8a 0f 3f 34 be 0c 3f
       0.6557438 0.792301 0.56071156 0.54977727
000220 8b 2d 10 3f c9 2c b7 3e 0f 67 b6 3e a2 a4 13 3f
       0.56319493 0.35776356 0.35625502 0.57673085
000230 e0 b9 09 3f 91 cc 23 3f 3d de eb 3e ba f1 2a 3e
       0.5379925 0.6398402 0.46067992 0.16693774
000240 d0 c0 0f 3f 0f c6 8c 3d 42 43 aa 3e c5 66 0d 3f
       0.56153584 0.06873714 0.3325444 0.5523494
000250 e0 77 15 3e fd 91 0d 3f b2 a0 07 3f b4 bf 1f 3f
       0.1459651 0.55300885 0.52979577 0.6240189
000260 3b ab 1e 3f f9 6e 26 3f 56 82 a7 3e d7 c9 0d 3f
       0.61980027 0.6501308 0.32716626 0.5538611
000270 c2 85 5f 3f 2e b9 b3 3e 0e 7f cc bd fe eb f7 3e
       0.87313473 0.35102218 -0.09985171 0.48422235
000280 54 44 dc 3e 30 fa b3 3e 23 42 3d 3e 14 e2 43 3f
       0.4302088 0.35151815 0.1848226 0.7651684
000290 88 31 06 3e 36 6d dc 3e bf ac 00 3f 21 ee 66 3f
       0.13104832 0.4305207 0.5026359 0.90207106
0002a0 ce 2f 36 3f a1 ff 9c 3e 22 ac e5 3e 02 26 cb 3e
       0.71166694 0.3066378 0.4485789 0.39677435
0002b0 25 6d 1b 3f f3 77 4d 3f b0 c2 7f 3f eb 77 c6 3e
       0.60713416 0.80261153 0.99906445 0.38763365
0002c0 e0 4a dc 3e c0 27 46 3f 72 71 36 3f 97 e7 e7 3e
       0.43025875 0.77404404 0.71266854 0.45293877
0002d0 b7 4a 37 3f 61 e9 e7 3e 3b 23 3e 3f 18 6e 08 3f
       0.7159838 0.4529524 0.7427251 0.5329299
0002e0 34 c9 d1 3e bc 7f 52 3f 30 03 88 3e c0 6f c3 3e
       0.40973818 0.8222616 0.26564932 0.38171196
0002f0 a4 00 5e 3f ab 45 18 3f 32 e3 03 3f 43 ac b0 3d
       0.8671973 0.59481305 0.5151855 0.08626606
000300 01 c4 f2 bf 01 c5 a3 bf 9c f4 20 c0 0c 7e eb bf
       -1.8966066 -1.2794496 -2.5149298 -1.8397841
000310 81 ea 83 bf 29 0c ef bf 99 83 11 c0 bc 75 1d c0
       -1.030594 -1.8675586 -2.273657 -2.460311
000320 25 79 14 bf 8b e9 8d bf 7e ab 2e c0 04 7d 42 c0
       -0.5799735 -1.1086897 -2.729217 -3.0388803
000330 5e 8e 13 c0 be 4d 42 bf 97 c6 1d bf aa 1e be bf
       -2.3055644 -0.75899875 -0.6163115 -1.4853108
000340 2e 46 81 bf b6 c7 89 bf 4d d2 37 bf a8 73 a6 bf
       -1.0099542 -1.0764072 -0.7180527 -1.3004045
000350 07 c8 0a c0 b6 9e 94 bf 52 50 df bf ad 70 e5 bf
       -2.1684587 -1.1610935 -1.7446387 -1.7925011
000360 78 ed b9 bf 26 aa 8f bf 1d c5 87 bf 13 79 bb bf
       -1.4525595 -1.12238 -1.0607029 -1.4646324
000370 ed 77 3d c0 60 bb cc bf f8 e2 0c c0 52 e7 c5 bf
       -2.9604447 -1.5994682 -2.201353 -1.5461218
000380 f5 26 31 c0 f6 8f 5f bf 29 21 32 c0 c1 cf 0d c0
       -2.7680027 -0.8732904 -2.783274 -2.2158053
000390 19 c3 52 bf 0b d9 43 bf f1 77 76 c0 3c 03 24 c0
       -0.82328945 -0.76503056 -3.8510706 -2.5626974
0003a0 c3 46 97 bf be 9a 01 bf e6 b8 34 c0 9a f7 29 c0
       -1.181847 -0.5062674 -2.8237853 -2.6557374
0003b0 b3 62 3e c0 96 40 06 40 a4 d2 29 bf 43 fe 04 bf
       -2.9747741 2.097692 -0.6633704 -0.5195047
0003c0 bc a2 51 be 0b 94 4b c0 9b 82 37 c0 ce 1f 47 c0
       -0.20472234 -3.1809108 -2.8673465 -3.1113162
0003d0 8c 0d 3f c0 d9 78 63 be a4 c5 26 c0 29 6a cb be
       -2.9852018 -0.22214068 -2.605813 -0.3972943
0003e0 08 d5 21 bf 41 b1 e4 3e 1b 9a c7 bf 38 d4 10 c0
       -0.63215685 0.44666484 -1.5593904 -2.2629528
0003f0 04 62 53 c0 b3 48 9e be 2c 7c af 3f 11 b1 d0 be
       -3.3028574 -0.3091484 1.3709769 -0.4076009

lstm.hh.mu_bias f4 [128]
000000 52 67 9e bf 7a 3b 8a bf 99 8f 13 bf bb 55 06 bf
       -1.2375281 -1.0799401 -0.5764099 -0.52474564
000010 16 42 35 3f df d7 4e be 91 3f 22 bf ca cb 10 bf
       0.70803964 -0.20199536 -0.63378245 -0.5656096
000020 5e 81 bf 3e 1e ef d2 bc 5f 49 c4 be 62 0f 4d be
       0.37403387 -0.025748786 -0.38337228 -0.200254
000030 58 e6 77 bf 9e 0f 5b bf bb 89 dd be 74 25 5b be
       -0.9683585 -0.85570705 -0.43269143 -0.21401006
000040 87 ab 2a bf f0 ac 09 bf 53 dd a6 bf de e7 62 bf
       -0.6666798 -0.53779507 -1.3036293 -0.8863505
000050 00 d5 86 bf b2 3f fd bc 28 2d 58 be 02 22 19 3d
       -1.0533752 -0.030914161 -0.21110976 0.037385948
000060 75 4a f0 3d 8c 82 16 bf 8f a1 12 bf bf 23 c0 bd
       0.117329516 -0.5879295 -0.5727777 -0.09381818
000070 19 d7 44 bf 28 23 80 3f 46 e4 ec 3e 64 ce 3a 3f
       -0.7689071 1.0010729 0.4626791 0.7297118
000080 01 95 f5 bd f2 68 1e be 25 83 0d 3e 52 2f 8e be
       -0.11991311 -0.15469721 0.13819559 -0.27770478
000090 77 27 62 3d a4 1c 26 bd da b0 13 3f 56 6f c3 be
       0.055213418 -0.040554658 0.5769173 -0.3817088
0000a0 53 8e 59 3d 4e ba 86 3c dd 3f c7 bd e6 33 5c 3f
       0.053114247 0.016446259 -0.09728978 0.8601669
0000b0 5f 64 a3 3d ef a4 11 be a4 43 1d 3e ad 7d 83 bd
       0.07978129 -0.14223073 0.15357834 -0.06420455
0000c0 da e2 c5 bd 5f ec c3 3e c1 6f 6b bc 63 06 b8 be
       -0.09662409 0.38266274 -0.014369906 -0.35942373
0000d0 4e b5 8b ba 99 38 0a be 47 b9 92 be d3 62 42 3c
       -0.0010658891 -0.13498153 -0.2865698 0.011864382
0000e0 6b 60 2f bf 31 91 b1 3d d1 d9 9f 3c 35 a5 4f 3d
       -0.685065 0.08670271 0.019513043 0.050694663
0000f0 f6 36 b8 be 24 5f 18 bf 8c 1e 70 be 61 64 91 be
       -0.35979432 -0.59520173 -0.23449153 -0.28396896
000100 98 38 f3 bd 01 fd 1e 3c 3a 34 54 bf e6 6c c0 bf
       -0.11876029 0.0097038755 -0.8289219 -1.5033233
000110 cf ca 2f bf 36 6e 20 bf b0 b3 eb 39 cc 5c 62 bf
       -0.68668836 -0.6266817 0.0004495657 -0.88422847
000120 5a cc 71 3f 52 60 ad 3f 46 2d 5b bc b4 e9 33 bf
       0.9445244 1.354502 -0.013377493 -0.7027848
000130 d2 ea e4 bd 56 a8 ba be 2f f5 a2 3f 57 b4 bc bf
       -0.11177601 -0.36456555 1.2731074 -1.4742535
000140 15 d5 1c be 29 d5 35 bf 6d 6f dd 3d 86 db 06 3d
       -0.1531566 -0.7102838 0.108122684 0.032924198
000150 f2 7e 6f 3d 95 ef 0a 3f 4a b1 ad 3e e2 8c b0 bf
       0.058470674 0.54271823 0.33924323 -1.3792994
000160 4a e0 00 bf 8f 49 15 bf a9 23 fc be be d6 85 bf
       -0.5034224 -0.58315367 -0.49245957 -1.0456159
000170 43 f1 68 3e a1 6a a3 bf b0 01 c0 bf e2 92 2c bf
       0.22748284 -1.2766916 -1.5000515 -0.67411625
000180 a0 c0 8b bf 6b 2b 0a be d4 97 56 3c df c0 ef 3e
       -1.091816 -0.13493125 0.013097722 0.46826836
000190 82 ef 88 bf 69 63 93 bf 93 4c d3 be 77 ac 66 3e
       -1.0698092 -1.1514713 -0.4126936 0.22526728
0001a0 73 ea a4 bf f7 ee 87 bf a3 be 1c bf 3a 86 84 bf
       -1.2884048 -1.0619801 -0.6122839 -1.0353463
0001b0 5b c6 2f be eb b4 70 bf 1e cb 61 3e 29 10 90 3d
       -0.1716551 -0.9402606 0.2205014 0.07034332
0001c0 be 46 81 bf 40 92 19 bf 3f b6 25 bf 39 ed 07 3f
       -1.0099714 -0.59988785 -0.6473121 0.5309635
0001d0 f8 f3 f5 be ea 46 1f bf 9c ea eb be d6 88 aa bf
       -0.48037696 -0.6221758 -0.4607743 -1.3323009
0001e0 53 af 8b bf 2a 3e 7f bf 1d 01 74 be 1f 3b 61 bf
       -1.091288 -0.9970423 -0.2382855 -0.87980837
0001f0 36 8a e0 3d 00 b0 bb be aa b5 3f be 99 2a 2b bf
       0.10963862 -0.36657715 -0.18721643 -0.66861874

lstm.hh.rho_bias f4 [128]
000000 f5 8b 28 be 90 11 2e c0 e1 1b f7 bf 17 4d 39 c0
       -0.1645964 -2.719822 -1.9305383 -2.8953302
000010 1d d8 c3 3e 61 28 90 3e c0 a0 0c c0 88 30 0d c0
       0.3825082 0.28155807 -2.1973114 -2.206087
000020 95 cf 05 3f d6 7d 81 be 80 81 f4 3e 1d c8 bb bf
       0.5226987 -0.25291318 0.4775505 -1.4670445
000030 31 3b 67 bf 7b 12 89 3e 90 f8 2f c0 d6 f4 0e c0
       -0.90324694 0.26771912 -2.749546 -2.2336936
000040 81 0a 04 3e 43 ff 81 bf 46 21 5e 3e cc e0 2d c0
       0.12894632 -1.0156025 0.2169238 -2.7168455
000050 e3 61 3d bf 20 a1 5b 3f d8 8e 72 bf da 56 e6 bf
       -0.7397749 0.8579273 -0.9474921 -1.7995255
000060 58 fb 09 3f 67 86 9d 3d 93 d2 20 c0 50 1d d5 bf
       0.53899145 0.07691651 -2.5128524 -1.664957
000070 98 4c 67 bf 41 05 a0 be 70 74 16 3f 29 02 b4 3e
       -0.9035125 -0.31254008 0.5877142 0.35157898
000080 01 e2 12 3e 2f 6e e3 be f1 12 89 be 85 ce 91 bf
       0.14344026 -0.4442 -0.26772264 -1.139115
000090 a4 cb ea 3e 52 f4 11 3f 61 b9 b5 be df 47 86 bf
       0.4585849 0.5701343 -0.35492995 -1.0490683
0000a0 59 7c 07 3f 35 ad 74 3f 7c ab 13 3f 28 e8 d2 3d
       0.52924114 0.9557679 0.5768354 0.102981865
0000b0 3c d3 e2 3d d5 5d 0b 3f 63 a0 d9 be 12 37 11 bd
       0.11075446 0.5444005 -0.42505178 -0.03545291
0000c0 87 cd ae 3e 3e 9d 2b bf 83 5b 87 3e d8 41 16 3e
       0.3414118 -0.6703681 0.26437005 0.14673555
0000d0 8b 84 4c 3f f9 6f 03 3f 44 ab 98 bf 96 fa 37 3f
       0.79889745 0.5134273 -1.1927266 0.7186674
0000e0 e2 84 2a 3d 31 67 49 3f e0 25 48 be 27 65 db 3e
       0.041630633 0.7867308 -0.19545698 0.4285061
0000f0 f8 fb 01 3f 12 0d 14 3e 3d d9 2f 3f cc ee db 3e
       0.507751 0.14458111 0.68690854 0.42955625
000100 fc 3c e0 bf 31 77 0d be e7 f2 14 3d 8b ed 26 bf
       -1.7518611 -0.13814999 0.036364462 -0.6520621
000110 7c d6 84 be 5e 3a 1a 3f d0 8c 14 c0 6a 94 8d bf
       -0.2594489 0.6024531 -2.3210945 -1.1060917
000120 2c de 9d bd 1a 6a 5b 3d 25 59 eb bf 1e 53 80 c0
       -0.077083915 0.053567983 -1.838658 -4.010146
000130 62 90 f5 bf 0f 09 88 3d 86 4a 05 3c a7 86 99 3e
       -1.9184687 0.06642353 0.008135444 0.29985544
000140 39 2b c8 bd fe 74 05 c0 33 41 3e bf c9 66 0e c0
       -0.09773869 -2.0852656 -0.74318236 -2.2250235
000150 20 1b a7 bf 81 b5 b4 3e 19 45 02 c0 de 19 cd be
       -1.3055153 0.35294726 -2.0354674 -0.40058798
000160 19 58 a0 3c ae 67 06 be cd d8 60 bf 5a a0 1f bf
       0.019573258 -0.13125488 -0.8783081 -0.6235405
000170 d6 a0 ca bf 97 8d 38 bf ee 9b 5c 3f 4c 48 38 bf
       -1.5830333 -0.7209105 0.8617543 -0.71985316
000180 aa 1d 7e 3d 87 64 24 3f a5 6a b3 bf 93 6f 9b 3f
       0.06204001 0.6421589 -1.401692 1.2143425
000190 18 bb 1b c0 ba c2 aa be c3 7c 5e bf f3 f6 1b bf
       -2.4332943 -0.3335169 -0.8690912 -0.6092369
0001a0 34 2f 04 c0 48 d9 a9 be 56 f8 5a c0 bd 55 a9 bf
       -2.065381 -0.33173585 -3.4214072 -1.322929
0001b0 59 14 0e be da 9d b6 3e 55 e0 ba bf 8c 40 84 bf
       -0.1387495 0.35667306 -1.4599711 -1.0332198
0001c0 3c 8a 92 3e a7 b0 a2 bf cc 45 32 3f bb 9a 25 3e
       0.2862109 -1.271016 0.6963775 0.16172306
0001d0 64 56 11 c0 08 5c e5 3d 8f d2 41 c0 6d 01 e2 3d
       -2.2708979 0.11199194 -3.0284765 0.11035428
0001e0 6d d7 26 c0 b1 3d 79 3f 48 1b df 3e dc 20 56 bf
       -2.6068985 0.9735976 0.435755 -0.8364389
0001f0 4e 2c 4f 3e d6 5b 24 c0 a6 08 24 bd f6 6e cc bf
       0.20231745 -2.5681052 -0.04004731 -1.5971363

l1.mu_weight f4 [16, 32]
000000 5d a1 bf bf 30 c8 e0 bf 69 d0 09 40 6a a6 1b 40
       -1.4971119 -1.7561092 2.1533453 2.432032
000010 1c 00 8d 3e 62 7d 2b 3f bd cd 82 3f 8d 48 04 40
       0.27539146 0.66988194 1.0219036 2.0669281
000020 39 e3 dc be e7 40 c1 bf 24 18 d7 bf 51 34 e9 be
       -0.43142107 -1.5097932 -1.6804242 -0.45547727
000030 e5 3d 33 3f 7c 06 67 be e0 a9 00 c0 0e 0d 14 40
       0.7001632 -0.22561067 -2.0103683 2.3132968
000040 e3 8f 22 3e 7e 77 78 be 51 f0 0d 3f 38 d0 0f c0
       0.15875201 -0.24264333 0.5544482 -2.2470837
000050 8f e4 f1 3f 6d 14 63 be 68 db d3 bf a0 52 fb 3f
       1.8897876 -0.2217576 -1.6551332 1.963459
000060 de 08 42 3f c5 74 75 3e a8 ba 17 40 ad 85 05 40
       0.7579478 0.23970325 2.3707676 2.086284
000070 fc 78 cf 3f 0e a9 ab 3f 86 8d 51 3e 7f b6 d6 3e
       1.6208797 1.3410966 0.20464143 0.41936108
000080 2d a4 d1 3f 0e b3 d8 3f d7 3a 09 c0 42 a8 1b c0
       1.6378227 1.6929643 -2.1442163 -2.4321446
000090 51 6d c8 be f5 ab 56 bf 90 69 91 bf 3e 48 02 c0
       -0.39145902 -0.83856136 -1.136034 -2.0356593
0000a0 80 3b 17 3f 20 69 c1 3f f3 23 e3 3f e6 2a c3 3e
       0.59075165 1.5110207 1.7745346 0.38118666
0000b0 98 77 10 bf 99 ae 95 3e dd 54 09 40 b8 86 0f c0
       -0.56432486 0.2923477 2.1458046 -2.2425976
0000c0 b5 34 45 be ae 0a 92 3e 36 9f ed be 88 21 18 40
       -0.19258387 0.28523773 -0.4641053 2.3770466
0000d0 b5 19 d6 bf 19 0e 81 3e a4 7f e9 3f 80 81 0b c0
       -1.6726595 0.25206068 1.8242078 -2.179779
0000e0 60 39 17 bf d4 e7 9e be 08 da 11 c0 79 0a 11 c0
       -0.5907192 -0.31036246 -2.2789326 -2.2662642
0000f0 59 57 e4 bf 4c 06 bf bf 60 bf 7e be 07 f5 91 be
       -1.7839156 -1.4923797 -0.24877691 -0.28507254
000100 2c e9 d3 3f 16 50 f1 3f 30 f5 07 c0 37 dd 19 c0
       1.6555533 1.8852565 -2.12434 -2.404127
000110 28 0e a7 be f9 36 26 bf 54 ea 98 bf e5 20 08 c0
       -0.32627988 -0.6492763 -1.1946511 -2.1270077
000120 fa 0d d6 3e 1c 44 c8 3f 1d b5 c5 3f 4e b3 af 3e
       0.41807538 1.5645785 1.5445896 0.34316486
000130 60 ab 5b bf c9 39 90 3e c0 64 13 40 84 47 14 c0
       -0.8580837 0.28169087 2.3030243 -2.316865
000140 11 03 42 be da 08 c9 3e a2 49 08 bf 83 54 13 40
       -0.18946482 0.39264566 -0.53237355 2.3020332
000150 dc 32 f0 bf 6d cc 70 3e 13 00 d7 3f b5 30 e1 bf
       -1.8765521 0.23515482 1.6796898 -1.7592989
000160 3c b9 31 bf 37 b8 a2 be 60 e9 0c c0 d0 c4 0a c0
       -0.6942327 -0.3178117 -2.201744 -2.1682625
000170 c0 47 eb bf 54 a1 ae bf bf af 5c be 02 61 aa be
       -1.8381271 -1.3642983 -0.21551417 -0.33277136
000180 38 86 c3 3f 89 e1 cc 3f b8 a1 1c c0 eb 9d 14 c0
       1.5275335 1.6006328 -2.4473705 -2.3221385
000190 96 b9 c6 be 4f d2 51 bf 3f 2a a2 bf e6 cd 0c c0
       -0.38813466 -0.8196153 -1.2669142 -2.200067
0001a0 7f b3 12 3f 57 df b1 3f fd f7 c4 3f 71 13 c5 3e
       0.5730514 1.3896283 1.538818 0.38491395
0001b0 79 3e 3e bf 37 5d 87 3e f7 7d 07 40 46 68 10 c0
       -0.74314076 0.26438305 2.1170633 -2.2563643
0001c0 2e 4d 4e be 8c 38 b2 3e 44 8f 07 bf 01 8b 18 40
       -0.20146629 0.34808767 -0.5295298 2.3834841
0001d0 f5 20 dd bf ca 52 8d 3e ef 5f da 3f 5d ae 05 c0
       -1.7275683 0.27602226 1.7060527 -2.0887673
0001e0 99 2a 10 bf 4d 67 8e be 89 0c 18 c0 e4 1d fd bf
       -0.56315 -0.27813187 -2.375765 -1.9774747
0001f0 ea 98 d9 bf 6c 26 b9 bf 26 1a 5d be 84 2f a2 be
       -1.6999791 -1.446485 -0.21592006 -0.31676877
000200 c4 29 bd 3f cd 62 ce 3f 48 54 0d c0 52 7f 26 c0
       1.4778371 1.6123902 -2.2082691 -2.601521
000210 12 74 bb be 4f 9f 31 bf fd d5 9d bf 29 20 10 c0
       -0.36611992 -0.6938371 -1.2330929 -2.251963
000220 76 c0 9c 3e b5 21 ec 3f 80 4b dc 3f 3c f8 d9 3e
       0.30615586 1.8447787 1.7210541 0.425722
000230 93 b6 52 bf b0 26 5c 3e d8 a0 0a 40 07 df 17 c0
       -0.82309836 0.21499133 2.1660671 -2.3729875
000240 cb 2c 47 be 76 13 c3 3e 0f e5 cd be 88 fb 23 40
       -0.19450681 0.38100785 -0.4021382 2.5622272
000250 c1 41 e6 bf 52 83 6f 3e f1 38 f6 3f 6e 6a fc bf
       -1.7988816 0.23389938 1.9236127 -1.971998
000260 f6 4f 13 bf dd 94 93 be 38 3d 15 c0 ff d0 0a c0
       -0.57543886 -0.2882451 -2.3318615 -2.169006
000270 26 a3 fd bf 04 70 96 bf 85 5b 62 be ca af 54 be
       -1.9815414 -1.1752934 -0.22105224 -0.20770183
000280 bb 41 d6 3f 77 58 de 3f 36 c8 02 c0 75 b8 1b c0
       1.6738809 1.7370747 -2.04347 -2.4331334
000290 2b 23 aa be 2a cc 3d bf 22 ac 8f bf bb 57 09 c0
       -0.33229956 -0.74139655 -1.1224406 -2.1459796
0002a0 73 25 ed 3e 42 2b cb 3f 02 00 d2 3f bb ea b1 3e
       0.46317634 1.5872576 1.6406252 0.34749398
0002b0 c7 d4 2f bf 5f 8c 8b 3e db c0 12 40 bc cb 12 c0
       -0.6868405 0.27255532 2.293021 -2.293685
0002c0 9e dd 18 be 12 b7 b5 3e ff ab 23 bf 64 70 13 40
       -0.1492829 0.35491234 -0.6393432 2.3037348
0002d0 3e da cb bf 6f 7b 8f 3e 84 40 f1 3f 73 82 10 c0
       -1.5925977 0.2802386 1.8847814 -2.257962
0002e0 bb 49 32 bf 81 66 9b be 9d d1 1b c0 83 5d 09 c0
       -0.69643754 -0.30351642 -2.4346688 -2.1463325
0002f0 bd 85 fb bf df 79 ab bf 8a b9 73 be 0a a3 4e be
       -1.9650189 -1.3396567 -0.23801246 -0.20179382
000300 e3 6e ce 3f 4a 88 d3 3f ed 0d 0e c0 8e 75 1f c0
       1.612759 1.6525967 -2.2196 -2.49155
000310 08 6d c1 be 53 2b 14 bf 39 b0 76 bf e6 cc 09 c0
       -0.37778497 -0.5787861 -0.96362644 -2.153131
000320 47 4e b4 3e 9f a3 d4 3f d6 2d e6 3f 8b e0 fb 3e
       0.3521597 1.6612433 1.7982738 0.4919475
000330 89 7a 40 bf f8 55 90 3e ed 6d 11 40 04 94 13 c0
       -0.75186974 0.2819059 2.2723343 -2.3059092
000340 46 c2 74 be c3 8a e3 3e de 15 14 bf 94 88 0d 40
       -0.23902234 0.44441804 -0.57845867 2.211461
000350 d5 50 f7 bf 4b 85 7e 3e 5c 76 e2 3f f4 bb 0d c0
       -1.9321543 0.24855535 1.769237 -2.2145967
000360 01 0c 00 bf 10 5f a4 be 4b b1 17 c0 90 83 0e c0
       -0.50018317 -0.32103777 -2.370196 -2.22678
000370 e8 6b e5 bf 98 ad a9 bf d8 1b 8d be 03 af 5a be
       -1.7923555 -1.3256102 -0.27560306 -0.21355824
000380 ab c6 d0 3f 20 9b f4 3f 75 6a 01 c0 aa f9 18 c0
       1.6310629 1.910984 -2.0221226 -2.3902383
000390 d5 02 ad be de 67 33 bf 23 9f 95 bf 7e 92 0b c0
       -0.33791223 -0.70080364 -1.168919 -2.1808162
0003a0 23 13 c9 3e 7b b3 da 3f a7 da df 3f 5c 32 e6 3e
       0.39272413 1.7086023 1.7488602 0.44960296
0003b0 7a e2 39 bf 61 07 62 3e f6 88 0d 40 19 84 13 c0
       -0.726112 0.22073127 2.2114844 -2.3049376
0003c0 f5 79 64 be f9 e3 cc 3e b1 db 0e bf 2d bc 17 40
       -0.22312148 0.4001768 -0.5580397 2.3708603
0003d0 d5 99 ee bf 1e 4e 71 3e 6f 82 d5 3f cd 49 02 c0
       -1.8640696 0.23564956 1.668043 -2.0357544
0003e0 ac f6 2d bf b1 ea 88 be 42 05 15 c0 21 47 0e c0
       -0.67954516 -0.26741555 -2.328446 -2.2230914
0003f0 2e 2e f2 bf 02 17 b3 bf 47 7d 7d be 86 c7 66 be
       -1.8920343 -1.3991396 -0.24754821 -0.2253705
