BNN/model_states/BNN_model_state_FD001_noisy_CF.pt (torch, 57845 bytes, 14 tensors)

lstm.ih.mu_weight f4 [128, 14]
0.14702088 0.16280578 0.08350009 -0.23140737 0.036613744 -0.18822014 -0.06709698 -0.08847645
-0.13306357 0.013175453 0.037194774 -0.13512293 0.055791214 -0.03431385 -0.27918297 -0.002021446
0.05829669 -0.12481138 -0.2098234 -0.09394811 -0.20208351 0.08178936 -0.04363491 -0.01970604
-0.08354407 -0.28014487 0.07653534 0.2301219 -0.04617371 -0.13996099 -0.012167682 0.23934515
-0.053428546 0.024845004 -0.07416033 0.3128292 0.113286294 0.11603922 0.105539076 -0.07259973
-0.048883572 0.18576185 -0.06183366 -0.10552442 -0.28423038 0.3951546 -0.11586591 -0.08710895
-0.19432124 0.056313466 0.04479808 0.049651075 -0.13720614 0.22557023 -0.16755615 -0.020634394
-0.14041112 -0.17268424 -0.18960023 0.28510666 0.04213498 0.22213112 -0.24769683 0.29450226
0.13081345 0.11402993 0.04752013 0.21557799 0.086618096 -0.023114245 -0.26249573 -0.106600106
-0.21065997 0.18953691 -0.12575299 -0.11497948 -0.1685388 0.10211755 -0.38079333 -0.19327436
-0.15978873 -0.0954508 0.09438469 -0.017405106 -0.022151917 -0.042565092 -0.00027773165 0.018849632
0.14725341 -0.23355581 -0.16704017 0.22409587 -0.13267788 -0.18545103 -0.039597206 -0.2303396
-0.42794332 0.080453664 0.07040707 0.024536071 0.06342252 0.051078882 0.24491757 -0.05932554
-0.06466658 0.13173999 0.29038593 0.016989484 0.04918037 0.15873511 0.035971463 -0.020904848
-0.33719605 -0.18896006 -0.2180645 0.1048377 0.032308295 -0.0913696 -0.22821918 0.2804576
0.07908237 -0.021016553 -0.1431703 0.008842871 0.2030917 0.09090865 0.08037829 -0.09616968
0.012660322 0.24855092 -0.17135696 -0.0039513176 -0.13896991 0.113378495 0.119827144 0.09264177
-0.03700299 -0.17642206 -0.038935736 0.15207592 0.1736375 0.10061754 -0.17783366 0.16616994
-0.16453406 -0.15891121 0.01861552 0.33843642 0.040129587 -0.2616817 -0.08383271 0.041122325
-0.092683755 0.44861367 -0.10809706 -0.1606609 -0.45839944 0.22744894 -0.14845757 0.10903133
-0.35732538 0.28954992 -0.021245161 -0.0024617554 -0.2558552 0.24039084 0.39353135 0.21008176
-0.19454755 0.060981177 -0.008715431 0.13361664 -0.3582797 0.11337706 -0.06923152 0.31297395
-0.3771569 0.012521139 -0.07455648 0.08151622 -0.02790527 -0.098270334 0.059682865 -0.047533195
0.014364382 -0.042959135 0.084717095 0.17439601 0.093475446 0.04858754 0.34483284 0.2807452
0.21870978 0.11670174 0.016139468 0.0015519839 -0.096379496 -0.08889761 -0.0052166 0.3162201
0.20071383 0.23423451 -0.15962699 -0.080397 0.3001512 0.15979348 0.081451215 0.24105392
-0.15208505 -0.17294867 -0.5063363 -0.073993474 -0.20691164 -0.13251895 -0.25271997 -0.48426402
-0.17738475 0.038917772 -0.19133237 -0.09506225 -0.103177205 -0.44898948 0.16245216 0.007325946
-0.34050715 0.0011072143 -0.04096309 -0.03481745 -0.3581475 -0.20833884 -0.36578742 0.44617826
-0.07728808 -0.20091282 -0.43954584 -0.25097302 0.089698374 0.002425415 -0.050445165 -0.017056294
-0.10591836 -0.118901186 -0.03629259 0.024903195 -0.10279203 0.06681603 0.008073572 0.08478813
0.13973385 -0.22201529 0.17793185 0.19808577 -0.015155603 -0.13989311 0.04600281 0.2136165
00000000: a48c 163e 8fb6 263e 1802 ab3d 0ef6 6cbe
00000010: 4bf8 153d c8bc 40be 246a 89bd 2433 b5bd
00000020: d141 08be dbdd 573c 8c59 183d aa5d 0abe
00000030: 5485 643d ae8c 0cbd 12f1 8ebe 3c7a 04bb
00000040: 83c8 6e3d 1c9d ffbd f2db 56be de67 c0bd
00000050: fbee 4ebe 2e81 a73d 85ba 32bd 906e a1bc
00000060: 2719 abbd 266f 8fbe 8fbe 9c3d 13a5 6b3e
00000070: a520 3dbd ef51 0fbe f55a 47bc e516 753e
00000080: e4d7 5abd c087 cb3c 5fe1 97bd 262b a03e
00000090: a502 e83d f8a5 ed3d df24 d83d 2baf 94bd
000000a0: 243a 48bd 5b38 3e3e 4b45 7dbd 301d d8bd
000000b0: a586 91be b451 ca3e 1b4b edbd 2d66 b2bd
000000c0: 26fc 46be f3a8 663d 317e 373d ed5e 4b3d
000000d0: c47f 0cbe e2fb 663e d793 2bbe 7609 a9bc
000000e0: efc7 0fbe 23d4 30be 9026 42be 80f9 913e
000000f0: bb95 2c3d 5776 633e 3da4 7dbe 00c9 963e
00000100: f6f3 053e 8688 e93d 78a4 423d 7ac0 5c3e
00000110: d464 b13d 165a bdbc d765 86be 2851 dabd
00000120: 3fb7 57be f715 423e 64c5 00be 5d7a ebbd
00000130: 6f95 2cbe 0223 d13d 58f7 c2be b7e9 45be
00000140: a89f 23be b67b c3bd c34c c13d 2795 8ebc
00000150: f077 b5bc bc58 2ebd 839c 91b9 8b6a 9a3c
00000160: 99c9 163e 4129 6fbe 940c 2bbe 6379 653e
00000170: b6dc 07be e0e6 3dbe ae30 22bd 25de 6bbe
00000180: 631b dbbe e4c4 a43d 9531 903d dfff c83c
00000190: abe3 813d 1738 513d accb 7a3e 56ff 72bd
000001a0: e96f 84bd d9e6 063e 77ad 943e 882d 8b3c
000001b0: 5b71 493d 758b 223e d056 133d a540 abbc
000001c0: f6a4 acbe bf7e 41be 4d4c 5fbe 26b5 d63d
000001d0: b455 043d fc1f bbbd 4ab2 69be 2398 8f3e
000001e0: f0f5 a13d e82a acbc 3c9b 12be b0e1 103c
000001f0: 45f7 4f3e 502e ba3d 5f9d a43d 9cf4 c4bd
00000200: 3d6d 4f3c 2284 7e3e 3378 2fbe 0e7a 81bb
00000210: 214e 0ebe fc32 e83d ef67 f53d f8ba bd3d
00000220: 7290 17bd fca7 34be 147b 1fbd cab9 1b3e
00000230: 07ce 313e 9210 ce3d 071a 36be 7428 2a3e
00000240: 9e7b 28be 9fb9 22be 937f 983c 8a47 ad3e
00000250: ec5e 243d 25fb 85be 7cb0 abbd e26f 283d
00000260: fbd0 bdbd b1b0 e53e fe61 ddbd 4a84 24be
00000270: 55b3 eabe 60e8 683e 4305 18be d14b df3d
00000280: 5af3 b6be e33f 943e 550a aebc 6755 21bb
00000290: 74ff 82be 0429 763e f17c c93e ac1f 573e
000002a0: 7937 47be 66c7 793d 2bcb 0ebc cdd2 083e
000002b0: 7070 b7be 3b32 e83d 41c9 8dbd 1f3e a03e
000002c0: b61a c1be 7725 4d3c 11b1 98bd faf1 a63d
000002d0: 9899 e4bc f541 c9bd 0576 743d 2bb2 42bd
000002e0: 9658 6b3c ebf5 2fbd 2880 ad3d de94 323e
000002f0: 0e70 bf3d ba03 473d ee8d b03e d6bd 8f3e
00000300: 75f5 5f3e 5201 ef3d eb36 843c f06b cb3a
00000310: 9d62 c5bd f30f b6bd 03f0 aabb 9ae7 a13e
00000320: ed87 4d3e 2cdb 6f3e 4275 23be 2fa7 a4bd
00000330: 6bad 993e e7a0 233e e5cf a63d d7d6 763e
00000340: 2fbc 1bbe 7519 31be 419f 01bf e489 97bd
00000350: a5e0 53be 0cb3 07be 8364 81be 74f1 f7be
00000360: 59a4 35be 3e68 1f3d a2ec 43be ffaf c2bd
00000370: 924e d3bd f3e1 e5be dc59 263e 7d0e f03b
00000380: f456 aebe f21f 913a eac8 27bd be9c 0ebd
00000390: 1c5f b7be c756 55be 7d48 bbbe 7a71 e43e
000003a0: 3649 9ebd 17bc 4dbe 270c e1be 897f 80be
000003b0: c8b3 b73d b6f3 1e3b 979f 4ebd a4b9 8bbc
000003c0: baeb d8bd 7782 f3bd 8aa7 14bd c901 cc3c
000003d0: a184 d2bd d8d6 883d 0447 043c 66a5 ad3d
000003e0: 6416 0f3e fa57 63be c433 363e ffd6 4a3e
000003f0: 354f 78bc 2440 0fbe 716d 3c3d 49be 5a3e

lstm.ih.rho_weight f4 [128, 14]
-2.9342318 -2.8066385 -2.7372296 -3.015977 -2.962026 -2.8611338 -2.8022075 -3.0131886
-2.766628 -2.7929533 -2.9907348 -2.769127 -2.734557 -2.7591867 -2.6725943 -2.7828333
-2.9829445 -2.703654 -2.814159 -2.7880306 -2.7477343 -2.732801 -2.8545086 -3.0206287
-2.6892548 -2.7457435 -2.6852062 -2.9291732 -2.8071744 -3.068939 -2.9972992 -3.1502748
-2.942715 -2.764134 -2.8090727 -2.9535658 -2.9920812 -3.0846698 -2.8425202 -2.8689735
-2.7722414 -2.7384944 -3.1297824 -2.8841705 -2.9245262 -3.0635402 -2.9915707 -2.7726495
-2.8309646 -2.6636329 -2.866887 -2.9301677 -2.9838846 -2.8866982 -2.8963234 -2.7162745
-2.9830093 -2.9214375 -3.1284344 -2.862226 -2.9303849 -2.9966073 -3.0583072 -2.997008
-2.7620125 -2.8608403 -2.9560606 -3.159094 -2.9045773 -2.9428234 -3.0365806 -2.7747312
-2.9875607 -2.992481 -2.946726 -2.9543095 -2.9777691 -3.0467901 -3.1170633 -3.0100942
-2.9265568 -2.7834337 -2.890069 -2.8846672 -2.958017 -2.918495 -3.0732727 -2.8831265
-2.7936423 -2.8075845 -2.8631933 -3.0548134 -2.7995942 -2.7776356 -2.731376 -2.8544714
-2.8012283 -2.9843059 -2.7019925 -2.8172693 -2.849453 -2.8336277 -2.9364088 -2.936719
-3.0434694 -2.8906617 -2.9284077 -2.6207314 -2.9540582 -2.9630673 -2.9211798 -2.8853788
-2.746111 -2.7849996 -2.8755283 -2.926635 -2.9745512 -2.9529614 -2.8576233 -2.9045386
-2.9093046 -2.9384012 -2.920405 -2.8584704 -2.8204756 -2.7908258 -2.9127903 -2.7460268
-2.7663074 -2.8064966 -2.8100946 -2.8809733 -2.7325294 -2.9063332 -2.8368812 -2.7988322
-2.8803103 -2.9748728 -2.6740026 -2.7543566 -2.732886 -2.9223332 -2.7704003 -2.8317757
-3.1300676 -2.721495 -2.5771797 -2.7554517 -2.6207519 -2.780001 -2.6368594 -2.9647782
-2.710975 -2.7466495 -2.937453 -2.8838131 -2.9929278 -2.841338 -2.787323 -2.8705642
-2.913177 -3.000743 -3.0094957 -3.030111 -2.9492576 -2.882777 -2.928563 -2.8726916
-2.9264839 -2.9414842 -2.9167306 -2.8970766 -2.8828607 -2.8151393 -2.8077393 -2.8809264
-2.8471646 -3.0198314 -2.966385 -2.7516108 -2.9203007 -2.9290795 -2.8584435 -2.9284744
-2.9142902 -2.866103 -3.1414466 -3.0289724 -3.0308027 -2.9221725 -2.9044425 -3.0612528
-2.8292117 -2.85799 -2.8601217 -2.8716266 -2.9300256 -2.9105372 -2.9571772 -3.0579803
-3.0588307 -2.6661527 -2.9017162 -2.8591394 -2.6896799 -2.9485066 -2.8289242 -2.8685133
-3.101564 -2.9895577 -2.901629 -2.8917804 -2.753667 -2.7925613 -2.9663496 -2.8007433
-2.7747777 -2.7477193 -3.035191 -2.8758235 -2.7760026 -2.910541 -2.7862027 -2.7809443
-3.0102127 -2.9946187 -2.8003035 -2.9576476 -2.8614063 -2.9760404 -2.8286517 -2.9179878
-3.0291705 -2.975285 -2.902094 -2.7863002 -3.0287921 -2.9595187 -2.967089 -2.9106238
-2.9265232 -2.817099 -2.8201332 -2.9666896 -2.882205 -2.827978 -2.9494405 -2.6118984
-2.8018382 -2.7569358 -2.8011796 -2.9645796 -2.9034212 -2.7768362 -2.7832313 -2.8399417
00000000: 74ca 3bc0 f79f 33c0 c52e 2fc0 c405 41c0
00000010: d591 3dc0 d11c 37c0 5e57 33c0 15d8 40c0
00000020: 6f10 31c0 bfbf 32c0 3368 3fc0 6039 31c0
00000030: fb02 2fc0 8496 30c0 c90b 2bc0 f119 32c0
00000040: 90e8 3ec0 ab08 2dc0 2e1b 34c0 186f 32c0
00000050: e1da 2fc0 36e6 2ec0 45b0 36c0 fb51 41c0
00000060: c01c 2cc0 43ba 2fc0 6bda 2bc0 9377 3bc0
00000070: bfa8 33c0 7f69 44c0 c0d3 3fc0 1a9e 49c0
00000080: 7155 3cc0 92e7 30c0 d9c7 33c0 3907 3dc0
00000090: 427e 3fc0 3b6b 45c0 daeb 35c0 439d 37c0
000000a0: 676c 31c0 7e43 2fc0 5b4e 48c0 4096 38c0
000000b0: 702b 3bc0 0b11 44c0 e575 3fc0 1773 31c0
000000c0: 862e 35c0 f678 2ac0 147b 37c0 de87 3bc0
000000d0: f7f7 3ec0 aabf 38c0 5d5d 39c0 71d7 2dc0
000000e0: a0e9 3ec0 d5f8 3ac0 4538 48c0 b62e 37c0
000000f0: 6d8b 3bc0 6ac8 3fc0 4ebb 43c0 fbce 3fc0
00000100: d0c4 30c0 0218 37c0 1930 3dc0 992e 4ac0
00000110: 98e4 39c0 3857 3cc0 5657 42c0 3295 31c0
00000120: 3234 3fc0 cf84 3fc0 2997 3cc0 6813 3dc0
00000130: c593 3ec0 9cfe 42c0 f77d 47c0 62a5 40c0
00000140: b54c 3bc0 c723 32c0 e4f6 38c0 639e 38c0
00000150: 2750 3dc0 9fc8 3ac0 80b0 44c0 2585 38c0
00000160: 09cb 32c0 77af 33c0 8f3e 37c0 1082 43c0
00000170: 8d2c 33c0 c8c4 31c0 ddce 2ec0 a9af 36c0
00000180: 5347 33c0 defe 3ec0 72ed 2cc0 244e 34c0
00000190: 705d 36c0 285a 35c0 1fee 3bc0 34f3 3bc0
000001a0: 34c8 42c0 9a00 39c0 086b 3bc0 10ba 27c0
000001b0: 4a0f 3dc0 e5a2 3dc0 9cf4 3ac0 0caa 38c0
000001c0: 48c0 2fc0 6f3d 32c0 a808 38c0 fd4d 3bc0
000001d0: 0c5f 3ec0 52fd 3cc0 4de3 36c0 f6e3 39c0
000001e0: 0c32 3ac0 c40e 3cc0 eae7 3ac0 2ef1 36c0
000001f0: ac82 34c0 e49c 32c0 286b 3ac0 e7be 2fc0
00000200: 2e0b 31c0 a49d 33c0 97d8 33c0 de61 38c0
00000210: c3e1 2ec0 5d01 3ac0 768f 35c0 1120 33c0
00000220: 0157 38c0 5164 3ec0 dc22 2bc0 6147 30c0
00000230: 9be7 2ec0 8207 3bc0 3d4e 31c0 d03b 35c0
00000240: 0753 48c0 f92c 2ec0 83f0 24c0 5259 30c0
00000250: 66ba 27c0 89eb 31c0 4ec2 28c0 edbe 3dc0
00000260: 9d80 2dc0 1bc9 2fc0 3bff 3bc0 6590 38c0
00000270: 218c 3fc0 7bd8 35c0 8063 32c0 53b7 37c0
00000280: 7e71 3ac0 2c0c 40c0 949b 40c0 57ed 41c0
00000290: a3c0 3cc0 6b7f 38c0 946d 3bc0 2eda 37c0
000002a0: 834b 3bc0 4741 3cc0 b7ab 3ac0 b469 39c0
000002b0: ca80 38c0 3e2b 34c0 00b2 33c0 1961 38c0
000002c0: f237 36c0 eb44 41c0 40d9 3dc0 641a 30c0
000002d0: 35e6 3ac0 0a76 3bc0 bdf0 36c0 206c 3bc0
000002e0: bb83 3ac0 3b6e 37c0 760d 49c0 afda 41c0
000002f0: acf8 41c0 e004 3bc0 63e2 39c0 91eb 43c0
00000300: ce11 35c0 4fe9 36c0 3c0c 37c0 bbc8 37c0
00000310: 8a85 3bc0 3e46 3ac0 6442 3dc0 f3b5 43c0
00000320: e2c3 43c0 3fa2 2ac0 b8b5 39c0 24fc 36c0
00000330: b723 2cc0 55b4 3cc0 180d 35c0 b995 37c0
00000340: 0680 46c0 ea54 3fc0 4ab4 39c0 ee12 39c0
00000350: 153c 30c0 53b9 32c0 acd8 3dc0 613f 33c0
00000360: f595 31c0 a2da 2fc0 9240 42c0 7e0d 38c0
00000370: 07aa 31c0 4e46 3ac0 2551 32c0 fefa 31c0
00000380: 53a7 40c0 d5a7 3fc0 2c38 33c0 194a 3dc0
00000390: 4821 37c0 7277 3ec0 a108 35c0 50c0 3ac0
000003a0: eedd 41c0 126b 3ec0 e8bb 39c0 be52 32c0
000003b0: bbd7 41c0 c168 3dc0 c9e4 3dc0 a947 3ac0
000003c0: 284c 3bc0 5a4b 34c0 107d 34c0 3ede 3dc0
000003d0: 0c76 38c0 97fd 34c0 a2c3 3cc0 5829 27c0
000003e0: 5151 33c0 a371 30c0 8746 33c0 acbb 3dc0
000003f0: a7d1 39c0 afb7 31c0 7620 32c0 9bc1 35c0

lstm.ih.mu_bias f4 [128]
0.1731793 -0.00017605131 0.034205876 0.0033046738 0.04169291 0.16403937 0.12632573 0.08515168
0.052267 -0.08467531 0.13123171 0.08698039 0.32358992 0.050420523 0.1262191 0.0120795
-0.2185287 -0.007277259 0.016722245 0.15972573 0.016052302 0.07059268 -0.1741886 0.22813177
0.027990468 -0.0010598875 0.35292792 0.10830936 0.14290841 0.01576463 0.28205436 -0.094275825
0.26700255 0.03147562 0.05247902 0.14377594 0.07915989 0.015944002 0.05262812 0.19367182
-0.068868816 -0.05422436 0.18189621 0.18058515 0.1268854 -0.021199593 -0.060411684 0.19733436
-0.048768762 -0.03181451 0.3044838 0.08283246 -0.17487529 0.052489474 -0.045642443 0.1341705
-0.058196668 -0.038751174 0.26107505 0.16853169 0.095013805 -0.09562541 0.29476148 -0.14085042
-0.36299908 0.12296367 0.18095732 -0.16922857 0.14319687 0.075890176 0.17526518 -0.19270803
0.023055896 0.0776894 -0.09092759 0.0821672 -0.17245746 0.13112171 0.08665089 0.03560191
0.05032388 -0.019874442 -0.13408796 0.0013463146 -0.23672189 0.036634635 0.0039434084 0.051375784
0.031514157 0.197249 -0.0067891045 0.07309381 -0.103742905 0.26592046 -0.08563847 0.12564246
0.18552397 0.3341585 0.023974026 0.067852676 0.20226455 0.20871587 0.049332935 0.35280964
0.22474961 0.17758082 0.28153637 -0.02534024 0.27882072 0.20295656 0.08457108 0.21213725
0.08971655 0.2562709 0.15611231 0.33446586 0.1896274 0.17921415 -0.003030088 0.26985458
0.23260106 0.2568132 0.08916185 0.18868801 0.2861045 0.43167058 0.16489147 0.1173213
00000000: ea55 313e 6a9a 38b9 761b 0c3d 3a93 583b
00000010: 2fc6 2a3d f0f9 273e 885b 013e 0164 ae3d
00000020: ec15 563d 406a adbd 9b61 063e c622 b23d
00000030: 94ad a53e c085 4e3d 943f 013e 18e9 453c
00000040: fdc5 5fbe 1376 eebb 17fd 883c 248f 233e
00000050: 1e80 833c e592 903d 7f5e 32be 609b 693e
00000060: 444c e53c eceb 8aba f8b2 b43e 4cd1 dd3d
00000070: 9556 123e d324 813c 6e69 903e af13 c1bd
00000080: 8fb4 883e 94ec 003d 3ef4 563d 003a 133e
00000090: 951e a23d ff9c 823c 9590 573d e851 463e
000000a0: 180b 8dbd 5d1a 5ebd 0043 3a3e 50eb 383e
000000b0: 3fee 013e c5aa adbc 3e72 77bd 0512 4a3e
000000c0: c1c1 47bd ee4f 02bd 4de5 9b3e 11a4 a93d
000000d0: 8212 33be 34ff 563d 92f3 3abd fe63 093e
000000e0: a15f 6ebd 8db9 1ebd a1ab 853e 9293 2c3e
000000f0: 9996 c23d 41d7 c3bd faea 963e 183b 10be
00000100: 04db b9be 60d4 fb3d e04c 393e 414a 2dbe
00000110: 33a2 123e 4f6c 9b3d b778 333e 4155 45be
00000120: b8df bc3c 9f1b 9f3d 3f38 babd 4747 a83d
00000130: b098 30be c544 063e 0676 b13d 4fd3 113d
00000140: 6a20 4e3d bacf a2bc 5b4e 09be d276 b03a
00000150: 3967 72be 330e 163d b537 813b 6a6f 523d
00000160: fd14 013d a4fb 493e 2377 debb 35b2 953d
00000170: 2977 d4bd ba26 883e 3963 afbd 6ba8 003e
00000180: fff9 3d3e d316 ab3e 2d65 c43c 58f6 8a3d
00000190: 701e 4f3e 9db9 553e 5511 4a3d 77a3 b43e
000001a0: c324 663e bfd7 353e 8925 903e 5696 cfbc
000001b0: 97c1 8e3e d8d3 4f3e 9a33 ad3d 823a 593e
000001c0: 50bd b73d f035 833e e8db 1f3e 1c3f ab3e
000001d0: af2d 423e ea83 373e 7194 46bb 612a 8a3e
000001e0: f92e 6e3e 057d 833e 7d9a b63d 6e37 413e
000001f0: 4a7c 923e ed03 dd3e 4fd9 283e 2646 f03d

lstm.ih.rho_bias f4 [128]
-2.5954292 -2.5121586 -2.4273713 -2.7723417 -2.9269772 -2.716183 -2.7541733 -2.6554625
-2.856703 -2.489649 -2.764085 -2.8660512 -2.6693804 -2.7048054 -2.772652 -2.97321
-2.7353737 -2.7137752 -2.5071 -2.6763546 -2.6388428 -2.5566301 -2.7910244 -2.520954
-2.7959287 -2.60077 -2.5512502 -2.2798293 -2.6001883 -2.634982 -2.4951987 -2.576295
-2.4937913 -2.605265 -2.748469 -2.9749258 -2.7735713 -2.734793 -2.8669674 -2.7063885
-2.6918163 -2.7782297 -2.7771733 -2.8998265 -2.7145014 -2.7915049 -2.9785614 -2.8359425
-2.7495105 -2.6005065 -2.7113404 -2.718569 -2.9012935 -2.7614932 -2.7218263 -2.4659991
-2.7108345 -2.6779628 -2.4430723 -2.5413463 -2.75362 -2.8019142 -2.4047093 -2.7568674
-2.852343 -2.9323356 -2.8834589 -2.8637424 -2.8356497 -2.8458064 -2.8496711 -2.8424945
-3.1607783 -2.8159573 -2.6417463 -2.9688883 -2.9377403 -2.871261 -3.1144142 -3.042802
-2.7336152 -2.917665 -2.9161832 -3.0064125 -2.7888625 -2.9208844 -2.8069375 -2.8041923
-3.0374186 -2.7595167 -2.850103 -2.7839954 -3.2038715 -2.884137 -2.8256533 -2.804031
-2.7581868 -2.475524 -2.6017578 -2.7851532 -2.6862962 -2.5248394 -2.430591 -2.8937914
-2.6554263 -2.781438 -2.3946397 -2.8115559 -2.4969068 -2.7045972 -2.75873 -2.2863853
-2.5296578 -2.6931527 -2.7133482 -2.6124227 -2.1908972 -2.6439948 -2.9270236 -2.8577666
-2.4729612 -2.6252992 -2.6951122 -2.7226727 -2.452036 -2.5534742 -2.9867966 -2.3588722
00000000: 831b 26c0 35c7 20c0 0d5a 1bc0 0c6e 31c0
00000010: 9853 3bc0 f1d5 2dc0 6044 30c0 19f3 29c0
00000020: 39d4 36c0 6956 1fc0 c5e6 30c0 626d 37c0
00000030: 21d7 2ac0 881b 2dc0 2173 31c0 1349 3ec0
00000040: 5d10 2fc0 7eae 2dc0 5474 20c0 6549 2bc0
00000050: cde2 28c0 d49f 23c0 25a0 32c0 4f57 21c0
00000060: 7ff0 32c0 0473 26c0 af47 23c0 b9e8 11c0
00000070: 7c69 26c0 8ca3 28c0 56b1 1fc0 04e2 24c0
00000080: 479a 1fc0 a9bc 26c0 ebe6 2fc0 2f65 3ec0
00000090: 3182 31c0 d906 2fc0 657c 37c0 7835 2dc0
000000a0: b846 2cc0 84ce 31c0 35bd 31c0 c296 39c0
000000b0: 64ba 2dc0 04a8 32c0 c0a0 3ec0 1580 35c0
000000c0: fbf7 2fc0 b36e 26c0 9a86 2dc0 09fd 2dc0
000000d0: cbae 39c0 4ebc 30c0 6732 2ec0 eed2 1dc0
000000e0: 507e 2dc0 be63 2bc0 4c5b 1cc0 6ba5 22c0
000000f0: 4f3b 30c0 9052 33c0 c2e6 19c0 8470 30c0
00000100: ca8c 36c0 63ab 3bc0 978a 38c0 8e47 37c0
00000110: 497b 35c0 b121 36c0 0361 36c0 6eeb 35c0
00000120: 314a 4ac0 a538 34c0 5f12 29c0 4402 3ec0
00000130: f003 3cc0 bdc2 37c0 9052 47c0 45bd 42c0
00000140: 8df3 2ec0 06bb 3ac0 bfa2 3ac0 1069 40c0
00000150: b97c 32c0 c5ef 3ac0 dda4 33c0 e377 33c0
00000160: 1165 42c0 ec9b 30c0 1668 36c0 fb2c 32c0
00000170: 3b0c 4dc0 b395 38c0 81d7 34c0 3e75 33c0
00000180: 2286 30c0 fc6e 1ec0 3383 26c0 f33f 32c0
00000190: 47ec 2bc0 f896 21c0 ce8e 1bc0 e133 39c0
000001a0: 81f2 29c0 1503 32c0 c741 19c0 88f0 33c0
000001b0: 52cd 1fc0 1f18 2dc0 088f 30c0 2354 12c0
000001c0: eae5 21c0 9d5c 2cc0 7fa7 2dc0 ef31 27c0
000001d0: a937 0cc0 3637 29c0 5b54 3bc0 a6e5 36c0
000001e0: ff44 1ec0 e704 28c0 b87c 2cc0 4540 2ec0
000001f0: 28ee 1cc0 1f6c 23c0 ad27 3fc0 c3f7 16c0

lstm.hh.mu_weight f4 [128, 32]
-0.2685106 -0.085399576 0.37370217 -0.07160345 0.02755408 0.21459696 -0.024149042 -0.2796321
-0.118530825 0.2381496 -0.31602797 0.09421461 -0.17048863 0.018457064 0.19559683 0.057982527
-0.22999384 -0.23395856 -0.4337634 -0.11550847 -0.12334647 -0.17374294 0.14788538 0.39626217
0.18323801 -0.05103044 0.27299252 0.13278387 -0.03952135 0.22660324 -0.12905861 0.43106338
0.04221013 0.108263925 -0.034147833 0.10424505 0.06735738 -0.15229866 0.10070032 -0.015089622
0.035985854 0.012248206 -0.13569431 -0.030071609 0.077368714 0.15149039 0.14801379 0.048043698
0.16283788 -0.052948076 0.078400925 0.083667666 -0.09654086 0.13062112 -0.18044245 0.09928979
-0.018709283 0.06981025 0.09284405 0.052394304 -0.07430016 0.0012579496 0.02293874 0.027409507
-0.14692086 -0.049734645 0.1474567 -0.058327947 0.18417984 0.20370749 0.06427059 -0.18767102
-0.08897189 0.015053687 -0.121090785 0.15617602 -0.27994823 0.1314529 0.24567485 -0.11144685
-0.114521354 -0.07806523 -0.2923814 0.12247331 0.0007938025 0.015589411 0.040262707 0.09870728
0.16528523 0.21832018 0.12747581 0.034988932 0.24261169 -0.011904424 -0.15110832 -0.038933918
0.101155594 -0.014575064 -0.10036104 0.058060534 -0.039375912 -0.14583987 0.10238759 -0.059129655
-0.027727196 0.13063836 -0.133902 0.0020913885 -0.11281531 0.24545996 -0.17943837 0.028770678
-0.098589174 0.07867133 -0.33036575 -0.1825363 -0.05720304 0.17965004 0.041026257 0.011018649
0.008988085 0.15488718 0.043172162 0.10223769 0.0019375648 -0.06975825 -0.10865257 -0.06312255
0.02330881 0.028997159 -0.00040535847 0.037425112 0.116527 -0.041583657 0.057738934 -0.10591255
-0.021396194 0.09947087 -0.11379504 -0.11135343 -0.1598986 -0.08597152 -0.027605675 -0.055754654
0.066679604 -0.10927446 -0.09727424 -0.034526844 -0.070140004 0.034809258 0.23015516 -0.044614587
-0.0001549968 0.16188732 -0.1300448 0.031736504 -0.055276297 0.0085612135 0.05645554 0.16989589
-0.23791836 0.14266378 -0.0643315 0.03176038 0.012051486 0.0059269653 0.16668952 -0.08133158
-0.18724628 0.1861727 0.08394904 -0.08074127 -0.024786646 0.11956753 -0.16585228 -0.014186799
0.15474342 0.023488827 -0.16201709 -0.120522544 -0.049201336 -0.00949595 0.17214474 -0.117789656
0.06146014 0.034109592 -0.1520947 -0.0342629 0.105156295 -0.2297041 0.025948875 -0.08915109
-0.15659621 0.017451784 -0.10208081 0.06623938 0.06769404 -0.012772953 -0.20192018 0.101933725
-0.17819297 0.02742738 0.08166295 -0.0951007 -0.16810589 -0.10853178 0.15766314 -0.1082606
-0.050409235 0.12922645 -0.07330547 -0.076397724 -0.025286915 0.3369416 0.25085935 -0.16094744
-0.03026401 0.09045478 0.0026611967 -0.16999999 -0.1355356 -0.069293514 -0.049633026 -0.10801051
-0.026739901 -0.017400324 0.04136217 -0.11181744 0.0018756718 0.17017598 -0.066600665 -0.07522268
0.13374694 0.029041821 -0.2764105 0.15870187 -0.38405666 0.05870006 0.18037671 -0.22178127
-0.0209659 -0.07159554 0.08916082 0.054363128 -0.19806106 0.048460774 0.098399155 -0.012624625
0.29722154 0.14398144 0.092315875 -0.023786634 0.14201635 0.018286774 0.039007902 0.05644369
00000000: 397a 89be f9e5 aebd e455 bf3e d4a4 92bd
00000010: 18b9 e13c 4ebf 5b3e 36d4 c5bc f02b 8fbe
00000020: 4ac0 f2bd 7ddd 733e 6bce a1be 97f3 c03d
00000030: 9294 2ebe 4533 973c 894a 483e 167f 6d3d
00000040: 8183 6bbe d592 6fbe 3d16 debe b48f ecbd
00000050: 139d fcbd abe9 31be 446f 173e e0e2 ca3e
00000060: bfa2 3b3e 4b05 51bd adc5 8b3e 7ff8 073e
00000070: 24e1 21bd ae0a 683e f127 04be 57b4 dc3e
00000080: 87e4 2c3d 7ab9 dd3d 99de 0bbd 6e7e d53d
00000090: abf2 893d 2ef4 1bbe f83b ce3d 763a 77bc
000000a0: e765 133d b3ac 483c 73f3 0abe bc58 f6bc
000000b0: 7d73 9e3d 4c20 1b3e ed90 173e 78c9 443d
000000c0: f9be 263e 15e0 58bd aa90 a03d f459 ab3d
000000d0: 37b7 c5bd 8bc1 053e e8c5 38be 7258 cb3d
000000e0: 3644 99bc adf8 8e3d 0525 be3d 699b 563d
000000f0: af2a 98bd c9e1 a43a 06ea bb3c e789 e03c
00000100: 6c72 16be 8eb6 4bbd e4fe 163e 49e9 6ebd
00000110: a499 3c3e b298 503e 4da0 833d d52c 40be
00000120: e536 b6bd bda3 763c 72fe f7bd 9bec 1f3e
00000130: 6055 8fbe 979b 063e 3092 7b3e 3f3e e4bd
00000140: 2c8a eabd aae0 9fbd 04b3 95be 49d3 fa3d
00000150: 2f17 503a bb6a 7f3c 82ea 243d 0b27 ca3d
00000160: 8840 293e 538f 5f3e 0589 023e 8e50 0f3d
00000170: 336f 783e c60a 43bc 24bc 1abe 2c79 1fbd
00000180: aa2a cf3d 40cc 6ebc 178a cdbd e2d0 6d3d
00000190: a348 21bd 0c57 15be 96b0 d13d f031 72bd
000001a0: 2524 e3bc 10c6 053e 9b1d 09be ad0f 093b
000001b0: b70b e7bd db59 7b3e b1be 37be 7cb0 eb3c
000001c0: 1fe9 c9bd 6f1e a13d b325 a9be ccea 3abe
000001d0: bc4d 6abd 2ef6 373e 260b 283d 9087 343c
000001e0: c342 133c bf9a 1e3e 4bd5 303d fe61 d13d
000001f0: e3f5 fd3a 6add 8ebd 3d85 debd 6546 81bd
00000200: 1ef2 be3c 738b ed3c 4b86 d4b9 134b 193d
00000210: b5a5 ee3d a053 2abd a97f 6c3d aee8 d8bd
00000220: 1247 afbc 62b7 cb3d 600d e9bd 440d e4bd
00000230: 75bc 23be d611 b0bd 4c25 e2bc fe5e 64bd
00000240: 518f 883d 4acb dfbd b737 c7bd 056c 0dbd
00000250: 90a5 8fbd 2794 0e3d cbad 6b3e c9bd 36bd
00000260: a386 22b9 cac5 253e 772a 05be 23fe 013d
00000270: 6669 62bd 5544 0c3c ed3d 673d 30f9 2d3e
00000280: dfa0 73be 7416 123e 3cc0 83bd 2c17 023d
00000290: 9973 453c fd36 c23b a8b0 2a3e 2c91 a6bd
000002a0: 7dbd 3fbe 0ea4 3e3e 79ed ab3d ae5b a5bd
000002b0: 5d0d cbbc d2df f43d 2ed5 29be bf6f 68bc
000002c0: 0f75 1e3e a46b c03c cfe7 25be 86d4 f6bd
000002d0: 5787 49bd e794 1bbc b646 303e b43b f1bd
000002e0: a1bd 7b3d 80b6 0b3d b7be 1bbe 4157 0cbd
000002f0: 2f5c d73d 8d37 6bbe bc92 d43c d994 b6bd
00000300: c25a 20be 0bf7 8e3c be0f d1bd 83a8 873d
00000310: 2ca3 8a3d a645 51bc 2ac4 4ebe a1c2 d03d
00000320: 3878 36be 63af e03c e83e a73d 28c4 c2bd
00000330: f323 2cbe e945 debd 7272 213e bcb7 ddbd
00000340: ea79 4ebd f053 043e 2e21 96bd 6976 9cbd
00000350: 8126 cfbc 9c83 ac3e a370 803e 68cf 24be
00000360: 3bec f7bc 5b40 b93d 7967 2e3b 7a14 2ebe
00000370: d8c9 0abe c2e9 8dbd 004c 4bbd 9d34 ddbd
00000380: a30d dbbc 208b 8ebc 616b 293d 8b00 e5bd
00000390: 1ad9 f53a 9d42 2e3e ee65 88bd 590e 9abd
000003a0: f5f4 083e 1de9 ed3c ad85 8dbe be82 223e
000003b0: 13a3 c4be 796f 703d acb4 383e a11a 63be
000003c0: aec0 abbc afa0 92bd f399 b63d dfab 5e3d
000003d0: 85d0 4abe ce7e 463d 7f85 c93d 84d7 4ebc
000003e0: 6c2d 983e df6f 133e 1b10 bd3d 30dc c2bc
000003f0: bc6c 113e 25ce 953c c0c6 1f3d 8031 673d

lstm.hh.rho_weight f4 [128, 32]
-3.0013797 -2.7722013 -2.9896717 -2.6689537 -2.986454 -2.8998883 -2.8077762 -2.7778294
-2.673613 -2.8785994 -2.865725 -3.0686843 -2.936334 -2.767535 -2.8877566 -2.8817985
-2.8135114 -2.8745084 -2.781828 -2.8581717 -3.163887 -2.9390163 -2.802769 -2.9130173
-2.7637239 -2.8242905 -2.7825706 -3.1037123 -2.6908264 -2.765423 -2.8982306 -2.724831
-2.96996 -3.0155578 -2.7788231 -2.8661587 -3.145438 -3.0387373 -2.8156517 -2.7984176
-2.9284003 -2.7847683 -2.9495027 -2.86314 -2.7186275 -2.9315562 -2.860496 -2.800552
-3.0941024 -2.8422205 -2.7082126 -2.980994 -2.9533505 -3.0017483 -2.7214305 -2.9068444
-3.0167024 -2.7799232 -2.8813035 -3.0276246 -2.7511883 -2.8328807 -2.8020444 -2.8993235
-2.8956788 -2.9050822 -3.0624113 -2.9881546 -3.1274939 -2.8669503 -3.0371432 -2.914814
-2.6962478 -3.0430996 -2.9707367 -3.1512544 -2.9949799 -2.9806626 -2.9779832 -2.8547037
-2.9001572 -3.2265587 -3.10125 -2.7684534 -2.9834023 -2.884684 -2.9326131 -2.9817579
-3.000561 -2.9712892 -2.9195642 -2.784699 -2.7922266 -3.0975122 -2.89428 -2.8747694
-2.9851277 -2.9731936 -2.998311 -2.712739 -2.8879812 -2.995026 -3.0855558 -2.8693478
-2.7282045 -3.1109838 -3.0274222 -3.0047905 -2.8948557 -2.8082514 -2.814532 -2.8286068
-2.8125303 -2.7456114 -2.935812 -2.780796 -2.8867235 -2.6828444 -2.9274602 -2.8619878
-3.1092484 -2.9172812 -2.866048 -3.031586 -3.0720341 -2.953731 -2.9647973 -2.911211
-2.7533832 -3.0326 -2.930953 -2.8662293 -2.8486974 -2.8518257 -2.9112287 -2.9700632
-2.8161142 -2.8123612 -3.0275393 -2.9357786 -3.2253497 -3.0918818 -3.1153529 -2.8153791
-2.9876196 -3.01601 -2.9931016 -2.887168 -3.1144068 -2.9382234 -2.9753892 -2.9432552
-2.753537 -2.7617173 -2.951563 -2.9000597 -2.9986074 -2.7964253 -2.876441 -2.8796048
-2.9492726 -2.9695988 -3.1928809 -2.9865587 -2.9530916 -3.2479928 -2.8237376 -2.7721498
-3.2173867 -2.9273257 -2.7904818 -2.9508798 -2.9950519 -2.8185756 -2.7857232 -2.9259038
-2.9784477 -2.663043 -2.9227877 -2.8057761 -2.778872 -2.9108 -2.8827734 -2.9288228
-2.6298347 -2.7862728 -3.1153567 -3.018454 -3.0752232 -2.9814835 -3.089577 -2.8017294
-3.008061 -2.948327 -2.9931545 -3.0288105 -2.8973854 -2.891533 -2.8593695 -3.0514846
-3.017224 -3.20236 -3.019768 -3.0027547 -2.987983 -3.1013415 -2.8779695 -3.0697088
-2.8717113 -2.839255 -2.963592 -2.9453456 -2.876193 -3.0233319 -2.8660133 -2.9905038
-2.948902 -3.096408 -3.0753946 -2.9066722 -3.1402957 -3.0277328 -2.9499397 -2.990364
-2.86551 -2.9708042 -2.9887283 -3.0951476 -3.0065043 -2.9586253 -2.8596961 -2.9888241
-2.8366284 -2.7829454 -2.7520313 -2.8126957 -2.8706577 -2.913205 -2.9551818 -2.6142328
-2.9814594 -2.802878 -2.8906052 -2.912294 -2.7116413 -2.7699916 -2.7695448 -2.8322268
-2.8882017 -2.7918673 -3.0589674 -3.018518 -2.90708 -2.9339938 -3.0170972 -2.7315252
00000000: 9b16 40c0 bf6b 31c0 c856 3fc0 23d0 2ac0
00000010: 1022 3fc0 c597 39c0 9bb2 33c0 f5c7 31c0
00000020: 7a1c 2bc0 f93a 38c0 0a68 37c0 5365 44c0
00000030: e5ec 3bc0 4b1f 31c0 01d1 38c0 636f 38c0
00000040: 9210 34c0 f2f7 37c0 7809 32c0 49ec 36c0
00000050: 207d 4ac0 d818 3cc0 9160 33c0 e06e 3ac0
00000060: dae0 30c0 2dc1 34c0 a315 32c0 39a3 46c0
00000070: 8036 2cc0 b1fc 30c0 9c7c 39c0 a263 2ec0
00000080: d313 3ec0 e6fe 40c0 3dd8 31c0 256f 37c0
00000090: db4e 49c0 ac7a 42c0 a333 34c0 4619 33c0
000000a0: e96a 3bc0 a539 32c0 a7c4 3cc0 b03d 37c0
000000b0: fefd 2dc0 9e9e 3bc0 5e12 37c0 3e3c 33c0
000000c0: c605 46c0 f1e6 35c0 5b53 2dc0 9bc8 3ec0
000000d0: b203 3dc0 a51c 40c0 eb2b 2ec0 bd09 3ac0
000000e0: a711 41c0 43ea 31c0 4767 38c0 9ac4 41c0
000000f0: 7813 30c0 eb4d 35c0 b254 33c0 848e 39c0
00000100: cd52 39c0 deec 39c0 8cfe 43c0 ed3d 3fc0
00000110: dc28 48c0 1d7c 37c0 8e60 42c0 508c 3ac0
00000120: 538f 2cc0 25c2 42c0 8d20 3ec0 27ae 49c0
00000130: c0ad 3fc0 2dc3 3ec0 4797 3ec0 77b3 36c0
00000140: 2d9c 39c0 f07f 4ec0 e17a 46c0 572e 31c0
00000150: 10f0 3ec0 aa9e 38c0 efaf 3bc0 1fd5 3ec0
00000160: 3109 40c0 9a29 3ec0 24da 3ac0 8238 32c0
00000170: d7b3 32c0 a43d 46c0 e23b 39c0 39fc 37c0
00000180: 550c 3fc0 ce48 3ec0 54e4 3fc0 849d 2dc0
00000190: afd4 38c0 82ae 3fc0 bf79 45c0 65a3 37c0
000001a0: e79a 2ec0 5c1a 47c0 49c1 41c0 7d4e 40c0
000001b0: 5145 39c0 64ba 33c0 4b21 34c0 e507 35c0
000001c0: 7f00 34c0 19b8 2fc0 58e4 3bc0 90f8 31c0
000001d0: 14c0 38c0 b9b3 2bc0 825b 3bc0 cf2a 37c0
000001e0: edfd 46c0 bcb4 3ac0 556d 37c0 8105 42c0
000001f0: 359c 44c0 ee09 3dc0 3dbf 3dc0 4851 3ac0
00000200: 6e37 30c0 1e16 42c0 bc94 3bc0 4d70 37c0
00000210: 0f51 36c0 5084 36c0 9251 3ac0 8415 3ec0
00000220: 373b 34c0 bafd 33c0 34c3 41c0 cce3 3bc0
00000230: 216c 4ec0 64e1 45c0 f161 47c0 2c2f 34c0
00000240: 2935 3fc0 4f06 41c0 fa8e 3fc0 5cc7 38c0
00000250: 7152 47c0 da0b 3cc0 c76c 3ec0 4b5e 3cc0
00000260: f339 30c0 fabf 30c0 68e6 3cc0 949a 39c0
00000270: 2fe9 3fc0 a2f8 32c0 9c17 38c0 724b 38c0
00000280: e2c0 3cc0 e80d 3ec0 2958 4cc0 c723 3fc0
00000290: 74ff 3cc0 1ddf 4fc0 1eb8 34c0 e76a 31c0
000002a0: aae9 4dc0 4e59 3bc0 4197 32c0 37db 3cc0
000002b0: eeae 3fc0 8b63 34c0 4a49 32c0 0242 3bc0
000002c0: e39e 3ec0 4c6f 2ac0 f40e 3bc0 d691 33c0
000002d0: 0ad9 31c0 8c4a 3ac0 5c7f 38c0 d571 3bc0
000002e0: 364f 28c0 4b52 32c0 0162 47c0 5a2e 41c0
000002f0: 75d0 44c0 a0d0 3ec0 a1bb 45c0 894f 33c0
00000300: 1284 40c0 64b1 3cc0 d88f 3fc0 08d8 41c0
00000310: c36e 39c0 e00e 39c0 e9ff 36c0 864b 43c0
00000320: 331a 41c0 77f3 4cc0 e143 41c0 222d 40c0
00000330: 1d3b 3fc0 617c 46c0 a730 38c0 1c76 44c0
00000340: 1eca 37c0 5bb6 35c0 7eab 3dc0 8b80 3cc0
00000350: 8c13 38c0 457e 41c0 c36c 37c0 6a64 3fc0
00000360: cfba 3cc0 8c2b 46c0 44d3 44c0 eb06 3ac0
00000370: 9bfa 48c0 60c6 41c0 d0cb 3cc0 2062 3fc0
00000380: 8464 37c0 a821 3ec0 5347 3fc0 e616 46c0
00000390: 916a 40c0 1e5a 3dc0 4305 37c0 e548 3fc0
000003a0: 528b 35c0 c71b 32c0 4821 30c0 3503 34c0
000003b0: dbb8 37c0 f371 3ac0 b321 3dc0 974f 27c0
000003c0: 3bd0 3ec0 5a62 33c0 adff 38c0 0663 3ac0
000003d0: 888b 2dc0 8b47 31c0 3940 31c0 3443 35c0
000003e0: 4cd8 38c0 f4ad 32c0 1fc6 43c0 662f 41c0
000003f0: 990d 3ac0 8ec6 3bc0 1f18 41c0 4fd1 2ec0

lstm.hh.mu_bias f4 [128]
0.42462382 0.11045591 0.07218232 0.092535645 0.1196132 -0.12926278 -0.17205249 0.19032337
0.022334708 0.02561845 0.12130025 0.10100439 0.34535733 0.030953689 0.1561282 -0.100631535
-0.05309154 0.1962595 0.14242925 0.1495946 -0.1757562 0.22855137 0.21504065 0.15493695
0.11984429 0.07540056 0.15028785 -0.031187875 0.014913615 0.0586044 0.4648211 0.09003686
0.11123948 0.052804615 -0.0032112051 -0.06250559 -0.08419896 -0.04037913 0.083356164 0.3250212
-0.20151255 0.09668934 -0.01978955 0.17024006 0.15473442 0.082309484 0.014960438 0.07924356
-0.030523874 0.105202615 0.09194526 0.13095465 0.12295941 0.11018913 -0.042517588 0.22221722
0.29026306 0.057109933 0.28161734 0.122008376 0.07338666 -0.015387123 0.10928712 0.25591746
-0.09392198 -0.061027613 0.14241964 -0.16344815 0.10004494 0.15881354 -0.003811821 -0.13591388
0.08264875 0.021339472 -0.12775244 -0.033715412 0.03079916 0.049647924 0.048777368 0.1635048
-0.018876893 -0.13068855 -0.09138523 0.06701849 0.07528722 0.05144181 -0.14953685 0.26338178
0.24694233 0.06957925 0.1680476 0.15904292 -0.07646209 0.036052957 -0.2841816 0.022378065
0.24688917 0.16129662 0.17060933 0.32961538 0.2337965 0.11394238 0.34134844 0.11270577
0.2040728 0.17274506 0.4265755 0.051742133 0.22205593 0.211305 0.22846684 0.3705991
0.11089676 0.07341707 0.1197009 0.25910935 0.19725092 0.39635056 0.17818859 0.13904193
0.16714187 0.14000909 0.39335796 0.26390725 0.35597622 0.22443701 0.26013416 0.21826479
00000000: 4b68 d93e b536 e23d 53d4 933d 5483 bd3d
00000010: c4f7 f43d 765d 04be 872e 30be 21e4 423e
00000020: 47f7 b63c c9dd d13c 446c f83d 64db ce3d
00000030: add2 b03e 9792 fd3c 12e0 1f3e e817 cebd
00000040: 8476 59bd 40f8 483e f9d8 113e 542f 193e
00000050: 6ff9 33be 5f09 6a3e 9e33 5c3e cba7 1e3e
00000060: ec70 f53d 9c6b 9a3d 0fe5 193e b77d ffbc
00000070: 3c58 743c 2b0b 703d 08fd ed3e 3f65 b83d
00000080: 86d1 e33d a749 583d 1573 52bb ee02 80bd
00000090: 8170 acbd 9664 25bd a3b6 aa3d 2e69 a63e
000000a0: 4e59 4ebe 1005 c63d b21d a2bc 6953 2e3e
000000b0: b372 1e3e e091 a83d a01c 753c 734a a23d
000000c0: 340d fabc 7874 d73d cc4d bc3d fa18 063e
000000d0: 25d2 fb3d d7aa e13d ec26 2ebd e98c 633e
000000e0: 5c9d 943e 1bec 693d 2630 903e 87df f93d
000000f0: bf4b 963d 461a 7cbc edd1 df3d 9d07 833e
00000100: 2b5a c0bd 17f8 79bd 74d6 113e f45e 27be
00000110: 5de4 cc3d 04a0 223e bfcf 79bb 022d 0bbe
00000120: bf43 a93d 1ed0 ae3c 89d1 02be 2c19 0abd
00000130: 854e fc3c 9f5b 4b3d c7ca 473d cd6d 273e
00000140: b7a3 9abc 38d3 05be 2e28 bbbd fd40 893d
00000150: 3030 9a3d a6b4 523d 3020 19be fad9 863e
00000160: 73de 7c3e 917f 8e3d ac14 2c3e 26dc 223e
00000170: 2898 9cbd 44ac 133d 4080 91be 3452 b73c
00000180: 84d0 7c3e f12a 253e 36b4 2e3e 59c3 a83e
00000190: 5a68 6f3e 9f5a e93d 39c5 ae3e 48d2 e63d
000001a0: 76f8 503e 15e4 303e 1b68 da3e 8fef 533d
000001b0: a162 633e 5760 583e 36f3 693e 2abf bd3e
000001c0: d71d e33d b05b 963d bf25 f53d fba9 843e
000001d0: 25fc 493e 76ee ca3e 1277 363e 0261 0e3e
000001e0: 3d27 2b3e 8b5e 0f3e 3766 c93e da1e 873e
000001f0: 8442 b63e d1d2 653e 4e30 853e ce80 5f3e

lstm.hh.rho_bias f4 [128]
-2.5809536 -2.5769994 -2.6592538 -2.893414 -2.980289 -2.7876315 -2.7568796 -2.8614376
-2.7003381 -2.561169 -2.64144 -2.8302906 -2.5925536 -2.6724904 -2.8347943 -2.7679594
-2.8490481 -2.3794985 -2.6694167 -2.505386 -2.808506 -2.6059573 -2.5688145 -2.6778681
-2.8307836 -2.6308568 -2.4289944 -2.4388487 -2.5051222 -2.7163837 -2.544147 -2.608925
-2.4033668 -2.4793272 -2.7164922 -2.796158 -2.8978353 -3.0116935 -2.6825526 -2.511782
-2.7017086 -2.8058972 -2.7972057 -3.0523725 -3.002457 -2.6111674 -2.8631415 -2.6018145
-2.8398662 -2.7421284 -2.7786014 -2.8154418 -2.670852 -2.564474 -2.9370358 -2.4719508
-2.7023191 -2.837729 -2.578824 -2.1875224 -2.7731445 -2.554819 -2.395673 -2.523135
-2.9185085 -2.6847026 -2.914632 -2.9659371 -2.9585674 -2.9904468 -2.6899693 -2.7806053
-2.9599178 -2.8130503 -2.8049638 -3.22393 -3.0175936 -2.7817745 -2.904713 -2.9643393
-2.9982345 -3.0814533 -2.8997896 -2.9757664 -2.9176607 -2.9268212 -2.8159354 -3.0307188
-2.8511739 -2.9477742 -2.7780807 -2.6957576 -2.919809 -2.8368146 -3.120368 -2.885789
-2.6666653 -2.2649524 -2.7204483 -2.713055 -2.697641 -2.4500477 -2.426723 -2.8831584
-2.4099815 -2.7249894 -2.5352716 -2.5449774 -2.6845086 -2.8732874 -2.6348603 -2.1734586
-2.545554 -2.6352284 -2.924231 -2.6112921 -2.2708158 -2.6469128 -2.7937338 -2.7283287
-2.4352334 -2.5745494 -2.8202384 -2.535973 -2.6676898 -2.5308704 -2.6322827 -2.3774884
00000000: 582e 25c0 8fed 24c0 3731 2ac0 b22d 39c0
00000010: 0ebd 3ec0 8e68 32c0 b770 30c0 cb21 37c0
00000020: 57d2 2cc0 31ea 23c0 5a0d 29c0 7b23 35c0
00000030: 66ec 25c0 150a 2bc0 456d 35c0 3f26 31c0
00000040: ce56 36c0 b449 18c0 b9d7 2ac0 3f58 20c0
00000050: 90be 33c0 01c8 26c0 7567 24c0 3162 2bc0
00000060: 8f2b 35c0 f55f 28c0 a574 1bc0 1916 1cc0
00000070: ec53 20c0 3bd9 2dc0 4ed3 22c0 a1f8 26c0
00000080: c3d0 19c0 4cad 1ec0 02db 2dc0 41f4 32c0
00000090: 2276 39c0 96bf 40c0 f1ae 2bc0 09c1 20c0
000000a0: cbe8 2cc0 d293 33c0 6b05 33c0 125a 43c0
000000b0: 4128 40c0 5e1d 27c0 b63d 37c0 2184 26c0
000000c0: 5ec0 35c0 087f 2fc0 9bd4 31c0 3330 34c0
000000d0: 3def 2ac0 5820 24c0 65f8 3bc0 7134 1ec0
000000e0: ccf2 2cc0 5a9d 35c0 740b 25c0 5e00 0cc0
000000f0: 337b 31c0 2882 23c0 b552 19c0 0b7b 21c0
00000100: d8c8 3ac0 2bd2 2bc0 5589 3ac0 ead1 3dc0
00000110: 2b59 3dc0 7b63 3fc0 7528 2cc0 70f5 31c0
00000120: 4b6f 3dc0 0409 34c0 8784 33c0 de54 4ec0
00000130: 4120 41c0 9808 32c0 d1e6 39c0 bcb7 3dc0
00000140: 13e3 3fc0 8836 45c0 2796 39c0 f572 3ec0
00000150: f4ba 3ac0 0a51 3bc0 4938 34c0 4cf7 41c0
00000160: a279 36c0 55a8 3cc0 13cc 31c0 4b87 2cc0
00000170: 27de 3ac0 5f8e 35c0 1cb4 47c0 c4b0 38c0
00000180: a5aa 2ac0 fbf4 10c0 d31b 2ec0 b1a2 2dc0
00000190: 26a6 2cc0 95cd 1cc0 6e4f 1bc0 ab85 38c0
000001a0: 233d 1ac0 3a66 2ec0 e441 22c0 e9e0 22c0
000001b0: fdce 2bc0 f1e3 37c0 8da1 28c0 f219 0bc0
000001c0: 5bea 22c0 95a7 28c0 9a26 3bc0 691f 27c0
000001d0: 0c55 11c0 0567 29c0 89cc 32c0 f09c 2ec0
000001e0: ddda 1bc0 6bc5 24c0 c97e 34c0 624d 22c0
000001f0: 6ebb 2ac0 c8f9 21c0 5277 28c0 c528 18c0

l1.mu_weight f4 [16, 32]
-0.40832394 -0.61408234 0.5204613 -0.50274086 0.46383694 0.5327305 -0.543593 -0.5893933
-0.50210387 0.67016655 -0.47899938 0.42064005 -0.48261225 0.5450937 0.67806244 -0.39187312
-0.5909318 -0.43188912 -0.4736579 0.5667908 -0.39525867 0.29123878 0.6515419 0.4171934
0.71487087 -0.61108136 0.5612844 0.4548139 -0.7439166 0.5278001 -0.5062399 0.72134525
-0.44662794 -0.46706697 0.513868 -0.48473036 0.43986353 0.33148816 -0.51925665 -0.37922636
-0.33218694 0.43393853 -0.442851 0.5317048 -0.32584986 0.6049127 0.45875514 -0.36159799
-0.42370513 -0.5703955 -0.40906343 0.5267425 -0.3795057 0.23060556 0.56292886 0.3975623
0.46910474 -0.5060783 0.5675585 0.39972633 -0.4531626 0.28478193 -0.537912 0.45767474
-0.3625947 -0.29995835 0.5579672 -0.5017981 0.5371192 0.59354943 -0.5436691 -0.53022754
-0.5620219 0.5294569 -0.6639766 0.4249553 -0.6391232 0.7235212 0.62568825 -0.45428854
-0.5591325 -0.52016795 -0.52384096 0.46348557 -0.67598593 0.34360108 0.49641064 0.8351782
0.37960985 -0.65247613 0.63178414 0.49897367 -0.56599885 0.4384652 -0.5394227 0.41414535
-0.5440292 -0.60725945 0.23835792 -0.37147897 0.44628218 0.38543633 -0.64001256 -0.5502789
-0.38761526 0.30068636 -0.6863633 0.477727 -0.51582855 0.5059604 0.41140705 -0.35658744
-0.4988658 -0.579413 -0.5037346 0.4831703 -0.4557372 0.35775182 0.4637325 0.529744
0.52449465 -0.4332476 0.4741558 0.6959416 -0.3897785 0.3615069 -0.40704748 0.43986502
-0.66106445 -0.6417352 0.50608927 -0.61592364 0.514943 0.5616066 -0.53851306 -0.5661944
-0.69437534 0.7469413 -0.5350119 0.49557137 -0.52289945 0.39473888 0.40819284 -0.43239763
-0.5755607 -0.55037713 -0.30145428 0.6311445 -0.50448495 0.36857873 0.6351278 0.6643402
0.54137033 -0.49599093 0.5537404 0.54319084 -0.6301819 0.67633945 -0.61643726 0.6123467
-0.4768406 -0.47874683 0.66060007 -0.48129272 0.5292861 0.48375505 -0.49011794 -0.48906982
-0.5236065 0.5072942 -0.6028768 0.45148176 -0.47189128 0.6626524 0.5991367 -0.40059423
-0.3517873 -0.55163765 -0.6208083 0.40859118 -0.3041296 0.5061686 0.6615577 0.3633357
0.40647733 -0.5634325 0.43281823 0.5566071 -0.65173286 0.5025285 -0.6663258 0.56067836
-0.45972568 -0.48567373 0.44146267 -0.5243379 0.43900195 0.62579525 -0.33956462 -0.48892066
-0.5649602 0.5651987 -0.3940181 0.5981094 -0.54241586 0.48315433 0.57032436 -0.40975574
-0.56360465 -0.3899827 -0.48611268 0.32557166 -0.6359583 0.19784036 0.50564927 0.37271404
0.53343326 -0.509414 0.44873017 0.39890403 -0.46425113 0.4546686 -0.6030632 0.4687938
-0.43724155 -0.324154 0.70868415 -0.42590788 0.54230034 0.55008984 -0.5111908 -0.5177302
-0.6019968 0.65674 -0.51114696 0.5353611 -0.47848094 0.37777275 0.49567196 -0.39450017
-0.6589593 -0.52378774 -0.55033237 0.47609589 -0.5729736 0.30175325 0.40813705 0.59500307
0.43581256 -0.42434835 0.5602365 0.49740195 -0.5623181 0.44360414 -0.71612626 0.56930846
00000000: d60f d1be 8034 1dbf f43c 053f a0b3 00bf
00000010: 097c ed3e 0761 083f e928 0bbf 7be2 16bf
00000020: e189 00bf 0990 2b3f 683f f5be 225e d73e
00000030: f418 f7be 438b 0b3f 8095 2d3f 98a3 c8be
00000040: 4e47 17bf 9220 ddbe 4a83 f2be 3419 113f
00000050: 585f cabe 401d 953e 73cb 263f 609a d53e
00000060: c701 373f d46f 1cbf 56b0 0f3f 5edd e83e
00000070: 5171 3ebf e81d 073f f098 01bf 15aa 383f
00000080: 6bac e4be 6723 efbe da8c 033f 942e f8be
00000090: cb35 e13e d1b8 a93e 01ee 04bf f529 c2be
000000a0: 6814 aabe 312d de3e 5ebd e2be ce1d 083f
000000b0: cbd5 a6be 8fdb 1a3f f4e1 ea3e 5f23 b9be
000000c0: e1ef d8be 7105 12bf c370 d1be 99d8 063f
000000d0: 924e c2be dd23 6c3e 1b1c 103f 498d cb3e
000000e0: 7f2e f03e 598e 01bf 844b 113f eea8 cc3e
000000f0: ee04 e8be f0ce 913e 9ab4 09bf 5854 ea3e
00000100: 03a6 b9be 2494 99be f0d6 0e3f d775 00bf
00000110: a580 093f dbf2 173f e62d 0bbf febc 07bf
00000120: abe0 0fbf 7d8a 073f 5ffa 29bf be93 d93e
00000130: 949d 23bf af38 393f 1b2d 203f 8298 e8be
00000140: 4f23 0fbf ba29 05bf 711a 06bf fb4d ed3e
00000150: 6a0d 2dbf 7bec af3e 8929 fe3e 3dce 553f
00000160: 395c c23e ad08 27bf 9bbc 213f 7a79 ff3e
00000170: 4de5 10bf 837e e03e 9b17 0abf dc0a d43e
00000180: 7f45 0bbf 5b75 1bbf 1914 743e 7e32 bebe
00000190: 197f e43e e957 c53e ddd7 23bf 14df 0cbf
000001a0: 8275 c6be 90f3 993e 81b5 2fbf a298 f43e
000001b0: 570d 04bf 9f86 013f f2a3 d23e a192 b6be
000001c0: 576b ffbe 6954 14bf c0f4 00bf 1962 f73e
000001d0: 6356 e9be 3f2b b73e 596e ed3e 4e9d 073f
000001e0: 4845 063f a1d2 ddbe 8dc4 f23e 3b29 323f
000001f0: 0c91 c7be 6f17 b93e 8768 d0be fd35 e13e
00000200: 853b 29bf c248 24bf 118f 013f 2cad 1dbf
00000210: 4ed3 033f 73c5 0f3f fedb 09bf 1ef2 10bf
00000220: 95c2 31bf 8c37 3f3f 8af6 08bf 88bb fd3e
00000230: bddc 05bf 371b ca3e a7fe d03e 3963 ddbe
00000240: f257 13bf 84e5 0cbf 3758 9abe b092 213f
00000250: ed25 01bf 5ab6 bc3e bc97 223f 3312 2a3f
00000260: 3f97 0a3f 86f2 fdbe eec1 0d3f 8e0e 0b3f
00000270: 9a53 21bf 9524 2d3f d5ce 1dbf c1c2 1c3f
00000280: 7324 f4be 4e1e f5be 161d 293f 006c f6be
00000290: 4b7f 073f beae f73e bdf0 fabe 5c67 fabe
000002a0: 130b 06bf 08de 013f 2256 1abf 9e28 e73e
000002b0: bc9b f1be 96a3 293f 0661 193f b01a cdbe
000002c0: 771d b4be 2038 0dbf 4bed 1ebf dd32 d13e
000002d0: e0b6 9bbe 4494 013f d85b 293f 2307 ba3e
000002e0: cc1d d03e 1d3d 10bf 5a9a dd3e ce7d 0e3f
000002f0: f7d7 26bf b5a5 003f 5494 2abf 9e88 0f3f
00000300: 2a61 ebbe 3aaa f8be 6507 e23e 023b 06bf
00000310: ddc4 e03e 1e34 203f 6adb adbe cf53 fabe
00000320: 3ba1 10bf ddb0 103f bebc c9be b31d 193f
00000330: c4db 0abf 0160 f73e c700 123f 81cb d1be
00000340: 6548 10bf d0ab c7be c3e3 f8be 54b1 a63e
00000350: 2ace 22bf aa96 4a3e 3b72 013f 60d4 be3e
00000360: 158f 083f f568 02bf f6bf e53e 263d cc3e
00000370: 53b2 edbe 53ca e83e 5a62 1abf be05 f03e
00000380: 20de dfbe 83f7 a5be 536c 353f 9910 dabe
00000390: 32d4 0a3f b0d2 0c3f 66dd 02bf f789 04bf
000003a0: 761c 1abf 1d20 283f 87da 02bf 6d0d 093f
000003b0: 74fb f4be 6e6b c13e b7c8 fd3e edfb c9be
000003c0: 8fb1 28bf f416 06bf 95e2 0cbf d7c2 f33e
000003d0: 66ae 12bf 677f 9a3e 57f7 d03e 1f52 183f
000003e0: d322 df3e 3044 d9be a96b 0f3f 78ab fe3e
000003f0: 14f4 0fbf 1520 e33e 0d54 37bf 33be 113f

l1.rho_weight f4 [16, 32]
-3.0272355 -2.8569229 -3.2011802 -2.9412487 -3.028457 -2.90807 -3.1304197 -2.8034716
-2.8746705 -2.9562263 -2.9780471 -3.12788 -3.019986 -2.9814565 -3.0118232 -3.0171666
-2.9920175 -3.1558957 -3.0861483 -2.8178425 -2.832267 -3.0311313 -3.0088472 -2.9569945
-2.9108024 -2.9770231 -2.8565595 -2.9328656 -2.9797306 -2.998918 -3.04097 -3.0900185
-2.9050512 -2.9606118 -2.929328 -2.9531362 -2.9987628 -2.953304 -2.9280381 -2.9954898
-2.9825058 -2.92748 -2.9345543 -2.9298506 -3.0180476 -2.9693863 -2.9336617 -2.7281141
-3.121995 -2.9556375 -2.9419122 -3.078356 -3.0751321 -2.9122229 -2.9300208 -3.130419
-3.1863592 -2.9020975 -2.920875 -2.8129995 -3.1057484 -2.9660645 -3.0491788 -3.0423827
-3.1962373 -2.7938082 -3.1622293 -3.0124094 -3.0136917 -2.9883125 -3.177299 -2.9903798
-3.0238187 -3.014374 -2.8068018 -2.9211032 -2.8796551 -3.1064858 -3.0524714 -2.903321
-3.119324 -2.938807 -2.8801575 -2.8437173 -2.952671 -2.9838653 -2.92538 -3.0591772
-2.8328128 -3.1196296 -2.969959 -3.0624936 -2.9861588 -2.9412234 -3.0401733 -2.8673606
-2.9755533 -3.091832 -2.9426305 -2.9926906 -2.9031215 -2.9531076 -2.9314055 -2.9850717
-2.837897 -2.8739827 -2.9943957 -3.105289 -2.9718003 -3.142794 -2.9950204 -2.9619718
-2.9014313 -2.933172 -3.1219976 -2.7499151 -2.937132 -3.0172474 -3.1346614 -3.1210454
-3.062844 -3.092366 -3.1844072 -2.9000096 -3.0409381 -3.1038754 -3.2206888 -2.9965234
-2.8348098 -3.0842853 -3.0387392 -2.943007 -3.116582 -2.9523156 -2.9413493 -2.7870638
-2.9145417 -2.7722912 -3.0197015 -2.9669704 -2.914904 -2.9365723 -2.956163 -3.0915258
-3.096174 -2.927762 -2.9207754 -2.9932148 -3.010372 -2.8937027 -3.0966291 -2.9457076
-2.8856986 -2.7398612 -3.0884721 -3.048607 -2.8053486 -3.0800862 -2.9677656 -2.760515
-2.7904353 -2.9533482 -2.9177387 -3.0278542 -3.0118 -2.7509077 -2.9353654 -2.902431
-3.0505335 -3.0265944 -3.1426604 -3.0628903 -2.8502285 -2.9571745 -2.816474 -2.9239497
-2.8442953 -2.7674255 -3.0115705 -3.1764338 -3.0190153 -3.101056 -3.0654483 -2.8719165
-2.8768227 -3.0325415 -3.2611928 -3.0139565 -2.9225972 -3.0882516 -2.9858148 -2.8324294
-3.0631666 -3.0403466 -3.119222 -3.0318155 -3.1381552 -2.9990947 -3.1315587 -2.9762676
-2.9914534 -3.004401 -3.0250568 -3.0110083 -2.9940202 -2.9776843 -3.0940297 -2.8712368
-2.9238226 -3.050165 -2.935269 -2.9878821 -3.0830734 -2.9430163 -3.0473888 -2.9524846
-3.1842337 -2.8052597 -3.1232917 -2.887882 -2.9958174 -3.096496 -2.9607852 -3.133952
-3.1248903 -3.0340042 -2.8913467 -3.0958853 -2.9936738 -3.1438916 -2.9399815 -2.9341807
-2.9184518 -2.836232 -2.904796 -3.0336716 -2.9717226 -3.0362647 -3.1196158 -3.0292645
-2.8015063 -3.087067 -3.026886 -2.882112 -3.1654725 -3.0382302 -2.8808186 -3.0638716
-2.9338806 -2.954275 -3.0139031 -3.1143978 -2.8286884 -2.8154278 -3.1753962 -2.9585946
00000000: 3abe 41c0 d3d7 36c0 23e0 4cc0 6b3d 3cc0
00000010: 3dd2 41c0 d21d 3ac0 cc58 48c0 146c 33c0
00000020: 9afa 37c0 d032 3dc0 5398 3ec0 302f 48c0
00000030: 7347 41c0 2fd0 3ec0 b6c1 40c0 4219 41c0
00000040: 377d 3fc0 32fa 49c0 7483 45c0 8857 34c0
00000050: dd43 35c0 0efe 41c0 f490 40c0 663f 3dc0
00000060: 964a 3ac0 8c87 3ec0 dfd1 36c0 12b4 3bc0
00000070: e8b3 3ec0 46ee 3fc0 419f 42c0 ddc2 45c0
00000080: 5cec 39c0 aa7a 3dc0 1c7a 3bc0 2f00 3dc0
00000090: bbeb 3fc0 ef02 3dc0 fa64 3bc0 1bb6 3fc0
000000a0: 60e1 3ec0 d55b 3bc0 bdcf 3bc0 ac82 3bc0
000000b0: b127 41c0 6d0a 3ec0 1dc1 3bc0 6c99 2ec0
000000c0: c4ce 47c0 2a29 3dc0 4a48 3cc0 c903 45c0
000000d0: f7ce 44c0 dc61 3ac0 7685 3bc0 c958 48c0
000000e0: 4fed 4bc0 f7bb 39c0 9eef 3ac0 2f08 34c0
000000f0: 95c4 46c0 00d4 3dc0 bf25 43c0 66b6 42c0
00000100: 278f 4cc0 c1cd 32c0 f761 4ac0 51cb 40c0
00000110: 53e0 40c0 8340 3fc0 de58 4bc0 6262 3fc0
00000120: 3f86 41c0 81eb 40c0 a4a2 33c0 5bf3 3ac0
00000130: 454c 38c0 aad0 46c0 b15b 43c0 03d0 39c0
00000140: 01a3 47c0 6a15 3cc0 8054 38c0 77ff 35c0
00000150: 90f8 3cc0 a6f7 3ec0 6d39 3bc0 8fc9 43c0
00000160: ce4c 35c0 03a8 47c0 cf13 3ec0 e5ff 43c0
00000170: 3a1d 3fc0 013d 3cc0 3392 42c0 d682 37c0
00000180: 776f 3ec0 93e0 45c0 0f54 3cc0 3e88 3fc0
00000190: becc 39c0 b7ff 3cc0 269c 3bc0 6a0b 3fc0
000001a0: 1ba0 35c0 55ef 37c0 2ea4 3fc0 0ebd 46c0
000001b0: fa31 3ec0 8923 49c0 6aae 3fc0 f290 3dc0
000001c0: 0db1 39c0 17b9 3bc0 cfce 47c0 9cfe 2fc0
000001d0: f8f9 3bc0 951a 41c0 4b9e 48c0 35bf 47c0
000001e0: a305 44c0 53e9 45c0 54cd 4bc0 c299 39c0
000001f0: bb9e 42c0 e5a5 46c0 c41f 4ec0 0ac7 3fc0
00000200: 866d 35c0 ee64 45c0 b47a 42c0 3a5a 3cc0
00000210: 1476 47c0 bdf2 3cc0 113f 3cc0 415f 32c0
00000220: da87 3ac0 386d 31c0 ca42 41c0 d8e2 3dc0
00000230: ca8d 3ac0 cdf0 3bc0 c631 3dc0 8fdb 45c0
00000240: b727 46c0 7460 3bc0 fced 3ac0 d590 3fc0
00000250: efa9 40c0 6d32 39c0 2c2f 46c0 7986 3cc0
00000260: 49af 38c0 e359 2fc0 87a9 45c0 611c 43c0
00000270: d58a 33c0 2220 45c0 dfef 3dc0 47ac 30c0
00000280: 7e96 32c0 a803 3dc0 3bbc 3ac0 5dc8 41c0
00000290: 55c1 40c0 df0e 30c0 07dd 3bc0 6ec1 39c0
000002a0: f13b 43c0 b9b3 41c0 5921 49c0 6506 44c0
000002b0: 256a 36c0 5942 3dc0 1c41 34c0 fe21 3bc0
000002c0: ef08 36c0 801d 31c0 92bd 40c0 b14a 4bc0
000002d0: 8c37 41c0 b477 46c0 4e30 44c0 7bcd 37c0
000002e0: dd1d 38c0 2915 42c0 62b7 50c0 aae4 40c0
000002f0: d50b 3bc0 eaa5 45c0 9717 3fc0 8646 35c0
00000300: ec0a 44c0 0a95 42c0 55a1 47c0 4409 42c0
00000310: 89d7 48c0 2bf1 3fc0 756b 48c0 2b7b 3ec0
00000320: f973 3fc0 1b48 40c0 889a 41c0 5cb4 40c0
00000330: 079e 3fc0 6192 3ec0 9504 46c0 58c2 37c0
00000340: e91f 3bc0 e735 43c0 73db 3bc0 7639 3fc0
00000350: 1351 45c0 615a 3cc0 6b08 43c0 82f5 3cc0
00000360: 7cca 4bc0 6089 33c0 03e4 47c0 0fd3 38c0
00000370: 79bb 3fc0 fe2c 46c0 817d 3dc0 ab92 48c0
00000380: 34fe 47c0 202d 42c0 d30b 39c0 fc22 46c0
00000390: 5a98 3fc0 8535 49c0 a828 3cc0 9ec9 3bc0
000003a0: eac7 3ac0 d384 35c0 2de8 39c0 ad27 42c0
000003b0: b430 3ec0 2952 42c0 c9a7 47c0 78df 41c0
000003c0: e14b 33c0 8192 45c0 80b8 41c0 8674 38c0
000003d0: 1a97 4ac0 5d72 42c0 555f 38c0 7916 44c0
000003e0: b3c4 3bc0 d712 3dc0 cae3 40c0 4b52 47c0
000003f0: 3b09 35c0 f82f 34c0 b139 4bc0 9d59 3dc0

l1.mu_bias f4 [16]
0.41735616 0.53676903 0.51063734 0.6180388 0.45979697 0.3937308 0.57472104 0.48529372
0.48025987 0.02815264 0.008380261 -0.061858043 0.3462932 0.6049746 0.57084763 -0.076639585
00000000: b5af d53e b269 093f 21b9 023f ca37 1e3f
00000010: 826a eb3e 1597 c93e eb20 133f 6b78 f83e
00000020: 9fe4 f53e 5ea0 e63c 5d4d 093c dc5e 7dbd
00000030: 584d b13e 9edf 1a3f 1223 123f 37f5 9cbd

l1.rho_bias f4 [16]
-2.612595 -2.8300862 -2.897004 -3.002116 -3.1471832 -2.9485419 -2.8476555 -2.8993518
-2.9430156 -1.5013041 -1.1336892 -1.238165 -2.77641 -2.8189745 -2.934971 -1.3814461
00000000: c234 27c0 2220 35c0 8368 39c0 ab22 40c0
00000010: 736b 49c0 e9b4 3cc0 fd3f 36c0 fb8e 39c0
00000020: 5e5a 3cc0 bc2a c0bf ba1c 91bf 317c 9ebf
00000030: b4b0 31c0 146a 34c0 91d6 3bc0 3ad3 b0bf

l2.mu_weight f4 [1, 16]
0.54462343 0.69855726 0.55973536 0.6432751 0.6009468 0.59178704 0.7043241 0.592752
0.56597626 0.050318915 -0.06450548 -0.04563441 0.67200893 0.581043 0.62178075 -0.059803106
00000000: 716c 0b3f a6d4 323f d14a 0f3f adad 243f
00000010: a6d7 193f 5b7f 173f 964e 343f 98be 173f
00000020: d2e3 103f 351b 4e3d 731b 84bd 26eb 3abd
00000030: c708 2c3f 3cbf 143f 062d 1f3f 1af4 74bd

l2.rho_weight f4 [1, 16]
-3.0018353 -3.0417852 -2.9683247 -3.135054 -3.0721745 -2.929359 -2.943897 -3.1098948
-3.1627824 -2.2034016 -1.2947587 -1.3556819 -2.8383696 -2.9275167 -2.8906693 -1.2549449
00000000: 121e 40c0 9cac 42c0 08f9 3dc0 baa4 48c0
00000010: 829e 44c0 9e7a 3bc0 cf68 3cc0 8408 47c0
00000020: 076b 4ac0 8804 0dc0 a7ba a5bf fc86 adbf
00000030: d9a7 35c0 6f5c 3bc0 ba00 39c0 09a2 a0bf
