BNN/model_states/BNN_model_state_FD001_test.pt (torch, 57845 bytes, 14 tensors)

lstm.ih.mu_weight f4 [128, 14]
00000000: fb09 003e aaef e73d 7274 d93d 9cd8 85be
00000010: 5fc3 a93d 34e9 50be 47b9 9a3c 7769 57be
00000020: 25fa f5bd d6d8 a73d aad5 b9ba 2272 07be
00000030: 7cfb b0bd ea4e cebd 3ce2 9bbe 884d 913b
00000040: 2136 193d 02a6 083d 10cd 5fbe 3609 913b
00000050: 84e3 16be c56a 5c3e fe04 7dbd 7a8b fb3d
00000060: 84ab 763d 9527 963d cefd c03c 89b5 e23d
00000070: 7188 c6bd 6f83 8cbd fff7 32bd a476 273e
00000080: 4a7c f5bd ba65 9bbe 319d 10be ddea 9a3e
00000090: f527 463d e06e 83be c315 d4bd 0c91 25be
000000a0: 19a3 36bd 8fd7 3e3e 3da5 73be 0440 d5bd
000000b0: a29e a6be bdc3 c63e 1adf 24bd a460 d5bd
000000c0: b245 60be 778c de3d 551c b23d e4e5 b0bb
000000d0: 910b 7bbe a752 4cbd 304d 983d 273a ed3d
000000e0: 3ca6 d7be 9f3e fbbd 6636 3dbe f579 dd3d
000000f0: bd1d 89bd f520 c63d 4865 34be 1026 6f3e
00000100: 8e91 ea3d 2f00 efbb 1d03 373e 1253 32bd
00000110: edd0 9d3d ab79 d6bb 9407 40bf d3f7 dfbd
00000120: 6f0d 13bf 27c8 6d3e bf1f b4bd 977f d53d
00000130: dd89 21be ff82 2f3e 27a2 97be d101 a5bc
00000140: 100b e3bd d2fd 9cbe 5b10 203d a41d c23d
00000150: b957 aabd ae82 2fbd 5136 eabc 86e7 183e
00000160: df70 633b f25f 15bd 6cf4 8bbe e9f6 343e
00000170: f941 6fbe d021 81bd 1f69 463b 903f 85bd
00000180: bbc5 9cbd 2f1b 7e3e 3981 e73c 83dd 14bd
00000190: f114 c23d 410a 36bd 0914 0a3e 178c e0bd
000001a0: cf99 2e3d 7821 45bd 9ebf eebc 5908 43bd
000001b0: 5df8 fd3d 33bd 3a3e 0964 c4bd 9ce4 1fbe
000001c0: 9913 dcbd 9e95 f93c 68cc 223d abca 96bd
000001d0: 2009 293e 3da2 98bb 70fe 003d 881c b7bd
000001e0: 1032 223d 45d6 0a3c dcb6 f73d 62e1 093e
000001f0: eee1 113c dba2 5cbd a19b 833d 2ca2 a93d
00000200: e63e 893e 2674 19bc 3809 a3bd 29c4 dabd
00000210: 7379 843d 708d 503d 7251 8d3d b0d4 803d
00000220: bbbe 593e be02 b63d 204e 8cbe e3b9 00bd
00000230: d741 d2bd ea6f 293d 5a7d bebd 0948 5d3d
00000240: a855 56bd 96d2 403d 46dc 193e d522 f43d
00000250: 0439 27bb 2a4c 7bbd 1dd5 b8bd cd33 20bd
00000260: 51fe bf3d 1e99 f83d d52d b0bd f90e 343e
00000270: 0248 44be cfbb 1bbe 96f8 3fbd 5dfc 753d
00000280: 4491 fabd b0f4 b8bd c6a8 cebb fd8d 62bd
00000290: 481a 083e 287a 343b 846e 8dbd 3fa5 61be
000002a0: b32a 8f3e 7ab7 6f3e e5ed 133f ece1 53be
000002b0: 4ef7 69bd f1a6 01bb a190 953e 7333 30bd
000002c0: 5b0e d03d 5bea 61bd 3b9b 723e 2230 863e
000002d0: b4ea 37be 1491 9fbe c862 fcbe 974f 85be
000002e0: d8fd bebe 96c0 f33d 48ac 79be 8968 6ebc
000002f0: 9e70 32be be0e 453e 2fcc a53c 1af0 243d
00000300: 248e 1dbe d8bd d3be 5273 a03e 834e 783e
00000310: d14c acbe 6c7a 1dbd 1b1c 8dbd 3f30 483e
00000320: ba91 01bd 7f08 2c3e 05ba 10be 842d 65ba
00000330: 3553 afbd dffd 853d a00d 113d 3e16 88bc
00000340: cb75 fbbc f494 88bd baba dcbc 300a 2fbe
00000350: f959 e33c 106e 203e bd52 66be e936 8abe
00000360: 111e fbbd 1ddb 563e 457f abbe bcb4 e73d
00000370: 1eba 79bd dee5 d0bd f2ad 1a3e 92c8 5e3e
00000380: eaaf 33be 5275 b73d 293d debd a61f 24bc
00000390: 1fff e8bd 874e 3b3c 2536 82bd 6de7 9e3e
000003a0: f412 d3bd 027d b5bd 13cf a5be 8865 6dbe
000003b0: 0a92 b53d 274f 8e3d 9ce0 403d 9452 0a3c
000003c0: 886a 0dbd bc0c 20bd 300c 5abd cbba eebd
000003d0: 5ebc 80bd 0e2f 72bd 2630 c9bd d886 1abc
000003e0: 6017 533e 13df f53c 2296 0e3c 9e9a 56bd
000003f0: b3e9 183a b992 66bc e0f0 953d c8bc a2bd
0.12503807 0.11325009 0.10617913 -0.26141822 0.08289217 -0.2040146 0.018887175 -0.21036325
-0.12010602 0.08195655 -0.0014178057 -0.13227132 -0.08641717 -0.100736454 -0.3044604 0.0044342913
0.037405137 0.033361442 -0.21855569 0.004426147 -0.14735228 0.21525104 -0.06177234 0.122824624
0.060222164 0.073317684 0.023558524 0.11069781 -0.09693993 -0.068610065 -0.04369354 0.16353852
-0.11986597 -0.3035105 -0.14122464 0.3025731 0.04837795 -0.25670528 -0.10355713 -0.16168612
-0.044589136 0.18636917 -0.23793502 -0.10412601 -0.32542902 0.3882121 -0.04025183 -0.10418823
-0.21901587 0.10866635 0.0869681 -0.005398499 -0.24516131 -0.04988351 0.07436597 0.11583357
-0.42119014 -0.122678034 -0.18477783 0.10814277 -0.06695125 0.09674255 -0.1761676 0.23354363
0.114535436 -0.007293723 0.17872281 -0.043536253 0.07705865 -0.0065452657 -0.75011563 -0.109359406
-0.57442373 0.23220883 -0.087951176 0.104247265 -0.15775247 0.17139815 -0.296159 -0.020142468
-0.110860944 -0.306624 0.039078098 0.0947831 -0.08317513 -0.042849235 -0.028590353 0.14932069
0.0034704728 -0.036468454 -0.27334917 0.17672314 -0.2336501 -0.06305277 0.003027506 -0.06506264
-0.076549016 0.24815057 0.02825986 -0.036344063 0.094766505 -0.044443373 0.13484205 -0.1096422
0.042627152 -0.04812762 -0.029144105 -0.047615383 0.12400887 0.18236236 -0.09589393 -0.15614551
-0.107459255 0.03046685 0.03974572 -0.073628746 0.16507387 -0.004658012 0.03149265 -0.08940989
0.039598525 0.008473937 0.120954245 0.13464883 0.0089039635 -0.05386625 0.06426168 0.08282885
0.268058 -0.009366071 -0.07960743 -0.10681946 0.06468477 0.050916135 0.069003 0.06290567
0.21264164 0.08887242 -0.27403355 -0.031427275 -0.10266464 0.041366495 -0.09301253 0.054023776
-0.052327782 0.04707583 0.15025434 0.11920706 -0.0025516162 -0.061351933 -0.09025023 -0.0391119
0.09374679 0.1213858 -0.08602492 0.17583837 -0.19168094 -0.15208362 -0.04686793 0.060055126
-0.122347385 -0.090310454 -0.0063067405 -0.05531119 0.13291276 0.002753863 -0.06905845 -0.22035693
0.27962264 0.23409835 0.57784873 -0.20691651 -0.057120614 -0.0019783343 0.29211906 -0.043017816
0.10158988 -0.05515514 0.23692028 0.26208597 -0.17960626 -0.31165373 -0.49294114 -0.26037285
-0.37303042 0.11901967 -0.24382126 -0.01455129 -0.17425773 0.19243905 0.020238964 0.04026804
-0.15386254 -0.41355777 0.31337982 0.242487 -0.33652356 -0.03844683 -0.06890126 0.19549654
-0.031633116 0.16800116 -0.14133461 -0.0008742439 -0.08560792 0.06542563 0.035413384 -0.016612168
-0.030695817 -0.066690356 -0.026944507 -0.1709373 0.027752863 0.15666986 -0.224925 -0.26995018
-0.12261594 0.20982023 -0.33495536 0.11313769 -0.06096851 -0.10200094 0.15105417 0.21756199
-0.17547575 0.08957924 -0.10851509 -0.010017311 -0.113767855 0.011432297 -0.063579835 0.3103594
-0.103063494 -0.08861734 -0.32384548 -0.23183262 0.08865745 0.06948691 0.047089204 0.00844254
-0.034525424 -0.039074644 -0.05323428 -0.11656722 -0.06285928 -0.059126906 -0.09823637 -0.009431563
0.20614386 0.030013597 0.008702787 -0.05239355 0.0005833164 -0.014073067 0.07321334 -0.079461634

lstm.ih.rho_weight f4 [128, 14]
00000000: 7e90 39c0 c91e 33c0 e533 38c0 ee22 3bc0
00000010: 5d7c 3cc0 450c 41c0 bbe4 39c0 c54c 37c0
00000020: 9cc9 3ec0 680c 31c0 abd7 42c0 32df 36c0
00000030: ede7 3ac0 28fc 35c0 4f9b 37c0 d9f8 3ec0
00000040: 5c95 49c0 b255 3ac0 722a 31c0 778c 42c0
00000050: d170 35c0 4641 33c0 9cab 44c0 12ea 46c0
00000060: 9011 34c0 66af 36c0 2838 31c0 4e26 38c0
00000070: 3827 3dc0 b41a 43c0 a6f2 3cc0 ccd1 47c0
00000080: 551c 3ac0 596e 3cc0 19ec 35c0 e1b1 36c0
00000090: c9ed 3ec0 e407 43c0 18c8 2fc0 2065 37c0
000000a0: e22d 2ec0 4e37 35c0 e1c4 48c0 bbca 3fc0
000000b0: e50c 3dc0 7c92 48c0 a001 41c0 b717 37c0
000000c0: e2c9 39c0 0917 37c0 5eb8 2ec0 d0de 40c0
000000d0: 11b2 39c0 75f9 33c0 3ab8 41c0 4dc0 33c0
000000e0: 3a9e 3cc0 25c1 34c0 ed81 4cc0 551d 30c0
000000f0: 373e 38c0 6ac2 45c0 c5f1 3cc0 ae02 44c0
00000100: 14a6 36c0 5a22 44c0 4e49 42c0 24ba 4ec0
00000110: d03c 3ac0 28c5 36c0 0a91 3dc0 cfac 2ac0
00000120: 610d 38c0 51e9 3ac0 4c57 36c0 7617 43c0
00000130: de38 38c0 0596 39c0 4231 45c0 6ae5 45c0
00000140: 79bd 35c0 efd1 37c0 f190 36c0 bef5 39c0
00000150: 3f8b 35c0 803a 3ec0 a19a 43c0 4c68 3bc0
00000160: d553 34c0 36eb 32c0 0ed7 33c0 bfe9 3bc0
00000170: 6940 42c0 ce91 32c0 2335 3bc0 56d8 33c0
00000180: bd68 3fc0 c00c 3ac0 7136 2fc0 af0c 2fc0
00000190: 46a6 35c0 22ef 31c0 fa12 3fc0 a819 43c0
000001a0: 602a 3ac0 c7ae 36c0 bb84 40c0 868a 35c0
000001b0: 2b91 36c0 e2a5 2fc0 9148 32c0 01fa 3ac0
000001c0: 9da8 2dc0 903a 2ec0 7695 35c0 0116 41c0
000001d0: 3d09 42c0 3d3c 46c0 8040 39c0 766a 3ac0
000001e0: 2538 3ec0 1a39 3bc0 e811 3ac0 dbcc 46c0
000001f0: f85e 41c0 4c92 3bc0 3750 3fc0 5737 35c0
00000200: c3e7 30c0 15d6 36c0 c72e 2fc0 16d9 40c0
00000210: 370d 31c0 6195 3ec0 a528 2dc0 4abc 3bc0
00000220: 6f07 3cc0 77c1 3fc0 a28e 37c0 e1d5 36c0
00000230: fb73 3bc0 1db9 42c0 0693 31c0 3da9 2ec0
00000240: 3ec1 55c0 9053 35c0 27b9 29c0 9779 32c0
00000250: 56af 2dc0 0314 38c0 be37 38c0 9000 41c0
00000260: 93f6 40c0 8272 32c0 3c2c 36c0 6737 37c0
00000270: 7e8a 39c0 779d 39c0 0592 28c0 4471 3fc0
00000280: 95c9 42c0 ac6f 3ec0 adb0 3cc0 b64e 43c0
00000290: e44e 3ac0 f01b 38c0 545a 37c0 ae88 2dc0
000002a0: f378 40c0 e038 3bc0 2222 34c0 29b0 35c0
000002b0: 6e18 34c0 e19b 35c0 4a51 31c0 9242 3bc0
000002c0: 4417 35c0 27da 42c0 72ce 42c0 d9fb 33c0
000002d0: efa0 43c0 f112 40c0 4827 3bc0 01ec 42c0
000002e0: 8c1b 39c0 e0c1 3dc0 7724 46c0 c492 40c0
000002f0: af15 42c0 82a5 3bc0 b6d6 42c0 07bd 45c0
00000300: f00f 37c0 3910 37c0 0ba4 3bc0 9a0a 3bc0
00000310: 60bb 3cc0 d745 3fc0 2ffe 3ac0 b96c 46c0
00000320: b83a 3fc0 ef24 3dc0 f91b 3ac0 8044 3ac0
00000330: bc38 32c0 c514 47c0 a9bf 3fc0 1442 39c0
00000340: 47bf 3ec0 9c0c 37c0 5150 44c0 b31d 3fc0
00000350: 7f5a 34c0 1bcc 32c0 dead 43c0 50ed 34c0
00000360: 3194 3bc0 10cf 35c0 f368 3cc0 f3f2 39c0
00000370: 69b0 2fc0 00be 30c0 7e97 39c0 d328 35c0
00000380: 59f2 47c0 bbc4 48c0 561a 36c0 a828 40c0
00000390: 592e 39c0 8684 40c0 a94f 34c0 3c80 3ac0
000003a0: 4183 49c0 6c1d 3cc0 23a2 39c0 97ee 31c0
000003b0: 548a 3fc0 12f3 3cc0 58aa 3dc0 4824 3ec0
000003c0: bc15 3cc0 c53f 36c0 90ff 2fc0 c3bc 3dc0
000003d0: 3f94 3bc0 0553 3cc0 ad45 3ec0 e1bd 30c0
000003e0: a1ce 41c0 8f7d 34c0 7265 31c0 b7a3 36c0
000003f0: 764f 3ec0 d93d 3bc0 8119 43c0 aaf5 43c0
-2.899444 -2.798754 -2.8781674 -2.924007 -2.9450905 -3.0163739 -2.9045856 -2.8640606
-2.9810553 -2.7663822 -3.0444133 -2.8573728 -2.9204056 -2.8435154 -2.8688543 -2.9839385
-3.1497412 -2.9114804 -2.7682157 -3.0398233 -2.8350108 -2.800859 -3.0729742 -3.1080365
-2.813572 -2.8544555 -2.7690525 -2.877338 -2.9555187 -3.0485048 -2.95231 -3.12218
-2.9079792 -2.944235 -2.8425353 -2.8546069 -2.9832633 -3.0473566 -2.7465878 -2.8655472
-2.7215505 -2.8315005 -3.1370165 -2.9967487 -2.953912 -3.1339407 -3.0157242 -2.8608224
-2.902947 -2.860781 -2.7300029 -3.0135994 -2.9014933 -2.8121006 -3.0268693 -2.808612
-2.9471574 -2.8242886 -3.19543 -2.7517903 -2.8787973 -3.089991 -2.9522564 -3.0626636
-2.8538866 -3.0645967 -3.0357242 -3.2301111 -2.9099617 -2.8557835 -2.9619775 -2.6667974
-2.8758166 -2.9204905 -2.8490782 -3.048307 -2.878471 -2.8997815 -3.0811315 -3.0921273
-2.8396895 -2.8721883 -2.8525965 -2.905624 -2.836624 -2.9723206 -3.0563128 -2.9282408
-2.8176167 -2.7956061 -2.810001 -2.9361417 -3.0351813 -2.7901492 -2.9251182 -2.810079
-2.9907677 -2.9070282 -2.7376978 -2.7351491 -2.8382735 -2.7802205 -2.9855332 -3.048441
-2.9088364 -2.8544176 -3.0081012 -2.8365798 -2.8526103 -2.7444997 -2.785679 -2.921509
-2.7134163 -2.7223244 -2.8372474 -3.016968 -3.0318139 -3.0974267 -2.8945618 -2.9127479
-2.9721768 -2.9253602 -2.907343 -3.1062534 -3.0214214 -2.9308043 -2.989271 -2.8315027
-2.7641456 -2.8568165 -2.73723 -3.0132499 -2.7664316 -2.9778674 -2.7056057 -2.9333673
-2.9379537 -2.9961832 -2.8680806 -2.8568041 -2.928954 -3.0425484 -2.7745986 -2.7290795
-3.3399196 -2.8332253 -2.6519258 -2.7886713 -2.7138267 -2.8762214 -2.8784022 -3.0156593
-3.0150497 -2.788239 -2.8464499 -2.8627565 -2.899078 -2.900236 -2.6339123 -2.9912882
-3.0435536 -2.975566 -2.9482834 -3.0516791 -2.911065 -2.8767052 -2.8648882 -2.7114673
-3.0073822 -2.9253464 -2.8145833 -2.838877 -2.813991 -2.837639 -2.7705865 -2.9259381
-2.829545 -3.044565 -3.0438504 -2.8122466 -3.0566976 -3.001156 -2.9242725 -3.0456545
-2.8923063 -2.9649582 -3.0959756 -3.0089579 -3.0325735 -2.9319768 -3.044355 -3.0896623
-2.8603477 -2.8603652 -2.9318874 -2.922522 -2.9489365 -2.9886377 -2.9217641 -3.100386
-2.987959 -2.9553792 -2.9079573 -2.910431 -2.7847128 -3.1106427 -2.996073 -2.894658
-2.9804246 -2.8601446 -3.0674021 -2.9861877 -2.8180234 -2.7937076 -3.057487 -2.8269844
-2.93092 -2.840763 -2.9439056 -2.9054534 -2.7451422 -2.7615967 -2.8998713 -2.8306167
-3.1241667 -3.1370075 -2.8453574 -3.0024815 -2.8934538 -3.0080886 -2.817362 -2.9140768
-3.148636 -2.9392958 -2.900521 -2.7801874 -2.9928179 -2.9523358 -2.963522 -2.9709644
-2.9388266 -2.8476422 -2.7499733 -2.964646 -2.9309232 -2.942567 -2.9730027 -2.7615893
-3.0282366 -2.8201635 -2.7718167 -2.8537424 -2.9736 -2.92565 -3.0484316 -3.0618691

lstm.ih.mu_bias f4 [128]
00000000: 0f0f 8e3d 7855 ba3c 65a5 ae3c 91c1 12bd
00000010: b18a 8e3d 28fa ba3d fec1 673d bb34 0c3e
00000020: 3ffd 7e3d 584e 8cbd b589 963d 4e48 023e
00000030: 5d92 443e 3c70 a5bd a2da 103e 045e 253d
00000040: 032f 36be 0b05 2b3e 6357 18bc db36 f13d
00000050: 85ee 953c b121 9ebd 96a0 06be e339 543d
00000060: bf42 70bc 56e7 ac3c 53dd 873e 6d02 f73d
00000070: 1eb9 463e 1457 c83c 7477 583e e526 55be
00000080: 5fa8 9b3e dfc7 0cbd ec52 7c3d 0129 153e
00000090: 64b9 8a3d 5222 183e 35b4 b53d 800b 8c3e
000000a0: d641 4cbc 5b2f 7f3d e069 273e 4956 923e
000000b0: 4ce0 f53d 7252 20be 7589 a2bd f83c ab3d
000000c0: c028 103d 3569 eb3d 022c 823e 602b d9ba
000000d0: c7bb 10be 2ddc 823c f363 0d3d 08cd 9d3d
000000e0: 53a6 bebd ac5c 2fbb 60ba ad3d 1b1c f03d
000000f0: b9b2 033e 47a7 14be 9e11 5f3e 876d 46be
00000100: 47ac e3bd d333 513e 8dc1 973e fdb1 c1bd
00000110: f9d1 1c3e e131 573d 11fc 6d3e 687b 64be
00000120: e4c0 cc3d 8a19 073e df1e 4a3d 0a77 063e
00000130: 91e3 60be 0e77 f33d 01d3 303e 1c9e db3d
00000140: 389f b2bc d0fb 02be b22a 3cbe c51b 82bd
00000150: e5a0 3ebe 9409 8a3d da1e 963d 5e55 40bd
00000160: 9fe0 aabd b3e7 ac3d ce81 82bd 80af 063e
00000170: 1826 f3bd df91 383e 4d2d 163c 4393 463c
00000180: 1ad0 d63d d140 8b3e 7fa2 7b3d 8a64 d8bc
00000190: 1435 9d3e 4815 b03e 9b5d 2abd 4c11 e33e
000001a0: 31d8 3b3e 6e84 5f3e 7c43 c13d 2e04 033d
000001b0: 001d 843e 42c7 d73d a604 ab3d bc04 fb3d
000001c0: 3486 133e 78a2 763e e871 123e 2d75 323e
000001d0: 34e3 623e 3855 823d 0d54 6d3c 91b5 823e
000001e0: c397 243e 4f44 723e fe85 d23d 4de4 033e
000001f0: 4656 253e 4fdf ba3e e8c6 933d c7d7 80bd
0.06936466 0.022745833 0.0213191 -0.03582913 0.06960047 0.09129745 0.05658149 0.1369199
0.062253233 -0.068508804 0.07350484 0.12722895 0.19196458 -0.08078048 0.14145902 0.040372863
-0.17791371 0.16701142 -0.009298178 0.11778041 0.018302212 -0.0772127 -0.13147196 0.051813018
-0.014664351 0.021106403 0.26536044 0.120610096 0.19406554 0.024455585 0.21139318 -0.20815618
0.30401894 -0.0343703 0.061602518 0.14566423 0.06773642 0.14856842 0.088722624 0.27352524
-0.012466868 0.06230102 0.16348982 0.28581455 0.12005672 -0.1565645 -0.07936374 0.08361238
0.035195112 0.11494676 0.254242 -0.0016568713 -0.14134131 0.015974129 0.034519147 0.07705122
-0.093090676 -0.0026758118 0.08482814 0.11724111 0.12861146 -0.14516936 0.21784064 -0.19377719
-0.11116844 0.20429926 0.29639855 -0.09457777 0.15314473 0.052537803 0.23240687 -0.22312701
0.099977285 0.13193336 0.049345847 0.13131347 -0.2196181 0.11887942 0.17267992 0.10723516
-0.021804437 -0.12791371 -0.18375662 -0.06352953 -0.18616064 0.06740108 0.07330103 -0.046956412
-0.08343624 0.084426306 -0.063724145 0.13152885 -0.118725 0.18024395 0.009166074 0.012120071
0.10488911 0.27197888 0.061434265 -0.026415128 0.30704558 0.34391236 -0.041593175 0.44349134
0.18344189 0.21827862 0.094367 0.031986408 0.25803375 0.10536052 0.08350496 0.122567624
0.14406663 0.24085414 0.14301264 0.17427512 0.22156984 0.063639104 0.014485371 0.2552915
0.16073518 0.2365887 0.10279463 0.12880059 0.16146192 0.36498496 0.07215673 -0.06291156

lstm.ih.rho_bias f4 [128]
00000000: 6358 2fc0 379e 33c0 effb 20c0 4ca2 2dc0
00000010: 4d0c 3ec0 7e3b 2dc0 fd7c 3cc0 9652 29c0
00000020: 4e15 3cc0 c2f5 28c0 4507 2dc0 c654 38c0
00000030: 9ca8 2fc0 94a1 36c0 530e 40c0 db4b 40c0
00000040: 8bc2 36c0 4466 31c0 c09f 2ec0 7ab1 36c0
00000050: ec30 36c0 e8fe 2cc0 1e93 2fc0 d4d3 25c0
00000060: 582d 33c0 5927 2ac0 d7f7 32c0 a0ac 34c0
00000070: 4b71 2bc0 2f3c 31c0 d108 2cc0 463e 30c0
00000080: a3c2 26c0 ee43 39c0 d76d 31c0 729c 3fc0
00000090: 2eba 2ec0 5d20 30c0 6bc6 3bc0 8957 1ec0
000000a0: cde6 31c0 0557 23c0 b0d9 32c0 234d 25c0
000000b0: 2bfb 2ec0 5642 32c0 ed98 42c0 56de 38c0
000000c0: e9ab 33c0 5ed4 2bc0 92fb 2fc0 44ec 31c0
000000d0: fdb2 47c0 e228 2ec0 2701 27c0 86ef 32c0
000000e0: d4a9 37c0 a988 32c0 3fcc 31c0 f684 34c0
000000f0: 4eb6 2dc0 9f40 43c0 dd70 33c0 25ae 38c0
00000100: f1d8 2fc0 7366 42c0 d569 34c0 eb41 39c0
00000110: d408 3bc0 d093 2cc0 74c0 45c0 75c1 3bc0
00000120: c394 4ac0 0a7e 2ec0 ec1c 34c0 af73 3ac0
00000130: f1a8 39c0 bcdb 37c0 bd54 44c0 52f3 3bc0
00000140: 4a76 3fc0 836d 35c0 dbf9 3ec0 3490 37c0
00000150: 9ffa 30c0 ee32 39c0 a978 35c0 f630 38c0
00000160: 6300 46c0 e33f 38c0 f8c9 37c0 4b5a 3dc0
00000170: 1352 4ec0 f4f2 40c0 1562 42c0 e660 33c0
00000180: 6d73 3bc0 306a 33c0 fabc 2ec0 04df 3dc0
00000190: 1cf2 20c0 b7a1 35c0 1647 32c0 fc73 3bc0
000001a0: 4403 42c0 4534 39c0 976a 35c0 688c 35c0
000001b0: 864f 32c0 a3d6 26c0 82d7 37c0 f911 3bc0
000001c0: 59f1 37c0 3d46 43c0 72e9 35c0 722c 41c0
000001d0: 20fe 2dc0 5945 33c0 d741 38c0 2b40 2ac0
000001e0: efe2 2dc0 45cf 43c0 33b9 31c0 0661 31c0
000001f0: c125 30c0 96e1 41c0 0ee5 40c0 96c3 2fc0
-2.7397697 -2.8065317 -2.5153768 -2.7130308 -2.9695008 -2.706756 -2.9451287 -2.6456656
-2.9388003 -2.6399999 -2.7035687 -2.8801742 -2.744666 -2.853612 -3.0008743 -3.0046299
-2.855624 -2.7718668 -2.7285004 -2.8545823 -2.846736 -2.7030582 -2.7433543 -2.591054
-2.7996426 -2.6586516 -2.796377 -2.8230362 -2.6787899 -2.7692983 -2.688038 -2.7538009
-2.6056297 -2.894771 -2.772329 -2.9939237 -2.7301135 -2.7519753 -2.9339855 -2.4740927
-2.779712 -2.5521863 -2.7945366 -2.582833 -2.73408 -2.7852988 -3.0405838 -2.8885703
-2.8073676 -2.6848369 -2.7497296 -2.7800455 -3.1202996 -2.7212453 -2.6094453 -2.7958694
-2.8697405 -2.789591 -2.7780912 -2.8206153 -2.714252 -3.0508192 -2.8037636 -2.885629
-2.747616 -3.037503 -2.8189595 -2.8946483 -2.9224138 -2.6965218 -3.0898714 -2.9336827
-3.1653297 -2.7264428 -2.8142653 -2.9133108 -2.9009364 -2.8727865 -3.067672 -2.936726
-2.9915948 -2.834809 -2.984 -2.8681765 -2.7652967 -2.8937335 -2.8354895 -2.8779883
-3.0937736 -2.8788993 -2.8717022 -2.958636 -3.2237594 -3.0148287 -3.0372365 -2.8027892
-2.92892 -2.8033562 -2.7302842 -2.9667368 -2.5147772 -2.8379953 -2.7855887 -2.9289541
-3.0314493 -2.8938153 -2.8346307 -2.8366947 -2.7861037 -2.6068504 -2.8725286 -2.922972
-2.8741057 -3.051162 -2.8423734 -3.0183377 -2.7186356 -2.8011076 -2.8790185 -2.6601665
-2.716976 -3.0595257 -2.7769287 -2.7715468 -2.7523043 -3.0293937 -3.0139804 -2.7463126

lstm.hh.mu_weight f4 [128, 32]
00000000: 0a8d b53d 4004 f13d 5647 423e 9e80 423d
00000010: 746d dfbc bb86 f23d df23 db3d 48d1 41be
00000020: a74d 193e e7bc 503e d157 8ebd 1234 953d
00000030: 7081 06be bee3 76bd 9670 043e ffcf 353d
00000040: 5a39 40be e88e 27be a95e 84be d327 6ebd
00000050: 7e84 1ebd a3cc 9ebd 2157 553e b382 a5bd
00000060: 3b5d bdbd 960b e5bd 0309 8c3d 4017 823d
00000070: 4206 373d 96ac 4eb9 3b11 313b d09c 373e
00000080: e907 df3b 14d2 863e 206e 93bc 388f 08bd
00000090: 45ac 433e 43c2 a2be ab80 d33d 3f8f 1dbd
000000a0: fbb6 e03c 7195 473d a38c ccbd 535c 32bc
000000b0: 45f9 b13d 20bb 343e dcb1 3f3e d22c 1fbd
000000c0: af60 083e 577f 16bd 75da 733d 926c c03d
000000d0: b88f 01be f3a0 023e 892d 54be c9fd 003d
000000e0: 6285 67bd e4fe 7d3d 26e3 433e 43a6 ae3d
000000f0: 7e1c 81be d51c ebbd 4ece 16be fe39 dcbd
00000100: 5134 38bd 3fbb 13bc 35fe f43d 7f76 99bd
00000110: 4e2e 213e 4c71 a93e 620a 143e 5ac7 07be
00000120: 7ff1 0f3d 129b 393d 0338 953b 81e4 bd3d
00000130: 8bfc 93bd 58d7 203e 0fe4 9b3e 2e88 e1bd
00000140: 2cb8 96be 3861 59bd 786a 96be 2018 d53e
00000150: ee16 2dbd c972 c93c db81 b0bd ef2e 00be
00000160: 088c 273e 1b88 db3d e16d 073e 6fb4 48bb
00000170: 9b8c 573e caeb a1be ebf3 5bbe 8a81 a1be
00000180: eee9 cc3d c75b 663d 3690 0ebe f8e3 1ebe
00000190: 579f 2e3e 42eb 8cbc 8a65 823e 4b81 52bc
000001a0: b7cc aebd 9a7a 89bd 94dc b8bc a9b6 fdbc
000001b0: 4f8a 0abe fc30 1a3f c883 08bd 7412 8c3d
000001c0: e205 a9be 05f4 9b3d 9e53 a4be 08a5 8b3e
000001d0: 0a3d 59bd f62b 883e 783e 18bd 8029 29be
000001e0: b7d6 cfbe 3a59 bd3d 990d c93e 95dc b53d
000001f0: 512c 243d bb52 b2be cf4a c7be 1f0f 48be
00000200: 0ed2 e63c c821 bd3c 4548 4d3d c859 19be
00000210: 1f90 1e3e 526a 1bbe f2d9 883d 4e77 02be
00000220: 5a3f c7bc bf34 e8bd 0b64 4dbe d1cd 0ebe
00000230: cf05 7f3d 05e0 a8bd 4065 5cb8 f7ea d1bd
00000240: e68a 69bd 6ace 1ebe 4f5a d6bd f81e c53d
00000250: e820 e9bd ff5b 4dbc 47c7 fdbc 68ff 17be
00000260: 18b4 3bbe 3ae6 963d 4414 783b ecf8 8e3d
00000270: de64 7ebe c060 2cbe 2b14 e7bd 3257 833c
00000280: 960a 9bbe 4349 303e 9a01 e9bd d7a7 2dbe
00000290: d06c d53d a8c8 62be 784f 5b3e e744 b9bc
000002a0: 8533 8fbe 6f91 d9bc 3497 333c d6e3 30be
000002b0: 7d5d 923c 21f7 453e 95c5 05be 1148 ddbd
000002c0: cf33 5cbc 9413 953d 78ff 22bd e7a1 643d
000002d0: 6817 c3bc 7d9d 22bd c021 06bd 4730 fabd
000002e0: e3e3 a9bd 28d9 323c 6bb6 4a3c 5d3a 98bd
000002f0: 07d4 023d edf0 c2be 3511 19be 6b78 25be
00000300: 9fd8 70be 2a7c 773c 7f01 1abe 6592 9bbe
00000310: 4773 c63d 4017 29bd 38d8 21be 7e45 2f3e
00000320: 8eba 73be 2451 12be 4c4b c63c 870a 52be
00000330: b1bd 9abd 22d0 94bd dc1c 323e 6da1 9cbd
00000340: 3f0c 5fbe 4a19 403e 4e41 9dbd 11f8 b73d
00000350: 4001 1aba c0ef da3d 7d8b 87bd e53e 2cbe
00000360: da79 c6bd a605 1d3e 9cbb 3e3e 0a8b 58be
00000370: 9f02 0ebe 52dd b0be e10c e6be 0ec2 84be
00000380: 7e26 3f3e 4886 be3d 8b66 ef3d 93e2 60bd
00000390: 8e32 ff3c 29f2 d03d e81d 863d 1776 31be
000003a0: 83ff 9c3e 3d4e 053e e204 35be 5365 7b3e
000003b0: 5a0d 19be b5f4 863d 7b2c 763e 7145 afbd
000003c0: 0b82 163c 4a63 27be 2a06 14bc 4b44 d43d
000003d0: 2d81 6cbe bca3 c33c de24 a03d 8bf4 edbd
000003e0: ceb8 123e 87b2 fcbd bf96 aabb 8e32 883d
000003f0: d4ea 893e 33f6 d83c 90e5 993d fecb c63d
0.08864792 0.11768389 0.18972525 0.04748594 -0.027273871 0.11842104 0.10700201 -0.1892749
0.14971028 0.2038456 -0.069503434 0.07285322 -0.13135314 -0.060275786 0.12933573 0.044387814
-0.18771878 -0.16363108 -0.2585347 -0.058143448 -0.038700573 -0.07753875 0.20834018 -0.080815695
-0.09246298 -0.111838505 0.06837656 0.06352091 0.044683702 -0.00019709984 0.0027018327 0.17930913
0.006806363 0.26332152 -0.017996848 -0.03333971 0.19108684 -0.31788835 0.10327276 -0.03846669
0.027431002 0.048726503 -0.09987762 -0.01088627 0.086901225 0.17649508 0.18720192 -0.038861103
0.13318132 -0.036742534 0.05953451 0.09395708 -0.1265248 0.1275671 -0.20720495 0.03149203
-0.05652369 0.06201066 0.19129619 0.08527806 -0.2521705 -0.11480109 -0.14727136 -0.10753249
-0.044971768 -0.009016811 0.11962549 -0.074933045 0.1574032 0.3309425 0.14457086 -0.1325964
0.035142418 0.045313902 0.0045537963 0.09272099 -0.07225903 0.15707147 0.30447432 -0.11012302
-0.29437387 -0.05307123 -0.29378104 0.41619968 -0.042258196 0.024590867 -0.08618518 -0.12517904
0.16362011 0.107193194 0.13225509 -0.0030625125 0.2104973 -0.31625205 -0.21479766 -0.31544143
0.10005556 0.05623987 -0.139222 -0.1551665 0.17052971 -0.017202023 0.25468093 -0.012848209
-0.0853514 -0.067128375 -0.022566117 -0.030970888 -0.13529323 0.60230994 -0.0333288 0.06839457
-0.330123 0.076149024 -0.32095045 0.27274346 -0.053036727 0.2659604 -0.03716895 -0.16519737
-0.40593502 0.09245534 0.39268187 0.08879963 0.040081326 -0.34828743 -0.38924262 -0.19537018
0.028176334 0.023087397 0.05011775 -0.14975655 0.15484665 -0.15177277 0.06682195 -0.12740824
-0.0243222 -0.113381855 -0.20057695 -0.139457 0.0622614 -0.08245853 -5.2546384e-05 -0.10249894
-0.05701723 -0.15508428 -0.10466444 0.096250474 -0.113832295 -0.012534141 -0.030978812 -0.14843524
-0.18330419 0.07368131 0.0037853876 0.06981072 -0.24843165 -0.16833782 -0.112831436 0.016032789
-0.30281514 0.17215447 -0.113772586 -0.16958557 0.10421145 -0.22146857 0.21417034 -0.022615863
-0.27968994 -0.026558606 0.010961343 -0.17274413 0.017866844 0.19332553 -0.13063653 -0.10804761
-0.0134400865 0.07279125 -0.039794415 0.055818465 -0.023814872 -0.039700974 -0.03274703 -0.122162394
-0.08295419 0.010916032 0.012372593 -0.07433007 0.031940486 -0.38074437 -0.1494797 -0.16159217
-0.23520134 0.015105287 -0.15039633 -0.30385128 0.09689956 -0.04128194 -0.15805137 0.17116353
-0.23801634 -0.14288765 0.024205826 -0.20511828 -0.07555712 -0.07266261 0.17393821 -0.07647977
-0.21782015 0.18759647 -0.076784715 0.08982862 -0.000587482 0.1069026 -0.06618402 -0.16820867
-0.0969121 0.15334186 0.18626255 -0.21146789 -0.13868187 -0.34543854 -0.449317 -0.25929302
0.18667027 0.09302956 0.116894804 -0.054903578 0.031152036 0.102024384 0.06548673 -0.17330204
0.3066369 0.13018127 -0.17677644 0.24550371 -0.149465 0.06589643 0.24040405 -0.08558167
0.009186278 -0.1634647 -0.009034673 0.10364588 -0.23096152 0.023881786 0.07819532 -0.116189085
0.1432831 -0.12338739 -0.0052059586 0.066502675 0.26936972 0.026484584 0.07514489 0.09706877

lstm.hh.rho_weight f4 [128, 32]
00000000: b4d9 42c0 b13c 36c0 d363 49c0 3e7c 2fc0
00000010: c31b 48c0 e0fb 36c0 67a2 34c0 c954 35c0
00000020: 7b7c 3cc0 bc64 39c0 e94c 41c0 6dba 44c0
00000030: 16f8 3bc0 cfd0 32c0 7394 3dc0 4f65 48c0
00000040: 69d4 2cc0 b48b 40c0 4318 3dc0 6b93 3bc0
00000050: 8c89 42c0 8b4f 42c0 652f 36c0 819a 3fc0
00000060: 8af5 34c0 d751 3ec0 4476 32c0 8fce 4cc0
00000070: 051f 34c0 e852 31c0 0fe0 3fc0 0118 3cc0
00000080: 9818 42c0 025c 42c0 0fd8 3cc0 d2bc 46c0
00000090: 90d9 3cc0 0b64 3fc0 c5bc 37c0 7c1f 2ac0
000000a0: 4959 3cc0 6c5c 3bc0 c3f3 42c0 0379 3fc0
000000b0: aed7 3ac0 14b8 41c0 234b 39c0 032b 3ec0
000000c0: 5bfd 43c0 ae07 39c0 6fab 41c0 2977 46c0
000000d0: 7a03 3fc0 180e 3ec0 0bbd 39c0 9603 41c0
000000e0: 3b38 45c0 947f 3cc0 8af3 37c0 d609 49c0
000000f0: a2e7 41c0 f695 3dc0 2dc3 38c0 19cd 3bc0
00000100: b13f 32c0 57be 35c0 c1aa 3bc0 52ec 47c0
00000110: d78a 40c0 00b2 3ec0 d604 3cc0 8ebd 3ec0
00000120: 45c6 31c0 bd41 45c0 813e 3ac0 91ae 4ec0
00000130: 94f5 3dc0 eedd 38c0 13c8 3ec0 90a6 35c0
00000140: 616c 39c0 d5c7 4ac0 2294 45c0 8cb3 37c0
00000150: 2de5 3dc0 4899 35c0 b84c 3cc0 0fd4 31c0
00000160: 9d69 2fc0 1f27 41c0 0b83 35c0 937c 37c0
00000170: ec32 32c0 780e 3fc0 7e1d 3cc0 2a40 31c0
00000180: d2ad 3ec0 a9a5 3cc0 f013 38c0 fbc9 31c0
00000190: 9fb5 3bc0 a26e 3cc0 a6df 45c0 f334 3cc0
000001a0: 48e9 32c0 7830 44c0 6c24 40c0 53d7 3ac0
000001b0: 781b 38c0 3412 3bc0 bcf1 38c0 f055 3ec0
000001c0: e038 36c0 428c 34c0 9155 3ac0 42a6 3cc0
000001d0: 1156 3cc0 f344 37c0 9afd 3bc0 f485 3ac0
000001e0: e409 3ec0 2bf8 43c0 f37d 3bc0 6196 42c0
000001f0: 24d5 43c0 554c 3fc0 6cf2 3cc0 207f 38c0
00000200: 93ef 33c0 2d27 41c0 6f1b 41c0 a68e 30c0
00000210: e174 36c0 acb1 32c0 370f 37c0 add7 45c0
00000220: 442f 39c0 e9a4 33c0 229f 41c0 e1d6 40c0
00000230: d6e5 52c0 826f 41c0 d047 41c0 a066 3bc0
00000240: e107 38c0 377a 3ec0 77ff 46c0 a0a8 43c0
00000250: feca 44c0 0c78 3fc0 d651 4ac0 e5c7 3fc0
00000260: db13 33c0 5abb 39c0 ce38 3cc0 afa3 3bc0
00000270: 04e7 44c0 caf0 33c0 e2bd 3ec0 e65a 35c0
00000280: aaba 3cc0 5137 3cc0 6e18 42c0 cf14 38c0
00000290: c481 43c0 f68a 53c0 8623 34c0 4765 30c0
000002a0: ed65 49c0 2c35 3ac0 7d77 3fc0 5e71 3ac0
000002b0: ba28 3fc0 3a31 31c0 b9ca 35c0 a3b9 32c0
000002c0: 74de 39c0 0440 33c0 bad9 40c0 077c 3cc0
000002d0: 4891 37c0 6d62 39c0 68e2 39c0 099f 3dc0
000002e0: f09d 46c0 b5c3 46c0 495c 40c0 7471 42c0
000002f0: 7afd 45c0 d1fa 3ec0 4a9d 44c0 d604 30c0
00000300: 43c8 46c0 f776 3bc0 8fae 3bc0 e373 44c0
00000310: 0511 3fc0 89a2 3bc0 9277 32c0 e902 3dc0
00000320: f8c8 3dc0 6fa4 50c0 e219 44c0 7941 4ac0
00000330: fc53 3ac0 6090 46c0 8467 3cc0 8741 47c0
00000340: 11da 37c0 ab75 3cc0 5fec 3fc0 1110 42c0
00000350: dafd 3ec0 44cf 3cc0 1dfc 3ac0 ff28 3cc0
00000360: c06b 42c0 5c94 49c0 a1b2 40c0 ae86 41c0
00000370: 120e 47c0 0de4 3bc0 9e27 3fc0 d22e 47c0
00000380: f9ac 34c0 dc35 3dc0 e1ba 46c0 2173 4ac0
00000390: f0a3 40c0 fd26 3bc0 59b5 32c0 8107 34c0
000003a0: 62da 38c0 4b3d 32c0 9d14 2bc0 5849 3ac0
000003b0: 8711 3fc0 f6ee 2fc0 950c 37c0 7274 2dc0
000003c0: 52fb 3ec0 27ba 32c0 0cb2 32c0 3bde 39c0
000003d0: 5444 30c0 ab16 3cc0 15ee 36c0 0b79 26c0
000003e0: 9109 37c0 6e43 2cc0 65b6 3bc0 258a 38c0
000003f0: 68b4 3bc0 41c7 2ec0 3954 37c0 0f15 2ac0
-3.0445375 -2.8474543 -3.1467178 -2.7419581 -3.1266944 -2.8591232 -2.8224123 -2.8332999
-2.9450977 -2.8967733 -3.0203192 -3.0738785 -2.937017 -2.7939947 -2.9621856 -3.1311834
-2.7004645 -3.0085268 -2.9546058 -2.9308727 -3.0396452 -3.036105 -2.8466427 -2.9938052
-2.8274865 -2.973745 -2.7884684 -3.2001073 -2.8143933 -2.7706852 -2.9980505 -2.938965
-3.032751 -3.0368657 -2.9506872 -3.1052747 -2.950779 -2.9904811 -2.8708966 -2.6581717
-2.9429495 -2.927516 -3.046128 -2.991761 -2.919414 -3.0268602 -2.895211 -2.9713752
-3.0623386 -2.8910937 -3.0260885 -3.101023 -2.9845872 -2.9696102 -2.9021633 -3.0158439
-3.081557 -2.9452868 -2.8742394 -3.1412253 -3.0297627 -2.962278 -2.8869126 -2.9343932
-2.7851374 -2.8397424 -2.932297 -3.1237988 -3.008474 -2.9796143 -2.9377952 -2.9803195
-2.7777264 -3.0821373 -2.910065 -3.2294047 -2.968114 -2.8885455 -2.9809616 -2.8382912
-2.89724 -3.1684468 -3.0871663 -2.8703337 -2.9671128 -2.8374805 -2.9421825 -2.778568
-2.7408211 -3.0180128 -2.8361232 -2.8669784 -2.784358 -2.985258 -2.9393 -2.7695413
-2.9793591 -2.947611 -2.876217 -2.777953 -2.9329603 -2.9442525 -3.0917754 -2.9407318
-2.7954884 -3.0654583 -3.002223 -2.9193923 -2.8766766 -2.922986 -2.8897543 -2.9739952
-2.8472214 -2.8210607 -2.9114726 -2.9476476 -2.942753 -2.8635833 -2.9373536 -2.9144258
-2.9693537 -3.062022 -2.9295623 -3.0404284 -3.059884 -2.989034 -2.9522963 -2.882759
-2.8114974 -3.018016 -3.0172994 -2.7587066 -2.8508837 -2.7920942 -2.8603036 -3.0912888
-2.8935099 -2.8069403 -3.0253377 -3.0131152 -3.295278 -3.022431 -3.020008 -2.9281387
-2.875481 -2.9762094 -3.1093423 -3.057167 -3.0748897 -2.991702 -3.1612449 -2.9965756
-2.798087 -2.90206 -2.940967 -2.9318655 -3.0766 -2.8115716 -2.9803395 -2.833673
-2.948893 -2.9408762 -3.032741 -2.87627 -3.0547953 -3.3053565 -2.8146682 -2.7561815
-3.146846 -2.9094954 -2.991668 -2.9131694 -2.9868608 -2.7686296 -2.8404982 -2.7925804
-2.9042025 -2.8007822 -3.013289 -2.94507 -2.8682423 -2.8966324 -2.9044437 -2.9628317
-3.1033897 -3.105695 -3.0056326 -3.0381746 -3.093596 -2.9840586 -3.0721002 -2.7502952
-3.105973 -2.929136 -2.9325292 -3.0695732 -2.9854138 -2.9317954 -2.788548 -2.9533026
-2.9653912 -3.2600362 -3.0640798 -3.1602461 -2.911376 -3.102562 -2.943818 -3.1133745
-2.8726847 -2.944682 -2.998802 -3.0322306 -2.9842439 -2.9501505 -2.9216378 -2.9400022
-3.0378265 -3.1496801 -3.0109026 -3.0238452 -3.1102338 -2.935794 -2.986793 -3.1122327
-2.8230574 -2.9564123 -3.1051562 -3.163277 -3.010006 -2.9242547 -2.7923186 -2.812958
-2.888329 -2.784991 -2.6731331 -2.9107265 -2.9854448 -2.74896 -2.860143 -2.7102323
-2.9840894 -2.7926118 -2.792117 -2.9041889 -2.7541704 -2.9388835 -2.8582814 -2.6011379
-2.859959 -2.6916156 -2.9330075 -2.8834317 -2.9328861 -2.7309115 -2.8645155 -2.6575353

lstm.hh.mu_bias f4 [128]
00000000: 74c7 a33e 1934 0e3e 7663 733d 4e05 5a3d
00000010: d83c 173e 6a8e 4ebe 2a15 7abe 36ac 773e
00000020: 2222 023d b3cb 303d b3b1 813d f694 103e
00000030: 6df5 5a3e 028d cdbd b7a4 2f3e c7ca 9abd
00000040: feb3 4fbc 1ea2 be3e 3591 f03d 93d2 da3d
00000050: a2a8 33be 7af3 b23d 0c22 853e 1ef4 aebc
00000060: 08eb a03d b116 ca3d 288e 6c3d b7be bebc
00000070: 4dbb 813d dc7a 8b3d b21e cb3e 1fb6 97bc
00000080: 5825 183e ba9e 49bc 84f6 ba3b 9325 7bbd
00000090: 499a c4bd ab02 bd3d 23fc f43d 235e ce3e
000000a0: 502d 18be 290a 583e 59da 29bd 8b26 8d3e
000000b0: 0f6e 173e ba75 56bd 4f30 81bb b498 19bd
000000c0: df47 5a3d 9f68 813e 0b4c 273d 0abd 463d
000000d0: fb14 223e e407 9b3d 363c 1a3d 219f 2a3e
000000e0: dd7a 863e 5eda c13d 9c44 d93d e106 8e3d
000000f0: 5569 da3d 1332 7bbd 75b8 ea3c 6409 603e
00000100: ae19 223e 590a a23c 2923 843e 30d5 b5bd
00000110: e03b e13d 96cc 0a3e 5cc7 593d 4045 2abe
00000120: c17d 233e 4dec 9a3d 8be2 4b3c a3b2 7e3c
00000130: 5b10 87bc 68eb 183d 3a07 0a3e a81a 713e
00000140: b787 babd d84d 74be f96a 10be 83da 0e3b
00000150: 9f9e 013e 7862 a83d 69de a3bd 977a 293e
00000160: 98e5 073e 5a2d 32bd f5ba e43d d266 5f3e
00000170: b941 bbbd bb88 4ebd 82d5 42be d2e9 bbbd
00000180: 02aa 293e 777e bf3d 0c2e 563e 2248 733e
00000190: e839 ad3e bccc 7d3e e576 833e aefe 4f3e
000001a0: ae28 263e 738c 5a3e b558 7a3e 395e e03d
000001b0: 474e 4d3e e8d9 e83d 6c89 693e 58e8 943e
000001c0: 0c72 293e 6989 5f3d ba5d da3d 3248 c43d
000001d0: 3416 6b3e 06b6 943e b413 493e 7018 013e
000001e0: 70c1 be3d 649c ee3d a1ea d03e 5ca8 513e
000001f0: 57d3 6e3e d277 193e 1ef7 2b3e a1d0 323d
0.31988108 0.13887061 0.059421025 0.053227715 0.14769304 -0.20171514 -0.24422136 0.24186787
0.031770833 0.043163013 0.063327216 0.14119324 0.21382685 -0.10036661 0.17152677 -0.07558208
-0.012677191 0.3723306 0.11746446 0.10684695 -0.17544797 0.08737846 0.26002538 -0.021356639
0.07857329 0.09867609 0.05775276 -0.0232843 0.06334553 0.06810543 0.39671856 -0.01851946
0.14857996 -0.01230591 0.0057056565 -0.06131513 -0.0959974 0.092290245 0.11962154 0.40306196
-0.14861035 0.21097626 -0.041468 0.27568468 0.14788078 -0.052358367 -0.0039425264 -0.037499145
0.053291198 0.25275132 0.040844005 0.048520125 0.15828316 0.075698644 0.037655078 0.16662265
0.26265612 0.09465478 0.10608789 0.06934906 0.10664622 -0.06132705 0.02865241 0.21878582
0.15830109 0.019780325 0.25808075 -0.08878553 0.109977484 0.13554606 0.05316864 -0.1662798
0.1596594 0.07564602 0.012444149 0.01554552 -0.016487291 0.037333876 0.13479319 0.23545325
-0.09107917 -0.2385782 -0.14103307 0.0021797724 0.12658165 0.082219064 -0.08001406 0.1655067
0.13271177 -0.043500282 0.11168472 0.21816567 -0.09143395 -0.050423365 -0.1902676 -0.09175457
0.16568759 0.09350293 0.20916003 0.23757985 0.3383324 0.24785131 0.25676647 0.20311996
0.16226456 0.2134264 0.24447902 0.109554715 0.20049392 0.11369687 0.22806329 0.29083514
0.16547412 0.054574404 0.10662408 0.09584083 0.22957689 0.29045123 0.19636422 0.12606978
0.09314239 0.11650923 0.40804008 0.2047438 0.23322807 0.14987114 0.16793486 0.043655995

lstm.hh.rho_bias f4 [128]
00000000: c89e 2bc0 e0c8 37c0 6a5b 29c0 2168 2ec0
00000010: 971c 3cc0 2f45 37c0 302b 36c0 41e0 36c0
00000020: acef 2ac0 0dc4 27c0 43e7 25c0 3dff 30c0
00000030: 2219 27c0 fd62 29c0 6f0f 37c0 7a26 36c0
00000040: 3d2d 3ac0 8269 1dc0 bd7d 3bc0 9f3e 20c0
00000050: e732 3bc0 ed13 31c0 9fce 28c0 7b40 2cc0
00000060: 87d1 38c0 c176 2cc0 065f 21c0 28d4 33c0
00000070: 0721 25c0 f4fb 38c0 c5ed 2dc0 2f02 2bc0
00000080: 7f9f 28c0 cfe5 32c0 7a89 30c0 afec 36c0
00000090: 1256 36c0 8949 3ec0 059b 28c0 1b9f 16c0
000000a0: 6ff1 2ec0 6e18 1fc0 a9fe 31c0 b280 22c0
000000b0: ac73 3ac0 f223 31c0 4e7a 40c0 4f31 2ec0
000000c0: d292 3ac0 26b7 31c0 9d06 3ec0 f2a6 48c0
000000d0: bc85 34c0 9d47 27c0 7768 3bc0 9353 2ec0
000000e0: d12f 35c0 ec26 35c0 a9c3 3bc0 880b 30c0
000000f0: 5f84 40c0 e7a5 2ac0 a2af 2ac0 b6cd 31c0
00000100: ccd0 3ec0 88b1 34c0 fa55 35c0 03bd 3ac0
00000110: 5531 3ec0 6db1 3fc0 40c3 34c0 1059 39c0
00000120: fc98 40c0 4b58 34c0 7ac0 33c0 07c6 45c0
00000130: 4dd2 3ac0 671c 3dc0 4e1a 3bc0 41b5 36c0
00000140: 6415 41c0 2722 47c0 0399 3cc0 3b81 44c0
00000150: f511 3bc0 1fde 44c0 dbab 3bc0 453d 43c0
00000160: 4c1b 38c0 2e52 3cc0 1f9f 3bc0 09f5 33c0
00000170: 154a 43c0 0992 39c0 ecf7 4ac0 b3f9 3cc0
00000180: 2c0b 31c0 b08d 29c0 f733 34c0 8b6b 30c0
00000190: 30c6 1fc0 638d 29c0 385f 35c0 49af 36c0
000001a0: fdbf 2ac0 dffb 36c0 9882 3ac0 b0ae 34c0
000001b0: 7b2e 3cc0 7c65 2fc0 4209 2fc0 d215 36c0
000001c0: 119a 39c0 d101 3bc0 20ae 3ac0 8222 2cc0
000001d0: f782 33c0 d47a 38c0 9e8b 2dc0 4cbc 23c0
000001e0: a29b 2ac0 5184 3cc0 b00f 33c0 ede1 28c0
000001f0: b08d 3dc0 2177 3ac0 c116 30c0 d3ad 2ec0
-2.6815662 -2.8716354 -2.6462045 -2.7251055 -2.939245 -2.8635976 -2.846386 -2.8574374
-2.6708784 -2.621341 -2.59224 -2.7655785 -2.610909 -2.6466668 -2.860317 -2.8460984
-2.9090111 -2.4595647 -2.9295495 -2.503822 -2.9249818 -2.7668412 -2.6376112 -2.6914356
-2.8877885 -2.6947482 -2.5214248 -2.809824 -2.5801408 -2.890378 -2.7176373 -2.6720083
-2.6347349 -2.7952764 -2.758391 -2.858196 -2.8490033 -2.9732382 -2.6344616 -2.353461
-2.733486 -2.485866 -2.7811682 -2.539105 -2.91331 -2.767819 -3.007465 -2.7217596
-2.9152112 -2.7768035 -2.9691536 -3.1351895 -2.8206625 -2.613746 -2.928251 -2.723851
-2.8310435 -2.8305006 -2.9338171 -2.7507038 -3.0080793 -2.6663759 -2.6669698 -2.7781806
-2.981494 -2.8233356 -2.8333726 -2.9177864 -2.971761 -2.9952042 -2.824417 -2.896061
-3.0093374 -2.817889 -2.8086228 -3.0902116 -2.9190857 -2.9548585 -2.9234805 -2.8548129
-3.0169306 -3.1114595 -2.946839 -3.0703876 -2.922971 -3.0760572 -2.9323642 -3.0506146
-2.876666 -2.9425159 -2.931587 -2.8118308 -3.0513966 -2.8995383 -3.171382 -2.9527404
-2.7663069 -2.649273 -2.8156717 -2.756564 -2.4964714 -2.6492546 -2.8339367 -2.8544486
-2.667968 -2.859123 -2.9142208 -2.823162 -2.940337 -2.740569 -2.73494 -2.8450818
-2.9000285 -2.9219859 -2.9168777 -2.6896062 -2.8048685 -2.8824968 -2.7116466 -2.5583677
-2.665749 -2.945576 -2.7978325 -2.6387894 -2.961773 -2.913521 -2.7513888 -2.7293594

l1.mu_weight f4 [16, 32]
00000000: eb68 c3be 57ac 13bf 5276 f7be 457b eb3e
00000010: 3d31 0abf 30d1 c1be f34b 04bf bce8 d63e
00000020: 0879 f4be 984c bfbe 656e ddbe 3bba 15bf
00000030: b3ed 023f afc7 f1be a1ab a1be f4bf e1be
00000040: 8675 453e 1305 153f 29b4 023f 9926 e2be
00000050: 0984 1b3f d2df 03bf 8dd5 cbbe 8bef a33e
00000060: 5064 243f f944 cd3e e101 ecbe 430d 0ebf
00000070: afeb a83e 4cd1 f03e 7fdf 053f 8bad 343f
00000080: 2d05 023f 98dc f23e 9ab7 f03e c76c cebe
00000090: 3fc2 cd3e 3edd 493e 08f2 b53e 886c a8be
000000a0: 61e1 163f 5a43 bc3e 6cef e83e c9d5 f63e
000000b0: adc8 93be 737b 103f cd31 d03e 2065 f83e
000000c0: 9bb8 28be dfe1 05bf 3e2e c6be bd90 093f
000000d0: 0a0d aabe 34d2 c93e 36ca fb3e 7c6a fcbe
000000e0: 42a0 d9be 9f4f f4be 6f2e 0a3f 41ff b43e
000000f0: 8b2c f0be 1af4 13bf 1a92 fdbe 48d5 fcbe
00000100: 76ff 233f 8dba 313f f1cc 053f de14 ddbe
00000110: e2bd 023f 9cfa e93e c450 c13e 361f fcbe
00000120: c8c8 d73e 23c2 ee3e dda8 933e 1b20 c63e
00000130: ea3a 1cbf fee9 313f 48ff 153f 4055 e53e
00000140: bfcf 92be cff9 f7be a7d7 01bf d3c6 003f
00000150: 718c 23bf ffa1 023f 57db d83e 50f1 dcbd
00000160: 0024 12bf 780c 21bf 6143 1c3f 70b8 ed3e
00000170: d9c4 16bf 2a11 00bf 34be 03bf 08ae 16bf
00000180: 22cf dc3e acf1 b73e db56 4d3e 6aa0 98be
00000190: 8106 d63e 4de8 813e 0634 803e 5b6d 02bf
000001a0: ac6c 0f3f 591d 733e ec35 6e3e d101 e23e
000001b0: ca8e f8be 7f6f f23e cba5 bc3e c114 033f
000001c0: 598a 75be 8698 0abf 41c0 f9be 09a4 053f
000001d0: db10 d5be a0f3 033f 7368 c93e 1567 c2be
000001e0: fd29 c8be 94d3 d4be e8f0 e83e fdf9 283f
000001f0: 1889 d2be 5327 0bbf 92c4 c0be eab0 08bf
00000200: d3a1 9c3e 8358 a43e a387 f23e 1d4f 0cbf
00000210: db2c fc3e 1dfa df3e e7b3 b13e 1f2f 08bf
00000220: 9b98 7f3e 75e0 303f c8fe c13e 99fb ec3e
00000230: 47cc ffbe 18aa bc3e 0f01 be3e b546 dd3e
00000240: a5a2 a4be 56e1 04bf b81e 94be 6574 2c3f
00000250: be8c f1be 7975 073f 26d7 113f 7be6 76be
00000260: 6baf bcbe 7371 f7be 4234 0a3f 598c 033f
00000270: cb2b 28bf 2977 5ebe b95f 17bf c9b4 b4be
00000280: 04b2 033f 8130 023f 322c 213f 7187 d4be
00000290: 219c 023f 4661 b43e 1e49 d83e 444f eabe
000002a0: fd14 e83e b003 e63e 3105 aa3e 08be d93e
000002b0: fc2a e7be b62c 243f 88ba 103f b5f6 fb3e
000002c0: 3902 c8bd 70fd 05bf 7c48 1cbf 1c0b e73e
000002d0: cdcd 8cbe 9fed 2a3f 984d 143f 4f62 10bf
000002e0: 0962 05bf 4d6b 0abf b467 d53e 2ff5 063f
000002f0: cc21 2dbf c1ad d7be 4e80 24bf 0584 d9be
00000300: c84b ee3e 26d2 db3e 0bbb cd3e 47fa e7be
00000310: 3641 d13e 636b 013f 330c 023f a913 e5be
00000320: ab91 ab3e 86e0 003f 58ae f33e adc0 0f3f
00000330: 3132 03bf 3e9a e63e ffee 063f 4d00 d43e
00000340: 495f a2be 3123 b4be 1176 efbe 0c81 b63e
00000350: 3d92 18bf 58c0 af3e 848b de3e aca1 fbbe
00000360: e2ea a9be e50c fcbe 677a dc3e ec9d ba3e
00000370: 667a f6be 43ef ccbe f7c3 11bf 37fe e9be
00000380: aa12 0f3f 320c 2a3f b2c0 2b3f cd7f b3be
00000390: 8d4f 033f f986 d43e 45af cb3e 80e3 f3be
000003a0: f0a6 bc3e a975 163f a6f8 dc3e bd71 ff3e
000003b0: 9f90 e4be 1894 b03e 5e6b e73e 98de fd3e
000003c0: ddc9 c8be b298 f8be e5b2 08bf b2f7 033f
000003d0: 2850 08bf 8d58 ee3e fed7 ab3e 714f acbe
000003e0: 3795 00bf 088f cfbe 483a 0a3f e3d0 eb3e
000003f0: 844c 15bf 3c07 f4be c84b 2fbf 2e53 dabe
-0.38165984 -0.57684845 -0.4833246 0.45992485 -0.5398138 -0.3785491 -0.5167839 0.41974437
-0.4774859 -0.37363124 -0.43248287 -0.5848729 0.5114395 -0.4722266 -0.31576255 -0.4409176
0.19283113 0.5821087 0.5105615 -0.44170073 0.60748345 -0.515134 -0.39811364 0.32018694
0.64215565 0.40091684 -0.46095183 -0.55488986 0.32992312 0.4703468 0.5229415 0.70577306
0.5078915 0.47433925 0.47015077 -0.40317366 0.4018726 0.19713303 0.35536218 -0.32895303
0.5893765 0.36770135 0.45495164 0.4820998 -0.2886404 0.5643837 0.40662995 0.48514652
-0.16476671 -0.52297777 -0.38707155 0.5373648 -0.33213073 0.39418185 0.49177712 -0.4929999
-0.4250508 -0.47716996 0.539771 0.35350993 -0.46908984 -0.57794344 -0.4952553 -0.4938147
0.6406168 0.6942528 0.5226584 -0.43179983 0.5107099 0.45699012 0.37756932 -0.49242562
0.4214537 0.4663249 0.2883977 0.3869637 -0.61027396 0.6949767 0.58592653 0.44791603
-0.28674123 -0.48432776 -0.50719684 0.5030338 -0.6388617 0.51028436 0.42354843 -0.10788214
-0.5708618 -0.6290965 0.6104031 0.46429777 -0.58894116 -0.5002619 -0.514621 -0.588593
0.4312678 0.35926569 0.20052664 -0.29809886 0.41801837 0.25372544 0.2503969 -0.50948113
0.56025195 0.23741664 0.23262757 0.4414201 -0.4854644 0.4735069 0.3684524 0.5120354
-0.23978557 -0.5413898 -0.4877949 0.5220342 -0.41614422 0.5154362 0.393375 -0.3796927
-0.39094535 -0.4156767 0.45496297 0.6600645 -0.4112022 -0.5435688 -0.3764997 -0.5339495
0.30592212 0.3209878 0.47369108 -0.5480822 0.49252972 0.4374551 0.34707567 -0.531969
0.24960558 0.69092494 0.37889695 0.46285704 -0.4996054 0.3684852 0.37110183 0.43218008
-0.32155338 -0.51906335 -0.28929687 0.67365104 -0.4717769 0.52913624 0.56968915 -0.24111359
-0.36852583 -0.48328742 0.5398599 0.5138603 -0.6569182 -0.21725143 -0.59130436 -0.35294178
0.51443505 0.5085526 0.6295806 -0.41509584 0.51019484 0.35230464 0.42243284 -0.457636
0.45328513 0.44924688 0.33207086 0.42527795 -0.45149982 0.64130723 0.56534624 0.4921166
-0.09766049 -0.5233984 -0.610481 0.45125663 -0.27500764 0.6676883 0.579309 -0.56400007
-0.52102715 -0.5406998 0.41680682 0.5271787 -0.67629695 -0.4212475 -0.6425828 -0.42483535
0.46542192 0.42933768 0.40181765 -0.45308134 0.40870064 0.50554484 0.50799865 -0.44741562
0.33509573 0.50342596 0.4759395 0.56153375 -0.5124846 0.45039552 0.5270843 0.4140648
-0.31713322 -0.351831 -0.46769765 0.3564533 -0.5959814 0.34326434 0.43465817 -0.49146783
-0.33187014 -0.49228588 0.43062136 0.3644861 -0.48140258 -0.40026292 -0.56939644 -0.45701763
0.55887854 0.6642486 0.67090905 -0.35058442 0.5129326 0.41509226 0.39782158 -0.47634506
0.36846113 0.58773285 0.43158454 0.49891463 -0.44641587 0.34487987 0.45199102 0.49583888
-0.3921651 -0.48553997 -0.5339797 0.5154983 -0.5324731 0.46551934 0.33563226 -0.3365436
-0.50227684 -0.40538812 0.5399518 0.46057805 -0.5831988 -0.4766177 -0.6847501 -0.42641586

l1.rho_weight f4 [16, 32]
00000000: 7dbb 3bc0 71b0 34c0 7e33 4dc0 be14 3ac0
00000010: 10e6 40c0 eac5 38c0 84f1 40c0 0902 34c0
00000020: 06b4 3dc0 c233 3bc0 ee02 3ec0 dd3a 45c0
00000030: f763 3cc0 95c5 3ac0 8eeb 42c0 7b2c 48c0
00000040: b323 3fc0 8c7e 45c0 fe71 4bc0 b4a2 38c0
00000050: 3b6f 3ac0 8025 45c0 4429 3dc0 2f46 3ac0
00000060: e879 3bc0 990d 3fc0 64fd 3ac0 bf98 3ec0
00000070: 7db9 3cc0 331c 42c0 a46c 45c0 8804 46c0
00000080: 1f82 37c0 4184 3ac0 e9ed 37c0 a054 3fc0
00000090: ec48 3fc0 9f25 3bc0 fb3f 39c0 aacf 37c0
000000a0: 8c4b 3dc0 f68c 3ec0 653e 3cc0 180d 3cc0
000000b0: 1676 42c0 1764 3ec0 6aae 41c0 0f19 2ec0
000000c0: dd0a 42c0 1d97 38c0 925b 3dc0 a123 43c0
000000d0: e2ee 40c0 487f 3bc0 ce0c 3bc0 95f2 47c0
000000e0: 5188 45c0 acf1 31c0 33f9 3ac0 15d4 32c0
000000f0: a67e 4bc0 a4a2 3dc0 ccb6 43c0 02e4 42c0
00000100: fabb 42c0 1640 37c0 ad64 47c0 b39a 40c0
00000110: bac3 3fc0 526f 3cc0 0a9d 4cc0 64e1 3ac0
00000120: 9de7 3dc0 dd05 43c0 caec 34c0 dd12 3dc0
00000130: 5c0b 3ac0 dc6b 40c0 502c 3ec0 e776 36c0
00000140: 07fc 45c0 fe75 3cc0 cb65 3cc0 93a3 3ac0
00000150: d26b 3ac0 c77f 44c0 f7af 38c0 b696 47c0
00000160: ebef 35c0 8781 45c0 2969 3ec0 db40 46c0
00000170: b6cb 3fc0 39c2 3cc0 9a17 3fc0 3007 36c0
00000180: 56c8 3cc0 6d8d 4ac0 020b 3cc0 a21b 3ec0
00000190: 2b4f 39c0 cee1 3cc0 4470 39c0 8b5d 3dc0
000001a0: 6dbe 38c0 09e3 38c0 6be9 3ac0 cbd2 49c0
000001b0: 79d7 35c0 a263 4bc0 09ff 44c0 914d 3fc0
000001c0: 4d87 37c0 d548 34c0 3ad1 4bc0 9874 30c0
000001d0: 7cbc 3cc0 93d6 3dc0 0255 4ec0 d0a5 41c0
000001e0: 5380 41c0 d3a5 40c0 caf6 47c0 e836 31c0
000001f0: d063 44c0 74db 46c0 d978 49c0 20eb 45c0
00000200: 2c52 34c0 387d 47c0 3c28 3ec0 2055 3cc0
00000210: 38b4 4dc0 eb66 3ec0 9e34 40c0 1fb8 30c0
00000220: 5179 38c0 170f 39c0 f7a6 3ac0 7271 41c0
00000230: 61f7 34c0 5d72 38c0 6e2b 40c0 9a53 48c0
00000240: c0dc 48c0 2803 3cc0 5c13 44c0 6333 3dc0
00000250: e190 3ec0 560d 3bc0 96c3 48c0 0c4b 41c0
00000260: 4b94 3bc0 1d7f 30c0 be3c 3ec0 37dc 3fc0
00000270: e202 36c0 45dc 41c0 3511 3fc0 7ccd 30c0
00000280: ac89 3bc0 5a9e 39c0 5710 3dc0 da28 3ec0
00000290: 2a0e 41c0 d58a 30c0 ecb3 40c0 719f 3fc0
000002a0: db02 46c0 587e 47c0 3f72 44c0 cb3b 46c0
000002b0: 20f1 36c0 31c6 35c0 5620 34c0 8099 3dc0
000002c0: c38a 3fc0 360b 3ac0 3c03 43c0 500e 50c0
000002d0: e72e 3ec0 e673 48c0 4305 47c0 c8b0 3ac0
000002e0: 7f29 33c0 9793 45c0 a3d6 49c0 511b 41c0
000002f0: 9308 3ac0 dedf 43c0 df61 41c0 2d6f 34c0
00000300: 841e 43c0 af6b 42c0 3645 46c0 a8d3 3dc0
00000310: 160b 4ac0 5aa2 40c0 5cb0 4cc0 46cc 36c0
00000320: 9700 44c0 5cae 43c0 f760 3ec0 df4f 40c0
00000330: cf1d 3ec0 8739 3dc0 70d3 3fc0 bc97 35c0
00000340: af9e 40c0 3f66 41c0 4f6c 3bc0 1695 44c0
00000350: 21f6 43c0 bb30 3ac0 7023 47c0 9972 3bc0
00000360: 99ac 47c0 a9e1 34c0 6c8e 46c0 2f6d 32c0
00000370: d27a 3ac0 4d81 42c0 8ae7 3dc0 9212 46c0
00000380: 6784 48c0 d761 42c0 d247 3ac0 1964 41c0
00000390: aafc 37c0 1a56 4cc0 d177 36c0 653e 40c0
000003a0: 6e76 40c0 d5c6 33c0 66dd 39c0 d044 44c0
000003b0: df19 3cc0 7c37 3fc0 9bc7 45c0 39b6 46c0
000003c0: 9f66 35c0 b460 42c0 172e 45c0 fb53 3dc0
000003d0: 8b33 4bc0 f033 45c0 7a5e 3cc0 95df 45c0
000003e0: eae3 3cc0 96be 3dc0 ae73 41c0 e3f2 4dc0
000003f0: 464d 30c0 7076 37c0 aa5c 47c0 b300 3cc0
-2.9333184 -2.8232691 -3.2062678 -2.907516 -3.014042 -2.8870797 -3.014741 -2.8126242
-2.9641128 -2.925034 -2.9689288 -3.0817177 -2.9436014 -2.9183095 -3.045627 -3.1277149
-2.986554 -3.0858488 -3.1788325 -2.8849306 -2.913039 -3.0804138 -2.9556437 -2.9105337
-2.9293156 -2.985205 -2.9217157 -2.978073 -2.9488213 -3.0329711 -3.084756 -3.0940266
-2.867317 -2.9143221 -2.873896 -2.98954 -2.9888258 -2.9241712 -2.89453 -2.8720498
-2.957736 -2.9773536 -2.9413083 -2.9382992 -3.0384574 -2.974859 -3.0262704 -2.7202795
-3.031913 -2.8842232 -2.958714 -3.0490496 -3.0145802 -2.9296436 -2.9226565 -3.124181
-3.086445 -2.7803755 -2.92146 -2.7941945 -3.179605 -2.9630518 -3.058032 -3.0451665
-3.0427232 -2.8632865 -3.1155198 -3.009442 -2.9963212 -2.9442945 -3.197085 -2.9200068
-2.9672616 -3.0472329 -2.8269525 -2.9542763 -2.9069433 -3.0065832 -2.9714546 -2.8510072
-3.0935075 -2.9447017 -2.943713 -2.9162338 -2.9128308 -3.070299 -2.88574 -3.1185737
-2.8427684 -3.0860307 -2.9751685 -3.0977085 -2.9968085 -2.9493544 -2.9858155 -2.8441887
-2.9497275 -3.164882 -2.9381719 -2.9704366 -2.895457 -2.951282 -2.8974771 -2.9588344
-2.8866227 -2.8888571 -2.9204967 -3.1534908 -2.8412764 -3.177956 -3.078066 -2.9891093
-2.867633 -2.8169453 -3.1846452 -2.7571163 -2.9490042 -2.9662216 -3.2239385 -3.0257454
-3.0234573 -3.010121 -3.1244378 -2.7689762 -3.068592 -3.1071444 -3.148001 -3.092476
-2.8175154 -3.1170177 -2.9712057 -2.9426956 -3.2141247 -2.9750316 -3.0032115 -2.7612379
-2.8824046 -2.891546 -2.9164407 -3.0225492 -2.8275988 -2.8819802 -3.0026507 -3.1301026
-3.1384735 -2.9376926 -3.0636816 -2.9562614 -2.9775927 -2.922689 -3.1369376 -3.0202055
-2.930926 -2.7577584 -2.9724574 -2.9978158 -2.843926 -3.0290692 -2.9854252 -2.7625418
-2.9302778 -2.90029 -2.9541223 -2.9712434 -3.0164895 -2.7584736 -3.0109816 -2.9941065
-3.0939243 -3.1170864 -3.069473 -3.0973995 -2.858467 -2.8402216 -2.8144736 -2.962494
-2.9928443 -2.9069343 -3.0470724 -3.2508736 -2.9716127 -3.1320739 -3.1096961 -2.9170399
-2.7994077 -3.0871332 -3.1537254 -3.0172923 -2.9067733 -3.0605388 -3.0215986 -2.8192856
-3.0487375 -3.0378225 -3.0979743 -2.9660435 -3.1569266 -3.0099092 -3.1982641 -2.8562179
-3.062536 -3.057517 -2.9746683 -3.004875 -2.9705694 -2.9566362 -2.9972801 -2.8373861
-3.0096853 -3.0218656 -2.9284856 -3.0715995 -3.0618975 -2.9092243 -3.111538 -2.9288695
-3.1199095 -2.8262732 -3.1024427 -2.787914 -2.9137464 -3.039142 -2.967257 -3.0948834
-3.1330812 -3.0372217 -2.9106336 -3.0217345 -2.8747964 -3.1927552 -2.851063 -3.0038083
-3.0072284 -2.8090107 -2.904138 -3.0667 -2.939079 -2.9877615 -3.090308 -3.104872
-2.8343885 -3.0371523 -3.080938 -2.9582508 -3.175021 -3.081295 -2.9432664 -3.0917714
-2.9514108 -2.9647574 -3.0226855 -3.2179496 -2.7547164 -2.8666039 -3.1150308 -2.9375427

l1.mu_bias f4 [16]
00000000: 4ed5 0dbf 5648 f83e 5806 f73e f9d1 163f
00000010: dc0d e03e 8c9a b73e b0ac 0c3f 5be8 e83e
00000020: 6321 ea3e 4834 f9be 8b60 d2be 20b3 f6be
00000030: 1aa5 963e 2ee2 123f 8bd3 0b3f 2ef4 ffbe
-0.554036 0.48492688 0.48247027 0.5891414 0.43760574 0.35860097 0.54951 0.45489773
0.45728597 -0.486727 -0.4108928 -0.48183537 0.29422837 0.5737637 0.54619664 -0.49990982

l1.rho_bias f4 [16]
00000000: 23db 28c0 dbd1 32c0 5f08 39c0 c04b 3fc0
00000010: ea38 44c0 4ef4 3cc0 57b0 35c0 7920 37c0
00000020: 349c 38c0 660f 35c0 8ffd 2cc0 29f7 37c0
00000030: 6a7a 35c0 54b5 32c0 3709 3cc0 5a6f 37c0
-2.638375 -2.7940586 -2.891136 -2.9889984 -3.0659738 -2.9524112 -2.838888 -2.861357
-2.884534 -2.8290648 -2.702976 -2.8744605 -2.8355966 -2.7923174 -2.9380624 -2.8661714

l2.mu_weight f4 [1, 16]
00000000: ef27 05bf 500e 233f fddc 043f c076 1e3f
00000010: 0238 183f 4ea0 0a3f 1062 293f de21 0c3f
00000020: 4ec3 0a3f 5cf2 0dbf cdb9 0bbf 1587 19bf
00000030: 0b3c 143f 2613 093f e00d 103f 45e1 1abf
-0.5201406 0.63693714 0.518997 0.6189995 0.5946046 0.54150856 0.66165257 0.5473918
0.5420426 -0.55447936 -0.54580384 -0.59971744 0.5790412 0.53544843 0.5627117 -0.60499984

l2.rho_weight f4 [1, 16]
00000000: c98f 44c0 f281 46c0 ea1e 3ac0 7a95 42c0
00000010: 38fe 44c0 4c12 3cc0 a93b 39c0 445d 43c0
00000020: 3024 48c0 9993 42c0 181d 3bc0 15d7 46c0
00000030: 225d 40c0 5437 3ac0 0f37 42c0 aa38 42c0
-3.071276 -3.1016812 -2.9081368 -3.0403733 -3.0780163 -2.9386168 -2.8942664 -3.0525675
-3.1272087 -3.0402586 -2.9236507 -3.1068776 -3.0056844 -2.909627 -3.0346105 -3.0347085
