BNN/model_states/BNN_model_state_FD001_noisy_NOCF.pt (torch, 57845 bytes, 14 tensors)

lstm.ih.mu_weight f4 [128, 14]
000000 0d 8c 93 3e e4 2f ae 3d 3e 9a c6 3d c2 38 6a be
       0.28817788 0.08505228 0.09697388 -0.22873214
000010 1f a9 21 3c 5a 11 b1 bd 90 98 18 3d 16 6a 89 bd
       0.009866982 -0.08645888 0.03725487 -0.067096874
000020 ba 14 54 be 81 7d e5 3d 6f 81 09 3e 26 8c 9d bd
       -0.20711032 0.112055786 0.13428281 -0.07692747
000030 8b c8 ea 3d 15 17 89 bd 7c d3 13 3e a2 0d 87 3e
       0.11464032 -0.06693856 0.14436144 0.2637759
000040 09 aa ae 3e 2a d2 48 be 5c 52 84 3d 88 bb 7b 3e
       0.34114102 -0.19611421 0.06461021 0.24583256
000050 01 81 f9 3d 01 93 2d bd c8 7b 38 3e b4 91 30 3e
       0.12182809 -0.042376522 0.18015969 0.17243081
000060 33 c3 e6 3e 27 b4 ce 3e 53 9c 83 bc 6a 3e 5b 3d
       0.450708 0.4037182 -0.016065752 0.05352632
000070 e8 c4 a7 bc e7 ed eb bb 3b c2 dc 3c 84 1b 74 3e
       -0.020479634 -0.007199991 0.026948085 0.23838621
000080 32 85 5f bd ee 23 fd 3c 0a 8b 2e 3d 57 66 70 3e
       -0.054570384 0.030900922 0.042613067 0.2347654
000090 3b 2e 31 3d 88 6e 54 3e c7 5a 12 bd 6a f9 88 bd
       0.04325698 0.2074529 -0.035731103 -0.06688197
0000a0 0b 06 58 be 84 de 2a bb cc 2a 8d be bc f8 44 be
       -0.21096055 -0.002607257 -0.27571714 -0.1923551
0000b0 04 ec b7 bd 5e 16 9c 3e d2 13 bb be 3e 3f d6 be
       -0.08980563 0.30485815 -0.3653856 -0.41845125
0000c0 e9 45 c7 be 3a 18 9e 3e 3c b1 b1 3c ae 72 b9 bd
       -0.38920525 0.30877858 0.021690957 -0.090550765
0000d0 23 5a 95 be f9 92 31 3d 14 fa f7 bd 07 7f 16 3e
       -0.2917033 0.043353055 -0.121082455 0.14696895
0000e0 16 43 34 be be 1d bd bc cc 6b 93 bd ef 66 9f 3e
       -0.17603716 -0.023085471 -0.07198295 0.3113322
0000f0 c8 35 4f bd 24 d1 36 3e fd 65 91 be bd eb d5 3e
       -0.0505884 0.17853218 -0.28398123 0.41781417
000100 07 84 28 3e 56 a4 64 3d 10 21 01 3e 22 89 9b 3e
       0.16456614 0.055820785 0.12610269 0.30378062
000110 74 74 19 bd 09 c0 c7 3d 8e d7 be be b1 cf d4 bd
       -0.037464574 0.09753425 -0.3727383 -0.103911765
000120 0a 29 cc bc 38 1e 92 bd 63 6d 8d be 92 ec 02 be
       -0.024921913 -0.0713467 -0.27622518 -0.12785557
000130 f1 e8 63 be 6e 45 d2 3d 4d 34 cb be 4c 60 34 be
       -0.22256829 0.10267149 -0.3968834 -0.1761486
000140 cf 4c ac bd 82 2c 9a bd f0 49 2e 3e 1e 81 e7 bd
       -0.084130876 -0.075280204 0.17020392 -0.11303924
000150 7a 85 92 3e 3d 4d fb 3d d1 74 84 bd 1f d2 95 3e
       0.2861746 0.122705914 -0.064675935 0.29261872
000160 e7 3d 22 3e 58 0f b0 3b 23 c2 7c bc bb b1 09 3e
       0.15843926 0.005372923 -0.015427145 0.13446705
000170 08 d3 31 be 7e 6d a8 bd 8f 4d a1 3d 8c c8 3a 3e
       -0.17365658 -0.08224009 0.07876121 0.18240565
000180 01 ba 9c be 13 0d 8f 3e c0 7e b4 bc 1c 35 29 bd
       -0.3061066 0.27939662 -0.022033095 -0.041310415
000190 95 82 c1 3d c1 b8 41 3c c7 44 8b 3e 51 d2 14 be
       0.09448735 0.011823834 0.2720091 -0.14533354
0001a0 3f a9 9d 3d c2 c2 98 3d ab e6 46 3e 29 ab 38 be
       0.07698297 0.07459022 0.1942393 -0.18034042
0001b0 82 fb 14 3e 40 c5 21 3e 13 ba 03 3e ad 90 c0 bd
       0.14549068 0.15797901 0.1286395 -0.09402595
0001c0 45 d3 a2 be 71 23 5f be 6e be cf be 49 57 c5 3e
       -0.3180181 -0.21790864 -0.40574974 0.38543156
0001d0 28 7d 5d be 07 fb 25 be 7c af 07 bf ee f4 2a 3f
       -0.21629775 -0.1620904 -0.5300214 0.66779983
0001e0 d2 af 85 bd b4 ea 4f 3e af 1a f8 bd 0e b7 66 3d
       -0.06527676 0.20304376 -0.121144645 0.05632692
0001f0 73 92 fe bc 19 c0 63 be 9e db 8a 3e cd a8 9a bd
       -0.031075692 -0.22241248 0.2712068 -0.075517274
000200 68 3d 85 bc af 56 34 3e e3 c7 38 be 8c a0 ec 3d
       -0.016264632 0.17611192 -0.18045 0.115540594
000210 d2 e4 34 be 0f ba da 3c 6b 46 f3 3d 9c 0a 41 3e
       -0.17665413 0.026700048 0.118786655 0.18851703
000220 74 f5 82 bc 5c d4 80 be 55 41 8a 3d 2c d0 a0 3e
       -0.015986182 -0.25162017 0.06750742 0.31408823
000230 6c a7 7b 3e 9f fe 76 3e 50 68 21 be 30 0f 54 3e
       0.24575585 0.24120568 -0.15762448 0.20708919
000240 5b ef 14 be 93 f6 35 3e c9 c6 a3 3e a6 9d 88 3e
       -0.14544432 0.17769842 0.319876 0.26682776
000250 fb 18 4a bd 9d 85 6b 3d 20 fd d6 bd bd 7e 14 3e
       -0.04934023 0.05750047 -0.104974985 0.14501472
000260 92 32 93 3d 08 10 d4 3e 88 86 ca be d5 4f 25 be
       0.0718738 0.4141848 -0.39555764 -0.16143735
000270 09 03 88 be 7b cc 95 bd 84 99 f1 be 12 fc 18 be
       -0.26564816 -0.07314392 -0.47187436 -0.14939907
000280 9a 70 19 bf 10 b3 b7 3e a4 ec 57 be 8e 45 ff bd
       -0.5993744 0.358788 -0.21086365 -0.124644384
000290 66 36 2d be 44 c5 e9 bd 34 87 60 3e de d8 22 bd
       -0.16915283 -0.114145786 0.21926576 -0.039757602
0002a0 5d 4e 8c be 94 ae 87 3e 23 bd 09 3e 8b c0 a1 3d
       -0.27403536 0.2650038 0.13451056 0.07898053
0002b0 9c 00 73 be a1 3d 9e 3c 89 41 67 be 3c 34 ab 3e
       -0.23730701 0.019316496 -0.22583593 0.3343829
0002c0 29 7b 8e be fb 2b e4 be c1 95 9e be d1 3d b0 3c
       -0.2782834 -0.44564804 -0.30973628 0.021513851
0002d0 a3 d5 b9 3d 67 6c 92 be 78 d5 34 be 52 e3 66 be
       0.09073951 -0.2859833 -0.17659557 -0.22547653
0002e0 e7 5a f1 bd e1 f8 4f be d1 91 a5 be 36 75 6c bd
       -0.11784916 -0.20309784 -0.32337812 -0.05772897
0002f0 47 b3 af bc 19 15 6b 3e 37 74 2f 3e c7 b5 9b bc
       -0.02144779 0.22957267 0.17134176 -0.019007577
000300 4b fe d2 bc 0a 29 91 3d 44 66 87 3c a5 e8 bf bb
       -0.025756022 0.07087906 0.016528256 -0.005856591
000310 a1 d5 80 be f7 b3 ff bb 74 00 af 3d 6a 38 b8 3e
       -0.25162986 -0.007803436 0.08545008 0.3598054
000320 74 71 d8 3d 53 95 89 3e f3 9c 3f be 3a 0f 18 3d
       0.105685145 0.26871738 -0.18712215 0.037123896
000330 bb c6 9b 3d 9a e1 4a 3e a5 8e fd bd 12 32 23 3e
       0.07606264 0.19812623 -0.12380723 0.15937069
000340 45 4b 87 be 0b b1 00 be 5e 31 b0 be b6 25 4c be
       -0.26424614 -0.12567537 -0.34412664 -0.1993626
000350 21 77 77 3c 25 dc 03 3e df f1 6f bd 40 bd 7f be
       0.015104086 0.12876947 -0.058580276 -0.24974537
000360 79 89 a7 be e6 0c cc 3e d8 a8 b4 be 8f da 18 3e
       -0.3272207 0.3985359 -0.35285068 0.14927123
000370 90 cf 33 be 99 55 2d 3d 8a 0d 96 3e 79 00 82 3e
       -0.17559648 0.04231796 0.29307204 0.25390986
000380 d9 26 46 be c8 9b f1 b9 7f 0a 2b be 58 b9 04 3e
       -0.19350757 -0.00046083168 -0.16703223 0.12961328
000390 fc 1e 11 bf f8 ee 24 3e 6e 0f cd bd f2 13 f7 3e
       -0.56687903 0.16106784 -0.100127086 0.48257405
0003a0 de 7f ed be 78 ea 3d bd 8c a3 be be db 58 bb bd
       -0.46386617 -0.046366185 -0.3723415 -0.09147807
0003b0 46 c1 21 3e 23 74 29 bd 9f 5d 3d 3e 54 00 02 3e
       0.15796384 -0.041370522 0.18492745 0.12695438
0003c0 0b d2 9a 3d 49 e0 5b be 42 0c ca 3c e0 d4 81 3e
       0.07559594 -0.21472277 0.024664048 0.25357723
0003d0 0a 61 ca 3d 0a aa 9c bd d3 98 1c 3c 2f 60 26 3e
       0.0988179 -0.0764962 0.0095579205 0.16247629
0003e0 fc cd 02 3f 11 a9 81 3e 14 48 50 3e 64 50 da bd
       0.5109556 0.253243 0.20339996 -0.106598645
0003f0 26 07 c8 3d 64 6c dd bd 96 7d cf bd 9b 92 13 3e
       0.097669885 -0.108116895 -0.101313755 0.14411394

lstm.ih.rho_weight f4 [128, 14]
000000 22 48 32 c0 32 fe 2a c0 a2 e8 30 c0 be 54 3a c0
       -2.7856526 -2.6717649 -2.7641988 -2.9114223
000010 94 b2 3e c0 43 d4 2f c0 0b 18 2f c0 52 e8 35 c0
       -2.9796495 -2.7473304 -2.7358425 -2.8423047
000020 58 4b 33 c0 76 55 2e c0 d9 e7 35 c0 07 46 38 c0
       -2.8014736 -2.7239661 -2.8422759 -2.8792741
000030 30 bf 31 c0 ce ac 36 c0 80 7e 1f c0 7c db 2b c0
       -2.7772942 -2.8542972 -2.492096 -2.6852713
000040 03 1d 38 c0 d3 92 28 c0 bf 86 27 c0 6d 5a 25 c0
       -2.8767707 -2.6339614 -2.6175992 -2.5836442
000050 30 c3 2b c0 1d 22 35 c0 6c ba 2b c0 41 e2 31 c0
       -2.6837883 -2.830207 -2.6832533 -2.7794344
000060 02 4b 1f c0 1a af 29 c0 62 5d 26 c0 93 5c 26 c0
       -2.488953 -2.6513124 -2.5994496 -2.5994003
000070 55 a5 37 c0 b4 eb 47 c0 44 84 3c c0 b1 60 40 c0
       -2.869466 -3.1237612 -2.9455729 -3.0059016
000080 02 c5 42 c0 d9 5b 3d c0 be 0a 3c c0 6e 01 3a c0
       -3.0432744 -2.958731 -2.9381557 -2.9063373
000090 b1 6f 3c c0 94 d8 42 c0 c2 b6 2c c0 1a 12 3f c0
       -2.944317 -3.0444689 -2.6986547 -2.9854798
0000a0 db 3f 30 c0 66 1d 33 c0 37 62 41 c0 7b 9a 3b c0
       -2.7538974 -2.7986693 -3.0216196 -2.9313037
0000b0 38 49 36 c0 91 bd 3e c0 91 0a 47 c0 e3 ac 35 c0
       -2.848219 -2.9803202 -3.11002 -2.8386772
0000c0 e1 e7 3d c0 fd 8a 2e c0 02 6b 3a c0 a6 65 30 c0
       -2.9672778 -2.7272332 -2.9127812 -2.7562041
0000d0 d4 25 30 c0 99 35 34 c0 d5 aa 3a c0 1a fa 30 c0
       -2.7523088 -2.8157713 -2.9166768 -2.765265
0000e0 45 68 3d c0 cd 12 30 c0 4e 95 46 c0 06 72 32 c0
       -2.959489 -2.7511475 -3.1028628 -2.7882094
0000f0 44 f8 3e c0 8f e6 3f c0 57 d1 47 c0 27 49 3b c0
       -2.983903 -2.9984472 -3.122152 -2.9263399
000100 98 d4 32 c0 48 5f 3e c0 6a 22 38 c0 c6 77 42 c0
       -2.7942257 -2.9745655 -2.8771005 -3.0385604
000110 85 79 2f c0 f7 e0 40 c0 3b b0 38 c0 4a 8e 2d c0
       -2.741792 -3.0137308 -2.8857563 -2.7118096
000120 f8 5e 34 c0 dd 63 3b c0 26 cd 3a c0 7d ac 37 c0
       -2.8182964 -2.9279702 -2.9187713 -2.8699028
000130 c6 e1 40 c0 b5 6b 3c c0 92 91 48 c0 24 15 43 c0
       -3.01378 -2.944074 -3.133885 -3.0481653
000140 b3 90 36 c0 76 fa 3b c0 71 86 33 c0 d5 c0 3f c0
       -2.8525817 -2.937162 -2.8050807 -2.9961445
000150 d8 ed 2e c0 7f 72 3a c0 25 91 3d c0 b5 fb 3f c0
       -2.7332668 -2.9132383 -2.961984 -2.999738
000160 39 6d 31 c0 7d 50 31 c0 d8 63 3e c0 90 23 43 c0
       -2.7722914 -2.7705376 -2.974844 -3.0490456
000170 ff 08 36 c0 bb 77 2c c0 b8 40 35 c0 ae 00 33 c0
       -2.844299 -2.6948078 -2.832075 -2.7969165
000180 40 52 3b c0 7d 17 3d c0 80 1d 29 c0 39 26 39 c0
       -2.9268951 -2.9545586 -2.6424255 -2.892958
000190 f7 8f 33 c0 e9 5e 2c c0 13 9e 35 c0 4d 98 3a c0
       -2.805662 -2.6932929 -2.837773 -2.9155457
0001a0 1f c2 3e c0 04 f8 3b c0 87 85 42 c0 c2 2d 33 c0
       -2.9805982 -2.9370127 -3.0393999 -2.7996678
0001b0 d2 e1 2d c0 a2 5b 32 c0 62 ee 31 c0 b2 a9 35 c0
       -2.716908 -2.7868428 -2.7801747 -2.8384824
0001c0 d8 d0 2d c0 f2 eb 27 c0 eb 8f 35 c0 21 1d 3d c0
       -2.7158718 -2.623776 -2.836909 -2.954903
0001d0 00 ea 38 c0 a3 47 39 c0 2d ba 2e c0 59 e0 2a c0
       -2.8892822 -2.8949974 -2.7301133 -2.669943
0001e0 12 2c 38 c0 a6 ae 3a c0 8f 8f 3b c0 5e 55 3a c0
       -2.8776898 -2.9169097 -2.9306371 -2.9114604
0001f0 d4 e0 3b c0 cd 5e 37 c0 be 9f 31 c0 12 54 2b c0
       -2.9355974 -2.8651612 -2.775375 -2.6770062
000200 93 aa 35 c0 4b 68 36 c0 b8 c4 34 c0 d9 3f 3f c0
       -2.838536 -2.8501155 -2.8245068 -2.988272
000210 be 58 2f c0 f1 24 33 c0 c6 62 2b c0 34 5a 2b c0
       -2.7397914 -2.7991297 -2.6779037 -2.6773806
000220 78 b4 3a c0 57 a3 3b c0 3c a3 37 c0 c3 14 32 c0
       -2.917265 -2.9318445 -2.869338 -2.7825172
000230 30 4c 31 c0 97 17 35 c0 db 8f 38 c0 e7 18 31 c0
       -2.770275 -2.8295648 -2.8837802 -2.767145
000240 59 e4 4d c0 0c 5b 3a c0 9a ff 2b c0 b5 a9 2c c0
       -3.2170622 -2.911807 -2.6874757 -2.697858
000250 4c 89 2d c0 32 09 34 c0 8f 0e 2e c0 6f 7f 41 c0
       -2.711505 -2.8130612 -2.7196386 -3.023403
000260 ce 52 41 c0 ba 25 37 c0 3b dd 41 c0 2c 65 32 c0
       -3.020679 -2.8616776 -3.0291278 -2.787425
000270 b8 fc 3d c0 d1 f9 2e c0 41 aa 29 c0 8e 25 3e c0
       -2.9685497 -2.7339976 -2.6510165 -2.9710422
000280 b2 b1 3f c0 8e 40 41 c0 66 37 3b c0 06 61 3e c0
       -2.9952207 -3.019565 -2.9252563 -2.9746718
000290 b8 ca 3a c0 30 ad 36 c0 88 36 35 c0 55 97 3a c0
       -2.918623 -2.8543205 -2.8314533 -2.9154866
0002a0 74 6a 38 c0 c0 af 3a c0 9b 8a 36 c0 b4 3e 34 c0
       -2.8814974 -2.916977 -2.8522098 -2.816327
0002b0 9e b2 30 c0 92 dc 29 c0 2e b5 2a c0 f6 24 38 c0
       -2.760902 -2.6540875 -2.6673083 -2.877256
0002c0 c5 3b 35 c0 d3 bf 3e c0 65 04 3b c0 ad 54 34 c0
       -2.831773 -2.980458 -2.9221432 -2.8176682
0002d0 12 a6 35 c0 73 81 36 c0 c6 fb 31 c0 5d cf 37 c0
       -2.8382611 -2.851651 -2.780992 -2.8720315
0002e0 07 ee 2c c0 8e bc 35 c0 08 be 3e c0 ae 17 39 c0
       -2.702028 -2.8396335 -2.9803486 -2.8920703
0002f0 ea c1 45 c0 a0 3a 38 c0 04 eb 40 c0 f5 3b 43 c0
       -3.0899606 -2.8785782 -3.0143442 -3.0505345
000300 21 33 2c c0 fb 46 36 c0 f9 aa 33 c0 69 fe 3d c0
       -2.6906207 -2.8480823 -2.8073103 -2.968653
000310 12 81 3d c0 2e 31 3c c0 49 24 2d c0 21 1a 3e c0
       -2.9610028 -2.9405017 -2.7053397 -2.9703448
000320 d2 30 43 c0 f1 8a 30 c0 43 93 38 c0 4d f7 31 c0
       -3.0498548 -2.7584803 -2.8839881 -2.780719
000330 18 89 30 c0 5a 8e 3c c0 24 66 2e c0 08 ae 39 c0
       -2.7583675 -2.9461884 -2.7249842 -2.901247
000340 b6 22 42 c0 33 d8 3a c0 97 50 3b c0 a5 02 3d c0
       -3.0333686 -2.9194458 -2.9267938 -2.9532864
000350 87 f2 33 c0 ee 93 36 c0 ac a2 3b c0 aa af 2d c0
       -2.8116777 -2.852779 -2.9318037 -2.7138467
000360 c4 2f 3c c0 60 91 31 c0 61 95 40 c0 9c 3a 36 c0
       -2.9404154 -2.774498 -3.0091174 -2.8473272
000370 9f 36 2c c0 52 82 2d c0 09 60 2d c0 87 76 31 c0
       -2.6908338 -2.7110791 -2.7089865 -2.7728593
000380 0b 1e 44 c0 db b6 3d c0 e2 09 37 c0 78 54 43 c0
       -3.0643337 -2.9642856 -2.8599782 -3.0520306
000390 39 28 3d c0 12 3c 47 c0 e6 5f 35 c0 c3 f1 37 c0
       -2.95558 -3.1130414 -2.8339782 -2.874131
0003a0 34 49 47 c0 f6 34 3a c0 bf 49 3e c0 e7 73 33 c0
       -3.113843 -2.9094825 -2.973251 -2.803949
0003b0 0e f7 40 c0 54 76 3d c0 2d e1 40 c0 20 73 37 c0
       -3.015079 -2.9603472 -3.0137436 -2.8664017
0003c0 16 e6 39 c0 5e a1 32 c0 b4 28 2a c0 e9 e4 2e c0
       -2.9046683 -2.791099 -2.6587343 -2.7327216
0003d0 9d 00 38 c0 42 6c 37 c0 29 9b 32 c0 ad 02 2c c0
       -2.8750374 -2.8659825 -2.7907202 -2.6876633
0003e0 47 f0 2b c0 7f 9a 34 c0 af b9 33 c0 14 74 25 c0
       -2.6865404 -2.8219297 -2.8082082 -2.5852098
0003f0 7c 9c 33 c0 b8 77 36 c0 c2 7f 34 c0 37 07 34 c0
       -2.806426 -2.851057 -2.8202977 -2.8129404

lstm.ih.mu_bias f4 [128]
000000 72 d5 32 3e 59 aa c4 3d 25 80 37 3d fc df e4 3c
       0.17464235 0.09602804 0.044799943 0.027938835
000010 5d 60 ae 3c ae 6d 48 3e c5 c9 0c 3e f7 2c bf 3d
       0.021286184 0.1957309 0.13748844 0.09334748
000020 d8 6b 53 3a 7c ac 23 be e4 02 90 ba 43 8a 6e 3d
       0.0008065081 -0.15983766 -0.001098719 0.058237325
000030 c4 5c c4 3e 2e 6c dd bc e6 31 29 3e 4b 59 e5 3c
       0.38352025 -0.027029123 0.16522941 0.02799668
000040 8c 22 25 be bd 8d bc 3d 9f 36 f8 3c a9 2c fe 3d
       -0.1612646 0.09206722 0.030299483 0.12410862
000050 62 fc c8 bc c5 52 ee 3d 96 a8 8e be 5b 8d 28 3e
       -0.024534408 0.11636881 -0.27862996 0.16460173
000060 ec c0 3d bc af 70 78 3c b4 d8 47 3e db ee d8 3d
       -0.011581641 0.015163585 0.1951626 0.10592433
000070 d2 cc 07 3e 87 3d 21 be 9e 4e a2 3e 65 fd a9 bd
       0.13261726 -0.15746127 0.31700605 -0.08300284
000080 f2 6e 96 3e b6 d6 cb 3d e7 f2 16 3d 5e 8b 36 3e
       0.2938152 0.09953062 0.036852743 0.17826602
000090 24 c0 76 3d 61 a9 79 3d dc c7 00 3d ae 77 47 3e
       0.060241833 0.060952548 0.0314406 0.19479248
0000a0 dc a7 06 3e 60 d2 95 bd 34 7d 75 3d 5a 0f 29 3e
       0.13149971 -0.073155165 0.059933856 0.16509762
0000b0 36 49 b9 3d 5d 9b c8 bd cd 2a 36 bd 56 38 b6 3d
       0.09047167 -0.09795258 -0.04447441 0.08897464
0000c0 9e 42 14 bd 6d b5 a7 3d 92 72 6f 3e ed a7 80 3c
       -0.036196344 0.08188901 0.23383549 0.015705073
0000d0 c6 68 31 be e2 c1 7f 3d 57 c5 dc bc 5b 60 bf 3d
       -0.17325124 0.06244076 -0.026949568 0.0934455
0000e0 ed 82 a3 bd 3b dd d9 bc 0b a3 4b 3e d9 4e 30 3e
       -0.079839565 -0.026594749 0.19886415 0.17217578
0000f0 73 cd d0 3d 31 5e 06 bd fd 1a 76 3e 84 cf 44 bd
       0.10195436 -0.03280467 0.24033733 -0.048049465
000100 8c 14 b3 be 2c 42 0a bd 47 2e 48 3e 1c 7e 18 be
       -0.34976614 -0.033754513 0.19548903 -0.14891857
000110 0b 48 f9 3d b3 bf ba 3d f7 03 dd 3d 43 95 40 be
       0.12171944 0.09118595 0.10791772 -0.18806939
000120 7a 44 74 bd 13 18 8f 3d 20 06 23 be 1a 5b 8f 3d
       -0.059635617 0.06987014 -0.15920305 0.06999798
000130 d3 59 25 be 2d 58 c2 3d a7 80 4c 3d 5c cb 2a 3d
       -0.16147546 0.094894744 0.04992738 0.041697845
000140 c8 fc b1 b9 fc 97 d7 bd 25 62 16 be 97 c2 fa bc
       -0.00033948408 -0.105270356 -0.14685877 -0.030610366
000150 ed de 53 be ee 1e 6e 3d 95 9e 3f bc 3c 98 04 3d
       -0.20690508 0.058134966 -0.011695524 0.032371745
000160 ae fd 54 3d b6 4b 1c 3e 84 3c 90 bc 56 44 2c 3d
       0.05199974 0.15263256 -0.017606981 0.042057358
000170 74 a2 00 be 6e 35 2b 3e f3 72 be bd b9 18 5b 3d
       -0.12561971 0.167196 -0.092992686 0.053490374
000180 22 52 37 3e bb 73 85 3e dc 8c 08 3d 0e cb 0d 3e
       0.17902425 0.26064858 0.03333746 0.1384699
000190 1d fe 0a 3e dd b8 89 3e 65 03 c1 bd d0 80 e7 3e
       0.13573499 0.26898852 -0.094244756 0.45215464
0001a0 95 ca d9 3e ad 5f 1e 3e 83 0b 16 3e 47 91 53 3d
       0.4253737 0.15466185 0.14652829 0.05165222
0001b0 16 dc 75 3e 7d 2c 03 3e 79 c9 a5 3d 14 ff cf 3d
       0.24009737 0.1280994 0.080950685 0.10156074
0001c0 b2 51 06 3e 7a f6 95 3e ce 05 15 3e 8e c6 47 3e
       0.13117102 0.2928961 0.14552996 0.19509336
0001d0 aa 31 eb 3d f9 bd 73 3e 7e 52 6b bd e6 1a b9 3e
       0.11484082 0.23802938 -0.057451718 0.36153334
0001e0 12 75 35 3e 37 6a 66 3e 1c 1d 9d 3d 8f 56 1c 3e
       0.1772044 0.22501455 0.07671568 0.15267394
0001f0 45 0b 81 3e 4d be b8 3e 22 61 44 3e 26 be d3 3d
       0.2520391 0.36082688 0.19177678 0.10339002

lstm.ih.rho_bias f4 [128]
000000 0a a5 14 c0 c4 85 0c c0 2b 2c 1b c0 35 1f 27 c0
       -2.3225732 -2.1956644 -2.4245708 -2.6112797
000010 64 49 3a c0 94 5b 29 c0 76 fe 28 c0 29 e6 21 c0
       -2.9107294 -2.6462145 -2.640531 -2.5296729
000020 04 15 25 c0 d2 eb 15 c0 2b ae 34 c0 64 36 3a c0
       -2.5794077 -2.3425183 -2.8231304 -2.9095697
000030 c1 a2 18 c0 2c bb 2c c0 d6 71 27 c0 a5 69 3a c0
       -2.3849337 -2.698924 -2.616323 -2.912698
000040 85 35 31 c0 1a 68 1e c0 7f e3 1d c0 aa 41 23 c0
       -2.7688916 -2.4751039 -2.4670103 -2.5508828
000050 0b 59 30 c0 a0 43 23 c0 10 3b 2a c0 f1 4e 2b c0
       -2.7554348 -2.5510025 -2.659855 -2.6766932
000060 8d 6d 37 c0 b1 eb 2e c0 8c 3a 28 c0 7d 91 2a c0
       -2.8660614 -2.7331355 -2.6285734 -2.66513
000070 b9 42 2a c0 65 17 26 c0 75 bc 17 c0 46 a9 23 c0
       -2.6603224 -2.595178 -2.3708775 -2.5572066
000080 6b 04 0c c0 b9 03 12 c0 a6 ce 2e c0 38 f8 34 c0
       -2.1877697 -2.2814772 -2.7313628 -2.82765
000090 9c 06 2c c0 82 43 2d c0 f1 43 33 c0 bd c9 22 c0
       -2.6879034 -2.7072453 -2.8010218 -2.5435631
0000a0 ec 3c 2d c0 19 f8 2a c0 db ae 27 c0 cf d2 35 c0
       -2.7068434 -2.6713927 -2.6200473 -2.8409917
0000b0 e7 36 26 c0 5b a5 2c c0 2c 95 3c c0 3c 81 36 c0
       -2.597101 -2.6975925 -2.9466047 -2.8516378
0000c0 3e ce 32 c0 43 6b 1d c0 ee 90 22 c0 05 a1 33 c0
       -2.793838 -2.4596717 -2.5400958 -2.8067029
0000d0 72 7d 41 c0 c4 90 2d c0 e7 bc 2d c0 c9 0b 26 c0
       -3.0232816 -2.7119608 -2.7146547 -2.5944693
0000e0 56 4a 32 c0 85 5b 2f c0 2f 08 0b c0 5a 0a 32 c0
       -2.785787 -2.739961 -2.1723745 -2.7818818
0000f0 ae 6f 2c c0 b9 fb 3e c0 5f 6e 1b c0 61 aa 25 c0
       -2.6943164 -2.984114 -2.4286115 -2.588524
000100 19 d8 33 c0 7a 8b 3f c0 77 7e 37 c0 f7 67 3d c0
       -2.8100646 -2.992888 -2.8670938 -2.9594705
000110 8d b7 38 c0 67 06 2e c0 05 06 36 c0 a5 4d 35 c0
       -2.886203 -2.7191408 -2.8441174 -2.832864
000120 55 47 3e c0 12 24 32 c0 93 64 2c c0 08 e3 49 c0
       -2.9731038 -2.7834516 -2.6936386 -3.154482
000130 7b 0a 40 c0 eb e7 37 c0 e7 14 3c c0 25 32 42 c0
       -3.0006397 -2.8735301 -2.9387758 -3.0343106
000140 83 fd 34 c0 67 5a 3a c0 55 04 40 c0 d8 e2 3d c0
       -2.8279731 -2.9117677 -3.0002644 -2.9669704
000150 fe fc 36 c0 e9 93 42 c0 f7 3e 3a c0 1b 5a 37 c0
       -2.8591914 -3.0402777 -2.910093 -2.8648746
000160 ce 03 3b c0 b8 39 33 c0 79 78 35 c0 60 d0 3b c0
       -2.9221072 -2.8003979 -2.835478 -2.9345932
000170 34 75 48 c0 7c 0a 3a c0 d6 8c 35 c0 6d 71 2d c0
       -3.1321535 -2.90689 -2.836721 -2.710048
000180 aa 7f 29 c0 1c 11 2c c0 5a 25 22 c0 7b 2a 1e c0
       -2.648417 -2.6885443 -2.5335298 -2.4713428
000190 6b 50 1e c0 eb 5f 15 c0 0c d3 20 c0 09 48 2e c0
       -2.4736583 -2.3339794 -2.5128813 -2.7231467
0001a0 77 57 1c c0 e0 f7 1e c0 f6 b0 13 c0 43 cb 23 c0
       -2.4428384 -2.483879 -2.3076758 -2.559281
0001b0 cc 35 23 c0 35 e0 27 c0 9a 44 25 c0 15 b8 0f c0
       -2.5501585 -2.6230595 -2.582312 -2.2456105
0001c0 44 e2 1a c0 48 39 3d c0 71 6b 28 c0 ed e2 2d c0
       -2.4200602 -2.9566212 -2.6315577 -2.7169755
0001d0 b8 cf 19 c0 15 5c 21 c0 9c 3c 32 c0 28 58 1e c0
       -2.4033031 -2.5212452 -2.7849493 -2.4741306
0001e0 92 23 19 c0 3d 97 12 c0 1d 00 2e c0 62 bf 32 c0
       -2.392796 -2.2904809 -2.718757 -2.792931
0001f0 49 a4 1e c0 5f 95 2a c0 60 87 2f c0 ca 66 1f c0
       -2.4787772 -2.665367 -2.7426376 -2.4906487

lstm.hh.mu_weight f4 [128, 32]
000000 bc bc b1 be 08 33 55 be 18 a6 a7 3e 82 8f 29 bd
       -0.34714305 -0.20820248 0.32743907 -0.041396625
000010 b0 f5 44 3d 6e 9b 54 3e 8c 32 61 be f5 71 97 be
       0.04808587 0.20762417 -0.21991938 -0.2957913
000020 d6 3b a2 bd 46 f1 5f 3e d8 db ae be 91 d9 fe 3d
       -0.07921569 0.21869382 -0.34152102 0.12443841
000030 26 c9 08 be 63 35 2d 3d 77 bf 1f 3e 6d 9b b7 3d
       -0.13357982 0.04228724 0.15600382 0.08965192
000040 5e b8 41 be e9 48 93 be d2 6c 01 bf d3 84 0b be
       -0.18917987 -0.28766564 -0.5055667 -0.13624887
000050 c4 df 45 be 2e ef 65 bd 39 fa cc 3d 55 7f ba 3e
       -0.19323641 -0.056136303 0.10008664 0.36425272
000060 d9 5e 20 3e dd 1a 02 be 75 e8 8e 3e 53 1a fe 3d
       0.15661182 -0.1270556 0.27911726 0.12407365
000070 b0 08 f3 bd 99 e0 2a 3d 84 f6 17 be a3 47 b0 3e
       -0.118668914 0.0417181 -0.14840132 0.34429654
000080 9c d8 27 be 26 3b c9 3c de b5 70 3d 2e 60 76 3d
       -0.16391224 0.024564337 0.058767192 0.060150318
000090 7b ba 6d 3e 50 11 2f be 3b 48 5c bc a6 d8 03 be
       0.23215668 -0.17096448 -0.013444955 -0.12875614
0000a0 4f a6 f6 ba 93 e1 59 bd 75 1c 5e bd 9e b2 d5 bc
       -0.0018817874 -0.05319364 -0.054226357 -0.026086148
0000b0 4f 84 34 3d cc 0a 9a 3e bf 44 55 3e 26 6d e2 bc
       0.04407149 0.30086362 0.20827006 -0.027639937
0000c0 03 e2 4e 3e df 58 3c be 27 e3 c7 bd 51 8b 68 be
       0.20203404 -0.18393277 -0.09760123 -0.22709395
0000d0 c5 7e 7e be 4b 0e ef 3c 6d f1 b1 be fb 78 66 3e
       -0.24853046 0.02918162 -0.34754506 0.22507088
0000e0 0c d7 08 3e 4f 68 0b 3e 9c 8d 3a 3e 2b 29 68 3e
       0.13363284 0.1361401 0.18218082 0.22671954
0000f0 aa 99 7f be c9 14 82 3e d5 81 f3 bd 7d 3c cb 3d
       -0.24960962 0.25406483 -0.11889998 0.099236466
000100 ed 5f 53 be fc 72 61 be d4 73 11 3e 4a c1 9a bc
       -0.20642062 -0.2201652 0.14204341 -0.018890996
000110 4a 5c 69 3e 14 cd 29 3e 1f 49 b6 bd d4 e4 55 be
       0.22789112 0.16582137 -0.089006655 -0.20888072
000120 93 bd f2 bb a2 7b 1b bd d9 6c ba bd 27 b0 12 3d
       -0.007407853 -0.037959702 -0.09102792 0.035812523
000130 dd 17 86 bd e0 70 2a 3e 85 96 7b 3e 77 59 cb bd
       -0.0654752 0.16644621 0.24569137 -0.099291734
000140 48 26 31 be 8d a0 3a be 89 6b a7 be e2 63 bd 3d
       -0.1729976 -0.18225308 -0.3269923 0.09247567
000150 45 f9 90 bd c8 19 c7 3c 97 94 55 bd a5 26 09 3e
       -0.070787944 0.024304286 -0.05214366 0.13393648
000160 51 5e 38 3e 6b 3c e4 3e cd d0 6a 3e f8 81 b4 3d
       0.18004729 0.44577345 0.22931214 0.08813852
000170 6b ff 1a 3e 6a 89 1c be 74 1f 3f be 57 f9 02 bd
       0.15136497 -0.15286794 -0.18664342 -0.03197607
000180 6f d7 13 3e b7 5a f4 bc 71 a3 05 be 16 21 f4 3c
       0.1443765 -0.029828412 -0.13050629 0.029800933
000190 d7 b8 87 bd 7e 6e e1 bd 86 ab 28 3e fa 48 e9 bc
       -0.06627052 -0.11007403 0.16471681 -0.02847718
0001a0 4a e5 ad 3c 89 4f d2 3d fd 9d 2f be 5b 55 6e 3d
       0.021227498 0.102690764 -0.17150111 0.05818687
0001b0 c8 80 62 be 33 c8 4c 3e 79 72 68 be 0e 62 bd 3d
       -0.22119439 0.19998245 -0.22699918 0.09247218
0001c0 f7 0e 8a bd ed 51 ad 3d c3 1d 94 be b5 a9 cb 3d
       -0.067411356 0.08462892 -0.28928956 0.099444784
0001d0 b9 98 03 bc 2c af af 3e 5c 76 b9 3d 41 cf 04 bc
       -0.008032017 0.34313333 0.090557784 -0.008106054
0001e0 6b 0b ce bb 32 53 f3 3d 70 3a a7 3c 91 70 92 3d
       -0.006287982 0.118811026 0.020413607 0.071503766
0001f0 9c 8a 14 3e 33 f5 88 bd 58 b4 99 bd 5e c5 9f 3c
       0.14506 -0.06687393 -0.07505101 0.019503292
000200 4e 5e 73 3d 0e 37 6b 3c 2d ce a7 bc b1 12 79 3d
       0.059416108 0.014356388 -0.020484054 0.06080884
000210 67 bb cc 3d 0c 31 b1 bd b3 87 44 3d 39 ea ae bd
       0.09996682 -0.08651933 0.047980975 -0.08540768
000220 41 e6 84 3d 9c 6d 88 3b 78 45 d9 bd 8f 76 1c be
       0.0648923 0.004163457 -0.10608953 -0.15279602
000230 d8 77 b2 bd d9 a7 db bd 3b cc 4e bd 9e ed 2a be
       -0.08714265 -0.10725374 -0.050487738 -0.16692206
000240 8c 42 d4 3d 9b 0e de bd 0d ac 86 bd bd a8 f6 bc
       0.10364255 -0.108426295 -0.06575785 -0.030109758
000250 86 6e 95 bd 86 15 95 3d ef d9 3c 3e c0 eb ae bd
       -0.07296471 0.07279496 0.1844251 -0.085410595
000260 28 fb 44 bc 67 21 36 3e 2f 6c 0d be 19 4a c1 3c
       -0.012022771 0.1778618 -0.138108 0.023594903
000270 91 da 79 bc 5b ec 0c be 1d fd a8 3d ef 15 4d 3e
       -0.015249864 -0.13762037 0.082514025 0.20027898
000280 d8 01 8b be aa 76 dc 3d 1f cb c3 bc 5b ac 32 3d
       -0.27149844 0.10764821 -0.023900567 0.043621402
000290 32 ce 1c 3d 39 d8 99 3c b2 8a fd 3d ad 31 ea bd
       0.03828258 0.01877986 0.1237997 -0.11435256
0002a0 1e b3 38 be 12 05 58 3e 88 6d 59 3a dc 22 01 bd
       -0.18037078 0.21095684 0.00082942145 -0.031527385
0002b0 29 22 23 3c 1d d4 0b 3e 3e 21 17 be 4e 8b c6 bd
       0.009956875 0.13655134 -0.14758775 -0.09694539
0002c0 01 f0 f4 3d 69 2f e1 bb b7 0b 0d be 00 91 1d bb
       0.119598396 -0.006872107 -0.13774 -0.0024042726
0002d0 5f 7c 74 bd 9e 5c 94 bc 43 df 00 3e 5c 77 24 be
       -0.059688922 -0.01811057 0.12585168 -0.16061157
0002e0 bb 7f 95 3d 60 fa 69 b6 43 de f0 bd df 98 e7 3b
       0.07299753 -3.4865443e-06 -0.11761143 0.007067784
0002f0 2e 77 e4 3d 43 b1 9d be 8d b5 40 3b ba 1c 05 be
       0.11155544 -0.30799302 0.0029405088 -0.1299924
000300 b9 f3 3f be 35 83 34 3c 93 2b cd bd 99 cb 34 3d
       -0.18745317 0.01101761 -0.10018077 0.04413948
000310 e4 da 96 3d 12 ec 42 bd b3 86 53 be ac 39 bc 3d
       0.07365969 -0.047588415 -0.20656852 0.091906875
000320 38 93 72 be dc 6e 49 3d 6a d9 84 3d d2 07 06 be
       -0.23688972 0.04917799 0.06486781 -0.1308892
000330 76 ac 39 be 11 71 c2 bd c3 c0 22 3e 35 41 44 bd
       -0.18132195 -0.09494222 0.15893845 -0.04791375
000340 c3 79 31 bd 16 66 e7 3d 21 30 03 be d6 0b 84 bd
       -0.04332901 0.11298768 -0.12811328 -0.0644757
000350 7e 3f 62 bd ae 0e 8a 3e 6f c3 22 3e 29 69 d9 bd
       -0.055236332 0.26964325 0.15894864 -0.10615761
000360 5f 57 b2 bb b6 e3 a9 3d f4 e5 97 3c e2 f3 26 be
       -0.0054425444 0.082953855 0.018542267 -0.16303971
000370 bf b0 f6 bc 59 08 9c bd 61 cb 93 bd 9c aa a5 bb
       -0.030113576 -0.0761878 -0.07216526 -0.0050557386
000380 bf 56 4a 3c 13 7d f9 bb 35 be 3e 3c 04 af f2 bd
       0.012349783 -0.007613787 0.011642029 -0.11849788
000390 2e 78 90 bd e0 08 6a 3e 3a 74 c3 3d c4 28 55 bd
       -0.070541725 0.22854948 0.09543653 -0.05204083
0003a0 82 d7 02 3d ed 87 64 3c eb 4b 82 be a8 43 0b 3e
       0.031943806 0.013948423 -0.25448546 0.13600028
0003b0 76 21 8a be 60 76 fa 3c 20 05 09 3e fd de f9 bd
       -0.26978654 0.030574024 0.13380861 -0.12200735
0003c0 24 b0 27 bd 72 e9 46 bd 65 c9 9d 3d 64 d8 1e 3e
       -0.040939465 -0.048562475 0.077044286 0.15512234
0003d0 40 e9 ca bd 6a 80 d3 3d df 0c f5 3c 54 78 2e 3d
       -0.0990777 0.103272274 0.029913364 0.042595223
0003e0 e9 3b 5f 3e 4c 4c b6 bd 45 72 8e 3d 44 7c 63 bd
       0.21800198 -0.08901271 0.06955389 -0.05553843
0003f0 57 2e 90 3e 6e 0d 42 3c 3c b6 13 3d 5f d6 56 3c
       0.28160354 0.011844022 0.036062464 0.0131126335

lstm.hh.rho_weight f4 [128, 32]
000000 8f bf 3d c0 a5 08 32 c0 64 cf 3e c0 36 51 26 c0
       -2.9648168 -2.7817776 -2.981408 -2.5987067
000010 e5 6e 40 c0 e7 16 3a c0 b0 e2 30 c0 3d 3d 39 c0
       -3.0067685 -2.9076478 -2.763836 -2.8943627
000020 4f 1a 33 c0 be 8c 33 c0 d8 93 3e c0 b0 10 44 c0
       -2.7984807 -2.8054652 -2.9777737 -3.0635185
000030 3c d7 38 c0 8e 3f 2f c0 34 cd 39 c0 d9 ad 41 c0
       -2.8881369 -2.738254 -2.9031496 -3.0262358
000040 90 8c 26 c0 dc 3f 35 c0 70 ba 37 c0 ff 94 34 c0
       -2.6023293 -2.8320227 -2.8707542 -2.821594
000050 f5 0a 3b c0 87 f3 39 c0 c4 9a 33 c0 9d 11 3d c0
       -2.9225438 -2.9054887 -2.8063211 -2.9542
000060 24 b1 2b c0 8d 5f 35 c0 a4 04 2f c0 73 92 43 c0
       -2.6826868 -2.833957 -2.7346582 -3.0558136
000070 0d a1 27 c0 cb fb 22 c0 b7 ad 36 c0 20 76 2f c0
       -2.6192048 -2.5466182 -2.8543527 -2.7415848
000080 e6 49 35 c0 a1 42 39 c0 ae 5a 2d c0 8b 19 37 c0
       -2.8326354 -2.8946917 -2.7086596 -2.860934
000090 10 53 31 c0 eb 7d 3d c0 a2 ed 2c c0 35 e7 2f c0
       -2.7706947 -2.9608104 -2.702004 -2.7484868
0000a0 e8 e0 2d c0 6e 57 27 c0 43 2e 33 c0 86 08 2f c0
       -2.7168522 -2.6147113 -2.7996986 -2.7348952
0000b0 e2 6f 36 c0 b9 f0 30 c0 fe 96 31 c0 72 40 36 c0
       -2.8505788 -2.7646925 -2.7748408 -2.8476834
0000c0 1e 70 38 c0 c4 e6 37 c0 e0 c0 33 c0 81 c9 3b c0
       -2.881843 -2.8734598 -2.8086472 -2.9341738
0000d0 ad ac 2d c0 99 f6 2f c0 b0 68 30 c0 22 4a 3c c0
       -2.7136643 -2.7494261 -2.7563896 -2.9420247
0000e0 a3 92 42 c0 2c de 30 c0 43 2d 37 c0 54 79 3f c0
       -3.0402 -2.7635603 -2.8621376 -2.9917803
0000f0 55 e8 35 c0 e0 79 2f c0 3c 66 34 c0 c5 62 2c c0
       -2.8423054 -2.7418137 -2.81874 -2.6935284
000100 65 58 3a c0 a8 b8 3b c0 1e 66 42 c0 5a 39 3f c0
       -2.9116452 -2.9331455 -3.0374827 -2.9878755
000110 1c 1d 4c c0 ec ad 41 c0 03 83 36 c0 79 a3 37 c0
       -3.1892767 -3.0262403 -2.8517463 -2.8693526
000120 d0 44 2c c0 60 ac 41 c0 8d 7c 3f c0 f9 59 42 c0
       -2.6917 -3.026146 -2.991977 -3.0367415
000130 1d 1a 2e c0 2a 0f 36 c0 67 84 43 c0 d1 5f 34 c0
       -2.7203438 -2.8446755 -3.0549562 -2.8183482
000140 3e c1 3a c0 2c 59 45 c0 85 f3 3f c0 54 58 36 c0
       -2.9180446 -3.0835676 -2.9992383 -2.8491411
000150 3f 52 34 c0 f1 07 31 c0 5e 7c 40 c0 9d bd 3e c0
       -2.81752 -2.7661097 -3.0075908 -2.980323
000160 cd 95 38 c0 59 57 33 c0 9c 40 3f c0 b4 b5 2e c0
       -2.884143 -2.8022063 -2.9883184 -2.7298403
000170 d9 af 29 c0 7a 48 3c c0 59 35 3c c0 01 f6 30 c0
       -2.651358 -2.9419236 -2.940756 -2.765015
000180 0f e1 40 c0 86 33 33 c0 aa 37 41 c0 40 74 2c c0
       -3.0137365 -2.8000197 -3.0190225 -2.6945953
000190 0a 0d 3e c0 60 fa 3f c0 ba 20 47 c0 d0 a1 3c c0
       -2.9695458 -2.9996567 -3.1113725 -2.9473763
0001a0 05 1a 36 c0 ef c1 43 c0 11 81 43 c0 7c bf 3c c0
       -2.845338 -3.0587118 -3.0547526 -2.9491873
0001b0 f0 30 38 c0 ae a5 39 c0 f4 8e 3f c0 f0 ba 37 c0
       -2.877987 -2.9007373 -2.9931002 -2.8707848
0001c0 45 31 3e c0 1b 85 32 c0 6f 4a 3f c0 0a 26 3b c0
       -2.9717572 -2.789374 -2.988918 -2.9241967
0001d0 45 89 34 c0 23 73 39 c0 b1 af 34 c0 9b 35 43 c0
       -2.8208783 -2.8976524 -2.8232234 -3.0501468
0001e0 44 c6 41 c0 1a 62 30 c0 51 61 34 c0 f5 7a 48 c0
       -3.0277262 -2.7559876 -2.8184397 -3.1325047
0001f0 58 d3 47 c0 b7 94 38 c0 97 d3 3e c0 f2 b6 42 c0
       -3.1222744 -2.8840768 -2.9816644 -3.042416
000200 d7 79 3c c0 38 36 44 c0 1c 5a 39 c0 88 5b 36 c0
       -2.9449365 -3.0658092 -2.8961248 -2.8493366
000210 c6 e6 37 c0 20 13 3f c0 cd 41 34 c0 53 ae 3b c0
       -2.8734603 -2.9855423 -2.8165162 -2.932515
000220 a2 f1 35 c0 b6 61 34 c0 49 2b 3e c0 ff 6f 39 c0
       -2.842873 -2.8184638 -2.971392 -2.8974607
000230 3a 6d 51 c0 b2 e8 42 c0 c5 22 3a c0 8c 74 3b c0
       -3.2722917 -3.0454526 -2.9083722 -2.9289885
000240 4d 79 41 c0 ee fa 43 c0 eb 02 41 c0 6e df 3d c0
       -3.0230286 -3.0621905 -3.015803 -2.966762
000250 5b 67 46 c0 93 7c 42 c0 2e bf 3f c0 db 64 3e c0
       -3.1000583 -3.0388534 -2.9960437 -2.9749057
000260 89 35 33 c0 f2 d1 37 c0 4d b2 41 c0 d3 1f 38 c0
       -2.8001425 -2.872189 -3.0265076 -2.8769424
000270 70 16 3d c0 af 55 39 c0 23 4e 3e c0 05 8c 36 c0
       -2.9544945 -2.8958547 -2.973519 -2.852296
000280 83 23 3a c0 f1 f6 3d c0 42 69 45 c0 a0 d5 43 c0
       -2.9084175 -2.968197 -3.0845494 -3.0599136
000290 18 c6 42 c0 74 ab 4e c0 b3 fd 2f c0 09 f6 39 c0
       -3.0433407 -3.2292147 -2.7498596 -2.9056418
0002a0 9d aa 47 c0 1a 86 37 c0 5e 4e 3a c0 ad 74 3e c0
       -3.1197884 -2.86756 -2.9110332 -2.9758713
0002b0 2a d4 44 c0 3b 2b 31 c0 50 54 3d c0 24 f3 39 c0
       -3.0754495 -2.7682636 -2.958271 -2.9054651
0002c0 49 16 3f c0 2b 5c 31 c0 08 6c 37 c0 a4 63 3b c0
       -2.9857352 -2.7712505 -2.8659687 -2.9279566
0002d0 93 a9 37 c0 c9 41 3c c0 aa b3 38 c0 b3 b1 3d c0
       -2.869725 -2.9415152 -2.8859658 -2.963971
0002e0 ba 82 3a c0 7e bf 44 c0 cc 14 41 c0 7e ca 43 c0
       -2.914229 -3.0741878 -3.0168943 -3.0592341
0002f0 89 c4 44 c0 66 13 3a c0 ef 15 49 c0 f5 39 2f c0
       -3.0744956 -2.907434 -3.1419637 -2.7379124
000300 0a 31 47 c0 5e ce 3b c0 cc 58 3a c0 18 95 43 c0
       -3.112368 -2.9344707 -2.9116697 -3.055975
000310 39 50 37 c0 e1 69 33 c0 74 a5 32 c0 c9 ec 3a c0
       -2.8642714 -2.8033373 -2.7913485 -2.9207022
000320 f0 12 39 c0 3b 37 4d c0 4e 3e 43 c0 99 c5 43 c0
       -2.8917809 -3.206496 -3.0506778 -3.0589354
000330 7a f8 34 c0 5e 3b 43 c0 5f 5b 36 c0 f4 8e 48 c0
       -2.8276658 -3.0504985 -2.8493268 -3.1337252
000340 0e 00 3b c0 ab d8 3f c0 3e 88 3f c0 f8 0b 47 c0
       -2.9218783 -2.9975994 -2.9926906 -3.1101055
000350 8e 5c 3d c0 15 13 3c c0 0d e2 30 c0 15 14 37 c0
       -2.958774 -2.9386647 -2.763797 -2.8606007
000360 78 64 40 c0 a1 e7 47 c0 81 b9 3f c0 9c a5 40 c0
       -3.0061321 -3.1235125 -2.9956973 -3.010108
000370 19 32 43 c0 f6 47 42 c0 85 2d 3f c0 97 58 3a c0
       -3.0499327 -3.0356421 -2.9871533 -2.911657
000380 9c 45 37 c0 4a b2 38 c0 b7 5a 3d c0 c4 35 44 c0
       -2.8636236 -2.885882 -2.9586618 -3.0657816
000390 d4 bc 3b c0 3f 5f 3d c0 56 9d 34 c0 85 59 3d c0
       -2.9334002 -2.9589384 -2.822103 -2.9585888
0003a0 be c4 3f c0 b0 2b 35 c0 9f 16 2b c0 c0 5f 32 c0
       -2.9963832 -2.8307915 -2.6732557 -2.787094
0003b0 0b 28 40 c0 2b 65 34 c0 8e ff 3d c0 59 9e 26 c0
       -3.002444 -2.8186748 -2.9687228 -2.6034148
0003c0 90 53 3e c0 77 21 32 c0 c9 fe 37 c0 d2 4f 32 c0
       -2.9738503 -2.7832925 -2.8749259 -2.7861218
0003d0 0d d2 2d c0 ba 15 39 c0 20 46 2d c0 08 09 2f c0
       -2.7159455 -2.891951 -2.707405 -2.7349262
0003e0 f4 0b 3e c0 0c ef 33 c0 8c a0 44 c0 07 0b 34 c0
       -2.9694796 -2.8114653 -3.072299 -2.813173
0003f0 1e 4c 36 c0 69 1e 3b c0 1b 03 39 c0 70 c9 2b c0
       -2.8483958 -2.923731 -2.8908145 -2.6841698

lstm.hh.mu_bias f4 [128]
000000 95 c9 d6 3e 31 06 51 3e c9 d8 a8 3d ce ef ee 3d
       0.4195067 0.20412518 0.082444735 0.11666833
000010 5a ad ca 3d 75 6b c4 bd 43 03 24 be d6 3c 4a 3e
       0.098963454 -0.09590808 -0.16016869 0.1974977
000020 2d 08 ed bc 30 7c 50 bd cd 92 36 bc 79 ee 93 3d
       -0.028934563 -0.050899684 -0.0111433985 0.072232194
000030 29 52 cf 3e 76 cc 3d bd 3f 9c 47 3e 94 7a af bd
       0.4049237 -0.046337567 0.19493197 -0.08568302
000040 2b 84 8a 3b 0c 2b 96 3e 38 de 1d 3e b9 b4 e8 3d
       0.0042271814 0.29329717 0.15416801 0.11362595
000050 20 4d 5e be 16 44 8e 3e f1 55 e2 3d af 15 bb 3d
       -0.21709108 0.2778632 0.11051548 0.09134995
000060 16 09 a3 3d 45 28 bd 3d b3 5f 0b bc 86 67 14 bd
       0.079607174 0.092361964 -0.008506703 -0.03623154
000070 d2 35 2f 3b 0d 50 ea bd e6 0e ff 3e 7a 82 c2 3d
       0.002673496 -0.1144105 0.49816054 0.09497543
000080 ef 26 13 3e df 9f f6 3d d2 1e 98 bc 95 a1 e0 bc
       0.1437032 0.12042212 -0.018569384 -0.027420798
000090 49 4e d2 bd 22 be 9e 3b 4c 61 7e 3d 34 20 a6 3e
       -0.10268838 0.004844443 0.06210451 0.32446444
0000a0 c0 09 57 ba 53 1a 9f 3d 40 d5 10 be 10 7c 1e 3e
       -0.0008203052 0.07768693 -0.14143848 0.15477014
0000b0 f7 33 f2 3d 81 8e 94 3b 13 61 fb 3c 55 05 f8 bc
       0.11826318 0.0045335894 0.030685937 -0.03027598
0000c0 09 e1 92 bc 6d d5 5d 3e 6a 6c be 3c 31 77 84 3d
       -0.01792957 0.21663447 0.023245055 0.064680465
0000d0 79 1e 00 3e 72 04 f9 3d 5b 37 c3 bc b4 33 3b 3e
       0.12511624 0.12159051 -0.023830106 0.18281442
0000e0 dc 4c 87 3e 1f 95 8f 3d 9f 81 60 3e 8b d7 ff 3d
       0.26425827 0.070108645 0.21924447 0.124922834
0000f0 0e 44 a4 3d 71 25 4f 3d c5 3c 5f 3d c8 50 ad 3e
       0.08020793 0.050572816 0.054501314 0.33850694
000100 fa d7 a5 bd e5 b8 5e be 8f c9 20 3e 77 93 12 be
       -0.08097835 -0.21750219 0.15701889 -0.14314066
000110 95 12 a1 3d 22 2d 32 3e 2e d2 90 bd c1 90 06 be
       0.07864872 0.1740003 -0.070713386 -0.13141157
000120 c0 ed 58 b8 67 ce 5d 3c 7b aa 48 be a5 61 3b bd
       -5.1719835e-05 0.01353798 -0.19596283 -0.045747418
000130 de bb 2a 3d 23 31 5e 3c 1f 12 46 3c 51 c1 2d 3e
       0.04168307 0.01356152 0.012089281 0.16968276
000140 7d 77 8e bd c7 08 5d be 74 89 d5 bd 76 a0 0f 3d
       -0.06956384 -0.2158538 -0.10426608 0.035065137
000150 e7 f5 d6 3d ee 64 95 3d ea 11 29 be 33 bc 79 3e
       0.10496121 0.072946414 -0.1651074 0.24388199
000160 ba 93 88 3e 4f 76 cd 3c 9b b3 20 3e a8 91 03 3e
       0.26675206 0.025080828 0.15693514 0.12848532
000170 20 85 c9 bd fb 6f 81 bd 15 0b 95 be 5d 08 4c bd
       -0.09839845 -0.06320187 -0.29110017 -0.049812663
000180 06 45 75 3e 54 cc a8 3d 9b fc 37 3e 25 c8 c9 3e
       0.23952112 0.082420975 0.17967455 0.3941051
000190 79 f1 2a 3e 53 0c 34 3e e6 19 4d 3e b7 e4 5b 3e
       0.16693677 0.17582826 0.2002941 0.21473967
0001a0 5a 5f cf 3e 1f 7a 19 3e 61 ed 94 3e 6e 52 02 3e
       0.40502435 0.14987992 0.29087356 0.12726757
0001b0 33 9c 3b 3e fd 99 0b 3e 72 30 65 3e 77 82 85 3e
       0.18321304 0.1363296 0.22381762 0.260761
0001c0 e6 c5 1b 3e 77 b0 dd 3d 22 e7 df 3d 03 61 f3 3d
       0.15212211 0.108246736 0.10932757 0.11883738
0001d0 50 56 fb 3d 3f a8 ea 3e 88 c2 fc 3d c5 52 6f 3e
       0.12272322 0.45831487 0.123417914 0.23371418
0001e0 fc d5 e5 3d 37 78 e2 3d a6 39 c3 3e 75 b7 69 3e
       0.11222455 0.110580854 0.3812992 0.2282389
0001f0 af 26 a5 3e 62 0b 1a 3e b2 a7 92 3e 95 74 4f 3e
       0.32256076 0.15043405 0.28643566 0.20259316

lstm.hh.rho_bias f4 [128]
000000 f4 fe 1a c0 bf 31 09 c0 6c e8 25 c0 ee c6 30 c0
       -2.421811 -2.1436613 -2.592311 -2.7621417
000010 da 50 37 c0 4b 05 2d c0 d6 14 24 c0 33 b4 2a c0
       -2.8643098 -2.703448 -2.5637717 -2.6672485
000020 28 35 25 c0 b2 f7 19 c0 6b 35 2c c0 47 5e 2e c0
       -2.5813694 -2.4057431 -2.6907604 -2.7245042
000030 64 f3 19 c0 77 6b 24 c0 6e 95 2c c0 ae 1c 31 c0
       -2.4054804 -2.5690591 -2.6966205 -2.7673755
000040 64 2b 30 c0 63 39 0b c0 bd 94 1f c0 80 2a 1b c0
       -2.7526484 -2.1753776 -2.4934533 -2.424469
000050 a6 38 3b c0 c9 a8 24 c0 8f fa 1b c0 4f fd 31 c0
       -2.9253325 -2.5728018 -2.437168 -2.7810857
000060 89 88 3e c0 9c c3 2f c0 08 db 1d c0 39 e2 1f c0
       -2.9770834 -2.746314 -2.4664936 -2.4981825
000070 bd c1 2e c0 2c 63 2a c0 21 85 1d c0 7b e4 1d c0
       -2.7305748 -2.662303 -2.4612505 -2.4670703
000080 6b 19 05 c0 28 a1 04 c0 d4 48 2d c0 ca 16 36 c0
       -2.0796764 -2.0723362 -2.70757 -2.845141
000090 b5 b0 37 c0 39 e5 3d c0 0d 25 21 c0 56 69 1d c0
       -2.8701603 -2.9671156 -2.5178864 -2.4595542
0000a0 85 ef 26 c0 33 f3 2e c0 14 f6 2c c0 91 ae 3b c0
       -2.608369 -2.7335937 -2.7025194 -2.9325297
0000b0 16 72 38 c0 c4 7f 28 c0 3d 04 41 c0 22 59 25 c0
       -2.8819633 -2.6327982 -3.0158837 -2.5835652
0000c0 12 95 2e c0 1b c3 1e c0 61 15 2f c0 27 02 3a c0
       -2.7278485 -2.4806583 -2.7356799 -2.9063814
0000d0 28 63 2a c0 54 19 1e c0 a6 ce 39 c0 2b f3 37 c0
       -2.662302 -2.470296 -2.9032378 -2.8742168
0000e0 64 dc 26 c0 e1 df 40 c0 88 00 17 c0 ef 3a 24 c0
       -2.6072016 -3.0136645 -2.3594074 -2.566097
0000f0 3e d7 34 c0 03 c8 27 c0 63 6e 21 c0 62 9b 20 c0
       -2.8256373 -2.6215827 -2.5223625 -2.5094838
000100 9b ed 3e c0 44 9d 24 c0 0c e0 33 c0 71 86 3d c0
       -2.9832523 -2.5720987 -2.8105497 -2.9613307
000110 dd ce 37 c0 54 c8 3d c0 b4 90 2f c0 d9 a6 34 c0
       -2.872001 -2.965352 -2.743207 -2.8226836
000120 03 0b 40 c0 7c a6 36 c0 a7 0f 32 c0 32 33 46 c0
       -3.000672 -2.8539114 -2.7822053 -3.0968747
000130 e2 6e 36 c0 72 5b 31 c0 08 eb 37 c0 3b 6e 3d c0
       -2.8505177 -2.7712064 -2.8737202 -2.959853
000140 78 05 43 c0 15 80 41 c0 7c 4a 40 c0 88 a0 41 c0
       -3.0472088 -3.0234425 -3.0045462 -3.025423
000150 79 da 36 c0 43 2a 40 c0 27 98 37 c0 09 02 3c c0
       -2.8570845 -3.0025795 -2.8686616 -2.9376242
000160 82 21 33 c0 a4 e1 32 c0 ac e1 35 c0 ea f5 3a c0
       -2.7989202 -2.795022 -2.841899 -2.9212594
000170 20 de 38 c0 c8 96 37 c0 ec 82 41 c0 09 b2 3e c0
       -2.8885574 -2.868578 -3.0236158 -2.9796164
000180 fb 68 25 c0 44 86 26 c0 6a 0c 26 c0 96 c3 14 c0
       -2.5845325 -2.601945 -2.5945077 -2.3244376
000190 40 c8 21 c0 23 ad 14 c0 93 06 1d c0 c0 f4 2a c0
       -2.5278473 -2.3230674 -2.4535263 -2.6711884
0001a0 36 6b 12 c0 fe 5e 23 c0 ee 04 1d c0 e7 64 16 c0
       -2.2877936 -2.5526729 -2.453426 -2.3499086
0001b0 87 f0 28 c0 00 23 28 c0 fb 02 20 c0 45 6e 0c c0
       -2.6396806 -2.6271362 -2.500182 -2.1942303
0001c0 15 5e 1b c0 8d e0 32 c0 c8 80 3e c0 ec f6 26 c0
       -2.4276173 -2.7949555 -2.9766102 -2.608821
0001d0 8f 00 22 c0 44 12 31 c0 8e 02 2e c0 cb 22 1d c0
       -2.531284 -2.7667398 -2.718906 -2.4552486
0001e0 5a a1 19 c0 cf 75 13 c0 9c 21 32 c0 32 80 2a c0
       -2.400473 -2.3040655 -2.7833014 -2.6640744
0001f0 41 b0 28 c0 c6 71 2b c0 db ac 25 c0 1e c6 16 c0
       -2.6357577 -2.6788192 -2.5886753 -2.355842

l1.mu_weight f4 [16, 32]
000000 24 13 d0 be b9 4d 1e bf 93 d7 07 3f 7d 15 08 bf
       -0.40639603 -0.61837345 0.53063315 -0.5315779
000010 c5 6d ef 3e ed f9 0c 3f ae e2 10 bf a0 1d 19 bf
       0.46763435 0.55068856 -0.56595886 -0.5981083
000020 4e 21 f7 be 6e ae 25 3f c6 a7 01 bf 02 28 e4 3e
       -0.48267597 0.64719284 -0.50646627 0.44561774
000030 94 6c 06 bf 62 56 0e 3f 17 2c 30 3f c2 f9 15 3f
       -0.5250943 0.5560056 0.68817276 0.58584225
000040 b3 ca 16 bf 4d b2 df be 87 11 02 bf d2 bc 1b 3f
       -0.58903044 -0.4369072 -0.50807995 0.6083499
000050 c6 e9 c3 be 7d 1c d3 3e f4 bd 1d 3f 35 81 d2 3e
       -0.38264292 0.41232672 0.6161797 0.41114202
000060 bd 6d 37 3f fe 1b 1a bf d1 96 11 3f 3b 7b ef 3e
       0.7165182 -0.6019896 0.5687075 0.46773705
000070 21 43 3f bf cb 6c f8 be 9f aa 04 bf d2 91 35 3f
       -0.74711806 -0.48520502 -0.5182285 0.7092563
000080 43 87 df be 89 fc f0 be c4 27 04 3f a7 13 00 bf
       -0.43657884 -0.4706767 0.5162318 -0.5002999
000090 50 50 df 3e ac ac ad 3e 8b 53 0a bf e6 51 c0 be
       0.4361596 0.339208 -0.54033726 -0.37562484
0000a0 99 55 a2 be b6 d5 ce 3e ed a7 ec be f6 95 0b 3f
       -0.3170593 0.40397424 -0.46221867 0.545257
0000b0 12 da b7 be 4e 14 1a 3f 28 ba ea 3e 68 cb 05 3f
       -0.35908562 0.6018723 0.4584515 0.522635
0000c0 a8 4e d4 be 04 48 11 bf 6a dc dd be c9 61 13 3f
       -0.4146626 -0.5675051 -0.43332225 0.57571083
0000d0 4f 61 b5 be 5c e6 bc 3e fd e4 08 3f 49 1d c6 3e
       -0.35425803 0.368945 0.5347441 0.38694218
0000e0 89 c1 ed 3e 6b 44 ff be fc 73 10 3f d5 45 ce 3e
       0.46436718 -0.49856886 0.5642698 0.40287653
0000f0 d4 2e e7 be 54 f3 23 bf 13 fc 09 bf 45 fa db 3e
       -0.45152915 -0.64043164 -0.5390026 0.42964378
000100 ae 32 b3 be b7 07 9c be 9e e7 0e 3f 86 87 05 bf
       -0.34999603 -0.30474636 0.5582217 -0.5215992
000110 67 ff 08 3f f0 84 1a 3f b1 0f 10 bf 9d 9c 07 bf
       0.53514713 0.60359097 -0.56273943 -0.5297335
000120 5e 08 0a bf 96 7b fd 3e 56 15 2f bf 31 f9 e3 3e
       -0.5391902 0.4950835 -0.6839193 0.44526055
000130 3f 3f 2e bf 7f 92 38 3f 8f cc 20 3f eb c6 f3 3e
       -0.68065256 0.72098535 0.6281213 0.476127
000140 1c 2b 0c bf 42 ec 04 bf 74 81 0c bf 28 c7 04 3f
       -0.5475328 -0.51923 -0.5488503 0.5186639
000150 67 14 27 bf f1 00 f3 3e 23 59 eb 3e 96 f5 52 3f
       -0.65265507 0.47461656 0.45966443 0.82405984
000160 35 6f c0 3e 83 f8 24 bf d6 68 21 3f 8c 50 01 3f
       0.37584844 -0.644417 0.6305059 0.5051353
000170 a3 a4 0f bf 8a e2 0b bf 35 f6 0a bf bf 07 ca 3e
       -0.5611059 -0.54642546 -0.5428193 0.39459035
000180 9c 80 09 bf 84 1a 1c bf 86 8b 74 3e 73 7a c7 be
       -0.5371187 -0.6097796 0.23881349 -0.3896061
000190 99 d1 e2 3e 58 22 ca 3e 69 dc 28 bf 5f 29 0c bf
       0.44300535 0.39479327 -0.6596132 -0.5475063
0001a0 a2 3e bd be 18 95 8a 3e 7e a2 34 bf ad 29 fd 3e
       -0.36961848 0.27066875 -0.70560443 0.4944586
0001b0 37 9a 0d bf fa cd 00 3f b0 bf d2 3e 22 58 0a 3f
       -0.5531344 0.50314295 0.4116187 0.5404073
0001c0 37 43 fa be 4c 85 13 bf da 17 07 bf 71 aa 07 3f
       -0.48879406 -0.5762527 -0.5277077 0.5299445
0001d0 34 c4 dd be 0b ca f6 3e fd 49 db 3e 62 00 05 3f
       -0.43313754 0.48201022 0.42829886 0.5195371
0001e0 06 e6 04 3f 80 0e da be 84 51 f1 3e f9 43 33 3f
       0.5191349 -0.42589188 0.47132504 0.70025593
0001f0 b6 95 c5 be 50 47 18 bf 94 6e d1 be a7 46 d4 3e
       -0.38590783 -0.59483814 -0.40904677 0.41460153
000200 f4 8a 27 bf 05 70 25 bf af 0b 02 3f 1b cc 22 bf
       -0.654464 -0.64624053 0.5079908 -0.6359269
000210 47 8e 03 3f a3 b9 12 3f a8 57 0f bf 29 f2 10 bf
       0.51388973 0.5731451 -0.5599313 -0.5661951
000220 34 3e 2d bf e4 60 38 3f ea 33 0e bf 06 6b 02 3f
       -0.6767304 0.72022843 -0.55547965 0.50944555
000230 7f e1 0f bf a2 7b ca 3e da 6e d2 3e ea d1 e9 3e
       -0.56203455 0.3954745 0.41100198 0.45667964
000240 9a 9d 11 bf df c3 0c bf 5d fe a6 be 40 71 2f 3f
       -0.56881106 -0.54986376 -0.3261594 0.6853218
000250 ac 76 f8 be b8 62 fc 3e 57 db 19 3f 7b ad 27 3f
       -0.4852804 0.49294066 0.6010031 0.65499085
000260 ab f1 09 3f 34 d7 fa be d0 97 0d 3f e5 c7 0c 3f
       0.5388438 -0.48992312 0.5530977 0.54992515
000270 50 fc 20 bf 8a 1d 87 be 31 e0 1e bf c7 c3 17 3f
       -0.62885 -0.26389724 -0.6206084 0.5928311
000280 08 10 f0 be 76 de f5 be 43 36 29 3f a4 6e ff be
       -0.4688723 -0.48021287 0.6609842 -0.498891
000290 64 9f 06 3f 85 df fb 3e 98 5d 02 bf 6b b6 f8 be
       0.5258696 0.4919397 -0.5092406 -0.48576674
0002a0 3e 31 00 bf c6 b9 f2 3e e1 51 1f bf 02 77 ef 3e
       -0.5007514 0.4740736 -0.6223431 0.46770483
0002b0 33 c9 01 bf b6 3c 29 3f c4 88 19 3f 2a 6d 05 3f
       -0.5069763 0.6610826 0.5997431 0.52119696
0002c0 1a bf ad be 6d a9 0c bf e8 21 25 bf 8b bd ee 3e
       -0.3393486 -0.54946023 -0.6450486 0.46628985
0002d0 0a 3f 90 be 7f 13 20 3f 56 47 1e 3f 0e d7 b4 3e
       -0.28173095 0.6252975 0.618276 0.35320324
0002e0 bb e8 cf 3e 66 9f 0d bf 2f 4a dc 3e e3 8c 0f 3f
       0.40607247 -0.5532135 0.43025348 0.5607435
0002f0 d0 37 25 bf df 2a eb be 9a f6 2a bf e1 f0 07 3f
       -0.6453829 -0.45931146 -0.66782534 0.5310193
000300 e1 7b ea be d7 0f fc be b4 b4 e4 3e 1e 82 0b bf
       -0.45797637 -0.49230835 0.44669116 -0.5449542
000310 76 64 e1 3e 01 e3 23 3f ff 39 b9 be 55 40 fb be
       0.44021958 0.64018255 -0.3617706 -0.4907252
000320 70 f9 0c bf d2 a9 0a 3f 88 9f d5 be 04 98 1e 3f
       -0.5506811 0.54165375 -0.41723275 0.6195071
000330 7c 74 14 bf 1d 53 f9 3e 3b 57 13 3f f0 4d e5 3e
       -0.5799024 0.48696223 0.5755498 0.44786024
000340 0d e9 0e bf a5 62 c8 be c7 43 03 bf c2 ba c0 3e
       -0.5582436 -0.3913776 -0.51275295 0.37642485
000350 9e 84 1e bf cb 86 a3 3e c9 6e f3 3e 6b c8 bb 3e
       -0.6192111 0.31938776 0.4754546 0.36676344
000360 7a 71 08 3f 7f 7e 01 bf e7 bb e6 3e a9 0a d1 3e
       0.5329815 -0.5058364 0.45065233 0.40828446
000370 d8 23 ee be 44 48 e9 be 4c 20 1c bf 04 f2 e4 3e
       -0.46511722 -0.45562947 -0.6098678 0.44715893
000380 01 cc da be e5 08 a8 be b9 ba 35 3f 51 63 e3 be
       -0.42733768 -0.32819286 0.7098804 -0.4441171
000390 f3 06 0a 3f 50 2d 0f 3f 5c f0 07 bf 54 06 04 bf
       0.53916854 0.55928516 -0.53101134 -0.51572156
0003a0 1d 0c 15 bf d8 4a 20 3f e0 a4 07 bf e0 79 0d 3f
       -0.5822161 0.626142 -0.52985954 0.5526409
0003b0 9e 0e 04 bf f3 55 c0 3e 8b 7f fe 3e a7 47 06 3f
       -0.51584804 0.37565574 0.49706683 0.5245308
0003c0 4c 2b 26 bf c0 90 05 bf 79 50 13 bf 8a 31 07 3f
       -0.64909816 -0.52173996 -0.57544667 0.52809966
0003d0 f2 21 0d bf c9 71 dd 3e a2 ae bd 3e 95 74 15 3f
       -0.5512992 0.43250874 0.37047297 0.58381015
0003e0 c0 85 dc 3e ce 85 d4 be 64 c8 0e 3f ec 7b 00 3f
       0.43070793 -0.41508335 0.5577452 0.5018909
0003f0 36 c5 0e bf b8 b1 06 bf e1 e7 37 bf 80 e5 0a 3f
       -0.5576967 -0.5261493 -0.71838194 0.5425644
