BNN/model_states/BNN_model_state_FD001_test.pt (torch, 57845 bytes, 14 tensors)

lstm.ih.mu_weight f4 [128, 14]
0	0x3e78d7ed	0.24301119
1	0x3e48488a	0.19558921
2	0x3e0cccc2	0.13749984
3	0xbe437aa2	-0.1908975
4	0x3d8bd788	0.06828219
5	0xbd432dbf	-0.04765105
6	0x3d3e9d50	0.046536744
7	0xbe4acac5	-0.19803913
8	0xbddb369c	-0.10703775
9	0x3e88073c	0.2656802
10	0xbc3bd3d4	-0.011464078
11	0xbdaa2dcb	-0.083095156
12	0xbe1392dc	-0.14411491
13	0xbdb14b1b	-0.08656903
14	0xbe50cda8	-0.20390952
15	0xbd874d58	-0.06606549
16	0x3d805406	0.06266026
17	0x3ddc6c12	0.107628
18	0xbe32b234	-0.17450792
19	0x3a80c0a4	0.0009823036
20	0xbe29fdf0	-0.16600776
21	0x3e3d2fdd	0.1847529
22	0xbca8fdc9	-0.020628827
23	0x3e3c3d31	0.18382718
24	0x3a6d2634	0.0009046525
25	0x3c09aa34	0.008402396
26	0x3e1f7ae5	0.15574224
27	0x3e661b4e	0.22471353
28	0xbd45a9fa	-0.048257805
29	0xbc0b9382	-0.008519055
30	0xbcbbe2f9	-0.022935377
31	0x3dd9db58	0.106375396
32	0xbdbaca8f	-0.09120666
33	0xbd1fea56	-0.03904184
34	0x3c4310d1	0.011905865
35	0x3e2dbb07	0.16965877
36	0x3de31931	0.11088789
37	0xbd6251d9	-0.055253837
38	0x3cae4f0c	0.021277927
39	0xbd906faf	-0.07052552
40	0xbe14b8f3	-0.14523678
41	0x3da53641	0.08066989
42	0xbea65ca3	-0.3249255
43	0xbebf29b4	-0.37336504
44	0xbee01b8f	-0.43771026
45	0x3f0171cb	0.5056426
46	0xbef1b5cb	-0.4720901
47	0xbe40824b	-0.18799703
48	0xbed01a01	-0.4064484
49	0x3e1083ba	0.1411275
50	0xbed89264	-0.42299187
51	0xbc867568	-0.016413406
52	0xbe81b29b	-0.25331578
53	0xbe3b8030	-0.18310618
54	0x3e811453	0.2521082
55	0x3e274506	0.16334924
56	0xbe820ba5	-0.2539951
57	0xbdb9aad2	-0.090657845
58	0xbd980a15	-0.07423798
59	0x3e2463e7	0.16053735
60	0x3d0e3381	0.034717087
61	0x3e4f9aee	0.20273945
62	0xbe0546b3	-0.13015251
63	0x3e4c265f	0.19936512
64	0x3e8eafa8	0.2786839
65	0x3dde70ae	0.10861336
66	0x3dd8c835	0.105850615
67	0xbc3b2fde	-0.011424987
68	0x3d7aee69	0.061262522
69	0xbc1a9c89	-0.009436735
70	0xbe5e7daf	-0.21727632
71	0x3c6ff666	0.014646148
72	0xbdb6cb62	-0.08925511
73	0x3e36a4cd	0.17836304
74	0xbd7564ac	-0.05991046
75	0xbc0a736f	-0.008450373
76	0x3c2b65a7	0.0104612475
77	0xbcd8caf9	-0.026463972
78	0xbe9d617e	-0.30738443
79	0xbd2ce6f3	-0.042212438
80	0xbdb58845	-0.08863882
81	0xbe0c84a8	-0.1372248
82	0xbd3aea2d	-0.045633484
83	0xbc3f3db2	-0.011672424
84	0xbbfb1010	-0.007661827
85	0xbcec6ec9	-0.02886142
86	0xbb4dbefb	-0.003139435
87	0x3defcb5f	0.11708712
88	0xbc8b24de	-0.016985353
89	0xbba34017	-0.0049820053
90	0xbe33895f	-0.17532872
91	0x3e08a414	0.13343841
92	0xbead5e31	-0.33860925
93	0x3ca81e7c	0.020522349
94	0x3d933687	0.07188135
95	0xbdb88d39	-0.09011311
96	0xbe51ef9c	-0.2050156
97	0x3e1669fe	0.1468887
98	0x3d3f115b	0.04664741
99	0xbcb47a24	-0.022030897
100	0x3d7c2d33	0.061566543
101	0x3ddbc75d	0.10731385
102	0x3dc3fc13	0.09569564
103	0xbe5425c6	-0.20717534
104	0x3bc260bb	0.0059319413
105	0x3d825faa	0.06365903
106	0x3ca1cea8	0.019751862
107	0xbddb804a	-0.107178286
108	0x3b828fee	0.003984443
109	0x3ddf8644	0.10914281
110	0xbb4e6aa8	-0.0031496678
111	0xbd5fcbca	-0.054637708
112	0xbe36f8c3	-0.17868333
113	0xbd03c924	-0.032174245
114	0xbda994cf	-0.08280336
115	0x3dc6dc28	0.0970996
116	0x3db7f8a4	0.08982971
117	0xbdaecb5d	-0.08534882
118	0xbc875c76	-0.016523581
119	0x3d618e56	0.055067383
120	0xbc2a6f97	-0.010402582
121	0xbd98154d	-0.07425938
122	0xbc54ca10	-0.012987629
123	0x3d5a3576	0.05327364
124	0x3dcca5ab	0.09992536
125	0x3c9c4b00	0.019078732
126	0x3d8625bf	0.06550168
127	0x3d1f0e42	0.038831957
128	0x3e4d8bc9	0.20072855
129	0x3e03ddd8	0.12877595
130	0xbdfbc568	-0.12293512
131	0xbe1d8953	-0.15384416
132	0x3cee81c8	0.029114619
133	0x3df8cc4d	0.12148342
134	0x3d6b2b69	0.057414446
135	0x3cc71ba3	0.02430517
136	0x3dfd97eb	0.12382492
137	0x3c0f9427	0.00876335
138	0xbe4b80d5	-0.19873364
139	0x3d4e8dc4	0.050428167
140	0xbe7e1efd	-0.24816509
141	0xbdbd11ed	-0.09231935
142	0xbe68852a	-0.22707048
143	0x3e86ff45	0.2636663
144	0xbe3478d2	-0.17624214
145	0x3d5afc83	0.05346347
146	0x3d1db3d9	0.038501594
147	0x3e9279b8	0.2860849
148	0x3bb712b3	0.005586946
149	0xbc26f150	-0.010189369
150	0xbe867641	-0.26262096
151	0xbe009315	-0.12556107
152	0x3e43c9d1	0.19119956
153	0x3e412d26	0.18864879
154	0xbd1d1388	-0.038348705
155	0x3e2d6569	0.16933216
156	0xbe72e5c9	-0.23720469
157	0xbd704991	-0.05866391
158	0xbde20003	-0.110351585
159	0x3deb1e44	0.11480382
160	0xbe481db3	-0.1954258
161	0x3d20f30b	0.039294284
162	0x3d3437de	0.04399859
163	0xbd942de0	-0.072353125
164	0x3d13cd9e	0.036084764
165	0xbd0a7701	-0.033804897
166	0x3d09179e	0.03346979
167	0xbdccea36	-0.1000561
168	0xbe9fc0aa	-0.3120168
169	0xbd76c4e1	-0.060246352
170	0xbd1096e0	-0.035300136
171	0x3df303ac	0.11865935
172	0xbea62a37	-0.32454082
173	0x3d865728	0.065595925
174	0xbda9a0e1	-0.08282638
175	0x3e9ea307	0.30983755
176	0xbe2275cd	-0.1586525
177	0xbd37d0db	-0.044876914
178	0xbe3a46ea	-0.18191114
179	0xbe1c41af	-0.15259431
180	0x3dd99446	0.10623984
181	0xbd004843	-0.031318914
182	0xbde7c026	-0.11315946
183	0xbd837398	-0.06418532
184	0xbd06a6ac	-0.032873794
185	0xbe264fdb	-0.162414
186	0xbe3da210	-0.18518853
187	0x3d6d99aa	0.058007874
188	0x3dd105c3	0.10206177
189	0xbd62f1d2	-0.0554064
190	0x3e0276e8	0.12740672
191	0x3cfa95a0	0.030588925
192	0x3e3a38c8	0.18185723
193	0xbd78b9ac	-0.060723945
194	0x3dfc8c27	0.123314194
195	0xbd1df4ab	-0.03856341
196	0xbe30ee35	-0.17278369
197	0xbcdc7191	-0.026909621
198	0xbcbd91de	-0.023140844
199	0x3e47b64b	0.19503133
200	0x3dbcdf57	0.09222286
201	0x3e9bed1a	0.30454332
202	0xbdbc8d8d	-0.09206686
203	0xbc798a86	-0.0152307805
204	0x3d9ff882	0.07811071
205	0x3e26a440	0.16273594
206	0x3dad537c	0.08463189
207	0xbbca9fb8	-0.0061835907
208	0xbd87b279	-0.06625838
209	0xbd23cf01	-0.039992336
210	0xbe89d096	-0.2691695
211	0xbe907542	-0.2821446
212	0xbe1d867d	-0.15383334
213	0x3e8fdbae	0.2809729
214	0xbd8a5b62	-0.06755711
215	0xbdc11482	-0.0942774
216	0xbe189d6d	-0.14903803
217	0x3e7a4a79	0.24442472
218	0xbe1309b8	-0.14359176
219	0x3e872b34	0.2640015
220	0xbe2cf306	-0.16889581
221	0xbe3561b7	-0.17713057
222	0x3e847d41	0.2587681
223	0x3e84803d	0.25879088
224	0x3ca428a4	0.02003891
225	0x3e0f6eca	0.14007106
226	0xbcf615bb	-0.030039659
227	0xbd8d50ca	-0.06900175
228	0xbe0a337f	-0.13496207
229	0xbd49ad58	-0.04923758
230	0xbd1007a5	-0.03516354
231	0x3e851d77	0.25999042
232	0xbe072161	-0.13196327
233	0xbe34c81a	-0.17654458
234	0xbe7ea513	-0.24867658
235	0xbe32f929	-0.1747786
236	0x3c6ab6a3	0.014325771
237	0x3e010ec2	0.12603286
238	0x3da07994	0.07835689
239	0x3dd1ad85	0.10238174
240	0x3c0365b6	0.008019855
241	0xbd26b57f	-0.040700432
242	0x3cec862a	0.028872568
243	0x3dd5e258	0.10443562
244	0x3cf7a653	0.030230677
245	0xbe003a80	-0.12522316
246	0x3d883d16	0.06652276
247	0x3e3546a5	0.1770273
248	0x3e55797f	0.20847128
249	0x3ba482b0	0.005020462
250	0x3c9252ba	0.017861713
251	0xbd7e7592	-0.062123843
252	0xbb80fd67	-0.003936458
253	0xbb901da9	-0.004398067
254	0x3cefa53d	0.029253596
255	0x3db8f6bb	0.09031435

lstm.ih.rho_weight f4 [128, 14]
0	0xc03b0f40	-2.9228058
1	0xc0302102	-2.7520146
2	0xc038974c	-2.8842344
3	0xc03bf0a8	-2.9365635
4	0xc04375a8	-3.0540562
5	0xc04030cf	-3.002979
6	0xc03d404e	-2.9570498
7	0xc04604c9	-3.094042
8	0xc0377b4d	-2.8669007
9	0xc02a7c3e	-2.6638331
10	0xc04aed07	-3.170717
11	0xc03c37c5	-2.940904
12	0xc03b5083	-2.926789
13	0xc039b68e	-2.9017673
14	0xc0311313	-2.7667892
15	0xc03ca070	-2.9472923
16	0xc04554b5	-3.083295
17	0xc0383a4f	-2.8785589
18	0xc036998a	-2.8531213
19	0xc034e50c	-2.82648
20	0xc0332670	-2.799221
21	0xc0398b52	-2.8991284
22	0xc042afc9	-3.041979
23	0xc0448bdb	-3.071036
24	0xc0351f76	-2.8300452
25	0xc0384e37	-2.8797739
26	0xc03bde20	-2.9354324
27	0xc037eb6e	-2.8737445
28	0xc0347713	-2.8197677
29	0xc04851b9	-3.129988
30	0xc03d8d91	-2.9617655
31	0xc0458539	-3.0862563
32	0xc0412aaa	-3.018229
33	0xc02ef893	-2.7339218
34	0xc03ba615	-2.9320118
35	0xc03e7d2c	-2.97639
36	0xc03aba54	-2.9176226
37	0xc03e9a80	-2.97818
38	0xc036ae6e	-2.8543963
39	0xc0383995	-2.8785145
40	0xc034b1e9	-2.8233588
41	0xc032ea97	-2.7955682
42	0xc043db56	-3.0602622
43	0xc03c2f3f	-2.9403837
44	0xc040ce74	-3.012601
45	0xc03d1ab5	-2.954755
46	0xc0435047	-3.0517747
47	0xc038537e	-2.880096
48	0xc032e423	-2.7951744
49	0xc0376440	-2.8654938
50	0xc0395e87	-2.8963945
51	0xc0355717	-2.8334405
52	0xc0383861	-2.878441
53	0xc03d25cd	-2.9554322
54	0xc043ee4b	-3.0614192
55	0xc038d67f	-2.8880918
56	0xc0438e65	-3.055566
57	0xc037a322	-2.8693318
58	0xc047749f	-3.116493
59	0xc03a371d	-2.9096138
60	0xc0381ba6	-2.8766875
61	0xc043ad5b	-3.0574558
62	0xc0436739	-3.0531752
63	0xc044881b	-3.0708072
64	0xc03d9955	-2.9624836
65	0xc03ad0cc	-2.918994
66	0xc03f9c52	-2.993916
67	0xc044a503	-3.0725715
68	0xc038e1a3	-2.8887718
69	0xc0351e11	-2.82996
70	0xc040fceb	-3.015437
71	0xc02e4f74	-2.7235994
72	0xc0426e70	-3.0379906
73	0xc0416b6b	-3.0221813
74	0xc0397e41	-2.898331
75	0xc03e4bd5	-2.9733784
76	0xc03f6aef	-2.9909017
77	0xc03db29a	-2.964026
78	0xc04a14f6	-3.1575294
79	0xc0444ea7	-3.0673006
80	0xc03212b0	-2.7823906
81	0xc037d01e	-2.8720775
82	0xc039398f	-2.894138
83	0xc03cd6f1	-2.950619
84	0xc036a2f0	-2.853695
85	0xc0454832	-3.0825315
86	0xc04319cc	-3.0484495
87	0xc043a2c1	-3.0568087
88	0xc02bf7a7	-2.6869905
89	0xc031fbf5	-2.7810032
90	0xc03fcb66	-2.9967895
91	0xc047267b	-3.1117237
92	0xc041f516	-3.0305839
93	0xc03654d0	-2.8489265
94	0xc034d133	-2.8252685
95	0xc03b3e62	-2.9256825
96	0xc039ea8e	-2.904941
97	0xc03ddc5f	-2.9665754
98	0xc02fcbd2	-2.7468152
99	0xc03501e1	-2.8282397
100	0xc039c7c8	-2.9028187
101	0xc037b545	-2.8704388
102	0xc03e6ee2	-2.9755177
103	0xc033de36	-2.8104377
104	0xc04b87d0	-3.1801643
105	0xc0376152	-2.865315
106	0xc0407235	-3.0069706
107	0xc02e0eaa	-2.719645
108	0xc0377c29	-2.8669531
109	0xc035ca1b	-2.8404605
110	0xc02fd1f6	-2.74719
111	0xc03cef87	-2.9521196
112	0xc0372436	-2.8615851
113	0xc02d754d	-2.7102845
114	0xc03ba00c	-2.9316435
115	0xc040bce2	-3.0115285
116	0xc03ca949	-2.9478323
117	0xc03ec965	-2.9810421
118	0xc0380506	-2.8753066
119	0xc03a72c8	-2.9132557
120	0xc040015b	-3.0000827
121	0xc02e7214	-2.7257128
122	0xc036b6ad	-2.8548996
123	0xc0430fa3	-3.0478294
124	0xc03f9757	-2.993612
125	0xc033111d	-2.7979195
126	0xc039dae0	-2.903984
127	0xc034256b	-2.8147838
128	0xc0367aaf	-2.851238
129	0xc0380ee9	-2.87591
130	0xc034f401	-2.8273928
131	0xc03abce5	-2.9177792
132	0xc02cf950	-2.7027168
133	0xc03ae5ee	-2.9202838
134	0xc0366533	-2.8499267
135	0xc02fcb22	-2.7467732
136	0xc03c1ef2	-2.9393888
137	0xc036f9c7	-2.8589952
138	0xc0366dce	-2.850452
139	0xc02f072b	-2.7348125
140	0xc0389176	-2.8838782
141	0xc03e26c9	-2.9711173
142	0xc03447da	-2.8168855
143	0xc038ff69	-2.890589
144	0xc05142c5	-3.2697003
145	0xc03b4739	-2.926222
146	0xc02e0488	-2.7190266
147	0xc034a303	-2.8224494
148	0xc032f1a7	-2.7959993
149	0xc035b323	-2.8390586
150	0xc02f45f6	-2.738645
151	0xc0412756	-3.0180259
152	0xc0410dec	-3.0164747
153	0xc037c75c	-2.871543
154	0xc0368c65	-2.852319
155	0xc0367f71	-2.8515284
156	0xc03f9f90	-2.994114
157	0xc0308cd5	-2.7585957
158	0xc02de167	-2.7168825
159	0xc02e9057	-2.7275598
160	0xc040a6ff	-3.0101926
161	0xc03db027	-2.9638765
162	0xc037e5ca	-2.8734002
163	0xc035f9cc	-2.8433714
164	0xc036bd94	-2.855321
165	0xc030183d	-2.7514794
166	0xc03a24a3	-2.9084861
167	0xc02f5470	-2.7395287
168	0xc040a77b	-3.0102222
169	0xc03f2125	-2.986398
170	0xc03921c8	-2.8926868
171	0xc0374cff	-2.8640745
172	0xc03c3ddf	-2.9412763
173	0xc034c150	-2.8242989
174	0xc0333615	-2.800176
175	0xc03e0be6	-2.9694762
176	0xc039beb2	-2.902264
177	0xc04472a8	-3.069498
178	0xc04200c0	-3.0312958
179	0xc039523b	-2.895644
180	0xc037d122	-2.8721395
181	0xc03dedf2	-2.967648
182	0xc03729e3	-2.8619316
183	0xc036639a	-2.8498292
184	0xc035259e	-2.830421
185	0xc03996f4	-2.8998384
186	0xc042b3d2	-3.0422254
187	0xc0330e02	-2.79773
188	0xc03d37ed	-2.9565384
189	0xc03b3c4b	-2.925555
190	0xc036a18a	-2.8536096
191	0xc038a978	-2.8853436
192	0xc036daca	-2.8571038
193	0xc03690de	-2.852592
194	0xc034a02e	-2.8222766
195	0xc0319f73	-2.775357
196	0xc0370e8a	-2.8602624
197	0xc03a4eba	-2.911055
198	0xc0382b8a	-2.8776574
199	0xc0442b84	-3.065156
200	0xc04a0e57	-3.1571252
201	0xc03d4c98	-2.9578
202	0xc03c2c9e	-2.9402232
203	0xc036cf09	-2.8563864
204	0xc039cc96	-2.903112
205	0xc040c0a0	-3.011757
206	0xc035d7cb	-2.841296
207	0xc036e1a8	-2.857523
208	0xc044c1d3	-3.07433
209	0xc03deeb1	-2.9676936
210	0xc03ea74f	-2.9789617
211	0xc03dc246	-2.9649825
212	0xc03b25b5	-2.9241765
213	0xc0338a7d	-2.8053277
214	0xc0469763	-3.10299
215	0xc034f059	-2.8271697
216	0xc03ec8fb	-2.9810169
217	0xc037c832	-2.871594
218	0xc04347ff	-3.0512693
219	0xc02f09bc	-2.7349691
220	0xc0350b27	-2.8288057
221	0xc036373e	-2.8471217
222	0xc036c24b	-2.8556087
223	0xc042372a	-3.034617
224	0xc0433dc5	-3.050645
225	0xc04065cd	-3.0062134
226	0xc0395f55	-2.8964436
227	0xc04068b6	-3.006391
228	0xc0407ac5	-3.0074933
229	0xc03f9cec	-2.9939528
230	0xc02f24be	-2.7366176
231	0xc038d327	-2.8878877
232	0xc04ba246	-3.1817794
233	0xc03b520f	-2.9268835
234	0xc03d7b84	-2.9606638
235	0xc03561a5	-2.8340847
236	0xc04068b5	-3.0063908
237	0xc03d06fc	-2.9535513
238	0xc049330c	-3.1437407
239	0xc03d371b	-2.9564884
240	0xc0393db9	-2.8943923
241	0xc035db60	-2.8415146
242	0xc03896ec	-2.8842115
243	0xc037e6dc	-2.8734655
244	0xc03d57c2	-2.9584813
245	0xc03848b8	-2.8794384
246	0xc042bd1c	-3.0427923
247	0xc02c82ec	-2.6954908
248	0xc037c91d	-2.87165
249	0xc032e054	-2.794942
250	0xc035d177	-2.8409097
251	0xc03e2bcd	-2.9714234
252	0xc046cf0e	-3.1063876
253	0xc03e6d48	-2.97542
254	0xc03b3dea	-2.925654
255	0xc03d37f2	-2.9565396

lstm.ih.mu_bias f4 [128]
0	0x3d4653a6	0.048419617
1	0x3c8d4d03	0.017248636
2	0x3e41a3d4	0.18910152
3	0xbe19ec1d	-0.15031476
4	0x3ddc7ede	0.107663855
5	0x3e111ee5	0.14171942
6	0x3e29c045	0.16577251
7	0x3e1f769c	0.1557259
8	0x3e2d5c88	0.16929829
9	0x3d724036	0.059143268
10	0x3d408c71	0.047008935
11	0x3e7897b0	0.24276614
12	0x3e3fee6c	0.18743294
13	0x3e1a07c2	0.15042022
14	0x3df3bb3f	0.11900949
15	0x3d9b0d75	0.07570926
16	0xbe05642f	-0.13026498
17	0x3e09c473	0.13453846
18	0x3dbf61e8	0.09344846
19	0xbc4c64f7	-0.012475244
20	0x3c9ded7c	0.01927828
21	0xbd76a5fb	-0.060216885
22	0xbe2a401c	-0.16626018
23	0x3d0beea1	0.03416312
24	0xbd966d83	-0.073451065
25	0x3e4977c5	0.19674595
26	0x3dd09bc5	0.10185961
27	0x3e59b9b8	0.21262252
28	0x3de1c1a6	0.11023264
29	0xbd047624	-0.03233923
30	0x3e8975cd	0.26847687
31	0xbe51e09a	-0.20495835
32	0x3dc6f2d8	0.097142875
33	0x3bd7c034	0.0065841917
34	0x3db7f205	0.089817084
35	0x3e1ddbb7	0.15415846
36	0x3d79e031	0.06100482
37	0x3e11b403	0.14228825
38	0x3df0ca8c	0.11757383
39	0x3e83914e	0.25696796
40	0xb99ae969	-0.00029547073
41	0x3d78c0a1	0.06073058
42	0x3da050b7	0.07827895
43	0x3e9c13b8	0.30483794
44	0x3d4ed8fe	0.05049991
45	0x3cc2f2ce	0.023797419
46	0xbdcc87b5	-0.099868216
47	0x3dc954ca	0.09830625
48	0x3cbb94b2	0.022898052
49	0x3d7e61ba	0.062104918
50	0x3e9af60b	0.3026584
51	0xbd2c72d5	-0.0421017
52	0xbcc764fa	-0.024340142
53	0x3ca4709b	0.020073226
54	0x3c9dab50	0.019246727
55	0x3dc830fe	0.097749695
56	0xbe0ba678	-0.13637722
57	0x3c86641c	0.016405158
58	0x3dee975d	0.11649964
59	0x3e6592d3	0.2241929
60	0x3dbd15ad	0.0923265
61	0xbdf6f07b	-0.12057587
62	0x3e7cf99b	0.24704592
63	0xbe2d7368	-0.16938555
64	0xbd894729	-0.06703026
65	0x3df7092e	0.12062298
66	0x3eb8de0d	0.3610691
67	0xbdc031e4	-0.09384516
68	0x3e399ff2	0.1812742
69	0x3c05d980	0.008169532
70	0x3e523074	0.20526296
71	0xbe7c83e7	-0.24659692
72	0x3e0f3983	0.13986783
73	0x3e80eb50	0.2517953
74	0x3cddb46e	0.027063575
75	0x3e3ff58c	0.18746012
76	0xbdde5118	-0.10855311
77	0x3e935261	0.28773788
78	0x3e4dd2be	0.20099923
79	0x3daa894f	0.08326971
80	0xbd84f488	-0.06491953
81	0xbe19a9c2	-0.15006164
82	0xbe76cf52	-0.24102524
83	0x3d938f5a	0.072050765
84	0xbe6de2b0	-0.23231006
85	0x3d559146	0.052140497
86	0x3e2a6e08	0.16643536
87	0xbd6ee380	-0.05832243
88	0xbd9a292a	-0.07527383
89	0xbd5aba56	-0.05340036
90	0xbb2ce659	-0.0026382415
91	0x3e678458	0.22609079
92	0xbe2f6e53	-0.17131929
93	0x3e210c8b	0.15727441
94	0xbd035854	-0.03206666
95	0x3cbe1c8a	0.023206968
96	0x3dee89b6	0.1164736
97	0x3e6a42b1	0.22877003
98	0x3dd6dfac	0.10491881
99	0x3caea41e	0.021318492
100	0x3ea19ee1	0.31566527
101	0x3edd22f0	0.43190718
102	0x3de4dd8f	0.111750714
103	0x3ed19409	0.40933254
104	0x3e795b3f	0.24351214
105	0x3e8132dd	0.25234118
106	0x3dd8f12a	0.105928734
107	0x3d9404d6	0.07227485
108	0x3e07083f	0.1318674
109	0x3e8b9b73	0.27267036
110	0x3e344647	0.17604934
111	0x3e38a548	0.180318
112	0x3ea6a398	0.32546687
113	0x3e197008	0.14984143
114	0x3dacbef5	0.0843486
115	0x3e80bbfa	0.25143415
116	0x3e3e1811	0.18563868
117	0x3de20d46	0.11037688
118	0x3c56aa9c	0.0131022
119	0x3ea6c2e6	0.3257057
120	0x3e0738a8	0.13205206
121	0x3e70b12f	0.2350509
122	0x3dc68c7f	0.09694766
123	0x3e34833e	0.1762819
124	0x3e91beeb	0.2846597
125	0x3f027850	0.5096483
126	0x3e1dd7b4	0.15414315
127	0x3b0e82ec	0.0021745516

lstm.ih.rho_bias f4 [128]
0	0xc02b0703	-2.672303
1	0xc0273773	-2.6127594
2	0xc01346b6	-2.3011909
3	0xc02e2415	-2.7209523
4	0xc0390712	-2.8910565
5	0xc0291dfa	-2.6424546
6	0xc037092d	-2.859935
7	0xc02a192f	-2.657787
8	0xc0296d6e	-2.647304
9	0xc01713e4	-2.360589
10	0xc02edd2e	-2.7322497
11	0xc0248857	-2.5708215
12	0xc02f3a24	-2.7379236
13	0xc02049b1	-2.5044978
14	0xc031a70f	-2.7758214
15	0xc03e1927	-2.9702852
16	0xc02fda79	-2.7477095
17	0xc02cb48a	-2.6985192
18	0xc025aa06	-2.5885024
19	0xc0330847	-2.7973802
20	0xc0325883	-2.7866523
21	0xc02cd73b	-2.7006366
22	0xc02e966f	-2.7279317
23	0xc01ee631	-2.4827998
24	0xc0359882	-2.8374333
25	0xc02524b2	-2.5803647
26	0xc04124e9	-3.0178778
27	0xc02e56a6	-2.7240386
28	0xc03143fb	-2.7697742
29	0xc02b9c9d	-2.681434
30	0xc02afc57	-2.6716516
31	0xc03471ab	-2.8194377
32	0xc030a0a4	-2.7598047
33	0xc034b92e	-2.8238025
34	0xc027ea77	-2.6236856
35	0xc0366c56	-2.8503623
36	0xc034570d	-2.8178132
37	0xc02a9af3	-2.6657073
38	0xc034166b	-2.8138683
39	0xc024d223	-2.5753257
40	0xc029d5be	-2.6536708
41	0xc01511e2	-2.3292165
42	0xc0363685	-2.8470776
43	0xc021b835	-2.526868
44	0xc02cb964	-2.6988153
45	0xc018c5cc	-2.3870726
46	0xc04014de	-3.0012736
47	0xc035ee1c	-2.842658
48	0xc0301148	-2.7510548
49	0xc01d989f	-2.4624403
50	0xc023264e	-2.549213
51	0xc02d8ae3	-2.711602
52	0xc027bb2b	-2.6207988
53	0xc0341a1e	-2.814094
54	0xc032df84	-2.7948923
55	0xc032472b	-2.7855937
56	0xc0344be3	-2.8171318
57	0xc0271700	-2.6107788
58	0xc02a0aac	-2.6569014
59	0xc02cdfbd	-2.701156
60	0xc0308503	-2.7581184
61	0xc03ebdb5	-2.9803288
62	0xc02e566b	-2.7240245
63	0xc03c5717	-2.9428155
64	0xc0330812	-2.7973676
65	0xc03eb10b	-2.9795558
66	0xc02e5048	-2.72365
67	0xc04248ce	-3.0356936
68	0xc038c2ef	-2.8868978
69	0xc02d2195	-2.7051747
70	0xc03cbbad	-2.9489548
71	0xc03925a2	-2.892922
72	0xc0463f6c	-3.097621
73	0xc02ffab1	-2.749676
74	0xc02ea8f4	-2.729062
75	0xc0390b7f	-2.8913267
76	0xc03a7c99	-2.9138548
77	0xc037f6b7	-2.8744333
78	0xc03c2e47	-2.9403245
79	0xc03dde23	-2.9666831
80	0xc035cc8e	-2.84061
81	0xc03192b2	-2.7745786
82	0xc036316c	-2.8467665
83	0xc03ac960	-2.918541
84	0xc02e37f6	-2.7221656
85	0xc03e078a	-2.9692101
86	0xc02e88fb	-2.7271106
87	0xc036d48b	-2.8567226
88	0xc03ce233	-2.951306
89	0xc02db55b	-2.714194
90	0xc034c954	-2.824788
91	0xc03af4b4	-2.9211855
92	0xc04bfb90	-3.1872292
93	0xc03f935e	-2.9933696
94	0xc03a76b5	-2.9134953
95	0xc0329b7f	-2.7907407
96	0xc03147b1	-2.7700007
97	0xc03c1a08	-2.9390888
98	0xc02f35e6	-2.7376647
99	0xc0385213	-2.8800094
100	0xc0262780	-2.596161
101	0xc02ce9fd	-2.7017815
102	0xc031d64a	-2.7787042
103	0xc032c062	-2.792992
104	0xc03e3251	-2.971821
105	0xc032760e	-2.7884555
106	0xc01ab03e	-2.417007
107	0xc03cb8b5	-2.9487736
108	0xc0311954	-2.767171
109	0xc02cf8a0	-2.7026749
110	0xc029afb6	-2.6513495
111	0xc0236bbe	-2.553451
112	0xc0277123	-2.6162803
113	0xc040553b	-3.005202
114	0xc0322de2	-2.7840505
115	0xc02a3ed9	-2.660086
116	0xc02e6938	-2.725172
117	0xc033907f	-2.8056943
118	0xc032b1e8	-2.7921085
119	0xc03914a8	-2.8918858
120	0xc0318da8	-2.774271
121	0xc0380af3	-2.8756683
122	0xc0347ee4	-2.8202448
123	0xc02cf7fb	-2.7026355
124	0xc01ca96c	-2.4478407
125	0xc0304d54	-2.7547197
126	0xc036fc86	-2.8591628
127	0xc02ee547	-2.732744

lstm.hh.mu_weight f4 [128, 32]
0	0xbcd5fc83	-0.026121384
1	0xbe0c0f4e	-0.13677713
2	0x3dfb1087	0.12259012
3	0xbbe95c3f	-0.0071215923
4	0xbd1eb31c	-0.03874503
5	0x3e175196	0.14777216
6	0x3d524766	0.051337622
7	0xbe06ad84	-0.13152128
8	0x3d9b1528	0.075723946
9	0x3e3899ab	0.1802737
10	0xbd8d8e20	-0.06911874
11	0x3d3bdb44	0.045863405
12	0xbdf6fcbd	-0.12059925
13	0xbdd09f34	-0.101866156
14	0x3e27320d	0.16327687
15	0x3c2b7d83	0.010466936
16	0xbe0cb477	-0.13740717
17	0xbe04d77a	-0.12972823
18	0xbe33ba2b	-0.17551486
19	0xbd985149	-0.07437379
20	0x3c950f68	0.018195823
21	0xbb473831	-0.0030398483
22	0x3e2a8931	0.16653897
23	0xbd8fea76	-0.07027142
24	0xbe07d303	-0.13264088
25	0xbd0b240b	-0.03396992
26	0x3d9719a1	0.07377935
27	0xbc6e8b6e	-0.01455961
28	0xbcf4b07f	-0.029869316
29	0xbd9dc7e0	-0.07704139
30	0xbd41f73e	-0.04735493
31	0x3dfde7ec	0.12397751
32	0x3dea6fd7	0.11447113
33	0x3e8dc83f	0.27691838
34	0xbd811aa8	-0.063039124
35	0x3e9fc471	0.3120456
36	0x3d880868	0.06642228
37	0xbe86b4c2	-0.26309782
38	0x3e07c07e	0.13257024
39	0xbbc3797e	-0.0059654107
40	0x3bd21705	0.0064114355
41	0x3ceaee27	0.028678013
42	0xbac06abb	-0.0014680246
43	0xbd106b73	-0.03525872
44	0xbda9e59a	-0.08295746
45	0x3e16c5c0	0.14723873
46	0x3dfe76a1	0.124249704
47	0xbdaca83c	-0.08430526
48	0x3e44d910	0.19223428
49	0xbc89b10a	-0.016808052
50	0x3dbdc2fe	0.092657074
51	0x3c1d1770	0.0095881075
52	0xbd27c5f5	-0.04096027
53	0x3da016d4	0.07816854
54	0xbdb92aca	-0.090413645
55	0x3e248c55	0.16069157
56	0x3cc2a2ef	0.023759333
57	0x3d0964e1	0.03354347
58	0x3df3dd27	0.11907416
59	0x3d6d6746	0.057959817
60	0xbdf012f1	-0.11722363
61	0x3d275232	0.040849872
62	0x3d3799be	0.044824354
63	0xbdbb9e87	-0.09161096
64	0x3bb0ab3e	0.0053915074
65	0xbd8805b3	-0.06641712
66	0x3e5bb51c	0.21455806
67	0xbd89197f	-0.06694316
68	0x3e6f37d4	0.2336114
69	0x3cbe4a48	0.02322878
70	0x3eba3af1	0.36373094
71	0xbe796f17	-0.24358784
72	0x3e24fa32	0.16111067
73	0x3e1509a9	0.14554466
74	0x3cdb84af	0.026796667
75	0x3e61de52	0.22057465
76	0xbdda86d5	-0.106702484
77	0x3e3550fe	0.17706677
78	0x3e9a419c	0.3012818
79	0xbbc5d821	-0.0060377275
80	0xbe4a97c0	-0.1978445
81	0xbe51db34	-0.20493776
82	0xbeeb793e	-0.45990938
83	0x3e500402	0.20314029
84	0xbdbadcaa	-0.091241196
85	0x3d83ef42	0.06442119
86	0x3d496243	0.049165975
87	0xbc8d6ecd	-0.017264748
88	0x3d237409	0.03990558
89	0x3b5e02b0	0.0033876114
90	0x3e189b89	0.14903082
91	0x3dfd989e	0.12382625
92	0x3de475f2	0.11155309
93	0xbdf12cf9	-0.11776156
94	0xbea3a425	-0.3196117
95	0xbd735bac	-0.059413597
96	0x3eaaefca	0.3338607
97	0xbe58bad5	-0.21165021
98	0xbe33bf62	-0.17553475
99	0x3b7aacfb	0.0038250077
100	0xbda62c02	-0.081138626
101	0xbe8c9b8d	-0.27462426
102	0x3e8ea7ff	0.27862546
103	0x3c924ff9	0.0178604
104	0xbdfe1520	-0.12406373
105	0xbdcc4cbe	-0.09975575
106	0x3ccbee40	0.02489388
107	0xbd93ae32	-0.072109595
108	0xbd9b88e5	-0.0759447
109	0x3e2d1a23	0.16904502
110	0xbea158b3	-0.31512985
111	0x3da87718	0.0822584
112	0xbebe83c2	-0.37209898
113	0x3df857be	0.121261105
114	0xbe85f18a	-0.26160842
115	0x3e3a1ff8	0.18176258
116	0xbb98246b	-0.0046430132
117	0x3eaa5aae	0.33272308
118	0x3c111606	0.008855348
119	0xbe6dc524	-0.23219734
120	0xbe0c1b49	-0.13682283
121	0x3da5926a	0.08084567
122	0x3e344779	0.1760539
123	0x3d0a6b92	0.033793993
124	0x3d7d972d	0.06191175
125	0xbede699e	-0.43439955
126	0xbea7f0b6	-0.32800835
127	0xbe432646	-0.19057569
128	0xbc99b798	-0.018764302
129	0xbdc3790a	-0.09544571
130	0x3dac328e	0.0840808
131	0xbe3869b6	-0.18009076
132	0x3e49e978	0.19717968
133	0x3e1767ca	0.14785686
134	0xbdb44a71	-0.08803261
135	0xbe2ae39f	-0.16688393
136	0x3ba20f58	0.004945677
137	0xbd8ae745	-0.067823924
138	0xbdd25280	-0.10269642
139	0xbdba0957	-0.09083813
140	0xbe5081bd	-0.20361991
141	0xbceb7aa8	-0.02874501
142	0x3d577576	0.052602254
143	0xbd4959db	-0.04915796
144	0x3dc67350	0.09689963
145	0xbe4b7dad	-0.1987216
146	0xbe185e09	-0.14879622
147	0xbd47caf3	-0.04877753
148	0xbe01bbfc	-0.12669367
149	0x3ce8a965	0.028401086
150	0xbced4e9e	-0.028968152
151	0xbddcff9b	-0.107909404
152	0xbdb6f74b	-0.08933886
153	0x3d1c3aa8	0.038141876
154	0xbdfff2c8	-0.12497479
155	0x3dbe8587	0.09302812
156	0xbe00f0c0	-0.12591839
157	0x3d5ce182	0.053926
158	0x3cb7c654	0.022433437
159	0xbd5748b3	-0.052559566
160	0xbe0fb65a	-0.14034405
161	0xbe1a9a8d	-0.15098019
162	0xbd86c81f	-0.06581139
163	0xbe4fc99c	-0.20291752
164	0x3dec61ce	0.11542092
165	0x3ea2f59e	0.31828016
166	0x3e6ad343	0.22932152
167	0xbd325c75	-0.043545205
168	0xbe86c982	-0.26325613
169	0xbca6c7b6	-0.020358901
170	0x3eb96260	0.36207867
171	0xbe1816ec	-0.14852494
172	0xbd4e4867	-0.050362017
173	0x3dd8d0d0	0.10586703
174	0x3da059e1	0.07829643
175	0x3d0ee6f6	0.03488823
176	0x3c3a6226	0.0113759395
177	0xbc68491c	-0.014177587
178	0xbe180f30	-0.14849544
179	0x3cb299e0	0.021801889
180	0x3b4e684a	0.0031495267
181	0x3e39ab73	0.18131809
182	0x3e09e40f	0.13465904
183	0xbee79c38	-0.45236373
184	0xbcb6640d	-0.022264505
185	0xbd1d3652	-0.038381882
186	0x3c1a0a9a	0.009401942
187	0xbd6777b0	-0.056510627
188	0x3be51c22	0.006991879
189	0xbeb9c3ba	-0.3628214
190	0xbe664e86	-0.22490892
191	0xbe0c2ff7	-0.13690172
192	0xbe69e0b5	-0.22839625
193	0xbe2f9404	-0.17146307
194	0xbd89ee70	-0.067349315
195	0xbcb85000	-0.022499084
196	0x3dd29c44	0.102837116
197	0x3dc6e6ef	0.09712016
198	0xbe92ffb0	-0.287107
199	0x3dae2d0c	0.08504686
200	0xbe28e22e	-0.1649253
201	0xbd45ecc3	-0.048321497
202	0x3dd7cec4	0.10537484
203	0xbdf06da9	-0.11739666
204	0x3a933a79	0.0011232636
205	0xbdb72662	-0.08942868
206	0x3e402af7	0.1876639
207	0xbd78f8a4	-0.060783997
208	0xbd190698	-0.037359804
209	0x3df6871b	0.12037488
210	0xbdf07674	-0.11741343
211	0xbdb81c57	-0.089897804
212	0xbc971cb8	-0.018446311
213	0x3e9fb625	0.31193653
214	0xbb06409c	-0.0020485288
215	0xbeda392a	-0.42621738
216	0xbd973e17	-0.073848896
217	0x3da746f8	0.08167833
218	0xbb0f6508	-0.0021880288
219	0xbe1dd604	-0.15413672
220	0xbd557817	-0.05211648
221	0xbe604d19	-0.2190441
222	0xbe50a715	-0.20376237
223	0xbd94d6ec	-0.072675556
224	0x3e06780d	0.13131733
225	0xbc3d0a60	-0.011538118
226	0x3de89c0e	0.1135789
227	0xbdbfaeda	-0.09359522
228	0x3c3aaccc	0.011393737
229	0x3e3fb8c7	0.1872283
230	0x3e2c4f82	0.16827205
231	0xbe152e58	-0.1456846
232	0x3e9c15cf	0.3048539
233	0x3ddaed6f	0.10689818
234	0xbe148df6	-0.14507279
235	0x3e6c723f	0.23090456
236	0xbe420d53	-0.18950395
237	0x3e38d1dd	0.18048806
238	0x3e607d3b	0.21922772
239	0xbde17e11	-0.110103734
240	0xbc59da2e	-0.013296647
241	0xbe155328	-0.14582503
242	0xbd8097df	-0.06278967
243	0x3e248502	0.16066363
244	0xbeb04437	-0.34427044
245	0x3cdc3e97	0.026885314
246	0x3d82c1a5	0.06384591
247	0xbd7e5190	-0.062089503
248	0x3dfbb44d	0.12290249
249	0xbe28541c	-0.16438335
250	0x3e03deb4	0.12877923
251	0x3d57f8e8	0.05272761
252	0x3e268304	0.16260916
253	0xbd502e7c	-0.05082558
254	0x3b1c0de0	0.002381198
255	0x3c759dbe	0.014991222

lstm.hh.rho_weight f4 [128, 32]
0	0xc041d827	-3.028818
1	0xc03b67f1	-2.928219
2	0xc04a1a71	-3.1578639
3	0xc02cfa65	-2.7027829
4	0xc03f32a4	-2.9874659
5	0xc0444c95	-3.0671742
6	0xc042e826	-3.0454192
7	0xc046c7f6	-3.1059546
8	0xc03cdabb	-2.9508502
9	0xc03bedf8	-2.9363995
10	0xc0440559	-3.0628264
11	0xc0452366	-3.0802855
12	0xc03988fb	-2.8989856
13	0xc032d383	-2.7941597
14	0xc03f93cc	-2.9933958
15	0xc04a1bf8	-3.157957
16	0xc02e0607	-2.7191179
17	0xc03a1ad9	-2.9078887
18	0xc02d9424	-2.7121668
19	0xc037e698	-2.8734493
20	0xc0536417	-3.302984
21	0xc03b83ca	-2.9299188
22	0xc036bb14	-2.8551683
23	0xc03e0806	-2.9692397
24	0xc0363108	-2.8467426
25	0xc03bf114	-2.9365892
26	0xc0369ad3	-2.8531997
27	0xc046b324	-3.1046839
28	0xc0337423	-2.8039634
29	0xc036a3db	-2.853751
30	0xc03fe6ce	-2.9984622
31	0xc03b23be	-2.9240565
32	0xc04223a5	-3.0334256
33	0xc0422063	-3.0332267
34	0xc03be3cc	-2.9357786
35	0xc0422fc2	-3.034165
36	0xc03f547b	-2.9895313
37	0xc03de210	-2.9669228
38	0xc02fcc31	-2.7468379
39	0xc02b78a9	-2.6792395
40	0xc038aedd	-2.8856728
41	0xc039ca45	-2.9029706
42	0xc0393ec0	-2.894455
43	0xc04337a9	-3.0502722
44	0xc03e060e	-2.9691195
45	0xc042c927	-3.0435274
46	0xc03f6e65	-2.991113
47	0xc039c0d6	-2.9023948
48	0xc044a3e2	-3.0725026
49	0xc0313cda	-2.769339
50	0xc03ebbeb	-2.9802196
51	0xc044add0	-3.0731087
52	0xc03a515a	-2.9112153
53	0xc04564a5	-3.0842679
54	0xc0446343	-3.0685585
55	0xc0413a00	-3.019165
56	0xc0406038	-3.0058727
57	0xc0361051	-2.8447459
58	0xc0351b4c	-2.829791
59	0xc042b0bb	-3.0420368
60	0xc0413630	-3.0189323
61	0xc044258b	-3.0647914
62	0xc03d65a1	-2.959328
63	0xc038dffc	-2.888671
64	0xc03283d9	-2.7892973
65	0xc035492f	-2.8325918
66	0xc04054a8	-3.005167
67	0xc03ba0ad	-2.9316819
68	0xc03f6312	-2.9904218
69	0xc0312bac	-2.7682905
70	0xc03e4f64	-2.9735956
71	0xc03ba12d	-2.9317124
72	0xc037b326	-2.8703094
73	0xc03efeae	-2.9842944
74	0xc036cf3f	-2.8563993
75	0xc045ed45	-3.0926068
76	0xc0354a42	-2.8326573
77	0xc03a2aad	-2.9088547
78	0xc03ad730	-2.919384
79	0xc030f506	-2.764955
80	0xc0363e6a	-2.8475595
81	0xc045c9e9	-3.0904486
82	0xc0455be9	-3.0837348
83	0xc030fdf5	-2.7655003
84	0xc032c480	-2.7932434
85	0xc031e927	-2.7798555
86	0xc03c4684	-2.941804
87	0xc03b2840	-2.9243317
88	0xc036b91b	-2.855048
89	0xc038db77	-2.888395
90	0xc0319610	-2.774784
91	0xc03521f0	-2.8301964
92	0xc02b8db7	-2.6805246
93	0xc03ea81e	-2.979011
94	0xc03b34f3	-2.9251068
95	0xc02e3d6a	-2.7224984
96	0xc036d672	-2.8568387
97	0xc0391b18	-2.8922787
98	0xc049e4e8	-3.1545963
99	0xc0304c71	-2.7546656
100	0xc0408d92	-3.0086408
101	0xc03f94a4	-2.9934473
102	0xc04486f8	-3.0707378
103	0xc03e3a9e	-2.9723277
104	0xc03561ae	-2.834087
105	0xc041a747	-3.0258348
106	0xc040fb21	-3.0153277
107	0xc0375b01	-2.8649294
108	0xc0372932	-2.8618894
109	0xc033b2e0	-2.8077927
110	0xc0342cc7	-2.815233
111	0xc03803a5	-2.8752224
112	0xc02fc3e8	-2.7463322
113	0xc02d4af0	-2.7076988
114	0xc040b332	-3.0109372
115	0xc0367b7c	-2.851287
116	0xc03cc16c	-2.9493055
117	0xc0349dc0	-2.8221283
118	0xc03f2b59	-2.9870207
119	0xc038a895	-2.8852894
120	0xc03cc2ea	-2.9493966
121	0xc037dda1	-2.8729022
122	0xc03cc86c	-2.9497328
123	0xc0438488	-3.054964
124	0xc04651c3	-3.0987403
125	0xc0404ace	-3.0045657
126	0xc03e04d9	-2.9690459
127	0xc03c27ad	-2.9399216
128	0xc039e68c	-2.9046965
129	0xc044fa8e	-3.0777926
130	0xc041ef9d	-3.0302498
131	0xc02f9073	-2.7431915
132	0xc031d492	-2.7785993
133	0xc033b538	-2.8079357
134	0xc0392a9c	-2.8932257
135	0xc0424354	-3.0353594
136	0xc0343936	-2.8159919
137	0xc0331d6f	-2.7986715
138	0xc03ba465	-2.9319088
139	0xc034a775	-2.8227208
140	0xc04fe74c	-3.2484922
141	0xc0403c86	-3.003694
142	0xc0415f89	-3.021456
143	0xc03ab565	-2.9173214
144	0xc03770a9	-2.8662512
145	0xc040f1f8	-3.0147686
146	0xc0432cf8	-3.0496197
147	0xc04346d1	-3.0511973
148	0xc0404c8e	-3.0046725
149	0xc0417942	-3.023026
150	0xc041e80b	-3.0297878
151	0xc03ab7f4	-2.9174776
152	0xc0353c65	-2.8318112
153	0xc039cce2	-2.90313
154	0xc0405ca3	-3.005654
155	0xc03b6813	-2.9282272
156	0xc03eae3d	-2.9793847
157	0xc035ccb8	-2.84062
158	0xc0418fd8	-3.0244045
159	0xc0365957	-2.8492029
160	0xc04177db	-3.0229404
161	0xc0397285	-2.8976147
162	0xc04186b9	-3.0238478
163	0xc03d2295	-2.9552357
164	0xc0476717	-3.115667
165	0xc04f0102	-3.2344365
166	0xc03975e3	-2.8978202
167	0xc030f8cd	-2.7651856
168	0xc0478a1b	-3.1178043
169	0xc03d81e9	-2.961054
170	0xc0378571	-2.8675196
171	0xc046f6a1	-3.108803
172	0xc0404630	-3.004284
173	0xc034f4f1	-2.82745
174	0xc038518f	-2.879978
175	0xc040feab	-3.0155437
176	0xc040392d	-3.0034897
177	0xc032d9d2	-2.7945447
178	0xc03411a2	-2.8135762
179	0xc03b3f44	-2.9257364
180	0xc03392f0	-2.8058434
181	0xc0421b8d	-3.0329316
182	0xc03ba2ea	-2.9318185
183	0xc03b8d5a	-2.9305024
184	0xc0399156	-2.8994956
185	0xc03ef534	-2.983716
186	0xc0406a52	-3.0064893
187	0xc045ba70	-3.0895042
188	0xc03e36c2	-2.9720922
189	0xc03e7d1c	-2.976386
190	0xc05271ba	-3.2881913
191	0xc02ed029	-2.731455
192	0xc03e4241	-2.9727938
193	0xc03c7242	-2.9444737
194	0xc0360432	-2.844006
195	0xc043f9f4	-3.062131
196	0xc03d3592	-2.9563947
197	0xc035ed8c	-2.8426237
198	0xc0363927	-2.8472383
199	0xc03bda65	-2.9352047
200	0xc03e126f	-2.969875
201	0xc04fc8b9	-3.2466261
202	0xc0422fcd	-3.0341675
203	0xc0434320	-3.050972
204	0xc03d214c	-2.9551573
205	0xc0434b76	-3.0514808
206	0xc032eeee	-2.795833
207	0xc042fd07	-3.0466936
208	0xc03c21c4	-2.939561
209	0xc0388b23	-2.8834922
210	0xc03d95a4	-2.9622583
211	0xc0403b66	-3.0036254
212	0xc0365773	-2.8490875
213	0xc03f996d	-2.9937394
214	0xc0392a88	-2.893221
215	0xc035e664	-2.842187
216	0xc044480d	-3.0668976
217	0xc043a2d1	-3.0568125
218	0xc041c2b0	-3.0275078
219	0xc041a17f	-3.025482
220	0xc04610f8	-3.0947857
221	0xc0441637	-3.063856
222	0xc040d3aa	-3.012919
223	0xc044b1c7	-3.0733507
224	0xc0333a98	-2.8004513
225	0xc03e2c26	-2.9714446
226	0xc04535cc	-3.0814085
227	0xc04858b6	-3.1304145
228	0xc044216f	-3.0645406
229	0xc0331d75	-2.798673
230	0xc033d772	-2.8100247
231	0xc03af194	-2.9209948
232	0xc03d9373	-2.9621246
233	0xc02f8e80	-2.7430725
234	0xc033dd8f	-2.8103979
235	0xc03e24c4	-2.970994
236	0xc033e9dd	-2.811149
237	0xc039da4f	-2.9039495
238	0xc03896b8	-2.8841991
239	0xc02a9dc6	-2.6658797
240	0xc0434479	-3.0510542
241	0xc033df2e	-2.8104968
242	0xc035dc4d	-2.841571
243	0xc03bc905	-2.9341443
244	0xc02b13f2	-2.6730924
245	0xc03fa373	-2.9943511
246	0xc0358b2e	-2.8366199
247	0xc029d33e	-2.6535182
248	0xc039175e	-2.8920512
249	0xc030d664	-2.7630854
250	0xc040dd6c	-3.0135145
251	0xc03b222a	-2.9239602
252	0xc03efa8f	-2.984043
253	0xc0361011	-2.8447306
254	0xc03b8be8	-2.9304142
255	0xc0307d6c	-2.7576551

lstm.hh.mu_bias f4 [128]
0	0x3e99ddec	0.30052125
1	0x3e06e6fa	0.13174048
2	0x3e683373	0.22675876
3	0xbd7dabe3	-0.061931502
4	0x3e3dc21f	0.18531083
5	0xbe1a0f96	-0.15045008
6	0xbe0a8cb2	-0.13530234
7	0x3e8555f9	0.26042154
8	0x3e0e8038	0.13916099
9	0x3e2cb974	0.1686762
10	0x3d16e25a	0.03683696
11	0x3e834c0f	0.25643966
12	0x3e565744	0.20931727
13	0x3e06d9d4	0.13169032
14	0x3e187d77	0.14891611
15	0xbd2400ba	-0.040039755
16	0x3d0708a4	0.032967225
17	0x3eacd6ec	0.33757722
18	0x3e5fda3c	0.21860594
19	0xbcbf739e	-0.02337056
20	0xbe2ee8ed	-0.17081042
21	0x3dd2651c	0.10273191
22	0x3e652958	0.22379053
23	0xbd1fabce	-0.038982205
24	0x3ca4be69	0.020110326
25	0x3e8c24df	0.2737188
26	0xbdd9d7c2	-0.10636856
27	0x3d8f8d57	0.0700938
28	0xbca55cee	-0.020185914
29	0x3c36c76f	0.011155947
30	0x3ee7971a	0.4523247
31	0xbc4a760d	-0.012357247
32	0xbd7b89ba	-0.061410643
33	0x3ce8568a	0.028361578
34	0x3d0c63fc	0.03427504
35	0xbd569121	-0.0523845
36	0xbdd13c70	-0.10216606
37	0x3db09fc0	0.0862422
38	0x3e180d95	0.14848931
39	0x3ec5e49e	0.38650984
40	0xbe0ac834	-0.13552934
41	0x3e54d5b7	0.2078465
42	0xbdfb9334	-0.12283936
43	0x3e96ed09	0.29477718
44	0x3da095c8	0.078410685
45	0x3df9fe5f	0.122067206
46	0xbccab0f9	-0.02474259
47	0xbcba2718	-0.02272372
48	0x3d2830bd	0.041062105
49	0x3e4ae868	0.19815218
50	0x3dbd3a07	0.092395835
51	0x3c015806	0.007894522
52	0x3e89f401	0.26943973
53	0x3da32e85	0.07967857
54	0x3cb7482f	0.022373287
55	0x3e406cae	0.18791458
56	0x3e61ea68	0.22062075
57	0x3de74ec7	0.112943225
58	0x3e0cf946	0.13766965
59	0x3e355c19	0.17710914
60	0x3d906990	0.070513844
61	0xbd178cf3	-0.036999654
62	0x3d7055a2	0.058675416
63	0x3e817dd3	0.2529131
64	0x3e4edb13	0.20200758
65	0xbd8290e8	-0.06375295
66	0x3ea55088	0.32288003
67	0xbdb455f3	-0.08805456
68	0x3e0d7427	0.1381384
69	0x3db988f7	0.09059327
70	0x3cd92a96	0.026509564
71	0xbe426476	-0.18983635
72	0x3e4c2cee	0.19939014
73	0x3e48833c	0.19581312
74	0xbc20ea55	-0.009821494
75	0x3d93b12d	0.07211528
76	0x3dc1d721	0.09464861
77	0x3e53baa0	0.2067666
78	0x3e2725ad	0.16322966
79	0x3e589210	0.21149468
80	0xbe094c74	-0.13408071
81	0xbe8555ee	-0.26042122
82	0xbe4b23f5	-0.19837935
83	0x3e0cd2f3	0.13752346
84	0x3da2d899	0.07951469
85	0x3d891b1c	0.06694624
86	0x3c610e1b	0.013736273
87	0x3e1df50c	0.15425509
88	0x3e0f8493	0.14015417
89	0xbe3928d5	-0.18081982
90	0x3e3019e8	0.17197382
91	0x3ea0031e	0.31252378
92	0xbe138e01	-0.14409639
93	0xbd959c22	-0.073051706
94	0xbe6cc678	-0.23122585
95	0xbda541d1	-0.08069194
96	0x3e35db70	0.1775949
97	0x3d468bd4	0.048473194
98	0x3e813271	0.25233796
99	0x3e914f4b	0.28380808
100	0x3eb1b960	0.34711742
101	0x3eac68c9	0.33673695
102	0x3ed25c99	0.4108627
103	0x3e2de480	0.16981697
104	0x3e63c02c	0.22241277
105	0x3e7d6f78	0.24749553
106	0x3e82196c	0.2541002
107	0x3e1940e6	0.14966163
108	0x3d97fe97	0.07421606
109	0x3e8fd18d	0.28089562
110	0x3ea365bb	0.31913552
111	0x3eb110ee	0.3458323
112	0x3eb18bb0	0.34676886
113	0xbd13ab77	-0.036052193
114	0x3d4533e1	0.04814518
115	0x3e31fcb8	0.17381561
116	0x3e463f9d	0.19360204
117	0x3eac4398	0.3364532
118	0x3e45e37f	0.19325064
119	0x3e475c06	0.19468698
120	0x3d82fb9a	0.063956454
121	0x3deb948d	0.11502943
122	0x3ece4bfd	0.4029235
123	0x3e811d5e	0.25217718
124	0x3eb5dbe5	0.3551933
125	0x3e97e09f	0.2966356
126	0x3e7f7ff1	0.2495115
127	0x3de1d9e5	0.11027888

lstm.hh.rho_bias f4 [128]
0	0xc030ab1c	-2.7604437
1	0xc0314821	-2.7700274
2	0xc01fa274	-2.4942904
3	0xc0312c4a	-2.7683282
4	0xc040f509	-3.0149558
5	0xc0333319	-2.7999938
6	0xc0334c61	-2.8015368
7	0xc030bbb5	-2.7614567
8	0xc0253265	-2.5812008
9	0xc0216824	-2.5219812
10	0xc02a0aa2	-2.656899
11	0xc023a8fd	-2.5571892
12	0xc02be994	-2.6861315
13	0xc01bc7ea	-2.4340768
14	0xc03250a7	-2.7861726
15	0xc036703d	-2.8506005
16	0xc034af03	-2.8231819
17	0xc014a931	-2.3228266
18	0xc032247d	-2.783477
19	0xc023dffd	-2.5605462
20	0xc0306b8b	-2.756564
21	0xc02cdd16	-2.700994
22	0xc02446f5	-2.5668309
23	0xc035d2c8	-2.84099
24	0xc03f8a16	-2.992803
25	0xc0259276	-2.5870643
26	0xc03028ad	-2.7524827
27	0xc02f1eed	-2.7362626
28	0xc034ce13	-2.8250778
29	0xc037203b	-2.8613422
30	0xc02e8d53	-2.7273757
31	0xc02db4b8	-2.7141552
32	0xc0366fc2	-2.8505712
33	0xc0317983	-2.7730415
34	0xc026e91e	-2.6079783
35	0xc02912c5	-2.6417706
36	0xc0361533	-2.845044
37	0xc0356377	-2.8341959
38	0xc0221384	-2.5324411
39	0xc017e194	-2.3731432
40	0xc02d1313	-2.7042892
41	0xc01a1741	-2.4076693
42	0xc0351873	-2.8296173
43	0xc01a7fd6	-2.4140525
44	0xc045f77d	-3.0932305
45	0xc015bf5c	-2.3398046
46	0xc03c096c	-2.938075
47	0xc027c4c0	-2.6213837
48	0xc031f1ec	-2.7803907
49	0xc0282581	-2.627289
50	0xc02f410d	-2.7383454
51	0xc03a6fe8	-2.9130802
52	0xc01e79f7	-2.4761941
53	0xc01da258	-2.4630337
54	0xc03bf8fd	-2.937072
55	0xc03868e9	-2.8814032
56	0xc0354630	-2.832409
57	0xc02e13e3	-2.7199638
58	0xc02e6712	-2.725041
59	0xc014ca43	-2.324845
60	0xc02f7c33	-2.7419555
61	0xc029f0e1	-2.655327
62	0xc025f1e7	-2.5928895
63	0xc034791f	-2.8198926
64	0xc04116c5	-3.0170147
65	0xc0381f18	-2.8768978
66	0xc02ef0cc	-2.733447
67	0xc040cf8b	-3.0126674
68	0xc037e8fa	-2.8735948
69	0xc038d4e2	-2.8879933
70	0xc02e172e	-2.7201648
71	0xc035423c	-2.8321676
72	0xc03c792d	-2.944896
73	0xc02b8186	-2.6797805
74	0xc03468ce	-2.8188968
75	0xc04020e8	-3.0020084
76	0xc03fdbc7	-2.9977891
77	0xc0360e6a	-2.8446298
78	0xc03508ab	-2.828654
79	0xc0356f6d	-2.834926
80	0xc043ea3d	-3.0611718
81	0xc03dc1ee	-2.9649615
82	0xc035afbf	-2.8388517
83	0xc0395ae9	-2.8961737
84	0xc0398283	-2.8985908
85	0xc03e0981	-2.96933
86	0xc0317ba4	-2.7731714
87	0xc041fdf6	-3.0311255
88	0xc0380a96	-2.875646
89	0xc037a6eb	-2.8695629
90	0xc0369a89	-2.853182
91	0xc036897c	-2.8521414
92	0xc03e89e4	-2.9771662
93	0xc034bb33	-2.8239257
94	0xc0465038	-3.0986462
95	0xc03e3f3c	-2.9726095
96	0xc025b076	-2.5888953
97	0xc02e8784	-2.7270212
98	0xc02c3063	-2.6904533
99	0xc030eb1b	-2.7643497
100	0xc023d65f	-2.5599592
101	0xc02339cb	-2.5504024
102	0xc02eac7c	-2.7292776
103	0xc0315d11	-2.7713053
104	0xc02a01f5	-2.6563694
105	0xc031df19	-2.7792418
106	0xc02c56ba	-2.6927934
107	0xc02b8acb	-2.6803463
108	0xc03ac970	-2.9185448
109	0xc02fccb4	-2.746869
110	0xc022591d	-2.536689
111	0xc02279d4	-2.5386858
112	0xc02940a0	-2.6445694
113	0xc03b3af2	-2.9254727
114	0xc0404b59	-3.0045989
115	0xc01fcd26	-2.4968963
116	0xc0360df7	-2.8446023
117	0xc03387f8	-2.8051739
118	0xc02a6717	-2.662542
119	0xc02bb0c3	-2.6826637
120	0xc02e6f36	-2.7255378
121	0xc036d743	-2.8568885
122	0xc038077a	-2.8754563
123	0xc0329971	-2.7906153
124	0xc0296024	-2.646493
125	0xc02e92e0	-2.7277145
126	0xc02ded0e	-2.7175937
127	0xc02e7440	-2.7258453

l1.mu_weight f4 [16, 32]
0	0xbebad4eb	-0.3649057
1	0x3ea5aca0	0.32358265
2	0xbeee1837	-0.4650285
3	0x3f0535ea	0.5203539
4	0xbf094283	-0.53617114
5	0x3ed7ed59	0.4217327
6	0xbefee687	-0.49785253
7	0x3ecba810	0.3977666
8	0xbee978e2	-0.4560004
9	0xbeb03e87	-0.34422705
10	0xbeeac538	-0.4585359
11	0xbf103b3e	-0.56340396
12	0x3f01eb11	0.5074931
13	0xbee0827c	-0.43849552
14	0xbea66283	-0.32497033
15	0xbee09caa	-0.43869525
16	0x3ec81435	0.39077917
17	0x3f0f704f	0.56030744
18	0x3efe6b61	0.496913
19	0xbece6cd3	-0.403174
20	0x3f179ae0	0.59220695
21	0xbf0d7c7b	-0.5526807
22	0xbebda2b1	-0.37038186
23	0x3ec085fd	0.37602225
24	0x3f2be212	0.6714183
25	0x3ec29361	0.38003066
26	0xbedf1749	-0.43572453
27	0xbf09262f	-0.5357389
28	0x3e82320a	0.25428802
29	0x3f02d247	0.5110211
30	0x3efd48a5	0.49469486
31	0x3f23d4b5	0.6399644
32	0x3efbafa6	0.49157447
33	0xbebb35ec	-0.36564577
34	0x3ee6ba94	0.45064223
35	0xbee73e05	-0.45164505
36	0x3ecc8a83	0.39949426
37	0xbf06000c	-0.5234382
38	0x3eb0d181	0.3453484
39	0xbe9ab4a0	-0.3021593
40	0x3f109602	0.56478894
41	0x3eaca2c5	0.33717933
42	0x3ef78557	0.48343918
43	0x3eea09f3	0.45710716
44	0xbe8e9d9d	-0.27854624
45	0x3f06abef	0.526061
46	0x3ed21549	0.41031864
47	0x3ef42779	0.47686365
48	0xbeac70fd	-0.33679953
49	0xbefe950d	-0.49723092
50	0xbebf2541	-0.3733311
51	0x3efd35a2	0.4945498
52	0xbea0e8a2	-0.31427485
53	0x3ed76ff6	0.42077607
54	0x3ef1f580	0.47257614
55	0xbf0b3907	-0.5438389
56	0xbeec074c	-0.46099317
57	0xbee44437	-0.44583294
58	0x3f024ffa	0.50903285
59	0x3ea92f4c	0.33043897
60	0xbec953bf	-0.39321706
61	0xbf1bda24	-0.6087973
62	0xbeef7210	-0.4676671
63	0xbeeb1a91	-0.45918706
64	0x3f20a333	0.6274902
65	0xbe421e9a	-0.18956986
66	0x3effd82c	0.49969614
67	0xbef60047	-0.48047087
68	0x3f011e18	0.50436544
69	0xbea61b08	-0.32442498
70	0x3ebc6758	0.36797595
71	0xbeecded4	-0.46263754
72	0x3ec90942	0.39264876
73	0x3edca7d0	0.4309678
74	0x3ea109d4	0.3145281
75	0x3ebae41a	0.36502153
76	0xbf1a5a03	-0.60293597
77	0x3f28228b	0.6567771
78	0x3f1556e1	0.5833569
79	0x3ee1f433	0.44131622
80	0xbef24b90	-0.47323275
81	0xbeea9640	-0.45817757
82	0xbef7b662	-0.48381335
83	0x3ee9192f	0.45527026
84	0xbf1c8b3e	-0.61149967
85	0x3f0a7bf1	0.5409537
86	0x3ece74cf	0.40323493
87	0xbe261c54	-0.16221744
88	0xbf1a2b30	-0.6022215
89	0xbf1a16a0	-0.60190773
90	0x3f156310	0.5835428
91	0x3ee1986e	0.44061607
92	0xbf02a590	-0.5103388
93	0xbf07b837	-0.53015465
94	0xbef598c1	-0.47968104
95	0xbf0a0015	-0.53906375
96	0x3ed381d3	0.41309986
97	0xbf013b34	-0.5048096
98	0x3e37d347	0.1795169
99	0xbeb21808	-0.3478396
100	0x3ed3cedf	0.41368768
101	0xbef812bb	-0.4845179
102	0x3e75f750	0.24020123
103	0xbef695a2	-0.48161036
104	0x3f08de3b	0.53464097
105	0x3e56252a	0.20912614
106	0x3e8528e2	0.26007754
107	0x3ed489e0	0.4151144
108	0xbef3bba7	-0.47604105
109	0x3ede867a	0.43461972
110	0x3ebdcddb	0.37071118
111	0x3f00e554	0.50349927
112	0xbed46b7f	-0.41488263
113	0xbf03bacb	-0.514569
114	0xbef1bc16	-0.4721381
115	0x3ef376c3	0.47551546
116	0xbecae873	-0.3963047
117	0x3f0aaa0a	0.5416571
118	0x3ebf21d3	0.37330493
119	0xbedc77a0	-0.43060017
120	0xbedb11c6	-0.42786998
121	0xbec4630a	-0.3835681
122	0x3ed8e0d8	0.42359042
123	0x3f22f6a4	0.63657594
124	0xbeaad636	-0.33366555
125	0xbf1317a9	-0.5745798
126	0xbeb0dfcd	-0.34545746
127	0xbefeaf07	-0.4974291
128	0x3e93ba73	0.28853187
129	0xbf0afb2e	-0.5428952
130	0x3ee69932	0.45038754
131	0xbf18aa3e	-0.5963477
132	0x3ef92166	0.48658293
133	0xbe9b7191	-0.30360082
134	0x3eabf969	0.33588722
135	0xbf005f97	-0.5014586
136	0x3e6389d3	0.22220545
137	0x3f28bdab	0.6591441
138	0x3ed1e94e	0.4099831
139	0x3ede4d11	0.43418172
140	0xbef9a77e	-0.487606
141	0x3ea65e7f	0.3249397
142	0x3ebe4044	0.37158406
143	0x3ed7fa8a	0.42183334
144	0xbefe4ef3	-0.49669608
145	0xbefad6fa	-0.4899214
146	0xbe8ba260	-0.2727232
147	0x3f2035b8	0.6258197
148	0xbee66cd5	-0.45004907
149	0x3f0de208	0.5542302
150	0x3f0c5dfd	0.54830915
151	0xbe94fd6c	-0.29099596
152	0xbecf140a	-0.40444976
153	0xbee66043	-0.44995317
154	0x3f01d0ef	0.5070943
155	0x3ef9b042	0.48767287
156	0xbf140957	-0.5782675
157	0xbe7cbcae	-0.2468135
158	0xbf0f2109	-0.5590978
159	0xbea29d5c	-0.3176068
160	0x3efab27e	0.48964304
161	0xbebff288	-0.37489724
162	0x3f1a84e1	0.6035901
163	0xbeec8280	-0.46193314
164	0x3f0048fc	0.50111365
165	0xbed1682a	-0.40899783
166	0x3ed288da	0.41120034
167	0xbed943ce	-0.42434543
168	0x3ed84079	0.4223669
169	0x3ed5eede	0.41783804
170	0x3eb81fa2	0.35961634
171	0x3ec986c6	0.39360636
172	0xbedece55	-0.43516794
173	0x3f1852fd	0.5950163
174	0x3f100146	0.56251943
175	0x3ef6887c	0.48151004
176	0xbe8aaa3a	-0.27082998
177	0xbefbb68e	-0.49162716
178	0xbf1785e9	-0.59188706
179	0x3eccb991	0.39985326
180	0xbe7ef776	-0.24899086
181	0x3f30eff6	0.6911615
182	0x3f0ef627	0.5584435
183	0xbf1ce60f	-0.6128854
184	0xbf0e1ae9	-0.5550981
185	0xbf014163	-0.504904
186	0x3ec48c12	0.38388115
187	0x3eff72f5	0.49892393
188	0xbf182f53	-0.5944721
189	0xbee5cd70	-0.448833
190	0xbf1b5073	-0.6066963
191	0xbec2ab16	-0.38021153
192	0x3ee6dc58	0.45089984
193	0xbec78e4c	-0.3897575
194	0x3ec48883	0.383854
195	0xbefffd03	-0.4999772
196	0x3ed10760	0.4082594
197	0xbe4d6dd0	-0.20061421
198	0x3f007771	0.50182253
199	0xbed7ad0f	-0.4212422
200	0x3e9ff9e4	0.3124534
201	0x3ef23caa	0.47311908
202	0x3f0154b0	0.5051985
203	0x3f0911e1	0.53542906
204	0xbf008dc5	-0.50216323
205	0x3ed3f476	0.41397446
206	0x3f08088b	0.53138036
207	0x3ed0cabf	0.40779683
208	0xbef798fe	-0.4835891
209	0xbea73d31	-0.32663873
210	0xbeea224b	-0.45729288
211	0x3ea2421c	0.31691062
212	0xbf146345	-0.57963973
213	0x3ebce479	0.3689306
214	0x3ed53715	0.41643587
215	0xbf0a986c	-0.5413883
216	0xbebd6ca9	-0.36996964
217	0xbeed65b6	-0.46366662
218	0x3ecef573	0.40421638
219	0x3eaf7149	0.34266117
220	0xbed137de	-0.40862936
221	0xbedcf61e	-0.43156523
222	0xbf0b1496	-0.54328287
223	0xbed9aa5d	-0.4251279
224	0x3f0b44f8	0.5440211
225	0xbe617581	-0.2201748
226	0x3f26a589	0.65096337
227	0xbeceb1bd	-0.4036998
228	0x3f029250	0.51004505
229	0xbeb1954e	-0.34684223
230	0x3ec7cc01	0.3902283
231	0xbee68641	-0.45024303
232	0x3eb02ced	0.34409276
233	0x3f10800e	0.56445396
234	0x3eeaff24	0.45897782
235	0x3ef2f0f6	0.47449464
236	0xbee0d960	-0.43915844
237	0x3e9c503e	0.3052997
238	0x3ee9b160	0.4564314
239	0x3ef9f8df	0.48822686
240	0xbf138136	-0.57619035
241	0xbeebde74	-0.46068156
242	0xbf0532da	-0.5203072
243	0x3ef1eabe	0.47249407
244	0xbf03b049	-0.51440865
245	0x3efe8695	0.49712053
246	0x3ea37270	0.31923246
247	0xbec8c55d	-0.39213076
248	0xbf0a719c	-0.54079604
249	0xbec03692	-0.37541634
250	0x3f028679	0.5098644
251	0x3ee02f07	0.4378588
252	0xbf01b3b8	-0.50664854
253	0xbf033da1	-0.51265913
254	0xbf27df54	-0.65575147
255	0xbec7e7b2	-0.39043957
