BNN/model_states/BNN_model_state_FD001_denoised_CF_RUL.pt (torch, 57845 bytes, 14 tensors)

lstm.ih.mu_weight f4 [128, 14]
00000000: 9ae3 e23d 8a46 ed3d af1b 013e d357 72be
00000010: b14a df3c be1d 9ebe 95a5 383d 6056 d8bd
00000020: 86b8 75bd e66e 3fbd 8efc 4ebd a429 4cbe
00000030: 93c3 fcbd 3f9c f3bc cf72 d4bd 1163 8d3d
00000040: 1605 843e ce71 ddbd 2006 7fbd 28cd 3c3c
00000050: 97be 9e3c 083c a03d 9009 0a3e a9fe 963d
00000060: 10f8 0d3e 38d0 0c3e 6f17 1dbd 6462 bf3d
00000070: db5c a4bd 5541 f23b 2d21 393d 5726 063c
00000080: 1f65 06be 5d33 09be 9037 973d 2fd3 1d3e
00000090: 71b2 973d 6887 cbbd 8cba 323d d0c9 afbd
000000a0: e2ea 7fbe e5b6 8d3d b50a 9cbe 5bc2 9cbd
000000b0: 8162 30be 4f4c 7d3e 9370 e1bd 95fa a03d
000000c0: 739b 30bd 16f0 d83d eca9 203e 3a73 9e3d
000000d0: d2d6 53be 655a a53d 451f a4bc 8bf1 8d3c
000000e0: e192 86be c62c 12bd c3d6 e13c a2a8 0a3d
000000f0: f2bf 5fbd 1ef8 123e 8daf 82bd d67b 2e3e
00000100: d3a2 4c3e 7210 093b 3e72 093e c5a5 853c
00000110: 1caa 5e3c a647 61bc 7c62 1cbe a423 c43c
00000120: d810 fabd 9061 1c3e f090 2fbd 61f2 56be
00000130: 8d32 15be 4d41 3fbc 0aa3 c5be d1cf 6ebe
00000140: 3e81 2abd 64dc 88be 26fd 43bd e1bf 8d3d
00000150: 4b57 2f3e 584b 603e 8ed3 5f3e fab1 bcbd
00000160: 1dc3 053e 343e e0bd 77b3 983d d72a 563d
00000170: b1e7 d9bd 5a52 6bbe 1e31 953e e852 fd3d
00000180: d2f8 dabe c982 c1bc b61a c23c 8fb6 a5bd
00000190: b677 3f3c 9ec0 3c3d 2b5c e23c ce87 aebd
000001a0: eade 93bd 4378 c43c 8ce9 01be 3e79 783d
000001b0: 796d 4b3d 1deb b63c 62e5 49bc 1b9d 2c3d
000001c0: bc52 8abe b6b2 08bd f1f9 eebd 9a85 b53d
000001d0: 6b88 1e3c 40e0 f03d efcc 05bd 3771 3c3e
000001e0: c5a8 ce3c 694b 3d3c cefa b2bd 2e43 483d
000001f0: 1b30 5a3e 535c f33d 5d81 d0bc f772 09bd
00000200: bd6a 233e be47 0b3e bec1 4bbe 7499 42be
00000210: 6cf9 0dbd 73a6 383e c5bb 803d 3e88 9c3d
00000220: 6851 7d3c 975c e0bc 453d c1bd 550c 053e
00000230: 9334 fabd 6a83 323d a4cc cdbd 6b20 f03d
00000240: b1dd 0bbe 0bcc ce3d 20e1 093e fa8a 363e
00000250: 22fe 913c afde b2bd 54b3 16be ebca 4bbc
00000260: aa3b 073e 7b73 173e 98ee aabe b7fc f0bc
00000270: 5926 bebe b689 123e 5c32 4abe 54e7 38bd
00000280: 9036 9dbe a150 a43e d653 b93d 6d7c f7bc
00000290: bb53 81be 2a82 88be 0e8a 133e 2c0f de3d
000002a0: 0e48 92be c7a3 03be d14e 1bbd 6604 8b3e
000002b0: 6b7e 8abe 5bbc 60be 3fd4 b2bd 1384 a03e
000002c0: 5015 f3bd 543c b3bc 0d08 93be 12af d0bc
000002d0: 3caf 813d 387c 95bc 79a4 b9be ec06 30be
000002e0: 8faf e1bd ef1c f8bc 7e62 70be a911 e9bd
000002f0: 0403 643d b522 323e a3ec 3e3e 7959 46bb
00000300: 9c45 3bbd c7e7 81be 4ce7 273e ebe7 003e
00000310: 987b 76be 82a1 73bc 1575 95bd 9c82 923e
00000320: 7aa1 a93d 791d 703e e270 b5bd 019e 8a3d
00000330: fbe0 ec3d 7e3d e63d d100 f2bc ea3e 3f3b
00000340: ef3f 0fbc 4814 b7b9 65ed 26be 93d1 80be
00000350: d032 73bd f24d 813e d0ec 1fbd 7bab 94be
00000360: 3656 1fbe 18cc 4a3e e222 12bd 3a11 573e
00000370: de21 64be 3c58 64bd 446b 503e 3e4e 593e
00000380: bc41 95bc 9ec6 e63d 0bf6 dbbd 48e4 4d3d
00000390: 0cdc 08be e5a0 723d fa3a 05be 37c0 8f3e
000003a0: 008b 13be 9c79 8abe 0884 8fbe b0ce 55be
000003b0: 7575 0a3e f30e 013e 7031 1c3d 3faa be3d
000003c0: 1716 383d 9a11 d9bd afdd 73bc 496a 2b3d
000003d0: 85bc 633d 7cfd 93bd 56c0 963d 0de7 9e3d
000003e0: 8866 223e 8e56 1bbc ba38 1abd cd88 21bd
000003f0: ae76 dc3c 02e7 003e c613 cb3d 7f04 aebc
0.11078568 0.1158572 0.12608217 -0.23666315 0.027257295 -0.30882066 0.045079786 -0.1056335
-0.05999043 -0.04673662 -0.050533824 -0.1993776 -0.1234199 -0.02973759 -0.103734605 0.06903661
0.2578513 -0.10812722 -0.0622617 0.011523522 0.01937799 0.0782395 0.1348021 0.07372791
0.1386416 0.13751304 -0.038352426 0.093449384 -0.08025523 0.007393042 0.045197655 0.008187852
-0.13124512 -0.133985 0.073836446 0.15412591 0.07407082 -0.09937936 0.043634936 -0.085834146
-0.24991944 0.0691965 -0.3047692 -0.07654258 -0.17225076 0.2473614 -0.110078 0.07860295
-0.043116998 0.10592668 0.1568982 0.077368215 -0.20687416 0.08073882 -0.020034442 0.01732709
-0.26283935 -0.03568723 0.027568227 0.033852227 -0.054626413 0.14352462 -0.0638114 0.17039427
0.19983988 0.0020914343 0.13422486 0.016314397 0.013590362 -0.0137499925 -0.15271944 0.023942776
-0.12210244 0.15271592 -0.042862833 -0.20990898 -0.14570065 -0.011673284 -0.3860095 -0.23321463
-0.04162716 -0.26730645 -0.047848843 0.069213636 0.17123143 0.21903741 0.21858045 -0.09213634
0.13062711 -0.10949364 0.07456105 0.05228695 -0.10639895 -0.22980633 0.29139036 0.12369329
-0.4276796 -0.023621934 0.023694377 -0.08091461 0.011686256 0.04608213 0.02763184 -0.085219964
-0.07220252 0.023983127 -0.12686747 0.0606625 0.049664948 0.022328908 -0.0123227555 0.042142015
-0.27016246 -0.033373557 -0.11668766 0.08863373 0.009676079 0.11761522 -0.032666143 0.18402563
0.02522696 0.011553624 -0.087392434 0.048892193 0.21307413 0.11882844 -0.02545231 -0.033556905
0.15958686 0.13601586 -0.19898126 -0.1900385 -0.034661695 0.18032245 0.06285814 0.07643174
0.015461303 -0.0273879 -0.09435514 0.12992986 -0.12217059 0.043582357 -0.10048798 0.11724933
-0.13658787 0.10097512 0.13464785 0.17826453 0.017821375 -0.0873388 -0.14716846 -0.012438516
0.13206354 0.14790146 -0.33385158 -0.029417379 -0.37138632 0.14310345 -0.19745773 -0.045142487
-0.3070569 0.32092765 0.090491936 -0.030210698 -0.25259194 -0.26661807 0.14408132 0.108427376
-0.28570598 -0.12855445 -0.037916962 0.27151793 -0.27049574 -0.21946852 -0.08731889 0.31350765
-0.118692994 -0.021879353 -0.2871708 -0.025474105 0.063322514 -0.018247709 -0.36258295 -0.1719014
-0.11019813 -0.030287234 -0.23475072 -0.113803215 0.05566694 0.17396052 0.18644957 -0.0030265732
-0.04572068 -0.25372145 0.16396827 0.1258847 -0.24070585 -0.014870049 -0.07297722 0.28615272
0.08282752 0.23448743 -0.08859421 0.06768418 0.11566349 0.112421975 -0.029541405 0.0029181787
-0.00874327 -0.0003491959 -0.16301496 -0.25159892 -0.05937463 0.2525478 -0.0390442 -0.2903708
-0.1556023 0.19804418 -0.035677798 0.21002665 -0.22278544 -0.05574821 0.20353419 0.21221253
-0.018219821 0.11268352 -0.10740288 0.050266534 -0.13365191 0.059235472 -0.13010779 0.28076336
-0.14408493 -0.27045906 -0.2803042 -0.20879626 0.13521369 0.12603359 0.038133085 0.093098156
0.04494294 -0.1059906 -0.014884396 0.04184941 0.055599708 -0.07226083 0.07360904 0.07758913
0.15859425 -0.009481085 -0.037651755 -0.039437104 0.02691206 0.12588122 0.09915881 -0.021242378

lstm.ih.rho_weight f4 [128, 14]
00000000: 0f2e 38c0 2f5e 34c0 c534 42c0 8c0f 42c0
00000010: 61ff 3bc0 7ca5 36c0 9dff 39c0 babe 47c0
00000020: d7cf 35c0 a86f 2cc0 4f8b 3ec0 4a8b 3dc0
00000030: 874c 40c0 522c 3cc0 80f1 2ac0 4220 3cc0
00000040: bb70 35c0 44b0 33c0 915d 2dc0 e7f2 2dc0
00000050: 3c7a 30c0 73a9 31c0 3ef1 36c0 c614 35c0
00000060: 0be0 26c0 db19 2fc0 727e 2fc0 e39f 37c0
00000070: c8a0 38c0 56f2 40c0 183f 3bc0 b2a1 46c0
00000080: f211 42c0 9216 3ec0 481d 37c0 d420 39c0
00000090: d7ca 38c0 cec9 3bc0 786e 33c0 f5e8 3dc0
000000a0: 3d7d 32c0 67f4 36c0 e21f 43c0 79d4 3bc0
000000b0: c868 3bc0 041f 43c0 f869 48c0 5d51 37c0
000000c0: 5237 33c0 b44d 30c0 65d3 39c0 b8dc 3ac0
000000d0: 4d09 35c0 ca4c 35c0 e27d 3ec0 1d02 31c0
000000e0: 69c4 3bc0 9099 32c0 c155 40c0 5fc3 2bc0
000000f0: 6f4d 37c0 ef5b 45c0 ddba 40c0 0daf 39c0
00000100: 245f 36c0 3f84 34c0 1b9e 35c0 bca9 50c0
00000110: bba4 2cc0 8dec 38c0 3ea2 3dc0 1334 2bc0
00000120: 9942 40c0 aba4 37c0 ed18 3cc0 f468 35c0
00000130: b092 40c0 d371 39c0 f353 44c0 7b36 42c0
00000140: 1537 2ec0 f5d8 34c0 044a 3bc0 5815 3bc0
00000150: f56b 38c0 aaac 3cc0 d4f1 3cc0 2781 40c0
00000160: 9085 31c0 dbae 2cc0 5f55 3ac0 9951 43c0
00000170: f625 3ec0 4231 31c0 03e3 33c0 a861 37c0
00000180: 68ea 39c0 60b2 37c0 3567 2dc0 0d7a 3bc0
00000190: 3473 30c0 fc1c 30c0 6081 33c0 4d8f 3dc0
000001a0: 5ffd 44c0 0b16 3ac0 5610 34c0 f5df 29c0
000001b0: 12da 40c0 e742 39c0 310d 31c0 f11f 36c0
000001c0: 2695 36c0 9c0d 35c0 1b13 2fc0 537d 40c0
000001d0: 6e8a 40c0 1ca5 3cc0 c4db 31c0 ac8d 3cc0
000001e0: 1687 42c0 9a7f 2ec0 c981 3cc0 d97e 3fc0
000001f0: 0430 3ac0 edb2 39c0 e34b 3fc0 84f1 33c0
00000200: 1099 37c0 41c7 39c0 8e4a 3bc0 aba4 33c0
00000210: fc64 30c0 2f3d 3bc0 bd36 38c0 c7e4 30c0
00000220: 4a95 31c0 c9d6 40c0 4c72 33c0 cc86 36c0
00000230: 7e34 2cc0 63ae 3cc0 6877 37c0 9163 2ac0
00000240: d827 4ec0 b870 2cc0 f1ad 29c0 e8b0 33c0
00000250: b0d3 28c0 3026 2ec0 3e44 2dc0 a222 45c0
00000260: 8510 39c0 c19f 3bc0 f0d8 3cc0 b72c 39c0
00000270: ab2e 3dc0 7d83 34c0 de59 33c0 f3bf 37c0
00000280: b8e3 3bc0 4344 42c0 31b6 39c0 fc00 43c0
00000290: 2f7d 3cc0 3edb 36c0 aa95 34c0 4de6 30c0
000002a0: 6edb 3cc0 5323 34c0 0422 37c0 191b 34c0
000002b0: 3428 38c0 3f39 2cc0 1774 2dc0 b38b 35c0
000002c0: 6698 32c0 3a44 3dc0 6c3d 3ac0 7ea8 31c0
000002d0: 291e 3bc0 8da9 3cc0 941a 36c0 df51 37c0
000002e0: 7818 36c0 6407 3cc0 8aa6 43c0 6c5b 39c0
000002f0: b53c 41c0 147b 3ec0 d7d0 40c0 e42f 42c0
00000300: d46b 37c0 7b26 3fc0 bd65 31c0 49a2 3ec0
00000310: 8c6d 36c0 e55f 36c0 48d8 35c0 ebe5 45c0
00000320: a488 45c0 e114 35c0 921f 39c0 72b3 34c0
00000330: 105b 31c0 56c6 40c0 7fc0 37c0 5efb 3dc0
00000340: 3689 3fc0 8244 43c0 6586 3fc0 d85f 3bc0
00000350: 9b91 3bc0 9bf2 35c0 9905 40c0 4e47 2cc0
00000360: da7c 30c0 8a5a 30c0 7842 3dc0 da4d 30c0
00000370: f6c9 36c0 6364 36c0 6a14 33c0 d00e 32c0
00000380: c8ab 46c0 8cae 3fc0 44b4 38c0 e697 3cc0
00000390: ef9e 3fc0 c0fe 3bc0 deb6 35c0 7673 3bc0
000003a0: ec8c 45c0 05b5 37c0 8ed7 33c0 d7ec 31c0
000003b0: d384 41c0 1bb7 41c0 e64f 3ec0 5c6c 3dc0
000003c0: 7e78 39c0 0921 2ec0 edad 36c0 ecb0 35c0
000003d0: 113a 3ac0 99bd 3ac0 acaf 3bc0 4d1e 2cc0
000003e0: d837 37c0 2856 31c0 0698 38c0 d845 35c0
000003f0: d4e9 42c0 1aa4 35c0 9a20 3fc0 0820 3bc0
-2.8778112 -2.8182485 -3.0344708 -3.032199 -2.937462 -2.8538504 -2.9062264 -3.121016
-2.8408105 -2.694315 -2.9772527 -2.9616265 -3.0046709 -2.940205 -2.67099 -2.9394689
-2.8350055 -2.8076334 -2.7088358 -2.7179506 -2.7574606 -2.7759674 -2.8584743 -2.829393
-2.6074245 -2.735953 -2.7420926 -2.8691337 -2.8848133 -3.014791 -2.925726 -3.103619
-3.0323453 -2.9701276 -2.8611622 -2.8926287 -2.8873804 -2.9341922 -2.8036175 -2.9673436
-2.788894 -2.8586671 -3.048821 -2.9348433 -2.9282703 -3.048768 -3.1314678 -2.864341
-2.8002515 -2.7547426 -2.9035275 -2.9197216 -2.8286927 -2.8328118 -2.9764333 -2.765754
-2.933863 -2.7906227 -3.005234 -2.6837995 -2.8641012 -3.0837362 -3.0114052 -2.9013093
-2.849557 -2.8205717 -2.837775 -3.2603598 -2.6975543 -2.889438 -2.9630275 -2.6750534
-3.0040648 -2.8694255 -2.9390213 -2.8345308 -3.008953 -2.8975723 -3.0676239 -3.0345752
-2.722112 -2.825742 -2.9263926 -2.9231777 -2.8815892 -2.9480386 -2.95226 -3.0078828
-2.773777 -2.6981723 -2.9114606 -3.0518553 -2.971067 -2.7686315 -2.8107307 -2.8653355
-2.904932 -2.8702621 -2.7094243 -2.9293244 -2.7570314 -2.751769 -2.8047714 -2.9618714
-3.0779645 -2.9075954 -2.813497 -2.6542943 -3.01331 -2.8947084 -2.7664301 -2.8456995
-2.8528533 -2.8289557 -2.735541 -3.0076492 -3.008449 -2.9475775 -2.7790384 -2.946147
-3.039495 -2.7265382 -2.9454215 -2.9921172 -2.9091806 -2.9015458 -2.9890068 -2.811616
-2.8687172 -2.9027865 -2.9264255 -2.8069255 -2.7561636 -2.9256094 -2.878341 -2.7639635
-2.774737 -3.0131094 -2.8038511 -2.8519773 -2.6907039 -2.9481437 -2.866663 -2.662327
-3.2211819 -2.6943798 -2.6512415 -2.8076725 -2.6379204 -2.7210808 -2.7072902 -3.0802388
-2.8916333 -2.9316256 -2.9507408 -2.8933542 -2.9559734 -2.8205254 -2.80236 -2.8710907
-2.9357738 -3.0354164 -2.901745 -3.046935 -2.9451406 -2.8571315 -2.8216348 -2.7640564
-2.950893 -2.814656 -2.8614511 -2.814154 -2.8774538 -2.690994 -2.7102106 -2.8366516
-2.7905517 -2.9572892 -2.909999 -2.775909 -2.9237158 -2.9478486 -2.8453722 -2.864372
-2.8452435 -2.937951 -3.0570397 -2.896205 -3.0193303 -2.976262 -3.0127466 -3.034173
-2.8659563 -2.9867237 -2.7718346 -2.978655 -2.8504362 -2.849603 -2.8413258 -3.092158
-3.086465 -2.8293993 -2.892552 -2.8234525 -2.771183 -3.0121055 -2.871124 -2.9684672
-2.9927497 -3.0510564 -2.9925778 -2.9277248 -2.930762 -2.8429325 -3.0003417 -2.691852
-2.7576203 -2.755526 -2.957182 -2.7547517 -2.8560767 -2.849877 -2.798121 -2.782154
-3.1042347 -2.9950285 -2.8860025 -2.9467711 -2.9940755 -2.9374237 -2.8392863 -2.9289222
-3.0867262 -2.8704236 -2.8100314 -2.7800806 -3.023732 -3.0268009 -2.9736266 -2.9597387
-2.8979793 -2.7207663 -2.8543656 -2.8389235 -2.909794 -2.9178221 -2.9325972 -2.6893494
-2.8627834 -2.7708836 -2.8842788 -2.832388 -3.0455217 -2.838141 -2.9863648 -2.92383

lstm.ih.mu_bias f4 [128]
00000000: b2c5 8d3d f2af f63d 8fc0 b73d e81a 19bb
00000010: a23a 283e 56e6 4a3e d071 c83d b335 23bb
00000020: 491a 8a3d 115e dfbd 964c 01bd 808c 473d
00000030: 2c26 6f3e 21d5 ac3c b184 583d 730c 6b3d
00000040: 81ae 6bbe d669 d13d 1243 913d 57b0 563d
00000050: 42b5 61bc b1c0 5bbc 6019 3abe f508 a03b
00000060: 50fd 193d fa19 aa3c 3e07 9d3e cee0 173e
00000070: 8520 8d3e 6252 3cbd 4f40 2c3e c966 d8bd
00000080: ebb1 203e c654 c13d 29c8 e43d 7ecf 033e
00000090: 6e22 f13d f022 673d 6c3e 413d a48f 8c3e
000000a0: bd0b 6cbd f921 4abd 6021 ab3d 6a83 e03d
000000b0: fa52 af3d d1ef 07be bcf5 0abe 1c29 543d
000000c0: 77da 14bc a8fd 083e 4c02 993e 5da8 bfbc
000000d0: 72f4 71bd 0bc2 c53c 3cc6 bfbc 6366 ba3d
000000e0: 373d c8bd 89f3 1cbd fecb 7f3e d5cb 2d3e
000000f0: fa69 8f3e 15b7 4abe 56c2 8d3e 2513 eabd
00000100: d7d6 c4be 4e7f 82bc 355e 953e 5431 42be
00000110: 8e03 8a3e 709b 473d 055c 283d 946e c2bd
00000120: e51e 08be 1f60 9e3d 8669 53bd d5c7 943d
00000130: 060a 31be 3cd6 0a3e 3d2a 353e 0b49 8a3d
00000140: 81ca 01bd fe6f 11be be8e 73be 38b7 55bc
00000150: 8110 65be 8845 bb3d d3d7 393b 3c9d 39bd
00000160: ad06 15bd 7b4e 9b3d 3131 e73d 744b 133e
00000170: 512c 5abe df69 3d3e a049 07be 968f 8b3c
00000180: 8eff 113e ff97 7f3e 797f b33d 3951 f23d
00000190: 3bcb 9d3e 962c 773e a1fd 82bd 2da9 213f
000001a0: 46ba 483e bf7c 2e3e a0ac a63d 058b 15bd
000001b0: 5ef9 363e cd1c 543e d85f c13d e712 1f3d
000001c0: bc41 463e e725 813e d67d 073e 2f74 e13d
000001d0: 4b10 ef3d 694e 563e 710e 19bc 9278 ba3e
000001e0: 440a c43d 6ab9 233e e7b0 833d cb1a 3e3e
000001f0: ac3c 823e 1f25 bb3e ef27 a43d c31c a43d
0.06922473 0.12045278 0.089722745 -0.0023361985 0.16428617 0.19814429 0.09787333 -0.0024903833
0.06743295 -0.109066136 -0.03156718 0.048717976 0.23354405 0.021097722 0.05286092 0.05738492
-0.23015787 0.10225265 0.07092871 0.052414265 -0.013776125 -0.01341264 -0.18173742 0.0048838803
0.037595093 0.02076434 0.30669588 0.1483185 0.27563873 -0.045977004 0.16821407 -0.1056648
0.1569287 0.094399974 0.1117099 0.1287212 0.11774145 0.056429803 0.04717867 0.2745334
-0.057628382 -0.049348805 0.08355975 0.10962565 0.085607484 -0.13275076 -0.13570303 0.051797017
-0.009085289 0.13378012 0.29884565 -0.023395712 -0.05907101 0.024140378 -0.023409955 0.0910156
-0.09777301 -0.03831819 0.2498016 0.16972287 0.2801054 -0.19796403 0.2768733 -0.11429433
-0.3844516 -0.015929844 0.29173437 -0.1896413 0.26955837 0.04873222 0.04110338 -0.09493747
-0.13293035 0.077331774 -0.051614307 0.072646774 -0.1728898 0.13558286 0.17691894 0.06752213
-0.031687263 -0.14202878 -0.2378492 -0.013044171 -0.22369577 0.091441214 0.00283574 -0.045315966
-0.03638332 0.07583328 0.112886794 0.14384252 -0.21305968 0.18497418 -0.1321168 0.01703624
0.14257643 0.24960326 0.08764548 0.11831898 0.30819115 0.24138102 -0.06396032 0.63148767
0.19602308 0.17039774 0.08138394 -0.036509532 0.17868564 0.20714112 0.09442109 0.038836386
0.19361013 0.2522423 0.13231596 0.110084884 0.116730295 0.20928349 -0.009341822 0.36420113
0.095722705 0.15988699 0.06430226 0.18564908 0.25436914 0.3655176 0.08015429 0.08013298

lstm.ih.rho_bias f4 [128]
00000000: 45a5 2cc0 2282 21c0 5212 1ec0 baeb 29c0
00000010: 9948 31c0 941f 22c0 0102 24c0 e361 22c0
00000020: 7006 2ec0 d42a 25c0 2622 29c0 5773 32c0
00000030: fafd 1bc0 8d42 35c0 5f5f 36c0 c6c0 34c0
00000040: 05bc 31c0 78ca 30c0 7f0b 1ac0 05dc 26c0
00000050: 16ca 26c0 e11b 2bc0 395c 2dc0 4df3 1ec0
00000060: 212a 30c0 55c4 27c0 270e 26c0 48f4 1fc0
00000070: 9676 22c0 249e 28c0 ec0b 25c0 f19b 28c0
00000080: e349 23c0 0346 10c0 91a1 1ec0 24b5 31c0
00000090: 9e8e 28c0 d520 31c0 8ea7 30c0 4398 30c0
000000a0: 14bb 2dc0 81c9 26c0 de09 33c0 b1a4 3ac0
000000b0: 4f7f 2cc0 6c77 2ac0 ac72 3bc0 c9d4 2fc0
000000c0: 8867 28c0 2b2a 17c0 4584 24c0 c8df 1ec0
000000d0: 75b4 2cc0 fc5c 2ec0 87f5 26c0 dc90 2fc0
000000e0: c97e 32c0 62f5 31c0 5761 0cc0 991a 20c0
000000f0: e431 14c0 33ec 36c0 a60c 1bc0 ba95 37c0
00000100: b07e 30c0 e629 37c0 9ae7 33c0 ea40 3bc0
00000110: 44ab 33c0 826b 38c0 40d7 3ac0 561f 3ac0
00000120: a6a4 45c0 447e 33c0 ca81 27c0 2925 40c0
00000130: b975 39c0 39e8 34c0 30bc 38c0 d3ac 41c0
00000140: 4af1 32c0 8cef 2ac0 eca8 35c0 65f4 37c0
00000150: d4f2 31c0 c1ac 3cc0 afc9 35c0 397d 2ec0
00000160: d973 43c0 65f5 2bc0 2dfa 29c0 7764 35c0
00000170: 105d 45c0 bcfc 38c0 83d7 2ec0 062e 32c0
00000180: b72d 36c0 d443 2cc0 cf6e 2ac0 5f5b 30c0
00000190: 85b7 25c0 ba2e 2fc0 7311 2ac0 5844 1ec0
000001a0: cf30 2bc0 c7b3 1bc0 1cea 1bc0 a598 18c0
000001b0: be06 22c0 fcc3 24c0 93de 1fc0 d4f6 20c0
000001c0: bc5f 25c0 0b5b 3dc0 2d2a 2cc0 3894 2dc0
000001d0: 359a 2fc0 522d 20c0 02c0 34c0 5615 29c0
000001e0: 31a7 31c0 c769 37c0 edaf 2fc0 c186 30c0
000001f0: 9fd2 26c0 e098 24c0 7285 3bc0 e9a1 30c0
-2.6975873 -2.5235677 -2.4698682 -2.6550126 -2.770056 -2.5331774 -2.5626223 -2.5372245
-2.719143 -2.580739 -2.6427093 -2.7882898 -2.4373765 -2.832187 -2.849571 -2.824266
-2.7771008 -2.7623577 -2.4069517 -2.607179 -2.6060843 -2.6735766 -2.7087538 -2.4836
-2.7525713 -2.6213582 -2.5946138 -2.4992847 -2.538488 -2.6346521 -2.5788527 -2.634518
-2.5513847 -2.2542732 -2.4786112 -2.776681 -2.6337047 -2.767629 -2.7602267 -2.7592933
-2.7145433 -2.6060488 -2.7974772 -2.916302 -2.6952703 -2.663539 -2.928874 -2.7473624
-2.631319 -2.3619487 -2.570573 -2.4824085 -2.6985142 -2.7244253 -2.6087358 -2.7432165
-2.7889884 -2.780602 -2.1934412 -2.5016234 -2.315545 -2.8581665 -2.422647 -2.8685136
-2.7577324 -2.8619323 -2.8110108 -2.925837 -2.8073282 -2.8815618 -2.9193878 -2.9081626
-3.0881743 -2.8045816 -2.6172967 -3.002268 -2.8978102 -2.8266737 -2.886486 -3.0261734
-2.795977 -2.6708708 -2.8384352 -2.8742917 -2.780446 -2.948044 -2.8404348 -2.726393
-3.0539458 -2.6868527 -2.6558945 -2.834257 -3.083805 -2.8904257 -2.7319038 -2.784059
-2.8465402 -2.69164 -2.6630132 -2.7555768 -2.5893261 -2.737227 -2.657315 -2.4729214
-2.674854 -2.4328477 -2.436164 -2.3843167 -2.5316615 -2.574462 -2.4979599 -2.5150652
-2.5839682 -2.9586818 -2.6900742 -2.7121716 -2.743787 -2.5027661 -2.8242192 -2.6419272
-2.7758296 -2.8658311 -2.7451127 -2.7582247 -2.6066053 -2.5718307 -2.9300199 -2.7598822

lstm.hh.mu_weight f4 [128, 32]
00000000: 1cab d7bd 71c7 463c 9fe0 033e 4150 173d
00000010: e0da 99bd 5aae 193e 2e30 1fbd 5071 c8bd
00000020: dd37 283b 0569 623e db96 89be 2dff 3a3d
00000030: c548 1abe f34d 28bd 39bb 9d3d 2191 283d
00000040: 05dd 32be 4db1 d6bd a60c 3dbe ec3c febd
00000050: 555f 133d e335 e6bd 8907 5f3e 14dd e93c
00000060: 1d74 53bd 5c7c 8bbd 195d 4c3d d632 a1bc
00000070: 8d30 0a3c 8f1b 213b ee2f be3c c812 033e
00000080: 1ec8 00be b906 703d 0940 0f3e a8f6 87bc
00000090: 795f 853e a4e4 0fbe 8b4b b7bd 9aa1 f7bd
000000a0: b0ba e2bd 051b c23d f61b 09be fa92 143d
000000b0: e553 f2bd 3f8c 743e fd50 8b3e 21c6 b43c
000000c0: e957 ec3d a42a 2cbe 3c9c cfbd 8a83 143d
000000d0: 57bb 5dbe 2826 3b3e 6c71 1cbe 158a 833d
000000e0: 0021 563d 3141 1fbd d018 613e d26f 5a3e
000000f0: c058 a8be b6e8 943c 1027 10be e002 c7bc
00000100: c4f1 6cbe 68b6 50be d6f8 693e 5e8f e0bd
00000110: 2cef 7a3e 031a 293e 2979 91bc b6cc 3abe
00000120: 8a20 f3bd 09e5 303d 3a00 a0bd ff6a ea3d
00000130: 8644 20be 3c7b ca3d 4420 913e bb38 5ebd
00000140: d21d 06be 7092 57be 33b0 cabe 65d7 463e
00000150: 3b34 fdbd 58b7 f83c 6092 d23a 7b38 ed3c
00000160: 117a bb3d 3156 613d 1cdf 5e3e 0b0b 043e
00000170: 4384 b73d 9caa acbd 4f04 82be 731d cfbd
00000180: 52c8 1f3e af21 0fbd 984d d5bd 41b4 903d
00000190: 2f76 8dbd e642 503d 0769 323e ad08 b93d
000001a0: 258d cd3b 94b1 69bd c176 dbbd 24ab f03c
000001b0: c436 adbe 3016 8a3e ecc7 3fbe 0985 723e
000001c0: 5fef d23c 73be 9e3d 8124 9fbe f14b 58be
000001d0: 1846 763b 23f4 4c3e 0771 a33d 2690 dd3d
000001e0: 1906 32be 49ce 2f3e 3d42 0f3d e5b0 ad3d
000001f0: 33b3 ec3d 5f0a d63c 45b9 abbd 1f28 9abe
00000200: b8df c1bd 9480 06be f029 323e d4b2 c9bd
00000210: b4c2 753e 9369 2c3d 359f b5bd 5b78 0abe
00000220: 9de0 08be 65d9 3cbd 3164 80be 484b 8dbd
00000230: 45e6 44be 0b94 d63c f322 d13d 3cac 073c
00000240: a992 4bbd 2b84 8abe c3ad 7dbe 6adf 4c3c
00000250: 1b54 3abe d0ec 473d 3afb 393d 7983 14bb
00000260: 0357 3fbd c3b0 7ebc 1cc3 da3c 2801 383e
00000270: b93a 5ebe 3683 0bbd 6ed1 b1bd a830 b83d
00000280: d4bc a4be 4e24 d53c fadc 103d 09a0 e3bd
00000290: 7127 c53d b877 28bd b6de 1a3d 0e3f 7ebe
000002a0: 9b98 9cbe d1ea 443e 78ef 1cbe c023 c43d
000002b0: a13d 0fbe ce5b 9a3e edcb 55bd de8c 4a3e
000002c0: 9bfb 1a3d 1376 9bbd b56c 4fbe acc6 e9b9
000002d0: e72f 0bbe 909f 333c df23 bd3d 8018 56be
000002e0: cb10 043d 5063 e7bd 7c9a 72bd fe7a 6b3d
000002f0: 0495 133d 9116 aabe 1548 80bd 6e3e 6dbe
00000300: b283 2bbe 1ce5 df3c c0b6 c9bd 0a73 b03d
00000310: a456 083d 38ca 65bc 6a0a 41be 0553 063e
00000320: b25f 12be 35e7 ed3d cb4f a7bd ef6e e3bd
00000330: 6c9f 39be 1948 9abd 71e2 003e 403d 4dbd
00000340: 1a7d 28bd a5fe 0b3e a9f1 febd 27f0 20be
00000350: 2a2d 03bc 99d7 1f3e ff68 d93d 794a 91be
00000360: e427 c2bd 4515 c53d ecc3 923b 2737 2dbe
00000370: d0f8 04bd d555 9c3b c539 85bd a06e c1bd
00000380: ea49 0f3e f442 b93d 9ff6 d3bd 776c febd
00000390: c7bb 07be 9743 e03e 20d1 003e 7dab f93e
000003a0: 64e4 863e 2632 943e ab84 c7be 65fd a73e
000003b0: d359 b2be 5b8f 653e daeb 0b3e be79 f9bc
000003c0: 7764 8b3d 4710 5b3d 4a54 5e3e 79c2 163d
000003d0: 9b31 96bd 9a09 7b3e 87e0 6b3e 1638 a1be
000003e0: 9d84 2dbe e50c 253e 28c0 18bd 2e41 1ebe
000003f0: c546 ac3e bdb9 b1bd 8664 163e 3a09 83be
-0.105306834 0.0121325115 0.12878655 0.03694177 -0.0751245 0.15007916 -0.038864307 -0.09787238
0.0025668063 0.22110374 -0.26872906 0.04565351 -0.15066822 -0.041089963 0.077017255 0.04115403
-0.17467125 -0.10483036 -0.18461856 -0.12413964 0.035979588 -0.11240747 0.21780218 0.028547801
-0.051624406 -0.06810829 0.049893472 -0.01967756 0.008434427 0.0024583077 0.023216214 0.12800133
-0.12576339 0.05860016 0.13989271 -0.016597107 0.26049402 -0.14052063 -0.089499556 -0.1209137
-0.11070764 0.0947781 -0.13389573 0.03627298 -0.11832408 0.23881625 0.27210227 0.022067131
0.11540205 -0.16813141 -0.10137221 0.036258258 -0.21653496 0.18276274 -0.15277642 0.064228214
0.052277565 -0.03888053 0.21982121 0.21331719 -0.3288021 0.018177371 -0.14077401 -0.024293363
-0.23139101 -0.20382082 0.2284883 -0.10964845 0.245053 0.16513829 -0.017757969 -0.18242154
-0.11871441 0.043187175 -0.07812543 0.11446189 -0.1565114 0.09886786 0.2834493 -0.05425332
-0.13097313 -0.21051955 -0.39587554 0.19418104 -0.12363478 0.030360863 0.0016065352 0.028957596
0.09154142 0.05501384 0.21764797 0.12894838 0.08960774 -0.08430979 -0.25393912 -0.10113039
0.1560376 -0.034944233 -0.104151905 0.07065631 -0.06907307 0.05084505 0.17422877 0.09034858
0.0062729293 -0.057054117 -0.1071601 0.029378481 -0.33830845 0.26970053 -0.18728608 0.23683561
0.025748907 0.07751169 -0.31082538 -0.2112272 0.00375784 0.20015006 0.07980543 0.1081851
-0.17385139 0.17168535 0.03497528 0.084810056 0.11557617 0.026127992 -0.08384947 -0.30108735
-0.09466499 -0.13134986 0.1739881 -0.09848562 0.24000055 0.04209287 -0.08868257 -0.13522474
-0.13366933 -0.04610576 -0.2507644 -0.068991244 -0.19228466 0.02619364 0.10211744 0.00828081
-0.049700413 -0.2705396 -0.24773316 0.012504438 -0.18196146 0.048809826 0.045405604 -0.0022661372
-0.04671384 -0.015545073 0.026704364 0.17969191 -0.21702088 -0.03406068 -0.08682524 0.089936554
-0.32175314 0.026018288 0.03536699 -0.11114509 0.096266635 -0.041129798 0.03781005 -0.24828741
-0.3058518 0.192302 -0.15325725 0.09577131 -0.13988353 0.30148166 -0.052196432 0.19780299
0.037837606 -0.0759088 -0.20256312 -0.00044589245 -0.13592492 0.010963336 0.092353575 -0.20907784
0.032242578 -0.11298239 -0.05922936 0.05749034 0.036030784 -0.33220342 -0.062637486 -0.23168346
-0.16749457 0.027330928 -0.0984931 0.08615692 0.033285752 -0.0140252635 -0.18851629 0.13117607
-0.14294317 0.11616365 -0.08169516 -0.11105143 -0.18127221 -0.07533283 0.1258638 -0.05010724
-0.04113493 0.13671358 -0.12448437 -0.15716611 -0.008006373 0.15609588 0.106157295 -0.2837713
-0.09480265 0.096231975 0.004478922 -0.1691557 -0.03246385 0.004770974 -0.06505159 -0.09444928
0.1399304 0.090459734 -0.103497736 -0.12423032 -0.13255225 0.43801567 0.12579775 0.48763648
0.26346123 0.2894451 -0.38968405 0.32810512 -0.34834155 0.22417967 0.13664189 -0.030453559
0.068062715 0.05348232 0.21711841 0.036806557 -0.0733368 0.24515381 0.23034869 -0.31488103
-0.16945119 0.161182 -0.03729263 -0.15454552 0.33647743 -0.08678005 0.14686784 -0.25592977

lstm.hh.rho_weight f4 [128, 32]
00000000: a604 3ac0 a9d5 36c0 1169 48c0 89b1 27c0
00000010: a9dc 3cc0 9169 3bc0 a5ea 3dc0 3871 3dc0
00000020: cc8a 3ec0 faaf 37c0 2223 3ec0 5d5e 47c0
00000030: b7df 3fc0 0c9e 31c0 910c 3ec0 33e5 4ac0
00000040: 9a20 33c0 6539 3cc0 bc07 3ac0 a114 3dc0
00000050: 3f8b 45c0 8c77 3dc0 45d7 3dc0 e0ca 3bc0
00000060: 90dd 2ac0 5174 36c0 8741 2dc0 74b7 43c0
00000070: 9a9f 33c0 8254 34c0 260c 3dc0 c3c1 3ec0
00000080: 4aca 30c0 630f 3ac0 0546 2dc0 b45e 34c0
00000090: 7529 3fc0 6b9e 3fc0 5881 25c0 0fc8 23c0
000000a0: 444a 2bc0 b6c1 35c0 249e 2dc0 fd2b 38c0
000000b0: a9ee 3cc0 6bbb 3fc0 d0ce 2ec0 769e 25c0
000000c0: 641a 3dc0 1a52 2cc0 ce87 2bc0 0fa4 3ec0
000000d0: b8b1 31c0 c246 3ac0 a2b3 36c0 9050 2cc0
000000e0: 8dda 37c0 7d05 2dc0 374d 3ec0 ea9f 3dc0
000000f0: f965 32c0 1ab7 37c0 7ba4 35c0 68bc 2bc0
00000100: 175e 34c0 817c 33c0 c5de 3cc0 2312 35c0
00000110: 8908 3cc0 be9c 3fc0 5d69 37c0 ef92 32c0
00000120: 4748 29c0 1260 38c0 75bd 35c0 0427 43c0
00000130: 07dc 35c0 da7e 37c0 ad80 3fc0 7c76 3ac0
00000140: 87ae 37c0 2ac3 41c0 2f0d 3ec0 27eb 2bc0
00000150: c8ad 36c0 3e1c 32c0 8409 38c0 226a 34c0
00000160: c2f6 38c0 79f2 36c0 65bc 3bc0 f6c2 33c0
00000170: 6dee 28c0 f6fc 41c0 c14c 39c0 8710 33c0
00000180: 01f9 3fc0 619b 3dc0 c6c5 39c0 51e7 32c0
00000190: 0cef 37c0 7ea2 39c0 fc8e 43c0 bdd7 38c0
000001a0: 7bc8 2fc0 55e8 3ec0 a044 36c0 5b55 3ac0
000001b0: 24af 3bc0 33fa 39c0 8db9 38c0 1e96 33c0
000001c0: 32aa 36c0 fce8 38c0 f115 3bc0 6e08 3fc0
000001d0: 8481 3bc0 5d17 35c0 c492 3ec0 701b 41c0
000001e0: cf43 37c0 bc29 39c0 6df4 3dc0 d424 39c0
000001f0: 1ad5 43c0 2f08 3ec0 fa74 3fc0 d73a 3dc0
00000200: 2b55 37c0 9f8c 3ec0 d1c2 3ac0 3943 33c0
00000210: dccd 33c0 b672 2dc0 6ffb 37c0 2ba8 3ec0
00000220: de2b 27c0 f28a 2ec0 a874 2bc0 024d 37c0
00000230: 99a0 48c0 7c14 3ac0 09bc 39c0 91d8 39c0
00000240: 24d5 36c0 a9e9 3ac0 32e9 3ac0 a043 33c0
00000250: e5c4 45c0 8879 3bc0 7b7e 3ac0 8393 2dc0
00000260: 32ea 27c0 406c 34c0 7c7d 39c0 b3fe 38c0
00000270: 8a41 3ec0 062e 30c0 c139 3dc0 578e 2ec0
00000280: ed1a 37c0 08af 39c0 9834 46c0 df07 3dc0
00000290: 5da2 3fc0 c83f 4cc0 78a4 35c0 045a 37c0
000002a0: b7c4 4cc0 5e4a 3ac0 8509 33c0 aa2f 39c0
000002b0: fbac 39c0 557e 34c0 a671 3fc0 505a 35c0
000002c0: 338a 3dc0 b50c 37c0 d480 39c0 c8c8 2fc0
000002d0: a2c2 2fc0 2201 3fc0 9692 3ac0 ccfd 38c0
000002e0: df88 34c0 753d 3fc0 4a27 3cc0 000f 3ac0
000002f0: fd03 45c0 b951 3ec0 30f7 4bc0 d1ea 29c0
00000300: ad54 45c0 89af 3fc0 856c 3ac0 c0b2 36c0
00000310: 7fbe 38c0 8eb9 30c0 8fb8 3ac0 80df 38c0
00000320: 9fea 40c0 7919 4cc0 ff53 38c0 0090 43c0
00000330: 1194 39c0 3606 49c0 dc1a 2bc0 9d3b 42c0
00000340: b17e 36c0 15f2 3bc0 36ed 40c0 4bed 3cc0
00000350: 0ed3 35c0 f6df 45c0 d319 38c0 1f8c 38c0
00000360: a13f 3bc0 38b7 42c0 e91d 40c0 b22b 3fc0
00000370: ae93 49c0 3ee0 46c0 0613 3cc0 d894 41c0
00000380: b2bd 2ec0 d7ea 41c0 e167 3fc0 03c7 4ac0
00000390: b041 3ac0 db69 40c0 f373 2ec0 f36b 3fc0
000003a0: ac7a 31c0 4ee2 32c0 1c90 22c0 273f 3bc0
000003b0: 469b 3dc0 05ed 2ec0 0fb0 39c0 ca71 25c0
000003c0: 927a 44c0 b00e 36c0 569c 33c0 44e4 3cc0
000003d0: e598 2ec0 5d59 3dc0 d3f2 3dc0 791e 2bc0
000003e0: 4e28 34c0 f879 2ec0 1128 45c0 8539 39c0
000003f0: 46c3 3bc0 5d56 32c0 3cbe 33c0 ee78 29c0
-2.9065337 -2.8567908 -3.1314127 -2.620211 -2.950968 -2.9283183 -2.9674466 -2.9600353
-2.9772215 -2.8701158 -2.9708943 -3.1151345 -2.9980295 -2.7752714 -2.969517 -3.1702392
-2.7988648 -2.941003 -2.906722 -2.954384 -3.086624 -2.9604216 -2.966264 -2.9342575
-2.669773 -2.8508494 -2.7071245 -3.058072 -2.8066163 -2.817658 -2.9538665 -2.9805763
-2.7623467 -2.9071891 -2.7073987 -2.8182802 -2.9869053 -2.994044 -2.5860195 -2.5590856
-2.6764078 -2.8399482 -2.7127771 -2.8776848 -2.9520667 -2.995814 -2.7313728 -2.5877967
-2.9547358 -2.692511 -2.6801639 -2.9787633 -2.776472 -2.9105687 -2.854714 -2.6924171
-2.8727143 -2.70346 -2.9734628 -2.9628854 -2.787474 -2.8705506 -2.838164 -2.6833744
-2.8182428 -2.804474 -2.9510968 -2.829232 -2.938021 -2.9939418 -2.8658059 -2.790218
-2.6450365 -2.8808637 -2.8396885 -3.0492563 -2.8415544 -2.8671174 -2.9922287 -2.9134817
-2.8700273 -3.0275369 -2.9695547 -2.6862276 -2.8543568 -2.7829738 -2.8755808 -2.8189778
-2.890061 -2.8585494 -2.9333737 -2.8087745 -2.6395524 -3.0310645 -2.8953097 -2.7978837
-2.999573 -2.9626086 -2.9026961 -2.7953684 -2.8739653 -2.9005427 -3.055602 -2.8881676
-2.7466114 -2.9829304 -2.8479385 -2.9114597 -2.9325647 -2.905896 -2.8863251 -2.8060374
-2.854138 -2.8892202 -2.9232142 -2.9848895 -2.92978 -2.829551 -2.9777079 -3.0172997
-2.8635137 -2.8931723 -2.9680436 -2.8928728 -3.0598817 -2.9692495 -2.9915147 -2.9567163
-2.8645732 -2.9773328 -2.9181406 -2.800978 -2.8094397 -2.7101264 -2.8747213 -2.9790142
-2.6120524 -2.7272305 -2.6789951 -2.8640752 -3.134802 -2.9075003 -2.9021018 -2.9038432
-2.856759 -2.9205115 -2.920483 -2.8010025 -3.0901425 -2.9292927 -2.9139698 -2.7121284
-2.6236691 -2.819107 -2.898284 -2.8905456 -2.9727502 -2.752809 -2.95665 -2.7274377
-2.8610184 -2.901308 -3.09696 -2.9536054 -2.9942849 -3.191393 -2.8381634 -2.864869
-3.1995065 -2.910789 -2.797456 -2.8935342 -2.901183 -2.8202107 -2.9913116 -2.8336372
-2.96156 -2.8601506 -2.898488 -2.7466297 -2.7462544 -2.9844441 -2.915197 -2.8904905
-2.820854 -2.988126 -2.939898 -2.9071655 -3.0783684 -2.973738 -3.1869621 -2.654957
-3.0832932 -2.9950888 -2.9128735 -2.85466 -2.886627 -2.7613254 -2.9175146 -2.8886414
-3.0143201 -3.1890547 -2.8801267 -3.055664 -2.8996623 -3.141004 -2.6735144 -3.0348885
-2.8514826 -2.9366505 -3.0144782 -2.9519832 -2.8410068 -3.0917945 -2.8765762 -2.8835523
-2.9257586 -3.0424328 -3.0018256 -2.987042 -3.1496387 -3.1074367 -2.938661 -3.0247097
-2.730328 -3.0299585 -2.9907153 -3.1683967 -2.9102592 -3.006461 -2.725827 -2.9909637
-2.7731123 -2.7950625 -2.5400457 -2.9257295 -2.9626021 -2.7332165 -2.9013708 -2.5850701
-3.069981 -2.8446465 -2.806417 -2.9514322 -2.728082 -2.9585793 -2.9679458 -2.673735
-2.81496 -2.7261944 -3.0805705 -2.8941357 -2.9337935 -2.7865212 -2.808486 -2.648006

lstm.hh.mu_bias f4 [128]
00000000: ddc9 a23e 18a1 6b3e 7a5d 023e ef66 b03d
00000010: c516 773e bff6 bcbd 0fe3 49be d632 cf3d
00000020: 1ca3 1a3d f0e9 123a 8365 29bd 003b 803d
00000030: fb8e 823e 37ae e73a c832 a93d 553c 64bd
00000040: 5f72 86bd b54e 9b3e bb0a 463e c815 2b3d
00000050: 403c 52be 7b52 173e e94f 523e 6175 87bd
00000060: 4260 043e 8b03 c93d fb70 d93d 1438 e63b
00000070: e311 173e 5eaa 40bb d4ac b23e 3f54 ac3d
00000080: a2b9 353b 0003 ec3d 50ed 693d e4ee 9bbd
00000090: 6fe5 32bd ef6c 6339 9142 9f3d 6c4a cf3e
000000a0: 8018 41be d3fc cd3d 18e9 debd 5e71 cb3d
000000b0: 6b2b e83d a419 f3bc 9351 79bd f574 8abd
000000c0: df71 153c f070 873e df7c b93d 851f d63c
000000d0: b6f0 713e b475 aa3d d879 a6bc 5814 363e
000000e0: de92 803e 5e4a 713d 7b21 8a3e 97ee fc3d
000000f0: b79d 843e 6802 ebbd 09a4 bc3d d25f 9a3e
00000100: e7f1 edbd 2165 4cbe 93bd 813e 2148 3cbe
00000110: 190e 683e 34d6 063e 89a4 0cbe 1ab7 1cbd
00000120: f973 96bd 2fd9 ac3c 35ea b4bd 5c5f 30bd
00000130: 128f f63c 2eb4 5d3d 7d9b 0e3e 9061 483e
00000140: d34c cebd 6f16 81be 1916 48be 47c8 563d
00000150: 09e5 b23d a88a d93d fb01 1abe 3ebe 2a3e
00000160: bfff 373e a0dc 52bd 187d 923e 936b 6b3e
00000170: 815d 3ebe f062 39bd 0aa5 a8be c0b6 b1bd
00000180: c7ba 4f3e 8d34 913d ac7e 6f3e 5c18 c23e
00000190: f009 ae3e c69b 153e 1ae5 6e3e 3e58 cb3e
000001a0: 1d8d 333e a0a5 293e 8e3a 673e f4a5 1d3d
000001b0: 1d90 f93d b987 5c3e 0a3d 723e 7d20 4f3e
000001c0: 52fc 5b3e 10e7 8a3d ff53 c53d 8833 043d
000001d0: c073 ff3d 5f74 dc3e 9ed9 2e3e 9a3e 733e
000001e0: 19c9 ea3c e7cc 243d a6c7 bc3e d1bb 853e
000001f0: a49c a63e ae50 1f3e c0de 333e 01d9 3f3e
0.31794634 0.23010671 0.12730971 0.08613383 0.2412978 -0.092267506 -0.19715522 0.10117118
0.03775321 0.00056043174 -0.041356575 0.06261253 0.2549971 0.0017675821 0.08261639 -0.0557216
-0.06564783 0.30333486 0.19340031 0.04176882 -0.20530796 0.14777558 0.20538296 -0.06614185
0.12927344 0.09815129 0.106172524 0.007025728 0.14752917 -0.0029398422 0.34897482 0.08414506
0.0027729054 0.1152401 0.057111084 -0.07613924 -0.043675836 0.00021688988 0.077763684 0.40486467
-0.18857002 0.10057988 -0.10884303 0.099337325 0.11336406 -0.029675312 -0.06086881 -0.06760589
0.009121387 0.26453352 0.090570204 0.026138077 0.2362698 0.08323231 -0.020321772 0.17781198
0.2511205 0.058908813 0.2697867 0.12350195 0.25901577 -0.11475068 0.09210975 0.3015123
-0.11618405 -0.19960453 0.25339946 -0.1838689 0.22661628 0.1316765 -0.1373464 -0.038260557
-0.07346339 0.021099655 -0.08833734 -0.04305969 0.030097518 0.05412691 0.13926502 0.19568467
-0.10073247 -0.25212428 -0.1953968 0.052437093 0.08735091 0.1062215 -0.15039818 0.16674134
0.17968653 -0.051479936 0.28611064 0.22990255 -0.18590356 -0.04526037 -0.32938415 -0.08677435
0.20286094 0.070901014 0.23388165 0.3790921 0.33991957 0.14610204 0.23329583 0.3971576
0.17534299 0.16567087 0.2258093 0.038488343 0.121856906 0.21536149 0.23656097 0.20227237
0.21482971 0.06782353 0.096351616 0.032275707 0.124732494 0.43057534 0.17075202 0.2375435
0.028660344 0.040234473 0.3687107 0.26119855 0.32541382 0.1555812 0.17565441 0.18735124

lstm.hh.rho_bias f4 [128]
00000000: 82e5 2ac0 618a 23c0 a11f 25c0 44f0 31c0
00000010: 11cf 30c0 e9e0 26c0 6638 1ec0 5233 2bc0
00000020: 3eba 1cc0 4cca 26c0 ab49 2cc0 b1f9 2cc0
00000030: 96eb 1dc0 897e 27c0 351c 2fc0 8805 2cc0
00000040: b88f 2ec0 8c69 12c0 e6df 21c0 5da2 1bc0
00000050: 0ced 2ec0 def4 2ac0 6106 22c0 9deb 29c0
00000060: 5f03 34c0 59ae 31c0 0c68 17c0 361d 2bc0
00000070: f38a 1cc0 b6d7 2cc0 c8df 20c0 9110 26c0
00000080: 9a38 2bc0 d0ac 13c0 c502 1bc0 58b3 28c0
00000090: 717d 2dc0 a61b 3ec0 f7a4 22c0 c161 26c0
000000a0: 7078 24c0 f7d1 28c0 363c 36c0 fe16 31c0
000000b0: dc40 37c0 1355 25c0 e3af 30c0 116d 27c0
000000c0: 83db 2fc0 704f 13c0 3e80 33c0 c756 2fc0
000000d0: 4842 1bc0 bbc1 1cc0 965f 30c0 711a 36c0
000000e0: 3fc7 35c0 ba8b 37c0 e647 16c0 0384 0ec0
000000f0: bf41 1bc0 e30c 26c0 ae71 19c0 7afc 30c0
00000100: 4445 3ac0 09de 28c0 3f27 39c0 1f4b 38c0
00000110: f529 31c0 5aa0 3bc0 45c1 2dc0 f65c 33c0
00000120: f8b4 38c0 6a5b 32c0 505f 2fc0 68f4 3cc0
00000130: ff77 3dc0 d856 3dc0 70e9 30c0 7337 33c0
00000140: 6a30 33c0 a4e6 3dc0 22ec 39c0 2e84 3ec0
00000150: f713 34c0 9f23 3dc0 c4c9 35c0 53ff 3ac0
00000160: d9b9 39c0 90c5 38c0 fd84 24c0 20ab 25c0
00000170: 416b 37c0 0eb2 3ac0 e0f0 3dc0 1e6e 41c0
00000180: f41c 2ac0 f954 23c0 6ae8 24c0 a85d 29c0
00000190: b33a 38c0 6783 27c0 c6fc 26c0 1a08 1dc0
000001a0: 7de9 1dc0 b20b 1cc0 47a5 22c0 fa9d 0fc0
000001b0: 8700 2ac0 d4ff 2dc0 68a9 21c0 5ea9 20c0
000001c0: 652d 2dc0 e97c 33c0 264e 3bc0 fe70 27c0
000001d0: 5d40 30c0 c9f7 22c0 d21a 29c0 fe88 1ec0
000001e0: 927d 2ac0 8829 2ec0 0842 2fc0 f8a6 29c0
000001f0: f76a 31c0 1e37 1cc0 7324 31c0 bbab 2fc0
-2.670258 -2.555321 -2.5800555 -2.7802896 -2.7626383 -2.6074774 -2.4721923 -2.6750073
-2.4488673 -2.6060972 -2.6919963 -2.70274 -2.467504 -2.617098 -2.7360966 -2.6878376
-2.727522 -2.287692 -2.5292907 -2.4317849 -2.7332182 -2.6711955 -2.5316393 -2.6550057
-2.8127058 -2.7762663 -2.3657255 -2.673658 -2.4459808 -2.700666 -2.5136585 -2.5947611
-2.6753297 -2.3074226 -2.422044 -2.6359463 -2.7107813 -2.9704375 -2.5413187 -2.5997164
-2.569851 -2.6378152 -2.847425 -2.7670283 -2.8633337 -2.5833175 -2.7607353 -2.616032
-2.747773 -2.3017235 -2.8047023 -2.7396715 -2.4259205 -2.4493244 -2.755834 -2.8453639
-2.840286 -2.8679032 -2.3481383 -2.2268074 -2.4258878 -2.5945365 -2.3975635 -2.76541
-2.9104776 -2.638552 -2.8930204 -2.879585 -2.7681859 -2.931662 -2.7149212 -2.802549
-2.8860455 -2.7868295 -2.7401924 -2.9524174 -2.960449 -2.9584255 -2.764248 -2.8002594
-2.79983 -2.9672022 -2.9050374 -2.9768176 -2.8137186 -2.9552991 -2.8404398 -2.9218338
-2.9019682 -2.8870583 -2.570617 -2.5885696 -2.8659213 -2.9171176 -2.9678268 -3.022346
-2.6580172 -2.5520613 -2.5766854 -2.6463413 -2.8785827 -2.6173952 -2.609178 -2.4536195
-2.467376 -2.4382138 -2.5413377 -2.2440171 -2.6562822 -2.7187395 -2.5259647 -2.5103374
-2.7058957 -2.804499 -2.9266448 -2.6162715 -2.7539284 -2.5463736 -2.642262 -2.4771113
-2.6639142 -2.7212849 -2.7384052 -2.650816 -2.7721536 -2.440864 -2.7678497 -2.7448566

l1.mu_weight f4 [16, 32]
00000000: 6541 dabe 3469 22bf cb56 0a3f 4ca5 08bf
00000010: f3aa f93e 65b6 0d3f db7e 16bf 699e 15bf
00000020: e0f8 06bf 6c6a 293f b1a8 03bf 32e0 e63e
00000030: 4c75 09bf c502 153f 1926 363f 4452 1b3f
00000040: 6a92 1bbf af66 e3be 22d5 05bf bba8 1b3f
00000050: 7eac d6be e2a2 013f 0b34 123f 8344 21bf
00000060: 5e40 b2be 14f3 1fbf 1b2c 143f 8c42 f23e
00000070: fa04 43bf 527a 05bf 070d 05bf 2cd5 a5be
00000080: e7cb e4be c37e f6be b6cc 073f 245d 01bf
00000090: 6d0a e73e 38fe af3e bbd7 0ebf 87ae b8be
000000a0: c35b b6be cdfb d63e 1671 f0be cad1 0b3f
000000b0: a6f3 babe 78c5 1d3f 7a45 f33e 4f0d 0b3f
000000c0: d84a d8be cb7b 12bf ba54 e6be adaf 0f3f
000000d0: 01ce c5be d3ea e73e c873 033f 4b8d 0ebf
000000e0: 0b91 03bf 60b6 02bf d126 123f 8db6 d03e
000000f0: 4d9a edbe ba7c 2bbf a457 09bf 17b9 09bf
00000100: af12 bcbe 2a72 a5be ed87 133f e3a3 08bf
00000110: bbd1 0e3f 59fd 1c3f 490f 16bf 99a8 05bf
00000120: d673 16bf b0c2 043f 2983 30bf a3bc e83e
00000130: 6871 31bf ef06 3f3f 9838 273f d0c1 003f
00000140: d1cd 10bf 9cc6 07bf 9257 10bf 7fda 053f
00000150: 0137 31bf 14b9 113f 1526 de3e 78bf 31be
00000160: 8d7d 28bf 935b 2abf c0b0 243f 6210 043f
00000170: 92b1 13bf 5236 18bf 6126 0cbf 2049 1fbf
00000180: 3b3b 0bbf 9cf1 1ebf 314d 823e 91b6 cabe
00000190: 8986 eb3e d896 cc3e ab5b 2dbf dcf9 08bf
000001a0: 2a5e d0be 28b4 923e 6929 37bf 30d5 fe3e
000001b0: 6fd5 0ebf 7a2d 053f da36 dd3e 2677 103f
000001c0: 942b 00bf 7538 15bf ad9b 0bbf f9bb 093f
000001d0: 2675 eebe bc9c 113f a895 ce3e 2c2f dfbe
000001e0: ec95 efbe 1b32 e2be be96 f53e 26e8 343f
000001f0: b97a ccbe c519 22bf bc8d d1be c592 13bf
00000200: 6cba 29bf d6af 28bf af94 063f 3419 25bf
00000210: 2c76 083f c49b 143f 13d3 14bf 453b 0ebf
00000220: a851 38bf dcd5 3c3f b7f1 0ebf 3d3b 043f
00000230: e0d1 11bf 7903 d13e bd97 dd3e 849b f63e
00000240: 9e16 15bf aae8 0ebf 55d3 b0be 0068 303f
00000250: 511c 05bf 67b1 143f 75db 143f 0532 99be
00000260: e908 edbe a08f 02bf 812a 103f 40d4 0e3f
00000270: 88dd 24bf ec3b 9cbe bb75 1fbf a0f6 c9be
00000280: 63a2 f7be 2c62 fcbe 4e3e 2d3f 9b06 02bf
00000290: fa98 0b3f 1521 003f 8129 07bf cc9d f3be
000002a0: 58a9 0abf 7613 fd3e 790c 1fbf e32d f33e
000002b0: 2fa5 04bf 49fb 2e3f 9315 1f3f a3f7 0a3f
000002c0: 33fd b2be 2314 0fbf 6f90 29bf 9171 eb3e
000002d0: 2269 a2be e9f2 363f e0f3 183f 82b1 1fbf
000002e0: 0290 1fbf 6e2a 12bf f1cd e13e f2a2 113f
000002f0: d7e6 28bf 665e 01bf f174 2bbf 59df ecbe
00000300: 48aa eebe 712d 00bf e39f eb3e d4ca 0cbf
00000310: a769 e83e 9387 243f b0bb c1be a130 f3be
00000320: 997e 16bf 3c68 0d3f 196f d9be ed55 1e3f
00000330: 463b 15bf 15a0 fe3e a096 173f 89fc f03e
00000340: 1a50 11bf f713 cabe 7c62 07bf 7c39 c23e
00000350: 3ead 25bf d1ee cb3e 68ff e43e ebd1 0cbf
00000360: 9d63 d6be cf1a 05bf fd2d e93e 10d5 d23e
00000370: fefc f2be a97f fabe 514e 1bbf 9550 00bf
00000380: 7898 e0be 897e afbe c56b 3a3f 6871 e8be
00000390: 1f5f 0f3f b652 113f 59d2 0dbf d2b2 01bf
000003a0: 814d 20bf dbf0 243f 20c4 09bf e21a 0f3f
000003b0: aa6a 06bf 42eb c83e a10e 053f d660 0d3f
000003c0: 9645 2abf f622 08bf b2a0 18bf 477f 093f
000003d0: 415e 16bf 6e80 063f 0662 b23e cb6a cbbe
000003e0: af05 17bf d94f e1be c7ec 113f e4ef 023f
000003f0: df6d 13bf afb5 12bf 17ce 38bf 5f4c f1be
-0.42628017 -0.6344178 0.54038686 -0.53377223 0.48763236 0.55356437 -0.58787316 -0.5844484
-0.52723503 0.6617801 -0.5142928 0.45092922 -0.53694606 0.5820735 0.7115188 0.606724
-0.60770285 -0.4441428 -0.5227834 0.6080434 -0.41928476 0.50639164 0.5711066 -0.62995166
-0.34814733 -0.6248028 0.578798 0.47316396 -0.7617947 -0.5213977 -0.51973003 -0.323892
-0.44686815 -0.48143587 0.5304674 -0.50532746 0.45125142 0.3437364 -0.5579793 -0.36070654
-0.35616884 0.41988984 -0.46961278 0.5461699 -0.36514014 0.6162944 0.47513944 0.5431718
-0.422446 -0.57220143 -0.44986516 0.56127435 -0.3863373 0.45296344 0.51348543 -0.55684346
-0.51393193 -0.5105953 0.5709048 0.40764275 -0.46406785 -0.6698719 -0.53649354 -0.5379805
-0.36733004 -0.32313663 0.5762928 -0.5337507 0.55788773 0.6132408 -0.58617073 -0.52210385
-0.587705 0.5185957 -0.68950135 0.45456418 -0.6931367 0.74619955 0.6532073 0.50295734
-0.5656405 -0.5303743 -0.5638362 0.52286524 -0.69224554 0.5692303 0.4338843 -0.17358196
-0.65816575 -0.6654598 0.643322 0.515875 -0.57692826 -0.59457886 -0.5474606 -0.62220955
-0.54387254 -0.62087417 0.25449517 -0.39592412 0.4600108 0.39958835 -0.67718 -0.53506255
-0.4069684 0.28653073 -0.7154756 0.49772024 -0.55794424 0.52022517 0.4320591 0.56431806
-0.50066495 -0.5828927 -0.5453442 0.5380245 -0.46573752 0.5687978 0.40348554 -0.43590677
-0.4679407 -0.44178852 0.4796657 0.7066673 -0.3993738 -0.6332057 -0.40928447 -0.5764583
-0.6630008 -0.65893304 0.52570623 -0.6449158 0.53305316 0.5805018 -0.58134574 -0.5555919
-0.719996 0.73763824 -0.5583758 0.5165289 -0.5696087 0.40822962 0.4327983 0.48165524
-0.58237636 -0.5582377 -0.34536234 0.6890869 -0.5199633 0.58083194 0.58147365 -0.29920974
-0.4629586 -0.51000404 0.56314856 0.5579262 -0.6440053 -0.30514467 -0.6228902 -0.39445972
-0.4836608 -0.4929365 0.67673194 -0.5079133 0.545303 0.5005048 -0.52797705 -0.47581327
-0.5416465 0.4942891 -0.62128407 0.47495946 -0.5181455 0.6835218 0.62142295 0.54284114
-0.349588 -0.558901 -0.66236013 0.45985082 -0.31720835 0.714644 0.59747124 -0.6238023
-0.62329113 -0.5709599 0.44102433 0.5688926 -0.65977234 -0.50534666 -0.66975313 -0.4626415
-0.4661429 -0.5006934 0.4602042 -0.5499699 0.45393106 0.6426937 -0.37838507 -0.47498038
-0.5878692 0.55237174 -0.42467573 0.6184986 -0.5829357 0.49731508 0.5921421 0.4706767
-0.5676285 -0.39468357 -0.5288465 0.37934482 -0.6471747 0.3983064 0.4472611 -0.5500781
-0.41872874 -0.5199403 0.455429 0.4117818 -0.47458643 -0.48925522 -0.60666376 -0.5012296
-0.43866324 -0.34276226 0.72820693 -0.45399022 0.5600452 0.5676683 -0.5539909 -0.50663483
-0.6261826 0.64430016 -0.5381489 0.55900395 -0.52506506 0.39241987 0.51975447 0.55225885
-0.6651243 -0.53178346 -0.596202 0.53709835 -0.5873757 0.5253972 0.3484041 -0.39729914
-0.5899305 -0.4400623 0.5700192 0.51147294 -0.57589525 -0.5730848 -0.7218947 -0.4712858

l1.rho_weight f4 [16, 32]
00000000: 1ccc 3cc0 daa0 36c0 dc09 49c0 a9fc 36c0
00000010: de8f 3dc0 463e 3ec0 a190 42c0 c155 34c0
00000020: 3cb5 3ec0 2e91 41c0 cf89 39c0 3527 48c0
00000030: 9125 3ac0 a0c5 3fc0 07b2 3dc0 f872 43c0
00000040: bc1e 3fc0 3be9 46c0 db01 48c0 3705 37c0
00000050: 6550 38c0 3bc7 44c0 bd11 40c0 ce17 3ac0
00000060: 545d 3cc0 ebe2 3ac0 656d 38c0 914e 39c0
00000070: 2b7d 3ec0 1e14 40c0 8114 40c0 46de 44c0
00000080: afba 35c0 4573 3ec0 c589 37c0 8d1b 3bc0
00000090: f8c4 3cc0 fa85 3dc0 c2e8 39c0 aed9 3ec0
000000a0: 3e22 40c0 4f59 3ac0 d8d2 3bc0 a163 37c0
000000b0: 9725 3ac0 9f6c 3fc0 77bf 3fc0 187c 30c0
000000c0: 144b 42c0 2b3e 3ec0 1d32 40c0 2821 49c0
000000d0: 91d9 45c0 52e7 3ac0 fa14 3bc0 d35c 4dc0
000000e0: 822f 46c0 19b1 3bc0 3cf7 39c0 34e0 35c0
000000f0: 10fd 49c0 1223 40c0 73e5 3ec0 d62b 40c0
00000100: 29f0 46c0 6d66 39c0 46f0 4ac0 2bdf 41c0
00000110: e2a4 43c0 dab1 3ac0 3ed8 4ac0 91af 3cc0
00000120: 1289 3ec0 afdb 3ec0 d7ef 39c0 20d7 3ac0
00000130: d0d8 37c0 9e4b 43c0 8e4f 45c0 4e2c 3bc0
00000140: 9175 4cc0 5ab3 37c0 fa4b 3cc0 1fc2 39c0
00000150: e3b8 39c0 657d 40c0 a5d0 33c0 a0c3 43c0
00000160: 0be6 37c0 4ae8 44c0 5f24 3ec0 7d7e 44c0
00000170: 9dbf 3fc0 5b85 3ac0 863e 48c0 d812 34c0
00000180: a2f3 3dc0 2aa6 45c0 8588 3ac0 a171 41c0
00000190: ad07 3ac0 939e 40c0 4d21 3bc0 208d 38c0
000001a0: 6d85 36c0 ae05 3ac0 54d6 40c0 51cf 45c0
000001b0: e527 40c0 7bbe 47c0 ae9a 3fc0 ec21 3fc0
000001c0: 85c6 37c0 1a7c 3bc0 2d15 47c0 a54f 32c0
000001d0: 4365 36c0 9210 3dc0 9ca8 47c0 c187 43c0
000001e0: 806e 43c0 59b7 45c0 104e 47c0 32f9 30c0
000001f0: 586c 42c0 ba0b 44c0 7dec 4dc0 f920 42c0
00000200: 2bcf 35c0 3981 45c0 1c97 3cc0 1433 3bc0
00000210: 0dd5 4cc0 d966 3ac0 5b05 41c0 c397 2fc0
00000220: d98b 3ac0 9e7b 33c0 6ef9 38c0 792e 3fc0
00000230: 9d29 3ac0 c827 3ac0 4787 3fc0 fb3e 42c0
00000240: fa6a 45c0 91ae 40c0 f942 3ec0 84b9 42c0
00000250: bf68 3fc0 f5d8 3bc0 ae7c 46c0 572b 42c0
00000260: 5c53 3bc0 bf10 33c0 8fea 43c0 43a2 43c0
00000270: 5bd9 39c0 2ceb 41c0 377a 3fc0 102b 2fc0
00000280: c5d2 3bc0 e736 42c0 bc00 3dc0 4af4 3dc0
00000290: 10d5 43c0 fd64 35c0 bba9 40c0 9ff0 3bc0
000002a0: af39 45c0 5d11 47c0 f602 46c0 8595 3fc0
000002b0: 6ec8 3ac0 f340 3cc0 4675 39c0 d852 37c0
000002c0: f4fc 3ac0 3b26 31c0 7a22 42c0 0970 4cc0
000002d0: 5aba 41c0 9418 48c0 e7e3 45c0 6cf5 38c0
000002e0: 548a 35c0 dd67 45c0 2fe4 50c0 7fed 40c0
000002f0: 3e13 3bc0 4750 43c0 bf04 3cc0 1372 32c0
00000300: 7433 48c0 5eea 43c0 4584 4ac0 1f6b 3cc0
00000310: d97c 4ac0 ec97 41c0 3ddd 46c0 4a26 3bc0
00000320: 4da6 3fc0 5fc2 42c0 cfcf 40c0 c5a2 44c0
00000330: f604 3fc0 615c 3dc0 e595 42c0 5b2e 3ac0
00000340: 232a 42c0 07c1 44c0 1550 35c0 5fd9 3fc0
00000350: 81bb 44c0 d435 3cc0 a527 44c0 7ed7 40c0
00000360: 91f1 49c0 af0a 3dc0 3daa 44c0 00f7 38c0
00000370: 3859 3ac0 e90e 48c0 9a99 35c0 c336 45c0
00000380: 1e66 43c0 2395 41c0 ef6b 3ac0 8e68 43c0
00000390: 579d 3bc0 cbc9 49c0 60c0 3dc0 96e9 3ec0
000003a0: f2c0 38c0 c5ce 34c0 5e8c 3bc0 c1ba 41c0
000003b0: 33c5 3dc0 8af6 3ec0 5ec1 49c0 4342 47c0
000003c0: 8a6f 34c0 6e66 45c0 8ddd 3ec0 31c3 3bc0
000003d0: 9c18 46c0 4731 46c0 be2b 3dc0 1151 42c0
000003e0: 63f7 3ac0 139a 3bc0 866b 4ac0 8a7d 47c0
000003f0: 2f49 34c0 c411 39c0 4ad1 4ac0 cee9 3dc0
-2.9499578 -2.8535676 -3.1412268 -2.8591712 -2.961906 -2.9725509 -3.0400774 -2.817734
-2.9798117 -3.024486 -2.8990362 -3.127393 -2.9085429 -2.996437 -2.963991 -3.0538921
-2.9862509 -3.1079853 -3.1251132 -2.8596933 -2.879907 -3.07466 -3.0010827 -2.907703
-2.9431963 -2.9201 -2.881677 -2.8954203 -2.9763896 -3.0012279 -3.0012515 -3.0760665
-2.8395193 -2.9757855 -2.8677838 -2.9235566 -2.949522 -2.9613023 -2.9048314 -2.982036
-3.00209 -2.911701 -2.934744 -2.8654559 -2.9085443 -2.9910047 -2.996061 -2.757574
-3.0358324 -2.9725444 -3.0030587 -3.1426487 -3.0914042 -2.9203687 -2.9231553 -3.2087905
-3.0966496 -2.9326842 -2.905715 -2.8418093 -3.1560707 -3.0021405 -2.9827545 -3.0026755
-3.1084082 -2.8968766 -3.1709151 -3.029246 -3.0569386 -2.9171052 -3.1694484 -2.9482157
-2.977116 -2.9821584 -2.9052637 -2.9193802 -2.8726082 -3.0514903 -3.0829806 -2.9245791
-3.1946757 -2.8703218 -2.9421372 -2.9024732 -2.9019096 -3.0076535 -2.8096097 -3.058815
-2.8734157 -3.0766778 -2.97097 -3.0702202 -2.9960701 -2.9143894 -3.1288161 -2.8136501
-2.9679952 -3.0882668 -2.9145825 -3.0225604 -2.9067185 -3.0096786 -2.9239075 -2.8836136
-2.8518937 -2.9065967 -3.0130816 -3.0907786 -3.002435 -3.121001 -2.993816 -2.9864454
-2.8714917 -2.9294496 -3.1106675 -2.786111 -2.8499305 -2.9541364 -3.119666 -3.0551608
-3.0536194 -3.0893157 -3.1141396 -2.7652097 -3.0378628 -3.0632157 -3.217559 -3.0332625
-2.8407695 -3.0860121 -2.946723 -2.9249926 -3.2005036 -2.9125273 -3.0159519 -2.7436378
-2.9147856 -2.80442 -2.890224 -2.9872115 -2.9087899 -2.908678 -2.9926317 -3.035094
-3.0846543 -3.0106547 -2.9728377 -3.042573 -2.9907682 -2.935117 -3.1013598 -3.0338953
-2.9269629 -2.797897 -3.0611913 -3.0567787 -2.9038913 -3.0299788 -2.9918344 -2.7370033
-2.9347394 -3.034601 -2.9531698 -2.9680352 -3.0598793 -2.8342888 -3.0103595 -2.9365613
-3.0816457 -3.1104348 -3.0939307 -2.993501 -2.9184833 -2.9414642 -2.8977828 -2.8644314
-2.921689 -2.7679584 -3.0333543 -3.194338 -3.026999 -3.1265001 -3.092035 -2.8899794
-2.8365679 -3.0844643 -3.2639272 -3.0144956 -2.9230494 -3.0517747 -2.9377897 -2.7882125
-3.1281404 -3.0611796 -3.164323 -2.9440382 -3.16387 -3.0248976 -3.1072533 -2.924212
-2.9945252 -3.0431135 -3.0126836 -3.0724347 -2.9846778 -2.9587634 -3.0403988 -2.9090793
-3.0338218 -3.0742815 -2.8330128 -2.9976423 -3.0739443 -2.9407854 -3.0649197 -3.0131526
-3.155369 -2.953777 -3.0728905 -2.8900757 -2.9116955 -3.12591 -2.8375 -3.0814674
-3.0531077 -3.0247276 -2.9128377 -3.0532565 -2.9314783 -3.1529415 -2.9648666 -2.983007
-2.8867764 -2.8251202 -2.9304423 -3.0270236 -2.965161 -2.9837976 -3.1524272 -3.1134193
-2.8193078 -3.0843768 -2.9822724 -2.9337885 -3.095252 -3.0967577 -2.9557948 -3.036198
-2.9213493 -2.931279 -3.1628127 -3.1170373 -2.8169668 -2.8917093 -3.169024 -2.9673953

l1.mu_bias f4 [16]
00000000: f471 df3e 2ace 0b3f e851 083f 5593 223f
00000010: f40e f63e a334 d03e 986e 183f a41e 013f
00000020: 6991 003f 680d 08bd 8474 c33b ef97 24bd
00000030: b89f b33e 187e 1f3f 55d2 193f 9c3c 96bd
0.43641627 0.54611456 0.5324998 0.6350606 0.48058283 0.4066516 0.5954375 0.5043738
0.5022188 -0.03321591 0.0059648175 -0.040183958 0.35082793 0.6230178 0.60086566 -0.07335779

l1.rho_bias f4 [16]
00000000: f638 2dc0 3557 35c0 0cad 41c0 e519 41c0
00000010: 3364 48c0 306b 41c0 9142 35c0 38ad 36c0
00000020: a7e3 3bc0 401d b8bf 79e1 cabf c29c fabf
00000030: 3f0b 38c0 f567 34c0 ac2d 3fc0 e807 bcbf
-2.7066016 -2.8334477 -3.026187 -3.0172055 -3.1311157 -3.0221672 -2.832188 -2.8543224
-2.9357698 -1.4383926 -1.5850059 -1.9579089 -2.8756864 -2.818845 -2.9871626 -1.4689913

l2.mu_weight f4 [1, 16]
00000000: 3bc3 133f b8ea 333f b3d9 143f d99e 293f
00000010: bcd8 213f f04d 1c3f aa41 393f a44a 1d3f
00000020: e123 1b3f de63 23bc b3c4 e93b 05c2 27be
00000030: 8ac4 303f 3814 183f 2305 273f bb6c c1bd
0.57719773 0.7028003 0.5814468 0.6625801 0.63221335 0.61056423 0.7236582 0.6144202
0.6060162 -0.009972541 0.007134044 -0.16382606 0.69049895 0.5940585 0.65242213 -0.09444567

l2.rho_weight f4 [1, 16]
00000000: d822 41c0 1f35 42c0 6f2c 3bc0 6911 4bc0
00000010: b48c 47c0 e202 3dc0 3e83 40c0 c484 4dc0
00000020: 5b18 4ac0 c385 c2bf b662 16c0 9a84 18c0
00000030: 9d90 3cc0 eb11 3ec0 ebc0 42c0 89b0 c1bf
-3.0177517 -3.0344923 -2.924587 -3.1729376 -3.1179628 -2.953301 -3.0080104 -3.2112284
-3.1577365 -1.5197071 -2.3497748 -2.3830934 -2.9463265 -2.9698436 -3.0430248 -1.5131999
