BNN/model_states/BNN_model_state_FD001_denoised_CF_RUL_decrease_combined.pt (torch, 57845 bytes, 14 tensors)

lstm.ih.mu_weight f4 [128, 14]
00000000: 8389 523e 54aa 383e f5f2 083e bdfa 7ebe
00000010: 70a0 c13d a820 9ebe 19f1 193d 59a8 4dbe
00000020: 5df3 87bd 592b be3d ae30 d7bc 9bdd ccbd
00000030: bccf c2bd 51e7 bfbd 7159 94bd d4c1 ce3c
00000040: 3cb8 ef3d 8e0b 413d 417b 15be d296 c13d
00000050: 3d06 f6bd a30e 093e 125e 0e3d 23e2 613e
00000060: a4a5 ec3d 2505 b23d 5561 2d3e ab94 533e
00000070: 4a84 e6bd 35be 3ebd c626 c5bb f9c4 903d
00000080: 9c14 ebbd 02ad d3bd 710c 5fbc a6a6 193e
00000090: 1a26 503d 629f 0c3d c03e 2c3d ce2e a5bd
000000a0: 175b 38be 2bf8 a63d 5b11 95bd 1231 acbd
000000b0: 8e0f 55bc f894 a43e b3cb 143d d695 353e
000000c0: 362d 67bd edfe fcbd e44c 183e 4142 ea3d
000000d0: 1c48 5e3d e8e7 ac3d 8814 85be f5e3 6ebe
000000e0: 0bbc 94be c9cb 93bd 269e b4bc 930f d93d
000000f0: 9fe0 993d 69c5 f93d 08ab cebd 022f 6e3e
00000100: 3e67 8a3e f0b0 253d 9d01 263e 64b2 c7bc
00000110: f95d 2b3d a113 dc3c cb10 d3be 6fa1 94bd
00000120: 7b2a 6ebe d816 9e3e 7ce8 34be 6920 603e
00000130: 3b05 14be 8113 4d3e 3f12 c0be bdb8 0bbc
00000140: 95d5 89be 6673 a6be ea85 d13c 788d 2e3e
00000150: 4e51 883d a449 9c3d ccea 153e 2a2f 953c
00000160: 3aa1 9a3d 32ff 213d 854e cfbd 14a1 d23d
00000170: 9f22 fcbd d9a3 f3bc a5b8 e03d 9837 743d
00000180: a59e 81be e2e1 463d 56b7 4039 c3e3 ecbc
00000190: 8a6b 7c3d 7ec5 823d 1d6a 0d3e b4db c0bd
000001a0: 3d7d adbc 1631 f83d e66f 5d3d 5c60 8cbc
000001b0: 209e 1cbd 8c64 813d 4014 d3bc 461f 58bc
000001c0: d970 92be f747 0bbe 4543 22be 8585 1f3e
000001d0: a37d 41bd 1fdb 09be 216a 0ebe 10eb 143e
000001e0: e1c1 cfbd db69 67bd 53e8 b5bd 1887 293d
000001f0: ab8b 8c3e cce2 1a3e 7a78 0fbe 1374 14be
00000200: 954b 903c 96d7 b03e 1780 6cbe 2d72 04be
00000210: 6adc 44be 44f0 c13e cbe8 f23b 3afd 833d
00000220: b792 04be 5c78 71be dcd9 5abd 8cb1 8c3e
00000230: 8e2a 11be cd87 e73c edac 6dbd cdb2 1d3e
00000240: 6b26 cdbb e38b 0f3e b7c9 153e 0d57 3b3e
00000250: d8e2 0c3e 0ef9 bf3b 1759 07be 9a0c 45bc
00000260: 7085 373d 56a2 133e 2433 94be 9a57 993c
00000270: 087f babe 2358 003e 2c3e c2bd c0ed ed3d
00000280: c38d 8fbe c685 6d3e ddc1 903d bc43 b8bc
00000290: 5f49 30be d5c3 94be 4f75 af3d 40ca 1a3d
000002a0: cf47 82be d65f 83bc 83dc 64bb e7de 183e
000002b0: 3baa 8abe 5822 283e 8a28 d2bd c1ba c63e
000002c0: 06c2 03be 9103 35bd f4bd 31be 5a01 d3bd
000002d0: e7b9 27bd 1f20 68bd ec47 aebe 081c 3ebe
000002e0: b25b 0abe 6e4c 04bc 9e28 2ebe 6c57 7a3d
000002f0: ea68 173d 3403 f63d d385 1c3e f8d2 ac3d
00000300: d1c4 283b 644a 78be 863a 233e 9bd4 b23d
00000310: 2004 85be 58d6 9dbd c910 9abd 5bad 893e
00000320: e0cc 673d 1ca2 5f3e 840f 05be e4b3 453d
00000330: f5b1 253d 94fb 8a3d a344 27bc a5d9 afbd
00000340: 1b27 1fbd 378c 003d 0491 023c 6df7 64be
00000350: b7cc 893b a507 1f3e ea80 8fbc 25f7 a6bd
00000360: 3301 93bd 3755 343e 37a5 c6bd 164c 5e3e
00000370: c5ae b23d 397f b43d 4124 4b3e 0ee2 263e
00000380: 7382 d9bb 748b f03d 657f 83bd 334d 19bc
00000390: 5209 c1bd b2a3 e33d 2e97 8cbc 5cbd 673e
000003a0: 3ba6 1dbd b92b a53c 9752 63be 96b6 eabd
000003b0: 3d59 df3d 4424 a93d fd8a 253e 4b48 2e3e
000003c0: 5892 ae3d de6b 33be daf3 bb3d ef61 97bd
000003d0: 9fcb ca3d 1bcb 61be d6da cf3d 706e d43d
000003e0: 0607 aa3e 2eb8 db3d 1276 88bd f188 e0bd
000003f0: 0047 973d 8849 253e 1b91 193e b406 c7bd
0.20560269 0.18033725 0.13373931 -0.24900337 0.09454429 -0.3088429 0.037583444 -0.20083751
-0.06638215 0.09285612 -0.02626833 -0.100032054 -0.095122784 -0.09370292 -0.07243622 0.025238909
0.11705062 0.04713016 -0.14597799 0.09452595 -0.120129086 0.1338449 0.03475768 0.2205892
0.11555031 0.086923875 0.1693166 0.20662181 -0.11255701 -0.046568114 -0.006016585 0.070688196
-0.1147854 -0.10335733 -0.013613806 0.15004978 0.050817586 0.034331687 0.04205203 -0.08065568
-0.18003498 0.08152803 -0.07278701 -0.08407797 -0.013004197 0.32144904 0.036327075 0.17732939
-0.0564396 -0.12353311 0.14873081 0.11438418 0.054267988 0.0844267 -0.25992227 -0.23329146
-0.29049715 -0.07216603 -0.022048067 0.10598674 0.07513546 0.12195856 -0.10091215 0.2326012
0.27031893 0.040451944 0.16211553 -0.024377055 0.041837666 0.026864829 -0.4122375 -0.072573535
-0.23258393 0.30876803 -0.17666811 0.21887363 -0.1445512 0.20026971 -0.3751392 -0.008527932
-0.26920763 -0.32509917 0.02557655 0.17046154 0.06656133 0.07631233 0.14640349 0.018210966
0.07550283 0.039550014 -0.10122398 0.102846295 -0.12311291 -0.029741215 0.10972718 0.05962333
-0.2531635 0.048555262 0.00018378845 -0.028917199 0.061625995 0.06385325 0.1381001 -0.09416905
-0.021177882 0.121187374 0.054061793 -0.017135791 -0.038236737 0.06318006 -0.025766492 -0.01319105
-0.2860172 -0.13601671 -0.15845974 0.15578277 -0.047238957 -0.13462494 -0.13907672 0.14542794
-0.10144401 -0.056497436 -0.08882203 0.0413886 0.27450308 0.15125579 -0.14010802 -0.14497404
0.017614165 0.3453948 -0.23095737 -0.1293418 -0.19224706 0.3787862 0.007413005 0.064447835
-0.12946592 -0.2358107 -0.053430423 0.27479208 -0.1417639 0.028262997 -0.058026243 0.15400238
-0.0062606833 0.14018206 0.1462773 0.18294926 0.13758409 0.005858547 -0.13217579 -0.01202693
0.04480499 0.14417395 -0.28945267 0.01871853 -0.36425042 0.12533621 -0.094845146 0.11617613
-0.28037843 0.23195562 0.070682265 -0.022493236 -0.17215489 -0.29055658 0.08567297 0.037790537
-0.2544541 -0.01603691 -0.0034921474 0.1492878 -0.27083 0.16419351 -0.102616385 0.38814357
-0.12866983 -0.044192854 -0.17357618 -0.10302992 -0.040948775 -0.056671258 -0.34039247 -0.1856538
-0.13511541 -0.008074863 -0.17007682 0.06111853 0.03696529 0.1201233 0.15285425 0.084386766
0.0025752077 -0.24247128 0.15940294 0.087319575 -0.2597971 -0.077068985 -0.07522733 0.26890072
0.05659187 0.21839184 -0.129942 0.04826726 0.040452916 0.06786266 -0.010209235 -0.08586434
-0.038855653 0.03138372 0.007969145 -0.2236001 0.004205312 0.1553026 -0.017517526 -0.08152608
-0.07177963 0.17610632 -0.09699481 0.21708712 0.08724741 0.08813328 0.19838049 0.1629717
-0.006637865 0.117453486 -0.06420783 -0.009356785 -0.09425606 0.11115207 -0.017161932 0.22630829
-0.038488608 0.02016245 -0.22199474 -0.11460607 0.10905693 0.0825887 0.16166301 0.17019765
0.085240066 -0.17521617 0.0917737 -0.07391726 0.09902119 -0.22050135 0.101491615 0.10372627
0.33208483 0.10728489 -0.06663145 -0.109636195 0.07386589 0.16141331 0.1499676 -0.097180754

lstm.ih.rho_weight f4 [128, 14]
00000000: 88ad 33c0 19a0 27c0 9ecf 36c0 8865 3cc0
00000010: f7d6 38c0 a43f 33c0 a82d 3ac0 b4ef 33c0
00000020: 0a8d 34c0 62e5 25c0 e543 3dc0 c32c 3bc0
00000030: a7c2 34c0 43b6 2ec0 7446 2ec0 a272 3ec0
00000040: e8a1 42c0 5068 38c0 8f6e 39c0 65c7 39c0
00000050: 127f 35c0 1d8f 34c0 ee8b 39c0 8edc 3cc0
00000060: f1d6 2cc0 240b 37c0 1b7f 30c0 4c3c 41c0
00000070: 4112 33c0 580e 46c0 3159 38c0 ad1b 43c0
00000080: 582a 3ec0 d62c 2ec0 0289 38c0 1f9c 39c0
00000090: 49d3 3bc0 fb8f 39c0 047b 2ec0 9bf4 3bc0
000000a0: 128b 2fc0 38d1 31c0 6d06 36c0 eccf 33c0
000000b0: 5d00 39c0 a1c6 33c0 37c5 40c0 92f9 35c0
000000c0: 6e64 34c0 06d3 35c0 a517 3ec0 2b54 2fc0
000000d0: ee9a 35c0 29b4 2fc0 77b4 3cc0 5b44 2ec0
000000e0: 9867 40c0 df2a 34c0 d653 43c0 43d3 31c0
000000f0: 3e15 38c0 57da 36c0 f961 3fc0 314a 33c0
00000100: d0c4 36c0 b7bf 35c0 e7b6 3bc0 8a36 49c0
00000110: 1365 34c0 fb00 2ec0 bdb7 39c0 cf4f 25c0
00000120: 2867 3ac0 85e0 41c0 3020 3ac0 1dd5 35c0
00000130: a53e 3ec0 85e9 36c0 27aa 41c0 217b 3ec0
00000140: d421 3cc0 d477 33c0 8e4f 3bc0 a667 3ec0
00000150: b579 35c0 409f 3cc0 a6bd 41c0 a1d4 3bc0
00000160: 1546 2bc0 0b41 2fc0 a74f 35c0 cbc1 42c0
00000170: 4219 3dc0 8b24 31c0 eeb1 3cc0 8015 36c0
00000180: ea71 3ec0 03ec 3cc0 055b 35c0 4e5a 36c0
00000190: 072e 35c0 0321 2fc0 dbc8 37c0 68cb 46c0
000001a0: f6bf 46c0 bf58 35c0 0e90 41c0 6435 29c0
000001b0: 6499 41c0 121a 3cc0 4e22 2fc0 69e9 3ec0
000001c0: 7f14 32c0 2cf9 34c0 b02b 33c0 17ec 38c0
000001d0: a8de 32c0 7475 34c0 a067 35c0 2b08 36c0
000001e0: d07e 40c0 0206 2dc0 26a5 37c0 1b83 3ec0
000001f0: 86fc 39c0 0049 35c0 8333 3ec0 2eb5 31c0
00000200: eec5 33c0 a64f 36c0 7680 35c0 21c0 39c0
00000210: 07b9 2fc0 0443 3ac0 5199 2bc0 aaae 34c0
00000220: 490d 40c0 d249 3cc0 a4c6 32c0 2e81 33c0
00000230: 7608 31c0 f773 33c0 295a 2ec0 856d 2fc0
00000240: 5da8 4dc0 4418 2ec0 ad1f 2ac0 9e64 30c0
00000250: 079e 31c0 5ae6 31c0 fa2d 2fc0 632d 3ac0
00000260: 26c9 36c0 7956 35c0 2e0a 3fc0 90c5 33c0
00000270: a984 41c0 0f64 33c0 997f 30c0 1d70 3bc0
00000280: 1cdb 3dc0 396b 45c0 77e4 40c0 d9dc 3ec0
00000290: 506e 42c0 77da 37c0 370c 37c0 4e79 2cc0
000002a0: 99f1 39c0 47f8 36c0 f483 38c0 6fb3 38c0
000002b0: c2e4 3ac0 d2cc 2dc0 476f 33c0 5ce6 37c0
000002c0: 9f3c 35c0 067d 3bc0 b3c4 41c0 0221 3ec0
000002d0: e8b2 3cc0 3989 41c0 a6b1 39c0 b3cf 33c0
000002e0: d111 3cc0 9e3e 37c0 febb 4bc0 8b05 3bc0
000002f0: 1014 40c0 42c8 3dc0 d342 44c0 9b78 3bc0
00000300: 3e39 3bc0 6fa2 39c0 d1bd 37c0 ec2d 3ac0
00000310: 1743 36c0 d3ab 37c0 d3df 3ac0 4304 4dc0
00000320: bd62 46c0 5517 37c0 d1f4 3ac0 aac8 3bc0
00000330: b326 2dc0 e4ef 3ec0 4120 33c0 de1a 34c0
00000340: 084c 40c0 3d42 3fc0 9690 39c0 04ac 35c0
00000350: 7372 35c0 f066 36c0 c84a 39c0 1596 31c0
00000360: 7adc 3ec0 985d 38c0 88d3 3dc0 ab25 32c0
00000370: 1ac6 2dc0 ee76 38c0 72e5 32c0 12e3 31c0
00000380: e405 43c0 4e40 44c0 0019 30c0 41ab 3ec0
00000390: 6cc3 3dc0 0894 3cc0 c13c 39c0 bec6 3dc0
000003a0: 60dc 40c0 6692 39c0 aacc 3dc0 17bb 32c0
000003b0: 27be 3dc0 f955 41c0 25c5 36c0 9a19 3cc0
000003c0: 1f46 36c0 ecbe 31c0 14bf 33c0 d1d9 38c0
000003d0: 7c8b 42c0 08ec 37c0 a474 3ac0 03e4 28c0
000003e0: 6d6e 38c0 372a 36c0 7f13 36c0 521c 3ac0
000003f0: 4379 3cc0 c28c 38c0 06a5 3fc0 db5a 3bc0
-2.8074665 -2.6191466 -2.856422 -2.943697 -2.8881204 -2.8007593 -2.9090366 -2.8115053
-2.8211083 -2.5921254 -2.957269 -2.924607 -2.8243806 -2.7298744 -2.72305 -2.9757466
-3.041132 -2.8813667 -2.897373 -2.902795 -2.8358808 -2.821235 -2.8991656 -2.9509616
-2.700619 -2.860055 -2.757758 -3.0193052 -2.7979891 -3.0946255 -2.8804438 -3.0485642
-2.9713345 -2.7214866 -2.8833623 -2.9001539 -2.9347708 -2.8994129 -2.7262583 -2.9368045
-2.7428632 -2.7783947 -2.8441422 -2.8095655 -2.8906472 -2.8089983 -3.012037 -2.8433576
-2.8186297 -2.8410048 -2.9701931 -2.7395122 -2.8375812 -2.745371 -2.9485147 -2.722922
-3.0063229 -2.8151166 -3.051992 -2.7785194 -2.8762965 -2.8570764 -2.9903548 -2.8014033
-2.8557625 -2.8398263 -2.9330385 -3.1439538 -2.818669 -2.7188098 -2.9018395 -2.5829961
-2.9125462 -3.0293286 -2.9082146 -2.8411324 -2.9725735 -2.858003 -3.0260103 -2.9762652
-2.9395647 -2.8041887 -2.9267306 -2.9750762 -2.8355534 -2.9472198 -3.0272002 -2.9348528
-2.6761525 -2.738345 -2.8329866 -3.0430782 -2.9546666 -2.7678554 -2.94836 -2.8450623
-2.9757028 -2.951905 -2.8336804 -2.8492618 -2.8309343 -2.7363899 -2.8716342 -3.106165
-3.1054664 -2.8335416 -3.0244174 -2.6438837 -3.0249872 -2.9390912 -2.7364688 -2.9829962
-2.782501 -2.8277082 -2.7995415 -2.8894098 -2.7948399 -2.8196688 -2.8344498 -2.8442485
-3.00774 -2.7034917 -2.8694549 -2.976752 -2.9060378 -2.8325806 -2.971894 -2.7766833
-2.8089557 -2.8486114 -2.8359656 -2.9023516 -2.7456682 -2.9103403 -2.6812327 -2.8231606
-3.0008109 -2.9420056 -2.793374 -2.8047595 -2.7661414 -2.803953 -2.724253 -2.7410595
-3.213401 -2.720231 -2.6581833 -2.7561412 -2.7752702 -2.7796845 -2.7371812 -2.9090202
-2.8560271 -2.8334029 -2.9849963 -2.8089333 -3.023722 -2.802982 -2.757788 -2.9287179
-2.9664984 -3.0846694 -3.0139444 -2.9822295 -3.037983 -2.872709 -2.8601205 -2.6949039
-2.905371 -2.8589036 -2.8830538 -2.8859518 -2.9202123 -2.7156262 -2.8036668 -2.873435
-2.831825 -2.9295058 -3.0276306 -2.9707646 -2.9484196 -3.0240004 -2.9014678 -2.809552
-2.9385874 -2.8631968 -3.1833491 -2.9222133 -3.0012245 -2.9653478 -3.0665786 -2.9292362
-2.9253688 -2.9005392 -2.8709605 -2.9090528 -2.8478448 -2.8698623 -2.9199111 -3.203385
-3.0997765 -2.860799 -2.9211924 -2.9341226 -2.705487 -2.9833918 -2.7988436 -2.8141398
-3.0046406 -2.9884179 -2.8994498 -2.838624 -2.8351104 -2.8500328 -2.8951893 -2.7747853
-2.9822068 -2.8807125 -2.9660358 -2.783549 -2.7152162 -2.882259 -2.7952542 -2.7794843
-3.0472345 -3.0664248 -2.7515259 -2.9792025 -2.9650526 -2.946535 -2.8943331 -2.9652553
-3.0134506 -2.8995605 -2.9656167 -2.792669 -2.964731 -3.0208724 -2.8557827 -2.9390626
-2.8480299 -2.777278 -2.8085375 -2.8882945 -3.0397635 -2.8737812 -2.9133692 -2.6389167
-2.8817399 -2.8463266 -2.84494 -2.9079785 -2.9449012 -2.8835912 -2.9944472 -2.9274204

lstm.ih.mu_bias f4 [128]
00000000: fb5e b53d 7196 9cbd 4032 6e3e 8db3 113d
00000010: dbee 3c3d 0123 363e 323b 4a3e e8a4 943d
00000020: 6579 563e 0bb8 5dbc 74f1 103c bcc0 523d
00000030: 731b c13d 983d 8d3c e847 983d d34e 84bc
00000040: f4f0 75be 50e5 d23d fcf8 9e3b 7b8b dbbc
00000050: 135f a83d 6e00 283d cfdc 19bd 2191 273c
00000060: e0f9 113d 4aaf 3e3e 579a 553e f225 9f3d
00000070: 7ace 8b3e 8c48 c6bd 8f17 973e dbf2 44be
00000080: 5474 913e 49f0 b4bd 5881 e03d f7ac 283e
00000090: 0963 813d fc2e b5bb 2aee 243d 2657 803e
000000a0: 2389 4d3d 736a b7bc e226 9b3d a136 da3d
000000b0: c31e e6bb 0874 e3bd ec4f fbbd 9810 9b3d
000000c0: 30b5 0d3d 4c16 0f3e 00df 863e 2dc3 d83b
000000d0: 194d ffbd a2bd 93bb e7be 143e 19ae 553e
000000e0: ddc5 19be 4968 3a3d 5046 e73d c5b4 ee3d
000000f0: 85ed 6d3e c0ce 12bd c044 8e3e ddb3 47be
00000100: df1d 61bc 72a2 8b3c 4610 b83e ecb2 e2bd
00000110: b668 3c3e eb8d 793d d9a8 923d 948c 0dbe
00000120: d534 0ebe a9a0 0c3e cd2e a5bd 2264 bb3d
00000130: f61f f2bd 547f 013e 2dc0 653e fd4e 833d
00000140: a8d4 33bd 109c 23be b21f 95be 231a 073c
00000150: 29e5 9ebe 6abf 153e 4820 0b3e a05d a63b
00000160: e81f 04bd 1004 2bbd 436d 1fbd 94fd 233e
00000170: eb93 48be a3c3 1c3e bfa5 36be 9014 0e3d
00000180: e97b 243e 584c 643e b210 b23d bc6a ce3c
00000190: f789 833e d66b 3d3e c629 d6bc 551a fb3e
000001a0: 4699 923e 9c96 973e 11e2 c43d a879 01bd
000001b0: 8061 a43d d30b 243e 64c0 0c3e d2c8 403d
000001c0: 7526 9c3e 0525 7e3e 0e85 783e 1144 843e
000001d0: fab0 713d f2da 303e cf18 4a3e 96f5 dd3e
000001e0: 637b d93d d720 7d3e 4de2 9c3d aaee 8a3e
000001f0: af26 853e 57d1 fa3e 83a8 393e 7c11 223b
0.08856007 -0.07645882 0.23261356 0.035571624 0.046126228 0.1778679 0.19749144 0.07258016
0.20944746 -0.013532649 0.008846629 0.051453337 0.09429064 0.017241284 0.0743559 -0.016150868
-0.24017698 0.10297644 0.0048514586 -0.026799908 0.08221259 0.041016035 -0.037564095 0.0102274725
0.03563869 0.18621555 0.20859657 0.07770909 0.27305967 -0.09681806 0.2951016 -0.19233267
0.28409064 -0.08834893 0.1096217 0.16472231 0.063177176 -0.0055292826 0.040266193 0.2506649
0.050179612 -0.022389626 0.07575776 0.10654951 -0.00702271 -0.111061156 -0.12271103 0.075715244
0.034596622 0.1397335 0.2634201 0.0066150636 -0.12465877 -0.00450869 0.14525948 0.20867194
-0.15016885 0.04550961 0.11292708 0.11655573 0.23235138 -0.035841703 0.27786827 -0.19502206
-0.013740032 0.017045233 0.35949916 -0.11069283 0.18399319 0.06092636 0.071611114 -0.13823158
-0.13887341 0.13733162 -0.08065567 0.09149958 -0.11822502 0.12646228 0.2243659 0.0641155
-0.043903977 -0.15977502 -0.29125744 0.008245978 -0.3103421 0.146238 0.13586533 0.005077079
-0.03225699 -0.04175192 -0.03892256 0.16014701 -0.19587676 0.15309004 -0.17836665 0.03468758
0.16062893 0.22294748 0.08694591 0.02519738 0.25691196 0.18498167 -0.026142966 0.49043527
0.28632563 0.29607093 0.09613431 -0.03161016 0.08026409 0.16020136 0.13745266 0.047066517
0.3049809 0.2481881 0.24269506 0.2583318 0.05900667 0.17271021 0.19736026 0.4335143
0.10619237 0.24719559 0.07660351 0.2713521 0.26006076 0.4898784 0.18130688 0.002472966

lstm.ih.rho_bias f4 [128]
00000000: 6bed 1dc0 cd17 28c0 8ebf 12c0 c0f7 1bc0
00000010: e3d0 38c0 be7a 1bc0 28ae 2ac0 a285 30c0
00000020: 7f4c 25c0 7c13 24c0 9748 28c0 dabd 36c0
00000030: 15a3 20c0 7bd0 30c0 f79d 2ec0 8c64 2dc0
00000040: 4360 30c0 8d99 25c0 2df3 23c0 d834 2cc0
00000050: 4bfe 2ec0 2f51 28c0 95e9 1bc0 918f 26c0
00000060: ffe3 27c0 d7c3 1bc0 1af2 34c0 2e94 34c0
00000070: 9848 0bc0 ec0a 2fc0 89b7 26c0 4ec4 2bc0
00000080: 5311 01c0 1dcc 2fc0 0b4c 14c0 c812 3dc0
00000090: b682 27c0 85e9 28c0 8b72 3dc0 6086 33c0
000000a0: 8d05 0cc0 e36b 2cc0 0131 2cc0 87a0 3ec0
000000b0: 6a3e 30c0 27ef 23c0 f14f 2ec0 bad2 37c0
000000c0: 6e89 30c0 9711 1dc0 81b7 30c0 38cf 2cc0
000000d0: 43b4 35c0 5f4f 27c0 e028 21c0 b4c6 2dc0
000000e0: 2338 2fc0 1e20 0ec0 0b13 23c0 9eee 3bc0
000000f0: dd78 0cc0 5cc5 38c0 2c37 16c0 1ebf 36c0
00000100: 159b 30c0 1171 39c0 2d93 30c0 6b34 42c0
00000110: d5f0 3bc0 d5dc 2cc0 cbf7 3dc0 c72a 34c0
00000120: 7cf5 45c0 1455 28c0 b01d 2fc0 7d87 45c0
00000130: 1e38 34c0 9432 32c0 dd37 41c0 31f0 44c0
00000140: efb7 2fc0 71bb 2fc0 d0b8 32c0 9724 39c0
00000150: 06e9 2ec0 1c0e 35c0 6f32 2dc0 4128 36c0
00000160: 6fa4 41c0 1c82 2fc0 7eb0 33c0 b015 35c0
00000170: 9fa6 3ec0 9fc1 42c0 824c 2cc0 9feb 2ec0
00000180: a7ce 22c0 73c2 0bc0 1247 30c0 e5dc 34c0
00000190: f624 21c0 4e7e 16c0 df37 17c0 930a 24c0
000001a0: 31cc 22c0 0758 24c0 a4e4 14c0 d2fb 29c0
000001b0: 23f9 29c0 4a6b 2cc0 1909 25c0 fa2a 29c0
000001c0: 4700 17c0 ce8e 34c0 2977 2ec0 025c 1dc0
000001d0: a6b8 22c0 7d15 20c0 9efb 21c0 6ce1 36c0
000001e0: 7f89 28c0 3106 38c0 931b 1ac0 82c5 1ec0
000001f0: 09f0 20c0 45b9 2cc0 064c 37c0 2432 2bc0
-2.4676158 -2.6264527 -2.2929416 -2.4369965 -2.8877494 -2.4293666 -2.6668797 -2.7581563
-2.582794 -2.5636892 -2.6294305 -2.8553376 -2.5099537 -2.7627246 -2.7283914 -2.709262
-2.7558753 -2.587497 -2.5617173 -2.6907253 -2.7342708 -2.629955 -2.4361317 -2.6025126
-2.6232908 -2.433828 -2.8272767 -2.8215442 -2.1763058 -2.7350416 -2.604952 -2.6838565
-2.0166824 -2.746833 -2.3171413 -2.9542713 -2.617353 -2.639253 -2.9601161 -2.8050766
-2.1878388 -2.694085 -2.690491 -2.9785478 -2.7538095 -2.5614717 -2.7236292 -2.8722367
-2.758388 -2.4541986 -2.7612002 -2.7001476 -2.8391273 -2.6142194 -2.5181198 -2.7152529
-2.7378013 -2.2207103 -2.5480373 -2.936439 -2.194877 -2.8870459 -2.3471174 -2.8554149
-2.7594655 -2.897526 -2.758983 -3.0344493 -2.9365742 -2.7009785 -2.968249 -2.815111
-3.0931082 -2.6301928 -2.736187 -3.0863945 -2.8159251 -2.784337 -3.0190346 -3.0771601
-2.7456014 -2.7458155 -2.79253 -2.8928583 -2.7329726 -2.8289862 -2.7062032 -2.846207
-3.0256612 -2.7423162 -2.8076472 -2.8294487 -2.9789197 -3.0430677 -2.6921697 -2.7331312
-2.543863 -2.1837432 -2.7543378 -2.8259823 -2.517881 -2.351459 -2.362785 -2.5631454
-2.5437129 -2.5678728 -2.326455 -2.655995 -2.655831 -2.6940484 -2.5786803 -2.643248
-2.359392 -2.821216 -2.726023 -2.4587407 -2.54252 -2.5013115 -2.5309825 -2.8575087
-2.633392 -2.875378 -2.407933 -2.480805 -2.5146506 -2.698808 -2.864015 -2.6749353

lstm.hh.mu_weight f4 [128, 32]
00000000: cbb9 e83d 3c5e 16bd 7a92 483e 9610 3c3d
00000010: 18c7 20bd f676 e43d f4cc 00be 0e1e 3dbe
00000020: 3e2c fbbd b70b 523e 75ad 78be af38 193d
00000030: b7e0 babd e5a2 81bd bce4 fd3d ac80 34bb
00000040: 2c0c 41be 6d2a 39be 84c8 97be d95d 96bd
00000050: bdce e1bc dc6f bdbd a3f1 573e 733b 663e
00000060: 8df2 14bd 7dca 2bbe 5fef 943d d69d 113d
00000070: bd2b 25bd 09e6 3b3c 000a 0abd 99c1 383e
00000080: 8ffb 97bd ce53 723e d16d 1bbe c961 f9bd
00000090: 39d9 c83d 56dd c6bc ab1f 4e3e 5c39 d8bd
000000a0: 0d9b 013e b179 28bd 984d 35bc bfd0 02bd
000000b0: eda0 c7be 7442 003e 508c 9d3d 2846 063e
000000c0: d793 6d3e 58b1 8d3d a9d0 293e 80cf 01be
000000d0: 081a 8c3c 9951 643d 9f69 86be fa60 953e
000000e0: ff20 b7bd cadd 2c3e c24b b03d 363e cabc
000000f0: 5e2d febc 5a56 ef3d eb23 d23d c9b3 93be
00000100: 46de 853e ee68 10be 51a9 a53e 5730 ae3c
00000110: 5763 9f3e 33f3 843e 8584 cb3d 4b36 adbe
00000120: d8c0 59be 7ac1 c53d a672 17be e397 233e
00000130: 7f18 b4bd 2b0a 473e 7d17 be3e fb7d 0fbd
00000140: e5bb 84be 2629 94be b40c f9be e07c 8e3e
00000150: bd28 e8bd 474a 46bc df5d 17be e06e 913e
00000160: 7ea3 c93d ca20 64bd d865 143e 7aac 4c3e
00000170: dbb4 053d d971 b9bd 2099 a2be 4598 9cbd
00000180: fcf5 293e b25b 37be 6332 53bc b4eb 21bd
00000190: fbef 593e bbe6 483d a1d7 f23d 959a 60be
000001a0: 8a6b 7abd 9b1c 9bbd 4004 e9be 3f58 573e
000001b0: 92f1 04be 1544 fc3e d695 503d 4a02 613e
000001c0: 2ff4 58be a610 29bc 8f94 ddbe d97e 9cbd
000001d0: 1678 d1bd 3cd3 d83d da1e 80bd ffef 2a3e
000001e0: 7632 adbe 23de 093d 5443 de3e b0f9 893e
000001f0: 5932 783c ee4e 91be 9d4a 2cbe 619c 33be
00000200: df2b d23c 35c7 19be e9b7 533d 9bb0 58be
00000210: ec4e 503e 1c7b b13d cfb4 acbb c8e7 8cbe
00000220: eae0 473c 29fa 2abe 6e0e 96be db4a a2bd
00000230: d421 a3be 99b5 a0bc 9ff7 613d 86f6 5f3e
00000240: fe5c a8bc ff6b 22be 67bc 29be b06c d4bd
00000250: 6dd3 94bd a970 10bd 26cc b8bd 780d 833e
00000260: 5326 e2bd 6151 ab3d e9bb 403d 56fd 253e
00000270: b379 aebd 286b 863d 2144 0f3d bf51 60bd
00000280: 1473 4fbe a765 2dbd 12c3 3aba 7f27 ecbd
00000290: 4301 233e 31c8 893d 508f c93c 813b ddbd
000002a0: e4ac 6fbe f663 e33d ce8e 81be e4d1 773d
000002b0: 2f09 5bbe d6bb 883e 40c7 49bc e8f6 b53d
000002c0: 5a3f 5d3d 1d35 51bd e5c8 35be 2e65 843c
000002d0: edb2 f8bd a940 0a3d 53f9 c33d 4256 09be
000002e0: 6dc4 31be aa54 b4bd a9ed ed3d 7bd3 013e
000002f0: 4615 873d 69ed 9dbe cc22 09bd 9cef 86be
00000300: 63c8 72bd 7c4b ccbd 30ef 913c efc3 563d
00000310: 358c f83d faf9 063d 1afb 8bbe 717d c43d
00000320: 8fb6 87be 67b5 f33c 3410 163c e468 38bd
00000330: 51a5 69be a301 2d3c 8220 7f3e 4daf ed3c
00000340: 4596 e4bd 78e8 843c 0b35 6fbe f196 6bbd
00000350: 6d36 cfbd 31af 5a3e 0e42 df3d ebc9 3fbe
00000360: a9a0 a9bd bb59 30bd c22e b73d 0813 77bd
00000370: 8ba6 0ebe 044e 95bd 6891 24be fe0e 20be
00000380: a84c d53c 0847 62bc 9632 0dbb df17 8a3d
00000390: 20ad 0cbe 5e9c ac3d a702 053e df70 dd3c
000003a0: f026 783e a5d2 29bd ddcb a2bd f0cb ec3c
000003b0: fb13 97be d286 89bd d315 c73d a661 64be
000003c0: 254d 873d b9e4 eebc 3e6f 003e 0352 823d
000003d0: c881 fbbd ca5b e0bc f850 24bd 2908 143e
000003e0: 6020 373e 0041 813d ae19 a2bd 0a49 9cbd
000003f0: 4041 863e d8e0 f03c 60f6 9a3d e2e6 45be
0.11363562 -0.036710963 0.19587126 0.045914255 -0.03925237 0.111555025 -0.12578183 -0.18468496
-0.12264298 0.20512281 -0.24284919 0.037407573 -0.09124892 -0.06329898 0.12397143 -0.0027542515
-0.188523 -0.1808259 -0.2964517 -0.07342119 -0.0275644 -0.09249851 0.21088271 0.22483616
-0.036364127 -0.16776462 0.07272219 0.035550915 -0.040324915 0.011468419 -0.033700943 0.18042602
-0.07421028 0.23664781 -0.1517861 -0.12176854 0.09807057 -0.024275463 0.20129268 -0.105578154
0.12656803 -0.04113168 -0.011065863 -0.031937357 -0.38989964 0.1252535 0.07692778 0.131127
0.23200928 0.06918591 0.16583504 -0.12676811 0.017102256 0.05574188 -0.26252457 0.2917555
-0.089418404 0.16881481 0.086082 -0.024687868 -0.031027492 0.11686392 0.10260757 -0.28848103
0.26146144 -0.14102527 0.3235574 0.021263285 0.31130478 0.25966796 0.099373855 -0.33830485
-0.2126497 0.09656043 -0.14789829 0.15975909 -0.08793735 0.19437473 0.37127295 -0.035032254
-0.25924602 -0.28937644 -0.48642504 0.27829647 -0.11335895 -0.01210267 -0.14781903 0.28404903
0.09845637 -0.055695333 0.14491975 0.1998767 0.03264318 -0.09054918 -0.3175745 -0.076462306
0.16597742 -0.17906073 -0.012890431 -0.039531425 0.21282952 0.049048167 0.11857534 -0.21933968
-0.061137713 -0.075738154 -0.45511055 0.21029757 -0.12982777 0.49270692 0.050924145 0.2197353
-0.21186899 -0.010318911 -0.43277404 -0.07641382 -0.10227983 0.10587165 -0.062558845 0.16693114
-0.3382756 0.03365911 0.43410742 0.2694831 0.015148723 -0.2838053 -0.16825338 -0.17540123
0.025655685 -0.15017398 0.051689062 -0.2116112 0.20342606 0.086660594 -0.0052705775 -0.27520585
0.01219962 -0.16696991 -0.29307884 -0.07924434 -0.31861746 -0.019617843 0.05516779 0.21871385
-0.020552155 -0.1586151 -0.16575776 -0.10372293 -0.07266889 -0.03526369 -0.09023313 0.25596213
-0.11042466 0.08365131 0.047054205 0.16209921 -0.08519306 0.06563407 0.034977082 -0.05476546
-0.20258743 -0.04233327 -0.00071244047 -0.11530971 0.1591845 0.067276366 0.02460447 -0.10802365
-0.23405796 0.111030504 -0.25304264 0.0605029 -0.21390222 0.26705807 -0.012315571 0.08884984
0.054015495 -0.051076043 -0.17752416 0.016161527 -0.121435024 0.03375307 0.09569039 -0.13411811
-0.17360087 -0.08805211 0.11617596 0.1267833 0.065958545 -0.30845192 -0.03348045 -0.26354682
-0.059273135 -0.09975335 0.017814249 0.05243295 0.12136117 0.03295324 -0.27340013 0.095942385
-0.2650647 0.029749585 0.009159137 -0.045021906 -0.2281697 0.010559472 0.24914744 0.029014254
-0.11161474 0.016224131 -0.23360078 -0.057516996 -0.10117803 0.21355893 0.10901271 -0.1872937
-0.082825966 -0.043054324 0.08944465 -0.060320884 -0.13930719 -0.07290271 -0.16071093 -0.15630719
0.02603753 -0.0138108805 -0.0021545044 0.06742834 -0.13737917 0.08428262 0.12989293 0.02703136
0.24233603 -0.041460652 -0.0794904 0.028905839 -0.2950743 -0.06715168 0.097209595 -0.22302875
0.06606511 -0.029161798 0.12542436 0.06363299 -0.12280613 -0.027387518 -0.04011628 0.14456238
0.17883444 0.06311226 -0.07915054 -0.076311186 0.26221657 0.029404089 0.075665236 -0.19326356

lstm.hh.rho_weight f4 [128, 32]
00000000: b4f2 45c0 3530 38c0 9498 48c0 aef7 2ac0
00000010: c105 3bc0 4800 3dc0 7a9c 37c0 fc04 37c0
00000020: 4e4f 34c0 8acc 3ac0 6701 42c0 0118 3cc0
00000030: fcd5 3dc0 86da 33c0 b351 38c0 faf8 42c0
00000040: 01f8 2fc0 1512 39c0 5161 34c0 cf00 40c0
00000050: f419 49c0 73e6 3ac0 1b69 37c0 4e88 30c0
00000060: 4b13 30c0 5593 3ac0 2f8b 2ec0 47cb 3dc0
00000070: c376 32c0 1f7a 33c0 4ddd 38c0 ea37 31c0
00000080: 4fff 3dc0 009b 46c0 a49a 3ac0 c2d1 3ec0
00000090: ca1f 3cc0 6200 3bc0 5ba1 38c0 1522 30c0
000000a0: 0abd 32c0 d34d 36c0 5d36 46c0 b128 32c0
000000b0: db78 3ac0 471a 3ec0 a60b 3bc0 7fd3 39c0
000000c0: fac3 3cc0 9393 37c0 8be4 34c0 c9b9 3fc0
000000d0: 4195 41c0 4e1d 40c0 6092 40c0 c02d 33c0
000000e0: b87c 42c0 3c3c 3fc0 9bc5 38c0 cf85 47c0
000000f0: 22b2 42c0 5c9c 39c0 d758 35c0 a2f5 2ec0
00000100: 0f91 2bc0 f11d 1bc0 7178 3bc0 1461 2fc0
00000110: f2a5 3ac0 a3ea 30c0 15f8 12c0 c0bb 2dc0
00000120: ee1d 28c0 0b93 2ec0 28b6 27c0 f4de 2ec0
00000130: 121b 30c0 a83b 25c0 18cf 32c0 46e9 27c0
00000140: 381e 23c0 9c52 3fc0 6cef 3dc0 d71b 23c0
00000150: 0453 29c0 25bc 27c0 2a77 34c0 e163 2dc0
00000160: f92e 31c0 bf7c 2bc0 eaa1 2dc0 7adf 26c0
00000170: 1916 2ac0 0168 34c0 70e5 36c0 8331 28c0
00000180: 4064 38c0 b601 39c0 bb65 48c0 69a5 34c0
00000190: 5b7d 3bc0 f100 3ec0 5b38 49c0 201f 3ec0
000001a0: cbc2 2bc0 3ec1 44c0 a5d1 3cc0 1231 3bc0
000001b0: 52cf 34c0 4517 3cc0 4144 43c0 6fd6 3ac0
000001c0: cda8 32c0 51c4 30c0 49a2 35c0 b322 35c0
000001d0: c7d2 34c0 e07b 32c0 f2b4 38c0 4942 37c0
000001e0: f8d8 3ac0 2694 33c0 1020 38c0 cff7 33c0
000001f0: de6f 44c0 822c 45c0 cc12 41c0 e962 3ac0
00000200: c676 30c0 c61e 3cc0 dcde 3ec0 9d0d 36c0
00000210: d695 33c0 7711 3bc0 63a7 34c0 b81f 40c0
00000220: f088 25c0 a2cb 31c0 1210 38c0 823a 3cc0
00000230: 5ec3 4dc0 1807 39c0 9978 3fc0 db89 3cc0
00000240: 01da 39c0 7f92 45c0 e8d8 3bc0 cbf6 37c0
00000250: ba61 42c0 52da 3cc0 6d3d 46c0 3e87 32c0
00000260: c3fa 32c0 5c77 2ec0 5fe2 35c0 2972 3dc0
00000270: 19f4 3ec0 cdfe 32c0 963d 3cc0 2ffe 2cc0
00000280: 2128 3cc0 5ef0 38c0 e6d6 40c0 3aed 41c0
00000290: 8340 3bc0 d48d 4ac0 fb5c 2dc0 50cf 3fc0
000002a0: 9df8 40c0 c221 3ec0 82a6 35c0 7a62 3cc0
000002b0: 3b30 3ec0 b6b8 35c0 cc1d 32c0 95bc 30c0
000002c0: 8cc8 36c0 85ca 33c0 1821 35c0 a4db 3cc0
000002d0: 19ee 35c0 1f30 41c0 aaf0 3ac0 a73c 38c0
000002e0: 0f75 3bc0 c1b0 3fc0 64df 3ec0 17d9 41c0
000002f0: cdfb 3cc0 64a7 3cc0 19d3 4bc0 d708 2ec0
00000300: 3b66 41c0 fb29 39c0 37f6 35c0 e020 3fc0
00000310: 2154 39c0 0db5 35c0 b48e 35c0 70c2 40c0
00000320: 8f84 37c0 781f 4fc0 5541 40c0 5081 3fc0
00000330: b69b 3ac0 5a9b 42c0 26b1 39c0 b587 4dc0
00000340: b5c4 38c0 7ba0 3cc0 d1b9 3ec0 2899 3dc0
00000350: 5a5e 37c0 333c 41c0 0717 37c0 a734 35c0
00000360: ffed 41c0 f802 43c0 a6b8 44c0 33b3 3cc0
00000370: 9a02 4fc0 b0d4 40c0 ee93 3cc0 a11a 41c0
00000380: cf22 37c0 3f81 3fc0 c685 39c0 3fb6 47c0
00000390: 331c 33c0 1e3c 46c0 a204 2bc0 5fd6 3dc0
000003a0: 09f7 2cc0 a6cc 32c0 a564 32c0 22a9 39c0
000003b0: 5752 3cc0 11ee 34c0 a999 35c0 26fe 2dc0
000003c0: 50da 41c0 57e9 35c0 6209 2ec0 bf94 3ac0
000003d0: bcc6 2cc0 691d 37c0 cec6 38c0 d221 26c0
000003e0: 9018 3dc0 99dc 3ac0 488c 4ec0 4f3f 3bc0
000003f0: 74b4 40c0 108b 38c0 9588 3ec0 b6dc 28c0
-3.0929384 -2.8779423 -3.1343126 -2.6713672 -2.9222262 -2.9531422 -2.8689256 -2.8596792
-2.8173404 -2.918734 -3.0313356 -2.938965 -2.9661856 -2.8102126 -2.8799865 -3.0464463
-2.749512 -2.8917286 -2.8184397 -3.0000494 -3.142209 -2.9203155 -2.8657901 -2.7583194
-2.7511775 -2.9152424 -2.727245 -2.965532 -2.7884986 -2.8043287 -2.8885071 -2.7690377
-2.9687078 -3.1032104 -2.9156885 -2.9815526 -2.9394403 -2.9218984 -2.8848484 -2.7520802
-2.792788 -2.8485 -3.097068 -2.7837336 -2.9136264 -2.9703538 -2.922586 -2.9035337
-2.9494615 -2.8683822 -2.8264492 -2.9957144 -3.0247347 -3.0017886 -3.008934 -2.7996674
-3.0388622 -2.9880514 -2.8870609 -3.117542 -3.0421224 -2.9001684 -2.8335474 -2.7337422
-2.6807287 -2.4237025 -2.9292262 -2.7403002 -2.9163785 -2.764321 -2.2963917 -2.7145844
-2.6268268 -2.7277248 -2.620493 -2.732358 -2.7516522 -2.5817661 -2.79389 -2.6236129
-2.5487194 -2.989417 -2.9677382 -2.5485742 -2.6456919 -2.6208584 -2.8197732 -2.7092211
-2.768492 -2.679489 -2.7130075 -2.60739 -2.6575987 -2.818848 -2.8577538 -2.628022
-2.8811188 -2.8907294 -3.1312091 -2.8225958 -2.929526 -2.9688075 -3.1440647 -2.9706497
-2.6837642 -3.0742946 -2.9502957 -2.92487 -2.8251538 -2.9389203 -3.051041 -2.919338
-2.7915528 -2.7619822 -2.83803 -2.8302429 -2.8253648 -2.7888107 -2.886044 -2.8634207
-2.9194927 -2.8059173 -2.876957 -2.812 -3.0693278 -3.0808415 -3.0167723 -2.912287
-2.7572494 -2.9393783 -2.9823523 -2.844581 -2.8060203 -2.922941 -2.8227165 -3.001936
-2.586483 -2.7780538 -2.8759809 -2.941071 -3.2150493 -2.891058 -2.9917357 -2.945914
-2.903931 -3.0870664 -2.935114 -2.874438 -3.0372148 -2.9508252 -3.0974991 -2.7895045
-2.7965553 -2.726035 -2.8419416 -2.9600928 -2.9836485 -2.7968018 -2.941259 -2.7030141
-2.9399493 -2.8896708 -3.0131164 -3.0301042 -2.9258125 -3.1649065 -2.7088 -2.9970284
-3.0151742 -2.9708104 -2.8382878 -2.9435105 -2.9716938 -2.8393989 -2.7830687 -2.7615101
-2.8559904 -2.8092358 -2.830145 -2.9509058 -2.8426573 -3.018562 -2.920939 -2.878702
-2.9290197 -2.9951632 -2.9823847 -3.028875 -2.9528687 -2.9477167 -3.1847594 -2.7192895
-3.0218647 -2.8931873 -2.8431528 -2.9863815 -2.8957598 -2.8391755 -2.836835 -3.0118675
-2.8674657 -3.2362957 -3.0039876 -2.9922676 -2.9157538 -3.040732 -2.9014373 -3.211408
-2.887006 -2.947295 -2.9800913 -2.962473 -2.8651338 -3.0192993 -2.8607805 -2.8313386
-3.0301511 -3.0470562 -3.07377 -2.9484375 -3.2345338 -3.0129814 -2.946529 -3.0172503
-2.8614995 -2.9922636 -2.89879 -3.1204984 -2.7985961 -3.0974193 -2.6721578 -2.9662092
-2.7025778 -2.7937407 -2.7873929 -2.900948 -2.9425256 -2.8270304 -2.8375037 -2.718637
-3.0289497 -2.842367 -2.7193227 -2.9153287 -2.6996298 -2.86117 -2.887134 -2.5958142
-2.9546242 -2.9197142 -3.227312 -2.925739 -3.011014 -2.8834877 -2.9770863 -2.6384711

lstm.hh.mu_bias f4 [128]
00000000: ee2c a93e 68fe 113d 9d0e 8a3e fdd6 fb3d
00000010: 4984 fc3d 592b e0bd e647 cabd 0316 353e
00000020: 3ce7 383e 6eaa c63d 401c 86ba 8cf0 853d
00000030: 3f8e ed3d d59d 08bb 5c31 d53d b1ca 04be
00000040: fa92 99bd c76a 9b3e 3171 033e 34c9 19bd
00000050: fb0e dfbd 60be 4e3e 904d ae3e 6cbd 78bd
00000060: 0e4b 023e 1e38 863e 1cf3 8d3b 24fe 84bd
00000070: 159c 173e f203 5cbd 3bb2 f33e 1270 feba
00000080: 463c 0c3e d3a7 89bd 748e 623d 2214 27bd
00000090: d1ae cabd 60fd 7bbd dd68 913d 3a55 c33e
000000a0: 48ef 94bd 7f50 023e 9a78 fcbd 9819 c53d
000000b0: a5b2 aa3c 794a 18bc 1bbf 43bd 66a3 36bd
000000c0: ee63 583d a02c 8c3e b2dd 5e3d b2e1 663d
000000d0: cefa 303e 62e6 5e3d cee2 173e b40d 973e
000000e0: 1997 503e 4267 0e3e 2f01 093e b628 8d3d
000000f0: 0f92 583e 510a 423d ddd2 c13d ce7f 603e
00000100: b13a 823e a7c7 2abe 938e a43e 02da d6bd
00000110: 3b50 103e a133 133e 5c89 dbbd ebb8 a6bd
00000120: d701 a3bd 7647 a63d 2461 f0bd 9f61 c6bc
00000130: 43ef ad3d 18f9 383d 051f 3f3e ccff 443e
00000140: 5b81 e7bd 4231 8abe 5bb9 7ebe c236 973d
00000150: fec6 bd39 a5db 243e c99b 89bc cfcd 5d3e
00000160: ba31 3c3e 3a25 2dbe fae2 0a3e 488e 7c3e
00000170: 97de 2cbe 3d4a 9ebd fa7b c0be fea0 8dbd
00000180: 41d4 613e bb18 5d3d 7ada 6e3e 31c2 923e
00000190: c7ad 933e 74e1 bc3d 90f8 863e 8ac3 813e
000001a0: 7d41 883e 6e26 953e 85cc 763e 0879 383d
000001b0: 0d89 bd3c b87b 2c3e e14b 8f3e a0e4 5a3e
000001c0: 7ed9 a63e a722 813d 62e1 533e 4d73 3a3e
000001d0: 423a 893d b157 ca3e 5b6a bf3e 97d1 9c3e
000001e0: 0f41 203d 356d 023e 306b bf3e be2f b13e
000001f0: 676a a93e f856 8e3e 0889 8d3e 0047 e03d
0.3304209 0.03564301 0.26964274 0.12296865 0.12329919 -0.10945768 -0.09876995 0.17684178
0.18056959 0.09700476 -0.0010231808 0.06540021 0.11599397 -0.0020846028 0.10409805 -0.12967946
-0.07498737 0.30354902 0.12836148 -0.037545398 -0.10891529 0.2018981 0.3404355 -0.06072752
0.12723944 0.2621469 0.0043319594 -0.06493786 0.14805634 -0.0537147 0.47596917 -0.0019412062
0.13694867 -0.06721463 0.055311635 -0.040790685 -0.09896625 -0.061520934 0.07100079 0.3815096
-0.07272202 0.1272602 -0.123276904 0.09624022 0.020837137 -0.009295099 -0.047789674 -0.044589423
0.052829675 0.27377796 0.054410644 0.056367584 0.17283174 0.05441893 0.14832613 0.29502642
0.20370139 0.13906577 0.13379358 0.068925306 0.21149467 0.04737312 0.09464047 0.21923754
0.25435403 -0.16677724 0.32140025 -0.104908004 0.14093105 0.14375164 -0.107195586 -0.08140739
-0.07959335 0.08119099 -0.11737278 -0.024216471 0.08492901 0.04515943 0.18664177 0.19238204
-0.113039695 -0.26990706 -0.24875395 0.07383491 0.0003619715 0.16099413 -0.016797917 0.21660541
0.18378344 -0.16908732 0.13563147 0.24663651 -0.16881786 -0.077290036 -0.37594587 -0.069154724
0.22053625 0.053978663 0.2332553 0.2866378 0.2884352 0.09222689 0.26361513 0.25344497
0.26612464 0.29130882 0.24101456 0.0450373 0.02313664 0.1684407 0.2798758 0.21376276
0.32587808 0.063054375 0.20691445 0.18208046 0.06700565 0.39520028 0.3738583 0.30628654
0.039124545 0.12736972 0.37386465 0.34606737 0.3308899 0.27800727 0.2764361 0.10951042

lstm.hh.rho_bias f4 [128]
00000000: 7acf 26c0 5ede 27c0 ccc1 13c0 8be1 21c0
00000010: b361 30c0 1a74 20c0 528a 24c0 ee90 2ec0
00000020: 43a4 1ec0 8fc5 24c0 54d6 1ec0 1d83 31c0
00000030: ac5a 22c0 7df4 27c0 c17e 30c0 40af 2fc0
00000040: 5c83 29c0 8627 14c0 5b68 31c0 e725 25c0
00000050: 41c7 2bc0 b6b0 29c0 6e99 15c0 96e4 2cc0
00000060: cefc 2cc0 cc20 1ac0 7355 2bc0 1224 2dc0
00000070: 60d3 07c0 7ab9 35c0 1762 20c0 86da 21c0
00000080: a087 04c0 2980 2cc0 7048 1ac0 438c 30c0
00000090: 0a53 2bc0 71d6 38c0 3b40 26c0 ac0c 24c0
000000a0: 555c 0ec0 df35 2ac0 b9ac 2fc0 31f1 37c0
000000b0: 15f2 42c0 58f8 26c0 e554 36c0 1255 20c0
000000c0: 6ef1 3ec0 d3ad 17c0 2b38 34c0 4836 33c0
000000d0: 4ce7 29c0 648d 1ec0 be7d 2ec0 8544 36c0
000000e0: d7fc 2cc0 8ff6 11c0 4ed1 3ac0 13e2 1ec0
000000f0: 722f 0ec0 83d5 29c0 fcaa 0dc0 5ec3 2fc0
00000100: 639a 37c0 aafb 31c0 4df6 2fc0 fce7 3cc0
00000110: 41a1 3ac0 d6f0 3fc0 845b 28c0 48a2 33c0
00000120: 8ee2 3bc0 419a 31c0 ea99 34c0 0368 42c0
00000130: 9b76 3dc0 96f8 3ec0 483c 38c0 61d2 34c0
00000140: 1c51 3bc0 6f2f 38c0 82a6 3bc0 e680 3cc0
00000150: 1669 37c0 71a0 35c0 26bb 37c0 771e 3cc0
00000160: 30e7 32c0 06d0 2dc0 ea11 35c0 f927 37c0
00000170: 1fa5 2fc0 60e6 36c0 787d 3cc0 c2dc 40c0
00000180: 880a 22c0 a285 07c0 a946 28c0 2665 2dc0
00000190: 8f3c 24c0 2dae 12c0 c977 14c0 7344 24c0
000001a0: 78ae 15c0 32c1 23c0 2ba8 1ec0 3c47 1fc0
000001b0: f746 2dc0 f36c 2ec0 f125 1fc0 92d8 2fc0
000001c0: ed22 20c0 26b5 32c0 0582 3ec0 4a14 15c0
000001d0: de18 2fc0 fb94 2ac0 2dc7 20c0 cb95 2dc0
000001e0: f8b6 20c0 4c36 2ac0 43c9 19c0 4e10 23c0
000001f0: 17df 2ac0 4c11 23c0 0991 2dc0 470d 27c0
-2.6064134 -2.6229472 -2.3087034 -2.529391 -2.755963 -2.5070863 -2.5709424 -2.7275958
-2.4787757 -2.574558 -2.4818316 -2.7736275 -2.5367842 -2.6242974 -2.7577364 -2.7450714
-2.6486425 -2.3149123 -2.7719944 -2.5804384 -2.6840365 -2.6514106 -2.3374896 -2.7014518
-2.70293 -2.4082518 -2.6770904 -2.7053266 -2.1222763 -2.8394456 -2.505987 -2.5289626
-2.070778 -2.6953223 -2.4106712 -2.758561 -2.6769433 -2.8880885 -2.5976703 -2.5632734
-2.2243855 -2.659538 -2.7449172 -2.8740962 -3.0460255 -2.6089077 -2.8489316 -2.5051923
-2.9834857 -2.3699844 -2.8159282 -2.800188 -2.6547422 -2.4773798 -2.7264247 -2.847932
-2.7029321 -2.2806737 -2.919025 -2.4825485 -2.2216458 -2.6536567 -2.213561 -2.7462993
-2.868798 -2.7809854 -2.749408 -2.9516592 -2.9160922 -2.9990745 -2.6305857 -2.8067799
-2.9357028 -2.77504 -2.8218942 -3.0375984 -2.960364 -2.9839225 -2.8786793 -2.8253405
-2.9268255 -2.877895 -2.9320378 -2.9453673 -2.865789 -2.8379176 -2.8707976 -2.9393594
-2.7953606 -2.7158217 -2.8292184 -2.8618147 -2.7444532 -2.857811 -2.945158 -3.013474
-2.5318928 -2.1175313 -2.6293128 -2.7092986 -2.5661962 -2.2918808 -2.319811 -2.5666778
-2.3387737 -2.5586667 -2.4790142 -2.4887228 -2.7074564 -2.7253997 -2.4866908 -2.7475934
-2.5021317 -2.7923064 -2.9766858 -2.3293633 -2.7358928 -2.665343 -2.5121567 -2.7122676
-2.5111675 -2.659564 -2.402909 -2.5478702 -2.6698663 -2.5479307 -2.7119772 -2.6101854

l1.mu_weight f4 [16, 32]
00000000: d5b2 2e3f 4dda 26bf 97fc 103f 6bca 09bf
00000010: 5dec 033f 8d78 103f e558 19bf f840 d0be
00000020: 05a4 06bf 927f 293f 8e61 0dbf 6e30 e83e
00000030: 24ed 01bf 3cdb 143f 246b 3b3f 4043 1b3f
00000040: 54c8 10bf 6bfb edbe e6ba 07bf 3766 1d3f
00000050: 7596 dbbe b545 073f d3b5 1f3f 8307 22bf
00000060: 8ed0 b0be 25c6 23bf be89 1c3f 7984 013f
00000070: 2202 48bf 1c0a f7be 27ae 09bf f7db abbe
00000080: 284d 113f 7e4d 00bf b452 0a3f 4ce1 00bf
00000090: 9345 f03e 677a ae3e e0b8 11bf 3a6e 41be
000000a0: 5665 b8be 0a04 d43e 13cb f9be 9b19 0c3f
000000b0: 64d7 adbe 719a 1c3f 38c1 f83e 14c5 063f
000000c0: 2e9a c4be 72e0 14bf 7730 e8be 6f9d 103f
000000d0: 9802 c9be 44a6 ed3e d13a 0f3f ffed 11bf
000000e0: 1164 06bf dfdc 06bf 6dcd 163f 12c6 da3e
000000f0: 1738 f2be d00a 20bf 2bc0 0bbf 23d9 0dbf
00000100: 898a 333f 5005 afbe ba8f 163f 70e0 08bf
00000110: 7f98 133f 43dc 1c3f 89d8 17bf 369c adbe
00000120: f4dd 13bf 067c 033f 044a 37bf 981d e73e
00000130: fe15 2abf 2318 3d3f 42c1 293f e148 fb3e
00000140: 7ca0 05bf 2e66 0abf 3a4b 12bf 98cd 063f
00000150: ce67 32bf 1db1 143f 719a f53e f4d0 35be
00000160: ac66 2cbf 4fd3 2dbf 6c61 2a3f 5041 093f
00000170: 1d87 16bf 39ed 0bbf 5eae 0ebf 4fc9 25bf
00000180: c36d f73e e07a 24bf 325f 883e 123d cbbe
00000190: 8904 f63e 379e cc3e cfdb 2fbf 4dd0 b8be
000001a0: e500 d1be e873 903e 216e 3cbf bd02 003f
000001b0: 38f0 08bf 7a18 043f 58eb e23e c6ed 0c3f
000001c0: 2da9 ebbe f921 18bf 03e8 0cbf 3511 0b3f
000001d0: aa76 f2be 3de4 143f c6c9 e53e 1f05 e5be
000001e0: e942 fabe 8bac eabe cc31 003f 3768 3a3f
000001f0: a9f6 d1be b975 16bf ca7e d7be f8bf 17bf
00000200: 6428 bb3e f2a0 2ebf e85f 0a3f 6f90 25bf
00000210: 7e3a 0e3f eb13 153f 0e11 18bf 5eaa c2be
00000220: a470 39bf 142b 3c3f 5bed 16bf 9f6c 053f
00000230: 54e1 0bbf ccab d13e 4286 e43e ad1b f13e
00000240: dd4f 0bbf 6f9a 12bf e77f b5be ba41 323f
00000250: ef8d 07bf ee8e 183f 4d01 213f cfd3 a1be
00000260: 3dcc efbe e65f 07bf 4133 163f 761f 153f
00000270: eba3 28bf 94f4 85be 7c15 23bf 6d42 d3be
00000280: e3bf 103f ddbe 03bf 4438 303f 2c3c 02bf
00000290: f8c2 103f 5001 003f 0e11 0abf 4b16 9abe
000002a0: 8bac 0cbf db89 fa3e cc58 27bf 79c9 f33e
000002b0: 64b5 fbbe 5a8e 2d3f 8744 213f a84b 073f
000002c0: 98ce a0be 3802 12bf ef4a 2bbf dbaa ee3e
000002d0: 4a17 a6be ad36 3a3f 6f24 243f 1f63 23bf
000002e0: 7a4a 1ebf 4457 16bf e09c ec3e f512 173f
000002f0: 7bcd 2bbf d94a ebbe cf59 2ebf cc4a f4be
00000300: f296 053f 5cb6 05bf f61b f13e 87dd 0cbf
00000310: 3440 f23e ec5b 243f f5fb c5be 3ba6 9fbe
00000320: 25b7 16bf 339c 0c3f c5d3 e2be 6300 1f3f
00000330: bb89 0fbf f3ca fc3e 487b 1a3f b7f8 e83e
00000340: e983 07bf d75d cfbe 69a1 08bf 53ff c43e
00000350: 3094 27bf e0d9 d13e 2a1d fc3e a4ec 0fbf
00000360: 29ac ddbe db13 09bf a219 f33e ce37 dd3e
00000370: 9d58 f8be f0f1 e4be 7113 1ebf deb2 04bf
00000380: 3202 1d3f 0525 b8be bb9c 3c3f feae e7be
00000390: d0f4 133f 8a4b 103f c192 0fbf aa86 a6be
000003a0: 259c 1fbf b864 233f 2ab7 0fbf 3830 0f3f
000003b0: 90bd febe 6412 c83e 5d91 073f 26a4 083f
000003c0: 37eb 1ebf a453 0abf ac7b 18bf 786a 0a3f
000003d0: d084 17bf 452b 093f ecb3 cb3e 943a cfbe
000003e0: 051c 1abf 5f50 e7be caa9 163f aac7 073f
000003f0: 0b01 15bf 582f 06bf 65fa 3abf 5d69 f8be
0.68241626 -0.6517685 0.5663542 -0.5382449 0.51532537 0.56433946 -0.5990127 -0.40674567
-0.52594024 0.6621028 -0.5522698 0.4534945 -0.5075247 0.58147025 0.7321036 0.6064949
-0.56555676 -0.4648088 -0.5301956 0.6148409 -0.42888227 0.5284074 0.62386817 -0.6329271
-0.34534115 -0.6397422 0.6114768 0.5059276 -0.78128254 -0.482499 -0.5378136 -0.33566257
0.56758356 -0.50118244 0.54032445 -0.50343776 0.4692808 0.3407776 -0.5692272 -0.18889704
-0.36014813 0.41409332 -0.48787746 0.5472657 -0.33953393 0.6117316 0.48584914 0.5264447
-0.3839888 -0.58154976 -0.45349476 0.56490225 -0.3925979 0.46415913 0.5594912 -0.5700378
-0.5249644 -0.5268077 0.58907205 0.4272924 -0.47308418 -0.625165 -0.545901 -0.5540945
0.7013326 -0.3418374 0.5881306 -0.53467464 0.57654566 0.6127359 -0.5931478 -0.33908242
-0.5776055 0.5136112 -0.71597314 0.45139766 -0.6643981 0.73864955 0.66310513 0.4907904
-0.52198005 -0.54062164 -0.57146037 0.5265746 -0.69689643 0.58082753 0.47969392 -0.1775549
-0.67344165 -0.67900556 0.66554904 0.53615284 -0.58799917 -0.5465885 -0.55734813 -0.647603
0.4832593 -0.6424999 0.26635128 -0.3969503 0.48050335 0.39964458 -0.68694776 -0.3609642
-0.40820995 0.2821343 -0.73605543 0.5000418 -0.53491545 0.5159985 0.44320178 0.55050313
-0.46027508 -0.5942684 -0.5504152 0.5432313 -0.47356158 0.58160764 0.44880503 -0.4473047
-0.48879173 -0.45834765 0.50075984 0.7281527 -0.410085 -0.5877338 -0.4208892 -0.59277296
0.36554253 -0.68214333 0.5405259 -0.64673513 0.55558 0.5823352 -0.59401023 -0.38020605
-0.724375 0.7350323 -0.58955926 0.5211887 -0.546407 0.40951383 0.4463368 0.47091427
-0.54418737 -0.57266897 -0.35449144 0.6963154 -0.5295095 0.59593093 0.6289261 -0.3160691
-0.4683551 -0.52880704 0.5867196 0.5825113 -0.6587512 -0.2616316 -0.6370466 -0.41261616
0.56542796 -0.5146311 0.68835855 -0.50873065 0.565475 0.50002 -0.53932273 -0.30095133
-0.5495078 0.489333 -0.6536987 0.4761465 -0.49161828 0.67795336 0.6299519 0.5284982
-0.3140762 -0.57034636 -0.66911215 0.46614727 -0.32439643 0.7273968 0.64118093 -0.6382312
-0.6183239 -0.58726907 0.46213436 0.590133 -0.67110413 -0.45955542 -0.6810579 -0.47713315
0.5218345 -0.52231383 0.47091645 -0.55025524 0.47314608 0.6420276 -0.3866879 -0.3118151
-0.58873206 0.5492584 -0.44302192 0.62109965 -0.56069535 0.49373588 0.6034436 0.45502254
-0.52935654 -0.40501282 -0.5337129 0.38476047 -0.6546049 0.40986538 0.49241 -0.5622046
-0.4329541 -0.5354592 0.47480494 0.43206638 -0.48505107 -0.44715834 -0.61748415 -0.5183543
0.61331475 -0.35965744 0.7367665 -0.45250696 0.5779543 0.56365263 -0.56083304 -0.32524616
-0.6234763 0.6382556 -0.5613886 0.5593295 -0.49754 0.3907653 0.5295618 0.5337547
-0.6207766 -0.54033875 -0.5956371 0.5406871 -0.5918703 0.5358165 0.39785707 -0.4047438
-0.60199004 -0.45178506 0.5885283 0.5303904 -0.58204716 -0.5241599 -0.7303832 -0.48517886

l1.rho_weight f4 [16, 32]
00000000: 0f5c 41c0 fffc 40c0 b705 4dc0 f975 38c0
00000010: 2124 3bc0 3260 3ac0 09fa 46c0 ecb6 34c0
00000020: 2ed2 3bc0 8a5e 3ec0 bfa9 3ec0 c4f0 4dc0
00000030: b3f8 3cc0 7e32 3cc0 8b04 43c0 5340 46c0
00000040: deea 3ec0 f8e4 45c0 d3d4 46c0 d174 40c0
00000050: f64e 3dc0 10e7 41c0 948d 3fc0 83c0 3cc0
00000060: fac8 3fc0 1d0c 3cc0 6914 39c0 c877 37c0
00000070: cb82 39c0 f34e 42c0 777a 44c0 2a12 45c0
00000080: 96f5 37c0 6e31 40c0 bbc2 3cc0 27a5 3cc0
00000090: 2b81 40c0 b3f9 3ac0 b65a 3cc0 95d6 3ac0
000000a0: 4e6b 3ec0 c427 38c0 9b21 39c0 0b5d 40c0
000000b0: 76c2 3fc0 1c49 3ac0 3402 3dc0 9f5f 2ec0
000000c0: 4476 41c0 f97a 3fc0 124a 40c0 002b 42c0
000000d0: b2cf 41c0 fdab 3cc0 2100 38c0 614f 4cc0
000000e0: 50b4 44c0 0d10 3cc0 c92e 3ec0 4fd0 31c0
000000f0: f59e 4ac0 3c7c 39c0 8a78 44c0 db0e 40c0
00000100: 9fe6 48c0 a715 36c0 cb15 41c0 b796 45c0
00000110: fe40 42c0 3151 3ec0 c281 48c0 07f8 3bc0
00000120: 741a 40c0 843c 40c0 0d9d 35c0 cc02 3cc0
00000130: cef3 3cc0 bdb1 43c0 17a3 41c0 49a5 36c0
00000140: 0bfa 45c0 6b42 39c0 e1e4 3cc0 0626 3dc0
00000150: 3147 40c0 e4d7 40c0 8467 36c0 7d48 43c0
00000160: 0374 38c0 741a 3fc0 5491 40c0 7411 47c0
00000170: 10a1 3fc0 f3fc 3ec0 c749 3fc0 8ea2 33c0
00000180: b206 39c0 a012 4bc0 eca1 40c0 c2a9 3ac0
00000190: efe5 3dc0 ac59 40c0 eee2 3ac0 647d 3dc0
000001a0: a3fe 35c0 02bb 33c0 cc66 3ec0 8966 4ac0
000001b0: 4b04 3bc0 56b7 46c0 4719 40c0 7d12 3fc0
000001c0: be52 3ac0 2b31 39c0 49ec 47c0 8f7a 30c0
000001d0: 9149 3ac0 5f75 3fc0 c2e2 44c0 8d86 44c0
000001e0: 6e14 44c0 bc79 45c0 5246 4dc0 4da4 33c0
000001f0: 8ac7 42c0 57a3 46c0 d6b0 48c0 1977 45c0
00000200: 2d47 33c0 610b 48c0 9e6a 40c0 af8b 3fc0
00000210: fd4d 48c0 578d 40c0 f0d2 38c0 f0b3 32c0
00000220: 65df 38c0 014d 34c0 6a2a 3cc0 6241 40c0
00000230: e4a7 39c0 66a9 3fc0 57d0 41c0 0955 41c0
00000240: ff7b 4bc0 2463 39c0 e7d7 39c0 6d7d 3dc0
00000250: 28e0 40c0 4307 3fc0 1840 4ac0 9003 3ec0
00000260: 615d 39c0 f335 38c0 a91b 3dc0 87ae 3ec0
00000270: 2d95 39c0 bb82 3fc0 1053 3fc0 589d 2fc0
00000280: dd32 34c0 c096 38c0 bbe6 43c0 19de 3ec0
00000290: 9d4d 42c0 a9b3 34c0 e0aa 3ac0 04fd 3cc0
000002a0: 842c 49c0 e02d 42c0 4e26 47c0 2789 3fc0
000002b0: 42d6 35c0 c962 3ac0 d877 3bc0 1bdd 38c0
000002c0: 2c27 3bc0 e923 31c0 3bd4 41c0 0d49 4ac0
000002d0: 079e 41c0 48c6 49c0 56dd 47c0 4417 3fc0
000002e0: d718 3ac0 e8c5 41c0 a0ff 51c0 0dd5 39c0
000002f0: 5bbf 3cc0 cf1b 46c0 a1df 3dc0 c505 32c0
00000300: 7042 46c0 7eb6 49c0 1571 4cc0 adcc 41c0
00000310: 822e 4bc0 1883 40c0 c790 51c0 3faa 3dc0
00000320: 5640 3fc0 279f 3ec0 4977 3ac0 5ac5 46c0
00000330: 55ee 3ac0 d8d3 3bc0 72b2 44c0 4253 36c0
00000340: f85b 3ec0 436b 49c0 92c4 39c0 c370 42c0
00000350: e51c 41c0 6aec 39c0 e44b 46c0 e96e 3ec0
00000360: 9200 47c0 c9d8 3ec0 7de9 49c0 0c8e 35c0
00000370: a2e5 3dc0 9f38 43c0 f3fb 3fc0 9fce 45c0
00000380: eb31 45c0 ae99 3fc0 3e74 38c0 b35b 47c0
00000390: a1d9 3bc0 08e9 48c0 e82e 39c0 fc13 40c0
000003a0: c4db 3bc0 578a 34c0 b56e 3bc0 2bc8 40c0
000003b0: c059 3ec0 9161 43c0 032e 45c0 161c 44c0
000003c0: d58c 39c0 3c3c 3fc0 f608 40c0 8b91 3cc0
000003d0: f3c6 48c0 f2b6 40c0 183a 38c0 006a 41c0
000003e0: 21d7 3cc0 705d 3bc0 6066 41c0 9799 4dc0
000003f0: 8efa 33c0 a020 33c0 e91e 4bc0 f4e2 3ec0
-3.0212438 -3.0154417 -3.2034738 -2.8822005 -2.9240801 -2.9121213 -3.109011 -2.8236647
-2.9347034 -2.9745202 -2.9791105 -3.2178202 -2.9526794 -2.9405818 -3.0471523 -3.097676
-2.9830852 -3.0921001 -3.1067398 -3.00713 -2.9579444 -3.029728 -2.9930162 -2.94925
-2.9966416 -2.9382393 -2.8918707 -2.8666859 -2.898608 -3.0360687 -3.0699747 -3.0792336
-2.8743644 -3.003017 -2.9493854 -2.94758 -3.0078838 -2.9214904 -2.9430366 -2.919347
-2.9752994 -2.877427 -2.892676 -3.005679 -2.996244 -2.9107122 -2.9532595 -2.7245862
-3.0228434 -2.9918807 -3.004521 -3.0338745 -3.0283017 -2.9479973 -2.8750079 -3.192345
-3.0735054 -2.9384797 -2.9716055 -2.7783391 -3.165952 -2.8982077 -3.0698571 -3.0009067
-3.139076 -2.8450716 -3.0169551 -3.087324 -3.0352168 -2.9737055 -3.1329198 -2.9370134
-3.0016146 -3.0036936 -2.8377106 -2.9376707 -2.9523807 -3.0577233 -3.0255792 -2.8538382
-3.0933864 -2.8946788 -2.9514697 -2.9554458 -3.0043452 -3.013177 -2.850068 -3.0512993
-2.8820808 -2.9859896 -3.0088701 -3.1104403 -2.9942055 -2.9841888 -2.988878 -2.8067966
-2.8910336 -3.1730118 -3.009883 -2.9166112 -2.967159 -3.0054731 -2.9201007 -2.9607782
-2.8436668 -2.808289 -2.9750242 -3.1625082 -2.922137 -3.10494 -3.0015428 -2.9855034
-2.9113002 -2.893626 -3.1237967 -2.7574804 -2.9107401 -2.9915388 -3.0763402 -3.0707123
-3.063747 -3.085555 -3.207417 -2.8069031 -3.043429 -3.1037195 -3.1357932 -3.0853941
-2.8012192 -3.1256945 -3.0065074 -2.9929006 -3.12976 -3.0086267 -2.8878746 -2.7922325
-2.888635 -2.8172 -2.9400887 -3.0039907 -2.9008722 -2.9947143 -3.028341 -3.0208151
-3.1794431 -2.896676 -2.9038026 -2.9607804 -3.0136814 -2.9848182 -3.160162 -2.9689674
-2.8963244 -2.8782928 -2.9548132 -2.9794023 -2.89973 -2.9923542 -2.9894447 -2.7439785
-2.8156044 -2.884201 -3.0609577 -2.9823058 -3.0359871 -2.8234656 -2.9166794 -2.9529428
-3.143342 -3.03405 -3.111713 -2.992746 -2.8412023 -2.9122794 -2.9291897 -2.8884952
-2.9242659 -2.7678168 -3.0285785 -3.1607087 -3.0252702 -3.1527271 -3.1228843 -2.985795
-2.907766 -3.0277042 -3.281227 -2.9036286 -2.9491794 -3.0954473 -2.9667742 -2.7816021
-3.097805 -3.1517634 -3.194402 -3.0281174 -3.1747136 -3.0080013 -3.2744615 -2.963516
-2.9883018 -2.978464 -2.9135306 -3.1057954 -2.9207966 -2.934805 -3.0733914 -2.8488317
-2.9743633 -3.1471717 -2.9026227 -3.0381324 -3.0173886 -2.9050546 -3.098382 -2.9755194
-3.1094098 -2.9819815 -3.154876 -2.8367949 -2.9671407 -3.0503309 -2.9997528 -3.0907362
-3.0811718 -2.9937549 -2.8820949 -3.1149719 -2.935158 -3.139223 -2.893488 -3.0012197
-2.9352884 -2.8209436 -2.928632 -3.0122173 -2.974228 -3.05283 -3.0809333 -3.0642142
-2.8992207 -2.9880514 -3.000547 -2.9463832 -3.137143 -3.011166 -2.8785458 -3.0220947
-2.9506304 -2.927578 -3.0218735 -3.2124994 -2.8121676 -2.7988663 -3.1737616 -2.9826021

l1.mu_bias f4 [16]
00000000: 707c ea3e 80d4 0d3f a91f 0a3f 2ead 243f
00000010: b7a1 fd3e ca14 d53e 1da9 1a3f 9aac 023f
00000020: 378d 043f 4020 283d eeb6 1f3d 3be3 dabc
00000030: 6b05 b93e 9c22 223f cae9 1b3f f62f bfbc
0.45798063 0.55402374 0.5395456 0.6432675 0.4953744 0.41617423 0.60414296 0.5104462
0.51777977 0.04104638 0.038992815 -0.02671968 0.36136946 0.6333406 0.6090361 -0.0233383

l1.rho_bias f4 [16]
00000000: 429f 30c0 4bad 36c0 317d 39c0 1506 3fc0
00000010: 147c 48c0 b276 40c0 f962 36c0 c0e2 36c0
00000020: 0bb8 3ac0 d10e 97bf 9326 e1bf 5037 8cbf
00000030: b442 37c0 caea 32c0 7b84 3cc0 d7f8 90bf
-2.7597203 -2.854327 -2.898266 -2.9847462 -3.1325731 -3.0072446 -2.8497908 -2.8575897
-2.917483 -1.1801397 -1.7589897 -1.095438 -2.8634462 -2.7955804 -2.945586 -1.132594

l2.mu_weight f4 [1, 16]
00000000: 1e20 133f fee1 343f 7d87 133f 903e 2a3f
00000010: a6ad 233f 8a5c 1d3f dba4 3a3f 9100 1d3f
00000020: 283e 1d3f 02a3 1cbe d24a 22be 56d9 d9bd
00000030: 6de2 313f 8113 193f af32 2a3f 950f 3fbe
0.5747088 0.70657337 0.57628614 0.6650171 0.6393684 0.6146933 0.729078 0.6132899
0.6142297 -0.15296558 -0.15848854 -0.10637157 0.69486123 0.59795386 0.6648359 -0.18658288

l2.rho_weight f4 [1, 16]
00000000: 68d8 45c0 4f38 48c0 a213 38c0 8232 4bc0
00000010: 68ed 42c0 f379 39c0 4902 3cc0 37f3 47c0
00000020: d488 49c0 bd02 98bf f40e 12c0 4d1b 9fbf
00000030: 0dbb 37c0 1dd4 37c0 3032 44c0 f347 93bf
-3.0913334 -3.1284368 -2.8761983 -3.1749578 -3.0457401 -2.8980682 -2.9376395 -3.1242197
-3.1489763 -1.1875836 -2.2821627 -1.2430207 -2.8707917 -2.8723214 -3.0655632 -1.1506332
