BNN/model_states/BNN_model_state_FD001_denoised_CF_combined.pt (torch, 57845 bytes, 14 tensors)

lstm.ih.mu_weight f4 [128, 14]
00000000: 6642 2c3e e936 ea3d a796 e13d 7776 4dbe
00000010: 3945 01bd dc4b 8dbb 6904 513a 50ba 44be
00000020: d258 f0bd a418 323e 8fbf 54bd 06d4 46be
00000030: 55ba 85bd 44df 85bd 31fe 0dbe 4760 b73c
00000040: c769 4c3e 1c3f 86bb ee04 9dbd 13e7 61bc
00000050: 5533 b6bd cb5b 5c3d 5a74 1a3b 577f c13d
00000060: d391 213e 925d b93d 61fa a43d 73e4 083e
00000070: 7cb0 3dbe 3398 38be 996f 41be 028b 4e3e
00000080: 4b27 26be 5290 17be 103a 17be b127 833e
00000090: c152 d3bc e445 3c3b f529 c6bd eacc f1bd
000000a0: 5bca 8bbd 1abe 923e 2d3f 82be 2c88 8abe
000000b0: 2e1d 1cbe 994b 973e 8e24 5abe eeb7 473e
000000c0: 6438 2cbe d19d 8ebc fd32 6e3d 7e8a 223e
000000d0: 4d0a ebbd 6f75 033e 2f93 483d c824 f63b
000000e0: 9358 2e3c 461b 88bd 260a 71bd a4c1 a73d
000000f0: 5ca1 693e fe25 063f bd9b 0abe 0569 3abc
00000100: 64e1 583e 10a6 583e 17d5 4b3e 3492 483e
00000110: fd92 7abd 9ddc edbd e2cb c7be 8dd9 e9bd
00000120: 625b 3cbe 0f9b 823e 75ca 3ebd 1198 cf3e
00000130: a9ca d1bd 3485 9bbb f745 ccbe b7e2 993e
00000140: 433b 02be 96a9 8cbe 26ee b23d 75e9 863e
00000150: eee9 433e 55b9 103d bd57 573d 3cd0 f93d
00000160: 0315 38bd ec06 01be 031a 18be 9b94 9f3c
00000170: 2328 a9be 02ec 483d adef d13d 23a8 173e
00000180: 3fe6 69bd d99f 4abd b37f 823e 0fb4 003e
00000190: d312 283e e5ff feba 6090 9f3d b244 d63e
000001a0: b790 fa3c 479f e8bd 2dbb 5abd 0bd2 ad3e
000001b0: e11e 203e 82d1 e63d ef48 18be fd8d 333d
000001c0: 7bb0 57be 3a02 94bd 4f6f bdbc 540f b63d
000001d0: 1102 77bb 64be f0bd d0f5 a7bd 9c1d c13d
000001e0: aebf 2ebe d0e4 4f3d 84a2 a33b 893d 09bd
000001f0: 05e2 4b3e f45f d43d 2ddc acbb 2f93 49be
00000200: c3b7 623d 89db ae3e fc89 77be 0ba6 7fbd
00000210: 4e2a 4dbe 9ba4 9d3e 24b1 18be b4a7 55bd
00000220: 4059 a7bc 9ad7 efbd 1d14 ecbc 4ff0 ab3e
00000230: 46c7 57be a72a e23d 54ac 03be a30c c83d
00000240: bb1a 04be c917 0e3e 3b53 753d ea30 093e
00000250: 46fd 94bd 6e31 14bd 8391 d93c 5fd1 4bbe
00000260: d5f6 c33d 7cb3 8d3e 234e cbbe ef38 20be
00000270: 0b1a cfbe 3ede 283e 34a7 53be e46a ae3e
00000280: ace0 c8be bc53 a43d 2822 97bc 5e30 cf3d
00000290: 4cfa a9bd afba 6ebe 3016 3a3e 7682 053e
000002a0: bd01 8ebe 62ca 6d3d daa3 2d3e ab9a b03b
000002b0: b1c8 27be 4a7c c33b 11ef 893d c835 203e
000002c0: 9eda 0bbd e556 87bc 5444 6fbd f27b 5fbd
000002d0: 3d72 3abd 5a6a ecbd 9b62 c4be d51c 93be
000002e0: 11bd 19be c104 06bd 0af3 85be 079c 9b3d
000002f0: f49b 19bd f6ad cabc 8395 023e 41d1 833d
00000300: d98c be3d 1a3d efbd 7369 3c3e 0bdb 4a3e
00000310: 18b9 8ebe c4e7 23be d0a5 36be 572e df3e
00000320: 6632 563e 1a63 2d3e 4b14 47be 348c 603d
00000330: b2a6 bd3d 01db 213e e194 c9bd d44b 6dbe
00000340: 361d 7b3d 2c7b 3d3e 8639 71bb afd6 25bd
00000350: e206 3e3e 2599 2ebd b75f 0abc 7760 943d
00000360: f044 4e3d 988b 1cbd 1260 d5bd f767 233e
00000370: 4cf4 833e e715 4e3d b8f2 4d3c d17d 183e
00000380: 5172 abbe c70d 22bd 73f3 85bd 0e58 723d
00000390: e9e4 01be e12c d03b b94a abbd cadd 7d3e
000003a0: 3def a93d dc8a 2cbe 5235 a5be b964 5abe
000003b0: 73b0 673e 8574 783e c415 f63d 0160 f93d
000003c0: fdda 733d 239a 59bd 2aa6 46bd 2281 35be
000003d0: eec0 a4bb 11d8 90bd 8e9c 953c dec4 85bd
000003e0: d118 383e 248a 8c3c 5547 663d 6432 a4bd
000003f0: 00a3 843d d77a 6c3d 11f7 1f3e 60ad 12bc
0.16822204 0.114362545 0.11015063 -0.20064722 -0.031560156 -0.0043120217 0.00079733744 -0.19211698
-0.11735691 0.17392212 -0.051940497 -0.19416818 -0.06529681 -0.06536725 -0.13866498 0.022384776
0.19962226 -0.0040968787 -0.07666956 -0.013788003 -0.088965096 0.053798478 0.0023567886 0.09448116
0.15778284 0.0905105 0.080555685 0.13368396 -0.18524355 -0.1802681 -0.18890227 0.20170215
-0.16225927 -0.14801148 -0.14768243 0.2561622 -0.025796296 0.0028728181 -0.096759714 -0.118066624
-0.068257056 0.2866066 -0.25438824 -0.27057016 -0.15245506 0.29549864 -0.21303007 0.19503757
-0.16818386 -0.017409237 0.058154095 0.15873143 -0.11476574 0.12837766 0.04896849 0.007511709
0.010641235 -0.06645827 -0.05884757 0.08191231 0.2281546 0.5240172 -0.13535972 -0.011377578
0.2117973 0.21157098 0.19905506 0.19587022 -0.061175335 -0.11614344 -0.39022738 -0.11418448
-0.18394235 0.25508925 -0.046579797 0.40545705 -0.102437325 -0.0047461037 -0.3989713 0.30055782
-0.12717919 -0.27473134 0.087368295 0.2634999 0.19132206 0.035332996 0.052573908 0.12197921
-0.044941913 -0.12600297 -0.14853673 0.01948004 -0.33038434 0.0490532 0.10250793 0.14810233
-0.057104345 -0.04946885 0.25488052 0.12568687 0.16413431 -0.0019454925 0.07791209 0.41849285
0.030586584 -0.11358505 -0.05340116 0.33949313 0.1563678 0.11270429 -0.14871572 0.043836582
-0.21063416 -0.07226987 -0.023124365 0.08889642 -0.003769044 -0.11755064 -0.08201182 0.09429476
-0.17065307 0.050755322 0.0049937386 -0.03350595 0.19910438 0.10369864 -0.0052752704 -0.19685052
0.05535103 0.34151867 -0.2417373 -0.06241421 -0.20035669 0.30789647 -0.14911324 -0.052161887
-0.0204283 -0.117110446 -0.028818185 0.33581778 -0.2107211 0.110432915 -0.12858707 0.09768035
-0.12900822 0.13876261 0.059893828 0.13397565 -0.072748706 -0.036179952 0.026558643 -0.19904087
0.09568564 0.27675998 -0.3970805 -0.15646718 -0.40449557 0.16491029 -0.20669252 0.34065926
-0.3923391 0.080237836 -0.018448904 0.10116647 -0.082996935 -0.23313402 0.18172526 0.13038048
-0.277357 0.058054335 0.16957036 0.0053895316 -0.16385151 0.005965744 0.067350514 0.15645516
-0.034144036 -0.016520927 -0.058414772 -0.054561563 -0.045519102 -0.115437225 -0.3835648 -0.28732935
-0.1501353 -0.032719377 -0.26161987 0.07598119 -0.037502244 -0.024741154 0.12752347 0.064363964
0.09304208 -0.11681576 0.183996 0.19810121 -0.2787559 -0.1600638 -0.1783669 0.43590042
0.20917663 0.16932335 -0.19441335 0.054821208 0.0926031 0.158062 -0.098428495 -0.23173457
0.061307155 0.18504018 -0.0036807968 -0.04048794 0.18557313 -0.04262652 -0.008445672 0.07244962
0.050358713 -0.038219064 -0.104187146 0.15957628 0.2577232 0.050313856 0.012570076 0.14891745
-0.33485654 -0.03956392 -0.06540575 0.059166007 -0.12684979 0.006353006 -0.083638616 0.24791637
0.08297584 -0.16849846 -0.32267243 -0.21327485 0.22625904 0.24263199 0.1201587 0.121765144
0.059535015 -0.05312551 -0.04849831 -0.17725042 -0.005027882 -0.070724614 0.018263128 -0.0653169
0.17978217 0.017155714 0.05622037 -0.08017424 0.06476402 0.057734337 0.15621592 -0.008952469

lstm.ih.rho_weight f4 [128, 14]
00000000: e9f6 3ac0 a334 30c0 025b 3dc0 92e6 29c0
00000010: b242 36c0 fa47 32c0 9368 3cc0 90c4 39c0
00000020: f34b 34c0 b74e 18c0 11ca 39c0 dc5e 33c0
00000030: d2b1 27c0 8fed 37c0 ca52 1dc0 e186 39c0
00000040: 283e 3ac0 90b2 41c0 02be 2ec0 ea41 2bc0
00000050: 763c 33c0 a7d0 34c0 1294 30c0 21ca 37c0
00000060: fe24 32c0 08f6 2ec0 aaff 25c0 390d 38c0
00000070: 8763 25c0 f6b4 2fc0 d62c 3ac0 2e71 43c0
00000080: 6f3e 3cc0 5a6b 28c0 22cc 2bc0 2582 33c0
00000090: 8cd1 3ac0 70e3 3dc0 a27a 2dc0 b1da 2cc0
000000a0: 672d 33c0 ee89 33c0 768f 47c0 553d 43c0
000000b0: d717 3fc0 8e12 39c0 9a26 4dc0 83db 34c0
000000c0: d3e5 3ac0 486d 37c0 6cc9 43c0 977b 26c0
000000d0: 9f11 44c0 3ece 36c0 6fea 3cc0 4f17 3fc0
000000e0: e4d1 3fc0 29be 33c0 f7c6 43c0 92ad 2cc0
000000f0: d87f 33c0 7070 35c0 dc5e 39c0 e5b8 38c0
00000100: 447a 37c0 b3cd 32c0 6f40 42c0 c8a8 4ec0
00000110: a812 30c0 8328 3bc0 37ea 34c0 a12b 30c0
00000120: 03e2 3fc0 bcf1 3ac0 d1dc 43c0 7681 37c0
00000130: 031a 37c0 1db7 44c0 6887 4bc0 1e64 40c0
00000140: c49c 34c0 bd3b 3dc0 1fc7 3fc0 0093 2dc0
00000150: 4426 40c0 9ea3 3ec0 1997 46c0 7c3b 3dc0
00000160: 3f2a 39c0 21ea 29c0 bf96 40c0 7ae5 4bc0
00000170: 9642 4cc0 900f 32c0 82da 39c0 b96b 38c0
00000180: ff7a 45c0 f799 4ac0 1a5a 25c0 21c6 3bc0
00000190: 3607 3ac0 aa62 28c0 8009 37c0 90d0 31c0
000001a0: c09f 46c0 f5cc 32c0 0ef3 3bc0 733b 25c0
000001b0: 161d 3ec0 b8c3 3ac0 87b8 38c0 9d2b 3dc0
000001c0: c5ae 2ec0 2cce 32c0 2c03 36c0 d5e8 3ec0
000001d0: 4c2a 3fc0 9d56 43c0 ea7a 3bc0 6060 3ac0
000001e0: 02c9 40c0 1373 32c0 7556 31c0 22b1 38c0
000001f0: da93 3ac0 c5b0 2fc0 3bc0 39c0 b589 2cc0
00000200: c4ea 2ac0 3218 3ac0 ea68 3cc0 bdde 3dc0
00000210: 10f8 36c0 9f57 33c0 d736 3bc0 2670 3bc0
00000220: 8344 35c0 72ca 35c0 840b 3dc0 6e77 33c0
00000230: e4b2 2bc0 de5a 40c0 6978 2bc0 305e 27c0
00000240: 162e 4fc0 638d 35c0 e680 2fc0 5f7b 28c0
00000250: c175 26c0 9856 27c0 6af0 33c0 f70e 31c0
00000260: 5d17 38c0 f657 3bc0 8c93 3cc0 40f1 29c0
00000270: 7536 3ec0 7760 33c0 4085 32c0 cb66 32c0
00000280: 36a4 43c0 cce7 4bc0 2011 3ac0 fef1 37c0
00000290: 2941 3ec0 3129 38c0 a91e 3cc0 0967 2dc0
000002a0: efc5 41c0 e897 40c0 9e1d 39c0 4de3 2cc0
000002b0: 91fb 35c0 7d80 2cc0 18f4 2fc0 5e1e 3ec0
000002c0: f3bb 39c0 afc5 3bc0 a5cf 3fc0 8a0d 3dc0
000002d0: b878 40c0 1672 3ac0 4945 3dc0 dcf4 3cc0
000002e0: 47ab 37c0 a444 35c0 da67 44c0 8eb5 3fc0
000002f0: d6cd 43c0 b4b3 3cc0 db7c 3fc0 25fe 40c0
00000300: 9a86 36c0 b8a8 3ac0 4275 2cc0 c4f5 37c0
00000310: bd42 3ac0 6b99 41c0 bb4f 34c0 d878 48c0
00000320: 18d9 3ac0 5cd8 36c0 a3f2 3cc0 a71a 36c0
00000330: 92b5 35c0 cb0f 3fc0 fe37 33c0 799f 30c0
00000340: f0cc 3ac0 22a0 3dc0 0bf3 39c0 2e33 38c0
00000350: 6931 34c0 7879 37c0 f219 30c0 3ea9 25c0
00000360: 2ca6 36c0 c94f 2cc0 6bb5 3cc0 8df2 26c0
00000370: 0104 31c0 a1c1 24c0 a11d 2fc0 1b82 39c0
00000380: 5c40 44c0 f375 42c0 cc56 31c0 a3f2 3ac0
00000390: 94a4 40c0 259b 3ac0 e900 32c0 d533 35c0
000003a0: 6fd2 45c0 a55f 3fc0 c948 33c0 58e6 41c0
000003b0: a7d4 47c0 7f08 3fc0 dec9 3ac0 2b6e 33c0
000003c0: 027c 42c0 d141 31c0 8f1c 3bc0 171b 39c0
000003d0: 8ea4 40c0 8b8f 37c0 1aa8 3ec0 9dbc 30c0
000003e0: 2983 32c0 ca4d 3ac0 e523 3fc0 1aaf 2ec0
000003f0: cd22 3dc0 1852 3cc0 26b4 40c0 5c47 39c0
-2.9213202 -2.7532127 -2.9586797 -2.654698 -2.8478208 -2.785643 -2.9438827 -2.9026222
-2.8171356 -2.3798044 -2.9029582 -2.8026648 -2.6202283 -2.8738744 -2.458178 -2.8988574
-2.9100437 -3.0265236 -2.7303472 -2.675898 -2.8005652 -2.8252351 -2.7590375 -2.871712
-2.7835078 -2.7337666 -2.5937295 -2.875807 -2.5841997 -2.74542 -2.9089866 -3.053783
-2.9413106 -2.6315522 -2.6843343 -2.8048184 -2.9190397 -2.9670067 -2.71061 -2.7008479
-2.7996461 -2.8052936 -3.1181312 -3.0506184 -2.98583 -2.8917575 -3.205481 -2.825898
-2.9202774 -2.866045 -3.0591688 -2.6012933 -3.0635755 -2.856338 -2.9518087 -2.9857976
-2.9971857 -2.8084815 -3.0590189 -2.698094 -2.804678 -2.8349876 -2.8964148 -2.886285
-2.8668375 -2.793805 -3.0351827 -3.2290516 -2.7511387 -2.9243476 -2.8267953 -2.752663
-2.9981697 -2.9210043 -3.0603526 -2.8672767 -2.8609626 -3.0736763 -3.1801395 -3.0061107
-2.8220682 -2.9567711 -2.9965284 -2.7120972 -3.0023355 -2.9787364 -3.1029723 -2.9567556
-2.8932035 -2.654915 -3.0092008 -3.1858811 -3.191564 -2.7821999 -2.9039617 -2.8815749
-3.085632 -3.1656473 -2.5836244 -2.9339678 -2.9066901 -2.631022 -2.8599548 -2.7783546
-3.1035004 -2.7937596 -2.93671 -2.5817535 -2.9705253 -2.9181957 -2.8862627 -2.955787
-2.729417 -2.7938337 -2.8439436 -2.982961 -2.9869566 -3.0521615 -2.929377 -2.9121323
-3.0122685 -2.7882736 -2.770902 -2.8858113 -2.9152741 -2.7451642 -2.9023578 -2.695905
-2.670579 -2.9077268 -2.9439034 -2.9667199 -2.8588905 -2.802223 -2.9252222 -2.92872
-2.8323066 -2.8404813 -2.9538279 -2.8041644 -2.6827936 -3.005546 -2.6792243 -2.6151237
-3.2371879 -2.8367546 -2.7422423 -2.63253 -2.6009371 -2.6146603 -2.8115487 -2.7665384
-2.876426 -2.9272437 -2.9465055 -2.6553497 -2.9720738 -2.8027627 -2.789383 -2.787524
-3.0568976 -3.1860228 -2.9072952 -2.874145 -2.972727 -2.8775141 -2.9393713 -2.7094138
-3.027706 -3.0092716 -2.8924327 -2.7013733 -2.8434794 -2.6953423 -2.7492733 -2.9706035
-2.9020965 -2.9339406 -2.9970486 -2.9539514 -3.007368 -2.9132133 -2.9573538 -2.952445
-2.869829 -2.8323145 -3.0688386 -2.9954562 -3.0594382 -2.9484682 -2.9919956 -3.0155118
-2.8519654 -2.9165478 -2.6946568 -2.8743753 -2.9103234 -3.024989 -2.8173664 -3.1323757
-2.9195004 -2.8569555 -2.9523094 -2.8453767 -2.8392072 -2.985339 -2.8002925 -2.7597334
-2.9187584 -2.9628987 -2.9054592 -2.8781238 -2.8155158 -2.8667889 -2.7515836 -2.5884547
-2.8538923 -2.6923697 -2.9485729 -2.6085541 -2.7658694 -2.5743182 -2.7361834 -2.898566
-3.0664282 -3.038449 -2.7709227 -2.9210594 -3.010045 -2.9157193 -2.7813056 -2.8312886
-3.0909688 -2.9902127 -2.8013175 -3.029684 -3.1223543 -2.9848936 -2.918571 -2.803599
-3.0388188 -2.769642 -2.923618 -2.8922784 -3.0100436 -2.8681362 -2.97901 -2.761512
-2.7892554 -2.9109979 -2.9865658 -2.7294374 -2.955249 -2.9425106 -3.0109954 -2.8949804

lstm.ih.mu_bias f4 [128]
00000000: 6fd7 0b3e e2d8 2c3e c9dc 793e 26ac e6bd
00000010: f31c 003d d374 3a3e 9a2c 823d 1e3a 6b3d
00000020: 99b2 8b3e 4416 9fbd e3c3 29ba 580f 963d
00000030: 2732 8a3e ff88 4d3c 574f 653d 56bf 343e
00000040: c658 61be 0230 253e d9d5 d73d 2e6a c33c
00000050: 44eb ac3d b09b bc3d 1d52 45be b285 183e
00000060: 3e46 50bd 8281 1cbd 6a75 7f3e deb1 ef3d
00000070: b7fb 133e 98f5 b6bd 2fcd b33e 382f d1bd
00000080: 5a11 843e 6cd7 f03d f3f2 5b3e 5f72 0e3e
00000090: 274c be3d 194a 843b 5c8a 6c3e 15f6 673e
000000a0: d2b4 7d3d 4463 a2bd 0c76 a13d d2cc 053e
000000b0: 6450 c33d 3b1d 16be 2a53 4cbe e66f 3e3e
000000c0: 65eb dfbb 323f 5d3e 4998 da3e 99ed 9bbd
000000d0: fda4 f2bd fc5d 5a3d d171 23bd 5c49 fc3c
000000e0: 6368 cebd f968 0dbd 4c57 863e 0da5 393e
000000f0: 7655 e33d 44cd 1dbe b0be 3a3e 793d 09be
00000100: 437a 9fbc 9fb9 d1bd 9723 693e 554f f8bd
00000110: 1a31 543e dd6b 933c 3e0f 4f3e 0332 4fbe
00000120: 1a3f 03be 5bce 14bc c3ae 31bd 395c 953d
00000130: 53d7 d7bd ae99 073e cb12 073e d5cd f23d
00000140: 58e1 0c3d 5d95 61be 8505 7bbe dc94 8cbc
00000150: 0dc4 41be 9996 8e3e b9ca 86bc 1d9d 2c3e
00000160: e23a b1bc 9bb2 43bd 008e f1bb 2960 e93d
00000170: 31c2 57be b773 4d3e 8fe3 84be 18c5 293d
00000180: e7fb 433e d7d5 6c3e a6e1 713c 043e 4f3d
00000190: fbc7 c63e e540 983e 91f3 b13e 71b1 8d3e
000001a0: 12b9 e93e 869c f13d d79c e33b 0e57 893c
000001b0: 8140 bf3e 9c6b 573e 9e0c 833d bd55 d63d
000001c0: 89b1 95bc c48f 983e f496 173e b028 b93d
000001d0: ba8f a13e 30e8 d83d 9bb9 12be e098 823e
000001e0: b177 583d 9a73 373e adfa 303e b6d6 733e
000001f0: a0e7 773e 5d1d 9b3e 4cf2 ef3c 95a6 673d
0.136564 0.16879609 0.24400629 -0.112633035 0.031277608 0.18208627 0.06356163 0.05742847
0.27284697 -0.07767919 -0.0006476028 0.07327145 0.26991388 0.012544869 0.055983867 0.17651114
-0.2200652 0.16131595 0.10538835 0.023854341 0.08443311 0.092093825 -0.19269605 0.1489475
-0.05084824 -0.038209446 0.24947134 0.11703847 0.1445149 -0.08933562 0.3511748 -0.102140844
0.25794488 0.117598385 0.21479397 0.13910817 0.09291869 0.0040371534 0.23099655 0.22652467
0.06194002 -0.0792909 0.07883844 0.13066414 0.09536818 -0.14659588 -0.199536 0.18597373
-0.006833481 0.21606138 0.4269431 -0.076136775 -0.11847875 0.053312287 -0.039903466 0.0307967
-0.10078504 -0.034523938 0.26238477 0.18129368 0.11100285 -0.15410334 0.18236804 -0.13402356
-0.019467479 -0.102404825 0.22767483 -0.121245064 0.20721856 0.01799577 0.20220658 -0.20233922
-0.1281704 -0.009082402 -0.043379556 0.07292981 -0.10539117 0.13242218 0.13190763 0.118556656
0.034394592 -0.22029634 -0.24513824 -0.017160825 -0.18922444 0.27849272 -0.016454088 0.16856809
-0.021634523 -0.047777753 -0.007371664 0.11395294 -0.21070172 0.20063673 -0.25954863 0.04144773
0.19139062 0.23128448 0.014763271 0.050596252 0.38824448 0.2973701 0.3475614 0.2767444
0.4564901 0.117974326 0.006946187 0.016765144 0.373539 0.21037143 0.06398891 0.10465572
-0.018273132 0.29797184 0.14803678 0.09040964 0.31554967 0.10591161 -0.14328615 0.2550726
0.05284852 0.17915192 0.17283125 0.23812374 0.24209452 0.3029584 0.02929034 0.05655535

lstm.ih.rho_bias f4 [128]
00000000: 4544 1cc0 410e 1bc0 a581 07c0 8e9a 2bc0
00000010: e1bd 22c0 d1cb 20c0 bbc1 2fc0 a2fb 28c0
00000020: 7452 26c0 4026 1bc0 0388 18c0 0879 34c0
00000030: 9e45 28c0 2f4b 22c0 92fe 32c0 5ce7 0ec0
00000040: 155b 2ac0 72e8 23c0 40e1 15c0 4ce9 2dc0
00000050: dfb6 2ec0 f252 12c0 babe 34c0 9ce7 15c0
00000060: 214a 2fc0 27b3 2ec0 85cf 2dc0 67fd 1dc0
00000070: cbba 2cc0 98a0 2ec0 8c49 1ac0 35b6 1dc0
00000080: 1045 febf 7e41 03c0 c7db 1ec0 313c 34c0
00000090: cd0e 1cc0 f436 30c0 36e0 37c0 2b9e 31c0
000000a0: 7313 2bc0 cb53 28c0 17c3 30c0 aa9b 35c0
000000b0: 07c4 31c0 68ee 29c0 d8da 37c0 b43e 03c0
000000c0: 0bae 32c0 c33d fabf f5ab d8bf 16f5 2bc0
000000d0: c1cb 38c0 2fb0 1bc0 3aed 2bc0 0f6a 2dc0
000000e0: 4842 39c0 9643 31c0 ea5c 19c0 e0f4 1fc0
000000f0: 8377 23c0 a962 3cc0 dfd1 eebf 9962 3ac0
00000100: 722c 27c0 9181 2fc0 5cf9 31c0 580d 36c0
00000110: 3c18 31c0 5005 2fc0 636f 41c0 dfe0 2cc0
00000120: c68c 3cc0 14c2 2fc0 1fbb 28c0 cd33 42c0
00000130: cf86 3bc0 8b1d 31c0 1132 39c0 8065 2ec0
00000140: 558b 32c0 2441 25c0 00d4 39c0 9a80 3bc0
00000150: 505e 30c0 7c18 2bc0 4bea 2dc0 fc95 24c0
00000160: 063f 48c0 4594 1cc0 c51e 26c0 abce 33c0
00000170: 1dd5 3cc0 040d 3bc0 a55c 27c0 5ccb 30c0
00000180: 9c04 2dc0 7026 31c0 b1e4 1dc0 ef6d 28c0
00000190: 9d80 1dc0 0793 1fc0 e77c 2ac0 44a7 27c0
000001a0: 7614 21c0 f5d7 27c0 5de8 21c0 0293 1dc0
000001b0: b6ac 20c0 38dc 0cc0 f68a 1bc0 c5ae 37c0
000001c0: b586 21c0 da1d 30c0 b7e6 22c0 6f0d 13c0
000001d0: 6f34 ffbf 55b0 38c0 aec0 2fc0 15b1 24c0
000001e0: d1aa 34c0 ba86 32c0 8783 20c0 61be 23c0
000001f0: 7790 1ec0 1976 3fc0 d6bc 38c0 bad4 27c0
-2.4416668 -2.422745 -2.1172879 -2.6813083 -2.5428393 -2.51244 -2.7461994 -2.6403584
-2.5987825 -2.4242096 -2.3833015 -2.8198872 -2.629249 -2.5358388 -2.7967877 -2.232871
-2.6618092 -2.5610623 -2.3418732 -2.7173643 -2.7299116 -2.2863126 -2.824141 -2.3422613
-2.7388995 -2.7296846 -2.715791 -2.4685915 -2.698901 -2.7285519 -2.410739 -2.464246
-1.9864826 -2.0508723 -2.4821641 -2.8161738 -2.4384034 -2.753354 -2.8730597 -2.7752788
-2.673062 -2.6301143 -2.7619073 -2.837626 -2.7775896 -2.6551762 -2.8727322 -2.050702
-2.7918727 -1.9550098 -1.6927477 -2.6868339 -2.8874362 -2.4326284 -2.6863542 -2.7095983
-2.8946705 -2.76975 -2.396296 -2.499321 -2.5541694 -2.9435217 -1.8657798 -2.912268
-2.6120877 -2.742283 -2.7808447 -2.8445644 -2.7671041 -2.7346992 -3.0224235 -2.701225
-2.9460921 -2.7462206 -2.636421 -3.0344117 -2.930103 -2.7674282 -2.8936808 -2.724945
-2.7897542 -2.5821009 -2.9035645 -2.9297242 -2.7557564 -2.6733694 -2.717425 -2.5716543
-3.1288466 -2.4465497 -2.595628 -2.809489 -2.9505074 -2.9226694 -2.6150296 -2.762412
-2.7034063 -2.767971 -2.4670832 -2.6317098 -2.460975 -2.4933488 -2.6638734 -2.619584
-2.5168738 -2.622556 -2.5298073 -2.4620976 -2.5105414 -2.200941 -2.4303565 -2.870042
-2.5238469 -2.751822 -2.5453317 -2.297695 -1.9937876 -2.8857625 -2.7461352 -2.5733082
-2.8229258 -2.789473 -2.5080278 -2.5584948 -2.4775674 -2.991583 -2.8865256 -2.6223588

lstm.hh.mu_weight f4 [128, 32]
00000000: 8d65 c03b b75d 61bb a17c 223c c6f0 2bbd
00000010: ae81 dfbd 7798 0c3e 9b61 8ebe 382a 91be
00000020: 9d6d 12be 7f61 543e 4dcf 8dbe 3007 1e3d
00000030: dc63 63be 8cf2 09be bb4a e73d 2d1a 9bbd
00000040: 9350 24be 3000 94bd 8b7b 00be a2da 06be
00000050: 65d8 f8bd 4e8b f4bd 229a 563e cda1 763e
00000060: f4f5 18bd d647 febd 6e7c 39be 1d6e 86bd
00000070: f7b8 cc3d 0465 933d ea3f 1f3d e38c f53d
00000080: ca32 ab3e 2d90 663c b260 803e 5918 aabc
00000090: a1f7 a93e e838 94bd 6dfb f93c 5885 3fbe
000000a0: 63b2 4abe e0fc e83d a07c e3bd 4009 b33d
000000b0: 4df1 02be cb40 893e 5c0f a73e a2c4 3a3e
000000c0: b11f d53d 598d 78be 334b 64be 3cc4 a23d
000000d0: fbdd 32be 06c8 a23e 356a ddbd 3778 923e
000000e0: fc8c 40bd 9c41 08be 238f 8a3e a1fa a83e
000000f0: 6917 b9be a88f 913b 4a5f 46be 6ded 36bd
00000100: 0cfe 243e 34ef a4be fe52 863e efe1 cbbd
00000110: 0533 cd3e 567d 6f3e e00b f13e cd1c 83be
00000120: 7a4c 94bd 5def 9e3d b258 02be c61e 403e
00000130: a5b7 babc 070e 133e 66f1 b03e 9162 413e
00000140: 1ad6 d3bd 54dd cebe 2dd5 1bbf 2cb0 9b3e
00000150: 7f62 05be 59ca 9a3e f8c8 913d 0af6 5c3e
00000160: d4f7 b9bc 29ee e3bd 9946 c83e ef5a ab3e
00000170: 5a6c 993d f8e3 fbbd 1941 c4be 1c3b 17be
00000180: 12f1 b1bd b545 a33d 4c23 82be 7ffe 6b3e
00000190: e877 abbd cc89 b7bd e2c2 e13e e00e 023e
000001a0: ceb5 2b3e 95d6 8f3e a4c9 42be e24a b03d
000001b0: 7b02 053d 1330 9b3e a59e 5dbe f2d4 c5bd
000001c0: ad83 83be 88ef 4b3e 47a0 2fbe f769 41be
000001d0: 1513 3dbd f772 00bd 01ed be3d 7860 0ebe
000001e0: 6416 b8be 681d 903e 6db8 95bd b6eb 39bd
000001f0: edef 773e cea7 6bbe 90a1 113d 7d2b 89bd
00000200: b677 4dbd 1103 833c e8b1 143c e820 10bb
00000210: bec5 0c3e 130f f9bc a885 8b3e 58bf 04be
00000220: 6f4a 9f3d 7679 e0bc fffa c5be c170 bfbd
00000230: 5939 aebd 7f2f bf3d 6974 613d 7ed5 1fbe
00000240: a4d4 c2bd 6da4 05be 47c7 f1bd 164a 2cbd
00000250: 7c11 dbbe a8c8 92bd 2bce 2f3d 9e5f c5bd
00000260: fba6 bbbd 9178 c83d 77a2 14bd 52ff 2c3d
00000270: 7c93 78bd 3cbb bebd 3b3f 923d edec 483d
00000280: fb45 6ebe 01fe b63d 1531 2cbd d330 adbd
00000290: aad8 ff3d 24a9 e43c 2931 da3c fbec 7bbe
000002a0: af03 82be 716e e83d ee10 bfbc 8ce6 50bd
000002b0: 0778 51be 7e07 6f3e 0ff1 0f3e 3bc0 aabd
000002c0: 9227 013d 5244 54bc bce0 fabd da92 813d
000002d0: e844 2ebe 39e3 13bd ee7c b23d 060a e4bd
000002e0: 3f8d 97bd d735 d6bd 64b9 07be 715f 2dbc
000002f0: ab24 933d d9a8 a3be f259 e7bb e291 a3be
00000300: 1846 88be 1699 e43d bbcf 1fbe 0bc2 40bd
00000310: bd75 333d d83d 143e 857e 023f d9cd 823e
00000320: c5fe d9bb 46f1 503e 7b1f 09be 4af5 d03d
00000330: 8618 80be 9728 b03d db25 2d3e 9edd d6bd
00000340: 5e78 92bd 6790 513e 3f75 57bd 2cd8 12be
00000350: b293 32be d9be 1c3d b321 5d3e 684d 49be
00000360: a949 25be 50a4 3e3e 7a1c ccbc d44d 78be
00000370: 9733 783c cf66 7bbc 45ad e33c 1b69 7bbe
00000380: bc2b 39bc 615d c23c 7d6a e8bd 1f40 4dbe
00000390: 535a 6dbd 6a03 8f3e b0cd b33d 7706 0fbe
000003a0: 4bb2 7c3e 03d6 c83d 2760 99be 8519 b33d
000003b0: 2571 cfbe e5cb c2bc 15fa c43d 3ef3 81be
000003c0: 50d9 703e 977c 1dbc e37e 0d3e 2a52 49bc
000003d0: 618e 0fbe bd73 3cbd 50ea 2c3e 6ac3 ddbd
000003e0: 5587 cd3d f93a c43d 9f3c 17bd e97b d7bd
000003f0: 5415 a83e be54 c23d e253 f13d 4142 0abe
0.005871481 -0.0034388134 0.009917409 -0.041977666 -0.10913406 0.13730036 -0.27808842 -0.28352523
-0.14299627 0.20740317 -0.2769722 0.038581073 -0.22206062 -0.1347143 0.112935506 -0.07573352
-0.16046362 -0.07226598 -0.12547128 -0.1316934 -0.12150649 -0.11940633 0.20957235 0.2408516
-0.037343934 -0.12416045 -0.18113872 -0.06563971 0.09996217 0.071970016 0.038879313 0.11989763
0.33437186 0.01407246 0.25073773 -0.020763563 0.33196738 -0.072374165 0.030515397 -0.1870321
-0.19794612 0.11376357 -0.11107755 0.08741999 -0.12787361 0.26807246 0.32628906 0.18239072
0.10406435 -0.2427267 -0.22294311 0.07947585 -0.17467491 0.3179323 -0.10811273 0.28607342
-0.047009453 -0.13306278 0.2706233 0.33003715 -0.36150673 0.004442174 -0.19372287 -0.04466002
0.16112536 -0.32213748 0.26235193 -0.09955203 0.40077987 0.23387656 0.47079372 -0.2560791
-0.07241149 0.07760499 -0.12729147 0.18761739 -0.022792647 0.1436082 0.34559172 0.18885256
-0.10343571 -0.40403235 -0.60872155 0.30407846 -0.13025855 0.30232504 0.0711841 0.21578231
-0.022701181 -0.1112941 0.39116362 0.33467814 0.074913695 -0.12299341 -0.38330916 -0.14768642
-0.08688559 0.0797228 -0.25417554 0.23046301 -0.0837248 -0.089618295 0.44093996 0.12700987
0.16768572 0.280934 -0.19022232 0.08608033 0.03247307 0.30310115 -0.2164255 -0.09659757
-0.25686398 0.19915593 -0.17150985 -0.18888079 -0.046160776 -0.03135964 0.09322549 -0.13903987
-0.35954583 0.28147435 -0.07310567 -0.045390807 0.24212618 -0.23013231 0.03555447 -0.06697748
-0.050162993 0.015992673 0.009075619 -0.002199227 0.13747308 -0.030402696 0.2725041 -0.12963617
0.07777869 -0.027401667 -0.38668057 -0.09347678 -0.08507032 0.09335231 0.055042658 -0.15608785
-0.09513214 -0.13051005 -0.11805587 -0.04206284 -0.42786777 -0.071671784 0.042921226 -0.09637378
-0.09162708 0.09788621 -0.03628775 0.04223568 -0.060687527 -0.09313056 0.071409665 0.049054075
-0.23268883 0.08935166 -0.042038996 -0.08456578 0.12492497 0.027912684 0.02663477 -0.2460212
-0.25393435 0.1134919 -0.023323502 -0.051001117 -0.20455943 0.23342702 0.140568 -0.08337446
0.031531878 -0.012955742 -0.12249896 0.06326838 -0.17018473 -0.03610537 0.08715235 -0.11134724
-0.073999874 -0.10459488 -0.13254315 -0.010581837 0.07184728 -0.31964758 -0.007060283 -0.31947237
-0.26615977 0.11162011 -0.15606587 -0.047060054 0.043813456 0.14476717 0.50974303 0.25547674
-0.0066526853 0.20404539 -0.13390915 0.10203035 -0.2501871 0.08601492 0.16908972 -0.10491489
-0.071518645 0.20465241 -0.05260205 -0.14340276 -0.17439154 0.038267944 0.21594886 -0.19658434
-0.1614138 0.18617368 -0.024915922 -0.24248439 0.015149019 -0.015344336 0.027792582 -0.24551813
-0.011301931 0.023726167 -0.11348436 -0.20043992 -0.057947468 0.27932292 0.08779466 -0.1396731
0.24677388 0.098064445 -0.2995617 0.08745102 -0.4051601 -0.023778865 0.09618012 -0.25380892
0.23520398 -0.009612224 0.13817935 -0.012287656 -0.14019157 -0.046008814 0.16886258 -0.10828288
0.10035578 0.09581561 -0.036923047 -0.10521681 0.32828772 0.094888195 0.117835775 -0.13501836

lstm.hh.rho_weight f4 [128, 32]
00000000: 7bf1 35c0 3e96 2bc0 1e3a 40c0 15d4 2ec0
00000010: ede7 3ac0 41c7 3ac0 933d 37c0 6220 36c0
00000020: c0da 38c0 7414 35c0 cc55 3dc0 6fa9 3fc0
00000030: 4c1d 35c0 58c4 36c0 c550 3cc0 a475 40c0
00000040: 014d 2cc0 7242 36c0 c18d 3fc0 621d 3bc0
00000050: 7cef 40c0 0a73 2ec0 5a79 30c0 5372 34c0
00000060: 8e0f 36c0 396d 3bc0 68b2 2dc0 c3b5 40c0
00000070: ba3a 39c0 3e11 24c0 94a5 3cc0 5ecc 33c0
00000080: eb31 2fc0 6d73 38c0 38b6 2dc0 704d 37c0
00000090: 7ad7 3ac0 40d0 35c0 44d1 31c0 cab3 2cc0
000000a0: a666 2fc0 cc3c 2ac0 66af 3ac0 29f3 2ec0
000000b0: f8ab 3cc0 36c5 35c0 075d 31c0 b804 30c0
000000c0: 2f1b 36c0 205c 2cc0 3af3 25c0 6467 36c0
000000d0: 8aed 3cc0 8327 38c0 c550 3cc0 3841 2fc0
000000e0: 85fa 3fc0 af14 31c0 1add 2ec0 567a 38c0
000000f0: e43b 2bc0 20fc 36c0 fd89 2dc0 4e9b 2cc0
00000100: a9c3 2cc0 f4ea 2cc0 b087 34c0 ee03 2ec0
00000110: 0d9f 37c0 4afb 35c0 1192 34c0 3457 37c0
00000120: e4c3 2cc0 303e 3ac0 1a55 37c0 7394 37c0
00000130: fb7e 2ec0 6ff4 35c0 fbf7 32c0 84cd 2ec0
00000140: 1f10 31c0 df05 3ec0 8c24 33c0 0327 2bc0
00000150: 584d 2ec0 567c 2dc0 ef85 34c0 a939 32c0
00000160: 1abc 2cc0 ea0a 30c0 7437 31c0 d4d5 2dc0
00000170: a8b2 28c0 c841 36c0 20fe 2cc0 8602 2ec0
00000180: 8e7f 40c0 94aa 39c0 5ffd 3dc0 6cd5 25c0
00000190: 353b 3ec0 7086 49c0 357d 41c0 331b 36c0
000001a0: ff70 2cc0 e870 3dc0 7d37 39c0 b096 3bc0
000001b0: c138 3ec0 e79c 36c0 5c8a 38c0 40c2 38c0
000001c0: cc4a 39c0 e472 2ec0 1c1b 34c0 c6ef 3fc0
000001d0: 1359 30c0 4892 2dc0 f050 3ec0 4b9e 37c0
000001e0: 62da 37c0 63ad 40c0 2b2f 36c0 c062 47c0
000001f0: 34ee 49c0 2ea2 38c0 4163 37c0 8f00 36c0
00000200: 8a45 30c0 9087 37c0 3e21 47c0 a16c 34c0
00000210: 6fcb 2ac0 c9a4 3ac0 c4c5 34c0 53a7 3ac0
00000220: f680 27c0 d104 33c0 7590 31c0 8894 40c0
00000230: 9dd8 44c0 2289 3fc0 851a 36c0 069c 3dc0
00000240: f197 40c0 9759 3ec0 ebe3 39c0 dcf3 46c0
00000250: f8d3 45c0 64ed 3cc0 5cb6 3cc0 718b 38c0
00000260: 860a 2fc0 8747 36c0 b35a 3fc0 592c 35c0
00000270: 1516 37c0 edea 2fc0 738c 36c0 9a75 2dc0
00000280: f9e1 3ec0 d8ad 2fc0 50bf 46c0 c3ed 46c0
00000290: fc9e 44c0 b2df 53c0 ec9c 3ac0 f054 3ac0
000002a0: f856 41c0 5bb7 36c0 52f3 32c0 74f1 3dc0
000002b0: f4e3 3bc0 3970 30c0 6cab 3bc0 2744 39c0
000002c0: 45dc 3ec0 cf67 2ac0 249b 3cc0 449e 2fc0
000002d0: ba3f 2ac0 84f3 44c0 2d97 34c0 cbdf 33c0
000002e0: b615 3dc0 0cd4 33c0 afd2 45c0 8685 46c0
000002f0: 7e4b 42c0 aeba 3dc0 73af 49c0 42cc 30c0
00000300: d7b1 4dc0 9f75 43c0 72e2 30c0 d713 42c0
00000310: bdcc 3cc0 c3d9 39c0 ebd9 3ec0 57a0 3fc0
00000320: e49d 3ac0 2eaf 45c0 ab3b 3ac0 4a5f 44c0
00000330: 0922 39c0 dcf6 43c0 8dfd 39c0 d43e 46c0
00000340: aaf1 44c0 aafe 39c0 7ae1 45c0 0491 43c0
00000350: 512f 3dc0 9e6b 3ac0 1a92 35c0 1549 3fc0
00000360: 1069 48c0 69ff 48c0 eb73 46c0 aee0 4dc0
00000370: 70d7 40c0 cd71 3dc0 479e 44c0 0ea8 3cc0
00000380: 2600 2ec0 c3de 35c0 5ae2 3ac0 a8ac 45c0
00000390: 13e9 3cc0 e318 46c0 b20f 2fc0 f432 33c0
000003a0: f247 2ec0 e3db 38c0 aacf 2ec0 f982 44c0
000003b0: af7f 3bc0 4f10 33c0 4ffe 31c0 2ea6 29c0
000003c0: e96e 3fc0 e0fb 2fc0 6961 39c0 7164 3ac0
000003d0: 52fd 2ec0 cf47 45c0 a56a 36c0 cd92 27c0
000003e0: b973 30c0 8886 39c0 0054 40c0 9419 3dc0
000003f0: 9722 3cc0 00d2 33c0 4291 3ac0 9066 2dc0
-2.8428638 -2.681045 -3.0035472 -2.7316945 -2.9204056 -2.9184115 -2.8631332 -2.8457265
-2.8883514 -2.8293734 -2.9583616 -2.9947164 -2.8299131 -2.8557339 -2.9424298 -3.0071802
-2.6922 -2.8478055 -2.993027 -2.9236684 -3.014617 -2.7257714 -2.7574067 -2.8194778
-2.8446994 -2.9285414 -2.714014 -3.0110939 -2.8942094 -2.5635524 -2.947606 -2.8093486
-2.7374218 -2.882045 -2.7142467 -2.8641014 -2.9194016 -2.8408356 -2.7783976 -2.6984735
-2.7406402 -2.6599607 -2.9169555 -2.7335913 -2.9479961 -2.8401618 -2.771303 -2.750288
-2.8454092 -2.6931229 -2.5929704 -2.8500605 -2.9519982 -2.8774116 -2.9424298 -2.7383556
-2.9996655 -2.7668874 -2.732245 -2.8824668 -2.6755304 -2.8591385 -2.7115471 -2.696979
-2.6994421 -2.7018404 -2.8207817 -2.7189898 -2.8690827 -2.8434625 -2.8214152 -2.8646975
-2.6994562 -2.9100456 -2.8645692 -2.8684356 -2.7265003 -2.843044 -2.7963855 -2.7312937
-2.766609 -2.9691083 -2.7991056 -2.674256 -2.7234707 -2.7107139 -2.8206747 -2.7847693
-2.6989808 -2.7506661 -2.7690096 -2.716176 -2.6359043 -2.847765 -2.7030106 -2.718904
-3.0077853 -2.9010363 -2.9685895 -2.5911512 -2.9723637 -3.1488304 -3.023267 -2.84541
-2.6943967 -2.9600163 -2.8940117 -2.9310722 -2.972214 -2.8533266 -2.8834448 -2.886856
-2.8951902 -2.7257624 -2.8141546 -2.9990096 -2.7554367 -2.7120533 -2.97369 -2.8690364
-2.872704 -3.0105827 -2.846629 -3.1154022 -3.1551638 -2.8848987 -2.865433 -2.843784
-2.7542443 -2.867649 -3.111404 -2.8191302 -2.6686666 -2.9163077 -2.8245707 -2.9164627
-2.6172462 -2.797169 -2.774442 -3.0090656 -3.075721 -2.992745 -2.8453686 -2.962648
-3.0092738 -2.9742181 -2.904536 -3.108634 -3.0910625 -2.9519892 -2.9486303 -2.8835108
-2.7350173 -2.8481157 -2.9899108 -2.8308318 -2.8607228 -2.7487137 -2.8523223 -2.7103028
-2.9825423 -2.7449856 -3.1054268 -3.1082618 -3.0722036 -3.3105283 -2.9158278 -2.9114342
-3.0209332 -2.8549411 -2.796101 -2.9678621 -2.9357882 -2.7568495 -2.9323378 -2.8947847
-2.9821942 -2.662586 -2.946969 -2.7440348 -2.6601396 -3.077363 -2.821727 -2.8105342
-2.9544501 -2.8098173 -3.090984 -3.1018996 -3.0358577 -2.964519 -3.1513336 -2.762467
-3.2139795 -3.054054 -2.7638211 -3.032461 -2.9499962 -2.9039161 -2.9820507 -2.9941614
-2.9158869 -3.0888171 -2.9098918 -3.068316 -2.8927023 -3.061942 -2.9061005 -3.0975847
-3.07725 -2.9061685 -3.091887 -3.055726 -2.956013 -2.9128184 -2.8370423 -2.9888356
-3.1314125 -3.140589 -3.100825 -3.2168384 -3.0131493 -2.9600708 -3.0721605 -2.9477572
-2.718759 -2.8417213 -2.9200654 -3.088663 -2.9517257 -3.095269 -2.735333 -2.799985
-2.7231412 -2.8884208 -2.7314248 -3.070494 -2.9296682 -2.7978704 -2.7811468 -2.6507678
-2.9911444 -2.7497482 -2.8965704 -2.9123805 -2.7342114 -3.0825078 -2.850259 -2.618335
-2.7570632 -2.8988361 -3.005127 -2.9546862 -2.9396112 -2.8096924 -2.9151158 -2.709385

lstm.hh.mu_bias f4 [128]
00000000: e2fe bf3e 64ed 8d3e 096f 8f3e fb67 c8bc
00000010: ef9e dc3d 8aee dcbd 5836 71be aecb 243e
00000020: 6c98 793e 8548 033d 5032 29bc 2679 b23d
00000030: 8150 953e d87e ddbb 9a83 af3d 1afe 883d
00000040: 559b 63bd f8e9 b83e 0617 693e 1cfe 563c
00000050: 6b59 dbbd 9970 803e 027e 473e b7e6 9f3d
00000060: d4b0 293d c7f3 1f3d 58b6 503d d532 bdbc
00000070: d97c 713c 84b6 3dbd b44d 073f b87d aa3d
00000080: d997 e13d d02f 0d3e 8bad 243e f4a0 87bd
00000090: 5940 8bbd e251 55bd 8903 863e 5fbc b63e
000000a0: b839 86bd 67e8 903d dc7d eebd f176 f63d
000000b0: 694a fc3d f890 32bd d07e ffbd e5f7 923d
000000c0: 5a67 3a3c b103 b03e b895 703e 09b0 d8bc
000000d0: 9cc9 383e cc14 e53d 94b9 16bd 3a53 f03d
000000e0: 281f 7e3e c934 803d 96cc 903e 5a39 0a3e
000000f0: 5de4 b63d a296 90bd 9d8d dc3b f7d4 8a3e
00000100: 89a2 7c3e 6eef 91be 42e0 413e c77c ecbd
00000110: 0d57 283e 5b3a ce3d 2090 c23c d399 15be
00000120: 8527 8dbd 2cd7 85bd 7309 a4bd 5b0a 2fbd
00000130: 6393 c73d 56fe 503d 2fea c03d 043b 7a3e
00000140: 0036 0ebd 28d6 a8be 0f94 4fbe c3e0 453d
00000150: 9272 fb3d 8810 963e e194 2dbe d7dc c13e
00000160: 7c07 473e 58d3 32be a105 2a3e ead2 4c3e
00000170: 241a 3cbe 2d09 f4bc 7c6c e8be c0ba 7ebd
00000180: 0dc9 803e 970b 5e3d 736d 233e dfed 9d3e
00000190: e5bd d63e f48d 503e 8665 243f e05a 283d
000001a0: fb6d df3e fcc8 e73d acb9 1b3e 5524 bc3d
000001b0: 2832 a23e ba9b 5f3e 2768 513e bb01 8b3e
000001c0: 5f51 443b 6d7f e93d 229c e53d d201 6e3c
000001d0: bc6e a53e dabc a93e 57bd 133d 0fa4 033e
000001e0: d0a1 74bc 6df7 743d c883 f23e b167 a03e
000001f0: d1f5 9f3e afc1 b53d 737b fe3d 8f71 243e
0.37499148 0.27720177 0.280144 -0.024463644 0.10772502 -0.10787685 -0.23555887 0.16093323
0.2437455 0.032051582 -0.010326937 0.087145135 0.29162982 -0.0067595057 0.08570023 0.06689091
-0.055568058 0.36116004 0.22762689 0.013122108 -0.107104145 0.25085905 0.19481662 0.07807677
0.041428402 0.039050844 0.050955147 -0.023095528 0.014739239 -0.04631664 0.5285294 0.0832476
0.11015291 0.1378777 0.16081826 -0.06622496 -0.06799383 -0.052080043 0.26174572 0.3569059
-0.06553978 0.07075577 -0.116450995 0.12034405 0.1231888 -0.043595284 -0.124753594 0.071761884
0.01137718 0.34377816 0.23494613 -0.026451128 0.18045658 0.11185607 -0.036798075 0.11734624
0.24816573 0.06260068 0.28281087 0.1349844 0.089302756 -0.07059981 0.006730749 0.27115604
0.24671377 -0.28502983 0.18933204 -0.11547237 0.16439457 0.10069724 0.023750365 -0.1460946
-0.068923034 -0.065351814 -0.08009615 -0.042734485 0.09744909 0.051023804 0.09419667 0.24436575
-0.034719467 -0.32975888 -0.20271324 0.048310053 0.12277712 0.29309487 -0.16951324 0.378638
0.19436449 -0.17463434 0.1660371 0.20002332 -0.18369347 -0.029789532 -0.45395267 -0.062189817
0.2515339 0.05421027 0.1595972 0.30845544 0.41941753 0.20366651 0.6421741 0.04110229
0.43638596 0.113176316 0.15207547 0.09186617 0.3167889 0.21836749 0.20449887 0.27149758
0.0029955728 0.11401258 0.112114206 0.014526801 0.32311046 0.33151895 0.03606924 0.12855552
-0.014931157 0.059806276 0.47366166 0.3132911 0.3124223 0.08874833 0.1242589 0.16058944

lstm.hh.rho_bias f4 [128]
00000000: 831c 1bc0 dcc1 23c0 f5d6 07c0 9b03 2bc0
00000010: 4fa0 2ec0 f1f8 23c0 4943 2dc0 2f38 29c0
00000020: 0804 22c0 8e31 2ac0 07c1 1dc0 ea55 2fc0
00000030: bee0 1fc0 cde5 29c0 326c 2ec0 46f6 13c0
00000040: 2b21 35c0 1585 19c0 87f6 23c0 8811 20c0
00000050: 01be 32c0 6f1e 14c0 afbe 1fc0 52b0 24c0
00000060: 9561 37c0 ca65 30c0 d274 19c0 d2f6 24c0
00000070: 5b66 23c0 581a 32c0 eb4f 0dc0 76ed 1fc0
00000080: 522a 17c0 cf7e fcbf 2c75 17c0 3502 35c0
00000090: 90e2 28c0 c372 43c0 0ece 2dc0 32fd 25c0
000000a0: 0540 28c0 138e 31c0 12a0 31c0 a264 42c0
000000b0: 014a 42c0 c8ed 24c0 4816 33c0 52c6 02c0
000000c0: 82ca 2fc0 28cd fabf 75b2 ebbf 8694 35c0
000000d0: c548 2cc0 e917 22c0 f22c 3dc0 2c9c 2ac0
000000e0: f38c 2cc0 19f5 2cc0 322f 2cc0 6645 11c0
000000f0: a919 37c0 4c52 21c0 492a e5bf 6864 2dc0
00000100: 2e87 26c0 a577 19c0 8414 2ac0 4add 39c0
00000110: 5061 2fc0 8b91 30c0 f912 2fc0 d77f 26c0
00000120: 3e8f 33c0 63e6 2ec0 5bc0 39c0 e89d 45c0
00000130: b53c 35c0 99f9 38c0 b428 35c0 9ed1 27c0
00000140: 75db 41c0 cad5 33c0 9499 3ac0 0b7d 35c0
00000150: ccd9 3bc0 3e80 25c0 1daf 33c0 9406 35c0
00000160: 6e05 3ac0 412c 30c0 7d92 30c0 2edf 30c0
00000170: 36f3 31c0 4d54 39c0 0f56 2dc0 468d 37c0
00000180: 550f 28c0 55d7 1ac0 a541 22c0 2429 22c0
00000190: bbdb 26c0 06e3 17c0 0c09 28c0 851c 28c0
000001a0: 6683 16c0 e03b 2ec0 2037 29c0 94f2 14c0
000001b0: 23fb 1ec0 6401 11c0 569e 1cc0 851a 2ac0
000001c0: 12ca 2fc0 06f6 2dc0 c219 38c0 3182 19c0
000001d0: f961 f9bf aa31 38c0 ca83 29c0 e7bb 28c0
000001e0: a090 2fc0 7b11 24c0 6672 24c0 1142 24c0
000001f0: 3a5c 1cc0 5b69 33c0 a921 24c0 7d3e 20c0
-2.4236152 -2.5587072 -2.122495 -2.672095 -2.7285345 -2.5620692 -2.7072318 -2.6440542
-2.531496 -2.6592746 -2.4649065 -2.7396188 -2.4980922 -2.654651 -2.7253537 -2.3119063
-2.8301494 -2.3987477 -2.5619218 -2.50107 -2.792847 -2.3143575 -2.4960134 -2.5732617
-2.865331 -2.7562127 -2.3977551 -2.5775647 -2.5531223 -2.782858 -2.2080028 -2.4988685
-2.361958 -1.9726199 -2.3665266 -2.8282597 -2.6388283 -3.0538795 -2.7157016 -2.5935788
-2.6289074 -2.7742965 -2.775395 -3.0373921 -3.0357668 -2.577013 -2.798235 -2.0433545
-2.746735 -1.9593859 -1.8413836 -2.8371902 -2.6919415 -2.5327094 -2.9558682 -2.665782
-2.6961029 -2.7024596 -2.6903806 -2.2698607 -2.8609412 -2.520648 -1.790353 -2.7092533
-2.6020007 -2.3979275 -2.6575022 -2.9041314 -2.7403145 -2.7588832 -2.735533 -2.6015527
-2.8056178 -2.7328117 -2.9023654 -3.0877628 -2.8318303 -2.8902342 -2.8306093 -2.622169
-3.0290196 -2.8099236 -2.9156237 -2.835757 -2.9351683 -2.5859523 -2.807563 -2.8285265
-2.9065814 -2.752701 -2.758941 -2.7636218 -2.7804694 -2.8957703 -2.7083776 -2.8679976
-2.6259358 -2.4193928 -2.5352566 -2.533761 -2.6071613 -2.3732314 -2.6255522 -2.6267407
-2.35177 -2.7224045 -2.6439896 -2.3273058 -2.4840782 -2.2657099 -2.447164 -2.6578686
-2.7467084 -2.718141 -2.8765721 -2.3985713 -1.9483024 -2.8780313 -2.6486688 -2.6364686
-2.7432022 -2.563567 -2.5694823 -2.5665324 -2.443129 -2.8033054 -2.5645545 -2.503814

l1.mu_weight f4 [16, 32]
00000000: 1efe 2d3f c2c6 28bf 0a17 113f c31b fbbe
00000010: 5a0f 023f d712 213f 68df 02bf f52f 13bf
00000020: fe4f 03bf 8a1d 373f 39b6 10bf 1b1c 023f
00000030: 71c2 03bf 31d5 233f b9b0 3f3f fd6f 223f
00000040: 5c3a 29bf b07c f4be 5242 0ebf a6ea 263f
00000050: 2ccf 03bf 7483 083f cb9a e23e e564 e63e
00000060: 55b7 ccbe 831f 24bf aa2f 363f fe05 013f
00000070: 6a00 4bbf eb4b 18bf b7f0 0cbf 7f1d d0be
00000080: a00a 163f 9122 04bf e200 113f b65a edbe
00000090: e541 f23e bbf5 d63e 99d5 f5be ae37 b3be
000000a0: 6725 b1be c830 f13e 14ed 06bf c0d1 193f
000000b0: 88f7 b0be 386b 2f3f 882a 043f f944 113f
000000c0: e57c f5be 51d5 1abf 9bc9 f6be 4787 1b3f
000000d0: c4f7 f8be 9e2d f73e 45e0 c73e ce5a de3e
000000e0: c88b 14bf 35e5 05bf 55bb 333f 59b0 e03e
000000f0: eb1f 00bf c9ac 3cbf ab1f 12bf 599c 1ebf
00000100: a824 383f fd1a b8be 0299 1c3f 5d6f fbbe
00000110: 0d4a 153f 20e2 303f 2b25 fcbe 09c5 03bf
00000120: 9e88 11bf a241 123f 74ed 3cbf 3c46 033f
00000130: edaa 2bbf acc0 513f 16d4 313f 5f21 083f
00000140: 0831 1fbf e4f7 10bf e63b 1abf 3951 113f
00000150: df4a 4bbf 89d1 193f a170 a03e 84c3 5f3f
00000160: 995b 3cbf ee75 2cbf 5cdc 473f cca0 0c3f
00000170: cbc2 1dbf 184a 2bbf e652 15bf 9995 36bf
00000180: 1948 003f a3c3 28bf 0129 963e ca61 b6be
00000190: efbe f83e 2acc f53e f106 18bf 5f49 07bf
000001a0: 3026 ccbe ed85 ae3e 3db4 45bf 108d 0e3f
000001b0: 456b 0abf 3a1f 183f aa5a f33e b49b 173f
000001c0: e71a 0fbf 74aa 1ebf e39a 14bf 32f4 153f
000001d0: e1af 11bf 9a2e 1a3f b48b 8f3e 159e 113f
000001e0: c9ca 0cbf f65e e9be f8bf 1d3f e1e8 3d3f
000001f0: 4d0d e0be 49a4 34bf 1c31 e5be b797 29bf
00000200: 4360 c23e 1ef4 31bf 6e2b 103f 8941 1abf
00000210: 1501 0f3f 0164 283f 1d32 febe 4cde 0bbf
00000220: e00a 35bf ba43 4a3f fc48 1fbf fa03 133f
00000230: 636c 0cbf 3508 f83e 7bec f23e 2b63 023f
00000240: c30e 24bf cd26 18bf 178b c2be cae2 3b3f
00000250: c074 1ebf 27a5 1c3f addf e93e 767f 343f
00000260: a200 06bf 4066 05bf d0e7 323f a1d3 173f
00000270: c445 2ebf 27f8 bfbe 5395 28bf c11a f4be
00000280: fdab 143f 8b15 08bf c6ed 363f 6b0b efbe
00000290: 1e80 123f 980e 143f 3692 e6be 0716 f0be
000002a0: 8c2b 09bf 1aec 0c3f e453 31bf 3f78 083f
000002b0: 141d ffbe 9763 403f feae 293f 15c9 113f
000002c0: 0a7a d2be f57d 18bf d5e6 31bf 9c82 013f
000002d0: 6bfa d6be 3246 3f3f 17e8 ec3e c4ed cb3e
000002e0: f3b3 2cbf e880 15bf f1e5 133f 8aae 1a3f
000002f0: de10 33bf 0274 14bf d6ed 34bf 8b3c 0bbf
00000300: d135 0a3f 5b66 09bf cdda fe3e 1207 02bf
00000310: b7ff f33e e5b8 373f d73c 98be 2f33 eebe
00000320: aed0 13bf 4ead 193f 6750 f5be d137 2c3f
00000330: 8386 10bf c73e 113f 3df1 213f c608 fd3e
00000340: bfaa 1fbf 4080 dbbe 931b 10bf 2a79 d83e
00000350: b097 3ebf 2bb3 db3e 42fe a83e 1061 d43e
00000360: ee4b f9be e3b5 07bf 3484 163f 2c88 e33e
00000370: 6cfe 02bf e7c6 0ebf 6e4c 24bf 6be5 14bf
00000380: 51a9 213f 3243 c2be f797 433f f396 d2be
00000390: 59e1 153f aa13 253f 2458 eebe 152f ffbe
000003a0: e4a8 1cbf 022d 313f 626a 19bf cd47 1e3f
000003b0: 6512 01bf 98c7 ef3e cbdd 0f3f cc44 143f
000003c0: 54cb 38bf fd5b 11bf 4439 21bf 2020 153f
000003d0: 636b 30bf 5297 0e3f 0686 643e be19 223f
000003e0: a606 2abf 4535 e6be ffaf 343f 70cf 0b3f
000003f0: 6d5f 1cbf 7ee6 24bf 8911 42bf ea99 0ebf
0.6796588 -0.6592828 0.5667578 -0.49044618 0.50804675 0.6291937 -0.5112214 -0.5749505
-0.51293933 0.7152945 -0.5652805 0.50824136 -0.5146857 0.6399718 0.7487903 0.6345213
-0.66104674 -0.4775138 -0.55569947 0.65201795 -0.51487994 0.5332558 0.44258723 0.4499885
-0.3998362 -0.64110583 0.7116648 0.5039977 -0.79297507 -0.5949084 -0.550548 -0.40647504
0.5860996 -0.51615244 0.5664197 -0.4635827 0.473159 0.41984352 -0.48014525 -0.35003418
-0.34598848 0.4710753 -0.527055 0.6008568 -0.3456385 0.6852298 0.516274 0.5674587
-0.4794685 -0.60481745 -0.48200688 0.6075329 -0.4862653 0.4827699 0.39038292 0.43428653
-0.5802579 -0.5230287 0.7020772 0.43884543 -0.500487 -0.7370115 -0.5707957 -0.6195732
0.71930933 -0.3595809 0.6117097 -0.491084 0.5831612 0.6909504 -0.49247107 -0.51472527
-0.56849086 0.571314 -0.73799825 0.51279044 -0.6705769 0.8193462 0.6946424 0.5317592
-0.6218419 -0.5662825 -0.6024765 0.5676456 -0.7941112 0.6008535 0.3133593 0.8740771
-0.73577267 -0.67367446 0.78070617 0.54932857 -0.61625355 -0.66909933 -0.5832962 -0.7132202
0.5011001 -0.6592352 0.29328158 -0.35621482 0.4858317 0.48007327 -0.5938559 -0.5284633
-0.39872885 0.34086552 -0.77228147 0.55683994 -0.5406993 0.5942265 0.4753011 0.5922196
-0.55900425 -0.6197884 -0.5804884 0.5857574 -0.56908995 0.6022736 0.28036273 0.5688184
-0.54996926 -0.45580262 0.61621046 0.7418347 -0.43760148 -0.7056318 -0.4476403 -0.66247123
0.37964067 -0.6951312 0.5631627 -0.6025625 0.55861026 0.65777594 -0.49647608 -0.54636073
-0.7071972 0.7900959 -0.6222074 0.5742794 -0.54852885 0.4844376 0.47446045 0.5093257
-0.64085025 -0.59434205 -0.37996742 0.7339293 -0.61896896 0.611895 0.45678464 0.7050699
-0.52344716 -0.52109146 0.6988497 0.59307295 -0.68075204 -0.37494013 -0.6585285 -0.47676662
0.58074933 -0.5315787 0.71456563 -0.466884 0.5722674 0.5783477 -0.45033425 -0.46891806
-0.5358207 0.5504776 -0.6926863 0.5330848 -0.49826872 0.7515196 0.6628264 0.5694745
-0.41108733 -0.59567195 -0.69492847 0.5058992 -0.4198793 0.74716485 0.4627082 0.39829838
-0.6746208 -0.5839982 0.5777274 0.60422575 -0.6994761 -0.57989514 -0.7067541 -0.54389256
0.5398837 -0.5367181 0.49776307 -0.5079204 0.47656032 0.717665 -0.29733917 -0.46523425
-0.57740295 0.60030067 -0.47912905 0.6727267 -0.5645525 0.56736416 0.63258725 0.49420756
-0.6236991 -0.42871284 -0.56292075 0.4227994 -0.74450207 0.42910132 0.33006483 0.41480303
-0.48690742 -0.5301191 0.58795476 0.44439828 -0.51169467 -0.5577225 -0.6417912 -0.58162564
0.6314898 -0.3794189 0.76403755 -0.4113079 0.5854698 0.6448313 -0.4655162 -0.49840608
-0.61195207 0.692093 -0.5992795 0.6182831 -0.5041869 0.46831965 0.56197804 0.57917476
-0.72185254 -0.5678099 -0.62978005 0.58252144 -0.6891386 0.55699646 0.22316751 0.6332053
-0.66416395 -0.44962516 0.7058105 0.546134 -0.6108311 -0.64414203 -0.75808007 -0.55703604

l1.rho_weight f4 [16, 32]
00000000: 500b 39c0 ccab 36c0 9b2e 49c0 46dc 3ac0
00000010: ebbe 41c0 2162 3fc0 18f5 3cc0 7f5a 35c0
00000020: 5e4a 3bc0 4e1b 3dc0 574f 39c0 47a5 51c0
00000030: 8e22 35c0 eea5 3cc0 497f 3ac0 15e1 3ac0
00000040: 7d43 3fc0 63ae 46c0 7948 44c0 bd08 3dc0
00000050: 22be 3ac0 36bd 3cc0 ae05 36c0 7447 35c0
00000060: b5ae 3dc0 02cb 42c0 081f 37c0 7d73 39c0
00000070: d048 3ec0 b733 40c0 0e03 4bc0 8f21 42c0
00000080: 12c4 36c0 3677 41c0 d674 35c0 5b44 3ac0
00000090: c99e 37c0 8032 41c0 a583 3ac0 7eed 3cc0
000000a0: f251 3dc0 00b0 38c0 ee63 39c0 7386 3cc0
000000b0: 7eb2 3bc0 55ce 42c0 8b9a 35c0 535f 2ec0
000000c0: 22b5 3ec0 7e32 37c0 41f6 40c0 dd7c 42c0
000000d0: 9e2b 48c0 754a 3fc0 c4bb 35c0 822e 4ac0
000000e0: d4b0 4ec0 be7c 3ec0 2826 41c0 5f9c 38c0
000000f0: 4e71 42c0 cc1a 44c0 376d 40c0 216c 45c0
00000100: dae1 47c0 c3ca 2fc0 70ad 4bc0 3727 3fc0
00000110: 755a 40c0 ec18 3ec0 dbd4 4bc0 dbcc 3ec0
00000120: aaa1 3cc0 7e10 44c0 5d92 36c0 d894 37c0
00000130: 9411 3cc0 0a60 43c0 d04e 44c0 b431 32c0
00000140: 8f9b 46c0 df82 3bc0 b653 36c0 5b80 38c0
00000150: 68e9 39c0 adc0 45c0 7fe8 3ac0 ee1c 42c0
00000160: a6e9 30c0 3efc 48c0 1f76 3ec0 2d38 45c0
00000170: 5199 3bc0 767c 39c0 9015 45c0 f882 3dc0
00000180: 29ef 39c0 f7dc 44c0 3ce2 45c0 530c 3cc0
00000190: 35a0 3bc0 6ed4 3bc0 3980 3ec0 631f 3bc0
000001a0: 9f70 37c0 5cb8 38c0 e85e 38c0 914e 4cc0
000001b0: a685 3bc0 c440 48c0 d477 3fc0 a8c4 40c0
000001c0: b264 34c0 951a 38c0 4a17 48c0 7b0e 30c0
000001d0: 7ca0 3ac0 b68e 39c0 0314 4dc0 17bb 42c0
000001e0: d8bd 44c0 891d 43c0 9a37 49c0 301e 31c0
000001f0: d0de 3fc0 ae5a 41c0 bd3f 50c0 ce86 44c0
00000200: 6fa6 3dc0 4b91 4bc0 3d0b 3ac0 ede8 3dc0
00000210: eb9f 4ec0 bb7b 41c0 b5af 3bc0 cd32 29c0
00000220: b609 3ac0 0ec5 35c0 b080 3dc0 573d 41c0
00000230: 7b24 38c0 dc0b 3bc0 1c55 3cc0 e95e 42c0
00000240: 47f1 50c0 3d73 36c0 7627 43c0 3a8a 42c0
00000250: b208 40c0 f93e 38c0 7bb3 4cc0 d778 37c0
00000260: a820 36c0 37f5 32c0 bdd8 41c0 ce7f 3fc0
00000270: 100f 33c0 6f17 44c0 b62d 3ac0 69aa 2cc0
00000280: ddce 3ec0 1545 3bc0 ef7c 41c0 adfd 3bc0
00000290: 6a70 40c0 8cdb 2fc0 c623 3ac0 63bc 3bc0
000002a0: e4c7 3fc0 22fa 43c0 4df1 3dc0 7e8c 46c0
000002b0: c263 3fc0 9346 35c0 2035 3ac0 8ae5 39c0
000002c0: 29e9 39c0 b5c0 2dc0 3717 47c0 3901 4cc0
000002d0: b37f 47c0 4072 4bc0 8eb6 45c0 7b33 3ac0
000002e0: 36e2 2dc0 3bed 3ec0 b1eb 50c0 a304 3fc0
000002f0: d281 33c0 d6ad 41c0 cd61 39c0 b282 33c0
00000300: a26a 47c0 b7d9 4ac0 4564 3fc0 ac56 45c0
00000310: 3a88 52c0 c8d5 3fc0 14f3 47c0 6415 3ec0
00000320: 8d72 3dc0 adb5 3dc0 1a89 43c0 e360 3fc0
00000330: 5da3 3bc0 ecf7 3ac0 e548 44c0 8618 3ec0
00000340: 5150 3bc0 753d 41c0 74e6 3ac0 5857 38c0
00000350: 064c 48c0 fb1d 37c0 a7fb 40c0 d30a 42c0
00000360: cf84 47c0 23e4 38c0 6efa 3dc0 cffc 36c0
00000370: 66b6 3ac0 38a8 44c0 101d 3cc0 4fdf 46c0
00000380: 689f 49c0 a01d 3dc0 677f 3dc0 be3d 40c0
00000390: be7c 42c0 bb07 43c0 2722 3ac0 c183 41c0
000003a0: b676 40c0 584d 32c0 4a8e 38c0 cfbb 47c0
000003b0: 9bad 42c0 4a7a 3fc0 2f84 41c0 8498 47c0
000003c0: d09f 3cc0 5e2e 45c0 303e 3dc0 a0e1 39c0
000003d0: 170f 48c0 0a17 3fc0 e546 39c0 8ca5 44c0
000003e0: 1cad 40c0 20a5 3fc0 7f51 3ec0 2b4a 50c0
000003f0: ad14 2ec0 ee70 39c0 881b 52c0 fe42 3ac0
-2.8913155 -2.8542356 -3.1434696 -2.9196944 -3.0272777 -2.9903643 -2.9524593 -2.8336484
-2.926414 -2.9547915 -2.8954675 -3.2757127 -2.830234 -2.9476275 -2.9140189 -2.919988
-2.9884942 -3.1043937 -3.0669234 -2.9536583 -2.9178548 -2.9490485 -2.8440967 -2.8324862
-2.9637883 -3.0436406 -2.861269 -2.8976738 -2.9731941 -3.0031564 -3.1720614 -3.0332983
-2.8557172 -3.022901 -2.835256 -2.910422 -2.8690665 -3.0187073 -2.914285 -2.9519954
-2.9581265 -2.8857422 -2.8967242 -2.9457061 -2.9327693 -3.0438435 -2.8375576 -2.7245681
-2.9798055 -2.8624568 -3.0150301 -3.038871 -3.1276622 -2.9889195 -2.8395853 -3.1590886
-3.2295427 -2.9763637 -3.0179539 -2.8845441 -3.0381656 -3.0641356 -3.006666 -3.0847247
-3.12316 -2.7467506 -3.1824608 -2.9867685 -3.005521 -2.970271 -3.1848667 -2.9812534
-2.9473672 -3.0635066 -2.8526833 -2.8684597 -2.938573 -3.0527368 -3.0673103 -2.7842836
-3.1032445 -2.9298627 -2.8488593 -2.8828342 -2.904871 -3.089885 -2.9204404 -3.0330157
-2.7642608 -3.1403956 -2.9759595 -3.0815537 -2.9312327 -2.8982215 -3.079441 -2.9611187
-2.9052222 -3.0759866 -3.0919333 -2.9382522 -2.9316533 -2.9348407 -2.976576 -2.9237907
-2.8662488 -2.8862524 -2.8807926 -3.1922953 -2.9300323 -3.128953 -2.9916887 -3.012003
-2.818646 -2.8766224 -3.1264215 -2.7508838 -2.9160452 -2.8993354 -3.2043464 -3.042669
-3.0740871 -3.0486777 -3.1440187 -2.7674675 -2.9979744 -3.0211596 -3.2538903 -3.0707278
-2.9632833 -3.180743 -2.906936 -2.9673417 -3.2285106 -3.023177 -2.9325993 -2.6437256
-2.9068427 -2.8401523 -2.9609795 -3.019369 -2.8772266 -2.9225988 -2.9426947 -3.0370429
-3.2647264 -2.8507836 -3.0492835 -3.0396867 -3.0005307 -2.8788435 -3.1984546 -2.8667505
-2.8457432 -2.7962167 -3.0288537 -2.9921756 -2.7977943 -3.0639303 -2.90904 -2.697901
-2.981376 -2.9260914 -3.0232503 -2.9373581 -3.0068612 -2.747775 -2.9084334 -2.9333732
-2.9965754 -3.062142 -2.9678528 -3.102325 -2.9904637 -2.8324325 -2.9094925 -2.904635
-2.904856 -2.714887 -3.110792 -3.1875746 -3.1171691 -3.1788483 -3.0892673 -2.909392
-2.7169318 -2.9832294 -3.2643855 -2.984658 -2.8047986 -3.026235 -2.8965943 -2.804852
-3.1158834 -3.1695383 -2.990495 -3.083415 -3.2895646 -2.9974232 -3.1242113 -2.9700556
-2.9601166 -2.9642136 -3.055243 -2.9902885 -2.931846 -2.921382 -3.0669491 -2.9702468
-2.9267771 -3.019376 -2.9203157 -2.880331 -3.12964 -2.8612049 -3.0153596 -3.0319107
-3.117481 -2.8889244 -2.96841 -2.8591802 -2.9173827 -3.0727673 -2.9392738 -3.1073797
-3.1503544 -2.9549332 -2.960901 -3.0037684 -3.0388637 -3.0473468 -2.9083345 -3.0236666
-3.0072455 -2.7859707 -2.8836846 -3.120838 -3.041846 -2.991839 -3.0236928 -3.1186838
-2.9472542 -3.080955 -2.9569206 -2.904396 -3.125921 -2.9857812 -2.894952 -3.0726042
-3.0105658 -2.9944534 -2.9737241 -3.2545269 -2.720012 -2.8975177 -3.2829304 -2.9103389

l1.mu_bias f4 [16]
00000000: 6939 eb3e 19c6 0f3f 1dbe 0d3f dc52 273f
00000010: d573 013f 441a dc3e 8afa 1c3f 9893 063f
00000020: b128 063f e269 9b3c 973b 55bd 7e02 b5bb
00000030: 5744 c33e cef0 233f 10d7 1d3f 3d6e e0bc
0.45942238 0.5616165 0.55368215 0.6536081 0.5056737 0.4298879 0.6131979 0.5256896
0.5240584 0.018971387 -0.052058782 -0.0055239787 0.38138077 0.64039314 0.61656284 -0.027396316

l1.rho_bias f4 [16]
00000000: 7b84 27c0 30e2 25c0 afcd 31c0 8605 35c0
00000010: 6349 37c0 1628 39c0 c14c 31c0 7ec1 2fc0
00000020: 193f 31c0 3920 afbf d8bd 20bf 4c7d edbf
00000030: 93b1 2bc0 86cf 2fc0 89cd 34c0 8bc7 60bf
-2.617461 -2.5919304 -2.778179 -2.8284621 -2.8638542 -2.8930717 -2.7703097 -2.7461848
-2.7694762 -1.3681709 -0.6278968 -1.8553863 -2.6827133 -2.7470412 -2.8250449 -0.8780448

l2.mu_weight f4 [1, 16]
00000000: cbe7 1e3f 19e0 3f3f f962 1d3f 3f7c 343f
00000010: 06c6 2c3f 6760 283f 0e2e 453f 2a61 273f
00000020: c082 263f baf1 5abe ea18 febb c6f3 a8be
00000030: e602 3a3f 55d6 223f 8ecb 333f 946d b9bc
0.6207244 0.7495132 0.61479145 0.70502084 0.6748966 0.657721 0.770234 0.65382636
0.6504326 -0.21381274 -0.007754435 -0.32998484 0.7266067 0.63608295 0.70232475 -0.022635259

l2.rho_weight f4 [1, 16]
00000000: 3adf 43c0 8d9b 43c0 1b5c 41c0 76c5 47c0
00000010: 0b97 4ac0 3bfa 3dc0 50c1 44c0 36a7 4ac0
00000020: 7c0a 50c0 0858 04c0 5499 bfbf 7303 17c0
00000030: 1441 3dc0 4c49 3bc0 4703 45c0 b786 8cbf
-3.0604997 -3.056369 -3.0212467 -3.121427 -3.165469 -2.9683979 -3.0742989 -3.1664557
-3.25064 -2.067873 -1.4968667 -2.3595855 -2.957097 -2.9263487 -3.078325 -1.0978612
