BNN/model_states/BNN_model_state_FD001_test.pt (torch, 57845 bytes, 14 tensors)

lstm.ih.mu_weight f4 [128, 14]
000000 cf 34 f5 3d ad 27 0f 3e 13 03 f9 3c 3e fc 43 be
       0.11972963 0.13979979 0.030396974 -0.19139192
000010 2c cd 8b 3d b2 43 78 be bb 2a 0b bc 95 57 1d be
       0.06826243 -0.24244574 -0.008494074 -0.15365441
000020 2b c6 bc bd 60 a9 62 3b 48 55 4c bd f8 60 4e be
       -0.09217485 0.0034585819 -0.049886018 -0.20154178
000030 30 66 4f bd 03 2c ae bd ee 64 9d bc 64 5e 35 bd
       -0.050634563 -0.08504488 -0.019213166 -0.04427947
000040 cc 8c 1b 3e 4a 24 c3 3d 16 62 d7 bd 9b 20 53 be
       0.15190428 0.09528406 -0.10516755 -0.20617907
000050 a6 18 0b be 66 80 80 3e 3d f2 28 bd 08 e4 41 bd
       -0.13583621 0.2509796 -0.04124664 -0.04733661
000060 69 00 96 3d 85 2e 96 3d d9 09 e8 3d 4e a8 92 3e
       0.07324297 0.07333092 0.11330003 0.2864403
000070 8c 4a 5e bd b6 e2 f5 bb d8 7f 9e bd 62 e9 11 3e
       -0.054270312 -0.0075038327 -0.07739228 0.14249185
000080 c6 c4 b5 bd 05 7a c5 bd 39 ac 04 bc 98 fe 78 3e
       -0.08875422 -0.09642414 -0.008097702 0.2431587
000090 3a 0a 52 3d c0 ed a8 bd 3a 48 4a bc 93 90 2e be
       0.051279284 -0.08248472 -0.012346322 -0.17047338
0000a0 c2 25 42 be 2e aa ce 3d b6 47 d6 be c2 3e ea bd
       -0.18959716 0.10091053 -0.41851586 -0.11437751
0000b0 13 56 ce be 18 55 e0 3e ee 4e d9 be 8e de 4f bd
       -0.40300044 0.4381492 -0.4244303 -0.050749354
0000c0 ff 2a af be 5d b6 a2 3c 16 e4 2f be 2d ed 47 3d
       -0.3421249 0.019862348 -0.17176852 0.048810173
0000d0 f8 7f 83 be 31 46 b6 bd 1f 81 3f 3e 7a 4f d7 bb
       -0.2568357 -0.08900107 0.187016 -0.0065707536
0000e0 13 25 af bd 1d 92 eb bd 72 32 8f 3d cd d5 97 3d
       -0.08551993 -0.11502478 0.069920436 0.07413826
0000f0 79 c2 1c 3e af 03 1e 3d c9 e9 4f bd fe 83 3f 3e
       0.1530856 0.03857773 -0.050760064 0.18702695
000100 12 79 70 3e 10 87 a7 bc ff ae 57 3e de 5e e7 3b
       0.23483685 -0.020450145 0.2106285 0.0070608696
000110 46 d9 c3 bd 46 e8 e2 3c 67 f8 76 be aa a3 83 bc
       -0.09562926 0.027698647 -0.24118195 -0.016069252
000120 cd 1f a3 bd 7b ea 44 3e 55 f1 09 3e dd 8b 2f 3e
       -0.0796505 0.19230072 0.13470967 0.17143197
000130 24 21 34 3a 5d 93 02 be 68 36 da bd 82 5b cd 3d
       0.00068713934 -0.12751527 -0.106549084 0.10027219
000140 a3 1f a6 bd 0d 34 39 be da 8a 0d be 4f 0a e2 bd
       -0.08111503 -0.18086262 -0.13822499 -0.110371225
000150 f7 0a 2b bd dc b3 be 3d 51 30 da bd f9 99 a8 3d
       -0.041758504 0.09311649 -0.10653747 0.08232493
000160 8e 6f 80 bc 04 22 8e 3d a7 7a 64 be 18 71 00 3e
       -0.015678193 0.06940082 -0.22312413 0.12543142
000170 05 34 97 be 7f a9 37 3d eb 08 34 3d 64 06 89 bb
       -0.29531875 0.04483938 0.043953817 -0.00418167
000180 fe 18 29 be dd bc 01 3e df 08 2e bd f0 2d 07 b8
       -0.1651344 0.12669702 -0.04248893 -3.222929e-05
000190 d0 e0 41 bc a4 36 bf 3d d0 9f 05 3e 03 ed a9 bd
       -0.011833385 0.09336594 0.13049245 -0.082971595
0001a0 95 c3 b2 bc c0 50 6d 3d 16 70 82 3d b7 bc 81 bd
       -0.021821776 0.057938337 0.06369035 -0.063348226
0001b0 7c d8 95 3a a1 25 01 3e c1 05 75 3d cf 05 b8 bd
       0.0011432315 0.1261201 0.05981994 -0.08985483
0001c0 ef 17 80 be ab 80 b7 bc 90 43 fc bd 9a 4b 54 3d
       -0.2501826 -0.02240022 -0.12317574 0.05182991
0001d0 d0 ff 9e 3d a0 50 40 3d d4 bf 86 bd 21 c5 f1 3c
       0.07763636 0.04695189 -0.06579557 0.029512944
0001e0 33 9e 92 3c 10 cf 0c 3d 2d 22 c7 bc d1 b6 2d 3d
       0.0178977 0.034377158 -0.024308288 0.042410675
0001f0 2b 99 17 3e ba d9 e5 bb 55 19 20 bd 63 2f a3 3d
       0.14804523 -0.0070144804 -0.03908666 0.07968023
000200 9a c3 05 3e df 7e cd 3d dd 3e 0a be 48 67 75 bd
       0.13062897 0.10033964 -0.13500543 -0.05991295
000210 05 f6 6e bb 98 1e e4 3d 70 27 d3 3d 8e 83 6c 3d
       -0.0036462557 0.11138648 0.103102565 0.057742648
000220 6c 40 e6 3d ae 7d 83 3d 1c 51 ea bd 62 31 df ba
       0.11242756 0.06420456 -0.11441252 -0.0017028267
000230 27 44 b9 bc f0 12 c6 bd 54 ef 1e be 5d d2 32 3e
       -0.022615505 -0.09671581 -0.15520984 0.1746306
000240 b7 99 00 be b4 d3 b8 3d c7 b5 ef 3c d7 af c6 3e
       -0.12558638 0.09024754 0.029261483 0.3880603
000250 40 90 c5 bd 4a 8e a7 bb 5b 1d a0 be 44 4e 5e be
       -0.09646654 -0.0051133977 -0.31272396 -0.21709543
000260 7b ac 7f 3d 0b c9 b4 3e bc d1 d2 bd 41 ca 2d 3e
       0.06242035 0.35309634 -0.1029391 0.16971685
000270 69 ce 8c be 52 74 96 bd 14 a8 04 bd 77 55 72 3e
       -0.27501228 -0.07346405 -0.032386854 0.23665415
000280 7e 64 79 be ed 93 9f bd 98 32 20 3e 46 db 56 3d
       -0.24354741 -0.077918865 0.156443 0.05245521
000290 2e b5 8a 39 c3 1a 96 3c 6e 47 95 3d 93 93 24 be
       0.000264564 0.018323308 0.07289015 -0.1607192
0002a0 c0 40 ce be a1 0b c3 3c 4e 44 68 bc 5f 51 f8 3d
       -0.40283775 0.023809256 -0.014176441 0.12124895
0002b0 ec a1 6f be 91 8c 84 bd bd 27 94 bc 74 ef 6d 3e
       -0.23401612 -0.064721234 -0.018085355 0.23235875
0002c0 88 dd 20 bd 18 66 10 be a7 e7 33 be 58 f6 33 be
       -0.03927377 -0.14101446 -0.17568837 -0.17574441
0002d0 25 ca 8f 3d 31 35 13 be 7e e9 0b be cb 6a 26 bd
       0.07020978 -0.1437576 -0.13663289 -0.04062919
0002e0 79 1e 01 bd b5 06 5a be 0a b9 c7 bd 7a 2a ce 3c
       -0.0315232 -0.21291621 -0.0975209 0.025166739
0002f0 f3 54 07 3e 0a 92 11 be 58 08 21 3e b6 7e 0f 3d
       0.13216 -0.14215866 0.15725839 0.03503295
000300 5c c3 46 3e 8d 32 8f bd 4e 53 01 3d 53 b1 fd bd
       0.19410461 -0.06992064 0.031573586 -0.123873375
000310 2f 61 34 be d7 c8 18 be a1 46 03 bc 34 fc 7c 3e
       -0.17615198 -0.14920364 -0.008012445 0.24705583
000320 07 2e 2d 3d 18 c5 23 3e 27 a2 19 be 27 a1 0b 3d
       0.042280223 0.15993154 -0.15003262 0.034089234
000330 3b e4 72 bc 62 d8 97 3d 2a fa ab bc 18 49 9f bd
       -0.014824922 0.074143186 -0.020993311 -0.077776134
000340 3e 4d 3d bd 82 73 4f 3d a5 75 d8 bd dc 4e f7 bd
       -0.046216242 0.050647266 -0.10569314 -0.12075588
000350 82 45 e8 3c fa 90 9c 3d 1c 09 19 3e 9b 55 65 be
       0.028353456 0.076448396 0.14944881 -0.22395937
000360 29 64 7a bc 75 48 0c 3e 69 c5 0e bd 42 8c 36 3e
       -0.015282669 0.13699515 -0.034856234 0.17826942
000370 6c 23 52 bd 61 d0 f5 bd a5 5e 15 3c 86 85 30 3e
       -0.051303312 -0.12002636 0.009116803 0.17238435
000380 fb 29 20 be 5e d3 20 3e a1 74 89 bd 41 af a7 bd
       -0.15641014 0.1570563 -0.06711698 -0.08187724
000390 e5 f0 c1 bd 32 08 28 3e 3b ad 45 bd 61 52 5b 3e
       -0.09469775 0.16409376 -0.04826091 0.21418144
0003a0 b8 fc fd 3c b3 a1 23 3d fc 5d 8d be c9 b6 0e be
       0.031004295 0.03994913 -0.27610767 -0.13936915
0003b0 ce 08 c3 3d d9 80 6e b8 0c 53 f9 bc 53 b0 bb 3d
       0.09523164 -5.686362e-05 -0.030435108 0.091644906
0003c0 62 25 f9 bd 6a f0 0f 3d ad 06 43 3d 9b 18 b0 3c
       -0.12165333 0.035141386 0.04761379 0.021496108
0003d0 cf 56 2c bd 84 92 5f bc 9d 04 ae 3c fe 02 ea 3d
       -0.042074975 -0.013645772 0.021242434 0.11426352
0003e0 43 3c ec 3d 1d 0c 97 bd 84 5c 0e 3d b6 b1 f7 bc
       0.115349315 -0.07375357 0.0347562 -0.030236106
0003f0 73 7f a9 bc 8c 02 61 3c 7a 19 ce 3b 86 32 ba 3c
       -0.020690655 0.013733517 0.006289658 0.02272917

lstm.ih.rho_weight f4 [128, 14]
000000 5d 9a 3b c0 f9 0f 2f c0 64 f2 37 c0 32 59 43 c0
       -2.9312966 -2.73535 -2.8741693 -3.052319
000010 83 3f 40 c0 55 d7 3e c0 ba 01 3c c0 49 e7 3a c0
       -3.0038764 -2.9818928 -2.9376054 -2.9203665
000020 c6 b3 42 c0 d1 88 36 c0 68 e0 3d c0 05 64 38 c0
       -3.0422225 -2.8521006 -2.9668217 -2.8811047
000030 a1 22 40 c0 e3 4f 36 c0 c6 75 2d c0 c9 a8 3d c0
       -3.0021136 -2.848626 -2.7103133 -2.9634268
000040 b3 be 3b c0 3d af 36 c0 6c 39 39 c0 8e 3f 31 c0
       -2.9335144 -2.8544457 -2.8941298 -2.769504
000050 a8 ea 39 c0 09 da 31 c0 eb 9e 39 c0 2a 60 41 c0
       -2.9049473 -2.7789328 -2.9003246 -3.0214944
000060 0c 86 28 c0 df 0b 33 c0 15 01 30 c0 97 d6 3c c0
       -2.6331816 -2.7975996 -2.750066 -2.9505975
000070 08 1d 38 c0 56 1a 46 c0 43 5a 3e c0 56 a9 40 c0
       -2.876772 -3.0953574 -2.9742591 -3.0103354
000080 ec 88 41 c0 d9 6d 3a c0 c5 40 32 c0 e5 17 3b c0
       -3.023982 -2.9129546 -2.7852032 -2.9233334
000090 2b 59 42 c0 59 5e 3f c0 7b 5b 37 c0 d5 e6 3f c0
       -3.0366924 -2.9901335 -2.8649585 -2.9984639
0000a0 61 b9 33 c0 be 2c 36 c0 2e 33 48 c0 06 75 37 c0
       -2.8081896 -2.8464808 -3.1281238 -2.8665175
0000b0 cd b9 38 c0 46 79 49 c0 10 7f 40 c0 08 2b 32 c0
       -2.8863404 -3.148027 -3.0077553 -2.7838764
0000c0 93 96 32 c0 a9 d9 30 c0 74 56 3c c0 6d 98 38 c0
       -2.7904403 -2.763285 -2.9427767 -2.8843033
0000d0 63 57 33 c0 6f 26 2f c0 54 3d 44 c0 d4 2c 35 c0
       -2.8022087 -2.7367208 -3.0662432 -2.830861
0000e0 1c b8 45 c0 58 2c 2f c0 13 2c 49 c0 2b 94 32 c0
       -3.0893621 -2.7370815 -3.143315 -2.7902935
0000f0 67 dd 38 c0 ce 18 49 c0 d3 18 45 c0 b7 72 41 c0
       -2.8885133 -3.142139 -3.0796402 -3.0226266
000100 ef ff 3d c0 f9 f7 38 c0 35 84 3a c0 a2 39 43 c0
       -2.968746 -2.890135 -2.9143193 -3.0503926
000110 9f 84 32 c0 1f 29 3a c0 a5 66 34 c0 1b 23 2d c0
       -2.7893445 -2.9087598 -2.818765 -2.7052677
000120 f7 f1 3b c0 40 73 37 c0 92 ab 35 c0 82 f7 3b c0
       -2.9366434 -2.8664093 -2.8385968 -2.9369817
000130 3f e1 3e c0 ef 2b 40 c0 b9 8c 41 c0 b9 36 47 c0
       -2.982498 -3.0026815 -3.024214 -3.112715
000140 68 24 36 c0 40 d2 3e c0 f3 9d 37 c0 d5 a2 40 c0
       -2.845972 -2.9815826 -2.8690155 -3.0099385
000150 65 2d 39 c0 61 0e 3f c0 f6 4b 41 c0 a3 b8 48 c0
       -2.8933957 -2.9852526 -3.0202613 -3.1362693
000160 43 a7 2f c0 18 b9 35 c0 9f 1a 36 c0 ef 4d 47 c0
       -2.7445838 -2.8394222 -2.8453748 -3.1141317
000170 60 dd 42 c0 f7 50 3a c0 05 03 33 c0 61 f1 31 c0
       -3.0447617 -2.9111917 -2.7970593 -2.7803576
000180 79 04 43 c0 44 10 39 c0 70 b0 31 c0 6e 6a 30 c0
       -3.047148 -2.8916178 -2.776394 -2.756496
000190 33 c7 37 c0 13 f9 35 c0 f6 c1 3b c0 f6 3f 3f c0
       -2.8715332 -2.8433273 -2.9337134 -2.9882789
0001a0 10 19 47 c0 c6 29 39 c0 4f c4 3d c0 21 be 31 c0
       -3.1109047 -2.8931746 -2.9651067 -2.7772295
0001b0 b2 c9 3a c0 f2 b1 3b c0 30 64 33 c0 93 05 3c c0
       -2.9185605 -2.932736 -2.80299 -2.9378402
0001c0 71 df 2b c0 87 8b 2b c0 0e c9 33 c0 38 16 46 c0
       -2.6855128 -2.680391 -2.8091464 -3.0951061
0001d0 f2 4b 40 c0 9c 49 3f c0 41 63 36 c0 49 79 3c c0
       -3.0046353 -2.9888678 -2.849808 -2.9449027
0001e0 f8 7c 43 c0 72 f5 3d c0 05 6e 38 c0 bc 3f 46 c0
       -3.0545025 -2.9681058 -2.881715 -3.09764
0001f0 21 3d 3e c0 5d 2d 35 c0 69 16 3e c0 80 12 2c c0
       -2.972481 -2.8308938 -2.9701178 -2.6886292
000200 69 65 32 c0 f7 e1 2e c0 0c 88 33 c0 85 3e 39 c0
       -2.7874396 -2.7325418 -2.8051786 -2.894441
000210 32 83 2f c0 2b b1 3e c0 7e 1b 33 c0 8f d7 38 c0
       -2.7423825 -2.9795635 -2.798553 -2.8881567
000220 b5 48 3c c0 43 9f 38 c0 bb 01 39 c0 a5 ce 34 c0
       -2.9419377 -2.8847206 -2.8907306 -2.8251126
000230 d4 89 2e c0 bb a7 3c c0 30 c1 34 c0 cd a0 34 c0
       -2.7271624 -2.9477375 -2.8242912 -2.8223145
000240 e5 a3 4c c0 c5 cf 3f c0 b0 ba 2f c0 b9 44 34 c0
       -3.1975033 -2.9970562 -2.7457695 -2.8166945
000250 d4 c9 2a c0 5e 16 40 c0 d8 0c 34 c0 12 68 41 c0
       -2.6685686 -3.0013652 -2.813284 -3.021977
000260 3d cc 3e c0 a3 13 3a c0 6f 0a 33 c0 33 fc 32 c0
       -2.9812157 -2.9074485 -2.7975118 -2.796643
000270 fe 8b 3a c0 7e 51 2f c0 5b 48 2f c0 be 8b 40 c0
       -2.9147944 -2.739349 -2.7387912 -3.0085292
000280 0d de 3d c0 80 d2 39 c0 8d 2b 3a c0 c5 2f 42 c0
       -2.966678 -2.903473 -2.9089081 -3.0341656
000290 ea 70 3a c0 7c 23 37 c0 98 f0 32 c0 39 f1 24 c0
       -2.9131417 -2.8615408 -2.7959347 -2.577223
0002a0 21 31 3c c0 23 6a 37 c0 d9 88 3e c0 69 25 39 c0
       -2.9404986 -2.865853 -2.9771025 -2.8929083
0002b0 10 99 39 c0 3d a2 39 c0 eb 57 2c c0 a4 d4 40 c0
       -2.8999672 -2.9005272 -2.692866 -3.0129786
0002c0 7b 84 35 c0 6a 8c 46 c0 62 96 42 c0 11 f5 32 c0
       -2.836211 -3.1023202 -3.0404286 -2.7962077
0002d0 1a 53 3f c0 58 da 34 c0 19 20 3c c0 6d b7 3b c0
       -2.989447 -2.8258266 -2.939459 -2.9330704
0002e0 a4 83 37 c0 20 97 3b c0 49 01 44 c0 6c ae 3f c0
       -2.8674097 -2.931099 -3.0625784 -2.9950209
0002f0 3f fa 40 c0 5d 52 39 c0 84 ed 46 c0 6d 04 3f c0
       -3.0152738 -2.895652 -3.1082468 -2.9846451
000300 7c 6a 36 c0 a0 5f 3b c0 9a 30 3a c0 78 f5 39 c0
       -2.8502493 -2.9277115 -2.9092164 -2.9056072
000310 6d 87 45 c0 91 fc 33 c0 c6 b3 3a c0 2c 01 49 c0
       -3.0863907 -2.8122904 -2.9172225 -3.1406965
000320 9b af 48 c0 e0 80 33 c0 cd 4a 43 c0 6d 9d 35 c0
       -3.135718 -2.804741 -3.0514405 -2.8377335
000330 52 c0 39 c0 38 1f 44 c0 c7 d5 34 c0 f9 9a 35 c0
       -2.9023633 -3.0644054 -2.825548 -2.8375838
000340 74 49 41 c0 b8 49 40 c0 f1 69 39 c0 66 3c 3b c0
       -3.0201082 -3.0044994 -2.8970912 -2.9255614
000350 4d 78 3c c0 96 03 37 c0 f1 65 40 c0 10 c1 39 c0
       -2.9448426 -2.8595939 -3.006222 -2.9024086
000360 36 95 37 c0 55 73 36 c0 af 43 42 c0 f3 c2 3c c0
       -2.868482 -2.8507893 -3.035381 -2.9493988
000370 ec 78 32 c0 9d fc 34 c0 0d 78 3c c0 99 4c 38 c0
       -2.7886305 -2.8279183 -2.9448273 -2.8796751
000380 7d 5a 41 c0 7d fd 43 c0 47 15 34 c0 87 18 3c c0
       -3.021148 -3.0623467 -2.8137987 -2.938997
000390 d8 bb 40 c0 27 df 3f c0 21 b3 31 c0 fc 04 3d c0
       -3.011465 -2.9979951 -2.7765582 -2.9534292
0003a0 85 ca 40 c0 c4 f5 36 c0 13 22 35 c0 ac 4a 2f c0
       -3.0123608 -2.8587503 -2.8302047 -2.7389326
0003b0 f3 15 41 c0 8f 46 3d c0 e8 43 45 c0 b4 3d 41 c0
       -3.0169647 -2.9574316 -3.0822697 -3.019391
0003c0 17 af 3c c0 53 36 30 c0 b2 c3 3a c0 8a 81 36 c0
       -2.9481866 -2.7533157 -2.9181943 -2.8516564
0003d0 22 2b 39 c0 8e 92 37 c0 ed 73 3a c0 bf 5b 2a c0
       -2.8932576 -2.86832 -2.9133255 -2.6618497
0003e0 74 67 3d c0 11 40 36 c0 3f 63 36 c0 a6 e0 35 c0
       -2.9594393 -2.8476603 -2.8498075 -2.8418365
0003f0 37 48 48 c0 e7 4d 3f c0 e3 db 3e c0 4c cc 3d c0
       -3.1294076 -2.9891298 -2.9821708 -2.9655943

lstm.ih.mu_bias f4 [128]
000000 c9 16 8b 3d e9 97 bb 3d c6 c6 8f 3d e9 64 5e bd
       0.06791455 0.09159834 0.07020335 -0.054295454
000010 b2 05 89 3d 03 da ef 3d f8 95 83 3d df 58 08 3e
       0.066905394 0.11711504 0.06425089 0.13315152
000020 34 07 b8 3d be f0 b4 3c 77 76 32 bc b7 85 1a 3e
       0.08985749 0.022087451 -0.010892502 0.1509007
000030 18 31 56 3e e8 cd 84 3d a7 36 3b 3e 03 f8 bd 3d
       0.20917165 0.06484586 0.18282567 0.0927582
000040 13 12 79 be 20 57 fe 3d ee 91 cc 3c 99 da 10 3e
       -0.24323301 0.124189615 0.024971928 0.14145888
000050 f5 75 87 3d a1 8b 53 3d 75 a7 e4 bd f3 ab 4d 3d
       0.066142954 0.051646832 -0.111647524 0.05021281
000060 b6 92 90 bc c7 e4 46 3d c4 90 7b 3e c7 34 2a 3e
       -0.017648082 0.048558023 0.24566942 0.16621695
000070 c8 1c 4f 3e 29 b9 ff 3b 63 e8 68 3e 62 c3 36 be
       0.20225823 0.007804055 0.22744898 -0.1784797
000080 74 21 3d 3e 68 28 46 bd 6a 6f c8 3d 0e 57 c0 3d
       0.18469793 -0.04837838 0.097868755 0.09391604
000090 24 70 27 3d 74 cf 35 3e f8 d8 08 3e a2 40 83 3e
       0.04087843 0.17754918 0.13364017 0.25635248
0000a0 14 62 d4 bb e1 ae 27 3e a2 76 f9 3d f9 39 81 3e
       -0.0064814184 0.16375305 0.121808305 0.25239542
0000b0 58 81 ce 3c 1f e2 3f bd ef ab be bd fd b5 13 3e
       0.02520816 -0.046846505 -0.093101375 0.14424892
0000c0 a9 6f d1 3d a1 37 9f 3d 82 31 86 3e d8 30 cd 39
       0.102263756 0.07774282 0.26209646 0.00039137038
0000d0 f6 9e 95 bd ad 76 ef bb d7 f0 88 bc d2 e7 03 3e
       -0.0730571 -0.0073078484 -0.016716404 0.12881401
0000e0 2b ef f5 bd 0d bc 45 bd 0f ea a5 3d 77 51 3a 3e
       -0.12008508 -0.048275042 0.08101284 0.18195139
0000f0 81 5b fc 3d c0 0e 0e be 2f 41 a5 3e 77 b3 20 be
       0.123221405 -0.13872814 0.32276294 -0.1569346
000100 0c 88 68 bd 9e 34 29 3e da 3c 94 3e 62 7f cc bd
       -0.05677037 0.16523978 0.28952676 -0.09985234
000110 91 0e 83 3e fc 90 40 3d 90 07 50 3e cf 30 6a be
       0.2559705 0.047013268 0.20315385 -0.22870182
000120 bc 9d e8 3d 60 7d 30 3e 8b 63 10 3e e7 ff 04 3e
       0.113582104 0.17235327 0.14100473 0.12988244
000130 eb 8f 24 be 3c 60 3f 3e e9 e4 62 3e 9a d4 00 3e
       -0.16070525 0.18689054 0.22157635 0.12581101
000140 02 b1 99 3b c3 c6 fe bd 39 71 51 be 52 98 25 bd
       0.0046902904 -0.124402545 -0.20453347 -0.040428467
000150 10 91 92 be a5 a4 40 3d 04 a7 f6 3d 08 06 78 bd
       -0.286263 0.047032017 0.120435745 -0.060552627
000160 88 42 ca bd 59 4f 4f 3d 50 a9 a0 bd 33 1f 32 3e
       -0.09875971 0.05061278 -0.07844794 0.17394714
000170 a3 da e3 bd eb b9 4f 3e 8f 9c 6a bd b4 6d 2f 3c
       -0.11125686 0.20285766 -0.057278212 0.010707308
000180 4f bf 03 3e ce a9 e2 3d da b3 9d 3d 8d a7 aa bc
       0.12865947 0.11067544 0.077003196 -0.020831848
000190 3e 64 a2 3e 7f c6 02 3f cd e5 55 3d 0b 1e c4 3e
       0.31717104 0.5108413 0.05222111 0.3830417
0001a0 9c 4a 4d 3e 54 8d 95 3e ae b9 0c 3e 50 c3 87 3d
       0.20047992 0.29209387 0.13742706 0.0662905
0001b0 71 3a 93 3e 77 3a 1d 3e 6a cc a4 3d 5b f5 73 3e
       0.28755525 0.15354334 0.080468014 0.23824064
0001c0 ac 7a 69 3e 21 3f 40 3e 32 6e f3 3d 53 3a 62 3e
       0.22800702 0.18774082 0.118862525 0.22092561
0001d0 76 eb 02 3e 22 8f 70 3d 7e 21 22 bc 63 81 ac 3e
       0.12785134 0.058730252 -0.0098956805 0.33692464
0001e0 a4 a6 79 3e af 6b 8b 3e 2a b6 24 3e 10 71 d7 3d
       0.24379975 0.27230594 0.16085115 0.10519612
0001f0 bc ae 93 3e e7 6a cd 3e de 59 09 3d 0a e3 c8 3c
       0.2884425 0.40120623 0.03353297 0.024522323

lstm.ih.rho_bias f4 [128]
000000 fe 72 2d c0 4c dd 1f c0 82 79 1b c0 e5 fa 27 c0
       -2.7101436 -2.497882 -2.4292912 -2.6246884
000010 a0 30 37 c0 48 1b 25 c0 32 54 3b c0 0b e2 29 c0
       -2.8623428 -2.57979 -2.9270139 -2.6544216
000020 ef ec 31 c0 6e 84 19 c0 02 0e 32 c0 1c 10 2e c0
       -2.7800863 -2.3987079 -2.782105 -2.7197332
000030 a1 82 29 c0 5f da 28 c0 ce ef 2d c0 f6 e9 3a c0
       -2.648598 -2.6383283 -2.7177615 -2.9205298
000040 12 56 37 c0 66 f8 2b c0 a0 f8 28 c0 07 47 28 c0
       -2.8646283 -2.687036 -2.6401749 -2.6293352
000050 bc 0d 28 c0 99 9f 26 c0 06 cb 2f c0 8f ae 28 c0
       -2.6258383 -2.603491 -2.7467666 -2.6356542
000060 18 55 33 c0 fc 4c 28 c0 79 57 32 c0 3a b1 35 c0
       -2.8020687 -2.6296988 -2.786589 -2.838942
000070 20 cb 25 c0 fe a5 2f c0 ab 3b 32 c0 f2 19 30 c0
       -2.5905228 -2.7445064 -2.7848918 -2.7515836
000080 f6 4a 14 c0 90 2c 35 c0 36 18 26 c0 9e 23 3c c0
       -2.3170753 -2.8308449 -2.5952277 -2.939674
000090 89 64 2b c0 f2 3a 33 c0 46 39 3d c0 29 b1 26 c0
       -2.6780112 -2.8004727 -2.9566207 -2.604563
0000a0 9b fa 28 c0 3e 9d 14 c0 c7 7e 31 c0 f2 eb 1e c0
       -2.6402957 -2.3220973 -2.7733629 -2.483151
0000b0 37 bd 2a c0 13 8f 1d c0 a2 10 42 c0 c5 d6 36 c0
       -2.6677988 -2.4618576 -3.0322652 -2.8568585
0000c0 75 f4 33 c0 64 05 1c c0 1c 07 2a c0 f8 2c 2b c0
       -2.8117955 -2.437829 -2.656684 -2.6746197
0000d0 60 32 1c c0 e4 79 33 c0 ef 70 25 c0 b3 1b 33 c0
       -2.4405746 -2.8043146 -2.585018 -2.7985656
0000e0 2d a3 37 c0 cc 91 37 c0 9d b4 2a c0 aa c2 2c c0
       -2.8693345 -2.8682737 -2.6672738 -2.6993814
0000f0 76 71 2c c0 46 dd 43 c0 31 80 1a c0 21 4a 3a c0
       -2.694425 -3.0603805 -2.4140742 -2.9107745
000100 9c 25 2e c0 3e 2c 41 c0 f4 30 32 c0 b0 86 41 c0
       -2.7210455 -3.0183253 -2.7842379 -3.0238457
000110 8f 85 38 c0 a2 67 2a c0 63 4c 42 c0 73 cf 39 c0
       -2.8831518 -2.6625752 -3.0359123 -2.9032867
000120 02 7e 4f c0 bd ae 2d c0 52 f6 2d c0 e2 d2 33 c0
       -3.242066 -2.7137902 -2.7181592 -2.8097463
000130 65 58 3b c0 00 58 34 c0 61 4e 40 c0 b1 9c 42 c0
       -2.9272702 -2.817871 -3.0047839 -3.0408137
000140 fe c5 39 c0 24 e1 36 c0 8f 84 3f c0 c4 93 44 c0
       -2.9027095 -2.8574915 -2.9924657 -3.071519
000150 97 ad 2b c0 01 6b 37 c0 d6 50 36 c0 11 50 31 c0
       -2.68247 -2.865906 -2.8486838 -2.7705119
000160 2e 68 49 c0 01 05 33 c0 6d 4c 39 c0 b5 33 3d c0
       -3.1469836 -2.7971804 -2.8952897 -2.956281
000170 84 ff 4d c0 44 f8 3c c0 43 76 3a c0 28 5f 34 c0
       -3.2187204 -2.952653 -2.9134681 -2.8183079
000180 f9 6c 38 c0 91 7e 36 c0 0e 98 28 c0 fb 9d 37 c0
       -2.8816512 -2.851475 -2.6342807 -2.8690174
000190 63 12 29 c0 d8 40 34 c0 43 08 32 c0 fb 50 34 c0
       -2.6417472 -2.8164577 -2.7817543 -2.8174427
0001a0 bb 4a 3e c0 bb d3 34 c0 27 59 1c c0 42 40 37 c0
       -2.9733112 -2.825423 -2.4429414 -2.863297
0001b0 c4 a7 22 c0 46 87 35 c0 a6 5a 29 c0 1e 89 2c c0
       -2.5414896 -2.8363814 -2.6461577 -2.695869
0001c0 0f 5b 33 c0 2c f9 3f c0 c8 24 35 c0 65 69 39 c0
       -2.8024328 -2.9995832 -2.83037 -2.8970578
0001d0 89 a4 3a c0 5d 7b 29 c0 26 5e 37 c0 d1 7c 33 c0
       -2.9162924 -2.6481545 -2.8651214 -2.8044932
0001e0 e8 4b 1b c0 b5 bf 38 c0 43 9b 2d c0 c6 24 35 c0
       -2.426508 -2.8867009 -2.7126014 -2.8303695
0001f0 b8 79 1b c0 34 61 47 c0 19 9d 41 c0 28 10 30 c0
       -2.4293041 -3.1153078 -3.0252135 -2.750986

lstm.hh.mu_weight f4 [128, 32]
000000 b6 a0 ba 3d b7 7f 7e bd a7 55 39 3e 94 d7 08 3d
       0.091126844 -0.062133517 0.1809908 0.033408716
000010 6a 02 b1 bc 6c f3 fe 3d d6 78 13 3e 3e 13 40 be
       -0.021607596 0.12448773 0.14401564 -0.1875734
000020 e8 ec 04 3e 44 c8 80 3e d3 e9 8a bd 3f 28 7c 3d
       0.12980998 0.2515279 -0.0678288 0.06156182
000030 15 8d 1d be e5 03 80 bd f4 aa 4e 3e 24 33 79 3d
       -0.1538585 -0.06250743 0.20182401 0.060839787
000040 fd d2 4e be 2e c3 27 be bf a4 7e be 81 69 49 bd
       -0.20197673 -0.16383049 -0.24867533 -0.049172882
000050 c3 69 27 bd 83 65 73 bd a7 09 7f 3e 1c 79 c7 3c
       -0.040872347 -0.05942298 0.24906026 0.024349742
000060 3a 18 c3 bd b4 3e 00 be b8 9f e0 3d 42 0c 54 3d
       -0.09526105 -0.1252392 0.10967964 0.051769502
000070 85 2b 99 3c 4b 18 df bc f2 ff 18 bd f5 ed 17 3e
       0.01869751 -0.027233263 -0.037353463 0.14836867
000080 17 9c 7f 3e 64 70 09 3e c7 ca e6 3d 45 f2 a0 bc
       0.24961887 0.1342178 0.112691455 -0.019646773
000090 fd a7 a0 3e 5c d7 8c 3d 09 57 94 3e ef 8f 41 be
       0.31378165 0.06877014 0.28972653 -0.18902563
0000a0 6d f9 4f 3e b6 27 62 3e 5d c0 79 3e 1c 7e 2b 3e
       0.20309992 0.22085461 0.24389787 0.16747326
0000b0 0d 57 74 be 1c 15 be 3e 37 10 62 3e a8 0d 18 3e
       -0.23861332 0.3712548 0.22076498 0.1484896
0000c0 c3 1d 0b 3e 4b 72 4f be 78 00 bc bd 6e 61 b7 bc
       0.13585572 -0.20258443 -0.09179777 -0.022385325
0000d0 b7 0e 91 be 36 2f 8f 3e d7 60 78 3d 7e de f0 bd
       -0.2833154 0.27965707 0.06063923 -0.11761187
0000e0 a5 95 48 be 3b c5 24 be c6 77 2b 3e d8 61 64 3e
       -0.19588335 -0.16090862 0.16744909 0.2230295
0000f0 04 c8 82 be 3f ae f8 3c 4e 53 34 be 8d e7 39 be
       -0.25543225 0.030356525 -0.17609903 -0.18154736
000100 0a 2e b1 3d 87 3e ee bd 2b 1d 40 3e 8c 7b 51 bd
       0.086513594 -0.1163302 0.18761127 -0.051143214
000110 42 48 46 3e 5a 13 b9 3d e3 02 a2 3e df 0f 88 be
       0.19363502 0.09036894 0.31642827 -0.2657461
000120 af 4d 2c 3e 8d ca 27 3e f6 c4 b5 3c 28 b4 33 3e
       0.16826509 0.1638586 0.022188645 0.17549193
000130 af 08 58 be 56 02 05 3e 2a ee 81 3e 34 62 ab bc
       -0.21097063 0.12989172 0.25377017 -0.02092085
000140 ac ca 7d be 5a a5 4b be b2 db bb be 81 91 8d 3e
       -0.24784344 -0.19887295 -0.36691052 0.27650073
000150 ef 58 f6 bd 11 b8 06 3e 3d 0d a1 3d ae dd 21 bd
       -0.120286815 0.13156153 0.07863853 -0.03951805
000160 52 1a 30 be 83 5a 2f 3d 77 ce 32 3e 3e 9e 8f 3d
       -0.1719754 0.042810928 0.17461573 0.07012604
000170 c5 f8 77 3e 24 48 8e be d7 1a 5a be 04 bb fa bd
       0.24215992 -0.27789414 -0.21299301 -0.12242702
000180 67 90 37 3e 6f ea 86 be 97 83 8e bd e4 98 12 3d
       0.17926179 -0.26350734 -0.069586925 0.03579034
000190 08 ca cf 3b b4 cd fb bd f6 42 aa 3e 3c 20 96 bd
       0.0063412227 -0.12295094 0.33254212 -0.07330367
0001a0 80 c3 f3 bc b0 12 01 bc 34 13 c7 bc b5 39 1d 3d
       -0.029756308 -0.007877991 -0.024301149 0.03838511
0001b0 a8 e8 07 be 30 fa 91 3e e3 25 01 be f2 1d e5 3d
       -0.13272345 0.2851119 -0.12612109 0.11187352
0001c0 2c ec 9d be c5 a1 b2 3c 43 ee bd be 52 60 05 3e
       -0.30844247 0.021805653 -0.37095842 0.13025025
0001d0 f3 69 c8 bd ec 4f c5 3e bd c5 c3 bc c2 8d 8f be
       -0.09785833 0.38537538 -0.023898 -0.2803784
0001e0 01 ad 8d be b9 89 16 bd 3c e6 ad 3e f3 8e 08 3e
       -0.27671054 -0.036752436 0.33964717 0.13335781
0001f0 52 d1 46 bb 1d d7 7c be e4 60 22 be 60 43 0f be
       -0.0030337167 -0.24691434 -0.15857273 -0.13990545
000200 0f 27 ef 3c ad 13 62 be 0f fd 0b 3d 84 7f dc bd
       0.02919343 -0.22077818 0.034176882 -0.10766509
000210 21 45 e6 3d b0 b5 22 be bb aa 0c bd 53 8d fc bd
       0.11243654 -0.15889621 -0.03434251 -0.12331643
000220 a3 a3 26 bd ea 9a f8 bd c1 84 2e be 51 da 18 be
       -0.0406834 -0.121389225 -0.17042829 -0.14927031
000230 8a 1e d6 bd 74 b7 c2 bd 22 36 e4 bc e2 35 f0 bd
       -0.104550436 -0.09507647 -0.027857844 -0.11729027
000240 57 3a b2 bc 8a 14 1b be 6f a4 dc bd fb 54 32 3e
       -0.021756334 -0.15144554 -0.10773551 0.1741523
000250 72 46 99 bd b8 2e 84 3d cb 9e bf bc 3a d5 1c be
       -0.074841395 0.064542234 -0.023391148 -0.15315714
000260 51 6e 47 be 5a dc cf 3d f9 5b a6 3c 18 22 4c 3d
       -0.19475676 0.101494506 0.020307528 0.0498372
000270 27 41 92 be 4a dc 50 be 3d 40 66 3d 12 32 26 bd
       -0.28565332 -0.20396534 0.056213606 -0.040575095
000280 62 a8 b6 be 5b a2 18 bd c9 cc 20 be 5c c8 1e be
       -0.3567534 -0.03726421 -0.1570312 -0.15506119
000290 7f df 9e 3c 59 20 00 bf ba 24 9a 3e 06 11 84 3c
       0.01939368 -0.5004936 0.30106145 0.016121399
0002a0 ac 60 a6 be 32 46 b4 bd d3 ce ba 3c 8d 25 68 be
       -0.3249563 -0.08802451 0.0228037 -0.22670574
0002b0 9b 48 15 be 14 eb 6f 3d 47 ac 19 be 2d b7 7a bd
       -0.14578478 0.058573797 -0.15007125 -0.061209846
0002c0 ac 12 7e bd e9 04 1a 3d 16 aa b3 bc 05 3b 11 3e
       -0.062029526 0.03760234 -0.02193169 0.1418267
0002d0 ef 98 19 3d cf cb 9a 3d d2 c0 f0 bd de 58 bb be
       0.037499364 0.07558405 -0.117555276 -0.36591238
0002e0 27 a4 5e bd bf d1 70 bd e9 ec d2 3d a0 29 e5 bd
       -0.054355767 -0.05879378 0.10299093 -0.1118958
0002f0 d9 1b 95 be 33 0b f2 be 32 b7 3a 3e 1c a7 dc bd
       -0.2912281 -0.4727417 0.18233946 -0.10774061
000300 81 32 86 be 7a 09 4f be cf 8f 38 be 2b b0 d4 bd
       -0.26210406 -0.20218459 -0.18023609 -0.10385164
000310 0b 5a 34 3c 89 1a ac be 37 4b 77 be 68 00 42 3e
       0.011007796 -0.33613995 -0.24149786 0.18945467
000320 89 54 88 be ef 46 1c be 1f 4d 33 bd f4 57 63 be
       -0.26626995 -0.15261434 -0.04377472 -0.2220152
000330 38 1b 30 be a7 b1 57 be 45 73 8c 3d 2f ca b0 bd
       -0.17197883 -0.21063863 0.068579234 -0.086323135
000340 f2 16 63 be a6 c0 4a 3e 8d b3 e5 bc 42 e2 9c 3d
       -0.22176722 0.19800052 -0.028039718 0.07660343
000350 14 59 b8 3d 21 e5 4d 3e d7 4a c6 bd 51 1d eb bd
       0.09001365 0.20106937 -0.09682243 -0.11480201
000360 cc b9 ad bd 51 08 fb 3d 60 b7 16 3e e4 2e 87 be
       -0.084827036 0.122574456 0.1471839 -0.26402962
000370 28 e5 38 be 33 33 7b be 05 84 6a 3d 11 38 80 be
       -0.18056166 -0.2453125 0.05725481 -0.25042775
000380 df 4b 4c 3e 25 3d 5b 3b a9 d0 f9 3d ca f2 ca bd
       0.19950818 0.0033453193 0.12198002 -0.099095896
000390 79 4f 98 3d 40 cf 3a 3e 2c be c8 3d 05 5c 2d be
       0.07437033 0.18243122 0.098018974 -0.16929634
0003a0 8f 12 a5 3e 64 58 30 3e cd 91 bd bd c3 b9 96 3e
       0.32240722 0.17221218 -0.09256325 0.294386
0003b0 63 96 66 be b3 02 24 3e a6 2b 93 3e 07 98 83 bc
       -0.22518305 0.16016655 0.2874424 -0.016063703
0003c0 0b ec 9d 3c dc e4 30 be 77 9f 42 bd f0 7f 07 3e
       0.019277593 -0.17274803 -0.04751536 0.13232398
0003d0 26 1d 9c be a4 21 0f 3d 18 b0 05 3e d4 47 d1 bc
       -0.30490988 0.03494419 0.13055456 -0.025546946
0003e0 4f 91 d1 3d 13 6e 1c be 0c 94 7a 3d d7 9a 8f 3d
       0.102327935 -0.15276365 0.061176345 0.07011955
0003f0 cc 6f 69 3e 7e 8e 08 bd dc f4 07 bd 0e fb 7d bc
       0.22796553 -0.033339016 -0.0331925 -0.015501751

lstm.hh.rho_weight f4 [128, 32]
000000 9f 11 4c c0 37 05 3a c0 e7 6d 49 c0 cd b2 2f c0
       -3.1885755 -2.9065683 -3.147333 -2.7452881
000010 72 9e 3d c0 15 43 31 c0 0a d0 36 c0 54 69 32 c0
       -2.9627957 -2.7697194 -2.8564477 -2.7876787
000020 09 7e 39 c0 d4 87 3b c0 f7 4b 40 c0 45 aa 3a c0
       -2.8983176 -2.9301653 -3.0046365 -2.9166424
000030 6b f0 39 c0 e4 f6 2f c0 a8 61 3e c0 67 c7 42 c0
       -2.905299 -2.749444 -2.9747105 -3.0434206
000040 67 28 30 c0 9e 35 45 c0 1e e3 32 c0 a4 1c 3f c0
       -2.752466 -3.0813975 -2.7951121 -2.986123
000050 83 33 3e c0 42 47 46 c0 47 5e 34 c0 b3 b8 3c c0
       -2.971894 -3.0980992 -2.8182542 -2.9487731
000060 70 5c 34 c0 d8 f2 3b c0 48 b9 33 c0 4b 5b 48 c0
       -2.818142 -2.936697 -2.8081837 -3.130572
000070 e0 ad 36 c0 30 ca 31 c0 3d 9e 41 c0 88 ca 3e c0
       -2.8543625 -2.7779655 -3.025283 -2.9811115
000080 09 cc 3c c0 ea 11 3c c0 b4 a7 37 c0 a4 37 3f c0
       -2.9499533 -2.9385934 -2.8696108 -2.987771
000090 f7 02 37 c0 75 f6 45 c0 fc 7c 2d c0 1a 3e 2e c0
       -2.859556 -3.0931675 -2.7107534 -2.7225404
0000a0 e3 70 38 c0 71 4a 36 c0 db 85 3b c0 31 21 3b c0
       -2.88189 -2.8482935 -2.930045 -2.9239008
0000b0 6a bd 37 c0 57 2b 44 c0 12 ee 3d c0 8c d3 3e c0
       -2.870936 -3.0651453 -2.9676557 -2.9816618
0000c0 0c 82 3b c0 74 10 36 c0 85 4c 36 c0 59 f6 42 c0
       -2.9298124 -2.8447542 -2.8484204 -3.0462859
0000d0 31 0f 3d c0 09 b6 3f c0 dd 8b 40 c0 78 15 3f c0
       -2.9540522 -2.9954855 -3.0085366 -2.9856853
0000e0 ce fc 33 c0 4e 0f 39 c0 66 97 38 c0 84 3f 3e c0
       -2.812305 -2.8915591 -2.8842406 -2.9726267
0000f0 5d a6 38 c0 b6 69 39 c0 37 b8 3b c0 f8 92 31 c0
       -2.885154 -2.897077 -2.9331186 -2.7745953
000100 92 4b 30 c0 1e 04 32 c0 be 53 3b c0 62 c2 3e c0
       -2.7546124 -2.7815013 -2.9269862 -2.9806142
000110 bd 93 39 c0 fe ef 3a c0 75 5e 35 c0 99 05 39 c0
       -2.8996422 -2.920898 -2.8338902 -2.8909667
000120 aa 28 36 c0 e8 e1 3a c0 a3 de 36 c0 fc 09 46 c0
       -2.846232 -2.9200382 -2.8573387 -3.0943594
000130 c0 41 33 c0 55 e1 33 c0 1a a7 3e c0 c9 8d 34 c0
       -2.800888 -2.8106282 -2.978949 -2.8211539
000140 3b b9 31 c0 1d e4 43 c0 f2 c1 40 c0 45 fb 30 c0
       -2.7769306 -3.060798 -3.0118375 -2.7653363
000150 dc 55 38 c0 69 cd 36 c0 26 4c 3c c0 d1 6e 35 c0
       -2.8802404 -2.8562872 -2.9421477 -2.8348887
000160 ae 43 31 c0 67 8d 3b c0 90 20 37 c0 9c 07 36 c0
       -2.7697558 -2.9305055 -2.8613625 -2.8442144
000170 a6 cf 2b c0 c8 34 3a c0 34 e4 3c c0 3e c7 33 c0
       -2.6845489 -2.9094715 -2.9514284 -2.8090358
000180 4c b3 40 c0 89 72 34 c0 17 aa 41 c0 92 b6 38 c0
       -3.0109434 -2.8194907 -3.0260065 -2.8861432
000190 a1 55 3c c0 97 c3 46 c0 54 05 4b c0 2b df 3d c0
       -2.9427264 -3.1056879 -3.1722002 -2.966746
0001a0 ae dc 33 c0 23 e5 40 c0 f7 cc 43 c0 fc bf 3c c0
       -2.8103442 -3.0139854 -3.059385 -2.9492178
0001b0 c8 a9 3d c0 4c 18 34 c0 ec 92 3d c0 44 f6 3f c0
       -2.9634876 -2.813983 -2.9620924 -2.9994059
0001c0 ae 7d 37 c0 00 2e 32 c0 27 b4 3a c0 3a ba 37 c0
       -2.8670459 -2.7840576 -2.9172456 -2.8707414
0001d0 96 63 3c c0 ed 4a 32 c0 ba 25 46 c0 bd 52 3c c0
       -2.9435782 -2.785823 -3.0960526 -2.94255
0001e0 fe a1 42 c0 6a 21 3c c0 fc 27 3b c0 5a cb 40 c0
       -3.0411372 -2.9395394 -2.9243155 -3.0124116
0001f0 58 de 42 c0 b3 56 3f c0 45 de 3a c0 ea c6 3a c0
       -3.0448208 -2.9896667 -2.9198163 -2.9183908
000200 dc 40 3e c0 c8 52 42 c0 80 7a 42 c0 8a 4d 33 c0
       -2.9727087 -3.0363026 -3.0387268 -2.8016076
000210 d2 de 34 c0 44 e6 31 c0 6e b5 3e c0 80 2d 37 c0
       -2.8260999 -2.7796793 -2.9798236 -2.862152
000220 5b 22 3a c0 4a c7 3a c0 2e e9 34 c0 ca 0c 34 c0
       -2.908347 -2.9184136 -2.8267322 -2.8132806
000230 84 e2 57 c0 45 c2 39 c0 e2 d9 41 c0 9a cc 42 c0
       -3.3732004 -2.9024823 -3.0289235 -3.043738
000240 95 8c 2f c0 b2 3b 42 c0 8e 53 3d c0 50 f8 3a c0
       -2.7429554 -3.0348935 -2.9582248 -2.9214058
000250 ab d3 4b c0 f0 57 46 c0 8d 04 47 c0 68 aa 38 c0
       -3.1847942 -3.0991173 -3.1096528 -2.8854008
000260 c1 35 34 c0 4e ea 37 c0 f7 6b 3e c0 15 e0 37 c0
       -2.8157809 -2.8736758 -2.9753397 -2.873052
000270 5a 04 47 c0 86 26 3a c0 f0 57 3e c0 89 68 3a c0
       -3.1096406 -2.9086013 -2.9741173 -2.9126303
000280 63 97 3c c0 2e 1a 3c c0 c5 ee 3d c0 04 43 44 c0
       -2.94674 -2.939098 -2.9676983 -3.0665903
000290 d9 6b 41 c0 74 07 40 c0 b2 7c 2d c0 25 fc 3d c0
       -3.0222075 -3.000455 -2.7107358 -2.9685147
0002a0 47 ef 4c c0 b4 59 44 c0 67 58 3a c0 28 68 3d c0
       -3.2021043 -3.067975 -2.9116457 -2.9594822
0002b0 74 6d 48 c0 73 2e 30 c0 d4 c3 3b c0 d9 a9 3b c0
       -3.1316805 -2.752835 -2.9338274 -2.9322417
0002c0 32 98 3c c0 c8 42 31 c0 48 df 2e c0 50 48 3c c0
       -2.9467893 -2.769701 -2.732378 -2.9419136
0002d0 51 26 36 c0 0a 35 41 c0 5f 9a 34 c0 7a 2f 3f c0
       -2.8460886 -3.0188622 -2.821922 -2.9872727
0002e0 0a 35 40 c0 a9 60 4d c0 f5 1c 47 c0 c5 0d 3d c0
       -3.0032372 -3.2090247 -3.1111424 -2.9539654
0002f0 95 dc 3f c0 9a 5c 40 c0 b3 c4 4b c0 c6 56 2e c0
       -2.9978383 -3.005652 -3.1838806 -2.7240462
000300 04 c1 3f c0 78 9f 41 c0 55 c1 3f c0 63 ea 49 c0
       -2.9961557 -3.0253582 -2.996175 -3.1549308
000310 49 dc 3c c0 66 ca 30 c0 fd f7 34 c0 81 8f 42 c0
       -2.9509451 -2.7623534 -2.827636 -3.0400088
000320 9a b2 3b c0 33 6e 53 c0 f8 de 42 c0 b1 fe 45 c0
       -2.932776 -3.303601 -3.044859 -3.0936701
000330 c4 f4 3f c0 35 96 41 c0 45 00 31 c0 51 b7 45 c0
       -2.9993143 -3.024793 -2.7656415 -3.0893137
000340 f8 8a 39 c0 49 0f 3b c0 72 dc 3c c0 d6 aa 40 c0
       -2.899107 -2.922808 -2.950955 -3.010427
000350 41 ea 3a c0 f2 3e 3e c0 09 cd 3d c0 cb 58 31 c0
       -2.9205477 -2.9725919 -2.9656394 -2.7710445
000360 9a a2 3a c0 1b e5 45 c0 40 53 44 c0 74 41 40 c0
       -2.9161744 -3.0921085 -3.0675812 -3.003995
000370 5e 79 4b c0 ca df 39 c0 91 e3 4a c0 22 3b 41 c0
       -3.1792827 -2.904284 -3.1701396 -3.0192342
000380 13 84 3c c0 ec 50 43 c0 df 42 47 c0 ec c7 48 c0
       -2.9455612 -3.051814 -3.1134565 -3.1372023
000390 a1 f9 3c c0 01 ca 3d c0 93 e5 32 c0 8a 91 38 c0
       -2.9527361 -2.9654543 -2.795262 -2.883883
0003a0 14 85 38 c0 4a 40 2f c0 93 2f 32 c0 a3 a5 3c c0
       -2.8831224 -2.738299 -2.7841537 -2.9476097
0003b0 52 94 3c c0 49 e8 35 c0 4a 77 37 c0 06 fa 28 c0
       -2.9465528 -2.8423026 -2.8666558 -2.6402602
0003c0 4f 08 3f c0 20 fc 32 c0 55 91 36 c0 5a ac 37 c0
       -2.984882 -2.7966385 -2.8526204 -2.8698945
0003d0 88 5f 2c c0 6a 39 3b c0 5d c4 32 c0 c3 ae 2a c0
       -2.6933308 -2.9253793 -2.793235 -2.6669166
0003e0 86 4e 37 c0 23 9a 36 c0 86 42 3c c0 c7 a4 34 c0
       -2.8641677 -2.8531578 -2.9415603 -2.8225572
0003f0 87 b7 30 c0 fa e9 33 c0 74 dc 36 c0 b9 b9 2e c0
       -2.7612016 -2.8111558 -2.8572054 -2.7300856

lstm.hh.mu_bias f4 [128]
000000 d1 7d a3 3e b0 f1 51 3e 6a 70 dd 3d 9e 91 0d 3d
       0.31931928 0.20502353 0.10812457 0.0345627
000010 ff 72 14 3e 9c 5f 32 be 6a 55 73 be 1e d5 73 3e
       0.14496993 -0.17419285 -0.23763052 0.23811767
000020 9c f8 73 3d c0 58 07 3e 52 cb ac bc 68 9f 28 3e
       0.059563264 0.13217449 -0.021093044 0.16467059
000030 9e a0 6c 3e 3c 8d 3a 3d 73 ef 59 3e 96 8a be bc
       0.23108146 0.045544848 0.21282749 -0.023259442
000040 d5 dd a0 bd 7e 23 a8 3e 71 2d 1a 3e fc c4 05 3e
       -0.07854811 0.32839578 0.15056397 0.13063425
000050 d4 2f 00 be 0f 7e 5c 3e 3c b6 8f 3e b5 88 b9 bc
       -0.12518245 0.21532463 0.2806872 -0.022648195
000060 e1 dc 9a 3d 4b 32 01 3e b7 1a 1f 3d 57 3e ba 3c
       0.075616606 0.12616841 0.038843837 0.022734804
000070 0f fb 92 3d c8 3c 52 3d 01 c7 d2 3e b6 96 56 3c
       0.07176792 0.051327497 0.41167453 0.013097456
000080 a2 2b f4 3c 0f 73 db bc db e2 2e 3d 96 13 e7 bd
       0.029805962 -0.026788263 0.042696815 -0.112830326
000090 30 61 fb bd ad 46 f9 3d 09 8d 28 3e 8a 97 c5 3e
       -0.122743964 0.121716835 0.1646005 0.38592178
0000a0 e8 f8 10 be 3a 51 9e 3e 82 53 aa bd 06 27 78 3e
       -0.1415745 0.30921346 -0.08316709 0.24233636
0000b0 ba 37 59 3d 2e 05 61 3d d8 ff 91 bc b7 3a be 3c
       0.05303166 0.05493658 -0.017822191 0.023221357
0000c0 2f 41 f6 3d 5e 66 5a 3e ef 5e 53 3d 65 b4 4e 3d
       0.120241515 0.21328112 0.051604208 0.050465006
0000d0 34 49 61 3e 47 3e 56 3d 84 87 5e bc dc c4 5f 3e
       0.22000581 0.052305486 -0.013582114 0.2185244
0000e0 ef 81 6d 3e 13 0c 49 3d e4 58 d1 3d 93 22 0a 3e
       0.23194097 0.04908378 0.10222033 0.13489752
0000f0 99 71 cf 3d f8 16 61 bd 1a 0f 0c 3e 96 86 85 3e
       0.10129089 -0.054953545 0.13677636 0.26079243
000100 10 96 59 3e 08 cb 9d bc 6a 9f 80 3e e1 a1 c0 bd
       0.2124865 -0.019261852 0.25121623 -0.09405876
000110 60 01 5a 3e f6 c9 04 3e 0a 84 c3 3c 1a fd 2f be
       0.21289587 0.12967667 0.023866672 -0.17186394
000120 0d 6a 31 3e fe db ed 3d 81 92 d5 3d 6f cd 67 3c
       0.17325611 0.11614226 0.10428334 0.0141481
000130 83 79 2d 3d f3 ff d7 3d bf 29 3c 3e 9d f5 81 3e
       0.04235221 0.10546865 0.183753 0.253827
000140 1d 3c 84 bd fa bb 70 be 71 b3 25 be 53 2c cf 3c
       -0.06456778 -0.23509207 -0.16181733 0.02528969
000150 53 c6 ce 3c 6d 4e 7d 3d 61 41 06 bd 31 b4 1b 3e
       0.025241053 0.06184237 -0.032777194 0.15205456
000160 1a 33 f0 3d b6 3f 9e bd 3e 82 c6 3d 32 6c 85 3e
       0.11728497 -0.07726996 0.096928105 0.2605911
000170 99 f6 ab bd 0e c1 e3 bc 68 24 83 be ed de be bd
       -0.08396644 -0.027802017 -0.25613713 -0.093198635
000180 71 ab 42 3e 67 16 8c bd c6 6e 65 3e 28 e2 76 3e
       0.19010712 -0.068402104 0.22405538 0.2410971
000190 a9 9c b2 3e 12 f4 d4 3e 8f bc b3 3e 00 a8 12 3e
       0.34885147 0.4159246 0.35104796 0.143219
0001a0 ad b5 37 3e 50 14 93 3e c5 4b 92 3e d5 02 13 3e
       0.17940398 0.28726435 0.28573433 0.14356549
0001b0 c2 75 6c 3e ed c6 25 3e 79 16 66 3e 0a 05 cf 3e
       0.23091796 0.16189165 0.2246951 0.40433532
0001c0 1f 51 7f 3e 3b 94 db 3a 9e 86 a9 3d 66 25 12 3e
       0.24933289 0.001675255 0.08277629 0.14272079
0001d0 4e 27 0b 3e 29 94 91 3e c4 37 2f 3e 80 b3 53 3e
       0.13589212 0.2843335 0.17111117 0.20673943
0001e0 d0 30 35 3e 03 5e 1c 3e aa 7d ed 3e 3b 87 39 3e
       0.17694402 0.15270238 0.46384937 0.18117993
0001f0 ab 0c b8 3e dd 4f 3f 3e a4 6e 04 3e c0 20 07 3e
       0.35947165 0.18682809 0.12932831 0.13196087

lstm.hh.rho_bias f4 [128]
000000 47 5a 29 c0 4a 25 24 c0 75 69 24 c0 22 6f 3c c0
       -2.646135 -2.564776 -2.5689366 -2.944283
000010 90 35 40 c0 5a d7 32 c0 e4 ed 30 c0 8e b1 30 c0
       -3.0032692 -2.794394 -2.7645197 -2.760837
000020 27 64 27 c0 31 a8 26 c0 de 57 23 c0 73 cd 22 c0
       -2.6154878 -2.6040156 -2.552238 -2.5437896
000030 ac 85 29 c0 d8 e2 28 c0 d6 9d 32 c0 2a 30 34 c0
       -2.6487837 -2.6388454 -2.7908835 -2.8154397
000040 98 61 36 c0 e3 6b 15 c0 90 44 32 c0 1c 3a 1e c0
       -2.8497066 -2.33471 -2.7854347 -2.4722967
000050 2e 33 31 c0 c1 6a 30 c0 b5 9b 2a c0 e7 ab 2d c0
       -2.7687488 -2.7565157 -2.6657536 -2.713617
000060 e8 89 3e c0 45 ee 29 c0 3e b0 26 c0 4c 67 2e c0
       -2.9771671 -2.6551678 -2.604507 -2.7250547
000070 51 68 2f c0 b9 4d 31 c0 4f 50 29 c0 90 1c 2e c0
       -2.740742 -2.7703688 -2.6455266 -2.7204933
000080 a8 86 1e c0 01 88 28 c0 2b 76 20 c0 e6 c5 36 c0
       -2.4769688 -2.633301 -2.5072124 -2.8558288
000090 99 37 37 c0 5e 18 38 c0 88 cd 2b c0 5b 8a 13 c0
       -2.8627684 -2.8764873 -2.6844196 -2.3053195
0000a0 93 9f 28 c0 6b db 10 c0 2f 05 37 c0 58 76 23 c0
       -2.6347396 -2.2633922 -2.8596914 -2.5540981
0000b0 75 0d 3c c0 b8 fc 20 c0 cf 5e 41 c0 eb 78 2e c0
       -2.9383214 -2.5154247 -3.0214117 -2.7261302
0000c0 e2 c9 34 c0 40 3c 24 c0 6b 97 36 c0 8c 9d 40 c0
       -2.824822 -2.5661774 -2.8529918 -3.009616
0000d0 21 c2 18 c0 72 81 2b c0 42 85 3a c0 d1 0c 2d c0
       -2.3868487 -2.6797757 -2.9143834 -2.7039073
0000e0 06 93 2f c0 45 be 36 c0 9d 87 35 c0 3d 47 1a c0
       -2.7433486 -2.8553631 -2.8364022 -2.410598
0000f0 11 58 3a c0 3c 76 23 c0 63 75 1d c0 a9 5c 31 c0
       -2.9116251 -2.5540915 -2.4602897 -2.7712805
000100 30 46 3e c0 d7 93 32 c0 14 92 32 c0 1b 5e 3a c0
       -2.973034 -2.7902734 -2.790166 -2.9119937
000110 16 40 3a c0 2b 07 3d c0 b1 26 34 c0 49 e6 3c c0
       -2.9101615 -2.9535625 -2.8148615 -2.9515555
000120 57 61 46 c0 f6 8e 33 c0 b4 7d 2e c0 66 1e 43 c0
       -3.0996912 -2.8056006 -2.7264223 -3.0487304
000130 d0 c6 3f c0 05 47 3a c0 0e 0f 3a c0 8b 00 36 c0
       -2.9965096 -2.9105847 -2.9071689 -2.8437831
000140 05 e6 3b c0 ad 68 46 c0 3a 4e 42 c0 8e f8 40 c0
       -2.9359143 -3.100139 -3.0360246 -3.0151706
000150 7a 1e 3a c0 d5 f8 39 c0 96 b6 37 c0 74 c9 46 c0
       -2.9081101 -2.9058125 -2.8705192 -3.1060457
000160 0d d3 34 c0 45 85 3d c0 24 73 36 c0 a8 3d 36 c0
       -2.8253815 -2.9612591 -2.8507776 -2.8475132
000170 64 4c 3e c0 09 45 3d c0 d3 3e 45 c0 a7 40 3b c0
       -2.9734125 -2.9573386 -3.0819595 -2.925821
000180 aa 2b 2c c0 40 c9 27 c0 fa 6d 2f c0 ed 94 29 c0
       -2.690165 -2.6216583 -2.7410874 -2.6497147
000190 13 a4 2c c0 87 85 29 c0 5e a3 2d c0 46 15 36 c0
       -2.6975143 -2.6487749 -2.7130961 -2.8450484
0001a0 7a 98 2a c0 19 75 2e c0 5e 78 2d c0 69 d7 2e c0
       -2.6655564 -2.725897 -2.7104716 -2.7318976
0001b0 07 48 28 c0 3a f9 3b c0 ea cd 2d c0 3b 37 25 c0
       -2.6293962 -2.9370866 -2.715693 -2.581496
0001c0 19 b3 38 c0 10 93 39 c0 79 fb 38 c0 c8 ae 28 c0
       -2.8859313 -2.899601 -2.8903487 -2.6356678
0001d0 9b 47 38 c0 c4 34 2c c0 e9 38 2e c0 81 c5 26 c0
       -2.8793705 -2.6907206 -2.7222235 -2.6058047
0001e0 96 70 1e c0 6d 57 35 c0 c1 00 2b c0 ed 46 30 c0
       -2.4756217 -2.833461 -2.671921 -2.754329
0001f0 3f 1d 26 c0 27 3d 35 c0 ac 73 33 c0 1d 33 2e c0
       -2.595535 -2.8318574 -2.803935 -2.7218697

l1.mu_weight f4 [16, 32]
000000 41 22 c2 be e9 43 bf 3e f6 66 f5 be eb cb 05 3f
       -0.3791676 0.373565 -0.47930115 0.5226428
000010 0a f9 0b bf 7b a5 c3 be 7b 15 ed be 33 28 d3 3e
       -0.5467688 -0.3821219 -0.4630545 0.41241607
000020 fe fe f1 be 58 eb ba be bd c8 e8 be 6c 30 14 bf
       -0.47264856 -0.36507678 -0.4546565 -0.57886386
000030 91 f7 0e 3f 8d cc eb be f2 1d a4 be 63 c2 e3 be
       0.55846506 -0.46054497 -0.32054096 -0.44484243
000040 ff a0 3c 3e d1 67 14 3f 2d 8c 02 3f eb a5 81 be
       0.1842079 0.5797091 0.5099514 -0.25321898
000050 96 29 1c 3f a4 00 15 bf a3 c5 c7 be 84 f8 ae 3e
       0.61000955 -0.582041 -0.39017972 0.34173977
000060 af d7 34 3f 2e 3c cd 3e 64 dd f8 be 31 b9 0d bf
       0.7064161 0.40084976 -0.48606408 -0.55360705
000070 07 3f 93 3e f3 99 f9 3e 62 1a 00 3f 93 46 4b 3f
       0.28759024 0.48750266 0.50040257 0.7940456
000080 b8 13 02 3f e1 aa d1 be 5d de ee 3e 96 48 eb be
       0.5081134 -0.40950683 0.46654025 -0.45953816
000090 7d cb d0 3e 2e 6b 4a 3e b6 5d 9d 3e 4e 9b a3 be
       0.4078025 0.19767448 0.30735558 -0.31954426
0000a0 93 71 15 3f 40 ec b6 3e 14 1f f4 3e b3 6d f4 3e
       0.58376426 0.3572712 0.4767996 0.47739944
0000b0 4a e0 a8 be ac e1 0d 3f 88 1e d3 3e a5 4f f9 3e
       -0.3298362 0.5542247 0.4123423 0.48693576
0000c0 bf e1 20 be 9b 95 04 bf 7a 24 c7 be 2f ba bc 3e
       -0.15711115 -0.5179078 -0.38895017 0.36860797
0000d0 0e aa aa be d9 01 e7 3e 9a f0 f8 3e 85 1b 04 bf
       -0.33332866 0.45118597 0.48621064 -0.5160449
0000e0 d6 53 fd be aa 40 f1 be 50 30 0f 3f 97 6d b3 3e
       -0.49478024 -0.47119647 0.55933094 0.35044548
0000f0 6a 11 db be e5 50 17 bf da 0b f4 be 87 07 17 bf
       -0.42786723 -0.5910781 -0.47665292 -0.5899586
000100 60 26 25 3f 81 01 80 be cc f0 04 3f d0 e9 fb be
       0.6451168 -0.25001147 0.51929927 -0.49201822
000110 87 9a 04 3f 7b d8 e9 3e 03 e4 a7 3e 50 54 f8 be
       0.5179829 0.45672974 0.32791147 -0.48501825
000120 35 96 d5 3e b3 5c e9 3e 4a 5e a2 3e cd 54 c3 3e
       0.4171616 0.45578536 0.31712562 0.38150635
000130 37 41 29 bf 88 2c 2f 3f 03 bb 17 3f f7 6c e7 3e
       -0.66115135 0.68427324 0.5926973 0.4520032
000140 c7 3f 8e be 6e 95 f6 be 43 67 02 bf 6d 91 a3 3e
       -0.27783033 -0.4816088 -0.50938815 0.3194689
000150 1f 3d 24 bf e0 bb 13 3f 23 b4 d7 3e 01 ce 08 be
       -0.64155763 0.5770855 0.4212962 -0.13359834
000160 58 17 25 bf a2 ea 1f bf 1f be 22 3f 3f 01 ed 3e
       -0.64488745 -0.62467396 0.6357135 0.46290013
000170 98 32 0c bf 80 a5 04 bf 1d 58 fb be 5e e7 2f bf
       -0.547647 -0.5181503 -0.49090663 -0.68712413
000180 cb 23 dc 3e 97 bd 0c bf ac 1d 49 3e 3c f5 b5 be
       0.42996058 -0.5497679 0.19640225 -0.3553866
000190 19 97 d8 3e 48 f5 81 3e 9f cb 4c 3e 2c e4 ff be
       0.42302778 0.25382447 0.1999955 -0.4997877
0001a0 9d e3 0d 3f b8 9f 68 3e a5 ca 82 3e 34 30 de 3e
       0.55425435 0.22717178 0.2554523 0.4339615
0001b0 b4 6b 07 bf 55 fb ec 3e 41 55 bf 3e 96 9e 03 3f
       -0.52898717 0.462855 0.3736973 0.5141386
0001c0 25 fc 6a be a3 41 09 bf a1 88 fa be 4d be b0 3e
       -0.22947748 -0.5361578 -0.48932365 0.34520188
0001d0 b2 7e d5 be 2a df 12 3f 4c b2 c6 3e 62 1a ce be
       -0.41698223 0.5737177 0.38807905 -0.40254503
0001e0 43 e6 ec be 1a cd d1 be e2 61 f3 3e 65 20 28 3f
       -0.46269426 -0.40976793 0.47535616 0.6567443
0001f0 5c 5a bd be 0b 6c 0e bf a2 e9 b5 be ec 88 22 bf
       -0.36983 -0.5563361 -0.3552981 -0.63490176
000200 d9 fe 9c 3e c9 f5 16 bf 97 d3 ef 3e 29 e4 1a bf
       0.30663183 -0.5896879 0.46841118 -0.60504395
000210 30 8e fe 3e 8b 7f df 3e d0 6a 98 3e f1 74 05 bf
       0.49717855 0.43651995 0.2976899 -0.52131563
000220 e8 95 78 3e 38 ff 2d 3f 91 b8 cd 3e 80 bf e8 3e
       0.24275935 0.6796756 0.40179875 0.45458603
000230 c1 97 0a bf 57 2b b7 3e d3 52 c0 3e 33 e8 dd 3e
       -0.5413781 0.35775253 0.3756319 0.43341216
000240 09 b0 a0 be 6a 54 03 bf a2 6c 94 be e1 8a ff 3e
       -0.31384304 -0.5130068 -0.2898913 0.49910644
000250 e0 88 f1 be f2 81 16 3f ba 5c 10 3f d8 0b 87 be
       -0.4717474 0.5879203 0.5639149 -0.26376224
000260 7b 9f e1 be 96 f6 f3 be e5 80 0f 3f 68 6f 02 3f
       -0.44066986 -0.47649068 0.5605605 0.5095124
000270 5f 6c 1d bf a2 30 6c be 85 f7 11 bf c1 d8 e6 be
       -0.61493486 -0.23065427 -0.5701831 -0.45087245
000280 5d e4 02 3f 2b 7e da be 32 da 1f 3f b3 0f f3 be
       0.51129705 -0.42674384 0.62442315 -0.47472915
000290 27 d7 03 3f 73 92 b2 3e ee 11 be 3e cb 16 e5 be
       0.5150017 0.34877357 0.37123054 -0.44743952
0002a0 63 a8 e4 3e df 69 e0 3e da a6 b5 3e 8a bf d5 3e
       0.4465972 0.43830773 0.3547886 0.41747695
0002b0 a0 67 fd be 98 08 21 3f b0 03 12 3f ab 1a fd 3e
       -0.49493122 0.6290374 0.57036877 0.4943441
0002c0 40 76 b4 bd 92 80 04 bf f6 74 1c bf a3 bc 8a 3e
       -0.08811617 -0.5175868 -0.6111597 0.27097043
0002d0 f9 10 8d be 04 8c 3a 3f 31 f2 12 3f 9c 6a 16 bf
       -0.27552012 0.72869897 0.57400805 -0.58756423
0002e0 5d 75 18 bf 46 cd 08 bf 73 81 e0 3e c1 01 06 3f
       -0.5955408 -0.5343822 0.43848762 0.52346426
0002f0 e0 33 22 bf 7e 57 df be af 0b 1f bf ac c9 08 bf
       -0.63360405 -0.4362144 -0.621272 -0.53432727
000300 7e 7a ed 3e ff 43 dc be bc 65 cb 3e 1d 67 01 bf
       0.46382517 -0.43020627 0.39726055 -0.50547963
000310 c8 c8 d3 3e 2d b1 01 3f 84 e9 eb 3e db 95 df be
       0.4136412 0.50660974 0.46076596 -0.43669018
000320 cc 32 a8 3e 66 c8 fa 3e 3e 29 fe 3e 29 ac 0d 3f
       0.32851255 0.48981017 0.4964084 0.5534082
000330 b1 eb 0c bf 51 0e e2 3e 2a 12 08 3f 94 1c d4 3e
       -0.55047137 0.44151548 0.53152716 0.41428053
000340 04 6e 9f be 88 bb b0 be 68 2a f0 be 27 1c 47 3e
       -0.31138623 -0.34518075 -0.46907353 0.19444333
000350 d0 ac 18 bf 59 db c9 3e d7 2a db 3e c1 26 03 bf
       -0.5963869 0.3942516 0.42806122 -0.5123101
000360 a3 68 cc be 44 6f f8 be 1c 38 e5 3e 04 6e b8 3e
       -0.3992358 -0.4852239 0.4476937 0.36021435
000370 db 2d e1 be 04 de d2 be 25 03 0d bf b7 d2 0c bf
       -0.43980297 -0.4118501 -0.55082923 -0.55009025
000380 4f 48 0f 3f f5 5e 89 be 46 ce 2a 3f 7e 80 d2 be
       0.5596971 -0.2683026 0.66721 -0.41113657
000390 14 0b 05 3f 51 18 d5 3e 79 ba b2 3e fc 9d ef be
       0.5197003 0.41620114 0.34907892 -0.4680022
0003a0 3e fd b9 3e a4 57 14 3f d4 8c ec 3e 2f fc fb 3e
       0.3632602 0.5794623 0.46201193 0.49215838
0003b0 64 51 fc be 2c 68 aa 3e df 9c ea 3e 84 4e ff 3e
       -0.49280846 0.33282602 0.45822808 0.4986459
0003c0 68 de c3 be 20 b7 f6 be 6e 18 09 bf f7 c9 ab 3e
       -0.3825562 -0.48186588 -0.535529 0.33552524
0003d0 3c bc 08 bf 55 41 07 3f bc 0b aa 3e c5 80 b9 be
       -0.5341222 0.52834064 0.33212078 -0.36231056
0003e0 c0 73 13 bf fd 0b cd be c7 13 10 3f 09 ac ea 3e
       -0.57598495 -0.4004821 0.5628018 0.45834377
0003f0 b1 cd 0a bf 56 03 fc be e0 2f 2a bf 2f 9e 07 bf
       -0.5422011 -0.49221295 -0.664793 -0.52975744
