BNN/model_states/BNN_model_state_FD001_denoised_CF.pt (torch, 57845 bytes, 14 tensors)

lstm.ih.mu_weight f4 [128, 14]
0	0x3e6de49a	0.23231736
1	0x3e7ca254	0.24671298
2	0x3e786fdd	0.24261422
3	0xbe7fabc8	-0.24967873
4	0x3e03f5db	0.12886755
5	0xbebd0ce6	-0.36923903
6	0x3dc86ea2	0.097867265
7	0xbe4e24d2	-0.20131233
8	0xbdaa886b	-0.08326801
9	0x3ca1c55d	0.01974743
10	0x3d95a879	0.07307524
11	0xbdd55977	-0.10417455
12	0xbdf30866	-0.11866836
13	0xbe0b064c	-0.13576621
14	0xbd8e68ce	-0.06953584
15	0x3dd00313	0.10156836
16	0x3e85652b	0.26053748
17	0xbc7da4dc	-0.0154812
18	0xbd022e32	-0.031782337
19	0xbd28120b	-0.041032832
20	0xbcbf5ce9	-0.023359733
21	0x3da3dbc9	0.08000905
22	0x3d403700	0.046927452
23	0x3d910e19	0.07082767
24	0x3e5085c7	0.20363532
25	0x3e0fd392	0.14045551
26	0x3d51dd73	0.05123658
27	0x3da8434c	0.08215961
28	0x3d7ed434	0.06221409
29	0x3d535be6	0.051601313
30	0xbc65d509	-0.014027842
31	0x3cde4be2	0.027135793
32	0xbd8fdb34	-0.070242316
33	0x3d30b719	0.043143366
34	0x3c98a71c	0.018634371
35	0x3dfc0b99	0.123068996
36	0x3e488506	0.19581994
37	0xbdaf4eff	-0.08559989
38	0x3d710c72	0.05884976
39	0x3c4376a0	0.011930138
40	0xbe3a21b9	-0.18176927
41	0x3d4d5d3c	0.050137743
42	0xbaafa2a0	-0.0013399906
43	0xbc905d78	-0.017622694
44	0xbe31d492	-0.17366245
45	0x3e59cc25	0.21269281
46	0xbdf24a31	-0.11830557
47	0xbdc7725f	-0.097386114
48	0xbde27bb4	-0.11058751
49	0xbd0ddbd1	-0.03463346
50	0x3d808d27	0.06276923
51	0x3d64a34b	0.05581979
52	0xbd7b416a	-0.06134168
53	0x3d857c32	0.06517829
54	0xbdd5affb	-0.10433956
55	0xbd1aa066	-0.037750624
56	0xbe122980	-0.14273643
57	0xbcf67dab	-0.03008922
58	0xbd902716	-0.07038705
59	0x3de4ee72	0.11178292
60	0x3cf2053f	0.029543517
61	0x3e8e9722	0.2784968
62	0xbe1bb6d5	-0.15206464
63	0x3e366dfe	0.17815396
64	0x3e7de223	0.24793296
65	0x3d184dfa	0.03718374
66	0x3e14df45	0.14538296
67	0x3b8a1e7e	0.0042150607
68	0xbc617f3d	-0.013763246
69	0x3ca2e844	0.019886144
70	0xbe5d9cd2	-0.21641853
71	0xbe6ce22d	-0.23133154
72	0xbe7ebdbe	-0.24877068
73	0x3eca7982	0.39545828
74	0xbe825165	-0.25452724
75	0xbde758bb	-0.11296221
76	0xbe4acd1e	-0.19804808
77	0x3e0fedd6	0.14055571
78	0xbf12038f	-0.5703668
79	0x3e029dab	0.12755458
80	0xbd800ac5	-0.06252054
81	0xbec5533e	-0.3854007
82	0x3e51cf90	0.20489335
83	0x3dad3da3	0.08459022
84	0x3db81539	0.08988423
85	0x3d97800d	0.073974706
86	0x3e491e9c	0.19640583
87	0xbca9c526	-0.02072389
88	0x3da9fb6c	0.08299908
89	0xbda771b1	-0.08175982
90	0xbcf43b3a	-0.029813398
91	0x3bb334ac	0.0054689255
92	0xbe2beb6a	-0.16789022
93	0xbe5588de	-0.20852992
94	0x3e53d160	0.20685339
95	0x3d9cb80a	0.0765229
96	0xbe8d09e8	-0.2754662
97	0xbb0445e8	-0.002018327
98	0xbd9e14a7	-0.07718783
99	0xbe134083	-0.14380078
100	0x3baf4b84	0.0053495783
101	0x3e7a3c43	0.2443705
102	0x3802c3a0	3.1176605e-05
103	0x3e0713bc	0.13191122
104	0xbddde2c5	-0.108342685
105	0x3e5030e2	0.20331147
106	0xbd83c447	-0.06433921
107	0x3d4c9351	0.04994518
108	0xbdaced1f	-0.08443665
109	0xbc7aa80b	-0.015298854
110	0x3e0f3cf7	0.139881
111	0x3d6dd6af	0.058066066
112	0x3bd93a3b	0.006629256
113	0x3ddc936d	0.10770307
114	0x3db3b4d0	0.087747216
115	0xbce0b82e	-0.027431574
116	0x3e119944	0.14218622
117	0xbe27ce5c	-0.16387314
118	0x3d5ec1c1	0.054383997
119	0x3c9d4576	0.01919816
120	0xbd78fd71	-0.060788576
121	0x3d552f40	0.052047014
122	0x3e0a619e	0.135138
123	0x3d83cf1e	0.06435989
124	0x3d1c0517	0.03809079
125	0xbd3f8dad	-0.046765972
126	0xbe1e1bb6	-0.15440258
127	0xbe127ff4	-0.14306623
128	0xbd89f8a8	-0.067368805
129	0x3ea39c43	0.31955156
130	0xbedaee43	-0.42759904
131	0xbda7b6fc	-0.081891984
132	0xbe970d67	-0.29502413
133	0x3ee5a8e7	0.44855425
134	0xbe85a593	-0.26102886
135	0x3e167d1c	0.14696163
136	0xbde6b269	-0.11264498
137	0xbe3d2ab7	-0.18473326
138	0x3d3c8170	0.04602188
139	0x3ec1b5c0	0.37833977
140	0xbe770346	-0.24122342
141	0xbd812da3	-0.06307533
142	0xbe47bea5	-0.19506319
143	0x3e82251f	0.25418946
144	0xbe1b7ea6	-0.15185031
145	0x3dfdaa3f	0.123859875
146	0xbc869532	-0.016428564
147	0x3e967998	0.29389644
148	0xbdf2c4cb	-0.118539415
149	0xbda3e321	-0.08002306
150	0xbe64df53	-0.22350816
151	0xbdabd66b	-0.08390506
152	0x3e854c14	0.26034606
153	0x3e758897	0.23977886
154	0xbe8bdc68	-0.27316594
155	0xbd07116d	-0.032975603
156	0xbec0fa64	-0.37691033
157	0x3e24202d	0.16027899
158	0xbe87a3de	-0.26492208
159	0x3e00590b	0.12533967
160	0xbea4a5ed	-0.3215784
161	0x3e287c52	0.16453674
162	0xbe096dc7	-0.13420783
163	0x3be00bd8	0.0068373494
164	0xbe01ffb0	-0.12695193
165	0xbe565791	-0.20931841
166	0x3e56b78e	0.20968458
167	0x3d1f12db	0.03883634
168	0xbc2636da	-0.010144914
169	0x3dfae0c7	0.12249904
170	0x3d9601c9	0.07324559
171	0x3da2cbab	0.07949003
172	0xbe3f0793	-0.18655233
173	0x3d00f311	0.031481806
174	0x3d8f9590	0.07010949
175	0x3e25b7e2	0.16183427
176	0xbe1a3742	-0.15060142
177	0x3db81791	0.0898887
178	0xbcddea23	-0.027089184
179	0xbdb2cb63	-0.08730199
180	0xbdf59429	-0.1199115
181	0xbe60503d	-0.21905608
182	0xbe567ffa	-0.20947257
183	0xbd494aa6	-0.049143456
184	0xbe30b006	-0.17254648
185	0x3cd67e4e	0.026183274
186	0xbe5623d5	-0.20912106
187	0xbc3bfeb3	-0.011474299
188	0x3d4b2cfb	0.049603444
189	0x3e176bc3	0.14787202
190	0x3d04a81b	0.03238688
191	0x3d9a81a3	0.075442575
192	0x3d35d8be	0.044396155
193	0xbea2c9fc	-0.31794727
194	0x3ddc6896	0.10762136
195	0x3d8ff550	0.070292115
196	0xbe8fed70	-0.28110838
197	0xbca41a97	-0.02003221
198	0xbc1c3b60	-0.0095356405
199	0x3e810f80	0.25207138
200	0x3ddcbbae	0.107779846
201	0x3e9eeb7a	0.3103903
202	0xbd622853	-0.055214237
203	0x3aa37085	0.0012469447
204	0x3d7fb33b	0.062426787
205	0x3e360f18	0.17779195
206	0x3d67096f	0.05640548
207	0xbdedbe45	-0.11608557
208	0xbd75b4a8	-0.05998674
209	0xbc52cd7a	-0.012866372
210	0xbe9d7ce1	-0.30759338
211	0xbe80f6d3	-0.25188312
212	0xbe30b5d1	-0.17256857
213	0x3ea329f5	0.31867948
214	0xbbe26f11	-0.006910213
215	0x3cf6b1af	0.030114023
216	0xbe5053fd	-0.20344539
217	0x3ead619c	0.33863533
218	0xbdd4a4a3	-0.103829645
219	0x3eaee769	0.34160927
220	0xbe285039	-0.16436853
221	0xbe6e3bd3	-0.23265009
222	0x3e72f460	0.23726034
223	0x3ed6e0ac	0.41968286
224	0xbe33eca4	-0.1757074
225	0xbd41bf0b	-0.047301333
226	0xbd9955a5	-0.074870385
227	0x3e2e0259	0.16993083
228	0xbe43da26	-0.19126186
229	0x3db07c90	0.086175084
230	0xbe4de518	-0.20106924
231	0x3ea317bd	0.31854048
232	0xbdefc738	-0.1170792
233	0xbcb93f40	-0.022613168
234	0xbebeca8c	-0.37263906
235	0xbd0fa420	-0.03506863
236	0x3e796439	0.24354638
237	0x3df16b08	0.11787993
238	0x3dc4254a	0.09577425
239	0x3e1132e1	0.14179565
240	0x3d9bdab0	0.07610071
241	0xbcec879c	-0.028873257
242	0x3c9b8637	0.018984897
243	0xbe1706c9	-0.14748682
244	0x3d0208f0	0.031746805
245	0xbd992f2f	-0.07479703
246	0xbc76ff09	-0.015075454
247	0x3bc206e5	0.005921232
248	0x3e7f8239	0.2495202
249	0x3aca3c50	0.0015429351
250	0x3d1e2817	0.03861245
251	0xbd703e3f	-0.058653113
252	0x3cebc6de	0.02878135
253	0x3d407844	0.046989694
254	0x3e03bd0f	0.12865089
255	0x3d4a498a	0.04938654

lstm.ih.rho_weight f4 [128, 14]
0	0xc03f28a5	-2.9868557
1	0xc0302822	-2.7524495
2	0xc033c5d4	-2.8089495
3	0xc03f2b34	-2.987012
4	0xc0420327	-3.0314424
5	0xc03acb2b	-2.9186504
6	0xc02cba2b	-2.6988628
7	0xc047f4d2	-3.1243176
8	0xc03b7961	-2.9292834
9	0xc0275c1c	-2.614997
10	0xc03eb548	-2.9798145
11	0xc038020b	-2.8751247
12	0xc0343670	-2.8158226
13	0xc03d78b0	-2.9604912
14	0xc02b1fa4	-2.6738062
15	0xc03829e6	-2.8775573
16	0xc03f1887	-2.985872
17	0xc02f41e1	-2.738396
18	0xc030c130	-2.7617912
19	0xc032756c	-2.7884169
20	0xc0306f0a	-2.7567773
21	0xc02fe2f5	-2.7482274
22	0xc046631b	-3.099799
23	0xc03854c9	-2.8801749
24	0xc02ba97e	-2.68222
25	0xc0307ec6	-2.7577376
26	0xc0388198	-2.8829098
27	0xc03441ff	-2.816528
28	0xc038d577	-2.8880289
29	0xc04af871	-3.1714137
30	0xc043c3be	-3.0588222
31	0xc0421cad	-3.0330002
32	0xc0405db8	-3.0057201
33	0xc0355459	-2.8332732
34	0xc02a0064	-2.6562738
35	0xc0304676	-2.7543006
36	0xc03a0f99	-2.907202
37	0xc035ab9f	-2.8386
38	0xc02d3d8d	-2.7068818
39	0xc0341b2f	-2.8141592
40	0xc03114aa	-2.7668862
41	0xc02e3f22	-2.7226033
42	0xc044974b	-3.0717342
43	0xc03ece2c	-2.9813337
44	0xc03b02d9	-2.9220488
45	0xc045b2f0	-3.0890465
46	0xc03e5fe6	-2.9746032
47	0xc02ed283	-2.7315986
48	0xc0339fe3	-2.8066337
49	0xc03975a8	-2.8978062
50	0xc03a77d5	-2.913564
51	0xc0314f04	-2.7704477
52	0xc037b710	-2.8705482
53	0xc0335644	-2.8021402
54	0xc0461208	-3.0948505
55	0xc030b3b5	-2.7609684
56	0xc02f1441	-2.7356112
57	0xc038af1c	-2.8856878
58	0xc04c79a1	-3.1949236
59	0xc03914d8	-2.8918972
60	0xc035740e	-2.8352084
61	0xc03fbd1b	-2.995917
62	0xc0507b4b	-3.2575252
63	0xc03d0933	-2.9536865
64	0xc03b6ecd	-2.9286377
65	0xc039ef95	-2.905248
66	0xc046e5ff	-3.1077878
67	0xc041ee43	-3.0301673
68	0xc0335b01	-2.8024294
69	0xc040c2ab	-3.0118816
70	0xc04270b3	-3.0381286
71	0xc02d98a5	-2.7124417
72	0xc03e5450	-2.973896
73	0xc0433ad9	-3.0504668
74	0xc0377731	-2.8666499
75	0xc037aad6	-2.869802
76	0xc045fe82	-3.093659
77	0xc03d4548	-2.9573536
78	0xc04c8760	-3.1957626
79	0xc03e46c9	-2.9730704
80	0xc03dc0aa	-2.9648843
81	0xc03337e7	-2.800287
82	0xc039fd09	-2.906069
83	0xc03fdf6c	-2.9980116
84	0xc03aa768	-2.9164677
85	0xc040270b	-3.002383
86	0xc042e86b	-3.0454357
87	0xc03d9ca3	-2.9626853
88	0xc0352249	-2.8302176
89	0xc032e038	-2.7949352
90	0xc039edc0	-2.905136
91	0xc03e1f88	-2.9706745
92	0xc0386c48	-2.881609
93	0xc0320b74	-2.781949
94	0xc036adaa	-2.8543496
95	0xc033e6dd	-2.8109658
96	0xc03c1c27	-2.9392183
97	0xc036f126	-2.8584685
98	0xc031017a	-2.7657151
99	0xc03f6ccc	-2.9910154
100	0xc03e27d3	-2.9711807
101	0xc0340860	-2.8130112
102	0xc03ad386	-2.9191604
103	0xc03c4bb7	-2.9421213
104	0xc0442902	-3.065003
105	0xc02f6901	-2.740784
106	0xc0466bef	-3.1003377
107	0xc027dcd0	-2.6228523
108	0xc03d455c	-2.9573584
109	0xc0339968	-2.8062382
110	0xc035a859	-2.8384001
111	0xc03d26db	-2.9554965
112	0xc03d53c1	-2.958237
113	0xc0310451	-2.7658885
114	0xc0360935	-2.844312
115	0xc0433ef2	-3.0507169
116	0xc03cb946	-2.9488082
117	0xc043f4c8	-3.0618153
118	0xc03444c3	-2.816697
119	0xc03dddaf	-2.9666555
120	0xc03c59f6	-2.9429908
121	0xc0344f93	-2.8173568
122	0xc0364dda	-2.8485017
123	0xc03c48f7	-2.9419534
124	0xc037a880	-2.8696594
125	0xc0397f05	-2.8983777
126	0xc0360fd7	-2.8447168
127	0xc02d8220	-2.7110672
128	0xc0334691	-2.801182
129	0xc030df0d	-2.763614
130	0xc02f24c1	-2.7366183
131	0xc03ac729	-2.9184058
132	0xc02bd27d	-2.6847222
133	0xc030cbca	-2.7624383
134	0xc02e3610	-2.7220497
135	0xc0312644	-2.7679605
136	0xc0381d6f	-2.8767965
137	0xc03790d0	-2.8682137
138	0xc0362e62	-2.846581
139	0xc029170e	-2.6420321
140	0xc03481b9	-2.8204176
141	0xc03f43fa	-2.988524
142	0xc02cba40	-2.6988678
143	0xc033fd33	-2.812329
144	0xc05653b6	-3.3488593
145	0xc035540e	-2.8332553
146	0xc0213d2d	-2.5193589
147	0xc0394d69	-2.8953497
148	0xc02b4d66	-2.676599
149	0xc02fc046	-2.7461104
150	0xc02966fd	-2.646911
151	0xc03e0a2d	-2.969371
152	0xc03b89a7	-2.9302766
153	0xc032f077	-2.7959268
154	0xc03b8f6c	-2.9306288
155	0xc036bbcc	-2.8552122
156	0xc03e293f	-2.9712675
157	0xc03f8ccb	-2.9929683
158	0xc02c48e0	-2.691948
159	0xc03cc8b9	-2.9497511
160	0xc035f50d	-2.8430817
161	0xc0427054	-3.038106
162	0xc041cc9a	-3.028113
163	0xc03c5533	-2.9427001
164	0xc03ef395	-2.983617
165	0xc0378630	-2.8675652
166	0xc03e0f04	-2.9696665
167	0xc02d2b53	-2.7057693
168	0xc0441846	-3.0639815
169	0xc0409cc4	-3.0095682
170	0xc03dc610	-2.9652138
171	0xc031f516	-2.7805839
172	0xc02a64ec	-2.6624098
173	0xc035c16f	-2.8399312
174	0xc0350b96	-2.8288321
175	0xc038fa60	-2.8902817
176	0xc03a9da3	-2.9158714
177	0xc03e7f0d	-2.9765046
178	0xc03f5af8	-2.9899273
179	0xc02cec15	-2.7019093
180	0xc0389469	-2.8840582
181	0xc03ff963	-2.9995964
182	0xc03ccaca	-2.9498773
183	0xc03ab233	-2.9171264
184	0xc03807fa	-2.8754869
185	0xc039248f	-2.8928564
186	0xc03d9cd3	-2.9626968
187	0xc040f734	-3.015088
188	0xc04044cd	-3.0041993
189	0xc040cd2d	-3.012523
190	0xc0456685	-3.0843823
191	0xc03e296e	-2.9712787
192	0xc0361fff	-2.845703
193	0xc040518c	-3.0049772
194	0xc03eaa61	-2.979149
195	0xc03cd036	-2.9502082
196	0xc0421cd7	-3.0330102
197	0xc03e3a7e	-2.97232
198	0xc03a7ae7	-2.9137514
199	0xc0428442	-3.0393224
200	0xc046ffc2	-3.1093602
201	0xc02f9d47	-2.7439744
202	0xc03d60ea	-2.9590402
203	0xc033702d	-2.8037217
204	0xc034cb7e	-2.8249202
205	0xc03d355e	-2.9563823
206	0xc035eff7	-2.8427713
207	0xc0367462	-2.8508534
208	0xc04504fc	-3.0784292
209	0xc0374814	-2.8637743
210	0xc04057e0	-3.0053635
211	0xc03e9373	-2.9777496
212	0xc03abe54	-2.9178667
213	0xc0335397	-2.801977
214	0xc036e244	-2.8575602
215	0xc034a09e	-2.8223033
216	0xc03d574a	-2.9584527
217	0xc0312718	-2.768011
218	0xc0403d51	-3.0037425
219	0xc0350ede	-2.8290324
220	0xc03531ee	-2.8311725
221	0xc0397e7a	-2.8983445
222	0xc0342860	-2.8149643
223	0xc0432270	-3.048977
224	0xc042ddd4	-3.0447893
225	0xc03cdeb4	-2.9510927
226	0xc03457ff	-2.8178709
227	0xc03bd40c	-2.9348173
228	0xc03f476d	-2.9887345
229	0xc0385473	-2.8801544
230	0xc02b6893	-2.6782577
231	0xc03ad0f9	-2.9190047
232	0xc041e2ee	-3.0294757
233	0xc038ba45	-2.886369
234	0xc038cb6a	-2.8874154
235	0xc033a095	-2.8066761
236	0xc0413505	-3.018861
237	0xc037f4c9	-2.8743155
238	0xc0457f81	-3.0859072
239	0xc0365bc2	-2.8493505
240	0xc041bb14	-3.0270433
241	0xc0325253	-2.7862747
242	0xc033bc31	-2.8083613
243	0xc0381f52	-2.8769116
244	0xc038bcd3	-2.886525
245	0xc0470073	-3.1094024
246	0xc041a58e	-3.0257297
247	0xc021012f	-2.5156972
248	0xc0370357	-2.8595788
249	0xc02f611f	-2.7403028
250	0xc03ce965	-2.9517453
251	0xc03fdecb	-2.9979732
252	0xc044d7d7	-3.0756738
253	0xc03a9505	-2.9153454
254	0xc035abb3	-2.8386047
255	0xc03e542f	-2.9738882

lstm.ih.mu_bias f4 [128]
0	0x3cf6febb	0.030150762
1	0x3e07bf5f	0.13256596
2	0x3d862641	0.06550265
3	0xbd3ba5f4	-0.045812562
4	0x3d504515	0.05084713
5	0x3dc38fec	0.09548935
6	0x3e8593e9	0.2608941
7	0x3e39cdfb	0.18144982
8	0x3d94703b	0.07247969
9	0x3db936ea	0.09043677
10	0x3d11fc0b	0.035640758
11	0x3d415133	0.04719658
12	0x3e160842	0.14651588
13	0xbd32dc07	-0.043666866
14	0x3e1e3fd2	0.15454033
15	0xbce5f7a1	-0.02807218
16	0xbe67be8a	-0.22631279
17	0x3d50cb86	0.050975345
18	0x3d8388ef	0.064226024
19	0x3e12859f	0.14308785
20	0x3c848763	0.016177839
21	0x3daf07ec	0.08546433
22	0xbe2d6e77	-0.1693667
23	0x3e2ed5be	0.17073724
24	0xbcc0b1b5	-0.023522237
25	0x3c8e1cea	0.017347772
26	0x3e6fe2ab	0.2342631
27	0x3e2d4657	0.16921364
28	0x3e87a41b	0.2649239
29	0x3de18d1d	0.11013243
30	0x3e3fc078	0.18725765
31	0xbd91c9e7	-0.07118588
32	0x3e81c98d	0.25349084
33	0x3e03105b	0.12799208
34	0x3dc8aef1	0.097989924
35	0x3e035bcc	0.12827986
36	0x3da46e9b	0.08028909
37	0x3e9afe9b	0.30272374
38	0x3e09aede	0.13445613
39	0x3e4ea0b0	0.20178485
40	0xbc5811a2	-0.013187798
41	0xbcb5eea6	-0.022208523
42	0x3d682ad3	0.056681465
43	0x3e5cd250	0.21564603
44	0x3e04d650	0.12972379
45	0xbdf148c7	-0.11781459
46	0xbda46209	-0.08026511
47	0x3d18f024	0.03733839
48	0xbd3cd990	-0.04610592
49	0x3df06321	0.11737657
50	0x3eb7cb92	0.358975
51	0xbd1a183f	-0.03762078
52	0xbe251173	-0.16119938
53	0x3d10cc1a	0.035350896
54	0x3c6214c0	0.0137988925
55	0x3e02d013	0.12774687
56	0xbd976685	-0.07392601
57	0xbcbfc3e3	-0.023408836
58	0x3e683c0e	0.22679159
59	0x3e477680	0.19478798
60	0x3e857fa9	0.2607396
61	0xbe12be64	-0.14330441
62	0x3e779d2a	0.24181047
63	0xbe09e61b	-0.13466685
64	0xbeac3c2c	-0.33639657
65	0xbd7b147a	-0.061298825
66	0x3e7aafa6	0.24481067
67	0xbe76b7ac	-0.24093503
68	0x3e707cfa	0.23485175
69	0x3db58336	0.08862917
70	0x3cd33c8c	0.025785707
71	0xbe8ba98d	-0.27277794
72	0xbdff9e38	-0.1248135
73	0x3da6b440	0.08139849
74	0xbd773348	-0.06035164
75	0x3d83bce9	0.06432516
76	0xbe22b79f	-0.15890358
77	0x3e4ea4ed	0.20180102
78	0x3e323f8f	0.17407058
79	0x3d94d411	0.07267011
80	0x3cfb09e5	0.030644367
81	0xbda8b695	-0.0823795
82	0xbe5815d6	-0.2110208
83	0xbd651c82	-0.05593539
84	0xbe53785f	-0.20651387
85	0x3d75c9f8	0.060007066
86	0x3c790fc2	0.015201511
87	0x3dc832a9	0.09775288
88	0xbc18689f	-0.009302287
89	0xbd2c8a36	-0.042123996
90	0x3ccd20be	0.025040027
91	0x3e08c268	0.1335541
92	0xbe7c1660	-0.2461791
93	0x3e38505a	0.17999402
94	0xbe1c385a	-0.15255871
95	0x3d26a1aa	0.04068152
96	0x3da27c73	0.07933893
97	0x3eadf10f	0.33972976
98	0x3dc306b0	0.0952276
99	0x3da61618	0.08109683
100	0x3eabe3cc	0.33572233
101	0x3f067ca2	0.52533925
102	0x3c74c775	0.014940132
103	0x3ee72eb2	0.45152813
104	0x3e85e228	0.26149106
105	0x3e94728d	0.28993645
106	0x3dbe2ce0	0.09285903
107	0x3dee1a3b	0.11626097
108	0x3ee67f72	0.45019108
109	0x3e78d1e0	0.24298811
110	0x3e3f048c	0.18654078
111	0x3e532b41	0.20621969
112	0x3dffff99	0.12499923
113	0x3e85020e	0.2597813
114	0x3e1807cf	0.14846729
115	0x3e90be84	0.28270352
116	0x3e6dbe4c	0.23217124
117	0x3e7ca8e6	0.24673805
118	0x3d6a3480	0.057178974
119	0x3e82fde4	0.25584328
120	0x3e72975f	0.23690556
121	0x3e438e89	0.19097342
122	0x3e15bfd8	0.14623964
123	0x3e1f5dce	0.15563127
124	0x3e9ad46b	0.30240187
125	0x3ed9f160	0.42566967
126	0x3e4bf701	0.19918443
127	0x3dfd9f3b	0.123838864

lstm.ih.rho_bias f4 [128]
0	0xc028fec5	-2.64055
1	0xc01847ec	-2.3793898
2	0xc0134afd	-2.301452
3	0xc03089d3	-2.7584121
4	0xc0400426	-3.0002532
5	0xc02a8b4d	-2.6647522
6	0xc020ae32	-2.510632
7	0xc015b037	-2.3388803
8	0xc0326140	-2.7871857
9	0xc014d6ca	-2.3256097
10	0xc0234b3b	-2.5514667
11	0xc034b41a	-2.8234925
12	0xc0260000	-2.59375
13	0xc0307c7b	-2.7575977
14	0xc0297a69	-2.6480963
15	0xc03791be	-2.8682704
16	0xc02adc0b	-2.6696804
17	0xc0303177	-2.753019
18	0xc02755ec	-2.6146193
19	0xc02c2775	-2.6899083
20	0xc03424dc	-2.8147497
21	0xc0287592	-2.632176
22	0xc032546d	-2.786403
23	0xc0233ef4	-2.5507174
24	0xc02f6985	-2.7408154
25	0xc02581f5	-2.586057
26	0xc028777e	-2.6322932
27	0xc0294595	-2.644872
28	0xc0227d59	-2.5389006
29	0xc02d1985	-2.7046826
30	0xc027b021	-2.620125
31	0xc0278ef8	-2.6181011
32	0xc0186178	-2.380949
33	0xc00b0216	-2.1720023
34	0xc01e2b99	-2.471411
35	0xc032ba33	-2.7926147
36	0xc02e671e	-2.7250438
37	0xc020de15	-2.5135548
38	0xc03348ec	-2.8013258
39	0xc0204c42	-2.5046544
40	0xc02d58bc	-2.708541
41	0xc0268e20	-2.6024246
42	0xc0296575	-2.6468174
43	0xc038a465	-2.8850338
44	0xc037ecc2	-2.8738256
45	0xc02eeae4	-2.7330866
46	0xc03b8e87	-2.9305742
47	0xc0385c6f	-2.8806417
48	0xc03a6021	-2.9121172
49	0xc00fcaac	-2.246745
50	0xc013f51d	-2.3118355
51	0xc02f3a16	-2.7379203
52	0xc03d190f	-2.9546545
53	0xc037b8db	-2.8706577
54	0xc02ba6ec	-2.682063
55	0xc01aa862	-2.4165273
56	0xc03023f3	-2.7521942
57	0xc02741a0	-2.6133804
58	0xc00865a9	-2.1312048
59	0xc01ed85e	-2.481956
60	0xbffdb87f	-1.9821929
61	0xc03e1357	-2.9699304
62	0xc01e8910	-2.4771156
63	0xc0336606	-2.803102
64	0xc0352c89	-2.8308432
65	0xc03660a3	-2.8496482
66	0xc03917d0	-2.8920784
67	0xc037cc78	-2.8718548
68	0xc030bf44	-2.761674
69	0xc02fa056	-2.7441611
70	0xc041f703	-3.0307014
71	0xc038a2bc	-2.8849325
72	0xc040da5a	-3.0133271
73	0xc0332071	-2.798855
74	0xc030c784	-2.7621775
75	0xc03b2a28	-2.924448
76	0xc03d3c12	-2.9567914
77	0xc03850b5	-2.879926
78	0xc04067c2	-3.0063329
79	0xc042707a	-3.038115
80	0xc036b7df	-2.8549726
81	0xc03681ff	-2.8516843
82	0xc03d2e54	-2.9559526
83	0xc03f7c1c	-2.99195
84	0xc02cd9e6	-2.7007995
85	0xc03c9cf3	-2.9470794
86	0xc0335902	-2.8023076
87	0xc0326644	-2.7874918
88	0xc045cf53	-3.090779
89	0xc03255bf	-2.7864835
90	0xc02ad8ad	-2.6694748
91	0xc0349917	-2.8218439
92	0xc045d960	-3.0913925
93	0xc03c8e2a	-2.946177
94	0xc02c9873	-2.6968048
95	0xc036d479	-2.8567183
96	0xc03157d6	-2.770986
97	0xc027d87b	-2.622588
98	0xc027b5c2	-2.6204686
99	0xc016e704	-2.35785
100	0xc015883e	-2.3364406
101	0xc025b7bc	-2.5893393
102	0xc030d655	-2.7630818
103	0xc01e8a6c	-2.4771986
104	0xc032bb1b	-2.79267
105	0xc02f8b2b	-2.7428691
106	0xc00f407a	-2.2383103
107	0xc02070a5	-2.5068753
108	0xc01c9b08	-2.4469624
109	0xc0259658	-2.5873013
110	0xc01c2ae1	-2.4401171
111	0xc0048a32	-2.0709348
112	0xc01eeb63	-2.4831169
113	0xc03513c8	-2.8293324
114	0xc0328fb6	-2.7900214
115	0xc027c02f	-2.621105
116	0xc01f8550	-2.4925117
117	0xc02bdd4a	-2.6853814
118	0xc0358752	-2.8363843
119	0xc0388abc	-2.8834677
120	0xc026ed6c	-2.608241
121	0xc0324750	-2.7856026
122	0xc027f902	-2.6245732
123	0xc02da0af	-2.7129323
124	0xc01ed230	-2.4815788
125	0xc035d3ef	-2.8410604
126	0xc02bf526	-2.6868377
127	0xc01f2e86	-2.4872146

lstm.hh.mu_weight f4 [128, 32]
0	0xbe00e5a4	-0.12587601
1	0x3b3b3436	0.0028565056
2	0x3e03eabe	0.12882516
3	0x3dd2e49e	0.102975115
4	0xbdfcbc73	-0.12340631
5	0x3d73b13c	0.059495196
6	0xbdab6f58	-0.083708465
7	0xbdcc9a26	-0.09990339
8	0xbcccec90	-0.025015146
9	0x3e0755ae	0.13216278
10	0xbe39c8ce	-0.18143007
11	0xbbca8501	-0.006180406
12	0xbd71c685	-0.059027214
13	0xbe11a938	-0.14224708
14	0x3c9b195a	0.018932987
15	0xbd3b4a4a	-0.045725144
16	0xbdb22314	-0.08698097
17	0xbdb1113c	-0.08645865
18	0xbe68b95c	-0.22726959
19	0xbe31a40e	-0.17347738
20	0x3d97be69	0.07409365
21	0xbe27f0e7	-0.1640049
22	0x3dd096b4	0.10184994
23	0x3e530a58	0.20609415
24	0x3cc00098	0.023437783
25	0xbd053b68	-0.032527357
26	0x3d43770e	0.04772096
27	0xbcd3b8f7	-0.025845034
28	0x3d76c58d	0.060246993
29	0x3df734b7	0.120706014
30	0x3d6c242e	0.05765169
31	0x3e6242d6	0.22095808
32	0xbe2fe103	-0.17175679
33	0x3cfcecf5	0.030874709
34	0x3e3798d1	0.17929389
35	0xbcd0f202	-0.025506023
36	0x3e893563	0.26798543
37	0xbd925b63	-0.07146337
38	0xbd8b2b5c	-0.067953795
39	0xbe184f1b	-0.14873926
40	0xbe158821	-0.1460271
41	0x3dad82ab	0.084721886
42	0xbdc19385	-0.09451965
43	0x3db7b9a3	0.08970954
44	0xbe1a4866	-0.1506668
45	0x3e966e57	0.29381058
46	0x3e9ee7e1	0.31036285
47	0x3dc50e1e	0.09621833
48	0x3dff0003	0.12451174
49	0xbe595974	-0.2122553
50	0xbe262c34	-0.162278
51	0xbc3b8fd5	-0.011447866
52	0xbe4371a9	-0.19086327
53	0x3e47cfc6	0.19512853
54	0xbe0010e7	-0.12506448
55	0x3e7ad2ac	0.24494427
56	0x3cb34556	0.021883648
57	0xbd9a1cbd	-0.07525013
58	0x3e870be0	0.26376247
59	0x3e7cfb70	0.24705291
60	0xbec17a84	-0.37788785
61	0x3d69ec95	0.057110388
62	0xbe0b3cce	-0.13597414
63	0xbd9461fb	-0.07245251
64	0xbe63a221	-0.22229816
65	0xbe611068	-0.21978915
66	0x3e5cd325	0.2156492
67	0xbd2ae9b3	-0.04172678
68	0x3e375104	0.17901999
69	0x3e041a41	0.1290064
70	0xbdfe447f	-0.12415408
71	0xbe1f8402	-0.155777
72	0xbdcbd566	-0.09952812
73	0xbd812312	-0.06305517
74	0xbcfe45ef	-0.031039206
75	0x3d9fe853	0.07807984
76	0xbd816764	-0.06318548
77	0x3db4bbbe	0.088248715
78	0x3e69fe17	0.22850834
79	0xbdc69130	-0.09695661
80	0x3c96c28e	0.018403318
81	0xbe30674b	-0.17226903
82	0xbec17358	-0.37783313
83	0x3d8a94e5	0.06766681
84	0xbd90ac3f	-0.07064103
85	0xbd841ab5	-0.064504065
86	0xbe35ce76	-0.1775454
87	0x3dd54854	0.10414186
88	0x3e34f777	0.17672525
89	0x3cafe523	0.021471566
90	0x3e520495	0.2050956
91	0x3dca527e	0.098790154
92	0x3e193900	0.1496315
93	0xbc82f1ad	-0.01598438
94	0xbe32363f	-0.17403506
95	0xbd4429cf	-0.047891434
96	0x3e3d0069	0.18457188
97	0xbb0ea45f	-0.0021765453
98	0xbe17095c	-0.14749664
99	0x3e0b840a	0.13624588
100	0xbe11aa03	-0.1422501
101	0xbdc55eb1	-0.096372016
102	0x3e6a63b1	0.22889592
103	0x3d10f78d	0.035392333
104	0x3d0695a1	0.03285754
105	0x3e3c90de	0.18414637
106	0xbdde9836	-0.10868876
107	0x3da4a1e4	0.08038691
108	0xbcf9b75f	-0.030482946
109	0x3dac00e9	0.08398611
110	0xbe5a060e	-0.21291372
111	0x3e53f44e	0.20698664
112	0xbdae0bef	-0.0849837
113	0x3decc510	0.11561024
114	0xbe8e0d7e	-0.2774467
115	0xbd68538c	-0.0567203
116	0x3d3a3653	0.045461964
117	0x3e96c286	0.29445285
118	0x3de7b8ed	0.11314569
119	0xbda72415	-0.08161179
120	0xbe4ae9c2	-0.19815734
121	0x3e43d1ac	0.19122952
122	0xbb40530a	-0.002934637
123	0x3d40b58e	0.047048144
124	0x3e25d08b	0.16192834
125	0x3ca3503d	0.019935722
126	0xbd52acfa	-0.051434495
127	0xbd94f18a	-0.072726324
128	0x3d649196	0.055802904
129	0x3cce8c5c	0.025213413
130	0x3beb685a	0.0071840705
131	0x3dcc9971	0.09990204
132	0x3e08126f	0.13288282
133	0xbe779385	-0.24177368
134	0x3da19e73	0.0789155
135	0xbd94875e	-0.07252382
136	0x3d928bdb	0.071555816
137	0x3ceb3830	0.028713316
138	0xbe855d6e	-0.26047844
139	0xbe7456ae	-0.2386119
140	0x3df03591	0.11728967
141	0xbd880ad4	-0.0664269
142	0x3e65cf04	0.22442251
143	0xbd0231be	-0.03178572
144	0xbe3cec46	-0.18449506
145	0xbde6e71d	-0.1127455
146	0xbdae3a3c	-0.08507201
147	0x3ea43ed7	0.32079193
148	0xbdde54f8	-0.1085605
149	0x3c866bc7	0.016408814
150	0x3e2c7331	0.16840817
151	0xbdb7284d	-0.08943234
152	0xbec08d86	-0.37607974
153	0x3e25ea7b	0.16202728
154	0xbe0424c3	-0.12904648
155	0x3ce02992	0.027363572
156	0xbd171dcb	-0.036893647
157	0xbe8a32db	-0.26991925
158	0x3d6c764c	0.057730004
159	0x3d5eb17e	0.05436849
160	0xbe0de2fb	-0.13856117
161	0x3e66eb6e	0.22550747
162	0xbe1268a7	-0.14297734
163	0x3e281ca6	0.16417179
164	0x3c2437f7	0.010023109
165	0xbed9ee32	-0.4256454
166	0x3e87b0ca	0.26502067
167	0xbba4195b	-0.0050079054
168	0xbd49e7bd	-0.04929327
169	0x3e8210a8	0.25403333
170	0xbd47e1bb	-0.048799258
171	0xbdbec340	-0.09314585
172	0x3da41639	0.08012051
173	0xbc96683b	-0.018360248
174	0xbd841ef5	-0.06451217
175	0xbd1893e9	-0.037250433
176	0xbc84e001	-0.016220095
177	0x3dd12fad	0.102141716
178	0xbcad90c1	-0.021187188
179	0x3e85adf4	0.26109278
180	0x3e058307	0.13038264
181	0x3bf13ea1	0.0073622023
182	0x3e6801aa	0.22656885
183	0xbe8f8351	-0.28029874
184	0xbe7dafc3	-0.24774079
185	0x3dce0289	0.10059077
186	0xbe61b02f	-0.22039865
187	0xbdf97696	-0.121808216
188	0x3e6ab0b7	0.22918974
189	0xbede049d	-0.43362895
190	0x3e3dfd83	0.18553738
191	0xbe45b84c	-0.19308585
192	0xbea318bb	-0.31854805
193	0xbdcd02f9	-0.100103326
194	0x3d36231a	0.04446707
195	0xbc13b60d	-0.009015572
196	0x3e1b639d	0.15174718
197	0x3c8dd0e9	0.01731153
198	0xbea253b1	-0.31704476
199	0xb9efa90f	-0.0004571159
200	0xbe8dbd04	-0.2768327
201	0x38e933bc	0.00011119942
202	0x3c42caf0	0.011889204
203	0xbdb747cf	-0.08949243
204	0xbe1d19e3	-0.15341906
205	0x3b3491c6	0.0027552708
206	0x3e823006	0.25427264
207	0x3c58c3fb	0.013230319
208	0xbd7b0a5e	-0.061289184
209	0xbb121e54	-0.002229591
210	0xbe8f1ae7	-0.27950212
211	0xbdd2fd4e	-0.1030222
212	0xbe00c4aa	-0.12575021
213	0x3e222e9f	0.15838097
214	0xba68ff32	-0.0008888125
215	0xbc076f95	-0.008266349
216	0xbd97bbca	-0.07408865
217	0xbcad4b66	-0.021154117
218	0x3e0b7961	0.13620521
219	0xbc53aca6	-0.012919581
220	0xbe2e05b4	-0.16994363
221	0xbd6cd392	-0.057818957
222	0xbe2d38cb	-0.16916196
223	0xbe00fd54	-0.12596637
224	0x3c78f952	0.015196161
225	0xbda50ed5	-0.080594696
226	0x3d15a348	0.03653267
227	0xbdb7ddf0	-0.08977878
228	0x3e048063	0.129396
229	0x3e03f340	0.12885761
230	0x3d46a775	0.048499543
231	0xbdf20f2b	-0.11819299
232	0x3e5cc896	0.21560892
233	0x3d78c629	0.060735855
234	0xbe6951a2	-0.22785047
235	0x3e25bca9	0.1618525
236	0xbe505753	-0.20345812
237	0x3e1186ab	0.14211528
238	0x3e927cb6	0.28610772
239	0xbdc57734	-0.09641877
240	0xbba03a1c	-0.0048897397
241	0xbde10b2c	-0.10988459
242	0x3d86374c	0.06553516
243	0x3e79824b	0.24366109
244	0xbe8b0faf	-0.27160403
245	0x3d843ac2	0.0645652
246	0x3d694c2c	0.05695741
247	0xbd441f66	-0.047881506
248	0x3d11189b	0.035423856
249	0x3c82984a	0.015941758
250	0x3defbdd5	0.117061295
251	0x3ce9e106	0.028549682
252	0x3e501a26	0.20322475
253	0xbe46309d	-0.19354482
254	0xbcb3a5fa	-0.02192973
255	0x3c9c90e3	0.019112056

lstm.hh.rho_weight f4 [128, 32]
0	0xc04af6e3	-3.1713188
1	0xc038abb3	-2.8854797
2	0xc0488171	-3.1329005
3	0xc0284d39	-2.6297133
4	0xc04a4451	-3.1604197
5	0xc03aa863	-2.9165275
6	0xc03d2e78	-2.9559612
7	0xc034ebed	-2.8268998
8	0xc02da571	-2.7132227
9	0xc0397e3c	-2.8983297
10	0xc03ac9c6	-2.9185653
11	0xc044b71a	-3.0736756
12	0xc03c2461	-2.9397204
13	0xc03b7aae	-2.9293628
14	0xc034e4a9	-2.8264563
15	0xc04718d2	-3.11089
16	0xc02b90ab	-2.6807048
17	0xc03899d2	-2.8843884
18	0xc03a054c	-2.9065733
19	0xc03679dc	-2.8511877
20	0xc049b956	-3.151937
21	0xc04469ec	-3.068965
22	0xc031051a	-2.7659364
23	0xc025a786	-2.5883498
24	0xc0348eb7	-2.8212106
25	0xc041ca46	-3.0279708
26	0xc0329e38	-2.790907
27	0xc04e19ed	-3.2203324
28	0xc0377a81	-2.866852
29	0xc0347988	-2.8199177
30	0xc043c692	-3.0589948
31	0xc0429412	-3.0402875
32	0xc03647a0	-2.8481216
33	0xc03b54e1	-2.9270556
34	0xc02eedee	-2.733272
35	0xc034b079	-2.823271
36	0xc034428d	-2.816562
37	0xc03e0bb4	-2.9694643
38	0xc022837a	-2.5392747
39	0xc030a143	-2.7598426
40	0xc02e30a5	-2.721719
41	0xc032e337	-2.795118
42	0xc02e2421	-2.7209551
43	0xc0341626	-2.8138518
44	0xc02f9105	-2.7432263
45	0xc03942bd	-2.8946984
46	0xc02e4b89	-2.7233603
47	0xc031a9bb	-2.7759845
48	0xc0387818	-2.88233
49	0xc024ddca	-2.576037
50	0xc02ab937	-2.6675546
51	0xc03e754b	-2.975909
52	0xc0361925	-2.8452847
53	0xc034c782	-2.824677
54	0xc037686b	-2.8657482
55	0xc02dd013	-2.7158248
56	0xc035c297	-2.8400018
57	0xc02bacaf	-2.6824148
58	0xc032c219	-2.7930968
59	0xc04281a1	-3.039162
60	0xc03120be	-2.7676234
61	0xc034471c	-2.8168402
62	0xc02f9566	-2.7434936
63	0xc024b34b	-2.5734432
64	0xc034e38c	-2.8263884
65	0xc03804a0	-2.8752823
66	0xc03bd49c	-2.9348516
67	0xc03c8df4	-2.9461641
68	0xc04567c6	-3.0844588
69	0xc03a2692	-2.9086041
70	0xc036f822	-2.8588948
71	0xc03888d0	-2.8833504
72	0xc031a346	-2.7755904
73	0xc045aeff	-3.088806
74	0xc03ffe4e	-2.9998965
75	0xc04388f0	-3.055233
76	0xc035ad35	-2.8386967
77	0xc0301a85	-2.7516186
78	0xc03c3516	-2.94074
79	0xc0345f45	-2.8183148
80	0xc0363e91	-2.8475688
81	0xc04b60ef	-3.1777914
82	0xc0435eb9	-3.0526564
83	0xc030f387	-2.7648637
84	0xc038d67a	-2.8880906
85	0xc02fabfe	-2.7448726
86	0xc03da475	-2.9631627
87	0xc03a9241	-2.9151766
88	0xc0389751	-2.8842356
89	0xc03bcd4d	-2.9344056
90	0xc037d983	-2.8726509
91	0xc034ce86	-2.8251052
92	0xc024a20b	-2.5723903
93	0xc03f91b7	-2.9932687
94	0xc03b5190	-2.9268532
95	0xc02f4f27	-2.739206
96	0xc03e7e54	-2.9764605
97	0xc03e200e	-2.9707065
98	0xc03dc5bb	-2.9651935
99	0xc031073a	-2.766066
100	0xc03c7ff9	-2.9453108
101	0xc0407585	-3.0071728
102	0xc03e95a8	-2.9778843
103	0xc0355ede	-2.8339152
104	0xc02e8068	-2.7265873
105	0xc0379f37	-2.8690927
106	0xc03602ab	-2.8439128
107	0xc03b11a3	-2.9229515
108	0xc03759e9	-2.8648627
109	0xc03317f9	-2.7983382
110	0xc033e0da	-2.8105989
111	0xc033c549	-2.8089163
112	0xc0379a34	-2.8687868
113	0xc036ddec	-2.857295
114	0xc0381c9e	-2.8767467
115	0xc03ae7b9	-2.9203932
116	0xc03d1520	-2.9544144
117	0xc03814ef	-2.8762777
118	0xc0393f61	-2.8944933
119	0xc039654c	-2.8968077
120	0xc03cc52e	-2.949535
121	0xc03ec2e7	-2.980646
122	0xc03e4d53	-2.9734695
123	0xc03b7289	-2.9288657
124	0xc044953a	-3.071608
125	0xc042a3d0	-3.0412483
126	0xc0374221	-2.8634112
127	0xc0343b9d	-2.8161385
128	0xc02ce17f	-2.7012632
129	0xc040944e	-3.0090518
130	0xc0430f67	-3.047815
131	0xc0333633	-2.800183
132	0xc0371728	-2.8607883
133	0xc036c3b2	-2.8556943
134	0xc03482cc	-2.8204832
135	0xc04007d8	-3.0004787
136	0xc02ba0e1	-2.6816943
137	0xc02fa96b	-2.7447155
138	0xc0390c17	-2.891363
139	0xc03c9ecc	-2.9471922
140	0xc04dc676	-3.215238
141	0xc03d9a72	-2.9625516
142	0xc0467cbe	-3.1013637
143	0xc042476d	-3.0356095
144	0xc04483ba	-3.07054
145	0xc03dfbca	-2.968493
146	0xc044e341	-3.0763705
147	0xc04290ff	-3.0400999
148	0xc0467a19	-3.1012022
149	0xc043bc70	-3.0583763
150	0xc045f75e	-3.093223
151	0xc03364d2	-2.8030286
152	0xc02dd713	-2.716252
153	0xc024bd49	-2.574053
154	0xc03a25d9	-2.90856
155	0xc038eeda	-2.8895783
156	0xc03dc63e	-2.9652247
157	0xc0328a11	-2.789677
158	0xc03ab9e1	-2.9175951
159	0xc037a145	-2.869218
160	0xc0406344	-3.0060587
161	0xc03eafe7	-2.9794862
162	0xc046f5d6	-3.1087546
163	0xc03703bb	-2.8596027
164	0xc03d2e99	-2.955969
165	0xc04ff1f4	-3.2491426
166	0xc0354e9c	-2.832923
167	0xc0391490	-2.89188
168	0xc048c738	-3.1371593
169	0xc03ac03f	-2.9179838
170	0xc03387c7	-2.8051622
171	0xc03a24d3	-2.9084976
172	0xc0401c00	-3.001709
173	0xc034a37b	-2.822478
174	0xc03fa4c3	-2.9944313
175	0xc037c678	-2.8714886
176	0xc03c84be	-2.945602
177	0xc02c8aba	-2.6959672
178	0xc03b07c4	-2.922349
179	0xc032790f	-2.7886388
180	0xc02ebc40	-2.7302399
181	0xc041b230	-3.0265007
182	0xc037a9b7	-2.8697336
183	0xc03ccea2	-2.9501119
184	0xc034937c	-2.8215017
185	0xc0451f33	-3.0800292
186	0xc048d8c7	-3.138231
187	0xc0430176	-3.0469642
188	0xc03c59fd	-2.9429924
189	0xc0419b7b	-3.0251148
190	0xc04f6b67	-3.2409303
191	0xc02cbd70	-2.6990623
192	0xc044151a	-3.063788
193	0xc03d1878	-2.9546185
194	0xc0367c90	-2.8513527
195	0xc0412885	-3.018098
196	0xc03e0217	-2.9688776
197	0xc0330739	-2.7973158
198	0xc03693e2	-2.852776
199	0xc039931b	-2.8996036
200	0xc03f1a68	-2.9859867
201	0xc052aa31	-3.2916377
202	0xc03db4a0	-2.9641495
203	0xc043bffc	-3.0585928
204	0xc042ea05	-3.0455334
205	0xc042b5e0	-3.0423508
206	0xc03012d4	-2.7511492
207	0xc048cf55	-3.1376545
208	0xc035b643	-2.8392494
209	0xc0364dc0	-2.8484955
210	0xc03e93c7	-2.9777696
211	0xc03e138b	-2.9699428
212	0xc035e416	-2.8420463
213	0xc03ebd21	-2.9802935
214	0xc031217a	-2.7676682
215	0xc0382421	-2.8772051
216	0xc03ef45f	-2.9836652
217	0xc042eaf6	-3.0455909
218	0xc03b3706	-2.9252334
219	0xc04153d5	-3.0207417
220	0xc04d39a3	-3.2066429
221	0xc0435258	-3.0519009
222	0xc0381f51	-2.8769114
223	0xc04aa24e	-3.1661563
224	0xc0340b7c	-2.813201
225	0xc03bac3f	-2.932388
226	0xc03db7fd	-2.9643548
227	0xc044fdf2	-3.0779996
228	0xc0387775	-2.882291
229	0xc038d78d	-2.8881562
230	0xc03743ce	-2.8635135
231	0xc0351ff1	-2.8300745
232	0xc02da85d	-2.713401
233	0xc0377b23	-2.8668907
234	0xc02f7f5e	-2.7421489
235	0xc03da4a5	-2.963174
236	0xc03ab0b2	-2.9170346
237	0xc037de4e	-2.8729434
238	0xc030e196	-2.7637687
239	0xc027604e	-2.615253
240	0xc0393169	-2.8936408
241	0xc02e6681	-2.7250063
242	0xc0377911	-2.8667643
243	0xc0396de7	-2.897333
244	0xc02d0609	-2.7034934
245	0xc03ab461	-2.9172595
246	0xc0306be6	-2.7565856
247	0xc028df96	-2.6386466
248	0xc030a9e0	-2.7603683
249	0xc039974e	-2.89986
250	0xc03e8832	-2.9770627
251	0xc0367b00	-2.8512573
252	0xc039d214	-2.9034472
253	0xc0319173	-2.7745025
254	0xc0362703	-2.846131
255	0xc02889f2	-2.6334195

lstm.hh.mu_bias f4 [128]
0	0x3e8f2bde	0.27963156
1	0x3e78afe6	0.2428585
2	0x3dd1fc82	0.1025324
3	0x3d2f6532	0.042821117
4	0x3e037a86	0.12839708
5	0xbe488ee4	-0.19585758
6	0xbd0871cd	-0.033311654
7	0x3e91c376	0.28469437
8	0x3d2f0d5b	0.042737346
9	0x3e4917a1	0.1963792
10	0x3cd3f033	0.025871372
11	0x3d7a4a2e	0.0611059
12	0x3e2c4aa5	0.1682535
13	0xbd7a3443	-0.061084997
14	0x3e3cb286	0.18427476
15	0xbe111382	-0.14167598
16	0xbd814411	-0.06311811
17	0x3e81dd6f	0.25364253
18	0x3e40d4c9	0.18831171
19	0x3e077769	0.13229145
20	0xbe32c32f	-0.17457269
21	0x3e7d31d0	0.24726033
22	0x3e61a92d	0.22037192
23	0x3dcc797e	0.0998411
24	0x3d8a6455	0.06757418
25	0x3dc05310	0.09390843
26	0x3d07c15a	0.03314338
27	0x3ce260e7	0.027634097
28	0x3e0c5fdd	0.13708444
29	0x3e1ce288	0.1532079
30	0x3ebcf4f0	0.36905622
31	0x3dea0fd2	0.11428799
32	0x3dce4347	0.10071426
33	0x3e182d87	0.14861117
34	0x3d33b593	0.043874335
35	0xbd9d8aec	-0.07692513
36	0xbda7a354	-0.08185449
37	0x3e7c9418	0.24665868
38	0x3e28d095	0.16485818
39	0x3ea96137	0.33081982
40	0xbe12fac1	-0.14353468
41	0x3e013b40	0.12620258
42	0xbe0ebd42	-0.13939384
43	0x3e524710	0.2053492
44	0x3e213e77	0.15746485
45	0xbc8ed76c	-0.017436706
46	0xbbb27785	-0.0054463767
47	0xbda7aa1e	-0.08186744
48	0xbce4da82	-0.027936224
49	0x3e7ff920	0.24997377
50	0x3e1d8ba9	0.15385307
51	0x3c4b30a5	0.0124017345
52	0x3e0d1e92	0.13781193
53	0x3dc1c600	0.09461594
54	0x3c8a5921	0.016888203
55	0x3e59b870	0.21261764
56	0x3e8e2715	0.27764192
57	0x3d95cb89	0.07314212
58	0x3e7c6f9e	0.24651954
59	0x3e181578	0.1485194
60	0x3e75e8ae	0.24014542
61	0xbd74a511	-0.059727732
62	0x3d62eeaa	0.05540339
63	0x3e8899af	0.2667975
64	0xbd8a707b	-0.06759735
65	0xbe7abd14	-0.2448619
66	0x3e5375de	0.20650432
67	0xbe70d412	-0.23518398
68	0x3e448aca	0.19193569
69	0x3e2f9a6c	0.17148751
70	0xbe1c3957	-0.15256248
71	0xbe5d6691	-0.21621157
72	0xbd85bb64	-0.065298826
73	0x3ccdc61c	0.02511888
74	0xbdc6effc	-0.09713742
75	0xbd528bac	-0.051402733
76	0x3d342b00	0.04398632
77	0x3df6d66f	0.12052619
78	0x3e0b854a	0.13625064
79	0x3e4d772b	0.2006499
80	0xbd1dd1b5	-0.03853007
81	0xbe456237	-0.19275747
82	0xbe2c6f4e	-0.16839334
83	0x3c201782	0.00977123
84	0x3dd66871	0.10469139
85	0x3d99300b	0.074798666
86	0xbe0d6ee3	-0.13811831
87	0x3e9e5fba	0.3093241
88	0x3e53a75d	0.20669313
89	0xbe2d6f45	-0.16936977
90	0x3e4b8003	0.19873051
91	0x3e60ff1c	0.21972317
92	0xbe604f2e	-0.21905205
93	0xbd4f0b6c	-0.050548002
94	0xbeb3143d	-0.34976378
95	0xbd810c82	-0.06301214
96	0x3e0f3140	0.13983631
97	0x3e24f140	0.16107655
98	0x3e766d83	0.24065213
99	0x3eab3365	0.33437648
100	0x3ebbd099	0.36682585
101	0x3edc82bf	0.430685
102	0x3e9fe6f3	0.31230888
103	0x3e5e28c2	0.21695235
104	0x3e768ecc	0.2407791
105	0x3e9210bb	0.2852839
106	0x3e70f246	0.2352992
107	0x3e4502b3	0.19239311
108	0x3ec9957b	0.39371857
109	0x3e8095da	0.25114328
110	0x3ea7abfb	0.32748398
111	0x3eb9a616	0.36259526
112	0x3e159fea	0.14611784
113	0x3d9b2211	0.07574857
114	0x3de6279f	0.11238026
115	0x3e521254	0.20514804
116	0x3e75cf31	0.24004818
117	0x3ef0ee8f	0.47057006
118	0x3e740926	0.23831615
119	0x3e03de74	0.12877828
120	0x3e2ef2a5	0.17084749
121	0x3d938f7b	0.07205101
122	0x3ee5ef94	0.44909346
123	0x3e6cbe90	0.23119569
124	0x3ebefe2d	0.37303296
125	0x3e594f6f	0.21221708
126	0x3e964c8b	0.29355273
127	0x3e68dc15	0.22740205

lstm.hh.rho_bias f4 [128]
0	0xc030721b	-2.7569644
1	0xc023dca5	-2.560342
2	0xc012b495	-2.2922719
3	0xc03314f6	-2.7981544
4	0xc031c8ea	-2.7778878
5	0xc0266ad7	-2.600271
6	0xc02006e4	-2.5004206
7	0xc0241fb3	-2.5644348
8	0xc026cc81	-2.606232
9	0xc0160174	-2.3438387
10	0xc0161c59	-2.3454802
11	0xc034ca48	-2.8248463
12	0xc02304b9	-2.5471632
13	0xc027cffc	-2.6220694
14	0xc0304c33	-2.7546508
15	0xc02a7034	-2.6630983
16	0xc02aec6b	-2.6706798
17	0xc018488e	-2.3794284
18	0xc02ca22e	-2.6973987
19	0xc01c748b	-2.4446132
20	0xc037a21a	-2.869269
21	0xc0322e9f	-2.7840955
22	0xc02090a6	-2.5088286
23	0xc028face	-2.640308
24	0xc0381a14	-2.8765917
25	0xc0255eaf	-2.583904
26	0xc018b552	-2.386067
27	0xc02add18	-2.6697445
28	0xc020f0fc	-2.5147085
29	0xc0274872	-2.6137967
30	0xc026584e	-2.5991397
31	0xc0255e4e	-2.583881
32	0xc019b2a0	-2.4015274
33	0xc0023a13	-2.0347946
34	0xc01962f7	-2.3966653
35	0xc0329978	-2.790617
36	0xc030c463	-2.7619865
37	0xc037abf0	-2.8698692
38	0xc019df5a	-2.4042573
39	0xc01931d1	-2.3936656
40	0xc028e757	-2.6391199
41	0xc035a2d8	-2.8380642
42	0xc03791de	-2.868278
43	0xc0365d8f	-2.8494604
44	0xc03f3a29	-2.9879248
45	0xc0262474	-2.595975
46	0xc02c9f0e	-2.697208
47	0xc02137a4	-2.519021
48	0xc030e40c	-2.7639189
49	0xc00e321d	-2.2218087
50	0xc01b4d7f	-2.426605
51	0xc03cbbdb	-2.9489658
52	0xc0317a52	-2.7730908
53	0xc01b6f03	-2.4286506
54	0xc037be8f	-2.8710058
55	0xc028bcd8	-2.636526
56	0xc02ca919	-2.697821
57	0xc02ee18a	-2.7325158
58	0xc00e1133	-2.2197998
59	0xc0079a99	-2.118811
60	0xc007f07c	-2.124053
61	0xc0253926	-2.581613
62	0xc02420f6	-2.5645118
63	0xc02e3b98	-2.7223873
64	0xc03d5f86	-2.9589553
65	0xc02d6046	-2.709001
66	0xc0340902	-2.8130498
67	0xc0348563	-2.8206413
68	0xc030bb20	-2.7614212
69	0xc0387d98	-2.8826656
70	0xc02dd645	-2.716203
71	0xc02a566e	-2.6615252
72	0xc03a7d35	-2.913892
73	0xc02e86d3	-2.726979
74	0xc037e245	-2.8731854
75	0xc0419fb3	-3.0253723
76	0xc03a848e	-2.9143405
77	0xc03914fe	-2.8919063
78	0xc0340077	-2.8125284
79	0xc0319752	-2.7748609
80	0xc03e8d04	-2.977357
81	0xc040ed4c	-3.0144835
82	0xc0387a12	-2.8824506
83	0xc03909f7	-2.8912332
84	0xc03cdf6b	-2.9511364
85	0xc042f518	-3.0462093
86	0xc038f27d	-2.8898003
87	0xc0409964	-3.0093622
88	0xc03ea6d1	-2.9789317
89	0xc038dcb7	-2.8884714
90	0xc02aa7d9	-2.6664946
91	0xc029e0b9	-2.654341
92	0xc03a4550	-2.9104805
93	0xc037ea9e	-2.873695
94	0xc0396433	-2.8967407
95	0xc0368bce	-2.852283
96	0xc02edf14	-2.7323656
97	0xc01dc3a9	-2.4650671
98	0xc0283fa6	-2.6288848
99	0xc012436e	-2.2853656
100	0xc01bcba9	-2.4343054
101	0xc02349d1	-2.5513804
102	0xc0277537	-2.6165292
103	0xc01f3251	-2.487446
104	0xc02587e1	-2.5864184
105	0xc02eb700	-2.7299194
106	0xc01308cf	-2.2974126
107	0xc019d414	-2.4035692
108	0xc02250e1	-2.5361865
109	0xc026536b	-2.5988414
110	0xc01c7ef3	-2.4452484
111	0xc0024545	-2.0354779
112	0xc021a102	-2.5254521
113	0xc02c3fd5	-2.691396
114	0xc033d935	-2.8101323
115	0xc023918a	-2.555758
116	0xc01da981	-2.4634707
117	0xc027bff2	-2.6210904
118	0xc030ce4d	-2.7625916
119	0xc029c180	-2.6524353
120	0xc023cbe5	-2.5593197
121	0xc0268d7a	-2.602385
122	0xc02d7a41	-2.7105868
123	0xc02b4bad	-2.676494
124	0xc0303841	-2.7534335
125	0xc02fd886	-2.7475905
126	0xc0232903	-2.5493782
127	0xc01fca87	-2.4967363

l1.mu_weight f4 [16, 32]
0	0xbedaf5bc	-0.42765605
1	0xbf214b22	-0.6300527
2	0x3f0c1fba	0.5473591
3	0xbf053ac3	-0.5204279
4	0x3f01b4e7	0.5066666
5	0x3ef24b76	0.47323197
6	0xbf169d4c	-0.58833766
7	0xbf1b1efa	-0.6059414
8	0xbeff2510	-0.49832964
9	0x3f2b2f9a	0.6686951
10	0xbf08179e	-0.53161037
11	0x3ec398b0	0.3820243
12	0xbef12b77	-0.47103474
13	0x3f10b069	0.5651918
14	0x3f39b355	0.72539264
15	0x3f1e772a	0.6190058
16	0xbf1bf937	-0.60927147
17	0xbee42118	-0.445565
18	0xbf0490a7	-0.5178322
19	0x3f23640a	0.6382452
20	0xbed7de7d	-0.42161933
21	0x3f0c85c0	0.54891586
22	0x3eb13943	0.34614
23	0x3ec8de73	0.39232215
24	0xbebc0118	-0.36719584
25	0xbf1c2df1	-0.610076
26	0x3f137ac3	0.57609195
27	0x3ef280ea	0.4736398
28	0xbf4260b3	-0.759288
29	0xbf16a397	-0.5884337
30	0xbf08a525	-0.5337699
31	0xbecc9d5d	-0.3996381
32	0xbee3ae80	-0.4446907
33	0xbef5d14e	-0.4801125
34	0x3f07f567	0.5310883
35	0xbef9df4a	-0.4880317
36	0x3eefe995	0.46857896
37	0x3e885755	0.2662913
38	0xbf0d94a2	-0.5530492
39	0xbec27458	-0.37979388
40	0xbea981b2	-0.33106762
41	0x3ed36026	0.41284293
42	0xbef7d58e	-0.48405117
43	0x3ef94a57	0.4868953
44	0xbe9bdd86	-0.30442446
45	0x3f1c3353	0.61015815
46	0x3efbf18f	0.49207732
47	0x3f0d2227	0.5513024
48	0xbedbc2d1	-0.4292207
49	0xbf127949	-0.57216316
50	0xbee635e3	-0.44962987
51	0x3f16cbeb	0.58904904
52	0xbec85fa6	-0.39135474
53	0x3efc0187	0.49219915
54	0x3e9bc5eb	0.30424437
55	0x3ec57d94	0.3857237
56	0xbf06f793	-0.5272152
57	0xbf0192a2	-0.5061437
58	0x3f11ee8e	0.5700463
59	0x3ed06bbc	0.40707195
60	0xbeecdd06	-0.46262378
61	0xbf3ab67d	-0.72934705
62	0xbf0cf851	-0.550664
63	0xbf196a0f	-0.5992746
64	0xbebc711a	-0.3680504
65	0xbea2bd86	-0.3178522
66	0x3f13c91c	0.57728744
67	0xbf03250d	-0.5122841
68	0x3f12c384	0.57329583
69	0x3f07fc7c	0.53119636
70	0xbf1436c4	-0.57896066
71	0xbf09feb0	-0.5390425
72	0xbf0f1c32	-0.559024
73	0x3f04f5b8	0.5193744
74	0xbf3792fb	-0.7170865
75	0x3ec553fd	0.3854064
76	0xbf1fa29c	-0.623575
77	0x3f3d7fec	0.7402332
78	0x3f2ac11b	0.66700906
79	0x3f03980a	0.5140387
80	0xbf11b114	-0.56910825
81	0xbf07778c	-0.5291679
82	0xbf116117	-0.5678877
83	0x3f0d83c8	0.5527921
84	0xbf32112c	-0.6955745
85	0x3f1b8bcd	0.60760194
86	0x3e5f67ab	0.2181689
87	0x3f5267a7	0.8218941
88	0xbf2ec191	-0.6826411
89	0xbf291a73	-0.66055983
90	0x3f242d17	0.641313
91	0x3f03509f	0.51294893
92	0xbf13dd6d	-0.57759744
93	0xbf27d7ad	-0.6556347
94	0xbf0f51ba	-0.5598408
95	0xbf30de38	-0.6908908
96	0xbf0b029a	-0.54300845
97	0xbf1ee5a6	-0.62069166
98	0x3e838077	0.25683948
99	0xbec2e7fc	-0.38067615
100	0x3ef5d79d	0.48016062
101	0x3ea59512	0.32340294
102	0xbf2bf4d2	-0.6717044
103	0xbf0e86af	-0.5567426
104	0xbec3bce6	-0.38230056
105	0x3e92f8d1	0.28705457
106	0xbf3d0229	-0.7383142
107	0x3ee0d288	0.43910623
108	0xbefedbf7	-0.49777195
109	0x3f0365e2	0.51327336
110	0x3ee715c6	0.451338
111	0x3f1353cb	0.5754973
112	0xbf02a473	-0.5103218
113	0xbf15cf31	-0.58519274
114	0xbf0c53ff	-0.5481567
115	0x3f11fa63	0.57022685
116	0xbef248c4	-0.4732114
117	0x3f1c71f9	0.6111141
118	0x3e43230f	0.19056343
119	0x3f060ba6	0.52361524
120	0xbf004463	-0.5010435
121	0xbee0e1dc	-0.43922317
122	0x3ef6363c	0.48088253
123	0x3f352541	0.7075997
124	0xbecd29f2	-0.40071064
125	0xbf3256d1	-0.6966372
126	0xbed9efdb	-0.42565808
127	0xbf2410d2	-0.64088166
128	0xbf295e7d	-0.661598
129	0xbf28066c	-0.656348
130	0x3f06de10	0.5268259
131	0xbf2088b9	-0.6270862
132	0x3f0d1023	0.5510275
133	0x3f008a82	0.50211346
134	0xbf12e8ef	-0.5738668
135	0xbf133092	-0.5749599
136	0xbf311cdb	-0.69184655
137	0x3f3c126d	0.73465616
138	0xbf17188e	-0.5902184
139	0x3ee9c842	0.45660597
140	0xbf01e007	-0.50732464
141	0x3ecea736	0.40361947
142	0x3ee62fd1	0.44958356
143	0x3efc1186	0.4923212
144	0xbf16b3fa	-0.5886837
145	0xbf0f0f86	-0.5588306
146	0xbeb15976	-0.34638566
147	0x3f37f0a2	0.7185155
148	0xbf05c63c	-0.52255607
149	0x3f1ef44c	0.6209152
150	0x3ebc0c73	0.36728248
151	0x3f284262	0.6572629
152	0xbef8f383	-0.48623285
153	0xbf014bac	-0.5050609
154	0x3f10121e	0.56277645
155	0x3f0ea017	0.5571303
156	0xbf24ebb0	-0.6442213
157	0xbebbce3f	-0.3668079
158	0xbf22e836	-0.63635576
159	0xbeea7455	-0.4579188
160	0xbef94038	-0.48681808
161	0xbefb1f26	-0.49047202
162	0x3f2d1080	0.676033
163	0xbefa66db	-0.48906597
164	0x3f10476b	0.56358975
165	0x3ed6ed0b	0.41977724
166	0xbf05d064	-0.52271104
167	0xbefda2db	-0.4953831
168	0xbf052137	-0.52003807
169	0x3efe7018	0.49694896
170	0xbf272064	-0.652838
171	0x3ed3e49a	0.41385347
172	0xbee7c5b5	-0.45268026
173	0x3f2d70e6	0.67750394
174	0x3f23934b	0.63896626
175	0x3f0d3a4f	0.55167097
176	0xbeb50ddc	-0.35362136
177	0xbf0f15d4	-0.5589268
178	0xbf291f91	-0.6606379
179	0x3efc94f2	0.49332386
180	0xbea2a98d	-0.31769982
181	0x3f41b1d2	0.7566196
182	0x3ec117d7	0.377135
183	0x3eaf9eef	0.34300944
184	0xbf22b2bc	-0.63553977
185	0xbf0ffd01	-0.5624543
186	0x3ee1688f	0.44025084
187	0x3f1164f2	0.56794655
188	0xbf28c0d9	-0.6591926
189	0xbf118d87	-0.5685658
190	0xbf2eea2c	-0.6832607
191	0xbf077e51	-0.5292712
192	0xbeed26ec	-0.46318758
193	0xbeff2cfb	-0.49839005
194	0x3eec43f6	0.461456
195	0xbf086c2b	-0.5329005
196	0x3ef123e4	0.47097695
197	0x3f10fb39	0.56633335
198	0xbebe2c84	-0.37143338
199	0xbefd0314	-0.4941641
200	0xbf0fca84	-0.5616839
201	0x3f0dc281	0.55374914
202	0xbee3414e	-0.4438576
203	0x3f0f6a9e	0.5602206
204	0xbf062184	-0.5239489
205	0x3efb8f71	0.49132875
206	0x3f1bb421	0.6082173
207	0x3ef41c3f	0.476778
208	0xbf127407	-0.57208294
209	0xbeca5775	-0.3951985
210	0xbf07eb68	-0.53093576
211	0x3ed027a3	0.4065524
212	0xbf27054b	-0.6524245
213	0x3edfa003	0.43676767
214	0x3e7871d0	0.24262166
215	0x3ebe9090	0.37219667
216	0xbee08e5d	-0.43858615
217	0xbf03c7a7	-0.5147652
218	0x3ee8dc6d	0.45480672
219	0x3ed22f6f	0.41051814
220	0xbef32aa9	-0.47493485
221	0xbf0c3736	-0.54771745
222	0xbf1ecc0a	-0.6203009
223	0xbf0fff41	-0.5624886
224	0xbedf896d	-0.43659535
225	0xbeaea193	-0.34107646
226	0x3f3a54a4	0.727854
227	0xbedfb19d	-0.43690196
228	0x3f142eec	0.578841
229	0x3efa3f71	0.48876527
230	0xbf0bcc43	-0.54608554
231	0xbf06d99b	-0.5267579
232	0xbf190ede	-0.5978831
233	0x3f2457a3	0.64196223
234	0xbf105f7d	-0.56395704
235	0x3eff79ee	0.49897712
236	0xbeec9825	-0.46209827
237	0x3ec68678	0.38774467
238	0x3f09970f	0.5374612
239	0x3f0fcce6	0.56172025
240	0xbf2b8d0f	-0.67012113
241	0xbf08649c	-0.5327852
242	0xbf184965	-0.5948699
243	0x3f10e585	0.5660022
244	0xbf17b511	-0.5926066
245	0x3f10d38f	0.5657281
246	0x3e078481	0.1323414
247	0x3f1667b4	0.5875199
248	0xbf1d5f6a	-0.61473715
249	0xbedd709a	-0.4324997
250	0x3f11e332	0.569873
251	0x3f02fc21	0.5116597
252	0xbf131716	-0.574571
253	0xbf22921b	-0.6350419
254	0xbf3c92e1	-0.7366162
255	0xbf08fab5	-0.5350755
