BNN/model_states/BNN_model_state_FD001_denoised_CF_RUL_increase_combined.pt (torch, 57845 bytes, 14 tensors)

lstm.ih.mu_weight f4 [128, 14]
00000000: 9355 a53d 784e 9a3c 6df4 f1bc a1ee 82bd
00000010: 136c babb feed 043c 7437 cebd 99c5 9ebd
00000020: b013 37be 498a 473e f86e 09be 04f9 6dbe
00000030: 5428 37bd 6c51 353d 51f5 49be 6b71 acbc
00000040: 2f8c 6c3d 46cf ce3d ec02 d8bd 77a5 bebd
00000050: 4e4e 39be f417 513e 5c32 50bd f8f8 f03d
00000060: 3930 0b3d 0700 dd3c d415 f93d 4395 733e
00000070: c74f 52bd f8da 9a3d b986 2a3b e3f5 183d
00000080: aa07 05be f021 d7bd c38e a43b 16a5 723e
00000090: ed56 163d 6496 80bd 8e9e aa3c d586 13be
000000a0: c7b9 5cbe c365 c13d e7bb 92be 3ab3 48be
000000b0: 28d0 68be d031 b93e 40eb 9bbe d781 dd3c
000000c0: 04b8 63be a2cc 4e3d 0086 79bd 70bd ed3d
000000d0: 7f2b 46be 983c 963b 32bc 023e 285d 533d
000000e0: 36ee 06be 5d9d d03d 661a e93d 127d 5ebd
000000f0: 0c07 9b3d e24b bbbb c31e 343c d468 433d
00000100: cad6 723e 42e8 2abd 4eb4 9c3e f9b7 d13d
00000110: fbb3 b7bd d55a 17be 97e3 c8be 7222 27be
00000120: a512 91be ce4d bc3e 09fb 53be 739d 2d3e
00000130: 886f 6abe e5ff 103e 296f bebe 9b14 e93b
00000140: f6a0 7ebe c64b 57be bb65 fe3d a989 353e
00000150: d72e d0bd 8ada 84bd 8e1b 223d aaa8 053e
00000160: f339 473d ad7e 203d 1894 3fbe 0c57 5b3e
00000170: 427f 0cbe 8ac9 d5bb b88a 923c bcd8 2fbd
00000180: 62f0 37be e274 083e c223 543b 36a5 1b3c
00000190: c1f3 bd3d a1df 2b3d 95e3 be3d 2fd8 6cbe
000001a0: cce9 46bc 01dd 9e3d 8663 ed3c 68f0 03be
000001b0: 2a8e e03c 0b66 dc3d 09b9 90bc 14c4 62bd
000001c0: 5428 72be 4606 54bd 7a8c eabd 7d2c cb3d
000001d0: 5979 15ba e50d 50bd 6eb3 e8bd 500f b43d
000001e0: 20fb d5bd 8f64 8cbd f382 b3bc 34a2 e53c
000001f0: 9ce4 093e 6e56 cf3d 541a acbd ff0e 24bd
00000200: 3536 d23d 6118 593e 63f8 9abe 3e53 c8bd
00000210: 8de7 9dbd 7e13 7d3e 22f6 fb3b 7e57 1f3e
00000220: 9a5d dfba a7f2 c5bd a81c 41bc 3eff 233e
00000230: e8a5 01be eb5b 4a3d c949 efbd cf99 cf3d
00000240: 3b6c dcbd 6e52 b33d 548a 113e 4a2e 853e
00000250: fac7 823d b12e fabb baad 37be 197d 9abd
00000260: 07ff 963d 948d 0f3e 1105 d0bd c995 023e
00000270: 3de3 7cbe 543e 99bd 899c d4bd fed4 103e
00000280: 158c 17be 8bf8 7d3c 4f30 c93d cd25 84bd
00000290: 7fc8 57bc 92e6 d8bd 995f 32bb 5674 15be
000002a0: f279 7cbe 0698 09be 9188 c6bd d367 583e
000002b0: 778a 8ebe 1fe9 163d 4652 4cbe ee32 653e
000002c0: d20f 13be 131f ed3c c76b 58be 31fa b13c
000002d0: a69f 643d 5079 c6bd 0159 1bbe 7abf 46be
000002e0: a450 c2bd e391 f73b 0d62 4cbe 87dc e4bc
000002f0: 8d0d 00bc 1a3e 903b 4c54 d03d 54c2 143d
00000300: 034b fd3d 5d78 85bd 0dde 3f3e 8abd 753d
00000310: d0bb a1be 3046 cbbd ab3b f7bd 3a3a 963e
00000320: a41f 013d 4678 413e 6d83 2abe b77a 1c3e
00000330: 5aa1 0c3d 7096 303d 813a 40bd 759c 23be
00000340: 07a3 043d ee83 a83d fc24 1bbd 014f ac3a
00000350: cce3 323d 94c2 8fbc c9f9 d03d 81e7 ba3d
00000360: 7411 c33c eefc 173e f5ed 8b3d 0d4f a43e
00000370: f529 023d 1687 aabd 42dd b83c 79e4 063e
00000380: 39d6 333c 72d8 103e 2749 19bd 7acd a5bd
00000390: 8fde 24be 5aff 853b d0b5 96bc 3954 5f3e
000003a0: 558b bfbd a43b c8bd 01a5 71be 22bf 1ebe
000003b0: 511d b33d a762 a03d 7e56 173d aec7 083e
000003c0: 2da4 283d 999c c0bd a12a 2b3b 24a9 12bd
000003d0: 4fcc af3c 6be0 d9bd 4458 293d e251 bd3d
000003e0: 5829 683e 2275 403c b827 89bc 06fe 85bd
000003f0: 90b1 023d 82aa d13c 97a8 bf3d ca39 c83c
0.080729626 0.018836245 -0.029535497 -0.06393171 -0.005689153 0.008113382 -0.100691706 -0.077525325
-0.17878604 0.19486345 -0.13421237 -0.23239523 -0.044716194 0.044267103 -0.19722487 -0.021050176
0.057750877 0.10098128 -0.10547432 -0.09308904 -0.18096277 0.20419294 -0.050829276 0.11766237
0.033981536 0.026977552 0.121623665 0.23787408 -0.051345613 0.07561296 0.0026020242 0.03734387
-0.12991205 -0.1050452 0.0050219013 0.23695788 0.036703993 -0.06278685 0.020827558 -0.14406903
-0.21555243 0.09443238 -0.28658983 -0.1959962 -0.22735655 0.36170816 -0.3045292 0.027039452
-0.22238165 0.05048812 -0.060918808 0.11608398 -0.1935253 0.00458486 0.12767103 0.051602513
-0.13176808 0.10186265 0.11381988 -0.054318495 0.075697035 -0.005715833 0.010993662 0.047707394
0.23714748 -0.041725405 0.30606312 0.10240168 -0.089698754 -0.14780743 -0.39236137 -0.16321734
-0.28334537 0.3677811 -0.20701231 0.16954593 -0.22894108 0.14160116 -0.37194183 0.007113052
-0.24866089 -0.21024999 0.12421747 0.17728294 -0.10165184 -0.064869955 0.03957706 0.13052621
0.04863925 0.039183307 -0.18708837 0.21419924 -0.1372042 -0.0065242695 0.017888412 -0.042931303
-0.17962793 0.13325837 0.0032369946 0.009499839 0.09275008 0.041961316 0.093207516 -0.23129342
-0.012140702 0.07756997 0.02897812 -0.12884676 0.02741154 0.10761651 -0.017666357 -0.055362776
-0.23648196 -0.051763795 -0.11452575 0.09920595 -0.0005701981 -0.0507945 -0.113623485 0.08791983
-0.10448289 -0.068551175 -0.021913027 0.028031446 0.13466114 0.10123907 -0.08403459 -0.040053364
0.102642454 0.21200706 -0.3026763 -0.09781502 -0.077101804 0.24714467 0.0076892534 0.1556072
-0.0017041445 -0.09665423 -0.011786617 0.16015336 -0.12660944 0.049404066 -0.11683995 0.101367585
-0.10762831 0.087559566 0.14212924 0.26011878 0.06385799 -0.0076349606 -0.17937365 -0.07543392
0.07372861 0.14018852 -0.10157216 0.12752451 -0.2469606 -0.07482591 -0.10381419 0.1414375
-0.14799531 0.015501152 0.09823667 -0.064525224 -0.013170361 -0.10590853 -0.0027217625 -0.1459516
-0.24655893 -0.13436899 -0.09694017 0.21133356 -0.27840015 0.036843415 -0.1995326 0.2238271
-0.14361504 0.028945481 -0.21134864 0.021725746 0.055816315 -0.09691107 -0.15170671 -0.1940898
-0.09488037 0.007555233 -0.19959278 -0.027937187 -0.007815731 0.0044019343 0.10172328 0.03631814
0.12367823 -0.06517098 0.1873705 0.05999521 -0.31588602 -0.099254966 -0.12071928 0.29341298
0.031524315 0.18893537 -0.16651697 0.15281187 0.034333564 0.04311222 -0.046930794 -0.15977652
0.032382037 0.082282886 -0.037877068 0.0013146104 0.043674275 -0.017548837 0.10203893 0.09126187
0.023812033 0.14842579 0.06832496 0.3209156 0.031778295 -0.08326547 0.022566441 0.13173093
0.010976368 0.14145067 -0.03742328 -0.08095832 -0.16100524 0.004089278 -0.018397242 0.21809472
-0.09352747 -0.097770005 -0.235981 -0.15502599 0.08745826 0.078313164 0.03694772 0.13357422
0.041172195 -0.09404869 0.0026117938 -0.035805836 0.021459727 -0.106385075 0.041343942 0.092441335
0.22672021 0.011746677 -0.016742572 -0.06542592 0.031907618 0.025594 0.09358328 0.024441618

lstm.ih.rho_weight f4 [128, 14]
00000000: 328d 37c0 1fae 2cc0 b9d9 34c0 8443 3cc0
00000010: 0d5a 38c0 db95 36c0 6b8f 30c0 d4f2 3ac0
00000020: 400d 33c0 d97d 27c0 4493 36c0 6003 36c0
00000030: 6b08 35c0 7d8b 35c0 07a3 2bc0 8b49 41c0
00000040: 8686 44c0 31c5 35c0 b261 33c0 f5d4 2fc0
00000050: dc10 39c0 63db 38c0 feca 3ec0 3343 40c0
00000060: 501e 32c0 6966 30c0 4f4c 2dc0 8346 33c0
00000070: 5e2c 38c0 9bbe 45c0 892e 40c0 aaf7 4cc0
00000080: 133f 45c0 dfca 37c0 b174 3cc0 5819 3ac0
00000090: a58b 3dc0 8155 47c0 f662 3ac0 fc02 3dc0
000000a0: ae29 33c0 8347 2bc0 2bb1 42c0 d509 41c0
000000b0: 5334 3cc0 e1b0 42c0 7bd9 41c0 0411 36c0
000000c0: 9b78 37c0 f6df 34c0 af60 37c0 0ffe 36c0
000000d0: b1c5 3ec0 cb82 35c0 fd57 48c0 b3dd 36c0
000000e0: 55ca 45c0 138a 2ec0 1f4c 42c0 dd10 36c0
000000f0: 4bba 3bc0 bc1e 3dc0 1495 3ec0 c4cb 3ac0
00000100: bfdc 32c0 73f5 32c0 3e7e 3bc0 3a51 41c0
00000110: 7a65 35c0 e8ac 2fc0 94ff 3ec0 b453 34c0
00000120: 66ff 3fc0 2610 47c0 76c7 39c0 7e36 41c0
00000130: 946f 43c0 0037 38c0 4389 47c0 51f8 43c0
00000140: 57bd 3ec0 0db2 3cc0 0824 34c0 8c73 42c0
00000150: 84ec 3ac0 4074 3fc0 5354 48c0 ea6c 46c0
00000160: 4503 2fc0 ee6f 31c0 acbf 3dc0 2ad5 41c0
00000170: aa97 3dc0 6431 30c0 bbd9 3ec0 d23e 3ac0
00000180: b910 3cc0 6128 3ec0 ec82 30c0 d3f4 31c0
00000190: ea44 35c0 f9e3 30c0 2943 3ac0 2cf2 41c0
000001a0: 5226 3dc0 5d46 37c0 1969 42c0 3770 2bc0
000001b0: eada 3bc0 e882 35c0 8100 2bc0 2913 3ec0
000001c0: 838b 32c0 1c72 36c0 a673 34c0 db48 3bc0
000001d0: eed3 3bc0 562f 38c0 2972 42c0 3306 3ac0
000001e0: 1838 46c0 a924 33c0 48d6 39c0 bc20 42c0
000001f0: 338c 41c0 bd41 34c0 59df 38c0 e6d9 34c0
00000200: 54bb 35c0 37cf 39c0 c807 32c0 f299 3cc0
00000210: b3e6 2cc0 629f 39c0 c0be 34c0 74db 38c0
00000220: 0bb5 38c0 20c3 3ac0 ae33 37c0 2b6a 30c0
00000230: 54b0 35c0 4d81 3ac0 8a90 37c0 95c0 31c0
00000240: d572 4dc0 ec9c 37c0 0e02 28c0 03ef 2ec0
00000250: d2d2 2cc0 797f 39c0 af61 34c0 dc12 40c0
00000260: a1f8 3dc0 9ad4 3ac0 62e1 34c0 6b43 37c0
00000270: d7f6 32c0 223e 30c0 e5c5 2cc0 2d51 30c0
00000280: 279e 3cc0 14ae 3cc0 9f97 34c0 a9cb 38c0
00000290: 6bbe 39c0 b9b0 31c0 62a3 36c0 2dc2 2bc0
000002a0: 2e23 3ac0 1ef4 37c0 4544 37c0 d43c 36c0
000002b0: 1b5a 3ac0 faed 2fc0 2e35 33c0 ef58 36c0
000002c0: aa99 31c0 f2c4 40c0 d337 47c0 6e8d 35c0
000002d0: b2aa 3ac0 8d43 41c0 7447 37c0 97e8 3dc0
000002e0: 6b5f 36c0 825f 34c0 c3fa 43c0 0cab 3ac0
000002f0: ea0d 3fc0 1848 3dc0 2fdf 37c0 f05a 32c0
00000300: a61b 3ac0 7756 35c0 8a28 36c0 5555 36c0
00000310: 0fe8 34c0 e963 37c0 0ecb 3ac0 fc33 4dc0
00000320: d074 41c0 0195 36c0 0652 36c0 3996 3dc0
00000330: 9270 30c0 9270 46c0 bcdd 3ac0 7848 35c0
00000340: 7407 44c0 2c2f 3cc0 982b 3fc0 cf04 3cc0
00000350: 1d36 33c0 5087 3ac0 7d26 40c0 1c1c 2dc0
00000360: 2cc3 34c0 bceb 37c0 30f2 3fc0 6ba7 30c0
00000370: 320a 31c0 22ec 39c0 3d12 39c0 7838 3ec0
00000380: 4b96 3ec0 9483 44c0 9de5 37c0 f803 47c0
00000390: d6bb 3fc0 d65f 41c0 9a11 38c0 5994 42c0
000003a0: 065e 48c0 8643 3bc0 4bc6 3dc0 12a0 37c0
000003b0: a9c0 41c0 2db3 3ac0 ad06 40c0 d460 3ec0
000003c0: c304 38c0 eef1 31c0 b404 38c0 5be4 3bc0
000003d0: 9492 3fc0 7ddc 38c0 3def 3dc0 0b32 28c0
000003e0: 3fb5 35c0 421e 2fc0 3f4f 31c0 2011 38c0
000003f0: 835e 41c0 f4aa 38c0 66c1 3dc0 bdf0 44c0
-2.8679929 -2.6981275 -2.8257887 -2.9416208 -2.8804963 -2.8528965 -2.7587535 -2.921071
-2.7976837 -2.6170561 -2.8527384 -2.843956 -2.8286388 -2.8366387 -2.6818254 -3.0201137
-3.0707107 -2.8401606 -2.8028378 -2.7473729 -2.891654 -2.8883903 -2.9811397 -3.0041015
-2.7831001 -2.7562506 -2.7077825 -2.8011787 -2.877708 -3.0897586 -3.0028403 -3.2026162
-3.0819747 -2.8717573 -2.9446223 -2.9077969 -2.9616482 -3.1145937 -2.91229 -2.9533072
-2.799419 -2.6762397 -3.0420635 -3.016225 -2.9406936 -3.0420458 -3.028899 -2.8447886
-2.8667362 -2.8261695 -2.865276 -2.8592565 -2.9808161 -2.836108 -3.1303704 -2.8572814
-3.0904744 -2.7271774 -3.035896 -2.8447793 -2.9332454 -2.9550009 -2.977849 -2.9186869
-2.7947233 -2.796231 -2.9295802 -3.0205827 -2.8343186 -2.7449284 -2.9843493 -2.8176088
-2.9999633 -3.1103606 -2.9027991 -3.018951 -3.0536852 -2.878357 -3.1177528 -3.062031
-2.9803064 -2.9483674 -2.8146992 -3.0383024 -2.9206858 -2.9914703 -3.1301467 -3.1003976
-2.7345746 -2.7724566 -2.9648237 -3.0286355 -2.9623818 -2.7530146 -2.9820392 -2.9100842
-2.9385207 -2.9712145 -2.7579908 -2.780568 -2.8323312 -2.7639143 -2.9103491 -3.030406
-2.955464 -2.8636696 -3.0376647 -2.678724 -2.9352365 -2.836115 -2.6719058 -2.9699194
-2.7897651 -2.8507147 -2.8195586 -2.9263217 -2.9348102 -2.8778892 -3.0382178 -2.9066284
-3.0971737 -2.7991126 -2.9037037 -3.033248 -3.024182 -2.8165123 -2.888632 -2.8257995
-2.8395586 -2.9032724 -2.781725 -2.946896 -2.7015808 -2.900353 -2.8241425 -2.8883944
-2.88605 -2.9181595 -2.8625293 -2.75648 -2.8388872 -2.914142 -2.868197 -2.7773793
-3.2101338 -2.8689528 -2.6251254 -2.733338 -2.7003675 -2.8984053 -2.8184621 -3.001151
-2.9683 -2.9192262 -2.8262563 -2.8634899 -2.796316 -2.7537923 -2.6995785 -2.7549546
-2.9471529 -2.948125 -2.8217542 -2.8874304 -2.9022472 -2.7764113 -2.853722 -2.6837265
-2.9083972 -2.8742747 -2.8635418 -2.8474627 -2.9117496 -2.7489 -2.8001208 -2.849178
-2.775004 -3.0120206 -3.1127822 -2.8367572 -2.9166684 -3.019748 -2.8637362 -2.9673212
-2.8495739 -2.8183293 -3.0621803 -2.9166899 -2.9852242 -2.9575253 -2.872997 -2.7868004
-2.9079375 -2.8334024 -2.8462243 -2.8489583 -2.8266637 -2.865473 -2.9186435 -3.2062979
-3.0227547 -2.8528445 -2.8487563 -2.9622939 -2.7568707 -3.1006207 -2.9197836 -2.8325481
-3.062955 -2.9403791 -2.9870358 -2.9377935 -2.8001778 -2.9145088 -3.0023491 -2.7048407
-2.8244123 -2.873763 -2.999157 -2.7602184 -2.7662473 -2.9050374 -2.8917382 -2.9721966
-2.9779232 -3.070531 -2.8733895 -3.1096172 -2.9958396 -3.0214744 -2.8760743 -3.0403044
-3.1307387 -2.9259963 -2.9652278 -2.869145 -3.027384 -2.917186 -3.0004075 -2.97466
-2.8752906 -2.7803912 -2.875287 -2.9358127 -2.9933214 -2.8884575 -2.967727 -2.6280544
-2.8391874 -2.7362218 -2.7704618 -2.8760452 -3.0213935 -2.8854342 -2.964929 -3.0771935

lstm.ih.mu_bias f4 [128]
00000000: 1c61 133d bbb2 babc ec67 e03d 4ba8 4f3c
00000010: 7828 013e 1c4b 533e 695f 113e 098c 2a3e
00000020: 375d 8d3e 6dce f4bd 8c4b c03c 8388 8e3e
00000030: 03e4 ac3d 3a40 343e d963 8a3d 66b4 8b3c
00000040: 0cd5 70be 8354 073e d9fb e6bc 7671 5bbd
00000050: 987f 533c 99be 453d 7830 4abe e829 9c3b
00000060: 45e2 a0bd e1e6 d2bc 5308 bc3e 73ad 813e
00000070: 8ac5 df3d 9e2a e6bd 86cc 9b3e ccc4 6ebe
00000080: c718 d03d 68ba 863b cace 323d cf0a 063e
00000090: f70d 3a3e 9888 d73b 85a9 443c 1f1f 8c3e
000000a0: e682 943d 5a5c 36bb aba7 683d 4f21 553e
000000b0: 9498 283d aa4e afbd 9f67 15be 47bc 0b3e
000000c0: d7f2 75bc c611 0c3e 3991 913e 4c93 4ebd
000000d0: 395d 9abd ba66 92bc 1c64 7b3b 8878 183e
000000e0: e62a 1dbe ca07 acbd d0fd a03e c8da 933e
000000f0: a06b 7c3d 278f 26be f324 923e cbde 17be
00000100: 6a2f efbd 84d5 c23d 8bfe ad3e ce9a ccbd
00000110: 6931 843e 3b6e e93c fdd1 903d 5c17 88be
00000120: bf95 f63d 67d9 9a3d 873f 0dbe e8ee 6e3e
00000130: e10e ffbd 0fbe 053e 3677 6a3e 1ee9 b93d
00000140: 9041 a6bd cff6 25be f8a5 4ebe 7302 733d
00000150: cdda 8fbe 7548 6b3d f92c a7bc abad 27bd
00000160: 414d 4fbd b131 963d c869 0f3e fcc9 853e
00000170: e845 07be 4250 5d3d 2b69 3bbe a5ab 0b3d
00000180: cee0 0e3e 9348 693e 29fd dd3d 597e 043d
00000190: 739f 9c3e 7775 623e 3972 19bd 9b65 ea3e
000001a0: bc67 b33e ccaf 813e d9ea c83a a450 1cbd
000001b0: 2c5a 043e dc06 a93e 3f37 073e fe88 ac3d
000001c0: 0ffb 403e 28b1 8c3e 5d6a 6a3e 25f8 523e
000001d0: 229d b43d 5148 283e 0ee0 56bb cf9c 073f
000001e0: 9149 223d f45d 163e 8837 083e 7c53 843e
000001f0: 26cd 673e 2167 ca3e f49e 3a3e 310f 1dbd
0.035981283 -0.022790303 0.109573215 0.0126744015 0.12613094 0.2063412 0.14196552 0.16654982
0.2761018 -0.11953435 0.023473524 0.27838525 0.08441927 0.17602625 0.06757326 0.017053794
-0.23518771 0.13215832 -0.028196262 -0.053575 0.012908839 0.04827747 -0.19745052 0.004765738
-0.078556575 -0.025744857 0.367251 0.25327644 0.109263495 -0.11238597 0.30429476 -0.2331726
0.10160976 0.004111577 0.04365424 0.1309006 0.1816939 0.0065775625 0.012003307 0.27367494
0.072515294 -0.0027826042 0.056800526 0.20813487 0.041161135 -0.08559926 -0.1459031 0.13646041
-0.015011511 0.13678655 0.2843111 -0.050433442 -0.07537312 -0.01787125 0.003835923 0.14889729
-0.15348396 -0.08399923 0.31443644 0.28877854 0.061626077 -0.16265546 0.28543815 -0.14831083
-0.116789654 0.09513381 0.33983263 -0.09990464 0.25818947 0.028494945 0.07071302 -0.26580322
0.120402806 0.075609975 -0.13793765 0.23333323 -0.1245401 0.13060783 0.22897038 0.09077667
-0.08117974 -0.16207431 -0.201805 0.059328508 -0.2809662 0.057442147 -0.020407187 -0.040937107
-0.050610784 0.07333697 0.14005196 0.26130664 -0.13210261 0.054031618 -0.18301837 0.03409924
0.13952944 0.22781591 0.10839302 0.032347057 0.305904 0.22115122 -0.037462447 0.45780644
0.3504008 0.25329435 0.0015328779 -0.038162842 0.12925023 0.33013046 0.13204668 0.08424567
0.18845771 0.2747891 0.22892137 0.20602472 0.08819033 0.16433837 -0.0032787356 0.52973646
0.03962094 0.14684278 0.13302433 0.25844944 0.22636852 0.39531806 0.18224698 -0.038344566

lstm.ih.rho_bias f4 [128]
00000000: 3f41 26c0 c670 31c0 f1e1 13c0 b9c0 33c0
00000010: 21cd 2dc0 d12a 2ac0 b75b 3bc0 290e 27c0
00000020: 5c25 2bc0 a3b4 1dc0 4d03 2fc0 ad43 14c0
00000030: 4466 2dc0 8848 27c0 24dd 29c0 a10f 2fc0
00000040: 8a57 34c0 e21b 23c0 5318 23c0 7575 2cc0
00000050: c3dd 2ec0 284e 25c0 30a5 2bc0 f216 23c0
00000060: 4c52 34c0 1725 29c0 3355 2cc0 6812 2ac0
00000070: 9f57 2dc0 d47e 2ec0 d430 23c0 5ede 2dc0
00000080: 8055 20c0 af03 30c0 be58 27c0 c427 33c0
00000090: 35ea 1bc0 0d3c 2ec0 285a 34c0 e173 15c0
000000a0: 85fd 25c0 5f5a 26c0 cdeb 27c0 49f0 20c0
000000b0: 5c39 2fc0 71c6 2ec0 807b 37c0 a699 31c0
000000c0: 05c0 2ec0 9f03 15c0 3cd8 2cc0 9fe0 29c0
000000d0: 3a67 38c0 8e5e 22c0 3675 2ec0 1520 2bc0
000000e0: 50fd 38c0 6b1d 30c0 872f 04c0 178b 1ac0
000000f0: 5b24 2fc0 e4d4 3dc0 ecd5 1ac0 110d 3ac0
00000100: d3ab 30c0 88f6 3cc0 923f 30c0 352c 3fc0
00000110: cde7 2bc0 5e12 34c0 1986 3cc0 beb6 39c0
00000120: d2ea 46c0 a04f 34c0 7f71 2ac0 647c 34c0
00000130: b9db 36c0 5fb4 3cc0 7955 40c0 8a23 3ac0
00000140: 6793 30c0 f8ee 2ec0 a351 3dc0 c0fd 3ac0
00000150: 3f2a 32c0 9b43 39c0 ec3e 33c0 cca5 36c0
00000160: 3ec9 44c0 d298 30c0 9b72 2fc0 5c87 32c0
00000170: 6caa 4ec0 a19c 34c0 ccf7 32c0 ea65 31c0
00000180: f63c 23c0 1a2e 33c0 e7d0 2bc0 8883 30c0
00000190: 1e32 2fc0 e46a 24c0 6e61 2bc0 0bd4 29c0
000001a0: fb1e 38c0 cc71 24c0 71db 1cc0 8b7b 36c0
000001b0: 77b2 28c0 07f2 1ac0 003d 24c0 73e2 2bc0
000001c0: de40 17c0 deac 34c0 a521 31c0 832e 1fc0
000001d0: 96d1 2dc0 7a5b 27c0 2f8c 29c0 319d 2ac0
000001e0: 84e6 2ec0 602b 2dc0 9c02 30c0 5f1e 2ac0
000001f0: 90be 18c0 f57b 20c0 04b9 39c0 e6a4 2ac0
-2.5977323 -2.7725081 -2.3106654 -2.8086379 -2.715645 -2.6588633 -2.9274728 -2.6102393
-2.6741552 -2.4641502 -2.7345765 -2.3166306 -2.7093668 -2.613802 -2.6541224 -2.735329
-2.817843 -2.5485768 -2.5483596 -2.694669 -2.7322853 -2.5828953 -2.6819572 -2.5482755
-2.817523 -2.6428888 -2.6927001 -2.6573734 -2.708473 -2.726491 -2.5498552 -2.7166972
-2.5052185 -2.7502248 -2.6147914 -2.799302 -2.4361699 -2.7224152 -2.8180027 -2.3351977
-2.5935986 -2.5992658 -2.6237671 -2.5146658 -2.737876 -2.730862 -2.8669128 -2.775003
-2.73047 -2.328346 -2.700698 -2.6543348 -2.8813004 -2.5370212 -2.725904 -2.6738331
-2.890461 -2.7517955 -2.0654008 -2.4147394 -2.736594 -2.9661188 -2.4193068 -2.9070475
-2.7604873 -2.952547 -2.75388 -2.9870732 -2.686023 -2.813621 -2.9456847 -2.9017787
-3.1080823 -2.81736 -2.6631773 -2.8200922 -2.8571608 -2.948509 -3.0052168 -2.9084191
-2.7589967 -2.7333355 -2.9581077 -2.9217377 -2.7838285 -2.8947513 -2.8007154 -2.8538694
-3.0747828 -2.7593274 -2.74137 -2.7895117 -3.2291517 -2.8220599 -2.7963743 -2.7718453
-2.5505958 -2.7996888 -2.6846254 -2.758028 -2.737434 -2.569024 -2.6778216 -2.653567
-2.876891 -2.5694456 -2.4508936 -2.8512905 -2.6358926 -2.4210222 -2.5662231 -2.6856964
-2.3633342 -2.823051 -2.7676785 -2.4872139 -2.715917 -2.6149583 -2.6491811 -2.6658442
-2.7328196 -2.7057724 -2.7501593 -2.6581037 -2.386631 -2.5075657 -2.9019175 -2.6663146

lstm.hh.mu_weight f4 [128, 32]
00000000: fcaa 32bc 7efd 00be 34ea cf3d 0688 223d
00000010: a068 abbd 56ab b53d acc4 fbbc 8e66 f9bd
00000020: 5f8d 123d 31f6 8b3e ffff 6dbe ff55 ee3c
00000030: a6b4 3dbe ba18 76bd fa72 9a3d 891b 24bd
00000040: e9ef 54be 74af c5bd ee03 4ebe 5b97 abbd
00000050: 917f 043d 8631 06bd 51fd 9a3e 87ae 823d
00000060: 203e cdbd 043a 17bd 4a0e 2e3d b0af b9bc
00000070: 16f4 413d b675 46bb 02df 233d f9fe a13c
00000080: 73c0 c33c 6350 d43e ef6e b2bd cbaa 8c3e
00000090: fa97 bd3d 14fe 59be e3c4 0c3e b98f ae3b
000000a0: 779a e1bd bfe5 b7bb eb2a 0b3d 41a4 2cbd
000000b0: 226a 39bd f8f0 503d 62d5 dc3d ec02 97bd
000000c0: 7598 713e 4328 b5bb 6c19 123e 8760 76bd
000000d0: c1c4 3ebd 10aa 863d cc45 6fbe 12fd 0e3e
000000e0: eddc 06be cabd e93d 10d2 543d fdf8 053d
000000f0: f19d 42bd e081 b33d 4204 033d c7bf fbbd
00000100: f86a e93a e0bf f4bd dad1 333e b803 febb
00000110: 2afc 543e e2d5 893e 8c8e fc3d 0acf 5abe
00000120: 7a92 593d 6347 2bbd a749 eebd bf3a 2b3e
00000130: 614d e7bd 4f1a 0a3e a889 6e3e e26d 41bd
00000140: a2ce 17be 4d77 24be efe2 bcbe dc6c f63d
00000150: f321 17bd 2e76 1d3d bc33 553d bab2 e13d
00000160: c963 e13d f8ff 4abb df93 373e 8de8 ae3d
00000170: e659 8c3e b358 ddbd d644 40be 00a6 65bc
00000180: 5275 053e ea69 1cbe d638 3ebd a9d0 a23d
00000190: 016c 8cbc a7af 02bc 3b46 f03d e15a a2bd
000001a0: f990 b5bd edaa 293b 459a 36be 4eba 823c
000001b0: a10b cf3d 8dd6 b43e b4b8 f5bd 3a3a cf3d
000001c0: 8ca6 49be 4b32 fb3c 7088 01bf 1702 a4bd
000001d0: 8399 7cbd c6b3 6f3e 445a 143d 0e00 ce3d
000001e0: 1b96 f3bd 671d 27be 1de0 a63d ef1c 0a3e
000001f0: 7bd1 6d3d 3b0c d6bd cb25 0ebe aef9 41bd
00000200: 126c cc3d 26c3 1e3d 77c6 333e 7030 b13c
00000210: 81c1 733e a02a e5bc 01f6 1abd db6a 7fbe
00000220: 49c9 1f3b 9c86 06be 48c0 83be d085 01bd
00000230: 827a af3c e558 d73a b044 a03d 7c0f 023a
00000240: aaea c9bc 2180 91be 2779 b0be f42c 36bc
00000250: 7bcb 89be 3440 bcbd 46be 99bd 1609 483d
00000260: 30c0 f83c e166 56bd 50cf 0b3d 78a6 383e
00000270: 8770 14be 8042 483c 0426 87bd 43ca 6f3e
00000280: 0dc5 64be c7fc 1b3e ca81 95bc a433 08bd
00000290: f249 423d 6567 3fbd 4fe9 f73d 92c4 00be
000002a0: 1458 6bbe ccae 1b3e eca4 c4bc 31ff b2bd
000002b0: 813a 32bd 78cd 903d 68ba e4bd e6cf 61bd
000002c0: 987e 9d3d 91e5 b5bc 2106 08be 4a1d 2a3b
000002d0: e215 b1bd 4565 133c 5710 863d 940f 11be
000002e0: 00da 39be 6126 e7bd 8978 dfbd 0289 0a3c
000002f0: 8a6c ed3d 8866 8abe 4791 4fbc 36ac 86be
00000300: 2ef8 0fbe 16eb aebd c03f 6cbd fd9d a4bd
00000310: 405b a33d 7a4c fc3d 8725 48be 0c83 893d
00000320: 914d 30be ec05 56bd 3cc2 363c 193f d4bd
00000330: 2e86 aabe 48e6 603a 3133 5a3e b236 ecbc
00000340: 9125 d9bd 5ac2 c03d 5f42 25be e683 cdbd
00000350: 01dc bdbc b013 273e 17d7 6f3d 2a08 46be
00000360: 85d0 0fbe 8db8 3fbc b290 3d3d fb9a 07be
00000370: 5524 62bd cf24 c0bd 17ec b2bd 6d22 81be
00000380: 9f1f 303e 7ef1 77bd 400b 2d3e aed3 0ebe
00000390: d092 c13d 0993 763e 7e0e 69bd 88e5 2abe
000003a0: 9d06 893e 3a67 883d d540 9abe e648 753e
000003b0: bfb0 61be 0a8e bd3d ff25 873e 0a8d 42bc
000003c0: 4fc5 80bd b832 3bbe 1c45 0dbe 8b90 3a3e
000003d0: 249e 9cbe 798c 813d 5a27 703d 73cc 81bd
000003e0: 3f5d f83d b0be fbbd 7ac8 523e f10f b33d
000003f0: ccaf 1a3e d06b c7bd 6548 83bd 8406 f1bc
-0.010905024 -0.125967 0.101520926 0.039680503 -0.08369565 0.0887057 -0.030733429 -0.12177764
0.035779353 0.27336267 -0.23242186 0.02909374 -0.18525943 -0.060082175 0.07541461 -0.040065322
-0.20794643 -0.09652606 -0.20118687 -0.08378478 0.03234822 -0.032762073 0.3027139 0.06380945
-0.10021615 -0.036920562 0.042494096 -0.022666782 0.04735192 -0.0030282564 0.0400076 0.0197749
0.023895478 0.4146758 -0.08712565 0.27474055 0.09257503 -0.2128833 0.13746981 0.0053271917
-0.1101579 -0.0056121047 0.033976477 -0.042148832 -0.04526723 0.051011056 0.10782887 -0.07373604
0.23593314 -0.005528481 0.1426751 -0.06015065 -0.046574358 0.065754056 -0.23366469 0.13963726
-0.13170214 0.114131525 0.051958144 0.032708157 -0.047513906 0.08765006 0.031986482 -0.12292438
0.0017808368 -0.1195066 0.17560521 -0.007751908 0.20799318 0.26920992 0.12331876 -0.21368042
0.053118207 -0.041816127 -0.11635142 0.16721629 -0.11294056 0.13486598 0.23294699 -0.047223933
-0.14824918 -0.16061135 -0.36891887 0.12032482 -0.03689761 0.038442783 0.05205129 0.110204175
0.11005361 -0.0030975323 0.17927502 0.08540449 0.27412337 -0.10807934 -0.18776259 -0.014016628
0.13033035 -0.15274778 -0.04644092 0.07949955 -0.017141344 -0.007976449 0.117321454 -0.0792749
-0.08865542 0.0025889233 -0.17832287 0.015957978 0.1010964 0.3531994 -0.1199812 0.10118528
-0.19692439 0.03066363 -0.5059881 -0.08008211 -0.061669838 0.23408422 0.036218897 0.10058604
-0.11893865 -0.1631981 0.08148215 0.134876 0.058061104 -0.104515515 -0.13881604 -0.047357254
0.0998155 0.038760327 0.17556177 0.021629542 0.23804285 -0.027974427 -0.037832264 -0.24943106
0.002438145 -0.13137287 -0.25732636 -0.031621754 0.021420721 0.0016429691 0.07825601 0.0004961414
-0.02464803 -0.28418067 -0.34467432 -0.011119116 -0.26913056 -0.09191933 -0.07506995 0.04883679
0.03036508 -0.052344207 0.034133255 0.18032253 -0.14496051 0.012222886 -0.06599048 0.23417
-0.22340794 0.15233146 -0.018250365 -0.033252373 0.0474338 -0.046729464 0.12105047 -0.12574986
-0.22982818 0.15203398 -0.024004422 -0.0874008 -0.043512825 0.0707044 -0.11168367 -0.055129908
0.076901615 -0.022204192 -0.13283588 0.00259574 -0.08646752 0.0089963125 0.06546085 -0.14166099
-0.18149567 -0.11286617 -0.10911662 0.008455517 0.11592968 -0.2703135 -0.012668914 -0.26303262
-0.14059517 -0.08540933 -0.057677984 -0.080379464 0.07976389 0.12319274 -0.19545566 0.06714448
-0.17217089 -0.05225174 0.0111547075 -0.103635974 -0.33305496 0.00085792365 0.2130859 -0.028834675
-0.10602868 0.094120696 -0.161386 -0.10034923 -0.023176195 0.16316104 0.058554735 -0.19339052
-0.14044388 -0.011701715 0.04628057 -0.13242714 -0.05521043 -0.09382021 -0.08736437 -0.25221577
0.17199562 -0.06053304 0.16898823 -0.13947937 0.094518304 0.24079527 -0.056898586 -0.16689122
0.26762858 0.06660314 -0.30127588 0.2395359 -0.2204008 0.092556074 0.26396176 -0.011874447
-0.06287634 -0.18281066 -0.13795894 0.18219201 -0.30589402 0.06325621 0.05863128 -0.06337824
0.1212716 -0.1229223 0.20584288 0.08743275 0.15106124 -0.097373605 -0.064102925 -0.029422052

lstm.hh.rho_weight f4 [128, 32]
00000000: 81c6 40c0 a9f7 36c0 e83f 40c0 9f2a 2fc0
00000010: c670 43c0 ed21 46c0 3510 39c0 d1e5 3ac0
00000020: c0a6 32c0 560f 3bc0 370f 3dc0 b0c4 41c0
00000030: 0df3 39c0 9a15 35c0 2b0d 42c0 82af 45c0
00000040: 8cd8 2cc0 6427 3cc0 3758 37c0 e869 34c0
00000050: c00f 4ac0 7e91 3dc0 a2c5 38c0 3974 3bc0
00000060: 53f2 30c0 0b07 3ec0 51d0 30c0 10ed 4bc0
00000070: 2466 34c0 7e1f 2ec0 4045 3fc0 621b 38c0
00000080: 1ab3 36c0 01c3 38c0 e495 37c0 a122 3bc0
00000090: 85d9 44c0 baf4 46c0 3c77 2cc0 4eb7 32c0
000000a0: a159 32c0 21f8 38c0 8921 42c0 d411 41c0
000000b0: 231f 3cc0 ac34 3dc0 aeb3 39c0 d24d 3ac0
000000c0: 8918 44c0 463b 37c0 8323 32c0 bd9a 44c0
000000d0: 1b43 3bc0 4014 48c0 c08e 36c0 9b79 43c0
000000e0: 2f8c 39c0 0f8d 37c0 8c02 45c0 cc05 41c0
000000f0: 817f 38c0 8f5c 3dc0 0d30 37c0 3f51 32c0
00000100: 070a 34c0 2ce5 37c0 0f92 3cc0 6f7e 3ec0
00000110: 0b22 48c0 e05b 3ec0 c6c7 36c0 48a7 3bc0
00000120: 14f7 2dc0 7471 40c0 cfbc 3cc0 71f5 46c0
00000130: dacd 31c0 ddd9 33c0 8cfb 3ec0 0af7 3ec0
00000140: 8f4c 34c0 55e3 44c0 479f 49c0 f7bf 2fc0
00000150: 54de 2ec0 0fef 33c0 aa28 4ac0 b3cd 3fc0
00000160: eee1 3dc0 7f5e 3ac0 b989 3fc0 4ec1 36c0
00000170: 758f 2ac0 b453 3cc0 6f8c 41c0 8d91 33c0
00000180: 9932 41c0 7045 31c0 6b60 37c0 3bdf 2ec0
00000190: f864 35c0 09ac 43c0 8fcd 44c0 70c9 3ac0
000001a0: d9f8 29c0 a217 40c0 e47c 3ac0 c60b 41c0
000001b0: b6bc 3cc0 f612 39c0 5ea2 3cc0 bc27 38c0
000001c0: f48a 2ec0 466b 3cc0 0d41 38c0 456d 3ec0
000001d0: 39d6 39c0 752c 37c0 cd38 39c0 c265 36c0
000001e0: 840d 3ec0 75cc 3ec0 171f 2fc0 3142 40c0
000001f0: 8d9c 42c0 e7c0 3fc0 751a 3dc0 873e 40c0
00000200: fc2a 2bc0 699b 37c0 79d6 3cc0 59cc 30c0
00000210: bc75 33c0 0770 32c0 8d86 2bc0 2cf3 36c0
00000220: 69d2 28c0 ceda 29c0 534d 2ec0 fc02 32c0
00000230: 2e1a 4ac0 dc8e 39c0 8442 3bc0 339b 40c0
00000240: ad5d 3bc0 e9ed 3cc0 bd6a 3bc0 0230 2ec0
00000250: f3eb 3dc0 6cd5 3ac0 e560 38c0 28b2 2dc0
00000260: 3913 2dc0 da9a 2ec0 f559 37c0 ec8d 41c0
00000270: ac63 3dc0 165e 2fc0 b9c8 37c0 2787 2ec0
00000280: 081c 39c0 3a42 3dc0 7fb4 3dc0 8e50 43c0
00000290: 45b9 41c0 6fc6 54c0 62a1 36c0 5303 39c0
000002a0: 03d5 3dc0 e342 42c0 437f 39c0 1f30 3bc0
000002b0: 34af 48c0 1aa5 36c0 d8c5 38c0 4888 33c0
000002c0: 5da9 3dc0 739e 2fc0 51e2 37c0 d767 3cc0
000002d0: 90dc 3ac0 92e6 39c0 f664 39c0 e662 3bc0
000002e0: 7f67 38c0 9870 47c0 43e2 46c0 06b7 41c0
000002f0: 882e 3dc0 5e09 40c0 9f58 49c0 815f 38c0
00000300: 1dcf 46c0 0da4 3dc0 bc6e 3ec0 a421 4bc0
00000310: 4681 38c0 c8dc 30c0 7798 34c0 dd1c 3ec0
00000320: fd08 37c0 8c2d 53c0 0880 41c0 9ec4 47c0
00000330: 0c8e 3cc0 9987 3ec0 21ab 34c0 fd3b 41c0
00000340: 038d 37c0 46ac 3cc0 7a44 43c0 3197 3bc0
00000350: 9b23 3bc0 90b5 3ec0 1d2c 31c0 108d 3cc0
00000360: 8f21 3dc0 bde3 41c0 ab86 40c0 e7c6 3bc0
00000370: 0da4 46c0 c0d5 43c0 56c7 3fc0 1776 42c0
00000380: 3f05 2ac0 509b 3bc0 71cc 39c0 3b9b 49c0
00000390: 04f6 39c0 1180 37c0 23a7 25c0 8644 3ec0
000003a0: f530 36c0 d55c 32c0 f64d 32c0 ed25 35c0
000003b0: 5937 45c0 c410 36c0 762b 36c0 2724 28c0
000003c0: eb15 41c0 a215 3ac0 aa8c 34c0 7f38 37c0
000003d0: e51c 23c0 9d97 3bc0 d591 2fc0 d8cd 21c0
000003e0: 5b08 36c0 591f 30c0 9289 48c0 7a02 36c0
000003f0: 80d3 39c0 dd9a 33c0 8579 39c0 5844 31c0
-3.0121157 -2.858866 -3.0039005 -2.7369764 -3.0537581 -3.0958207 -2.8916142 -2.9202769
-2.7914276 -2.922811 -2.9540536 -3.0276299 -2.9054596 -2.8294435 -3.0320537 -3.0888371
-2.700717 -2.9399042 -2.8647592 -2.818964 -3.1572113 -2.9620051 -2.8870625 -2.9289687
-2.7647903 -2.9691799 -2.7627146 -3.1863441 -2.8187342 -2.7206721 -2.9886017 -2.8766713
-2.8546815 -2.886902 -2.8685236 -2.9239886 -3.0757763 -3.108687 -2.6947775 -2.792438
-2.7867205 -2.8901446 -3.0332968 -3.0167131 -2.9394004 -2.9563398 -2.9015918 -2.9109998
-3.0639975 -2.8629928 -2.7834175 -3.0719445 -2.9259708 -3.126236 -2.8524628 -3.0542972
-2.8991811 -2.8679845 -3.0782804 -3.0159788 -2.8827822 -2.9587743 -2.8623078 -2.7862089
-2.813112 -2.8733625 -2.9464147 -2.976467 -3.1270778 -2.9743576 -2.8559432 -2.932085
-2.7182055 -3.0069246 -2.949024 -3.1087306 -2.7781892 -2.8101723 -2.9841032 -2.983828
-2.8171728 -3.0763752 -3.1503465 -2.7460916 -2.7323198 -2.811466 -3.158732 -2.99693
-2.9669147 -2.9120176 -2.992781 -2.8555484 -2.665006 -2.9426088 -3.0241964 -2.8057587
-3.0187132 -2.7698631 -2.86526 -2.732375 -2.8342876 -3.0573752 -3.0750463 -2.9185448
-2.6558135 -3.0014424 -2.9138727 -3.0163436 -2.949018 -2.8917823 -2.94741 -2.8774252
-2.727231 -2.9440475 -2.8789704 -2.9754193 -2.9037 -2.8620884 -2.8940918 -2.8499608
-2.969575 -2.981229 -2.7362726 -3.00404 -3.040805 -2.9961488 -2.9547398 -3.0038164
-2.6744986 -2.8688605 -2.9505904 -2.7624724 -2.804061 -2.7880876 -2.6800873 -2.858592
-2.6378424 -2.6539798 -2.7234695 -2.7814322 -3.157848 -2.8993444 -2.9259348 -3.0094726
-2.9275925 -2.952021 -2.9283898 -2.7216802 -2.9675262 -2.9192762 -2.880914 -2.7139988
-2.7042983 -2.7282014 -2.8648655 -3.0242872 -2.9592085 -2.7401175 -2.8716261 -2.726999
-2.892336 -2.9571671 -2.9641416 -3.0517917 -3.026933 -3.3246114 -2.8536 -2.890828
-2.9661262 -3.0353324 -2.8983924 -2.924812 -3.1356936 -2.853827 -2.8870754 -2.805193
-2.963462 -2.744046 -2.8731883 -2.943838 -2.919712 -2.904698 -2.8967872 -2.9279113
-2.881317 -3.1162472 -3.10756 -3.0267959 -2.955965 -3.0005717 -3.146034 -2.880829
-3.1063912 -2.9631379 -2.9755087 -3.1739283 -2.8828902 -2.7634754 -2.8218057 -2.9705117
-2.8599236 -3.299655 -3.0234394 -3.1213756 -2.9461699 -2.9770262 -2.8229449 -3.0192864
-2.8679817 -2.9480147 -3.0510545 -2.931103 -2.9240482 -2.9798317 -2.7683175 -2.9461098
-2.9551733 -3.029525 -3.0082195 -2.934015 -3.1037629 -3.0599213 -2.9965415 -3.0384576
-2.6565702 -2.9313545 -2.903103 -3.1500995 -2.9056406 -2.8671916 -2.5883262 -2.9729323
-2.846738 -2.786916 -2.7860084 -2.8304398 -3.0815032 -2.8447733 -2.8464026 -2.6272066
-3.0169628 -2.9075704 -2.8210855 -2.8628232 -2.5486386 -2.9311287 -2.743276 -2.5281887
-2.84426 -2.7519133 -3.1333966 -2.8439012 -2.903534 -2.806327 -2.898042 -2.7697964

lstm.hh.mu_bias f4 [128]
00000000: 4ce8 8f3e 5e5b b73d 95dd 163e 8cae cf3d
00000010: 6bd2 4f3e 75f3 afbd ffd1 21be 2a8e 8a3e
00000020: b7c4 7c3e 5240 17bc 4315 5c3c 3a5c 953e
00000030: 506e d93d 329d 203e 5ea0 c73d ac34 c7bd
00000040: af8b 8ebd 69ab ab3e a4db c23d 02db 83bd
00000050: 6851 37be aac0 563e ad79 403e 49b3 89bd
00000060: 049b 6d3c cfcf 533d 11e4 273e 98e2 e23d
00000070: fd47 afbc 1b9f 8dbd a617 f93e 1e65 2abd
00000080: bd2e 5bbd 095c d03c 08af 3fbc b9a2 99bd
00000090: c3bb b03c c647 4bbd ec76 2f3d 612a cd3e
000000a0: 212f 60bd 3482 163e dc12 10be 60dc 4a3e
000000b0: 3958 8d3d 1803 6e3c 2d2b 91bd 07b1 873c
000000c0: a431 533b 674d 8a3e 91be 993d 6114 2eba
000000d0: 357b 613e fd02 293d 7ad2 e33b 4f98 723e
000000e0: f9d7 4e3e 5463 573c 9435 ab3e 4745 783e
000000f0: a82a 233d d6c8 a2bd e896 d03d 89dc 873e
00000100: 7a27 1b3e 8c95 b6bd 7862 9a3e ccbf c0bd
00000110: 587c 5c3e 1331 e43d 5d42 ddbd 3f1b 56be
00000120: f020 383e 2968 9e3c cfe4 32be 2ec4 f23d
00000130: d913 a13d 9d5e 493d b1d4 433e 98b6 5f3e
00000140: b4f4 19be 1c7d 8bbe 01ed 22be 11b0 ff3d
00000150: 39b0 f63c b4f3 933d cedc 31be b865 2f3e
00000160: 6179 293e d501 5fbd 4ece a03e a8f7 b13e
00000170: 64bb d6bd e8d5 32be 181b c3be a5df 8ebd
00000180: a948 4c3e 40d7 4f3d 174d 823e 944c 963e
00000190: e4dc ac3e 11ea 013e 9921 853e 7c86 613e
000001a0: 47d9 a83e b379 7e3e e95a 183e 43b6 203d
000001b0: 54d4 933d ca27 ad3e 3ca0 8c3e f36d 803e
000001c0: 3c71 563e 2e26 b83d 9a1f 463e 8a0e 043e
000001d0: 1604 c53d ed66 c63e 7ac4 303e f518 ce3e
000001e0: 944e e5bc d73f e53c 8aed de3e cff7 aa3e
000001f0: 121d 983e c470 3c3e 5c01 8e3e 0cfa 8d3d
0.28106916 0.08952974 0.14732964 0.10140714 0.20295112 -0.085913576 -0.15802763 0.27061588
0.24684416 -0.009231644 0.013432804 0.29171926 0.106167436 0.15684965 0.097473845 -0.09726843
-0.06960236 0.33529213 0.095145494 -0.06438257 -0.17902148 0.20971933 0.18796416 -0.06723649
0.014502291 0.051711854 0.16395594 0.110783756 -0.021396631 -0.069151126 0.48650855 -0.04160034
-0.05351137 0.02543451 -0.011699446 -0.0750174 0.021573907 -0.049628995 0.042838022 0.40071395
-0.054732446 0.14698106 -0.14069694 0.19810629 0.06901593 0.014527105 -0.07088313 0.016563905
0.0032225633 0.27012178 0.07507051 -0.000664061 0.22019656 0.041262615 0.006952581 0.23690914
0.20199575 0.01314624 0.33439314 0.24245177 0.039835602 -0.07948463 0.10185033 0.26535442
0.15151778 -0.089152426 0.3015325 -0.09411582 0.21531808 0.11142173 -0.108036734 -0.20908831
0.17981315 0.019336777 -0.17470096 0.118538246 0.07865114 0.049162496 0.19124104 0.21846998
-0.15034753 -0.27243888 -0.15910722 0.12484754 0.030113326 0.07224217 -0.17369387 0.17128646
0.16550209 -0.054445107 0.31407398 0.3475926 -0.10484961 -0.17464411 -0.38106608 -0.069762506
0.19949593 0.050742388 0.2544944 0.293553 0.33762276 0.12686945 0.26002195 0.22023958
0.3297827 0.24851112 0.1487843 0.03923632 0.07218233 0.3381942 0.27466 0.25083885
0.20941633 0.08991657 0.19347993 0.12896171 0.0961992 0.387504 0.1726245 0.40253416
-0.02799157 0.027984543 0.43540603 0.33392188 0.2970968 0.18402392 0.27735412 0.06932458

lstm.hh.rho_bias f4 [128]
00000000: 325a 27c0 7495 33c0 7370 22c0 c551 28c0
00000010: 823a 2ac0 88e2 34c0 7b9b 2fc0 1bed 23c0
00000020: 8a6c 21c0 75b7 2fc0 f246 28c0 1cba 09c0
00000030: f796 23c0 7eb3 21c0 26b2 38c0 7433 2dc0
00000040: 5d8a 31c0 2a10 13c0 f049 35c0 34a7 2dc0
00000050: 7fcf 26c0 1f27 25c0 5f80 26c0 8cca 2bc0
00000060: 15ac 38c0 1ab1 2fc0 12c3 21c0 0272 25c0
00000070: e9b6 31c0 6452 2cc0 adef 21c0 2209 28c0
00000080: 13bd 2ac0 e720 2bc0 f643 29c0 dbea 2ac0
00000090: d7c5 1fc0 1501 44c0 7037 2ac0 0673 0cc0
000000a0: d68b 2dc0 102f 2bc0 8a79 2fc0 2da1 1fc0
000000b0: b358 3ec0 aee4 2ec0 e2cc 35c0 7334 25c0
000000c0: b62a 3ac0 027f 14c0 305d 37c0 588d 33c0
000000d0: 7008 26c0 e19d 1bc0 3d5b 3bc0 289f 37c0
000000e0: df23 32c0 e691 32c0 9ecd 0dc0 2799 10c0
000000f0: 75d4 30c0 eb4a 25c0 a9c2 11c0 2512 2cc0
00000100: d541 3cc0 e530 2dc0 4729 33c0 3198 37c0
00000110: bd44 33c0 639f 4ac0 5698 2cc0 5125 35c0
00000120: 2a65 38c0 83ba 30c0 97b2 32c0 de41 39c0
00000130: d70f 3bc0 9746 3dc0 2b21 37c0 608e 33c0
00000140: 3c12 3bc0 49dc 3ec0 dd0b 3dc0 cf91 34c0
00000150: af9d 3ac0 0c06 3ec0 3e22 37c0 73ea 41c0
00000160: 1e04 3bc0 5f48 43c0 b8f0 2ec0 e9da 2fc0
00000170: 6953 39c0 3bbc 34c0 b074 3dc0 7f54 44c0
00000180: a843 24c0 fb0a 2bc0 7403 25c0 bdd8 29c0
00000190: 2b5e 2ec0 81ff 1ac0 8392 22c0 2613 28c0
000001a0: a219 26c0 2a53 2dc0 5fdb 29c0 859b 2bc0
000001b0: 509d 2cc0 8d43 17c0 9aff 21c0 8e47 28c0
000001c0: f248 20c0 ce92 32c0 7297 3ac0 2a60 1ac0
000001d0: 46a1 33c0 9bd0 27c0 8666 27c0 6612 24c0
000001e0: 901e 26c0 0cfc 29c0 16aa 2cc0 e706 2ec0
000001f0: 387d 25c0 4e72 28c0 970b 2dc0 c4b7 27c0
-2.61488 -2.805997 -2.5381134 -2.6299908 -2.659821 -2.8263264 -2.7438648 -2.5613468
-2.5222497 -2.7455723 -2.6293302 -2.1519842 -2.5560892 -2.5265803 -2.8858733 -2.7062654
-2.77407 -2.2978616 -2.8326378 -2.7133303 -2.6064146 -2.5805128 -2.6015851 -2.6842375
-2.885503 -2.7451844 -2.5275311 -2.5850835 -2.776789 -2.6925287 -2.5302536 -2.6255574
-2.6677902 -2.6738832 -2.644773 -2.6705844 -2.4964502 -3.062566 -2.6596336 -2.1945205
-2.71166 -2.6747475 -2.7417932 -2.4942124 -2.9741638 -2.7327075 -2.84063 -2.5813262
-2.9088569 -2.320252 -2.8650627 -2.805502 -2.594265 -2.4315112 -2.9274437 -2.8690891
-2.7834394 -2.790155 -2.2156749 -2.2593477 -2.7629673 -2.5826976 -2.277506 -2.6886075
-2.941518 -2.7061093 -2.7993944 -2.868664 -2.8010705 -3.1659782 -2.6967978 -2.8304026
-2.8811746 -2.7613838 -2.7921503 -2.8946452 -2.9228418 -2.9574335 -2.8613994 -2.8055649
-2.922988 -2.9821951 -2.953849 -2.8213995 -2.9158742 -2.969119 -2.861465 -3.0299346
-2.9221263 -3.0512922 -2.7334423 -2.7477362 -2.895716 -2.8239887 -2.960247 -3.0676572
-2.5666294 -2.6725452 -2.5783358 -2.6538537 -2.7244976 -2.4218447 -2.5401924 -2.6261687
-2.5953145 -2.708201 -2.6540143 -2.6813672 -2.6971016 -2.363498 -2.5312257 -2.6293674
-2.5044522 -2.7902102 -2.9154935 -2.4121194 -2.8067183 -2.6221073 -2.6156325 -2.563623
-2.5956154 -2.6560087 -2.6978812 -2.7191713 -2.5857677 -2.6319766 -2.7038324 -2.6205912

l1.mu_weight f4 [16, 32]
00000000: 032b 2c3f c1c5 ffbe 9353 0e3f eaf2 07bf
00000010: 4a41 fe3e 70a6 133f d60a 17bf 5349 1cbf
00000020: ff3b 113f 4f5d 223f 5c2c 09bf 0029 e23e
00000030: 8770 02bf 7250 0f3f ee45 393f 771c 1c3f
00000040: 230e 1cbf 718f e8be 1a4f 01bf f6de 1c3f
00000050: 8b4f dfbe 40d3 083f 7b62 203f 14f1 21bf
00000060: f292 b9be feda 25bf f4e1 163f 5947 f83e
00000070: bb0c 47bf c178 09bf 206e 07bf 81e0 a2be
00000080: 48fb 0e3f e4ee b8be 7ff8 073f ddce febe
00000090: c3ce e73e 49c4 b43e 4182 0fbf bc09 c2be
000000a0: 620b 263f 104b c63e aa70 f2be 8955 093f
000000b0: 8f22 aebe f6e3 163f ef9e f43e 21d3 073f
000000c0: 439c d9be 157d 12bf c19f dcbe cc19 103f
000000d0: c9c4 ccbe 12e0 ef3e 3dd0 0f3f 556d 12bf
000000e0: af24 0abf 4d6a 08bf 8af0 113f 3f40 d13e
000000f0: e24f f0be 1de6 2cbf a8c7 09bf 5218 09bf
00000100: e683 313f ef0e 46be 7a24 143f 8fd2 06bf
00000110: 9dde 0e3f 00f0 1f3f 20a6 15bf bd5a 0abf
00000120: 1f02 f03e 90bd f83e f816 33bf c4be e03e
00000130: 3e76 2abf dc14 373f 71ae 273f 4f99 fc3e
00000140: 8dcd 10bf d4e3 07bf c0fa 0bbf 3a4f 063f
00000150: fc67 34bf e124 163f 4319 f83e 718b 3abe
00000160: 10fc 2fbf 4a07 30bf c9c1 243f 2406 043f
00000170: 75bc 15bf 6e78 19bf 819e 0cbf c00e 21bf
00000180: 1d01 f33e 5ad2 ffbe ec30 833e 357d c7be
00000190: 36d0 ec3e 9072 d23e 7b61 2dbf 2cfd 0dbf
000001a0: ef68 1b3f 54c7 813e 8a70 38bf eb14 fa3e
000001b0: 02cc 08bf 2af1 fb3e 1b87 de3e 1799 0d3f
000001c0: ea7f 00bf 927e 15bf 11f1 06bf a974 0a3f
000001d0: 5bf9 f5be 62c8 153f f83b e73e 6f9d e7be
000001e0: 65bd 00bf 28ad edbe 78e2 f53e fb5f 353f
000001f0: f1d2 cfbe 4e9c 23bf bcea d2be 5703 13bf
00000200: 621f b63e 4991 09bf a2aa 073f b3e7 23bf
00000210: c7ad 093f 3521 183f ea8b 15bf 7fbc 13bf
00000220: 9fce 993e 8ffd 343f 2329 13bf db6b 023f
00000230: 9814 0cbf 4660 c53e e5fb df3e 0f2a f33e
00000240: 5c17 16bf 47e1 0fbf 91ab a8be 28a6 313f
00000250: d444 09bf 5272 193f bbad 213f df55 a2be
00000260: f625 f7be 61b8 08bf 9712 113f 5f06 103f
00000270: 0c59 27bf 8867 a0be 0acb 20bf 871e cabe
00000280: 919a 0e3f aa85 bebe 16ef 2d3f 7eb7 00bf
00000290: 3868 0c3f 34f6 023f 4508 08bf 9808 febe
000002a0: 6119 fe3e 4393 ec3e e4b5 23bf 3445 ee3e
000002b0: 6882 fcbe 32e5 273f 2e17 203f 2131 083f
000002c0: 5e17 b7be 88a3 0fbf 8408 25bf 80e2 ed3e
000002d0: 0b87 aabe 6a89 3b3f 3e15 253f 1bc0 24bf
000002e0: c4ec 21bf 096b 18bf bd73 e23e ae34 123f
000002f0: def0 2abf 4a29 03bf 0271 2cbf 3285 ebbe
00000300: bf82 033f ba5b c6be db60 ec3e 5f4d 0bbf
00000310: 79cf e93e 4c58 273f 7672 c1be 7bfc fcbe
00000320: 1041 c83e ddf2 053f da8c dbbe 8638 1c3f
00000330: 2aba 0fbf 406c f13e 2765 183f 7492 ea3e
00000340: f6ae 11bf db8d cabe fde2 02bf 4f01 c43e
00000350: dd72 29bf 73ef d33e 9600 fe3e 5306 11bf
00000360: 9b46 e4be 7b98 0abf 144d e93e bdbf d33e
00000370: ab77 f6be 0ea0 fdbe 5616 1cbf 9b61 00bf
00000380: c603 1b3f b0f5 5abe a33f 3a3f 9766 e4be
00000390: c874 0f3f 2dbd 133f c460 0dbf ac49 06bf
000003a0: 1ae9 d33e bf64 1c3f 6ff3 0bbf f73b 0c3f
000003b0: 9480 ffbe 169e bc3e 6b91 053f d393 093f
000003c0: b318 2abf 75e0 07bf a541 12bf 05ff 093f
000003d0: fa87 19bf 3393 0a3f 5ad7 cd3e 033e d3be
000003e0: 8a24 1ebf 5829 ebbe e154 113f e5c6 023f
000003f0: cf20 14bf 35d1 13bf 59fa 38bf b229 efbe
0.6725313 -0.49955562 0.55596274 -0.5310503 0.49659187 0.5767584 -0.5900091 -0.61049384
0.5673217 0.6342363 -0.5358331 0.44171906 -0.50952953 0.55982125 0.7237233 0.60980934
-0.6095907 -0.45421937 -0.50511324 0.6127771 -0.43615374 0.5344734 0.6265027 -0.6325848
-0.36244923 -0.6478728 0.5893853 0.48491934 -0.777538 -0.5369988 -0.5290241 -0.31811908
0.55852175 -0.3611976 0.5311355 -0.497672 0.45274934 0.35306004 -0.56058127 -0.37898052
0.6486112 0.38729143 -0.4735158 0.5364614 -0.3401074 0.5894159 0.47777507 0.5305653
-0.4250203 -0.5722211 -0.43090633 0.5628936 -0.39993885 0.4685064 0.5617712 -0.5719808
-0.53962225 -0.532872 0.5700766 0.40869328 -0.46935946 -0.67538625 -0.53820276 -0.53552735
0.69341886 -0.19341634 0.5786816 -0.52665037 0.5580843 0.62475586 -0.5845661 -0.54044706
0.46876618 0.48582125 -0.6995692 0.43895543 -0.66586673 0.71516204 0.6550055 0.49335715
-0.56563646 -0.53082013 -0.5467949 0.5246464 -0.7047117 0.5865002 0.48456773 -0.18217255
-0.6874399 -0.6876112 0.6435819 0.5157187 -0.5849069 -0.59949386 -0.5492936 -0.6291313
0.47461787 -0.49965173 0.25623262 -0.38962713 0.46252602 0.4110303 -0.6772687 -0.55464435
0.6070699 0.25347388 -0.7204672 0.48844084 -0.5343629 0.4920743 0.43462452 0.5531172
-0.5019518 -0.58396256 -0.5271159 0.5408426 -0.48041806 0.58508885 0.4516294 -0.452373
-0.50288993 -0.4642117 0.48024344 0.7084958 -0.40590623 -0.6391038 -0.41194713 -0.5742697
0.35570818 -0.5373731 0.5299474 -0.6402542 0.5378079 0.5942567 -0.58416617 -0.577095
0.30040452 0.706994 -0.57484645 0.50945824 -0.54718924 0.38550013 0.43746868 0.47493026
-0.58629394 -0.5620312 -0.32943395 0.6939416 -0.5362065 0.59940064 0.63155717 -0.3170614
-0.4827115 -0.5340634 0.5666899 0.5625972 -0.6537025 -0.31328988 -0.62809813 -0.39476416
0.557046 -0.37211353 0.6794294 -0.50279987 0.54846525 0.51156926 -0.5313762 -0.49615932
0.49628738 0.46206102 -0.6394942 0.46537173 -0.49318242 0.655841 0.6253537 0.53199965
-0.35760015 -0.56108904 -0.6446612 0.46461868 -0.33306155 0.7325655 0.6448554 -0.6435563
-0.632519 -0.5953832 0.44228926 0.5711163 -0.66773784 -0.5123488 -0.67359936 -0.46000057
0.5137138 -0.38741857 0.46167645 -0.54414934 0.45666102 0.65369105 -0.3778264 -0.49411377
0.3911214 0.52323705 -0.428809 0.6102375 -0.5614344 0.471529 0.59529346 0.4581486
-0.56907594 -0.39561352 -0.51127607 0.38282248 -0.6619089 0.41393623 0.49609822 -0.56650275
-0.44585118 -0.54138917 0.45566618 0.41357222 -0.48138174 -0.49536175 -0.6097158 -0.50148934
0.6055263 -0.21382785 0.7275335 -0.4460952 0.5603757 0.57710534 -0.5522578 -0.52456164
0.4138878 0.61091226 -0.54668325 0.54779 -0.49902785 0.3683936 0.52175015 0.53741187
-0.6644394 -0.5307687 -0.57131416 0.53904754 -0.5997311 0.5413086 0.40203363 -0.4125825
-0.61774504 -0.4592998 0.5677014 0.5108474 -0.5786256 -0.577411 -0.72257 -0.46711498

l1.rho_weight f4 [16, 32]
00000000: 06a3 3fc0 a19b 3ec0 e3f6 4cc0 a2e2 38c0
00000010: fa54 3cc0 b225 3cc0 3a3c 47c0 3d3d 32c0
00000020: 81e8 33c0 35c4 3dc0 44b5 3cc0 a4c3 4cc0
00000030: 3b48 3cc0 71e3 3cc0 2ec9 42c0 cd3a 46c0
00000040: 89b2 40c0 ba57 45c0 c32d 45c0 b1c5 40c0
00000050: 4865 3dc0 24ac 41c0 7835 3ec0 85ef 3cc0
00000060: 175c 40c0 a309 3dc0 ded0 38c0 c33b 37c0
00000070: e8a3 3cc0 d5a8 42c0 85ab 44c0 51d6 43c0
00000080: 9357 36c0 23e0 3ec0 68d6 39c0 1ffc 3dc0
00000090: a306 42c0 5ec4 39c0 1db0 3ec0 84f0 39c0
000000a0: 293a 3ac0 9bd9 39c0 17b2 3ac0 865e 3ec0
000000b0: feb1 40c0 bd96 3cc0 fb72 39c0 9888 2fc0
000000c0: 25ea 42c0 1717 3ec0 8d40 3fc0 54b1 44c0
000000d0: 3611 41c0 b754 3dc0 832e 38c0 65e2 4cc0
000000e0: 845d 44c0 4b0d 3dc0 8073 3fc0 e950 2fc0
000000f0: b7f5 48c0 9efa 39c0 ed33 45c0 baad 40c0
00000100: e6e2 47c0 e9c4 36c0 f3b2 45c0 b4e9 42c0
00000110: 4b23 44c0 b68c 3ec0 3688 4bc0 7bd1 41c0
00000120: 35c4 3dc0 da4f 40c0 9c50 38c0 651b 3cc0
00000130: 06da 3cc0 38e8 42c0 7b6e 40c0 959f 36c0
00000140: 8648 48c0 092f 3ac0 aab8 3dc0 62f2 3ac0
00000150: bb5a 3fc0 9ee2 41c0 a78c 36c0 b53c 45c0
00000160: 80c3 38c0 202f 44c0 fa25 3fc0 7f0c 49c0
00000170: d549 3fc0 5957 3bc0 6040 3cc0 62f0 34c0
00000180: 688a 39c0 3321 48c0 aa53 3cc0 08bf 3cc0
00000190: 9605 3bc0 36a3 42c0 6818 3cc0 1f34 3bc0
000001a0: 8414 3ec0 1aea 33c0 b576 3bc0 5973 49c0
000001b0: e78c 3bc0 1a23 48c0 f0fd 41c0 c227 3fc0
000001c0: dfe0 39c0 c664 39c0 f655 47c0 1cc2 2ec0
000001d0: fbaf 3ac0 5f79 3cc0 f775 45c0 661a 46c0
000001e0: 8e82 41c0 6ecc 46c0 54d0 4ac0 35c0 32c0
000001f0: 73e7 43c0 df49 47c0 3dd1 46c0 4ba5 43c0
00000200: cbd6 35c0 5d98 47c0 1b95 3fc0 4e4c 3fc0
00000210: 74a9 46c0 2ee9 3fc0 cdf6 3ac0 6bbb 32c0
00000220: 65ef 37c0 0d5f 34c0 4f7a 3cc0 3254 40c0
00000230: 3497 38c0 14ba 3bc0 fcce 3dc0 1479 41c0
00000240: 5acb 4ac0 1058 3bc0 7468 3ac0 e0bf 3cc0
00000250: 19c7 3fc0 3563 40c0 6b39 4cc0 487e 41c0
00000260: eec6 3ac0 2cc0 34c0 4e93 3ac0 b53b 3fc0
00000270: 2c53 38c0 7b9c 3fc0 dc06 3ec0 88c5 2fc0
00000280: d7ba 34c0 eb4d 3cc0 a055 42c0 52de 40c0
00000290: e422 40c0 9b4c 32c0 1ea0 3bc0 9fad 40c0
000002a0: 56e2 41c0 d698 43c0 8d45 45c0 52c0 3ec0
000002b0: 560f 36c0 9d5f 3ac0 0d0e 3cc0 35fd 3ac0
000002c0: 399d 3bc0 a54b 34c0 832f 3fc0 403a 48c0
000002d0: 6830 44c0 9f54 49c0 d3d9 49c0 08fc 3bc0
000002e0: 1c12 3cc0 1f05 42c0 98fa 4bc0 6054 3dc0
000002f0: 9767 3dc0 2020 46c0 4ec0 3dc0 cb0b 34c0
00000300: b5c0 42c0 bdb7 48c0 b432 4bc0 b572 40c0
00000310: 9cfc 48c0 e69b 3fc0 9d29 50c0 dab7 3fc0
00000320: 23b4 3fc0 0392 3ec0 0164 3bc0 eea8 47c0
00000330: 3cac 3cc0 5e66 3bc0 2901 45c0 3e5a 37c0
00000340: 361a 3dc0 de96 46c0 b2a7 37c0 2ee4 41c0
00000350: d833 41c0 6e75 3ac0 817a 47c0 2640 41c0
00000360: d5ae 46c0 28bd 3fc0 b74a 49c0 dc4e 37c0
00000370: 8093 3ec0 7249 45c0 86d8 3ec0 e53f 46c0
00000380: 3d64 47c0 21a6 40c0 16fc 37c0 750d 4bc0
00000390: 857b 3cc0 580e 4ac0 348f 37c0 32d7 3fc0
000003a0: 274f 3cc0 f894 34c0 7485 3ac0 e814 40c0
000003b0: 0352 3fc0 00d0 42c0 9f3d 45c0 4908 46c0
000003c0: 5990 37c0 2e7e 40c0 f00c 3fc0 8d6d 3cc0
000003d0: d404 4ac0 736d 40c0 8eb4 38c0 541e 42c0
000003e0: b702 3dc0 d176 3ac0 2882 41c0 fa73 4bc0
000003f0: 3361 32c0 73e7 34c0 a599 4bc0 96c2 3fc0
-2.9943252 -2.9782488 -3.2025688 -2.8888326 -2.9426866 -2.9398007 -3.113051 -2.7849877
-2.811066 -2.9651005 -2.9485636 -3.199441 -2.9419086 -2.951382 -3.043529 -3.097339
-3.010897 -3.0834794 -3.080918 -3.0120661 -2.9593067 -3.0261316 -2.9720135 -2.952119
-3.0056207 -2.9537132 -2.8877482 -2.8630226 -2.947504 -3.0415547 -3.0729687 -3.0599558
-2.849095 -2.9824302 -2.9037113 -2.9685133 -3.031655 -2.9026103 -2.979499 -2.905305
-2.9097998 -2.9039066 -2.9171197 -2.9745193 -3.0108638 -2.9467003 -2.8976429 -2.742712
-3.045541 -2.9701593 -2.9883149 -3.0733232 -3.0166755 -2.9582956 -2.8778389 -3.201318
-3.0682077 -2.9539363 -2.9914246 -2.7393134 -3.1399972 -2.9059215 -3.0812943 -3.0106034
-3.1232238 -2.8557684 -3.0890472 -3.045514 -3.064654 -2.9773383 -3.1801887 -3.0284107
-2.9651005 -3.0048738 -2.87992 -2.939172 -2.950807 -3.0454235 -3.0067432 -2.85349
-3.1294265 -2.9091208 -2.964396 -2.9210439 -2.9899127 -3.0294566 -2.8523347 -3.0818303
-2.8869324 -3.0653763 -2.986693 -3.1413877 -2.9888813 -2.9272063 -2.9414291 -2.8271718
-2.8990726 -3.1270263 -2.9426064 -2.9491596 -2.922216 -3.0412116 -2.9389896 -2.9250562
-2.9700022 -2.8111634 -2.9291203 -3.1476653 -2.930475 -3.1271424 -3.031124 -2.9868016
-2.90435 -2.8967757 -3.1146216 -2.7305975 -2.916991 -2.944908 -3.085325 -3.0953612
-3.0235934 -3.1062274 -3.1689653 -2.7929814 -3.0610015 -3.1138837 -3.106521 -3.0569637
-2.841235 -3.1186745 -2.9934757 -2.9890323 -3.1040926 -2.9986072 -2.9213135 -2.792689
-2.8739865 -2.8183014 -2.9449651 -3.0051389 -2.8842287 -2.9332323 -2.9657583 -3.023015
-3.1686616 -2.92725 -2.9126253 -2.9492111 -2.996527 -3.006055 -3.1910045 -3.0233326
-2.9183917 -2.8242292 -2.9152408 -2.9880192 -2.8800764 -2.9939258 -2.9691687 -2.7464314
-2.8239038 -2.9422557 -3.0364761 -3.0135694 -3.0021296 -2.7859256 -2.9316478 -3.010597
-3.0294394 -3.0562034 -3.08237 -2.9804883 -2.844686 -2.9120858 -2.9383576 -2.9217045
-2.931471 -2.817117 -2.987275 -3.1285553 -3.0654545 -3.1457899 -3.15392 -2.9372578
-2.9386053 -3.0315626 -3.18717 -2.9582748 -2.9594476 -3.0957108 -2.9648623 -2.8132198
-3.043012 -3.1362145 -3.1749697 -3.0070012 -3.140418 -2.9938903 -3.2525399 -2.9955964
-2.9953697 -2.9776618 -2.9279788 -3.1196856 -2.9480124 -2.928123 -3.0781958 -2.864883
-2.9547248 -3.1029582 -2.8696103 -3.029552 -3.0187893 -2.9134173 -3.116852 -3.0195403
-3.104421 -2.9959202 -3.1451852 -2.8641882 -2.9777527 -3.0826077 -2.9819655 -3.0976498
-3.115493 -3.0101397 -2.874761 -3.1726964 -2.945039 -3.1571255 -2.8681154 -2.9975095
-2.942331 -2.8215923 -2.9143953 -3.001276 -2.9893806 -3.0439453 -3.081886 -3.0942557
-2.8681853 -3.0077014 -2.9851646 -2.9441864 -3.1565447 -3.0066803 -2.8860202 -3.033101
-2.9532907 -2.913502 -3.023569 -3.1789536 -2.7871826 -2.8266265 -3.1812527 -2.9962516

l1.mu_bias f4 [16]
00000000: b3fc e33e 2b19 0b3f 194b 073f 9624 223f
00000010: 59dc f63e a01f cf3e 050d 183f 748c ff3e
00000020: 8b77 013f d307 19bd e761 263e 58b8 6fbd
00000030: 9306 b23e 6cb9 1e3f 0304 193f 5d9f a5bd
0.44528732 0.5433528 0.52848965 0.63337076 0.48214987 0.40453815 0.59394866 0.49911845
0.50573033 -0.037360977 0.16248284 -0.058525413 0.3477064 0.6200168 0.59771746 -0.08087037

l1.rho_bias f4 [16]
00000000: d7d7 2ec0 b435 34c0 8e2e 3bc0 8313 40c0
00000010: 1246 4ac0 4cd4 3fc0 55ce 35c0 c57c 37c0
00000020: eac3 3ac0 3e54 abbf 62cd 12c0 f964 f6bf
00000030: dbe9 37c0 9aae 35c0 d6d2 3dc0 5de5 babf
-2.7319238 -2.8157778 -2.9247165 -3.001191 -3.1605268 -2.9973326 -2.8407185 -2.8669903
-2.9182076 -1.3385084 -2.2937856 -1.9249564 -2.8736484 -2.8387818 -2.9659934 -1.4601246

l2.mu_weight f4 [1, 16]
00000000: 5981 113f 7b93 323f 8374 133f 23b5 283f
00000010: e402 233f 07c4 1b3f f397 393f b19d 1c3f
00000020: 15d4 1b3f ec22 2abd c705 8f3e 1de6 66be
00000030: f4db 303f 8b4f 183f ac79 283f 374f dabd
0.56837994 0.6975629 0.5759966 0.6590139 0.63676286 0.6084599 0.7249748 0.6117812
0.60870486 -0.04153721 0.27934095 -0.22548719 0.6908562 0.5949637 0.65810657 -0.1065964

l2.rho_weight f4 [1, 16]
00000000: d497 44c0 69fb 45c0 3451 38c0 f025 4bc0
00000010: 230a 43c0 24d1 37c0 1339 3bc0 8b4f 47c0
00000020: 54b6 48c0 468c c1bf fd00 27c0 51c1 15c0
00000030: d53f 38c0 ef0e 3ac0 b891 42c0 1b7c e5bf
-3.0717669 -3.0934699 -2.8799562 -3.1741905 -3.0474937 -2.87214 -2.9253585 -3.11423
-3.1361284 -1.5120933 -2.6094353 -2.339924 -2.878896 -2.9071615 -3.040144 -1.7928499
