BNN/model_states/DNN_model_state_FD001_test.pt (torch, 29135 bytes, 7 tensors)

lstm.weight_ih_l0 f4 [128, 14]
00000000: c1f0 df3c 017a 83bd 2cda 09be 12cf 983e
00000010: aa80 09be 946d a73d a8bd 9bbe fbe2 873e
00000020: 29c8 9ebd 885e bebd b06b 663d 1055 143d
00000030: bab9 a13e 6075 a13d c494 f4bc 9cd0 f8bd
00000040: 3174 373e 6cd2 e4bc 2874 03be 2c0a 003d
00000050: 4040 0cbe 1fde 7bbc 98a2 2dbe 67be aebd
00000060: 6cc2 57be 750f 92be bdf6 72bd 0cf7 5d3d
00000070: 652e 2ebe af38 23be 0499 fe3d e181 193e
00000080: 0130 443c d21f 7b3e 576c be3d 128f 183d
00000090: 03d8 4abe 0242 053f bf51 f9bd bd78 f6bd
000000a0: 845c 303e 1207 8abd bc1c b1bb 3af9 b63e
000000b0: dc4e 943e 7802 3dbe ef78 ea3d 6aed 153e
000000c0: 2be0 953e 6a3e 9bbe 5990 2ebe 10dc 30be
000000d0: 749b e8bd e132 b23d a43b 07be 6c56 d93d
000000e0: b011 bd3d 0c46 3d3d 92b0 c73e 8089 85be
000000f0: d0a1 10bd e496 b8bd 5318 da3d a541 22bd
00000100: 9ffc 4dbc 74b9 bebd ce87 5d3e 109e 09be
00000110: 2057 4fbe 0225 c7bd 9924 0b3e ad64 a93d
00000120: f2e6 cd3d 9ec1 e63b 674c 6ebe 7028 cebd
00000130: 6692 84bd b84f aa3c 8ec1 073c fa59 6a3e
00000140: dc04 c8bd a94e 6cbe e567 433e cbd0 2bbd
00000150: 2560 58bd 6737 b2bd 5e0e 093e bbd6 59be
00000160: 5a2e 0abe 37db 523e d608 a73c 3f61 a73d
00000170: 6ba3 693d b034 0abd 0216 2fbe 7cde 27be
00000180: 0a62 123e 140a 283d 406e 6fbd 3174 a1be
00000190: 939a d6ba b4a7 6e3e f2e5 98bd 6190 18be
000001a0: 606f f73c 8d08 38be 1d6a 14bf dd3a 823e
000001b0: 4857 8fbe 2301 18bd 1883 953e a053 023d
000001c0: 10a1 d73c 3b1d 51be 4ee4 22be ed58 bdbd
000001d0: 2d0b 703d 3b3f 12bd 31cb 78be 0056 5a3c
000001e0: 4975 5f3b 0851 163e 074a d7bc fbb0 64bd
000001f0: 046a e9bd 7cdc e0bd 65e6 a0bd 26d1 dabd
00000200: f826 353e f264 4cbe b4ac 893e 941c 333d
00000210: e5e1 29be ec92 363e 7df5 f53d 0fc6 cdbc
00000220: e385 dbbd dd32 2c3d 8ade 84bd 7cc2 c7bd
00000230: 0988 98bd 1646 c0be e592 1e3e 85c6 1d3c
00000240: 4bc4 98be daf3 30bd 6707 9b3d f3fe 8d3e
00000250: 80b7 873c 8feb 2dbe 83a4 0abd a052 4fbe
00000260: 8045 1c3e d12f 483c 55b7 293e b33b 2abe
00000270: b939 b43c cb36 983e 20c3 e5bc 6152 863e
00000280: d8f3 76bd 6484 00bd 87ee 3fbe ba9f 0a3f
00000290: b8ad 04bd 27f8 77be 8583 993d 98dd ff3d
000002a0: 363d a9bc 5c91 a7bd d414 d7bd cf57 97bd
000002b0: 7011 2d3e 28c4 f1bd 3990 0abe abb4 f83d
000002c0: 6cf8 27bd ad7c 1bbe 6950 053e cf85 f03c
000002d0: 1db1 853c c42b 8eba aa06 0fbe a6ac 02be
000002e0: d6f1 ad3d abba 7a3e d5e3 ff3d 4923 5bbe
000002f0: c4e8 40be c2e4 273e 7482 3ebe d00d 203e
00000300: f70d a1bd b741 873e 12b8 283e ee07 043e
00000310: b01f 67bd 132e 44bd 7ff3 73bc b0c3 5cbc
00000320: ca57 dbbd 818f 0cbe 9c29 bf3c e117 193e
00000330: 504d ca3c 7956 80bd a83e 32be 065e 0fbe
00000340: f288 bebd b3cc ac3d ed6f 833d 1509 143d
00000350: e51d 35be 86e5 3bbd 3a59 cbbd 5bc3 a23e
00000360: dc88 183e 7258 88bd 67ce 333d d534 07be
00000370: 07fb 0abe 65e1 043e b23c 0b3d 20c5 4e3d
00000380: 2d46 23be 8af2 003d 1739 3a3e a868 213e
00000390: 0913 68be e9e7 00be d7f4 71be fc4a 833e
000003a0: 6345 ed3c e891 ca3e 6842 31bd 2a11 6f3d
000003b0: b4f0 3bbd 2751 f3bd c126 c0be 510b bcbe
000003c0: d37f dabd 27f6 d23b f258 51bd bffa 8cbd
000003d0: d343 74be 2ec4 d33d 638e 08be efef 70bc
000003e0: 7fce 6abe 78a0 5f3d f6bf 423d e9c3 46bc
000003f0: d5a5 5fbe c16d e7be 3603 d2be c457 b73e
0.02733648 -0.06419755 -0.13462132 0.29845482 -0.13427988 0.08175197 -0.30418134 0.2654036
-0.07753021 -0.09295374 0.056255043 0.036213934 0.3158701 0.07883716 -0.029856093 -0.12149164
0.17915417 -0.027932368 -0.12837279 0.0312597 -0.13696384 -0.015372782 -0.16956556 -0.0853241
-0.2107026 -0.28527418 -0.05931734 0.05419068 -0.17009886 -0.15939592 0.12431529 0.14990951
0.011974336 0.24523857 0.09298008 0.037245817 -0.19808964 0.52053845 -0.12173795 -0.12034748
0.17222792 -0.0673963 -0.0054050367 0.3573702 0.28966415 -0.18457973 0.114488475 0.14641348
0.2927259 -0.30321056 -0.17047252 -0.17271447 -0.11357775 0.08701111 -0.13206345 0.10612187
0.09231889 0.04620938 0.390019 -0.26081467 -0.035310566 -0.09013155 0.10649171 -0.039613385
-0.012572437 -0.09312716 0.21633837 -0.13439202 -0.2024808 -0.097238556 0.1358818 0.082711555
0.10053815 0.007042124 -0.23271333 -0.100663066 -0.06473236 0.020789966 0.008285893 0.22885886
-0.09766552 -0.23076881 0.19082601 -0.041947167 -0.052826066 -0.087019734 0.13384387 -0.2127332
-0.13494244 0.20591436 0.020389955 0.08172845 0.057040613 -0.033741653 -0.17098239 -0.16393465
0.14295211 0.041025236 -0.058454752 -0.3153396 -0.0016372971 0.23306161 -0.074657336 -0.14898826
0.030204475 -0.17972012 -0.57974416 0.25435534 -0.27996278 -0.03711046 0.2920158 0.031818032
0.026321918 -0.20421307 -0.15907404 -0.09245477 0.058604408 -0.035704833 -0.24296261 0.013326168
0.0034097007 0.14679348 -0.026280416 -0.055832844 -0.11397174 -0.10979554 -0.07856444 -0.10684423
0.17690647 -0.19960383 0.26889575 0.043728426 -0.16590078 0.17829484 0.12009714 -0.025118856
-0.10718896 0.042040695 -0.064877585 -0.09753892 -0.07447822 -0.3755347 0.15485723 0.00962985
-0.2983726 -0.043201305 0.07569771 0.27733573 0.016566992 -0.1698439 -0.033848297 -0.20246363
0.15260887 0.012218432 0.16573842 -0.16624336 0.02200018 0.29729304 -0.028047144 0.26234725
-0.06029114 -0.031376258 -0.18743335 0.54149973 -0.032392234 -0.24215756 0.074957885 0.124934375
-0.02065907 -0.08182022 -0.105020195 -0.07389795 0.16901183 -0.11804992 -0.13531579 0.12143835
-0.041008398 -0.15184279 0.13018955 0.02936068 0.016319806 -0.0010846783 -0.13967386 -0.12761173
0.08493392 0.2448527 0.124946274 -0.21400179 -0.18838793 0.16395858 -0.18604451 0.15630269
-0.07863992 0.26417324 0.16476467 0.1289365 -0.056426704 -0.047895502 -0.014889597 -0.01347439
-0.10710104 -0.13726617 0.02333527 0.14950515 0.024695069 -0.06266493 -0.17406714 -0.14000711
-0.09303464 0.08437481 0.064178325 0.036141474 -0.17687185 -0.045873187 -0.09929128 0.3178967
0.14895958 -0.066574946 0.043898012 -0.13203748 -0.13572322 0.12976606 0.03399343 0.05048096
-0.15944739 0.031481303 0.1818584 0.1576258 -0.22663511 -0.12588467 -0.23628555 0.25643146
0.02896375 0.39564443 -0.04327622 0.05836598 -0.04588385 -0.11880713 -0.37529567 -0.36727384
-0.10668912 0.006438035 -0.051110215 -0.068837635 -0.23853998 0.10340153 -0.13335566 -0.014705642
-0.22930335 0.054596394 0.04754635 -0.01213167 -0.21840604 -0.45200923 -0.41018075 0.35809147

lstm.weight_hh_l0 f4 [128, 32]
00000000: 14a5 27be 5afd 063e 1985 3dbd b7c8 e6bd
00000010: 8c86 8cbd 3c3d 3abe 132a 213e baca 64bd
00000020: e03d 89be fba5 1abe 6b12 bc3d cef0 353e
00000030: f4ec 19bc fe39 3abd 708f c7bd 375a 0dbc
00000040: b9f3 f63d ecef 99bd 9634 0e3c a0ce b03d
00000050: 316d 26bd a8d1 693e 74fd c43d f245 3f3e
00000060: cd93 03be abc4 f5bd 1de6 0fbe 8795 0f3e
00000070: f089 f7bd d9b4 9c3d e03d 2d3c c5ee acbe
00000080: ed70 dbbd 4164 b6be ad79 163f c4dd 48bd
00000090: 1ca2 c03c 33ee 663e 6998 19bc d7ef 8f3e
000000a0: 03c0 483e 7b1d 35be 7bb1 1a3e ba67 823d
000000b0: 4d7d ea3c ec7e 7abe 17c6 903d b2bc ba3e
000000c0: 3f72 e8bd 6c53 323e 9f2b 66bd fb35 eabd
000000d0: 72fc d3bd ccb9 cebc 5430 b6bd 393d 463c
000000e0: b442 0f3f 5dc3 edbd 95d9 ffbd ca7c 3f3e
000000f0: 8971 cfbc 660b b43c cf68 193e c41d ea3e
00000100: 3fa9 dcbc 6a87 2bbe dff6 3abf 8e40 cf3d
00000110: ffdc 0c3e 0ade 21be 1c31 023e 5c08 1f3e
00000120: aabd f9be c586 b03d 9682 863d f221 603e
00000130: ff4f 583e aff7 27be ebca 473d d7ae ccbd
00000140: 7b90 733d 10d8 363d f9b3 f03d 82af 633e
00000150: 2ad7 0fbe 0771 833d 6c90 d93b 33a5 8d3d
00000160: 0382 a9bd 0af3 88be 093e 1c3e 7ade 163d
00000170: da9c 133e cdec 0e3e d1e4 183d e503 72bd
00000180: dd98 133e bc19 d4bc 1893 073c 48c7 613e
00000190: 30c2 06be 710e 8e3b 1c99 7cbd ab9e 28be
000001a0: c6c8 313e a433 013d 1fe0 b83d bb99 5bbe
000001b0: 2150 83bc 7af6 9c3e 6b71 7dbd fb96 54bd
000001c0: ded8 f33d e588 c73d 3ab1 15bf c8c2 fdbb
000001d0: 2e4b d0bd eb66 e1b9 3567 10be 77f9 85bd
000001e0: d6bd a63c 239f 91bd 8607 e7bd 4f1e 063d
000001f0: da02 4f3c adf1 b63c 3c63 193e e20d d3bd
00000200: b8e3 05be 809e 0cbe ec02 4fbd d76f 713c
00000210: cbd4 d03d c7a3 b4bb b252 563d c2f8 b7bd
00000220: 9a0b 3b3e 29b5 323e a4c1 27be ba37 fdbd
00000230: b95c 52be e20d 9f3e 217e 0cbe 5b4d e4bd
00000240: 343c 1c3e 2cc5 0ebe 1864 ff3d d10c 25bd
00000250: a05f 003e f333 adbd 0821 b13d 9874 0239
00000260: caba 383d ef7f 2b3e ddd2 13be 506d 15be
00000270: ae28 183e 840c a7bd 1088 11be 57b0 613c
00000280: 66f8 9ebe 3d9d bbbd dc28 4c3e 07cb df3d
00000290: 0792 0dbe 35d8 4b3d e7ad 973d 0ff8 963e
000002a0: ed42 cc3d b383 e2bb 05bb 0bbd 462a 93bd
000002b0: aaae b3bd 209d 07bf ae24 c2bd eb9e 9a3e
000002c0: dd49 04bd 68cd ab3d d2ca 603d 4e6f 3cbd
000002d0: 42f7 86bd 2224 00be 0d3d 07be d1b5 8b3d
000002e0: bc80 e33d 7f46 c33c e57d 24be f6a3 2c3e
000002f0: 2983 263e 5e94 2f3d def0 513e 7ac2 8e3e
00000300: 45cf d63d 23b8 4e3d 232e bebd d1dc ff3c
00000310: ca52 afbe 7014 fb3d f82f 1dbe da97 d23c
00000320: 6dd1 ef3d a556 9d3d 1d38 79be d43f 36be
00000330: d6cf 75be e1cc d43d 0830 cb3c 8152 c73c
00000340: 14b2 553d dcbd 62be 2401 c73e a47f d9bd
00000350: a2bf d0bd 26b4 51be 64b3 aebd 5628 c9bd
00000360: d651 cf3c 7feb 89bd bde9 fd3c 45a6 993d
00000370: bffd 55be 723a 393b 29da e03c a1c5 b6bd
00000380: a1d7 2a3e 61fd 10be c794 f4bc 5010 d93b
00000390: 4b80 7c3d 6aad 65bd 1c73 1b3e ff47 0ebe
000003a0: 0c18 fdbd 6473 26bc cc55 05be 5db6 083e
000003b0: 3900 5d3d 6353 cdbc 7550 e23d 8434 adbc
000003c0: 21c1 c7bd ae7a dabc 4ebe f9bc 6211 293e
000003d0: a0fa f3bc 86c0 3bbd 71fc a23d ae02 1c3e
000003e0: 0318 3f3e 9104 8abe 1767 77be 0553 b4bd
000003f0: 78f6 af3d 2259 a0bc a066 933e 71aa 893e
-0.16371566 0.13182583 -0.04626951 -0.11268752 -0.068616 -0.18187422 0.15738706 -0.055857398
-0.2680502 -0.15102379 0.091832004 0.17767641 -0.009394873 -0.045465462 -0.097441554 -0.008627466
0.12058205 -0.075164646 0.00867953 0.086331606 -0.040631477 0.22833884 0.09618655 0.18679026
-0.1284935 -0.12000402 -0.14052625 0.14021884 -0.12086856 0.076516815 0.010573834 -0.33775917
-0.10714898 -0.35623363 0.5877941 -0.049039617 0.0235148 0.22551803 -0.009374716 0.2811267
0.19604497 -0.17687027 0.15106766 0.063674405 0.028624201 -0.2446248 0.07069033 0.36472088
-0.11349916 0.17414635 -0.056193944 -0.11436077 -0.103508845 -0.02523508 -0.088959366 0.012099558
0.55961156 -0.11609528 -0.12492672 0.18699947 -0.025322692 0.021978091 0.14981388 0.45725834
-0.026936172 -0.16750875 -0.73032945 0.10119735 0.13756178 -0.15807357 0.12714046 0.15530533
-0.48777515 0.08619455 0.06567876 0.21887949 0.21124266 -0.16403078 0.048777502 -0.099942856
0.05946396 0.044639647 0.11753077 0.2223492 -0.14046922 0.06418043 0.006639531 0.06916275
-0.08276751 -0.26747924 0.1525804 0.036833264 0.14415303 0.1395752 0.03732759 -0.059085745
0.14413781 -0.025891177 0.008274816 0.22048676 -0.13160014 0.0043352176 -0.061669454 -0.16466777
0.17361745 0.03154339 0.09027123 -0.21445362 -0.01602942 0.30656797 -0.061875742 -0.0519018
0.119065985 0.097429074 -0.5847355 -0.007744167 -0.101705894 -0.00042992024 -0.1410187 -0.06541722
0.020354193 -0.07110431 -0.11280732 0.03274375 0.012634957 0.022332037 0.14979261 -0.10305382
-0.13075149 -0.13732338 -0.050539896 0.014736137 0.10196837 -0.005512688 0.05232496 -0.08982994
0.18266144 0.1745192 -0.16382462 -0.123641446 -0.20543183 0.3106528 -0.1371999 -0.11147567
0.1525734 -0.13942403 0.12470263 -0.040295426 0.12536478 -0.08457174 0.08648878 0.000124412
0.04510001 0.16748022 -0.14435907 -0.1459248 0.14859268 -0.08156684 -0.1421206 0.013774953
-0.31048888 -0.0916085 0.19937462 0.10927396 -0.13825236 0.049766738 0.07406216 0.2948613
0.099737026 -0.0069126724 -0.034113903 -0.071857974 -0.08773549 -0.5297413 -0.09479652 0.3019937
-0.032297004 0.083887875 0.054880925 -0.046004586 -0.065901294 -0.12513784 -0.13206883 0.06821788
0.111085385 0.023837326 -0.1606365 0.16859421 0.16260971 0.042866103 0.2050204 0.2788275
0.10488752 0.050468575 -0.09286144 0.031233223 -0.3424285 0.122597575 -0.1535033 0.025707174
0.11709867 0.07682542 -0.24337812 -0.17797786 -0.24005064 0.1039064 0.024803177 0.024331333
0.05217178 -0.22142738 0.38868058 -0.10620049 -0.10192801 -0.20478877 -0.0853031 -0.098221466
0.025307577 -0.067343704 0.030995244 0.075024165 -0.20897578 0.0028263596 0.027447777 -0.089244135
0.16683818 -0.14159156 -0.029856099 0.006624259 0.061645787 -0.056073584 0.1518063 -0.13894652
-0.12358102 -0.010159347 -0.1302101 0.13350816 0.05395529 -0.025064176 0.11050502 -0.021143205
-0.09753633 -0.026669826 -0.030486252 0.16510537 -0.029782593 -0.0458379 0.079583056 0.15235397
0.18661503 -0.2695661 -0.2416042 -0.08804897 0.08591932 -0.019573752 0.28789234 0.2688785

lstm.bias_ih_l0 f4 [128]
00000000: 0610 3cbd f940 143d bb0a 03be 4adb 1f3e
00000010: 0fe5 6f3c f00f e13b 228e 043e 58f3 16be
00000020: efdc af3d b9d8 8f3e d92d a03e 949e 033e
00000030: f6bb cd3e 12c3 963d 67c6 783e 4acd 70bd
00000040: 0ff1 7a3e 5e98 773e f65b 533f 7271 123e
00000050: a559 463e cea1 683c 3821 553d fcdf 92bd
00000060: 2c46 093d a910 3fbd a2f9 aebc 5af0 84bd
00000070: dc91 71bd 24f9 b63e e87f 88bd 5558 97bd
00000080: dde7 513e ea87 343e 9152 a73c 3236 d03d
00000090: 78b6 953e a6aa 7bbc fe2c ee3d aae2 89bc
000000a0: e384 023c 3d3d 1e3e 292e 403e 9026 843d
000000b0: 10fb 533e 7661 e93d bbf0 d93e 96ec c33d
000000c0: 1b1b df3b db0f 213e ec94 ff3d 4ef5 503e
000000d0: 6e07 f13c b09d 733d 0ba3 733d ca49 483e
000000e0: a82c 29bd e087 83bd 1974 e5bd 826a 60bd
000000f0: b2b2 eb3d 2e74 fd3d e9de 4abc 4056 2fbd
00000100: be2e fe3d e80f 883e 26e2 bf3d a7e3 54bd
00000110: 5c3e b2bd e880 fa3d 2103 8abe 6eb8 3f3e
00000120: 1a40 35be 9d87 7e3e c7c1 89be 0e4b 67be
00000130: 8b64 e5be 526b 4cbd 3937 1f3e b96e 0f3e
00000140: f4c0 e63e a265 dabe 7b2d e83d 870e 1abd
00000150: 01a7 32be 0c19 1cbe c917 58be 8bb4 6bbe
00000160: b29e ee3d 2ef0 4f3c 8bc4 123e 9e91 e3bc
00000170: 2878 ff3d a0b0 9c3c ed04 7e3d 51b8 283e
00000180: 9e7a 0a3e 479c 1f3f e3b2 9d3e ec04 fcbd
00000190: d072 9d3e d944 8fbc 4f53 fe3d 49dc fe3d
000001a0: 9f1a b03d 8f13 5a3e f062 c73d e817 b0bd
000001b0: 7863 983e 82e0 09be eb93 9c3e e92c 5f3e
000001c0: bf31 443e a614 d53e 0c69 183f e33f 843d
000001d0: d9e3 9abc de1b 123e 4447 da3e 6869 883d
000001e0: 1f7b 14bd 480f 893e 9571 61bd c9e0 1e3e
000001f0: f7a1 b73e 9415 fd3e a144 3dbe 786f 153e
-0.04591372 0.036194775 -0.12797062 0.15610996 0.014642014 0.006868355 0.12944844 -0.14741266
0.085870616 0.28095034 0.3128498 0.12853462 0.40182465 0.073614255 0.24294434 -0.05878953
0.24506019 0.24179217 0.82562196 0.14301088 0.19370134 0.0141987335 0.052033633 -0.07171628
0.033514187 -0.046646748 -0.021359269 -0.06491156 -0.058976993 0.35736954 -0.06665021 -0.07389895
0.20498605 0.17629972 0.020425113 0.10166587 0.29240775 -0.01536051 0.11629675 -0.016831715
0.007966253 0.15453048 0.18767609 0.06452668 0.20701241 0.11395542 0.42566475 0.095666096
0.006808651 0.15728705 0.124795765 0.20406076 0.029422488 0.059476554 0.05948166 0.19559398
-0.041302353 -0.064224005 -0.112037845 -0.054789074 0.11508693 0.12375675 -0.0123822475 -0.042806864
0.12411259 0.26574636 0.09369306 -0.05197492 -0.087033 0.12231618 -0.26955512 0.18722698
-0.17700234 0.2485642 -0.26905653 -0.22587225 -0.4480327 -0.049907036 0.1554841 0.14007081
0.45069087 -0.42655665 0.113368 -0.03761151 -0.1744652 -0.1524393 -0.21102823 -0.2301809
0.116513625 0.012691541 0.14332788 -0.027779397 0.1247409 0.01912719 0.062016416 0.16476561
0.13523337 0.62347835 0.30800542 -0.12305626 0.30751657 -0.017488884 0.124182336 0.1244436
0.085988276 0.21296524 0.09735668 -0.0859831 0.2976339 -0.13464549 0.30581602 0.21794476
0.19159602 0.41617316 0.5953529 0.06457498 -0.018907474 0.14268443 0.42632496 0.0666073
-0.03625023 0.2676947 -0.05503996 0.15515436 0.35865757 0.49430525 -0.18483211 0.14593303

lstm.bias_hh_l0 f4 [128]
00000000: f9eb 243d 60a7 103e 3b58 f3bd b89b 193e
00000010: c7ec 663a fb43 cfbd fb14 833e 3483 25be
00000020: 5517 af3d f6d9 49bd 16b2 153e 96b2 57bd
00000030: b45e fa3d 60f9 4fbd 7c08 823e 5035 e2bc
00000040: d189 0f3e 7e48 eb3e d7e9 733f c1bf cfbd
00000050: 4cba c43d d93f bf3c e3e0 1abc 1515 45bd
00000060: 2e09 06be b6b0 05be 7e8d 433d 657f 4fbc
00000070: e140 513d 1357 4b3e 84c4 79be 75a4 43bc
00000080: 69a4 f33c 3d47 783e 9e68 073e 14d8 de3d
00000090: dcaa 793e c1bc f23c 4ee8 1f3d 70c3 593e
000000a0: 157b 6a3e a5cd 8c3e fd1d a23e 33af 663d
000000b0: 749a fd3e af1c 293e 4c46 133e 3af4 4fbd
000000c0: 8975 8dbd 59d3 7e3e 5a7b e43e 7123 af3d
000000d0: 9117 90bd f3a3 fbbc 2692 743d 05c4 923e
000000e0: a30d 993d 466b 4fbd a6a7 673e 5c01 7e3e
000000f0: f7fa 983d de71 293e f755 db3d b604 9ebd
00000100: be9e 2f3e 4e87 df3d 0fa9 6ebd 18cd f9bc
00000110: bd54 0cbe 3cd2 ce3d 2e97 95be 48ce 4ebd
00000120: e51b 013e d176 f03d 5e7e 46be 8d10 7dbe
00000130: d45f 07bf 4103 f0bc 83b6 ae3e 56cb f9bd
00000140: b81f d53e c975 babe 4c02 163e e931 40be
00000150: 5114 61bd 4fd7 c8be 9cf4 70bd 6c84 a7bd
00000160: bf31 593d e7e0 4d3c 9d26 673d 3c83 cf3d
00000170: 785f 13be 8d6c 313e 46c2 e73d a23a 1a3e
00000180: 0047 183e 5748 f33e 4de9 bf3e 01e9 eebd
00000190: a112 353e bbe9 8b3e 01c5 103e cdf5 8f3e
000001a0: df0a fe3c a0b0 1a3e 1413 433e 2e36 37bd
000001b0: ad2b ab3e 894b 6dbd 9b11 023f e0b6 d73e
000001c0: ff62 fb3d 399e 033f 491f d73e 288e d33d
000001d0: 84a4 7b3e 384c 2e3e cf2f cc3d 962e de3d
000001e0: 466b aebd 8cb7 ca3d 0f6e d7bd f9ba 213e
000001f0: 3d95 ac3e 3d84 753e 7a40 2bbe 0193 1f3e
0.040264104 0.14126348 -0.11882063 0.15000808 0.0008809086 -0.10120388 0.25601944 -0.16163331
0.08549372 -0.04928013 0.14618716 -0.052660547 0.122250944 -0.050774932 0.25397098 -0.027613312
0.14017417 0.45953745 0.95278686 -0.10143996 0.09605846 0.023345875 -0.009453031 -0.04811581
-0.1308944 -0.13055691 0.04774236 -0.012664651 0.051087264 0.19857435 -0.24391371 -0.011941065
0.029741483 0.24245925 0.13223502 0.108810574 0.24381584 0.02963102 0.039039902 0.2126596
0.22898515 0.27500644 0.31663504 0.056319427 0.495319 0.16514848 0.14382285 -0.050770022
-0.06907184 0.2488531 0.4462536 0.08551682 -0.07035745 -0.030717826 0.05970969 0.28665176
0.07473304 -0.050639413 0.22622547 0.24805206 0.07469743 0.16547343 0.10709756 -0.07715742
0.17150399 0.10914479 -0.058266696 -0.030493304 -0.137042 0.10098693 -0.29216903 -0.050489694
0.12608297 0.117414124 -0.19384143 -0.24713345 -0.528806 -0.029298427 0.3412362 -0.121969864
0.41625762 -0.36417988 0.14649314 -0.18769039 -0.054951016 -0.39226767 -0.058827028 -0.08179554
0.053025957 0.012565828 0.05643331 0.10132453 -0.14391887 0.17326565 0.113163516 0.15061429
0.14870834 0.47516128 0.37482682 -0.11665536 0.17682888 0.2732676 0.14137651 0.2811722
0.031011043 0.1510644 0.19050246 -0.044729404 0.3343176 -0.057933364 0.50808114 0.4213171
0.122747414 0.51413304 0.42016056 0.103298485 0.24574476 0.17021263 0.09970056 0.10848729
-0.085165545 0.0989829 -0.10519039 0.1579398 0.3370761 0.23976226 -0.16723815 0.15583421

dense_layers.0.weight f4 [16, 32]
00000000: a881 27bf 1bf3 153f 6f8f 123f 1e8a 473f
00000010: ba9d 53bf 299d 203f f748 0dbf 75fd 2c3f
00000020: 9745 4ebf b8b2 503f a267 47bf 19eb 483f
00000030: 56b0 1cbf 570d cabe 1a63 463f 8b2c 223f
00000040: e128 2b3f ae08 28bf fcea f83e 2828 c63e
00000050: d2f3 06bf 951a 0abf 881c 24bf 922e 4cbf
00000060: 3e09 363f f867 f8be 4616 43bf 7f9e 433f
00000070: 84f6 27bf d0b5 2d3f 616d 953f 8c03 783f
00000080: dec5 a1bd c724 5b3e 8ef8 8d3e bfac b03d
00000090: 2d46 c5bd cff6 bc3d 83fb 2ebe a248 113d
000000a0: d5fe 10bc c3b6 da3d a3fd 1b3e 1234 22bf
000000b0: 7672 95bd 0ac1 1bbe 5a19 fabd eb1f ae3e
000000c0: ab00 13be 7b8b 01be 0afd 0cbe f158 14bf
000000d0: 4ee2 a0bd 7fd2 20be bf21 6d3e 3547 333d
000000e0: 5c87 2fbd 3d22 463f f3c0 84bd a31d ee3d
000000f0: 1acd eebd 4888 903d 2923 acbf c15d 3dbf
00000100: 5d8d c1bc 8109 22bc 16a6 2c3d 1418 c4bd
00000110: 39df e6bb ebc0 debd 38ab 55bb f2a0 2ebe
00000120: 413d 7c3e b603 4abd 731d b3bd 2378 c7be
00000130: 548d 793d 8d3b 45bc b884 2c3d d5d2 073e
00000140: 1be0 7fbb 2af7 bc3b 8939 0dbe f9df febd
00000150: ac52 88bc 7e18 b53d bb4f 2d3d d4d1 303e
00000160: 2387 a9bd 463f 63bb c62c 26bd 8242 7e3d
00000170: 1b95 2d3e 2b90 72be c350 c8be 3b53 c3be
00000180: ede4 fbbe c034 103f d8ba f63e f841 f63e
00000190: 0c1e 3ebf 8f58 2a3f 4e2d 0ebf 0e18 293f
000001a0: 20c1 26bf b6ae e03e 969c 1fbf 1c48 2c3f
000001b0: d71b 2cbf e259 fbbe 8b15 2b3f bd7f ec3e
000001c0: 9718 193f 747a 21bf 0772 1e3f 2962 843e
000001d0: e4c4 37bf fe10 2cbf 143d edbe ef99 1dbf
000001e0: d8f3 393f c359 debe 9c2b 1abf d30c 013f
000001f0: 0b8a 26bf 5462 233f a661 853f 2660 4a3f
00000200: a021 0fbf 1560 1d3f 62b7 2e3f 8240 333f
00000210: 1ebf 15bf 8a95 193f 8a2a 0ebf 636f 053f
00000220: cc37 5ebf 0bc2 0f3f aaf7 febe 5f63 293f
00000230: 885b 0ebf fdea adbe a6f9 313f 7b82 043f
00000240: e1b9 323f d379 0fbf 73f9 033f f293 3c3e
00000250: aef0 31bf 40bf 2fbf bf91 00bf 33bb d0be
00000260: e609 2b3f 6fab ddbe 4953 1fbf 5fe1 f43e
00000270: 56ce 23bf 4404 203f 5e87 733f fd71 3f3f
00000280: 0314 cebe 5099 e63e 8f2b 053f 13a3 323f
00000290: 69e4 25bf c4ed 363f 9a72 27bf 00ac 3e3f
000002a0: a4e2 1ebf c2b7 253f 5883 1bbf bd85 013f
000002b0: 80b7 38bf 52af 15bf 3f89 333f f34c 373f
000002c0: 5642 203f 94cf 1ebf d504 1c3f 12d4 753e
000002d0: e1b8 3cbf c5bc 2fbf be70 f2be d684 1dbf
000002e0: 7944 183f 1bdc 0ebf 2ac0 f0be 1e37 e73e
000002f0: 3816 22bf aedb 263f bd72 8a3f 5f86 763f
00000300: 0a06 debe 4404 143f 1e8a 373f 2525 463f
00000310: 799a 0bbf 7e12 2b3f fcfb 12bf 2c12 253f
00000320: e840 1dbf e814 2c3f 7dc4 43bf 42f5 133f
00000330: a12c 4bbf 3e2c 19bf 41b2 223f fb58 033f
00000340: 7535 ec3e 73f0 47bf f35d 323f 4a6d 8b3e
00000350: 901b 29bf 4884 22bf 3a9d 1fbf c461 35bf
00000360: 090f 1d3f 17da 25bf 201e 47bf c6c7 dc3e
00000370: 9f03 31bf e6f0 363f 1ea7 943f 8c22 613f
00000380: b760 873e df5c 84bc 9925 35be 2157 73be
00000390: f21e 143e a294 8dbe 6741 693e 854b dabd
000003a0: d3f4 663e 87cd 71be 32d1 713d 465e 00bd
000003b0: bcc4 d33e a90c 07be 0966 9abd c894 75be
000003c0: 1822 92bd f95b 203e 6954 17be 47a3 c53d
000003d0: a5c1 f93e 86c0 d43e 948f 243e 8341 403e
000003e0: 9cda 5d3e 8cdd 993d 3f67 323e 829a a93c
000003f0: 972a 863e 17b2 81be 2e69 62be 461c 39ba
-0.65432215 0.58574075 0.5725011 0.77945125 -0.82662547 0.6273981 -0.5518946 0.67574245
-0.80574936 0.81522703 -0.77892506 0.7848373 -0.6120657 -0.39463302 0.77494967 0.6334922
0.6685925 -0.65638244 0.4861678 0.38702512 -0.5271579 -0.5394681 -0.64106035 -0.7975856
0.7110785 -0.48516822 -0.7620586 0.7641372 -0.6561053 0.6785555 1.1674005 0.9688041
-0.07899068 0.21400748 0.27728695 0.08626699 -0.096325256 0.092267625 -0.17088132 0.03546966
-0.008849819 0.1067939 0.15233473 -0.63360703 -0.07297222 -0.15210357 -0.12211867 0.34008726
-0.14355724 -0.12650864 -0.13768402 -0.57948214 -0.07855664 -0.15705298 0.23157404 0.04376908
-0.042853698 0.77395993 -0.06482115 0.116267465 -0.11660214 0.070572436 -1.344823 -0.7397118
-0.023626978 -0.009889961 0.04215058 -0.09574905 -0.007045653 -0.1087664 -0.0032603275 -0.17053583
0.24632742 -0.049319945 -0.08745851 -0.38958845 0.060925797 -0.012038124 0.042118758 0.1326402
-0.003904349 0.005766769 -0.13791479 -0.12445063 -0.016640984 0.08842562 0.042312365 0.17267543
-0.082777284 -0.0034675165 -0.040570043 0.062075146 0.1695141 -0.23687808 -0.39124116 -0.38149437
-0.49198094 0.5633049 0.48189425 0.48097205 -0.742646 0.6654138 -0.5553788 0.6605233
-0.65138435 0.43883294 -0.62348306 0.6729753 -0.6722998 -0.49092013 0.66829747 0.46191207
0.59803146 -0.63077474 0.6189274 0.2585614 -0.71784806 -0.6721343 -0.4633566 -0.6156301
0.726377 -0.43427858 -0.6022279 0.50410193 -0.65054387 0.6382191 1.0420425 0.7905296
-0.5591068 0.61474735 0.6824857 0.70020306 -0.58494747 0.59993804 -0.5553366 0.5212309
-0.8680389 0.5615546 -0.49798328 0.66167253 -0.55608416 -0.33968344 0.6952156 0.517616
0.6981488 -0.56045264 0.51552504 0.18415812 -0.69507873 -0.686512 -0.5022239 -0.40767822
0.6681198 -0.43294856 -0.6223646 0.47828194 -0.6398672 0.6250651 0.9512843 0.7478331
-0.40249643 0.45038843 0.5201959 0.6978008 -0.6480165 0.7145655 -0.65409243 0.744812
-0.62064576 0.6473352 -0.6074729 0.50594693 -0.72155 -0.5847064 0.70131296 0.7160179
0.6260122 -0.6203549 0.60944873 0.2400668 -0.737196 -0.68647414 -0.4735164 -0.61530817
0.5947948 -0.55804604 -0.4702161 0.4515924 -0.63315153 0.65178955 1.0816265 0.96298784
-0.43363982 0.5781901 0.71695125 0.7740043 -0.5453258 0.6682509 -0.5741575 0.64480853
-0.61427164 0.672194 -0.7647169 0.5779611 -0.79364973 -0.59833133 0.63553244 0.5130765
0.46134534 -0.7810127 0.69674605 0.27231818 -0.6605768 -0.63483095 -0.62349284 -0.70852304
0.61351067 -0.64785904 -0.7778034 0.43121165 -0.6914615 0.7146133 1.16135 0.8794334
0.26440975 -0.016157566 -0.17690124 -0.23763706 0.1446493 -0.2765246 0.22778855 -0.106589355
0.2255433 -0.23613559 0.059037395 -0.031339906 0.41361034 -0.13188423 -0.07538993 -0.23982537
-0.07135409 0.15660085 -0.14778294 0.09650283 0.48780552 0.41553134 0.16070396 0.1877499
0.21665424 0.0751296 0.17422198 0.020703558 0.26204368 -0.25331184 -0.22110435 -0.0007061403

dense_layers.0.bias f4 [16]
00000000: 0b32 433f e7b4 503e 61e6 313e 4ee0 bd3e
00000010: 20be 283f a605 103f 335e d63e 0889 a63e
00000020: 2dcc 163f 5baf 153f 885f 963e 6656 2f3f
00000030: f4d5 313f 9abd 153d 56d2 b33e 9da4 243f
0.76248235 0.20381509 0.17373039 0.37085193 0.6591511 0.5625862 0.41868743 0.32526422
0.589053 0.58470696 0.2936976 0.6849121 0.6946709 0.03655777 0.3512141 0.6431368

dense_layers.2.weight f4 [1, 16]
00000000: cdba 213f afee cdbe 1c33 2abe 9531 5e3f
00000010: b724 513f 2e17 503f d9e1 243f 26a8 babe
00000020: defe 363f c537 46bf 5dbb b8be 3b89 373f
00000030: 8311 553f 81b3 d7be 0ea8 edbe df45 2d3f
0.6317566 -0.40221164 -0.16621059 0.86794406 0.8169665 0.8128537 0.64407116 -0.36456412
0.71482646 -0.7742885 -0.36080447 0.7169377 0.83229846 -0.42129138 -0.46417278 0.6768474
