BNN/model_states/DNN_model_state_FD001_test.pt (torch, 29135 bytes, 7 tensors)

lstm.weight_ih_l0 f4 [128, 14]
0	0xbd9f3040	-0.07772875
1	0xbd75df36	-0.060027324
2	0xbe2b40f1	-0.16723992
3	0x3e7c0151	0.24609877
4	0xbe44ad3a	-0.19206706
5	0xbda4334c	-0.080175966
6	0xbe67e5f4	-0.22646314
7	0x3e33ed21	0.17570926
8	0x3d61311b	0.05497847
9	0xbe80e648	-0.2517569
10	0x3d8a8131	0.067629226
11	0xbdefa1ea	-0.117008045
12	0x3e9335c8	0.2875197
13	0x3e5168a5	0.20450075
14	0x3e1434a6	0.14473209
15	0xbd351dc7	-0.04421785
16	0x3e8402a4	0.25783265
17	0xbc547f62	-0.012969824
18	0xbd599e9e	-0.053129785
19	0xbd26532d	-0.040606666
20	0xbd735d07	-0.05941489
21	0xbdfedd9b	-0.12444612
22	0xbd8d17b6	-0.06889288
23	0x3d0f29a8	0.034951836
24	0xbd900fa3	-0.070342325
25	0xbd0fdef7	-0.035124745
26	0xbd9bd8f7	-0.07609742
27	0xbe137508	-0.14400113
28	0xbd7ce251	-0.06173927
29	0xbe6d00b4	-0.231448
30	0x3ded630d	0.11591158
31	0xbe159271	-0.14606644
32	0x3e5652fe	0.20930097
33	0xbd8e2bd7	-0.069419555
34	0xbcfcac53	-0.03084389
35	0x3de68df3	0.112575434
36	0x3dfb8ab1	0.12282313
37	0x3d1989a9	0.0374848
38	0x3c801fac	0.015640102
39	0xbe099a31	-0.13437726
40	0x3db492a8	0.08817035
41	0xbcfd433a	-0.030915845
42	0xbd616aec	-0.05503361
43	0x3d146270	0.03622669
44	0xbd1cc462	-0.038273223
45	0xba6545c8	-0.0008746055
46	0x3d83752b	0.064188324
47	0x3d343c7f	0.044003006
48	0xbc474443	-0.012162271
49	0xbd4531cc	-0.048143193
50	0xbe579103	-0.21051411
51	0xbd721e72	-0.059111066
52	0xbe6ffd2b	-0.2343642
53	0x3d80a3e8	0.06281263
54	0x3e1d7525	0.15376718
55	0x3e5b54cf	0.2141907
56	0x3c6a9046	0.014316624
57	0x3dcec67a	0.1009645
58	0xbbfba488	-0.0076795258
59	0xbd94edef	-0.07271945
60	0xbcf68580	-0.030092955
61	0xbe474ec3	-0.19463639
62	0x3cc5c45e	0.024141487
63	0x3dd09c21	0.10186029
64	0x3cc64fea	0.024208028
65	0xbdf60d7b	-0.1201429
66	0x3da763a5	0.081733026
67	0xbe364f9b	-0.17803805
68	0xbdf69e6c	-0.12041935
69	0xbd585a1b	-0.052820306
70	0x3e265001	0.16241457
71	0x3d05b740	0.032645464
72	0x3e17c0c2	0.14819625
73	0xbcc7dd84	-0.024397619
74	0xbea72b2e	-0.3265013
75	0xbe532c7e	-0.20622441
76	0xbe6dc1fe	-0.23218533
77	0x3e4f3aab	0.20237224
78	0xbca7ff3e	-0.020507451
79	0x3da3cdf4	0.07998267
80	0xbe3e3dfb	-0.18578331
81	0xbe64990b	-0.22324006
82	0x3e4482bd	0.19190498
83	0x3cc77785	0.024348984
84	0xba37bf9e	-0.0007009449
85	0xbda13bd5	-0.0787274
86	0x3dbf6aaf	0.0934652
87	0xbe0e50be	-0.13897988
88	0xbe0e69f3	-0.13907604
89	0x3bcf9d14	0.006335864
90	0x3cc0b92b	0.023525795
91	0xbdb67df4	-0.089107424
92	0x39dc3b02	0.00042005634
93	0x3d97d4c7	0.07413631
94	0xbe203c37	-0.1564797
95	0xbdb07168	-0.086153805
96	0x3e2dd15b	0.16974394
97	0xbd70a2b5	-0.05874892
98	0xbe851571	-0.2599292
99	0xbeb923ab	-0.36160025
100	0xbe750c58	-0.2393049
101	0x3e032fb5	0.12811168
102	0xbe04b480	-0.1295948
103	0xbe61120f	-0.21979545
104	0xbdf91105	-0.12161449
105	0xbd5f310e	-0.05449014
106	0xbe65cb22	-0.2244077
107	0xbe446931	-0.19180752
108	0xbe85aa9b	-0.26106724
109	0xbe58ebcc	-0.211837
110	0x3e99b9b1	0.30024484
111	0x3e71060c	0.23537463
112	0xbe22932c	-0.15876454
113	0xbea1e11a	-0.3161705
114	0xbe89a729	-0.26885346
115	0x3c87717a	0.016533602
116	0x3d370251	0.044679943
117	0xbe73217a	-0.23743239
118	0xbe216bf4	-0.15763837
119	0xbd0f018f	-0.034913596
120	0xbc9d7ff3	-0.01922605
121	0xbe189903	-0.1490212
122	0xbdf40251	-0.11914504
123	0xbe7dad5b	-0.24773161
124	0xbc71c9ec	-0.014757615
125	0x3a9de2f4	0.0012045787
126	0xbe0d0b10	-0.13773751
127	0xbdf68094	-0.12036243
128	0x3e2bb36e	0.16767666
129	0xbd0732b8	-0.033007354
130	0x3dfdce3c	0.12392852
131	0x3d8c428f	0.068486325
132	0xbe1cbab7	-0.15305601
133	0x3db77d01	0.089593895
134	0xbdd10d69	-0.10207636
135	0xbd58902a	-0.05287186
136	0xbe310555	-0.1728719
137	0xbe3832cd	-0.17988129
138	0x3d60a364	0.05484332
139	0xbd40a9f3	-0.047037076
140	0x3d693eec	0.056944773
141	0xbe05688c	-0.13028163
142	0x3daadcdd	0.083429076
143	0xbd1e9c25	-0.03872313
144	0xbe0bc7b2	-0.13650396
145	0xbc061332	-0.008183287
146	0xbc5d3f48	-0.013503857
147	0x3e92bd93	0.2866026
148	0x3dbea5ac	0.09308943
149	0xbe3eb163	-0.18622355
150	0xbd811ca1	-0.06304289
151	0xbe3290bf	-0.17438029
152	0x3d48cb98	0.049022287
153	0xbd26beed	-0.040709425
154	0xbe226ec8	-0.15862572
155	0xbe8f4579	-0.2798269
156	0xbe2d9153	-0.16949968
157	0xbc004a47	-0.007830209
158	0xbae59bc0	-0.0017517731
159	0xbd9255d6	-0.07145278
160	0x3e24e171	0.16101624
161	0xbc99eecf	-0.01879063
162	0xbd2520cd	-0.040314484
163	0xbe106cc6	-0.14103994
164	0x3d23cf8a	0.039992847
165	0xbe005160	-0.12531042
166	0xbd36b0ff	-0.04460239
167	0x3e5a10b2	0.21295431
168	0x3e05ae68	0.13054812
169	0xbd79e735	-0.06101151
170	0xbd960d8d	-0.07326803
171	0xbc5f771a	-0.013639236
172	0x3d94e163	0.072695516
173	0xbe06d3db	-0.13166754
174	0xbdd5855d	-0.10425828
175	0xbd0ea81f	-0.0348283
176	0xbe0e45be	-0.13893792
177	0xbcbfebfa	-0.023427952
178	0x3e2bcf3d	0.16778274
179	0xbe1964f2	-0.14979914
180	0x3d09637c	0.03354214
181	0x3db52e1e	0.08846687
182	0xbd2afc37	-0.041744437
183	0xbdb62a2d	-0.08894763
184	0x3dc9d2bd	0.09854648
185	0x3d6a2848	0.05716732
186	0x3d814a11	0.06312955
187	0xbd97ee2d	-0.07418475
188	0xbd5ceb82	-0.053935535
189	0xbd864d4c	-0.06557712
190	0xbe0c9472	-0.13728502
191	0xbdb7d0b9	-0.089753576
192	0x3dc3a14a	0.09552248
193	0x3e8515bc	0.25993145
194	0xbd26b308	-0.04069808
195	0xbd374880	-0.044746876
196	0xbe302074	-0.1719988
197	0xbdf64bb5	-0.12026159
198	0xbd16c138	-0.03680536
199	0x3dc9ce86	0.09853844
200	0xbe619716	-0.22030291
201	0xbdf9533c	-0.12174079
202	0x3dc105dc	0.09424946
203	0x3d97ec42	0.074181095
204	0xbded3b73	-0.11583605
205	0xbe247e9f	-0.16063927
206	0xbe3fd12e	-0.1873214
207	0xbe5d99b6	-0.21640667
208	0x3bf1ec95	0.007382939
209	0x3dedec05	0.11617283
210	0x3c4a68f4	0.012354124
211	0x3cf44025	0.029815743
212	0xbe4a7ec7	-0.19774924
213	0xbdc45f16	-0.09588449
214	0xbc79c0ca	-0.015243718
215	0x3db2bffc	0.08728024
216	0x3cf81e6a	0.03028794
217	0xbd39657d	-0.045262802
218	0x3d99a384	0.07501891
219	0xbe1d4976	-0.15360054
220	0xbe12c968	-0.14334643
221	0x3d65a7b4	0.056068137
222	0xbd148258	-0.036257118
223	0xbc759017	-0.014987967
224	0xbe4cc15c	-0.19995636
225	0x3df8c3b0	0.121466994
226	0x3cf9b5c5	0.030482182
227	0x3e076768	0.1322304
228	0xbe8ef3b8	-0.27920318
229	0xbe8d434e	-0.27590412
230	0xbe6df2a9	-0.23237099
231	0x3e8aea17	0.2713172
232	0xbd3a90ef	-0.045548376
233	0x3d3146db	0.043280464
234	0x3d5999e5	0.05312528
235	0xbcc6d5c1	-0.024271848
236	0x3cf1eccd	0.02953186
237	0xbdaa21f3	-0.083072565
238	0xbdd59404	-0.10428622
239	0xbe6160fd	-0.22009654
240	0x3d6b10e9	0.057389174
241	0xbe6360a7	-0.22204839
242	0xbd32e678	-0.043676823
243	0xbd74f99d	-0.059808362
244	0x3d8379fd	0.06419752
245	0xbe8d26e1	-0.27568725
246	0xbe1d175f	-0.15340947
247	0x3dd3f1cd	0.10348854
248	0x3d3b7662	0.045767196
249	0x3e64d71a	0.2234768
250	0xbe33e759	-0.17568721
251	0xbe8a75aa	-0.27042896
252	0xbd03b680	-0.032156467
253	0xbe261d01	-0.16222002
254	0xbe0e5d6b	-0.13902824
255	0xbe0a4ec8	-0.13506615

lstm.weight_hh_l0 f4 [128, 32]
0	0xbe5443b4	-0.20728952
1	0x3e382329	0.17982163
2	0x3d2cd28f	0.04219299
3	0xbd7e2643	-0.062048208
4	0xbe77ffed	-0.24218722
5	0xbdfaa6ea	-0.122388676
6	0x3df384f4	0.11890593
7	0xbbcdcda4	-0.006280618
8	0xbe257c31	-0.16160657
9	0xbdd756ad	-0.10514579
10	0x3d8d81e1	0.06909538
11	0xbe5e202c	-0.2169196
12	0xbd328258	-0.043581337
13	0xbcc41c25	-0.023939202
14	0xbd894e5d	-0.067044
15	0x3d9fdc66	0.078057095
16	0x3e2702be	0.1630964
17	0xbd7cda7d	-0.061731804
18	0x3dc9eebb	0.09859987
19	0xbe1b6193	-0.1517394
20	0xbde6931c	-0.11258528
21	0x3e557fe5	0.20849569
22	0xbcba1be2	-0.022718374
23	0x3de408fb	0.111345254
24	0xbd2bf9d6	-0.04198631
25	0xbda7a1df	-0.08185171
26	0xbe82ab07	-0.25521109
27	0x3e31f802	0.17379764
28	0xbe018245	-0.1264735
29	0x3d848b0a	0.06471832
30	0x3da1bcb2	0.07897319
31	0x3e030a72	0.12796953
32	0x3d915a2f	0.07097279
33	0x3d3e3c06	0.04644396
34	0x3e380a46	0.17972669
35	0xbdd1786d	-0.102280475
36	0xbe1ba447	-0.15199386
37	0x3e561ce4	0.20909458
38	0xbd35ef12	-0.04441745
39	0x3d84df34	0.06487885
40	0x3d08c8a3	0.033394467
41	0xbd0316fa	-0.032004334
42	0x3d24d747	0.040244367
43	0xbdd9efc9	-0.106414385
44	0xbdcab72c	-0.098982185
45	0xbcb86786	-0.022510301
46	0x3e0ae9a0	0.13565683
47	0xbd63571d	-0.055503
48	0x3c88c6a6	0.016696285
49	0x3ddfb760	0.10923648
50	0x3e3187b8	0.17336929
51	0xbe26bbee	-0.16282627
52	0xbe774ae8	-0.24149668
53	0xbb8a0633	-0.004212165
54	0xbc9b432f	-0.018952934
55	0xbcafa90a	-0.021442909
56	0x3e3af10d	0.18256016
57	0xbe29446b	-0.16530006
58	0x3d90c24d	0.0706831
59	0xbceb0ff6	-0.028694134
60	0x3e42711d	0.18988462
61	0x3dcf31e3	0.10116937
62	0x3e0c2136	0.13684544
63	0x3e34f962	0.17673257
64	0xbea4ea83	-0.32210168
65	0x3c8a18d0	0.016857535
66	0xbd90b0e1	-0.07064987
67	0x3ec4f84c	0.38470685
68	0xbdca907c	-0.098908395
69	0x3d74ce7f	0.059767243
70	0xbdb1ffe1	-0.08691383
71	0x3ecfaefd	0.40563193
72	0xbd5d2d6a	-0.05399839
73	0x3ea11d77	0.31467792
74	0xbe4330d9	-0.19061603
75	0x3d8d3822	0.06895472
76	0xbca1cf42	-0.019752149
77	0xbd04e402	-0.032444008
78	0x3ea388ce	0.3194031
79	0x3e4a4be2	0.1975551
80	0x3e7867d1	0.24258353
81	0xbe631482	-0.22175792
82	0x3c9a94e4	0.018869825
83	0xbe04ad60	-0.12956762
84	0xbe820e22	-0.25401407
85	0xbe18d553	-0.14925127
86	0xbe01ea0e	-0.12686941
87	0xbe1e9804	-0.15487677
88	0xbe382b96	-0.17985377
89	0xbeb45067	-0.35217592
90	0xbd9e3602	-0.07725145
91	0x3e859bf6	0.2609555
92	0x3e66493e	0.22488877
93	0x3e196412	0.1497958
94	0x3e0333a1	0.12812664
95	0xbe55d011	-0.20880152
96	0x3db62df2	0.08895482
97	0xbdc8e528	-0.09809333
98	0x3ecc8054	0.39941657
99	0x3e12fb01	0.14353563
100	0xbe536f50	-0.20647931
101	0xbcb90b74	-0.02258847
102	0xbbc39aa0	-0.0059693605
103	0xbd9381dd	-0.07202504
104	0x3e0d8c4f	0.13823055
105	0xbd0ad76b	-0.033896845
106	0x3deafc50	0.11473906
107	0xbe58083a	-0.21096888
108	0x3dc2dc6f	0.095147006
109	0xbdcd49a3	-0.10023811
110	0xbdde6541	-0.108591564
111	0x3e92991c	0.28632438
112	0x3e0a4ba1	0.13505413
113	0x3e148ffc	0.1450805
114	0xbd432bc5	-0.047649164
115	0x3d1e34b4	0.03862448
116	0xbdeeb44b	-0.11655482
117	0x3d8e9d74	0.069636256
118	0xbe1f920f	-0.1558306
119	0xbd54d274	-0.051958516
120	0x3ec5e958	0.3865459
121	0xbe2aca50	-0.16678739
122	0xbebb074d	-0.36529008
123	0x3e52dd3d	0.20592208
124	0xbbb139ea	-0.005408515
125	0x3e23e822	0.1600652
126	0x3e18e17c	0.14929765
127	0xbd5c21d1	-0.053743187
128	0xbe81ff2b	-0.2538999
129	0xbca1f11e	-0.019768294
130	0x3e2c43db	0.1682276
131	0x3e1e6b01	0.15470506
132	0x3d002d2f	0.03129309
133	0x3dd319b9	0.103076406
134	0xbd851acb	-0.06499251
135	0x3d48ed97	0.04905471
136	0x3e916f72	0.2840534
137	0x3e88d0e0	0.2672186
138	0xbe933de6	-0.28758162
139	0xbce1bceb	-0.027555903
140	0xbe8afee3	-0.27147588
141	0x3af1945b	0.0018431054
142	0xbd0a180c	-0.03371434
143	0x3df1e9c6	0.11812167
144	0x3e940120	0.28907108
145	0xbe93887b	-0.28815064
146	0x3eafd357	0.34340927
147	0xbdb10191	-0.08642877
148	0x38a7cd16	8.001381e-05
149	0xbe3637df	-0.1779475
150	0x3b28277d	0.0025658302
151	0xbdd7b260	-0.10532069
152	0x3e1a60c4	0.15075976
153	0x3c6e45fd	0.014543054
154	0xbea9eaa5	-0.33186832
155	0x3d3bc2d7	0.04584011
156	0x3e955acb	0.29170832
157	0x3d2182eb	0.039431494
158	0xbc887db7	-0.016661508
159	0xbd93349f	-0.07187771
160	0xbe02b1f4	-0.12763196
161	0x3c1dd34e	0.0096328985
162	0x3c6716f9	0.014104598
163	0x3e1e7eb5	0.15478022
164	0xbe3a5f2e	-0.1820037
165	0x3d66d329	0.05635372
166	0x3d909958	0.07060498
167	0x3dea545a	0.1144187
168	0x3e32016c	0.17383355
169	0x3d5fc5a6	0.05463185
170	0xbd8b895b	-0.06813308
171	0xbdb17826	-0.086654946
172	0xbdd9a467	-0.106270604
173	0xbe01fade	-0.12693354
174	0xbe0d9cc2	-0.1382933
175	0x3ea09b80	0.31368637
176	0x3b43f883	0.0029902763
177	0x3dd39c06	0.103324935
178	0x3e374fd7	0.1790155
179	0xbd405ed3	-0.04696543
180	0xbe3de8cc	-0.18545836
181	0xbdf3a5af	-0.11896836
182	0xbe584b7f	-0.2112255
183	0x3d0609a3	0.032724034
184	0xbd1dbedd	-0.0385121
185	0xbd87c950	-0.06630194
186	0x3cd3b61f	0.025843678
187	0x3e8d7525	0.27628437
188	0x3de4caa7	0.11171465
189	0x3b7ee3b5	0.0038893048
190	0x3e1397cb	0.14413373
191	0x3df69157	0.1203944
192	0xbbe699e3	-0.0070373877
193	0x3d995e66	0.07488708
194	0xbd9b8755	-0.07594172
195	0x3cb3f379	0.021966683
196	0xbdf94b18	-0.12172526
197	0x3e02f530	0.12788844
198	0xbe261349	-0.16218294
199	0x3e2c29ba	0.16812792
200	0x3e4b4ad1	0.19852759
201	0x3d5d8311	0.054080073
202	0xbe86c431	-0.26321557
203	0xbe542494	-0.20717078
204	0xbe537797	-0.20651089
205	0x3bba19b1	0.005679332
206	0xbcade7d8	-0.021228716
207	0x3bc12910	0.0058947876
208	0x3d93cb02	0.07216455
209	0xbe8323ca	-0.25613242
210	0x3e1fbe03	0.15599827
211	0xbe3c7b42	-0.18406394
212	0xbdf9b1b2	-0.12192096
213	0xbe575891	-0.21029879
214	0xbddd9753	-0.108198784
215	0xbda7839d	-0.081794
216	0x3d370e54	0.0446914
217	0xbdf23079	-0.11825652
218	0x3d5b4d05	0.05354025
219	0x3d24cf6c	0.040236875
220	0x3c8b41c3	0.016999131
221	0xbe3088b7	-0.17239653
222	0x3db132fd	0.08652303
223	0xbe31d7d5	-0.1736749
224	0x3e1b2ac5	0.15153034
225	0xbdb1374e	-0.08653127
226	0x3d0e7653	0.03478081
227	0x3d5664ef	0.05234235
228	0xbde00e85	-0.109402694
229	0xbcdec82f	-0.027195064
230	0x3e05a39b	0.13050692
231	0xbdc3ccbe	-0.09560536
232	0x3a8da393	0.0010806195
233	0xbc63ce01	-0.013904096
234	0xbe2107a4	-0.15725571
235	0xbe934cb9	-0.28769472
236	0x3d5eb45e	0.05437123
237	0x3db7f681	0.08982564
238	0x3d964f53	0.07339349
239	0x3e680c29	0.22660889
240	0xbdce2db8	-0.10067314
241	0x3c1a2850	0.009409025
242	0x3d8583ff	0.06519317
243	0xbe03fa9f	-0.12888573
244	0xbd84ef4f	-0.06490957
245	0xbcd933fb	-0.026514044
246	0x3d33bc63	0.04388083
247	0x3de74b79	0.11293692
248	0x3d45acb1	0.048260394
249	0xbd8f52d6	-0.069982216
250	0xbe8b0790	-0.27154207
251	0x3c62079f	0.013795762
252	0x3d59bd59	0.05315909
253	0xbb83db43	-0.004023941
254	0x3d08593f	0.033288237
255	0x3ea2d00f	0.3179936

lstm.bias_ih_l0 f4 [128]
0	0xbd564998	-0.05231628
1	0x3cb2745a	0.021783996
2	0xbcf47f4c	-0.029845856
3	0x3dae5e48	0.085140765
4	0x3e038ef7	0.12847506
5	0xbcf665a8	-0.03007777
6	0x3ca19b6b	0.01972743
7	0xbe11e31d	-0.14246793
8	0x3d70a001	0.05874634
9	0x3e37fa28	0.17966521
10	0x3e0b5bf0	0.1360929
11	0x3df944b5	0.12171308
12	0x3e4a5f0d	0.19762821
13	0x3e2fd669	0.17171635
14	0x3dacdc3c	0.08440444
15	0xbd43b5b8	-0.047780722
16	0x3e82cbd0	0.25546122
17	0xbde60b5d	-0.11232636
18	0xbd34cb50	-0.044139206
19	0x3e28edcc	0.16496962
20	0x3e0d4c42	0.13798621
21	0xbd3391a2	-0.04384006
22	0x3e53a041	0.20666601
23	0xbda9486e	-0.08265768
24	0x3dc70f2c	0.09719691
25	0x3dcf7bcc	0.10131034
26	0x3dbd504b	0.0924383
27	0xbd1637c9	-0.036674295
28	0xbd300076	-0.04296919
29	0x3e5dc9a4	0.21658951
30	0x3e2ff895	0.1718467
31	0xbd3471c4	-0.044053808
32	0x3e67a484	0.22621351
33	0x3d4df760	0.050284743
34	0xbc415799	-0.01180067
35	0x3d4beabb	0.049784403
36	0x3e589e4e	0.21154138
37	0xbc7591d0	-0.014988378
38	0x3e13c6b3	0.14431266
39	0xbcace9f2	-0.021107648
40	0xbd47c3c6	-0.04877069
41	0x3d001370	0.031268537
42	0x3d1e5db5	0.038663585
43	0x3e473137	0.19452368
44	0xbb112220	-0.0022145584
45	0x3e356549	0.17714418
46	0x3e9f2a83	0.3108712
47	0x3d4cf647	0.050039556
48	0x3d81b9a3	0.063342355
49	0x3dcfcd90	0.1014663
50	0xbdac2aa1	-0.08406568
51	0x3e784346	0.24244413
52	0x3cd8f13d	0.026482219
53	0x3d5a0147	0.053223874
54	0x3e1f220b	0.1554033
55	0x3df56675	0.11982433
56	0xbca3ecd3	-0.020010388
57	0xbd95f8ea	-0.07322867
58	0xbe065b31	-0.13120724
59	0xbe09da5e	-0.13462207
60	0x3d33e4b8	0.043919295
61	0xbdd9c677	-0.10633557
62	0x3e216947	0.15762816
63	0x3d80104c	0.062531084
64	0x3db31cdc	0.08745739
65	0x3e4bfeca	0.19921413
66	0x3e12233c	0.14271253
67	0xbdcc3d5e	-0.09972642
68	0xbe1eb210	-0.15497613
69	0x3dcb66c9	0.09931714
70	0xbddd8f7b	-0.10818382
71	0x3e3bda79	0.1834506
72	0xbe172902	-0.14761737
73	0x3e298731	0.16555478
74	0xbe4a8f5e	-0.19781253
75	0xbe014400	-0.12623596
76	0xbd8c675d	-0.068556525
77	0xbe4ec59b	-0.20192568
78	0xbd513d08	-0.051083595
79	0x3df74d99	0.120753475
80	0x3e8b9bc8	0.2726729
81	0x3c51e261	0.012810321
82	0x3d5bf370	0.053698957
83	0xbdbcde06	-0.09222035
84	0xbe10138f	-0.14069961
85	0x3d9840ae	0.07434212
86	0xbe106713	-0.1410182
87	0xbe71f06a	-0.23626867
88	0x3e0ae540	0.13564014
89	0xbdb88fae	-0.0901178
90	0x3dbb7166	0.091524884
91	0xbd1b99ed	-0.037988592
92	0x3e58f17e	0.21185872
93	0xbddc6300	-0.1076107
94	0x3e6344b8	0.22194183
95	0x3db71c0b	0.08940896
96	0x3dc04e27	0.093899064
97	0x3e82f7ae	0.2557959
98	0x3e241bf3	0.16026287
99	0xbc9d6670	-0.019213885
100	0x3e3a0e50	0.18169522
101	0xbc773276	-0.015087714
102	0x3e82dc60	0.25558758
103	0x3b2af1c7	0.0026084052
104	0x3dedb7e2	0.116073385
105	0x3e10a3ab	0.14124934
106	0x3df7bf98	0.120970905
107	0x3db1dbd1	0.08684505
108	0x3e7c08aa	0.2461268
109	0x3c44f077	0.012020222
110	0xbb057acd	-0.0020367384
111	0x3c9a205b	0.018814256
112	0x3e08e09d	0.13366933
113	0x3e6a08ed	0.22854967
114	0x3ea8d4be	0.3297481
115	0x3d15cf49	0.036574636
116	0x3de0fff5	0.1098632
117	0xbbf41043	-0.0074482276
118	0x3ed04cce	0.40683597
119	0x3e12d18c	0.14337748
120	0x3e1b931e	0.1519284
121	0x3e735ddf	0.23766278
122	0xbcdcc3f3	-0.026948905
123	0x3dfc9cee	0.123346195
124	0x3ec6fc1b	0.38864216
125	0x3e2dc8f7	0.16971193
126	0x3d857d0f	0.06517994
127	0x3e08c2a1	0.13355495

lstm.bias_hh_l0 f4 [128]
0	0x3d0ab245	0.033861417
1	0x3e01e590	0.12685227
2	0xbca98a31	-0.020695778
3	0x3da1df1d	0.079038836
4	0x3deaef26	0.11471395
5	0xbe0d7738	-0.1381501
6	0x3e15cf2f	0.14629816
7	0xbe2072fc	-0.15668863
8	0x3d6f14e6	0.05836954
9	0xbe1a2dce	-0.15056536
10	0xbcfa6883	-0.030567413
11	0xbd73a2d8	-0.05948147
12	0xbda7d2d2	-0.08194508
13	0x3d41da48	0.04732731
14	0x3dc37178	0.09543127
15	0xbc8805eb	-0.016604384
16	0x3e1a3064	0.15057522
17	0x3dd7e579	0.10541815
18	0x3daa0989	0.083026
19	0xbda2c78b	-0.07948216
20	0x3d253e8f	0.040342864
21	0xbd0e1a4f	-0.03469306
22	0x3e14a9fc	0.14517969
23	0xbd71e617	-0.05905732
24	0xbd89a64c	-0.06721172
25	0x3c8e8c3d	0.017400855
26	0x3e256ad1	0.16154028
27	0x3c7f247b	0.015572662
28	0x3d8968a2	0.0670941
29	0x3d6cba5d	0.057794917
30	0xbbb17d4e	-0.005416549
31	0x3c92ac7e	0.017904516
32	0x3d50c41e	0.050968282
33	0x3dee7a64	0.11644438
34	0x3dccd1f8	0.10000986
35	0x3d692e9e	0.056929223
36	0x3e26dc1b	0.16294901
37	0x3cf5c92a	0.030003149
38	0x3d89547a	0.06705566
39	0x3e55628d	0.20838375
40	0x3e30616e	0.17224666
41	0x3e1b635b	0.1517462
42	0x3e2ba4e2	0.16762117
43	0x3e3ec9b2	0.18631628
44	0x3e927ab1	0.2860923
45	0x3e69d156	0.22833762
46	0x3cedd0e6	0.029030275
47	0xbdc56b9c	-0.096396655
48	0xbc4d6cba	-0.012538129
49	0x3e45aa52	0.19303253
50	0x3e73170b	0.23739259
51	0x3dfdbf71	0.1239003
52	0xbd961d38	-0.07329792
53	0xbd176e58	-0.036970466
54	0x3e1f5dce	0.15563127
55	0x3e57f18d	0.21088238
56	0x3dc4a876	0.09602444
57	0xbd744d96	-0.059644304
58	0x3e540656	0.20705542
59	0x3e2c418d	0.1682188
60	0x3b67583b	0.0035300392
61	0xbd8456c1	-0.064618595
62	0x3e8de11d	0.2771081
63	0x3ce6da5f	0.0281803
64	0x3e0a15d4	0.1348489
65	0x3d2e8a50	0.042612374
66	0xbc1783d0	-0.009247735
67	0xbda03ecc	-0.078244776
68	0xbe51e7c2	-0.20498565
69	0x3d9fb88b	0.07798871
70	0xbe05efec	-0.13079804
71	0xbd5e4569	-0.054265413
72	0x3e1f32f5	0.15546782
73	0x3d0ceb5a	0.034404136
74	0xbdfb13ed	-0.1225966
75	0xbe170964	-0.14749676
76	0xbe18e8ac	-0.14932507
77	0xbe39ab2f	-0.18131708
78	0x3e09e63c	0.13466734
79	0xbe10ad82	-0.14128688
80	0x3e73f521	0.23823978
81	0x3d99fba6	0.07518701
82	0x3db1d102	0.08682443
83	0xbe781d3d	-0.24229904
84	0xbcad8b9c	-0.021184735
85	0xbe297558	-0.1654867
86	0x3c37391b	0.011183049
87	0xbdb3fbbf	-0.08788251
88	0x3d93c4b3	0.07215252
89	0xbdb8d19c	-0.09024355
90	0x3b97bc7d	0.004630624
91	0x3dba9aa3	0.09111526
92	0xbd68a7cd	-0.056800652
93	0x3d3e940e	0.046527915
94	0x3e8bd25a	0.27308923
95	0x3d9a20b1	0.07525767
96	0x3ddbe6fc	0.10737416
97	0x3ddc1d5d	0.10747788
98	0x3e6888ea	0.22708479
99	0xbc51ec7a	-0.012812728
100	0x3d50eca7	0.05100694
101	0x3e8d246d	0.27566853
102	0x3e8ba9f5	0.27278104
103	0x3e232914	0.15933639
104	0x3d7a4066	0.06109657
105	0x3da28159	0.07934827
106	0x3e5b4182	0.21411708
107	0x3e032c4a	0.12809864
108	0x3e90cc7a	0.28281003
109	0x3db5b908	0.088731825
110	0x3e4d08ec	0.20022935
111	0x3e6384b4	0.22218591
112	0x3d84c0b4	0.06482068
113	0x3ea72c0a	0.32650787
114	0x3e1e43b5	0.15455516
115	0x3d9a35d0	0.07529795
116	0x3ebfc0a8	0.37451673
117	0x3ca47f19	0.020080136
118	0x3da44590	0.080210805
119	0x3e3db432	0.1852577
120	0x3dd2f8fa	0.10301395
121	0x3d8d3553	0.068949364
122	0xbd9de617	-0.07709902
123	0x3e0128ad	0.12613173
124	0x3ebbef5c	0.36706054
125	0xbdadbcb3	-0.08483257
126	0x3da9858f	0.082774274
127	0x3e12e62b	0.14345615

dense_layers.0.weight f4 [16, 32]
0	0xbf48b9cb	-0.784085
1	0x3f2c717c	0.67360663
2	0x3f225022	0.6340352
3	0x3f4a7c95	0.7909635
4	0xbf53a267	-0.8266968
5	0x3f259961	0.6468716
6	0xbf131a03	-0.57461566
7	0x3f2c5149	0.6731153
8	0x3f10a8b8	0.56507444
9	0x3f52d791	0.8236018
10	0xbf49f027	-0.7888207
11	0x3f2f2ee2	0.6843091
12	0xbf1c3343	-0.6101572
13	0xbf071bd2	-0.52776825
14	0x3f40467b	0.75107545
15	0x3f2fd60f	0.68686
16	0x3f2bfe01	0.67184454
17	0xbf23fde3	-0.64059275
18	0x3ef1681f	0.4714975
19	0xbf15138f	-0.5823297
20	0xbf05bff9	-0.5224605
21	0xbf07840a	-0.5293585
22	0xbf2e3581	-0.6805039
23	0xbf4f5b50	-0.80998707
24	0x3f17dc60	0.5932064
25	0xbf12a6fb	-0.5728604
26	0xbf43e5a8	-0.765223
27	0x3f517849	0.81824166
28	0x3f242fad	0.6413525
29	0x3f291f77	0.66063637
30	0x3f4ed1a6	0.8078865
31	0xbf0aef57	-0.54271454
32	0x3d4abf79	0.04949901
33	0xbd9b0022	-0.07568385
34	0xbd4572b9	-0.04820511
35	0xbd7eb03f	-0.0621798
36	0x3d810094	0.062989384
37	0xbe03ff1f	-0.1289029
38	0x3d16e0ef	0.036835607
39	0xbe34cd76	-0.17656502
40	0xbe807491	-0.25088933
41	0xbd976253	-0.07391801
42	0x3ea1edd3	0.31626758
43	0xbef4d7fc	-0.47821033
44	0x3d9d7577	0.0768842
45	0x3d884107	0.06653028
46	0xbe951212	-0.2911535
47	0x3c0ee623	0.008721861
48	0xbe9552e7	-0.29164812
49	0x3da05cc5	0.078301944
50	0xbe9da39d	-0.3078889
51	0x3e34720a	0.17621627
52	0x3cf590ee	0.029976334
53	0x3d5248c6	0.051338933
54	0x3ea2e765	0.31817165
55	0x3e67ed2d	0.22649069
56	0xbdc68ada	-0.096944526
57	0x3e907fbf	0.28222463
58	0x3e2f9f3f	0.17150591
59	0xbdf64fcd	-0.120269395
60	0xbe920ef0	-0.2852702
61	0xbdcf566a	-0.10123904
62	0xbe952192	-0.29127175
63	0x3e995f45	0.29955497
64	0x3d131666	0.035910033
65	0xbe6f8484	-0.23390394
66	0xbe768338	-0.24073493
67	0xbe62d2b5	-0.22150691
68	0x3d011890	0.031517565
69	0xbe6b5253	-0.22980623
70	0x3db0a614	0.08625427
71	0xbe9b46ea	-0.3032754
72	0x3cfb4c1d	0.030675942
73	0xbdc9bba9	-0.098502465
74	0xbd2dd1fa	-0.042436577
75	0xbeb74943	-0.35798082
76	0x3d899ee2	0.067197576
77	0x3e456c0b	0.19279496
78	0x3cad0f1c	0.021125369
79	0xbe2834e0	-0.1642642
80	0xbd1e558c	-0.038655803
81	0x3d26bc2a	0.04070679
82	0xbe4144b4	-0.18873864
83	0x3e09c0e7	0.13452493
84	0xbd03e30e	-0.032198958
85	0x3e13c338	0.14429939
86	0x3e32e3b3	0.17469673
87	0x3e788919	0.24271049
88	0xbe978eec	-0.29601228
89	0x3da25aad	0.07927451
90	0x3e091f9f	0.13390969
91	0xbdf47e55	-0.119381584
92	0xbde632df	-0.11240172
93	0xbe81ffc0	-0.25390434
94	0xbb963a15	-0.0045845606
95	0x3d680097	0.056641188
96	0xbf1e9243	-0.6194193
97	0x3f24bb81	0.6434861
98	0x3f087319	0.53300625
99	0x3ef8eadb	0.4861668
100	0xbf3cbdfe	-0.73727405
101	0x3f2de085	0.67920715
102	0xbf12eb9e	-0.57390773
103	0x3f2721d8	0.65286016
104	0x3f107f69	0.5644441
105	0x3ee35914	0.444039
106	0xbf20ea51	-0.6285754
107	0x3f1b6a47	0.6070904
108	0xbf2a27fc	-0.6646726
109	0xbf1c8f27	-0.61155933
110	0x3f245847	0.641972
111	0x3f01323d	0.5046728
112	0x3f1911f5	0.59793025
113	0xbf1cd179	-0.6125713
114	0x3f1a9621	0.6038533
115	0xbf0f2113	-0.5590984
116	0xbf35a048	-0.70947695
117	0xbf296ec1	-0.6618462
118	0xbf005998	-0.5013671
119	0xbf1fa96b	-0.62367886
120	0x3f1eb3a2	0.6199285
121	0xbf072a16	-0.52798593
122	0xbf19da54	-0.6009877
123	0x3f0d1206	0.55105627
124	0x3ef6be12	0.48191887
125	0x3f1dd23c	0.6164892
126	0x3f34fc81	0.7069779
127	0xbf0c916f	-0.54909414
128	0xbf301bfe	-0.6879271
129	0x3f32a4ba	0.697826
130	0x3f3c9230	0.73660564
131	0x3f3590bf	0.7092399
132	0xbf14f5d3	-0.581876
133	0x3f1db32b	0.61601514
134	0xbf138059	-0.5761772
135	0x3f03f2d7	0.5154242
136	0x3ebfeaa3	0.374837
137	0x3f117d81	0.5683213
138	0xbf014efb	-0.5051114
139	0x3f17f953	0.59364814
140	0xbf0cccc1	-0.5499993
141	0xbeed8bb9	-0.46395662
142	0x3f2b772c	0.66978717
143	0x3f102e1c	0.5632036
144	0x3f33197c	0.6996076
145	0xbf0b2587	-0.5435414
146	0x3f008408	0.50201464
147	0xbf28ffc1	-0.6601525
148	0xbf3013f2	-0.68780434
149	0xbf2d3b68	-0.6766877
150	0xbf0a97ca	-0.5413786
151	0xbed5ddaa	-0.4177068
152	0x3f0f44c4	0.55964303
153	0xbf06f59c	-0.5271852
154	0xbf1f4eab	-0.6222941
155	0x3f07239d	0.52788717
156	0x3f05bd55	0.5224202
157	0x3f1ad213	0.604768
158	0x3f1cc402	0.61236584
159	0xbf1e945a	-0.61945117
160	0xbf077d33	-0.52925414
161	0x3f07b11c	0.5300462
162	0x3f1260c3	0.57178897
163	0x3f33e944	0.7027781
164	0xbf24701a	-0.64233553
165	0x3f3a6677	0.728126
166	0xbf2c2813	-0.6724865
167	0x3f3cb641	0.737156
168	0x3f1bcac2	0.6085626
169	0x3f270d57	0.6525473
170	0xbf1cc034	-0.6123078
171	0x3ee06298	0.4382522
172	0xbf3694b0	-0.7132063
173	0xbf34a8cf	-0.7057008
174	0x3f2cd946	0.6751903
175	0x3f42607b	0.7592847
176	0x3f2026de	0.62559307
177	0xbf1a3b4e	-0.6024674
178	0x3f18045e	0.59381664
179	0xbf16f98b	-0.5897452
180	0xbf3a686d	-0.7281559
181	0xbf2d0a70	-0.6759405
182	0xbf02d141	-0.51100546
183	0xbf1f8914	-0.6231854
184	0x3ef90135	0.48633733
185	0xbf267172	-0.65016854
186	0xbef00884	-0.46881497
187	0x3eff7858	0.49896502
188	0x3f0304f5	0.5117944
189	0x3f2187bb	0.63097733
190	0x3f3e1687	0.74253124
191	0xbec9200c	-0.39282262
192	0xbf0d9ad8	-0.553144
193	0x3f21c7f4	0.6319573
194	0x3f45afa1	0.77221113
195	0x3f48fd69	0.78511673
196	0xbf0ac29f	-0.5420322
197	0x3f2dbe1f	0.67868227
198	0xbf14b26d	-0.58084756
199	0x3f2334bd	0.6375235
200	0x3f42b0f1	0.7605124
201	0x3f2d0d6b	0.675986
202	0xbf456563	-0.7710783
203	0x3ef81d24	0.48459733
204	0xbf4986bc	-0.78721213
205	0xbf36e8e1	-0.71449095
206	0x3f2ca81a	0.67444
207	0x3f10a364	0.56499314
208	0x3eeb542b	0.45962653
209	0xbf47826a	-0.7793337
210	0x3f2da9df	0.6783733
211	0xbf22fa74	-0.6366341
212	0xbf2764f3	-0.6538841
213	0xbf221558	-0.6331382
214	0xbf28b572	-0.65901864
215	0xbf37a268	-0.7173219
216	0x3ef6bc2e	0.48190445
217	0xbf3b1fd8	-0.73095465
218	0xbf51c4da	-0.81940997
219	0x3ef4beff	0.47801968
220	0x3f0d59dd	0.55215245
221	0x3f3c992c	0.7367122
222	0x3f4b1715	0.79332095
223	0xbf26ca78	-0.6515269
224	0x3e836e67	0.25670168
225	0xbd9f8d66	-0.077906415
226	0xbe8e10e9	-0.27747276
227	0xbe671fbf	-0.22570704
228	0x3dba5360	0.09097934
229	0xbe90dc24	-0.28292954
230	0x3e3bf70c	0.1835596
231	0xbdd688b1	-0.104752906
232	0xbe7a870a	-0.24465576
233	0xbe53172a	-0.20614305
234	0xbcb2176e	-0.021739688
235	0xbd82e197	-0.06390684
236	0x3e85ff21	0.2617121
237	0x3d92f2d6	0.071752235
238	0xbc3fd609	-0.011708745
239	0xbe7ac220	-0.24488115
240	0x38785aa2	5.9212216e-05
241	0x3dcb1542	0.09916164
242	0xbddc0117	-0.10742395
243	0x3e96c11a	0.294442
244	0x3e6aa722	0.22915319
245	0x3e5b355f	0.21407078
246	0x3dd85f8c	0.10565099
247	0x3e0f42bf	0.13990305
248	0xbc112a65	-0.008860205
249	0x3dc2a997	0.09505003
250	0x3d9cfe0c	0.07665643
251	0xbde3f9eb	-0.111316524
252	0xbe6cc4ba	-0.2312192
253	0xbe545021	-0.20733692
254	0xbe07ef96	-0.13274989
255	0x3edaad1a	0.4271019

dense_layers.0.bias f4 [16]
0	0x3f49ecaf	0.78876776
1	0x3c690267	0.014221764
2	0x3cbd95e4	0.023142762
3	0x3ec60079	0.38672236
4	0x3f2df054	0.67944837
5	0x3f147d5e	0.58003795
6	0x3edfe2f6	0.43727845
7	0x3dc41345	0.09573988
8	0x3f1cf7d9	0.61315686
9	0xbd2217a1	-0.039573316
10	0x3db0b5c7	0.08628421
11	0x3f354b17	0.70817703
12	0x3f36d5aa	0.71419775
13	0xbe6451b6	-0.22296795
14	0x3e108486	0.14113054
15	0x3f2a06d5	0.66416675

dense_layers.2.weight f4 [1, 16]
0	0x3f2211a2	0.63308156
1	0xbe0e761c	-0.13912243
2	0xbd1e9ffd	-0.038726795
3	0x3f5d7275	0.8650277
4	0x3f512eb1	0.8171187
5	0x3f4edbf6	0.80804384
6	0x3f228fd2	0.635007
7	0xbd9de402	-0.07709505
8	0x3f37a7aa	0.7174021
9	0xbd3e231d	-0.046420205
10	0xbdf50b21	-0.11965013
11	0x3f3731e0	0.7156048
12	0x3f539abd	0.82657987
13	0xbe173e71	-0.14769913
14	0xbe573a64	-0.21018368
15	0x3f2c5a29	0.67325073
