BNN/model_states/DNN_model_state_FD001_test.pt (torch, 29135 bytes, 7 tensors)

lstm.weight_ih_l0 f4 [128, 14]
0.04664359 -0.04305035 -0.21999006 0.33769938 -0.07335398 0.044938155 -0.23570038 0.26268506
0.07674366 -0.067430116 -0.011694755 -0.12242201 0.27572244 0.20197834 -0.07393256 -0.032264158
-0.010603725 0.104451776 -0.14591971 0.003165018 -0.16869394 0.046116043 -0.104177706 0.02879352
-0.21683598 -0.10258611 0.090303175 -0.014501736 -0.08534261 -0.12355239 0.11631404 -0.10450456
-0.063206814 -0.014691798 -0.055091202 0.032705683 -0.116180524 0.12992041 0.03295692 -0.0064492086
0.06774807 -0.10483602 0.06114529 0.16367398 0.14806786 -0.13943428 0.06722708 -0.18164612
0.11507282 -0.13313052 -0.20026004 -0.35079327 -0.10406293 0.10692532 0.028497854 0.059580993
0.0889831 -0.05341757 0.21949352 -0.19251947 0.078747496 -0.1922232 0.11672528 -0.035864394
0.106628716 -0.11330715 0.22083828 -0.20318884 -0.16448379 -0.11500463 0.1267101 0.06642004
0.16334045 -0.1671458 -0.22627382 -0.14887272 -0.118555635 0.08328045 0.041214857 0.056206558
-0.07093762 -0.19086462 0.11361227 -0.05221375 -0.005942627 -0.04698152 0.026577836 -0.08935851
-0.16290021 -0.018056909 0.0022976724 -0.029721908 0.055489693 -0.012194757 -0.15543465 -0.110943004
0.24219903 -0.044267066 -0.18523122 -0.39395937 -0.3006285 0.25616014 -0.09701697 -0.109349936
-0.16061416 0.034050804 -0.2463626 -0.040085398 -0.33405983 -0.2386425 0.35852212 0.21337397
0.004407199 -0.28600183 -0.18899915 0.046368632 0.027043471 -0.1461221 -0.15252064 -0.017581183
-0.020107972 0.004247988 -0.10947793 -0.21114156 -0.05259324 -0.034058742 -0.031043889 -0.16701247
0.23551235 -0.056678176 0.31959867 -0.022888754 -0.052403495 0.09446895 0.054134164 -0.10906714
-0.07968254 -0.14916366 0.0068745925 -0.12771179 0.0775435 -0.09638452 0.17076692 -0.20267776
-0.019666836 -0.010118115 0.13581815 0.10433115 0.18506159 -0.33977202 0.11080394 -0.10409405
-0.053091526 -0.16365096 0.09399522 -0.31652126 -0.063000016 0.25178766 0.0076051825 -0.103570685
-0.009575364 0.22719194 -0.07100155 -0.13784565 -0.08997534 -0.13332555 0.071952924 0.35334787
-0.026527949 -0.042622667 -0.101545796 0.020171504 0.29066256 -0.035279818 -0.032233335 -0.10124984
-0.0014040901 0.0894918 0.16153699 -0.03461754 0.052248042 -0.020398224 -0.024404543 -0.18461093
-0.029817794 0.21669102 0.0674692 0.03555216 -0.1533814 0.09510311 -0.044066545 0.07035078
-0.008874534 0.06921487 0.06186525 0.06290641 -0.044022165 -0.019693676 -0.0033898123 0.10130163
-0.04956297 0.004996624 0.14992264 0.06894485 0.06680586 -0.0061748326 -0.13214387 -0.098785535
-0.040952034 0.041944835 0.22054431 -0.18095455 -0.12836522 -0.09544943 -0.0053821653 0.047234878
-0.015273912 0.108818114 0.026657438 -0.20183042 -0.0804977 -0.0868011 -0.052978918 0.09834354
-0.30246902 0.09644721 0.08595781 0.10333978 -0.108531155 -0.24894038 -0.15213032 0.13542947
0.10222387 0.041860834 0.070999496 -0.012978957 0.060475707 -0.14248899 -0.30329072 -0.17858711
-0.010602213 -0.018797057 0.007396554 -0.14283426 -0.07470602 -0.18215075 -0.057479557 -0.022942353
-0.14614287 0.15203817 -0.011330752 -0.14390996 0.0048694704 -0.13540104 -0.026601024 -0.1673745
00000000: 590d 3f3d 9055 30bd 1345 61be efe6 ac3e
00000010: 9d3a 96bd 1211 383d 715b 71be a87e 863e
00000020: c82b 9d3d cd18 8abd 5c9b 3fbc 64b8 fabd
00000030: 7e2b 8d3e 69d3 4e3e f469 97bd 6c27 04bd
00000040: 3fbb 2dbc d0ea d53d fa6b 15be 316c 4f3b
00000050: 1bbe 2cbe 2de4 3c3d 1f5b d5bd 63e0 eb3c
00000060: 400a 5ebe ab18 d2bd dff0 b83d b098 6dbc
00000070: 1bc8 aebd 0909 fdbd 0e36 ee3d 7d06 d6bd
00000080: 9372 81bd deb5 70bc 50a7 61bd 65f6 053d
00000090: 0ef0 edbd db09 053e d6fd 063d e253 d3bb
000000a0: 80bf 8a3d 44b4 d6bd 7c73 7a3d 279a 273e
000000b0: 1a9f 173e dcc7 0ebe 5aae 893d 7101 3abe
000000c0: 4cab eb3d 5e53 08be f810 4dbe 2d9b b3be
000000d0: f21e d5bd aafb da3d 5574 e93c 330b 743d
000000e0: c63c b63d 62cc 5abd e9c2 603e d323 45be
000000f0: 5e46 a13d 29d6 44be aa0d ef3d 8be6 12bd
00000100: 2860 da3d 940d e8bd 6e23 623e bc10 50be
00000110: 706e 28be 8c87 ebbd 4bc0 013e 3b07 883d
00000120: b842 273e 4528 2bbe 53b4 67be 1772 18be
00000130: 4ccd f2bd f18e aa3d e9d0 283d d938 663d
00000140: be47 91bd 0472 43be 8dad e83d 16de 55bd
00000150: 5eba c2bb b26f 40bd c3b9 d93c 9801 b7bd
00000160: 50cf 26be 15ec 93bc 8c94 163b 5c7b f3bc
00000170: 2949 633d 85cc 47bc 432a 1fbe 1636 e3bd
00000180: 0603 783e 6251 35bd 41ad 3dbe 0bb5 c9be
00000190: fbeb 99be 6c27 833e d5b0 c6bd dcf2 dfbd
000001a0: 0a78 24be db78 0b3d 7a46 7cbe 9630 24bd
000001b0: e409 abbe b35e 74be 3690 b73e b57e 5a3e
000001c0: 446a 903b d56e 92be fe88 41be 09ed 3d3d
000001d0: 458a dd3c 08a1 15be 5f2e 1cbe 6a06 90bc
000001e0: 79b9 a4bc b532 8b3b f735 e0bd 7e35 58be
000001f0: 026c 57bd 2e81 0bbd c14f febc 5105 2bbe
00000200: 262a 713e 6027 68bd 70a2 a33e 3281 bbbc
00000210: 0ca5 56bd f078 c13d c9bb 5d3d 985e dfbd
00000220: 9930 a3bd 5cbe 18be 4344 e13b e1c6 02be
00000230: 20cf 9e3d 3f65 c5bd 86dd 2e3e c28a 4fbe
00000240: 581c a1bc 73c6 25bc ea13 0b3e 92ab d53d
00000250: c980 3d3e 99f6 adbe 2ded e23d 432f d5bd
00000260: 8076 59bd 1e94 27be 9180 c03d 130f a2be
00000270: 2706 81bd 50ea 803e e534 f93b de1c d4bd
00000280: fde1 1cbc 01a5 683e 4369 91bd 6927 0dbe
00000290: fe44 b8bd 7e86 08be 0e5c 933d 03ea b43e
000002a0: 2451 d9bc 1b95 2ebd 3ef7 cfbd b63e a53c
000002b0: b9d1 943e 9281 10bd 1a07 04bd 135c cfbd
000002c0: 7209 b8ba 7a47 b73d f469 253e 1fcb 0dbd
000002d0: 0b02 563d 2d1a a7bc 09ec c7bc a60a 3dbe
000002e0: 7244 f4bc 40e4 5d3e 4b2d 8a3d 249f 113d
000002f0: 0410 1dbe 6bc5 c23d 1f7f 34bd 1214 903d
00000300: 7e66 11bc 87c0 8d3d 6b66 7d3d 13d5 803d
00000310: 9650 34bd a254 a1bc 9d27 5ebb 3b77 cf3d
00000320: 8a02 4bbd b8ba a33b 5285 193e f532 8d3d
00000330: 83d1 883d 4056 cabb b950 07be 1250 cabd
00000340: 52bd 27bd 59ce 2b3d 5ed6 613e 264c 39be
00000350: 2c72 03be fe7a c3bd e05c b0bb 5c79 413d
00000360: 6e3f 7abc 08dc de3d b360 da3c a2ac 4ebe
00000370: fadb a4bd c6c4 b1bd 6c00 59bd 5768 c93d
00000380: 38dd 9abe 1d86 c53d a60a b03d cea3 d33d
00000390: 9545 debd 3aea 7ebe 0dc8 1bbe 06ae 0a3e
000003a0: c05a d13d 4476 2b3d 2f68 913d b1a5 54bc
000003b0: 60b5 773d a2e8 11be ec48 9bbe 8adf 36be
000003c0: e8b4 2dbc 49fc 99bc cb5e f23b 2543 12be
000003d0: 78ff 98bd ba85 3abe af6f 6bbd 9af1 bbbc
000003e0: 7aa6 15be e5af 1b3e 9ea4 39bc 225d 13be
000003f0: 1490 9f3b 92a6 0abe 64ea d9bc 3964 2bbe

lstm.weight_hh_l0 f4 [128, 32]
-0.16871724 0.08880741 0.08124873 -0.1415478 -0.006431411 -0.1997867 0.2068048 -0.016846634
-0.227069 -0.19677354 0.15660053 0.27878734 0.03576932 -0.054163948 -0.170977 0.0212553
0.07490511 -0.004400428 -0.050203905 0.1440199 -0.008785118 0.24206334 0.025805268 0.2286129
0.19540566 -0.25120455 -0.14625205 0.12789309 -0.05809316 0.03989967 0.065228194 0.035496872
-0.008279226 0.08187254 0.15551455 -0.03276004 -0.17643645 0.24491481 -0.081978545 0.03743816
-0.023837434 -0.0043863123 0.0009761135 0.021310462 -0.14155558 -0.04724385 0.21697429 0.048550095
0.05526237 0.0623334 0.17940848 -0.082955234 -0.27301627 -0.038570024 -0.014807898 -0.08263872
0.117205665 -0.124893926 0.016059432 0.0088153845 0.011088502 0.17601307 0.15033466 0.17987405
-0.15809837 -0.14203446 -0.3669779 0.115852326 0.052069988 -0.10433021 0.07342766 0.20173776
-0.50976557 0.14130643 0.013298874 0.26894468 0.15803097 0.053206727 0.112741 0.09642996
0.090326294 0.009848772 -0.12293391 0.22219796 -0.1382947 0.016347494 -0.057950914 -0.003234641
-0.03837967 -0.27966002 0.06825234 0.15992591 0.08824586 0.07685946 0.047346994 -0.047941335
-0.11122616 -0.047261547 0.11458057 0.18334143 -0.18909797 0.0012064732 -0.04501193 0.098963685
0.10973042 0.011231635 0.12235722 -0.13492753 0.056819748 0.006039645 -0.076315925 0.035021078
0.156381 0.13433999 -0.15776812 -0.0043273736 -0.121907815 0.039131403 -0.1795889 -0.0963908
0.10462277 -0.10058424 -0.16328342 0.04100372 0.014156303 -0.025421558 0.15876095 -0.10784601
-0.23511115 -0.10470547 0.008380339 -0.0023778076 0.04474272 0.03830704 -0.00071175955 0.056086436
0.14512572 0.21578197 -0.22869556 -0.10371645 -0.22394457 0.08593079 -0.10157898 -0.054956995
0.23877889 -0.18082273 0.17517602 -0.054369494 0.064289756 -0.078322716 0.05633929 -0.024154894
0.038719714 0.12352539 -0.17372023 -0.10940924 0.13297741 -0.05438103 -0.089974694 0.017936926
-0.14044866 0.053264424 -0.07783613 0.10914936 -0.20752439 0.07684248 0.03509507 0.08083369
0.051664915 0.057060257 -0.105002545 -0.054942675 -0.11539102 -0.12774816 -0.054488838 0.22671176
-0.007424861 0.07447042 0.13916045 0.009558305 -0.116378374 -0.12482077 -0.11802352 -0.00076483726
-0.11273027 -0.0026031444 0.05883997 0.17872548 0.00032694358 -0.001680193 0.15628693 0.10834088
-0.025534417 0.07968905 -0.055814035 0.09339711 -0.15700397 0.13555622 -0.1485055 0.11460527
0.05172012 0.041674413 -0.27756897 -0.06836077 -0.21863681 0.03763514 0.010565366 0.083118215
0.07905385 -0.18925743 0.17776616 -0.02011509 -0.13325468 -0.18905643 -0.12830558 -0.09335205
0.0790511 -0.10982022 -0.013150491 0.072685726 -0.21282004 -0.05162829 0.080373555 -0.07476777
0.12292508 -0.12063121 0.04738556 -0.020174656 0.055092975 -0.0444966 0.14990988 -0.08495506
-0.09943893 -0.023161935 -0.13014643 0.10023084 0.07411013 0.0028775933 0.07320425 0.15398225
-0.114456534 0.006831738 -0.06203859 0.043652486 -0.015782405 -0.06721316 0.070987694 0.14070322
0.1705611 -0.1864123 -0.1723043 -0.05945652 0.0923672 -0.03778136 0.13371417 0.25184837
00000000: 36c4 2cbe a9e0 b53d bc65 a63d e8f1 10be
00000010: 96be d2bb e294 4cbe a3c4 533e f401 8abc
00000020: c784 68be 017f 49be e45b 203e 37bd 8e3e
00000030: da82 123d 04db 5dbd 9814 2fbe 981f ae3c
00000040: da67 993d 7731 90bb 9ca2 4dbd f479 133e
00000050: 75ef 0fbc 74df 773e 9265 d33c 8019 6a3e
00000060: 6c18 483e e29d 80be 19c3 15be 68f6 023e
00000070: 18f3 6dbd d66d 233d 5c96 853d 2b65 113d
00000080: 97a5 07bc caac a73d 353f 1f3e 642f 06bd
00000090: c2ab 34be f3ca 7a3e 5ee4 a7bd c258 193d
000000a0: b946 c3bc 0ebb 8fbb dee1 7f3a 4793 ae3c
000000b0: f2f3 10be c482 41bd 822e 5e3e 77dc 463d
000000c0: cb5a 623d 4f51 7f3d dbb6 373e 6fe4 a9bd
000000d0: cac8 8bbe 9afb 1dbd d39c 72bc 7d3e a9bd
000000e0: 8609 f03d 63c8 ffbd 128f 833c 676e 103c
000000f0: 8cac 353c c53c 343e 54f1 193e e730 383e
00000100: 8ae4 21be 7b71 11be 87e4 bbbe fc43 ed3d
00000110: 5747 553d 14ab d5bd 3e61 963d 5894 4e3e
00000120: ff7f 02bf a2b2 103e 85e3 593c 1eb3 893e
00000130: dfd2 213e 4cef 593d c1e4 e63d 127d c53d
00000140: fefc b83d be5c 213c c6c4 fbbd dd87 633e
00000150: 209d 0dbe 2eeb 853c f05d 6dbd 45fc 53bb
00000160: 0034 1dbd 992f 8fbe e2c7 8b3d 9ec3 233e
00000170: 3fba b43d 7e68 9d3d ecee 413d 225e 44bd
00000180: 8aca e3bd 5395 41bd 38a9 ea3d dbbd 3b3e
00000190: e6a2 41be 8622 9e3a 6e5e 38bd 79ad ca3d
000001a0: 58ba e03d e404 383c 6c96 fa3d 712a 0abe
000001b0: d3bb 683d 37e8 c53b 864b 9cbd 4372 0f3d
000001c0: 5722 203e 6c90 093e f78d 21be a4cc 8dbb
000001d0: ceaa f9bd 4048 203d 27e6 37be 8a68 c5bd
000001e0: 7644 d63d 1cff cdbd c533 27be 84f3 273d
000001f0: d7ef 673c df40 d0bc 3b92 223e 5ede dcbd
00000200: fac0 70be d26f d6bd b04d 093c fed4 1bbb
00000210: 2444 373d d8e7 1c3d 6095 3aba e4ba 653d
00000220: d69b 143e f3f5 5c3e 2b2f 6abe 4a69 d4bd
00000230: ba51 65be 7bfc af3d a408 d0bd 961a 61bd
00000240: 7482 743e 9829 39be 5861 333e 8cb2 5ebd
00000250: 59aa 833d a967 a0bd 07c4 663d 7ce0 c5bc
00000260: 9098 1e3d e1fa fc3d b7e3 31be f411 e0bd
00000270: 3b2b 083e a5be 5ebd a744 b8bd 76f0 923c
00000280: c6d1 0fbe cc2b 5a3d 8d68 9fbd b389 df3d
00000290: 4681 54be 975f 9d3d d9bf 0f3d 228c a53d
000002a0: 979e 533d 04b8 693d 930b d7bd 920b 61bd
000002b0: 2152 ecbd 6ad0 02be b02f 5fbd 2127 683e
000002c0: 404c f3bb f383 983d 1480 0e3e 709a 1c3c
000002d0: c957 eebd 08a2 ffbd 51b6 f1bd 5c7f 48ba
000002e0: 21df e6bd 8499 2abb 2e02 713d d003 373e
000002f0: a069 ab39 ec39 dcba ae09 203e d3e1 dd3d
00000300: 8e2d d1bc 0334 a33d 429d 64bd fc46 bf3d
00000310: a6c5 20be 40cf 0a3e d311 18be 2bb6 ea3d
00000320: 7ad8 533d cab2 2a3d 851d 8ebe bb00 8cbd
00000330: 54e2 5fbe 4e27 1a3d 5b1a 2d3c e239 aa3d
00000340: fce6 a13d b3cc 41be 5508 363e 67c8 a4bc
00000350: ea73 08be 0298 41be 8a62 03be 5c2f bfbd
00000360: 8be5 a13d 6ce9 e0bd 2875 57bc 41dc 943d
00000370: 7fed 59be 3078 53bd e49a a43d d81f 99bd
00000380: 25c0 fb3d 7f0d f7bd 5c17 423d 5245 a5bc
00000390: 2ca9 613d 1142 36bd fa81 193e ebfc adbd
000003a0: a3a6 cbbd 19be bdbc 1b45 05be d445 cd3d
000003b0: 0dc7 973d 0196 3c3b 1cec 953d 86ad 1d3e
000003c0: 3068 eabd c6dc df3b 2d1c 7ebd f3cc 323d
000003d0: 1a4a 81bc 0ea7 89bd ff61 913d 8114 103e
000003e0: 92a7 2e3e dee2 3ebe 8a70 30be ae88 73bd
000003f0: 042b bd3d a1c0 1abd 5eec 083e 45f2 803e

lstm.bias_ih_l0 f4 [128]
-0.09989768 0.094848454 -0.07494491 0.19633971 0.07422707 0.010028883 0.056231156 -0.13803452
0.026062949 0.25476608 0.17931902 0.19623561 0.24397564 0.065438464 0.19011593 -0.039282195
0.26656812 0.06757191 -0.040619344 0.14761543 0.22439423 -0.09603976 0.139028 -0.13848843
0.11912195 0.069550805 0.010949513 -0.08019719 0.03243635 0.14818217 0.057177454 -0.024771037
0.21892527 0.082452506 0.026394108 0.17415553 0.23887429 -0.016206607 0.106969 -0.037689455
-0.02038494 0.072166376 0.10029061 0.12394952 -0.034345 0.12298373 0.30785057 0.06304129
0.17163691 0.1601274 -0.10877397 0.22656266 0.15515812 0.013209806 0.12398251 0.13216977
-0.049841177 -0.06423667 -0.10536334 -0.10649511 0.092233226 -0.0940305 0.03194782 -0.03155027
0.06654673 0.20314546 0.1836937 -0.057048433 -0.2080522 0.13610038 -0.16144356 0.15001611
-0.18544352 0.20536235 -0.20839636 -0.16596477 -0.15170963 -0.103439674 0.040281754 0.135129
0.23310097 -0.038498614 0.13851322 0.0126245795 -0.19448537 0.046328347 -0.18753545 -0.22163941
0.16926514 -0.055113602 0.05403533 0.009458427 0.01279355 0.012444216 0.11698932 0.17482758
0.084417455 0.2979835 0.23347512 -0.093294576 0.21536078 0.01904707 0.13966781 -0.029209772
0.10980507 0.14786391 0.09549978 -0.026526662 0.16845736 -0.08085708 0.16729476 0.100368954
0.17816271 0.18564272 0.36347607 0.12759161 0.059748925 0.08676747 0.3109956 0.09211292
0.2125338 0.37332004 0.034982078 0.08340228 0.3700528 0.43303585 -0.031155167 0.12043253
00000000: 2897 ccbd e83f c23d b87c 99bd 470d 493e
00000010: 5d04 983d 2f50 243c a452 663d ec58 0dbe
00000020: f781 d53c b370 823e 689f 373e fdf1 483e
00000030: c0d4 793e 9a04 863d c0ad 423e 5ee6 20bd
00000040: 9e7b 883e 2463 8a3d 7860 26bd 8028 173e
00000050: 9ac7 653e 7eb0 c4bd 5b5d 0e3e e9cf 0dbe
00000060: 35f6 f33d a770 8e3d 9665 333c 6d3e a4bd
00000070: fadb 043d 11bd 173e e832 6a3d a1ec cabc
00000080: f22d 603e dcdc a83d 7538 d83c d455 323e
00000090: 769b 743e b8c3 84bc 9012 db3d 4260 1abd
000000a0: 51fe a6bc f7cb 933d 2a65 cd3d 3fd9 fd3d
000000b0: 58ad 0cbd e5de fb3d 979e 9d3e cb1b 813d
000000c0: 96c1 2f3e 70f8 233e e3c4 debd 0b00 683e
000000d0: c5e1 1e3e f16d 583c 8bea fd3d 8357 073e
000000e0: 4326 4cbd 848e 83bd bcc8 d7bd 1c1a dabd
000000f0: c6e4 bc3d 1093 c0bd b8db 023d db3a 01bd
00000100: a749 883d 5d05 503e 341a 3c3e 9eab 69bd
00000110: a30b 55be e65d 0b3e 7651 25be d39d 193e
00000120: e8e4 3dbe 824a 523e db65 55be abf2 29be
00000130: c559 1bbe 2ed8 d3bd 7bfe 243d 425f 0a3e
00000140: 05b2 6e3e b9b0 1dbd 69d6 0d3e 53d7 4e3c
00000150: 2c27 47be cbc2 3d3d 4b09 40be 71f5 62be
00000160: d753 2d3e cdbe 61bd 2654 5d3d 85f7 1a3c
00000170: 0a9c 513c d3e2 4b3c 1998 ef3d 0006 333e
00000180: 0fe3 ac3d 4b91 983e 1a14 6f3e 3a11 bfbd
00000190: 8987 5c3e 9a08 9c3c 1405 0f3e 5549 efbc
000001a0: 7be1 e03d a369 173e 6395 c33d 714e d9bc
000001b0: 1680 2c3e 6698 a5bd 514f 2b3e 3d8e cd3d
000001c0: 4970 363e 2019 3e3e 8919 ba3e 60a7 023e
000001d0: 4abb 743d 25b3 b13d d13a 9f3e b3a5 bc3d
000001e0: 76a2 593e ce23 bf3e 5e49 0f3d d1ce aa3d
000001f0: 9077 bd3e e0b6 dd3e 1f39 ffbc 55a5 f63d

lstm.bias_hh_l0 f4 [128]
-0.0137198465 0.1999172 -0.06579489 0.19023782 0.06046596 -0.09804364 0.1828018 -0.1522551
0.025686141 -0.07546493 0.01265861 0.015040976 -0.035597548 -0.058950547 0.20114277 -0.008105893
0.16168189 0.28531635 0.08654591 -0.09683619 0.12675093 -0.08689272 0.07754193 -0.114888065
-0.0452867 -0.014358759 0.08005117 -0.027950408 0.14249985 -0.010612301 -0.120085955 0.037187178
0.043680232 0.148612 0.13820466 0.18130031 0.19028193 0.028784892 0.029712046 0.19180204
0.20063254 0.1926441 0.22924818 0.11574214 0.25396264 0.17417726 0.026009822 -0.08339461
0.09575637 0.25169417 0.21268447 0.10801888 0.055377956 -0.076984435 0.12421049 0.22322774
0.0661938 -0.05065236 0.2328997 0.19634633 0.051843908 -0.05231364 0.15142775 -0.06590088
0.11393787 0.046543144 0.03173379 -0.035566736 -0.25806195 0.114772126 -0.18405747 -0.08770011
0.11764163 0.07421119 -0.13318036 -0.18722582 -0.2324783 -0.08283133 0.22603278 -0.12691133
0.19866773 0.023878217 0.17163879 -0.13745409 -0.074970745 -0.19350079 -0.035334233 -0.07325368
0.1057776 -0.05523938 -0.032858837 0.13856253 -0.25586638 0.16658281 0.16813664 0.16067626
0.097892486 0.14966474 0.30029744 -0.08689346 0.084672384 0.30980366 0.15686163 0.12751845
0.05482828 0.08596295 0.18864611 0.0147268325 0.20514119 -0.0041454607 0.36956152 0.30374128
0.109314255 0.28360182 0.18828405 0.16631503 0.32440203 0.11429589 -0.015629252 0.13399309
0.16361938 0.20460676 -0.015168085 0.086187735 0.34847128 0.1784918 -0.01356074 0.13033362
00000000: 35c9 60bc 18b7 4c3e 79bf 86bd b4cd 423e
00000010: 28ab 773d 1bcb c8bd 6530 3b3e c3e8 1bbe
00000020: be6b d23c 5b8d 9abd 0f66 4f3c 6d6e 763c
00000030: bcce 11bd 2176 71bd 5ff8 4d3e 94ce 04bc
00000040: f08f 253e fc14 923e fb3e b13d 0d52 c6bd
00000050: ffca 013e cff4 b1bd 4ece 9e3d 6f4a ebbd
00000060: 8c7e 39bd 0041 6bbc def1 a33d 41f8 e4bc
00000070: 7beb 113e 37df 2dbc a0ef f5bd 9551 183d
00000080: 0bea 323d be2d 183e 8685 0d3e caa6 393e
00000090: 44d9 423e 4bce eb3c ad66 f33c c167 443e
000000a0: 9e72 4d3e 7f44 453e 09c0 6a3e 370a ed3d
000000b0: 6407 823e 865b 323e 8d12 d53c cbca aabd
000000c0: ea1b c43d 0fde 803e f5c9 593e 0139 dd3d
000000d0: ffd3 623d 04aa 9dbd 1262 fe3d d095 643e
000000e0: 9d90 873d d978 4fbd 427d 6e3e 030f 493e
000000f0: 475a 543d d446 56bd e00f 1b3e 0af7 86bd
00000100: 4258 e93d 06a4 3e3d 4afb 013d 6dae 11bd
00000110: b220 84be a60d eb3d 9079 3cbe 1e9c b3bd
00000120: 18ee f03d 09fc 973d 6f60 08be 20b8 3fbe
00000130: cb0e 6ebe 79a3 a9bd 2375 673e 0bf5 01be
00000140: 8e6f 4b3e 409c c33c 14c2 2f3e c4c0 0cbe
00000150: 438a 99bd 1225 46be a1ba 10bd 0606 96bd
00000160: eda1 d83d b042 62bd fd96 06bd 56e3 0d3e
00000170: eb00 83be af94 2a3e 032c 2c3e 5188 243e
00000180: db7b c83d b741 193e 96c0 993e 33f5 b1bd
00000190: b768 ad3d 969e 9e3e 56a0 203e 3294 023e
000001a0: 9e93 603d 580d b03d 722c 413e d048 713c
000001b0: 8810 523e a5d6 87bb 2b37 bd3e fa83 9b3e
000001c0: 27e0 df3d 4234 913e 89cd 403e 7d4e 2a3e
000001d0: 0618 a63e f713 ea3d eb08 80bc 7c35 093e
000001e0: d78b 273e 6f84 513e 8f83 78bc 3283 b03d
000001f0: d46a b23e 8ec6 363e de2d 5ebc 2d76 053e

dense_layers.0.weight f4 [16, 32]
-0.7489252 0.6326615 0.5653573 0.75669545 -0.7930557 0.6176133 -0.54055417 0.6142695
-0.7105228 0.7857893 -0.7544353 0.7580099 -0.5753798 -0.49476004 0.7301222 0.63749194
0.6326693 -0.6190343 0.46542332 0.6399983 -0.48209587 -0.50870526 -0.6634717 -0.77878875
0.70536554 -0.6059068 -0.75252235 0.7911482 -0.6269333 0.6678575 0.81341696 0.71432227
0.016947685 -0.019085642 0.011349764 -0.01596891 0.014990205 -0.07735096 -0.025101956 -0.13894446
0.093724236 0.008714753 0.27040362 -0.48164946 0.01113342 0.032123435 -0.20064345 0.05352629
-0.22461401 -0.027217261 -0.2606498 -0.29830644 -0.044648882 0.0035576285 0.2978914 0.17656162
-0.23074779 0.44000235 0.12996365 -0.11355003 -0.014103819 -0.08036939 -0.29465878 -0.14177656
-0.064393744 -0.10669921 -0.057450425 -0.11192618 -0.069911346 -0.12254469 -0.0336145 -0.19303945
0.39471716 0.03680072 -0.14231113 -0.62795556 -0.071877345 0.09728398 0.15576789 -0.039753646
0.084827445 -0.1028513 -0.09947252 -0.40991685 -0.15552406 0.0670306 0.12533933 0.12448268
-0.54340124 0.41904476 0.022386272 -0.08622307 0.09392475 -0.24409346 -0.010595907 -0.20511761
-0.5879793 0.60629326 0.47618088 0.45871252 -0.7086516 0.6543925 -0.5433864 0.6016329
-0.5498508 0.4093677 -0.5986619 0.6494065 -0.6357091 -0.5859352 0.6236681 0.46285012
0.56266284 -0.5941951 0.5970942 0.5145874 -0.67508304 -0.64084697 -0.48662573 -0.59549487
0.71438116 -0.5541792 -0.5905951 0.52641356 -0.6217186 0.6236886 0.71073645 0.5519715
-0.6546013 0.6585899 0.6765035 0.67768306 -0.5510849 0.5891844 -0.5437817 0.46166673
-0.76747483 0.5320479 -0.4732056 0.6372385 -0.5192113 -0.43615216 0.6503633 0.5187348
0.66250336 -0.523781 0.49402463 0.44036734 -0.6509452 -0.6550929 -0.525001 -0.38780168
0.6574579 -0.55316573 -0.61061066 0.50149286 -0.6104496 0.61131936 0.61542886 0.50603235
-0.49822465 0.49361846 0.51438975 0.675312 -0.6139369 0.7036224 -0.6421761 0.6856164
-0.51877683 0.61780727 -0.58256125 0.48175657 -0.684427 -0.68050855 0.6563902 0.7171352
0.5903983 -0.5837345 0.5876825 0.49638045 -0.69344974 -0.65509576 -0.49651343 -0.59525603
0.5836956 -0.6779575 -0.45856765 0.4745363 -0.60397154 0.63788587 0.74726474 0.72227937
-0.5275376 0.61784905 0.70724416 0.75209856 -0.51133764 0.6558478 -0.55199665 0.58204913
-0.5227066 0.6425194 -0.73993194 0.5496469 -0.75609404 -0.6974202 0.61101985 0.51806146
0.42492068 -0.7496214 0.6758654 0.5526197 -0.61707705 -0.6098817 -0.646026 -0.68963706
0.6091089 -0.7685869 -0.7781298 0.45725703 -0.6633165 0.7241464 0.80304646 0.6210325
0.25315323 -0.07159604 -0.28337577 -0.22908963 0.08171858 -0.28072667 0.16555603 -0.09593274
0.028585533 -0.17478599 -0.023000645 0.0027280338 0.25813237 0.04996536 0.02540097 -0.25115743
0.016351653 0.051838927 -0.08352548 -0.056839257 0.2153248 0.17684972 0.113812424 0.13063334
-0.031290963 0.10288512 0.07300796 -0.12408281 0.06316433 -0.19628075 -0.12755623 -0.025322465
00000000: 90b9 3fbf 1bf6 213f 42bb 103f cbb6 413f
00000010: b305 4bbf e81b 1e3f c261 0abf c440 1d3f
00000020: d2e4 35bf 7d29 493f ac22 41bf f00c 423f
00000030: 174c 13bf 3051 fdbe 4ae9 3a3f ac32 233f
00000040: 9ef6 213f 0879 1ebf f74b ee3e eed6 233f
00000050: 45d5 f6be 823a 02bf 48d9 29bf b35e 47bf
00000060: d692 343f b51c 1bbf 4ea5 40bf b088 4a3f
00000070: b37e 20bf b6f8 2a3f 183c 503f d3dd 363f
00000080: dfd5 8a3c 7e59 9cbc 5cf4 393c 3bd1 82bc
00000090: 7a99 753c 2e6a 9ebd 9ea2 cdbc 7547 0ebe
000000a0: 7ef2 bf3d 53c8 0e3c 5872 8a3e c29a f6be
000000b0: f368 363c dd93 033d 7a75 4dbe 623e 5b3d
000000c0: 3701 66be bcf6 debc e473 85be 9fbb 98be
000000d0: bfe1 36bd 1a27 693b 3985 983e 92cc 343e
000000e0: 2649 6cbe fd47 e13e 3115 053e eb8c e8bd
000000f0: b413 67bc b598 a4bd 84dd 96be e02d 11be
00000100: dee0 83bd 1e85 dabd 2351 6bbd 8e39 e5bd
00000110: ae2d 8fbd b6f8 fabd 5caf 09bd 22ac 45be
00000120: 5e18 ca3e 5abc 163d 02ba 11be b2c1 20bf
00000130: 6e34 93bd d33c c73d 9e81 1f3e b8d4 22bd
00000140: 03ba ad3d b4a3 d2bd 40b8 cbbd 9fe0 d1be
00000150: b341 1fbe 5747 893d f458 003e c6f0 fe3d
00000160: 581c 0bbf 098d d63e 6a63 b73c b995 b0bd
00000170: 9f5b c03d a3f3 79be 759a 2dbc 5a0a 52be
00000180: d085 16bf 0936 1b3f fbcd f33e 5edc ea3e
00000190: 316a 35bf 4486 273f 5f1b 0bbf 9d04 1a3f
000001a0: 06c3 0cbf a598 d13e e841 19bf 813f 263f
000001b0: d5bd 22bf d9ff 15bf b6a8 1f3f b1fa ec3e
000001c0: ac0a 103f 2c1d 18bf 2adb 183f 00bc 033f
000001d0: 3ed2 2cbf 8c0e 24bf 0227 f9be 5a72 18bf
000001e0: afe1 363f b0de 0dbf 3e31 17bf 0ac3 063f
000001f0: f328 1fbf 0eaa 1f3f d3f2 353f 014e 0d3f
00000200: f393 27bf 5999 283f 552f 2d3f a37c 2d3f
00000210: e613 0dbf cad4 163f 4735 0bbf 955f ec3e
00000220: 3b79 44bf 4b34 083f 0148 f2be 1022 233f
00000230: 08eb 04bf 564f dfbe 367e 263f cecb 043f
00000240: d299 293f 8316 06bf ccf0 fc3e d477 e13e
00000250: 58a4 26bf 2bb4 27bf 7766 06bf f18d c6be
00000260: 294f 283f 459c 0dbf fb50 1cbf d661 003f
00000270: 6d46 1cbf 6d7f 1c3f bf8c 1d3f 568b 013f
00000280: 4d17 ffbe 8fbb fc3e 0caf 033f 3fe1 2c3f
00000290: f82a 1dbf 9920 343f a765 24bf 8e84 2f3f
000002a0: 8fce 04bf 9e28 1e3f bc22 15bf cca8 f63e
000002b0: 9c36 2fbf cf35 2ebf 3009 283f 2c96 373f
000002c0: 5824 173f a06f 15bf 5c72 163f 9425 fe3e
000002d0: ec85 31bf 5bb4 27bf 0237 febe b362 18bf
000002e0: 136d 153f 9f8e 2dbf 61c9 eabe 6cf6 f23e
000002f0: e19d 1abf 7d4c 233f be4c 3f3f 4de7 383f
00000300: b40c 07bf 5b2b 1e3f f40d 353f 8889 403f
00000310: 06e7 02bf a4e5 273f a74f 0dbf 2c01 153f
00000320: 1ad0 05bf 277c 243f 2e6c 3dbf a9b5 0c3f
00000330: 618f 41bf 218a 32bf cc6b 1c3f ad9f 043f
00000340: 348f d93e 30e7 3fbf 8405 2d3f 7c78 0d3f
00000350: c3f8 1dbf 3521 1cbf f661 25bf 0e8c 30bf
00000360: 90ee 1b3f 1cc2 44bf 8433 47bf 981d ea3e
00000370: 1ccf 29bf a961 393f 7494 4d3f fcfb 1e3f
00000380: 4d9d 813e f2a0 92bd a116 91be 7996 6abe
00000390: 125c a73d 68bb 8fbe 8587 293e 6278 c4bd
000003a0: 352c ea3c 19fb 32be d96b bcbc d0c8 323b
000003b0: ed29 843e 7aa8 4c3d b215 d03c b597 80be
000003c0: e7f3 853c 0e55 543d 680f abbd 48d0 68bd
000003d0: 1b7e 5c3e 1818 353e 7d16 e93d bfc4 053e
000003e0: f42a 00bd 6fb5 d23d 3385 953d 211f febd
000003f0: 4d5c 813d d2fd 48be 1a9e 02be 0f71 cfbc

dense_layers.0.bias f4 [16]
0.74608636 0.051638458 0.13287099 0.35004506 0.64034986 0.54329264 0.39806995 0.08519877
0.5709515 0.00036213332 0.119691744 0.6667175 0.678184 -0.15407446 0.23132996 0.6254347
00000000: 84ff 3e3f d982 533d 550f 083e 1b39 b33e
00000010: f8ed 233f 3a15 0b3f d3cf cb3e b17c ae3d
00000020: e129 123f b6dc bd39 f220 f53d 00ae 2a3f
00000030: 779d 2d3f b2c5 1dbe c3e1 6c3e 7d1c 203f

dense_layers.2.weight f4 [1, 16]
0.6037665 -0.17379455 -0.16688919 0.83996624 0.7893525 0.78269875 0.61527306 -0.057038967
0.6877781 -0.09758435 -0.14848703 0.6867861 0.8071142 -0.21075565 -0.2945881 0.6530978
00000000: 7190 1a3f 33f7 31be 00e5 2abe 0708 573f
00000010: 0113 4a3f f25e 483f 8982 1d3f b1a1 69bd
00000020: 3a12 303f 4eda c7bd fc0c 18be 37d1 2f3f
00000030: 099f 4e3f 54d0 57be 40d4 96be 6b31 273f
