BNN/model_states/DNN_model_state_FD001_noisy.pt (torch, 29135 bytes, 7 tensors)

lstm.weight_ih_l0 f4 [128, 14]
000000 2a 6e e0 3d 02 7f 30 be 10 1b de bd 11 6f 6e 3e
       0.10958512 -0.1723595 -0.108450055 0.23284556
000010 ff db 77 bd 30 ab 33 be 1a e6 80 be 0f 78 73 3e
       -0.06051254 -0.17545772 -0.25175554 0.23776267
000020 13 53 99 3d 8b e6 2d be 7d 34 2e 3b a3 5f 0d 3e
       0.07486548 -0.16982476 0.0026581578 0.13806014
000030 05 41 9d 3e 76 81 10 3e ff 90 a6 bd a0 37 aa bc
       0.30713668 0.14111885 -0.081331246 -0.020778477
000040 1b af c3 bb 67 f1 49 3d 36 ba bb be 97 2b bf 3d
       -0.005971802 0.049302485 -0.36665505 0.09334486
000050 be 4d 02 be 3b 58 3d 3e e8 aa d5 bd 90 31 60 3e
       -0.12724969 0.18490689 -0.104329884 0.21893907
000060 42 69 52 be 07 a5 82 be f1 51 9a 3d 94 36 1e bd
       -0.20547965 -0.2551653 0.0753516 -0.03862627
000070 6e c0 b3 be 68 56 d5 be 03 56 2f be 80 bb 09 3e
       -0.3510775 -0.41667485 -0.17122655 0.13450432
000080 71 cf 62 be 56 d6 bf bc 22 38 5f be 90 a2 ea 3e
       -0.22149445 -0.023417633 -0.21798757 0.4582715
000090 48 02 79 be 3b 9d 28 3e 5e 89 8d be 30 22 82 be
       -0.24317276 0.16466229 -0.27643865 -0.25416708
0000a0 f7 e8 ef 3e e6 d7 3b 3e 0f 9d 40 3e d4 08 40 3e
       0.46857426 0.18344077 0.18809913 0.18753368
0000b0 c7 10 fc 3d ec 21 b7 bc f3 3d a2 3d 04 70 25 3e
       0.123078875 -0.022355042 0.07921972 0.16156012
0000c0 b3 20 f4 3d 09 68 ce bd fb aa 7d be 8f ae 4d bd
       0.119202994 -0.10078437 -0.24772255 -0.0502153
0000d0 b3 88 16 be 6f 1e 1b 3e 79 ca 1f 3d c5 b1 58 3d
       -0.14700584 0.15148328 0.039011452 0.05290391
0000e0 ea 28 6c 3d 55 24 6b bc 57 08 10 3e c9 1d 89 bd
       0.057656206 -0.014351924 0.14065681 -0.06695134
0000f0 95 a1 ab bc 46 7f 16 be 8b 74 00 3d 06 34 b5 bd
       -0.020951072 -0.14696988 0.031361144 -0.08847813
000100 bd 29 e9 3d 2d 2b 9b bc 7a 3c 29 3e 2e cd 17 be
       0.11384914 -0.018941486 0.16526976 -0.14824364
000110 a3 16 ba bd 7b 2b 78 bd 26 cf 15 3e d2 4e 3b bd
       -0.09086349 -0.06058834 0.14629802 -0.045729466
000120 79 04 ab 3d 9d 92 0d be 86 45 90 be 6a de 30 be
       0.083504625 -0.1382546 -0.28178042 -0.17272344
000130 b0 cd bb bd 4f 72 94 3d 60 80 67 38 93 bd 22 3e
       -0.09170091 0.07248365 5.519425e-05 0.1589263
000140 ec 05 dc bd 44 cd 2f be f3 02 52 3e f1 db e8 bc
       -0.10743317 -0.17168146 0.20508938 -0.028425189
000150 65 20 04 3e c1 00 79 3c 3e 27 bc 3d 0d cf d0 3b
       0.12902983 0.015197934 0.09187172 0.0063723386
000160 db 51 3d 3b fb 48 09 3e 36 a7 4f 3d f1 2c 27 3e
       0.00288879 0.13406746 0.050696574 0.16325738
000170 48 f5 44 3e 6a e6 4a 3e 9d f4 b1 bd 3c 67 15 be
       0.19234192 0.19814458 -0.086892344 -0.14590162
000180 f4 b9 0c 3e 31 58 d5 3d 05 7c 8b be 8e f0 d8 be
       0.1374281 0.10417212 -0.27243057 -0.4237103
000190 8e 38 9e be 7e ea 71 3e 24 a8 9e be 22 3b af be
       -0.30902523 0.23624608 -0.30987656 -0.34224802
0001a0 eb 6e 22 be 90 94 5f 3e bd e7 db be 39 50 5f be
       -0.15862624 0.21834016 -0.4295024 -0.21807946
0001b0 35 63 d4 be cd 11 3f be 1b ed f2 3e 41 41 b5 3e
       -0.4148194 -0.18659134 0.47446522 0.35401347
0001c0 fb cb 2b bd 70 e6 cb be 81 65 71 be 3d 9d 3e 3d
       -0.041942578 -0.39824247 -0.23573877 0.046536673
0001d0 b4 44 e5 bd 4b 0e b3 be 74 96 3d be 1d 06 44 3e
       -0.11194745 -0.34971842 -0.18514425 0.19142957
0001e0 9a 3e 18 be 40 4c 71 be 54 f7 ad bd 0c 90 fe bd
       -0.1486763 -0.23564243 -0.0849444 -0.124298185
0001f0 d5 4b 00 bd 94 98 12 3e fc 6e 78 3d 17 c9 06 be
       -0.03132232 0.14316016 0.060652718 -0.13162647
000200 61 41 34 3e 2e 09 87 bc 8a 1a fa 3d 1e 1a eb 3d
       0.17603065 -0.01648387 0.12212093 0.11479591
000210 b2 7f 50 bd 84 04 e0 3d 4b 7b 04 be 58 10 13 3d
       -0.05090303 0.10938361 -0.12937658 0.03590426
000220 c1 26 ca bd 9b dc 53 be e0 cc ed 3d eb f3 79 bd
       -0.09870673 -0.20689623 0.116113424 -0.061023634
000230 47 30 ea bc 97 b5 f8 bd e2 f0 bc 3a 31 d0 8d bd
       -0.028587474 -0.121440105 0.001441505 -0.06924475
000240 fc 98 63 be 82 60 30 3e 34 9a 08 bd 64 a5 bb 3e
       -0.22226328 0.17224315 -0.033350185 0.3664962
000250 bd 56 ff 3d ba 76 16 3d 1b 83 a7 bd 9b 0b 45 be
       0.12467716 0.03673432 -0.08179303 -0.19242708
000260 1e 8c 2d 3d bf 2f 56 3c bd f3 cd 3e 62 e2 0f 3d
       0.042369954 0.013072907 0.4022502 0.035128005
000270 bc 4e 3f 3d 69 7d cb 3e cb eb 61 3e 02 81 72 bb
       0.046705946 0.39744118 0.22062604 -0.0037003164
000280 5f 88 0a be 09 4a 6a 3e ba b6 2f bd 8c e5 ed 3d
       -0.13528584 0.22879805 -0.04289887 0.11616048
000290 e2 ac 08 be 72 a9 9c 3e 42 a1 9a bd 27 99 a5 3e
       -0.133472 0.30598027 -0.07550289 0.32343408
0002a0 37 50 10 3e 12 96 8f bc f8 77 a3 3c 44 53 00 3a
       0.140931 -0.017527614 0.019954666 0.000489522
0002b0 cf 79 ef 3d 15 ca bf 3d 2d bb 02 3d bc 52 c0 bd
       0.11693155 0.09364716 0.031916786 -0.0939078
0002c0 f2 84 90 bd 44 bf 69 3e bd 6c 66 3e 33 06 1f be
       -0.07056607 0.22826868 0.22502418 -0.15529709
0002d0 13 8b 9c 3c 73 5e 7a 3d c8 70 1c bd 8a 15 10 be
       0.019109285 0.06112523 -0.038193494 -0.14070717
0002e0 cc f9 4a 3d e2 ce eb 3d 3c 6b ab bd 68 c1 42 be
       0.04955463 0.11514069 -0.08370063 -0.19019091
0002f0 2b 56 06 be d4 53 73 3e be 38 d3 bd 38 4b 6c be
       -0.13118808 0.23762447 -0.10313557 -0.23075569
000300 32 0a 70 3d 9d b8 d4 3d 67 59 03 3e d3 3b a3 3c
       0.058603473 0.10386775 0.12827073 0.019925987
000310 2b 1d 41 bc 09 61 93 3d da 60 b5 3d 50 03 2e 3e
       -0.011786739 0.07196242 0.088563636 0.16993451
000320 20 e6 7d be 37 ae b0 bd 1f ce 6f bd 8a d0 4d 3d
       -0.24794817 -0.08626979 -0.05854618 0.050247706
000330 8a 69 90 be e8 84 5d bd 6c 41 af be 30 10 97 be
       -0.2820552 -0.054081827 -0.342296 -0.29504538
000340 19 8c e9 3d 63 c4 ed 3d 16 5e 96 bd f1 f0 94 be
       0.11403675 0.116097234 -0.07342164 -0.29090074
000350 ff 48 a7 be ca 67 d9 3d e8 10 1d be 5e 43 53 3d
       -0.3267288 0.10615499 -0.1533848 0.05157792
000360 66 12 30 be c0 8c a4 3e ce 1b ea bd f2 ff 11 be
       -0.17194518 0.32138634 -0.114310846 -0.14257792
000370 ba ea 92 be 2c fe 09 3e 8e 8f 30 3e 2b 1b 71 3e
       -0.28694707 0.13475865 0.17242262 0.2354552
000380 ec 6d 38 be 4e cf 3f 3d 78 f7 90 3d 59 89 05 3e
       -0.18010682 0.04682856 0.07078451 0.13040675
000390 5e 81 58 be 2e af 23 be 98 c4 09 be cf 95 41 3e
       -0.211431 -0.15984794 -0.13453901 0.18904804
0003a0 34 6e 0c bd 49 3a 28 3e 14 33 7e 3d 45 02 28 3c
       -0.034284785 0.16428484 0.06206043 0.010254447
0003b0 7f 75 4a 3d ee 0d c6 bd 5e ec 21 be c9 ad 2b be
       0.04942846 -0.096706256 -0.15812823 -0.16765513
0003c0 bd 10 e1 3d c7 f5 3a bd 29 5e 23 bd ed 32 5b be
       0.10989521 -0.045644548 -0.03988472 -0.21406145
0003d0 7b 57 ad 3b a7 2c 41 bd e5 46 42 be ce 9c 56 3c
       0.0052899695 -0.047161724 -0.18972357 0.013098909
0003e0 b9 6e c8 bd de 34 14 3e 76 b7 c0 3c 49 21 b8 bd
       -0.09786744 0.14473292 0.023524981 -0.08990724
0003f0 67 b9 3d be 9b fe ca bd 7d eb c0 bb 91 8a 8b be
       -0.18527757 -0.099118434 -0.0058874474 -0.27254155

lstm.weight_hh_l0 f4 [128, 32]
000000 ff b8 1c be f4 70 f0 3d bd 6b dc 3d 06 6b 49 be
       -0.15304945 0.11740294 0.10762737 -0.19669732
000010 1a d5 be 3c 16 ae 78 be aa e9 82 3e 76 b2 69 bc
       0.023294974 -0.24285159 0.25568897 -0.01426374
000020 49 49 24 be 74 4e 7d be ec f8 2f 3e 0d 43 03 be
       -0.16043581 -0.24736959 0.171848 -0.12818547
000030 49 96 d3 3d b6 15 65 be a1 66 62 be 81 10 65 3d
       0.10331399 -0.22371563 -0.22109462 0.055923942
000040 ce 2a dc 3d 5e 11 b3 ba 19 30 2b 3e 94 83 3e be
       0.10750352 -0.0013661792 0.16717567 -0.1860488
000050 dc bf e0 be 30 1f 1b 3e c9 2a 15 3c 13 31 87 3e
       -0.43896377 0.15148616 0.009104439 0.26404628
000060 fc eb 5d 3e 23 6f 5d be be 8f cc bd 44 52 9e 3d
       0.21672052 -0.21624427 -0.09988354 0.07730535
000070 67 a5 03 bd 05 e3 1c bb a2 6f 84 bb 8e a5 12 bd
       -0.03214016 -0.0023939025 -0.004041628 -0.035802417
000080 84 30 78 3d c9 48 36 3c ee 87 7e 3d 1f 45 43 be
       0.060593143 0.011125752 0.06214135 -0.19069336
000090 da f9 9a bd a3 e0 09 3e 94 5c 72 3d 92 b2 81 3c
       -0.07567187 0.13464598 0.05917032 0.01583222
0000a0 f4 e0 37 bd d4 68 eb bd 98 58 b7 3d 7a 60 cf bd
       -0.044892266 -0.11494604 0.08952445 -0.10125823
0000b0 a3 47 23 3c 86 87 13 3e bd 61 94 3d b3 71 bb bc
       0.00996581 0.14407167 0.072452046 -0.022881364
0000c0 c4 b2 99 bc b3 f9 56 3e f9 13 87 bc 02 e3 25 be
       -0.018762 0.2099369 -0.016489016 -0.16199878
0000d0 0f 9d f7 be 58 b9 c1 3d c7 f7 76 3d af 14 16 3d
       -0.48362014 0.0945918 0.060294893 0.03664082
0000e0 82 76 83 3e 54 ca 83 be 41 f5 82 3d 21 45 07 be
       0.25676352 -0.25740302 0.06394435 -0.13209964
0000f0 ca 3a 26 3e e9 90 b3 3d 99 ae 9c 3d 20 d5 02 3e
       0.16233364 0.08767874 0.07650489 0.12776613
000100 4f 46 26 be 2e 6e ce bd 73 3a 20 be 7b 9f 05 3e
       -0.16237758 -0.10079609 -0.15647297 0.13049118
000110 60 23 07 3d bf d1 c1 bd c0 ca 79 3d e0 9d a5 3e
       0.03299272 -0.09463834 0.060984373 0.32347012
000120 61 29 b2 bd 30 39 12 3e 7b 90 be bc ab a0 a0 bc
       -0.08699299 0.14279628 -0.023262253 -0.019607862
000130 be 0e 1c 3e 98 82 58 3d 85 32 de 3d c8 cd 5b 3e
       0.15239999 0.05285892 0.108494796 0.21465218
000140 e9 a1 06 3e fe 96 78 3c 01 71 14 3d 69 53 92 bc
       0.13147701 0.015172718 0.03624058 -0.017862039
000150 b8 db c2 be 31 fb 74 bb b4 5f 8f bd 9b a9 d1 bc
       -0.38058257 -0.0037381167 -0.07000676 -0.02559357
000160 d8 0d eb bd 3b 0a d9 bd c5 c0 36 3d e4 d4 e9 3d
       -0.1147725 -0.105976544 0.044617433 0.11417559
000170 c5 11 8f 3d 18 63 a0 bc d0 79 4d 3b fc c6 e2 bc
       0.06985811 -0.019578502 0.0031353123 -0.027682774
000180 91 a8 8f 3b cc 17 1b 3e 22 95 3d 3e 18 b4 ac 3e
       0.0043841084 0.15145797 0.18513921 0.3373115
000190 41 e3 d3 be 19 ed 87 3e c6 f5 96 be 10 f6 53 3d
       -0.41384318 0.2654808 -0.29484385 0.051748335
0001a0 4e 2b 88 3e e2 62 8f 3e ed a7 be bd d7 17 eb bd
       0.2659554 0.2800513 -0.09309373 -0.114791565
0001b0 5a 18 88 be d1 8f 46 be 15 0e 21 3e ec a9 0b 3e
       -0.2658108 -0.19390799 0.15728028 0.13639039
0001c0 c2 7b a2 3e 22 ef 27 bd 3e a9 48 be 1b b2 d7 bd
       0.31735045 -0.04099954 -0.19595811 -0.10532018
0001d0 16 71 4f bd 86 cb ed bd f0 f8 b0 be 71 c5 a7 be
       -0.050644957 -0.11611085 -0.34564924 -0.32767823
0001e0 5a 9d de 3d a1 85 28 be 7c c4 7f be 1a 52 9a 3e
       0.10869856 -0.16457225 -0.24977297 0.30140764
0001f0 f6 08 28 be e0 4b 54 3e c4 d1 b9 3e 81 1a c7 3d
       -0.16409668 0.20732069 0.3629285 0.09721852
000200 d1 18 12 be 7c d3 bc bd 89 4b 83 bd 53 e0 cb bc
       -0.14267279 -0.09220025 -0.064108916 -0.02488724
000210 cf 29 02 3d 74 c0 66 3d dc 23 cd bc 50 6d da bd
       0.031778153 0.05633588 -0.025041513 -0.10665381
000220 d4 b9 0d 3e 04 88 5e 3e 41 29 63 be ee 5b 3e be
       0.13840419 0.21731573 -0.22183706 -0.18589756
000230 22 5c 82 be 8a bc 80 3d 0e 59 0f be 84 45 ae bd
       -0.25460917 0.06285961 -0.13998815 -0.08509353
000240 f5 ec 7a 3e 90 39 28 be ea 69 44 3e 78 85 3e bd
       0.24504454 -0.16428208 0.19181028 -0.046514004
000250 d7 d3 05 3e b2 29 44 bd 36 f1 e7 3d 98 24 19 bd
       0.13069092 -0.047891326 0.11325304 -0.037388414
000260 2c 05 2f 3c 91 ff 0a 3e f6 3b 38 be 51 ac cd bd
       0.010682385 0.13574053 -0.17991623 -0.10042632
000270 31 13 2a 3d 0a 72 90 bc c6 42 95 bd 24 59 f7 3c
       0.04152221 -0.017632503 -0.07288127 0.030193873
000280 64 cd 2c bd e7 57 89 3c 40 45 a6 bd 27 6a 61 3d
       -0.042188063 0.016765548 -0.08118677 0.055032875
000290 c0 3d 43 be 70 de 28 3d 79 2d f0 3d 51 b1 c2 3d
       -0.19066525 0.041227758 0.11727423 0.09506477
0002a0 c7 94 7c 3a 79 4a 52 3d 94 3e 8d bd a7 eb 14 be
       0.00096352067 0.051340554 -0.068967015 -0.14543019
0002b0 9f 61 d1 bd 82 ee 6f bd b2 6c bb bd 72 9d 89 3e
       -0.10223698 -0.05857707 -0.09151591 0.26877934
0002c0 50 f0 63 3a 93 0d e9 3d 75 ed 21 3d 65 96 ae bd
       0.0008695172 0.11379542 0.039533097 -0.08524779
0002d0 53 e5 83 be ca 89 6d bd 5c 2e 09 be 6b e4 1a 3d
       -0.25760898 -0.057992734 -0.13396591 0.037815493
0002e0 41 6a 13 bc 7d 44 a4 bc f0 3b b3 3d 74 4c 1b 3e
       -0.008997501 -0.020052189 0.087516665 0.15165883
0002f0 75 83 bc 3c f4 b6 89 3d 01 84 0f 3e 35 29 70 3d
       0.023011902 0.06724349 0.14015199 0.058633048
000300 80 c1 78 3d 5a e8 cd bc 5b 33 1e be ec 2c af bc
       0.06073141 -0.025135208 -0.15449278 -0.021383725
000310 3c ae a1 bd 9f 80 51 3d 5f 86 ab bd c5 88 86 3d
       -0.07894561 0.051148053 -0.083752386 0.065690555
000320 af 78 00 3e d0 9d 01 bd 59 04 53 be 6e 63 0f be
       0.12546037 -0.031644642 -0.20607127 -0.14002773
000330 34 ff 03 be 72 6a 1e 3d ac 59 ce bd da 08 16 3c
       -0.12890321 0.038675733 -0.10075697 0.009157384
000340 49 4c 82 3b 35 e1 c3 bd 71 3e 1b 3f e6 76 b9 bd
       0.003976379 -0.09564439 0.60642153 -0.09055881
000350 8e 03 c3 3c cc 62 e8 bd 6c 5c fd ba bd 29 5a bc
       0.023805406 -0.11346969 -0.0019329912 -0.013315615
000360 84 3b b4 ba 21 db 6c bd 5d 31 28 3d db eb 4e bd
       -0.0013750647 -0.057826165 0.0410627 -0.050517898
000370 50 9e e6 bd e4 8d c5 bd a2 86 81 3a 9b f0 09 be
       -0.112606645 -0.09646204 0.0009882043 -0.1347069
000380 0e 5b 7c 3e 62 2e 0c be 60 73 7f bd 13 7e 93 bd
       0.2464411 -0.13689569 -0.06236589 -0.07201781
000390 53 41 9c 3d ae 3f 8e bd 0d 91 30 3e 50 56 62 bd
       0.07629647 -0.0694574 0.17242832 -0.055258095
0003a0 f4 1e 04 3b ea 02 5f bd 2e 3c c3 bd 73 5a a5 be
       0.002016005 -0.05444614 -0.09532963 -0.3229557
0003b0 f8 be dc 3d db 10 6a 3d c5 c4 c8 3c b1 30 d6 3d
       0.10778612 0.05714498 0.02450789 0.10458506
0003c0 4a 8e 0a be 69 f0 8f 3d 4d 3d 69 bd b7 20 bc bd
       -0.13530841 0.070282765 -0.056943227 -0.09185927
0003d0 6d e7 d1 bc 2b a0 a2 bc 28 29 f0 3d ef 8d 2c 3e
       -0.025623048 -0.019851765 0.117266 0.16851018
0003e0 c8 ab a1 bd a4 a3 fb 3d 16 9b ef bc e9 5c 1b be
       -0.07894093 0.12287071 -0.029248755 -0.15172161
0003f0 ef 9c 10 3e f0 d9 01 be 02 cc 31 bc e4 b6 88 3d
       0.14122365 -0.12680793 -0.010851862 0.066755086

lstm.bias_ih_l0 f4 [128]
000000 05 16 5b bd 21 55 c1 3c 10 2f 6b bc 8a 8b 58 3e
       -0.053487796 0.023600163 -0.014354482 0.2114698
000010 47 54 b1 3d da 09 de 3c 4c 04 0e bd 6a 7d 11 be
       0.08658653 0.027104307 -0.034672067 -0.14207998
000020 8c 99 d1 3c d4 0f 5f 3e 6a fe 43 3e 80 d0 cf 3d
       0.025585912 0.21783382 0.1914002 0.1014719
000030 84 85 24 3e 19 59 20 3e cf 0d b3 3d 8d 87 f1 bc
       0.16066557 0.15658988 0.08742868 -0.029483581
000040 21 89 56 3e 2e 9d 81 bd 66 f3 8f bd a9 3e 38 3e
       0.20950748 -0.06328808 -0.070288464 0.17992653
000050 3e ee 37 3e cd c7 d5 bd 7b 97 02 3e fa e9 9a bd
       0.17961976 -0.104384996 0.12753098 -0.07564159
000060 1b de 0a 3e 6e d6 d0 3d b0 2c 94 3d 87 51 4a bd
       0.13561289 0.10197149 0.07235086 -0.049394157
000070 ae 47 ab bb 80 d8 8d 3e 90 60 a8 3d f6 46 40 bd
       -0.0052270507 0.2770424 0.08221543 -0.046942674
000080 b7 87 4d 3e c9 e0 15 3d 21 e0 8e bc 49 45 05 3e
       0.20071302 0.036591325 -0.017440857 0.13014711
000090 f8 94 68 3e 6d 90 b1 bc 7b 04 b3 3d c0 4f 71 bd
       0.22713077 -0.021675313 0.08741089 -0.058913946
0000a0 3d 69 94 bd d8 e0 e1 3c d7 dd a1 3d 19 11 8c 3e
       -0.07246635 0.027573034 0.07903641 0.27356794
0000b0 bb 0e 00 bd 75 a2 0c 3e de 78 79 3e 83 a7 77 3d
       -0.031264048 0.13733847 0.24362513 0.060462486
0000c0 00 1e 61 3d fe 97 96 3d 71 34 a4 bd 01 e1 61 3e
       0.05496025 0.07353209 -0.08017815 0.22058488
0000d0 99 c2 59 3d eb 6a 03 3d 7c dc cc 3d b9 62 21 3e
       0.0531641 0.032084387 0.100029916 0.15760316
0000e0 b7 c9 4b bd 10 8e 56 3c 85 7c e9 bd 6f d9 cb bd
       -0.049752917 0.013095394 -0.11400703 -0.099535815
0000f0 8f 55 98 3d 54 6f 2c bc 82 ee 11 3d c9 99 61 bd
       0.07438194 -0.01052459 0.03562785 -0.0550783
000100 91 70 a2 3c 53 e6 4e 3e 51 d3 33 3e a7 09 ef bc
       0.019829066 0.20205049 0.1756108 -0.029179407
000110 f8 34 48 be c7 bb 09 3e d9 df 9d bd be df 2b 3e
       -0.19551456 0.13450538 -0.07708711 0.1678457
000120 90 78 fb bd 66 c4 66 3e 56 d1 36 be 8b 53 a3 bd
       -0.12278855 0.22535858 -0.17853293 -0.07974919
000130 f5 4d 76 bd 73 89 08 be 13 99 d1 bc 8b bd 20 3e
       -0.06013294 -0.13333683 -0.025585687 0.15697305
000140 85 b7 50 3e 05 23 0a 3d 2b 5a 8e 3d d7 3e a1 bd
       0.20382507 0.033724803 0.06950792 -0.07873314
000150 65 38 12 be c4 b1 ca 3d 7b 60 28 be 13 20 75 be
       -0.14279325 0.09897187 -0.16443054 -0.23938017
000160 93 c5 35 3e 05 44 5c bd 3f 67 30 3d 17 a9 44 3b
       0.1775115 -0.053775806 0.043067213 0.0030008012
000170 a8 66 40 3d 96 1c 26 bc 3c 7c 27 3e 2b ed 45 3e
       0.0469729 -0.010138651 0.16355985 0.19328754
000180 d4 5a df 3d 1d 59 84 3e a1 bd 00 3e b9 85 02 bc
       0.10905996 0.25849238 0.12572338 -0.007966452
000190 9d e0 60 3e c8 4c 04 3d 50 40 2a 3e 5c d8 8d bc
       0.21960683 0.032299787 0.16626096 -0.017315082
0001a0 42 a0 8b 3d f1 0f f5 3d 63 7b ac 3d df 12 38 3d
       0.06817676 0.11965931 0.08421972 0.044939872
0001b0 da 01 8a 3d c8 1d e8 bc 5a 8e b0 3d ea be 1b bc
       0.067386344 -0.028334513 0.086209014 -0.009505967
0001c0 26 b3 4d 3d 8b 78 25 3e a2 60 a8 3e 29 08 34 3d
       0.050219677 0.16159265 0.32886225 0.043953095
0001d0 f9 e1 f5 3c c3 f1 80 3b 71 05 c9 3e 36 3c 05 3e
       0.030014979 0.0039350702 0.39261964 0.1301125
0001e0 5c 99 fd 3d 46 24 51 3e 6e cb 96 3c e1 31 d6 3d
       0.123827666 0.20423993 0.01840755 0.104587324
0001f0 19 5c cc 3e 13 46 8f 3e c3 78 26 3b b2 da c8 3d
       0.39914015 0.2798315 0.002540157 0.09807338

lstm.bias_hh_l0 f4 [128]
000000 c4 e5 05 3d aa c1 03 3e 27 8a aa bb f7 4b 52 3e
       0.032689825 0.12866846 -0.0052044573 0.20536791
000010 7f 25 95 3d 95 d2 a5 bd 73 35 bc 3d 44 0d 20 be
       0.072825424 -0.08096806 0.09189882 -0.1563006
000020 5f 83 ce 3c 42 30 e6 bd 21 ab ca 3c c9 45 a3 bd
       0.025209127 -0.11239673 0.024739804 -0.07972295
000030 f0 85 f3 bd ba e4 03 3d 06 a3 c9 3d e4 df dd 3a
       -0.11890781 0.032200553 0.098455474 0.0016927687
000040 2e 43 d6 3d f6 29 1e 3e b2 f7 68 3d c8 25 84 bd
       0.10462032 0.15445694 0.056876846 -0.06452519
000050 50 e3 a7 3d 1a 0c c3 bd 35 42 87 3d 1c 29 55 bd
       0.08197653 -0.095237926 0.06604425 -0.052041158
000060 91 e4 eb bc 60 f6 93 3c f3 d8 10 3e a4 f5 3a 3b
       -0.028795512 0.018061817 0.1414526 0.002852776
000070 56 b4 d6 3d c2 2b f2 3d 80 a8 c2 bd 8e 04 76 3c
       0.10483615 0.118247524 -0.09504795 0.015015734
000080 58 a2 d0 3c 00 6f d2 3d e3 44 c1 3d 3c 96 0c 3e
       0.025468037 0.10275078 0.09436967 0.13729185
000090 c9 d2 36 3e c2 01 bf 3c bb 5c 26 3c c4 ab 2e 3e
       0.17853846 0.023316268 0.010153945 0.17057711
0000a0 d8 1d 18 3e ab 9a 17 3e 4e fc 54 3e 5c dd 87 3e
       0.14855134 0.14805095 0.20799372 0.2653607
0000b0 33 9b 83 3e 6a 0e 41 3e d9 87 1c bd d6 12 b0 bd
       0.25704345 0.18853155 -0.038215492 -0.08597343
0000c0 20 61 ab bc a5 0f 29 3e 32 12 77 3e e2 fa d0 3d
       -0.020920336 0.16509874 0.24128035 0.10204102
0000d0 b7 f0 3e bd a5 04 6e bd 02 54 cd 3d eb a0 7e 3e
       -0.046616282 -0.058109898 0.10025789 0.24866073
0000e0 e2 be 87 3d 41 8f da 3c 52 a3 65 3e 43 2f 50 3e
       0.06628205 0.026679637 0.22425583 0.20330529
0000f0 c8 3b 0b 3d 05 87 ff 3c 96 d4 1e 3e 97 26 b7 bd
       0.03399256 0.031192312 0.15510783 -0.08942907
000100 c7 aa 89 3d c9 27 3a 3d 92 bf c1 3c 5d 3d fc bb
       0.06722026 0.0454481 0.023650918 -0.0076977448
000110 9d 6a 7b be 4e c9 e7 3d 16 30 cc bd 38 18 8f bd
       -0.24552388 0.11317693 -0.09970109 -0.06987041
000120 b4 9f 38 3e e2 ef c0 3d e9 97 d3 bd 71 de ce bd
       0.18029672 0.09420754 -0.10331709 -0.10101021
000130 77 48 10 be 28 de e6 bd 7e 02 24 3e 8b 2d d7 bd
       -0.14090143 -0.11272842 0.16016576 -0.105067335
000140 0e 75 2d 3e f9 d0 c4 3d 8d 31 d2 3d 97 4d 6a be
       0.16939184 0.09610171 0.10263357 -0.2288116
000150 f2 b1 be bc c2 3c 10 be 2c 5d 48 bc 35 5b ba bd
       -0.02327821 -0.14085677 -0.012229245 -0.090994276
000160 ac 85 e9 3d e2 c7 5c bd e5 83 33 bd 7a 46 07 3e
       0.11402449 -0.05390156 -0.043826956 0.13210478
000170 cd 01 63 be bf 74 13 3e 2a dc 5b 3e 7d 6f 37 3e
       -0.22168656 0.14400004 0.21470705 0.17913623
000180 96 f3 fa 3d eb a2 e1 3d 90 2a 45 3e 02 2a cd ba
       0.122534916 0.11017402 0.19254518 -0.0015652778
000190 02 1b b6 3d a9 67 a5 3e 91 db 3b 3e 53 c2 0e 3e
       0.0889187 0.3230565 0.18345477 0.13941316
0001a0 ee 43 58 3c e8 93 6c 3d 68 9f 35 3e 21 86 b0 3d
       0.013199789 0.057758242 0.1773659 0.08619333
0001b0 b1 22 d5 3d 27 27 46 3d f8 b2 93 3e e6 84 46 3e
       0.104070075 0.048377182 0.2884748 0.19386634
0001c0 8d 9b 98 bc e6 e3 84 3e a1 5b 1d 3e 3c 52 a9 3d
       -0.01862886 0.25955123 0.15366985 0.08267638
0001d0 bc de 96 3e e8 df 00 3d 24 28 87 3d d3 1e 30 3e
       0.29466808 0.031463534 0.06599453 0.17199259
0001e0 27 6c 99 3d 31 84 11 3d 6c 04 02 bd 43 e6 db 3d
       0.074913315 0.03552646 -0.0317425 0.10737278
0001f0 59 4f c1 3e e2 25 cf 3c 27 f1 a4 3c c4 21 dd 3d
       0.3775585 0.025286619 0.020134522 0.10797456

dense_layers.0.weight f4 [16, 32]
000000 34 47 3e bf ac c9 22 3f 2b 88 15 3f 94 7a 3e 3f
       -0.743274 0.63588977 0.584109 0.7440579
000010 08 54 48 bf ee d0 1d 3f db 96 07 bf 16 aa 23 3f
       -0.7825322 0.61646926 -0.5296456 0.63931406
000020 eb ae 0d 3f 89 05 48 3f 8f c2 40 bf 96 44 3a 3f
       0.5534503 0.78133446 -0.7529687 0.72760904
000030 04 af 10 bf c0 d9 06 bf f5 87 37 3f fb e0 23 3f
       -0.5651705 -0.5267601 0.7169183 0.6401517
000040 de 1c 22 3f 9c c4 1a bf 20 51 e2 3e 29 8c 0d bf
       0.633253 -0.6045625 0.44202518 -0.5529199
000050 74 55 f9 be 38 53 00 bf 0e e8 23 bf 51 16 44 bf
       -0.48698008 -0.5012698 -0.6402596 -0.7659655
000060 3a 2f 18 3f be 69 01 bf a1 ce 37 bf 4d 8d 44 3f
       0.5944706 -0.50551975 -0.71799666 0.7677811
000070 6d ed 1c bf 0f 09 1e 3f 38 ea 44 3f a3 5c 2e 3f
       -0.61299783 0.6173257 0.7691989 0.681101
000080 00 2f 4a 3d e9 f5 96 bd 42 68 5c bd 9b 42 6b bd
       0.04936123 -0.073711224 -0.053810365 -0.057436567
000090 70 0d 55 3d 2e 8e 04 be 39 b8 94 3c 54 51 33 be
       0.052014768 -0.12944862 0.01815425 -0.17511493
0000a0 c7 c9 88 be d2 7a 65 bd 24 f4 a2 3e 43 f3 ba be
       -0.26716444 -0.056025334 0.3182689 -0.3651372
0000b0 3e 04 8b 3d f8 0a 76 3d 45 56 84 be e3 8a 17 3c
       0.067879185 0.060069054 -0.25847068 0.009249422
0000c0 66 e6 8f be 3a 2e 10 3d f7 04 96 be fd d1 2d 3e
       -0.28105468 0.035200335 -0.29300663 0.16974635
0000d0 d3 d5 be 3c 58 44 86 3c 07 39 a2 3e 0a 27 5b 3e
       0.023295319 0.01639001 0.31684133 0.21401611
0000e0 81 26 08 be 58 5c 91 3e ca 38 1c 3e 68 cb 00 be
       -0.13295938 0.28390765 0.15256038 -0.12577593
0000f0 d2 06 8d 3c 45 94 95 bd c8 b6 8f be 62 64 2c be
       0.017215166 -0.07303671 -0.2806914 -0.16835168
000100 14 4a 14 3d dc 4e 65 be 77 60 7e be de 23 60 be
       0.03620346 -0.22393364 -0.24841486 -0.21888682
000110 b7 f5 8a 3c 91 0a 6b be fe 9a 8a 3d 23 81 9a be
       0.01696287 -0.2295325 0.06767844 -0.30176648
000120 05 92 48 3c 75 6b a9 bd 75 62 42 bd fd 02 b0 be
       0.012241845 -0.08272449 -0.047457177 -0.3437728
000130 b6 87 4f 3d 5b 84 41 3e ce 28 2c 3d 0c 40 28 be
       0.050666533 0.18898146 0.042031102 -0.16430682
000140 13 66 c1 bc ad 80 90 3c 1a c9 2b be 2f 7b fc 3d
       -0.023608243 0.017639482 -0.16775933 0.12328183
000150 80 a3 19 bd aa 0f fa 3d 11 f6 30 3e 98 de 6b 3e
       -0.03750944 0.12210019 0.17281367 0.23034132
000160 8e 79 a5 be c0 54 ae 3d 18 17 ea 3d 39 34 f5 bd
       -0.323193 0.085122585 0.11430186 -0.11972851
000170 e3 79 28 3e 42 4b 7b be 67 29 18 3c 1c dd a0 be
       0.16452746 -0.24540427 0.009287215 -0.31418693
000180 af 24 15 bf c3 e6 1b 3f de e3 fb 3e 5e f5 e5 3e
       -0.582591 0.6089899 0.49197286 0.44913763
000190 ee fd 32 bf 83 a8 27 3f b0 a2 08 bf 6f ee 1f 3f
       -0.69918716 0.65491503 -0.5337324 0.62473196
0001a0 20 dd 0d 3f 8e a5 d0 3e 10 1c 19 bf a9 d2 1f 3f
       0.55415535 0.40751308 -0.59808445 0.62430817
0001b0 1e d7 1f bf bb f4 1b bf 63 28 1c 3f 8c 75 ee 3e
       -0.6243762 -0.60920304 0.60999125 0.46574056
0001c0 d3 17 10 3f 1c 20 15 bf 0f c9 13 3f 74 6a 08 bf
       0.5628635 -0.5825212 0.57728666 -0.53287435
0001d0 c0 d0 2d bf f9 42 22 bf 4d e6 ee be 40 b7 15 bf
       -0.6789665 -0.6338344 -0.4666008 -0.5848274
0001e0 31 d8 1f 3f 67 9b f0 be 2e 57 0f bf 39 f7 01 3f
       0.62439257 -0.46993563 -0.559924 0.50767857
0001f0 f3 e6 1b bf 69 54 14 3f 66 32 2c 3f 0c d8 05 3f
       -0.60899276 0.579413 0.672644 0.52282786
000200 fe 7f 26 bf 3e d3 29 3f 66 a9 31 3f bb 47 2b 3f
       -0.6503905 0.66337955 0.69399107 0.66906327
000210 e1 fd 0a bf d3 57 17 3f 50 12 09 bf c6 33 f9 3e
       -0.5429364 0.59118384 -0.5354357 0.48672312
000220 33 91 ba 3e eb f5 07 3f c6 b8 f2 be 5c 1e 1c 3f
       0.36438903 0.53109616 -0.47406596 0.60983825
000230 7e 61 02 bf 8f a0 ec be 35 57 23 3f 58 e9 05 3f
       -0.5093001 -0.46216246 0.6380494 0.5230918
000240 b3 13 2a 3f 05 43 03 bf b4 4a f3 3e fb 3f 22 bf
       0.6643631 -0.5127414 0.4751793 -0.63378876
000250 90 1e 28 bf 2b 30 26 bf 76 86 01 bf f5 a8 c1 be
       -0.65671635 -0.6491725 -0.50595796 -0.37824216
000260 1f 4a 10 3f 82 01 ef be 80 87 14 bf fe 94 f7 3e
       0.563631 -0.46680838 -0.58019257 0.4835586
000270 e7 5e 19 bf 85 24 11 3f 24 e1 13 3f 62 e6 f3 3e
       -0.59910434 0.5669635 0.5776541 0.47636706
000280 42 11 fc be c0 9a fd 3e 07 9f 07 3f a4 2e 2a 3f
       -0.49231917 0.49532127 0.5297703 0.6647742
000290 65 83 1a bf 6f 0a 34 3f 3c b0 21 bf 87 5e 35 3f
       -0.6035674 0.7032842 -0.6315954 0.7084736
0002a0 b4 09 19 3f af 85 1d 3f c7 cf 14 bf 02 2f e9 3e
       0.5978043 0.6153211 -0.58129543 0.45543677
0002b0 87 1b 2c bf 6a 02 34 bf 06 69 24 3f be 23 38 3f
       -0.67229503 -0.70316184 0.64222753 0.7192954
0002c0 40 09 17 3f 75 46 12 bf 2d 1c 11 3f 29 29 10 bf
       0.5899849 -0.5713876 0.5668362 -0.56312805
0002d0 cc 64 32 bf f0 b4 25 bf d8 6a f3 be 6a 69 15 bf
       -0.69685054 -0.64729214 -0.47542453 -0.58363974
0002e0 22 3e fb 3e bc 58 17 bf d0 c1 da be ce c1 e8 3e
       0.4907084 -0.5911977 -0.42725992 0.4546036
0002f0 64 1a 17 bf 93 a5 17 3f 30 29 35 3f 38 11 31 3f
       -0.59024644 0.5923702 0.7076597 0.691669
000300 6e 86 07 bf 66 c3 18 3f f2 89 38 3f 83 92 3c 3f
       -0.529395 0.59673154 0.7208549 0.7366106
000310 40 17 fe be c3 19 22 3f 91 f4 08 bf 42 68 1a 3f
       -0.49627113 0.6332056 -0.5349818 0.60315335
000320 ad 8e 3c 3f 1d 1d 22 3f ab e8 3b bf 1d 99 03 3f
       0.73655206 0.63325673 -0.734019 0.5140551
000330 28 45 3e bf f9 16 33 bf 2f be 1e 3f 20 59 04 3f
       -0.74324274 -0.6995693 0.6200895 0.51698494
000340 4e 6b d7 3e f0 20 3d bf 96 a1 25 3f 0e 8f 1b bf
       0.42074054 -0.73878384 0.64699686 -0.6076516
000350 f9 2a 1e bf 3e bb 19 bf 20 5f 1e bf a7 2c 2c bf
       -0.6178432 -0.60051334 -0.618639 -0.67255634
000360 74 55 f6 3e f1 fc 28 bf 7c 7c 4a bf 9c 4f da 3e
       0.4811207 -0.6601096 -0.790962 0.42638862
000370 25 de 25 bf 83 aa 2e 3f 4a 11 41 3f 24 88 13 3f
       -0.6479209 0.6822893 0.75417006 0.5762961
000380 eb 5f 85 3e 15 f9 94 bd 5a 62 96 be ed 45 6b be
       0.26049742 -0.07274071 -0.2937191 -0.22975893
000390 53 82 a3 3d cf a5 92 be 71 ec 27 3e ab a9 da bd
       0.07983842 -0.28642127 0.16398789 -0.10676893
0003a0 eb 84 8d be 8c 35 40 be 92 17 a7 bc 4d 1a a4 3b
       -0.2764047 -0.18770427 -0.020396981 0.005008018
0003b0 de a7 81 3e 8b 9c 75 3d 84 c5 c2 3c 36 d0 82 be
       0.25323385 0.059963744 0.023775823 -0.25549477
0003c0 7b 88 4c 3c 51 76 5d 3d 3c c3 ae bd 69 9e 90 3e
       0.012483711 0.054067913 -0.08533332 0.28245857
0003d0 4b b9 65 3e 47 5a 30 3e 40 fa e5 3d a1 a0 05 3e
       0.22433965 0.17221938 0.11229372 0.13049556
0003e0 bc 75 2a bd 44 93 b8 3d e6 51 72 3d b4 fc fd bd
       -0.041616186 0.09012464 0.059160136 -0.12401715
0003f0 58 52 65 3d c8 38 42 be de a7 f7 bd a3 86 f6 bc
       0.055986732 -0.18966973 -0.12092565 -0.030093497

dense_layers.0.bias f4 [16]
000000 25 ac 3e 3f 9d 57 66 bb ee 68 e4 3c 7c f9 b1 3e
       0.7448142 -0.0035147436 0.027882066 0.34760654
000010 f2 db 23 3f 0c 64 0a 3f a7 b0 c8 3e fe 76 a5 3d
       0.64007485 0.5405891 0.39197275 0.080793366
000020 b3 2a 12 3f cb c3 2d bd b0 10 77 3d 0f 61 2a 3f
       0.57096404 -0.04242305 0.06031865 0.6655435
000030 40 08 2d 3f 4d 1f 76 be f2 94 d5 3d 39 48 1f 3f
       0.67590714 -0.24035378 0.104288 0.6221958

dense_layers.2.weight f4 [1, 16]
000000 7f ba 17 3f 7f 08 da bd 46 2f 32 bd 2a 2d 53 3f
       0.59268945 -0.10646152 -0.043502115 0.8249079
000010 35 13 47 3f a3 39 44 3f a1 28 18 3f 0c 21 32 bd
       0.7776368 0.76650447 0.59436995 -0.043488547
000020 2e 2e 2d 3f 74 06 10 bd 03 d7 98 bd 67 98 2c 3f
       0.6764859 -0.035162404 -0.07462885 0.6742005
000030 4e 47 4a 3f 51 af f1 bd d6 33 1f be 90 ff 22 3f
       0.7901505 -0.11801017 -0.15547118 0.6367121
