BNN/BNN_model_state_FD001_test.pt (torch, 57845 bytes, 14 tensors)

lstm.ih.mu_weight f4 [128, 14]
-0.3246706 -0.20755231 -0.43368658 0.12061956 0.06975085 -0.30790985 -0.26104757 -0.011215792
-0.23548326 -0.052022777 -0.51464313 -0.2570708 0.32286572 0.10074878 -0.26249748 0.1822501
0.016449673 0.07977759 -0.050775878 -0.0478665 -0.2520455 0.11210506 0.031171404 0.06810093
0.15989265 0.031876553 -0.016768921 0.14622821 0.048778646 0.076035485 -0.19505788 0.0712555
-0.20318092 -0.38084075 -0.13534647 0.20612143 -0.0038878347 -0.35009566 0.026609953 -0.07477283
0.010346919 -0.1831155 -0.38525367 -0.10011445 -0.43480733 0.29359946 -0.2572066 -0.21792915
-0.29672736 0.06609587 -0.116039075 -0.117738664 -0.15489589 -0.11321385 0.11420558 0.0075843697
-0.45988053 -0.092733055 -0.56103283 0.44244877 -0.15746742 0.01692243 -0.540213 0.48046747
-0.1252777 -0.073771395 -0.05952189 -0.14839566 0.21189968 0.1754171 -0.47112557 -0.12939285
-0.3733717 0.3682083 0.05322864 0.08688329 -0.18289576 0.111179814 -0.30761158 -0.06257086
-0.41539294 -0.06457916 0.1376772 0.2879132 -0.35581797 -0.22998495 -0.35251382 -0.10818095
-0.17736381 -0.20246357 -0.33715615 0.39421627 -0.51771384 -0.19661571 0.14178278 -0.14248429
-0.20008264 0.9898977 0.17194314 0.14560986 0.1866786 -0.1379078 0.15383342 -0.14441746
0.14669003 -0.1344025 0.16830057 -0.10989506 0.29396895 0.017237408 -0.17022961 -0.17911111
-0.0505114 0.113825664 -0.018017003 0.010692952 0.057866234 -0.112495735 -0.027007354 -0.031066276
-0.01807856 -0.11736433 0.12774953 -0.040356055 0.16823576 0.037236307 0.0018628755 0.08813275
0.13472554 -0.08499425 -0.20556346 -0.34238648 0.21295719 0.034730732 0.1322231 -0.18263271
0.3678927 -0.14138958 -0.06579468 -0.21379986 -0.23970506 -0.06188091 -0.3418561 0.17323099
-0.23590532 -0.0110838 -0.011212155 0.35467207 0.04216376 -0.10686683 -0.28221673 -0.24845773
0.5822474 0.020301798 0.032761447 0.24307142 -0.17137341 -0.1436019 -0.16501443 -0.1009571
-0.10288557 -0.078136496 0.05341059 -0.23852889 0.19257322 -0.2619403 -0.07544482 -0.17649217
-0.25051513 -0.13804102 0.104718156 0.16623026 -0.255479 -0.027910357 -0.035362594 0.32698086
0.044788104 -0.07584075 -0.31545585 -0.38823393 -0.0052990466 -0.21024391 -0.11736835 -0.083061956
-0.12104664 -0.13862282 -0.17637539 -0.14758739 0.075171396 -0.064310424 0.09844131 -0.10734108
0.17690429 -0.17225693 0.009923401 -0.076243706 -0.471265 -0.06930302 -0.34597942 0.5005192
-0.12208153 0.1274606 -0.3301701 0.19816242 -0.2786688 0.042134736 -0.10695844 -0.10609559
0.07814478 0.13719524 -0.5424572 -0.19346447 -0.4608489 0.5081118 -0.21534239 -0.400309
-0.57220274 0.38234562 -0.4579074 -0.012091775 -0.23632786 -0.1678421 0.28791013 0.2344062
-0.8940263 -0.121649176 -0.79849905 0.31416082 -0.1718539 -0.014474908 -0.35162318 0.49696234
-0.26294535 -0.10518782 -0.699292 -0.28502 0.34779716 0.04576275 0.27994606 0.31736824
0.15303926 -0.23708068 0.047972683 0.02701708 0.15914005 -0.27749804 0.15645309 0.10521474
0.45567358 -0.07851021 -0.14659655 -0.19190961 -0.005619337 0.04417741 0.033315275 -0.054120857
00000000: 3a3b a6be 9888 54be 2b0c debe 6307 f73d
00000010: 89d9 8e3d 5ca6 9dbe 07a8 85be 71c2 37bc
00000020: 8622 71be d615 55bd a7bf 03bf c99e 83be
00000030: a84e a53e 6055 ce3d 1266 86be c59f 3a3e
00000040: 77c1 863c 6f62 a33d 5efa 4fbd aa0f 44bd
00000050: 1c0c 81be 5697 e53d 2c5b ff3c 8078 8b3d
00000060: e6ba 233e fd90 023d fa5e 89bc d9bc 153e
00000070: 1ecc 473d 7eb8 9b3d 41bd 47be 67ee 913d
00000080: a90e 50be 8ffd c2be 4498 0abe 7f11 533e
00000090: 0bcb 7ebb bd3f b3be 1efd d93c 7f22 99bd
000000a0: 2086 293c a182 3bbe f83f c5be ce08 cdbd
000000b0: 119f debe ab52 963e 95b0 83be d228 5fbe
000000c0: a6ec 97be 465d 873d e5a5 edbd f820 f1bd
000000d0: 079d 1ebe aadc e7bd 9de4 e93d 4e86 f83b
000000e0: 7675 ebbe d4ea bdbd d99f 0fbf a588 e23e
000000f0: 243f 21be e8a0 8a3c 664b 0abf d5ff f53e
00000100: cc48 00be 7515 97bd 3acd 73bd 08f5 17be
00000110: 3bfc 583e 8aa0 333e 5f37 f1be 8f7f 04be
00000120: 932a bfbe cc85 bc3e 4606 5a3d deef b13d
00000130: 0749 3bbe 3eb2 e33d 447f 9dbe 2725 80bd
00000140: 62ae d4be 1442 84bd 40fb 0c3e 5c69 933e
00000150: c62d b6be 2d81 6bbe b17c b4be f98d ddbd
00000160: dc9e 35be 9c52 4fbe bb9f acbe b7d6 c93e
00000170: e588 04bf a155 49be 812f 113e 67e7 11be
00000180: 77e2 4cbe f069 7d3f dd11 303e c01a 153e
00000190: ad28 3f3e b437 0dbe 8286 1d3e 2ce2 13be
000001a0: e935 163e cfa0 09be fc56 2c3e a910 e1bd
000001b0: 1983 963e 7735 8d3c ac50 2ebe e768 37be
000001c0: 0be5 4ebd 6e1d e93d 6598 93bc 7e31 2f3c
000001d0: 2505 6d3d 2a64 e6bd 873e ddbc b47e febc
000001e0: 7d19 94bc b65c f0bd c6d0 023e 644c 25bd
000001f0: ff45 2c3e 1985 183d bb2b f43a f17e b43d
00000200: 7ef5 093e 7711 aebd 3a7f 52be 484d afbe
00000210: 7311 5a3e d041 0e3d 7e65 073e 1204 3bbe
00000220: 6f5c bc3e 6ec8 10be 5cbf 86bd 5aee 5abe
00000230: 3e75 75be d676 7dbd c307 afbe 7763 313e
00000240: 2a91 71be d498 35bc 30b3 37bc 9497 b53e
00000250: e8b3 2c3d ffdc dabd b67e 90be b46b 7ebe
00000260: 2a0e 153f f54f a63c de30 063d b7e7 783e
00000270: 837c 2fbe 600c 13be 8bf9 28be 99c2 cebd
00000280: abb5 d2bd 0706 a0bd 10c5 5a3d eb40 74be
00000290: ea31 453e 0a1d 86be d082 9abd 5dba 34be
000002a0: 8543 80be a05a 0dbe 7976 d63d 4438 2a3e
000002b0: 25ce 82be 43a4 e4bc 5ed8 10bd 096a a73e
000002c0: bb73 373d 6552 9bbd 6e83 a1be 99c6 c6be
000002d0: a0a3 adbb 2e4a 57be d15e f0bd 631c aabd
000002e0: 4de7 f7bd 24f3 0dbe c09b 34be 2621 17be
000002f0: 76f3 993d 2fb5 83bd 999b c93d a4d5 dbbd
00000300: 6626 353e 1f64 30be c395 223c a925 9cbd
00000310: a549 f1be beee 8dbd 3724 b1be 0722 003f
00000320: e205 fabd 0885 023e 0e0c a9be 17eb 4a3e
00000330: adad 8ebe 7995 2c3d 070d dbbd a548 d9bd
00000340: 5f0a a03d e97c 0c3e 7ade 0abf 8d1b 46be
00000350: 63f4 ebbe 9d13 023f b782 5cbe 4df5 ccbe
00000360: e17b 12bf cec2 c33e d772 eabe 951c 46bc
00000370: eeff 71be cdde 2bbe f568 933e 2e08 703e
00000380: e8de 64bf 3423 f9bd 6f6a 4cbf b0d9 a03e
00000390: 78fa 2fbe 2a28 6dbc f407 b4be d971 fe3e
000003a0: c6a0 86be b66c d7bd cd04 33bf 24ee 91be
000003b0: 7812 b23e b971 3b3d 1755 8f3e 177e a23e
000003c0: 53b6 1c3e 47c5 72be 017f 443d ec52 dd3c
000003d0: 9cf5 223e 3914 8ebe 3d35 203e d37a d73d
000003e0: 0c4e e93e f6c9 a0bd 681d 16be f483 44be
000003f0: 6a22 b8bb 5ff3 343d 9975 083d d5ad 5dbd

lstm.ih.rho_weight f4 [128, 14]
-2.7827976 -2.560745 -2.8533046 -2.8272707 -2.8494968 -2.8973222 -2.778591 -2.7637002
-2.8759012 -2.6721048 -2.9384382 -2.7459545 -2.8698475 -2.735753 -2.5731838 -2.969904
-2.9697025 -2.6502337 -2.8306854 -2.9645581 -2.6871204 -2.7795534 -2.8381588 -2.8706856
-2.7179775 -2.7075672 -2.6474056 -2.8204703 -2.7223456 -2.8960242 -2.8986108 -3.0100193
-3.0655153 -3.0460486 -2.9010978 -2.797887 -2.9686432 -3.006335 -2.6273117 -2.6745546
-2.529307 -2.7008216 -2.953278 -2.904495 -2.8740897 -2.796167 -3.0983841 -2.8352137
-2.9374018 -2.7332358 -2.88566 -2.8973222 -2.8266594 -2.8233984 -2.767724 -2.6736453
-2.820815 -2.7417092 -3.0326722 -2.8492887 -2.923033 -3.2088826 -3.1400433 -2.872099
-2.9707747 -2.8395054 -2.7905464 -3.0512824 -2.667219 -2.8214798 -2.9976401 -2.6947796
-2.8840356 -2.9335434 -2.973211 -3.0126467 -3.0134366 -2.856995 -3.109524 -3.2382908
-2.6977034 -3.1015203 -2.8331132 -2.9302235 -2.750475 -2.7464263 -2.79138 -2.6781368
-2.9716012 -2.6192877 -2.8589587 -2.930416 -2.8563304 -2.8058739 -2.5524573 -2.650685
-2.7518396 -2.784378 -2.630611 -2.8359556 -2.8497608 -2.7799878 -2.771923 -3.008968
-3.043229 -2.8628614 -2.9034147 -2.6856608 -2.9161546 -2.8238027 -2.5740917 -2.8403091
-2.5594478 -2.6606226 -2.6207502 -2.6813343 -2.9279158 -3.1633878 -2.7244625 -2.765413
-3.0491502 -2.8893473 -2.7669215 -2.7531474 -2.8345492 -2.7418485 -2.7383873 -2.5321355
-2.6907496 -2.6511939 -2.711699 -2.9366624 -2.6475637 -2.7579575 -2.724293 -2.8790827
-2.6992764 -2.6458635 -2.6760824 -2.760882 -2.648665 -2.8189046 -2.6274028 -2.697062
-3.1281292 -2.9747777 -2.4887438 -2.661755 -2.645297 -2.921795 -2.4031837 -2.9181738
-2.6966443 -2.6573539 -2.6803987 -2.6197042 -2.7318442 -2.7175002 -2.575345 -2.8484967
-2.8495963 -2.6185539 -2.8882523 -3.0636346 -2.7034338 -2.7543793 -2.6063392 -2.612238
-2.6867528 -2.685447 -2.7108274 -2.5525377 -2.899831 -2.6818063 -2.6086428 -2.7588367
-2.7573404 -3.124794 -2.64891 -2.7226765 -2.651473 -2.9083354 -2.7383356 -2.7433145
-2.6529481 -2.7196984 -3.0597131 -2.929962 -2.7555966 -2.8011763 -2.7972088 -2.893507
-2.6464276 -2.845185 -2.5638368 -2.651756 -2.820919 -2.9365182 -2.8856099 -3.1234324
-3.0335135 -2.9159393 -2.7978415 -2.8693943 -2.8684762 -2.9629433 -2.7912688 -2.8181956
-2.9658296 -2.867845 -2.8624797 -2.9727144 -2.8072357 -2.6801596 -2.9963577 -2.9244907
-2.7765553 -2.863099 -3.0015905 -2.9090962 -2.5818305 -2.7965126 -2.65051 -2.9453943
-2.7482657 -2.7611666 -2.6772864 -2.6411703 -2.968125 -3.1728055 -2.5838585 -2.5621455
-3.0017123 -2.919409 -2.575811 -2.6297913 -2.6959958 -2.619559 -2.9140897 -2.873992
-2.8658235 -2.73997 -2.6665618 -2.9908366 -2.828672 -2.890827 -2.9381359 -2.7825944
-2.8102381 -2.6675892 -2.7263534 -2.7563605 -2.8404918 -2.7991881 -2.806845 -2.6708431
00000000: 5b19 32c0 3fe3 23c0 8b9c 36c0 01f2 34c0
00000010: 285e 36c0 ba6d 39c0 6fd4 31c0 77e0 30c0
00000020: c40e 38c0 c403 2bc0 5f0f 3cc0 b8bd 2fc0
00000030: 95ab 37c0 9416 2fc0 0baf 24c0 e812 3ec0
00000040: 9b0f 3ec0 6e9d 29c0 f329 35c0 52bb 3dc0
00000050: c8f9 2bc0 34e4 31c0 65a4 35c0 50b9 37c0
00000060: 58f3 2dc0 c848 2dc0 186f 29c0 9682 34c0
00000070: e93a 2ec0 7658 39c0 d782 39c0 28a4 40c0
00000080: 6731 44c0 76f2 42c0 96ab 39c0 9510 33c0
00000090: 40fe 3dc0 cb67 40c0 e025 28c0 e72b 2bc0
000000a0: 2ae0 21c0 43da 2cc0 8202 3dc0 3fe3 39c0
000000b0: 16f1 37c0 66f4 32c0 ed4b 46c0 2474 35c0
000000c0: 64fe 3bc0 56ed 2ec0 a7ae 38c0 ba6d 39c0
000000d0: fde7 34c0 8fb2 34c0 6422 31c0 011d 2bc0
000000e0: 3c88 34c0 2a78 2fc0 4d17 42c0 bf5a 36c0
000000f0: f912 3bc0 555e 4dc0 78f6 48c0 78d0 37c0
00000100: 2c21 3ec0 75ba 35c0 5098 32c0 3648 43c0
00000110: b7b3 2ac0 2093 34c0 56d9 3fc0 4577 2cc0
00000120: 0a94 38c0 2dbf 3bc0 1749 3ec0 34cf 40c0
00000130: 25dc 40c0 02d9 36c0 7102 47c0 2840 4fc0
00000140: 2ca7 2cc0 4f7f 46c0 ba51 35c0 c888 3bc0
00000150: c807 30c0 73c5 2fc0 f8a5 32c0 9866 2bc0
00000160: b72e 3ec0 69a2 27c0 2ef9 36c0 f08b 3bc0
00000170: 1ece 36c0 7093 33c0 765b 23c0 d3a4 29c0
00000180: 241e 30c0 4033 32c0 ee5b 28c0 4c80 35c0
00000190: 7b62 36c0 52eb 31c0 3067 31c0 ef92 40c0
000001a0: 44c4 42c0 1f39 37c0 8cd1 39c0 dee1 2bc0
000001b0: 47a2 3ac0 2fb9 34c0 ebbd 24c0 a0c7 35c0
000001c0: fecd 23c0 a447 2ac0 5fba 27c0 fb9a 2bc0
000001d0: f962 3bc0 f274 4ac0 985d 2ec0 87fc 30c0
000001e0: 4725 43c0 11eb 38c0 3e15 31c0 9133 30c0
000001f0: 4169 35c0 727a 2fc0 bd41 2fc0 820e 22c0
00000200: 3e35 2cc0 29ad 29c0 7a8c 2dc0 47f2 3bc0
00000210: af71 29c0 6082 30c0 d15a 2ec0 e442 38c0
00000220: f2c0 2cc0 d455 29c0 ef44 2bc0 4ab2 30c0
00000230: ba83 29c0 ef68 34c0 5e27 28c0 aa9c 2cc0
00000240: 4533 48c0 c262 3ec0 9447 1fc0 325a 2ac0
00000250: 8c4c 29c0 b0fe 3ac0 c3cd 19c0 5cc3 3ac0
00000260: d295 2cc0 1612 2ac0 a78b 2bc0 3ca9 27c0
00000270: 89d6 2ec0 86eb 2dc0 74d2 24c0 c54d 36c0
00000280: c95f 36c0 6396 27c0 20d9 38c0 9712 44c0
00000290: 0f05 2dc0 c047 30c0 43ce 26c0 e82e 27c0
000002a0: c2f3 2bc0 5dde 2bc0 327e 2dc0 c75c 23c0
000002b0: d596 39c0 b7a2 2bc0 01f4 26c0 c890 30c0
000002c0: 4478 30c0 a0fc 47c0 be87 29c0 5540 2ec0
000002d0: bcb1 29c0 2b22 3ac0 e440 2fc0 7792 2fc0
000002e0: e7c9 29c0 8a0f 2ec0 57d2 43c0 7f84 3bc0
000002f0: b25b 30c0 7946 33c0 7805 33c0 382f 39c0
00000300: 125f 29c0 8317 36c0 e715 24c0 5fb6 29c0
00000310: f089 34c0 eaef 3bc0 d5ad 38c0 51e6 47c0
00000320: 1625 42c0 c09e 3ac0 d60f 33c0 28a4 37c0
00000330: 1d95 37c0 dda0 3dc0 26a4 32c0 515d 34c0
00000340: 27d0 3dc0 c68a 37c0 de32 37c0 f440 3ec0
00000350: c0a9 33c0 bc87 2bc0 53c4 3fc0 db2a 3bc0
00000360: 15b3 31c0 043d 37c0 0f1a 40c0 a22e 3ac0
00000370: b63c 25c0 10fa 32c0 f5a1 29c0 5781 3cc0
00000380: 96e3 2fc0 f4b6 30c0 a958 2bc0 ef08 29c0
00000390: c3f5 3dc0 3f0f 4bc0 f05d 25c0 31fa 23c0
000003a0: 0e1c 40c0 99d7 3ac0 16da 24c0 804e 28c0
000003b0: 328b 2cc0 dba6 27c0 7280 3ac0 7cef 37c0
000003c0: a769 37c0 ab5b 2fc0 f3a8 2ac0 de69 3fc0
000003d0: f608 35c0 4f03 39c0 6b0a 3cc0 0716 32c0
000003e0: f1da 33c0 c8b9 2ac0 937c 2ec0 3668 30c0
000003f0: 9eca 35c0 e625 33c0 59a3 33c0 18ef 2ac0

lstm.ih.mu_bias f4 [128]
-0.018140024 -0.06268413 -0.050351195 -0.02335181 -0.111839555 0.04490438 0.23034382 0.12444267
0.08566514 -0.026971603 -0.0030024394 0.22175795 0.1608092 0.024761688 0.0019432945 -0.057923287
-0.27707312 -0.03871806 0.102170646 -0.100523755 -0.025762642 0.033020098 -0.26749867 0.2349438
-0.036987655 -0.040830486 0.10829363 -0.008315917 0.21112634 -0.072559 0.04785783 -0.15163754
0.088608734 -0.10034612 0.037139703 0.06136264 0.021201842 0.12938902 0.32146037 0.35140893
0.025930826 0.043242715 0.048087157 0.35792303 0.033989906 -0.106391564 -0.11397083 0.022941
-0.10305406 0.10159258 0.43960065 -0.008191735 -0.16409369 0.017089363 0.13275287 0.067397825
-0.06620922 -0.16190784 0.02672028 0.16867411 0.1137122 -0.17399664 0.14686008 0.064964466
-0.26907188 0.14368258 0.1488245 -0.088895686 0.023875674 -0.013696821 0.31860647 -0.24180917
0.063703656 0.12821762 0.010462576 0.17775962 -0.20017603 0.13848737 0.057165958 -0.07021392
0.081791036 -0.060181305 -0.21932562 -0.120420374 -0.14306425 -0.0359663 -0.031720858 0.2051227
0.055490497 0.16560265 -0.11558563 0.05100316 -0.123952754 0.27243975 -0.012916498 -0.03905195
0.022009984 0.08806796 -0.10480403 0.0035423574 0.12266215 0.29981932 0.40052354 0.4079571
0.16082859 0.35707614 0.05611204 -0.015344021 0.22329813 0.04766829 0.08006358 -0.043545004
-0.048902143 0.123254694 0.24914442 -0.023850266 0.025216 0.009303987 0.03901433 0.32134584
0.25759202 0.058279157 -0.08736101 0.15547895 0.07549052 0.17758957 -0.009488155 0.30840638
00000000: 639a 94bc 8a60 80bd 0e3d 4ebd 4c4c bfbc
00000010: 230c e5bd a8ed 373d 40df 6b3e ccdb fe3d
00000020: 3471 af3d 8df3 dcbc 93c4 44bb 8414 633e
00000030: 2bab 243e 06d9 ca3c 25b6 fe3a f840 6dbd
00000040: 87dc 8dbe d496 1ebd d83e d13d 66df cdbd
00000050: 2d0c d3bc 1540 073d 96f5 88be 1c95 703e
00000060: 5e80 17bd de3d 27bd 0dc9 dd3d 7c3f 08bc
00000070: 8131 583e d099 94bd 9206 443d df46 1bbe
00000080: 7f78 b53d 4482 cdbd cd1f 183d 6457 7b3d
00000090: 7caf ad3c 8e7e 043e 7496 a43e dfeb b33e
000000a0: e26c d43c 461f 313d 0af7 443d b041 b73e
000000b0: 0039 0b3d d2e3 d9bd 8a69 e9bd c4ee bb3c
000000c0: 020e d3bd c50f d03d 5613 e13e a036 06bc
000000d0: 2d08 28be fefe 8b3c 5ef0 073e df07 8a3d
000000e0: b398 87bd 2bcb 25be 7de4 da3c e8b8 2c3e
000000f0: f1e1 e83d 2d2c 32be 7d62 163e 170c 853d
00000100: cac3 89be 8721 133e 7365 183e f10e b6bd
00000110: eb96 c33c a268 60bc 6320 a33e d39c 77be
00000120: 1077 823d 7b4b 033e 396b 2b3c 9e06 363e
00000130: f2fa 4cbe a2cf 0d3e da26 6a3d 51cc 8fbd
00000140: 0f82 a73d ac80 76bd e596 60be f59e f6bd
00000150: 6f7f 12be 6651 13bd bbed 01bd af0b 523e
00000160: 014a 633d be93 293e 29b8 ecbd b1e8 503d
00000170: f1da fdbd 397d 8b3e b89f 53bc f0f4 1fbd
00000180: 484e b43c fa5c b43d 7fa3 d6bd e526 683b
00000190: 4b36 fb3d eb81 993e 6c11 cd3e c1df d03e
000001a0: 40b0 243e afd2 b63e bdd5 653d 7d65 7bbc
000001b0: 44a8 643e d33f 433d 60f8 a33d 3f5c 32bd
000001c0: 9d4d 48bd f56c fc3d b71f 7f3e a261 c3bc
000001d0: c991 ce3c c06f 183c 7dcd 1f3d 7187 a43e
000001e0: 1ae3 833e 20b6 6e3d 54ea b2bd e035 1f3e
000001f0: c69a 9a3d 0ada 353e 3574 1bbc 71e7 9d3e

lstm.ih.rho_bias f4 [128]
-2.5525076 -2.6020644 -2.3738592 -2.4764638 -2.8119268 -2.5731442 -2.7498527 -2.6403117
-2.6551728 -2.1965103 -2.7094455 -2.4644272 -2.5441663 -2.4196281 -2.8923979 -2.785445
-2.5030055 -2.7195709 -2.4103906 -2.731095 -2.8121533 -2.462991 -2.5830688 -2.2792816
-2.6350627 -2.4662752 -2.7313178 -2.5400093 -2.2912498 -2.4232519 -2.5196648 -2.5269194
-2.7329915 -2.8393886 -2.7213688 -2.8098505 -2.7270539 -2.593339 -2.8513942 -1.8635784
-2.496103 -2.6367428 -2.7407825 -0.7807956 -2.497377 -2.6197188 -2.9698303 -2.7736652
-2.6348798 -2.2043734 -1.5770115 -2.709946 -2.9982154 -2.5165575 -2.672105 -1.7497854
-2.9405105 -2.5132606 -2.5820572 -2.7177842 -2.6477036 -2.8891292 -2.6399357 -2.7786818
-2.878252 -2.7797437 -2.751373 -2.9653232 -2.95345 -2.6668317 -2.8470204 -2.8550432
-2.9710264 -2.7600582 -2.6350951 -3.0062287 -2.7743871 -2.89318 -3.1411324 -2.83677
-2.9654462 -2.6952355 -2.891536 -2.9175272 -2.77769 -2.7387815 -2.6520483 -2.5083218
-3.0324843 -2.766753 -2.9689221 -2.8046048 -3.1082728 -3.0559242 -3.020804 -2.704896
-2.4855874 -2.909614 -2.46447 -2.3940592 -2.3635168 -2.593993 -2.217641 -2.6475682
-2.632203 -2.2109168 -2.0485775 -2.6423688 -2.2633045 -2.638845 -2.125663 -2.2531521
-2.303754 -2.8126347 -2.3596704 -2.6199753 -2.7850149 -2.5291677 -2.5391884 -2.228653
-2.2077007 -2.4127278 -2.2487586 -2.5703485 -2.4043572 -2.7560227 -2.8185217 -2.2629209
00000000: 495c 23c0 3988 26c0 4fed 17c0 627e 1ec0
00000010: 9cf6 33c0 65ae 24c0 96fd 2fc0 defa 28c0
00000020: 5aee 29c0 a093 0cc0 8e67 2dc0 2db9 1dc0
00000030: 9fd3 22c0 30db 1ac0 0c1d 39c0 bb44 32c0
00000040: 3e31 20c0 730d 2ec0 d743 1ac0 43ca 2ec0
00000050: 52fa 33c0 a5a1 1dc0 0051 25c0 c0df 11c0
00000060: dea4 28c0 74d7 1dc0 e9cd 2ec0 838f 22c0
00000070: d6a3 12c0 8f16 1bc0 3042 21c0 0cb9 21c0
00000080: 55e9 2ec0 8bb8 35c0 e82a 2ec0 97d4 33c0
00000090: 0d88 2ec0 44f9 25c0 3e7d 36c0 bd89 eebf
000000a0: 27c0 1fc0 65c0 28c0 fb68 2fc0 38e2 47bf
000000b0: 06d5 1fc0 79a9 27c0 b311 3ec0 bb83 31c0
000000c0: dfa1 28c0 7414 0dc0 83db c9bf c16f 2dc0
000000d0: c3e2 3fc0 470f 21c0 c503 2bc0 f8f8 dfbf
000000e0: 5331 3cc0 43d9 20c0 6d40 25c0 2df0 2dc0
000000f0: fa73 29c0 7ee7 38c0 b5f4 28c0 ecd5 31c0
00000100: 4835 38c0 52e7 31c0 7f16 30c0 dbc7 3dc0
00000110: 5305 3dc0 5fad 2ac0 9535 36c0 07b9 36c0
00000120: 4c25 3ec0 cba4 30c0 66a5 28c0 0d66 40c0
00000130: 8f8f 31c0 dc29 39c0 5008 49c0 a48d 35c0
00000140: dfc9 3dc0 bd7e 2cc0 ed0e 39c0 c4b8 3ac0
00000150: acc5 31c0 3248 2fc0 29bb 29c0 5888 20c0
00000160: 3914 42c0 7b12 31c0 d202 3ec0 a57e 33c0
00000170: f1ed 46c0 4394 43c0 da54 41c0 041d 2dc0
00000180: dd13 1fc0 1e37 3ac0 e0b9 1dc0 4438 19c0
00000190: dc43 17c0 fb03 26c0 d5ed 0dc0 c271 29c0
000001a0: 0476 28c0 a97f 0dc0 e51b 03c0 921c 29c0
000001b0: fbd9 10c0 d6e2 28c0 dd0a 08c0 a533 10c0
000001c0: b570 13c0 3502 34c0 d704 17c0 adad 27c0
000001d0: af3d 32c0 e2dd 21c0 1082 22c0 40a2 0ec0
000001e0: f84a 0dc0 226a 1ac0 a9eb 0fc0 9780 24c0
000001f0: fde0 19c0 ad62 30c0 a962 34c0 b2d3 10c0

lstm.hh.mu_weight f4 [128, 32]
-0.32022196 0.091654345 0.023735967 0.1461335 -0.06734223 -0.1091731 0.07233676 -0.08154768
0.052690577 0.24761385 -0.18546216 -0.005832 -0.13430327 -0.15184683 0.086675525 -0.13428108
-0.14871323 -0.063319616 -0.13493398 0.112443216 -0.018288082 -0.12567665 0.115757026 0.1488856
0.068594046 -0.033959698 0.01706232 -0.03342665 0.008449933 -0.2574036 0.1152516 0.11773738
-0.041365646 0.20696975 -0.06447054 0.061517823 0.08623719 -0.30822262 -0.10716077 0.030455086
-0.029283874 -0.1456345 -0.081592396 -0.06834148 0.05528522 0.108062185 0.2349608 -0.0910005
0.17040068 0.019729527 0.12092702 0.07740552 -0.07810997 0.15417805 -0.4055525 0.024937842
0.037894297 -0.0032432922 0.034068357 0.043865044 -0.10642553 0.0073831985 0.047433473 0.2801219
-0.15909544 -0.016417755 0.117785655 -0.063248314 0.07367546 0.19917606 -0.104635134 -0.110134706
0.028767692 -0.033823602 -0.08249977 0.084464476 -0.05234639 0.05004505 0.2873376 -0.084331065
-0.09000177 -0.056270115 -0.24685961 0.15824938 -0.023878792 -0.11037123 -0.05863932 -0.007910175
0.010985407 0.07718178 0.07225204 0.006567742 0.29473236 -0.046421364 -0.13334806 0.09413308
0.10083627 -0.061545204 -0.09733002 0.077611834 0.0122083435 -0.05678572 -0.15362297 -0.036193337
-0.09513295 -0.07121205 -0.14302635 -0.019105917 0.0323598 0.21914902 -0.049827468 0.07876529
-0.15830585 0.057364527 -0.30528808 -0.044427205 -0.03545488 0.08833333 -0.18566649 -0.040127456
-0.010463268 -0.014725797 0.03170478 0.059131216 0.10611336 0.0005266717 -0.08869643 0.14063087
0.009843187 0.0034291386 -0.0033293662 -0.005908533 0.14759047 -0.18183292 -0.20993535 -0.04943859
-0.07438266 -0.2957913 -0.17106745 -0.19417176 0.061941255 -0.09424045 0.11645575 -0.112830885
-0.06811853 -0.09647539 -0.038885515 0.061694708 -0.10074496 -0.034373414 -0.1714348 -0.11737462
-0.16925861 0.014827876 -0.07814763 0.039475188 -0.03577815 -0.069775574 0.070991985 0.43494147
-0.2773004 0.062919445 -0.18458751 0.0823588 -0.07889857 -0.22163488 -0.0581044 0.06465477
-0.35884804 -0.1519976 -0.09115288 -0.24909753 0.1521586 -0.03404582 -0.08932531 -0.19832267
0.020825151 0.15298514 0.035307664 0.22859634 0.093151316 0.072308816 -0.18594423 -0.2633362
-0.029563922 -0.09660303 -0.25875896 -0.17433313 0.15433356 -0.5257542 0.15174809 0.080007784
0.3948406 -0.07996075 -0.02086459 0.019232886 0.1440058 0.46716854 -0.7244465 0.29882976
-0.41255853 0.35128924 0.45087647 -0.277035 -0.46064547 -0.24565113 0.20931542 -0.068053916
-0.3839674 0.27618158 0.093503736 0.16790706 0.11963988 0.10334964 0.48889455 -0.3406892
-0.40418077 0.23235881 -0.18362351 -0.36534598 -0.29425573 -0.063249096 0.05077466 -0.38617447
-0.046841126 0.022360796 0.013310573 -0.10132424 -0.10386542 0.07369373 0.07289521 -0.20029145
0.56813234 0.03319 -0.17155924 0.32145193 -0.12024191 0.108510256 0.122337095 -0.19078362
0.13600315 -0.17373584 -0.16401753 -0.008605187 -0.30047837 -0.12400489 -0.16824874 0.03636706
0.3015788 -0.046738427 -0.0078683905 0.11708179 0.24067703 0.20624922 0.040751725 0.035334617
00000000: 22f4 a3be 46b5 bb3d ee71 c23c 05a4 153e
00000010: b9ea 89bd 2596 dfbd 4c25 943d 7802 a7bd
00000020: 13d2 573d 7c8e 7d3e cbe9 3dbe 5d1a bfbb
00000030: cc86 09be bc7d 1bbe f082 b13d fb80 09be
00000040: 4848 18be b7ad 81bd 222c 0abe a148 e63d
00000050: e3d0 95bc 61b1 00be 0512 ed3d 7775 183e
00000060: 097b 8c3d 5319 0bbd 47c6 8b3c 62ea 08bd
00000070: 9671 0a3c 68ca 83be 0809 ec3d 4c20 f13d
00000080: 066f 29bd e1ef 533e 2109 84bd 1dfa 7b3d
00000090: 209d b03d 5bcf 9dbe 1b77 dbbd f27c f93c
000000a0: bce4 efbc 3621 15be ea19 a7bd 9ef6 8bbd
000000b0: c172 623d b54f dd3d 9099 703e 785e babd
000000c0: 847d 2e3e d19f a13c 96a8 f73d c986 9e3d
000000d0: 1ff8 9fbd dae0 1d3e 94a4 cfbe 724a cc3c
000000e0: 0d37 1b3d 6a8d 54bb 438b 0b3d d5ab 333d
000000f0: a1f5 d9bd c2ee f13b 9a49 423d 236c 8f3e
00000100: eae9 22be 877e 86bc 9b39 f13d 5588 81bd
00000110: 29e3 963d cff4 4b3e f24a d6bd 4e8e e1bd
00000120: 39aa eb3c 9e8a 0abd a4f5 a8bd b6fb ac3d
00000130: 2b69 56bd 0afc 4c3d ea1d 933e c4b5 acbd
00000140: d952 b8bd 7e7b 66bd c4c8 7cbe 200c 223e
00000150: 759d c3bc 500a e2bd c92f 70bd ae99 01bc
00000160: 23fc 333c 7b11 9e3d e1f8 933d 3736 d73b
00000170: 29e7 963e 5424 3ebd 658c 08be d8c8 c03d
00000180: 3f83 ce3d d316 7cbd f654 c7bd f4f2 9e3d
00000190: 8105 483c 2598 68bd 574f 1dbe 773f 14bd
000001a0: 10d5 c2bd a0d7 91bd 8075 12be 0384 9cbc
000001b0: b68b 043d 9a68 603e e317 4cbd b24f a13d
000001c0: ee1a 22be 11f7 6a3d b84e 9cbe 4df9 35bd
000001d0: 2339 11bd 1be8 b43d 5b1f 3ebe b05c 24bd
000001e0: 206e 2bbc 7844 71bc dfdc 013d 9333 723d
000001f0: f651 d93d 5710 0a3a 79a6 b5bd 8a01 103e
00000200: 5245 213c 66bb 603b 7f31 5abb 5e9c c1bb
00000210: f521 173e 6932 3abe 4bf9 56be 1e80 4abd
00000220: f055 98bd f571 97be 4e2c 2fbe f6d4 46be
00000230: 1db6 7d3d 2301 c1bd 5a80 ee3d e113 e7bd
00000240: ba81 8bbd e494 c5bd 6b46 1fbd 97b3 7c3d
00000250: 6053 cebd 23cb 0cbd 9b8c 2fbe 1b62 f0bd
00000260: 2152 2dbe 9ff0 723c dd0b a0bd bcb0 213d
00000270: 1c8c 12bd 7fe6 8ebd 3f64 913d a6b0 de3e
00000280: 51fa 8dbe e9db 803d 8204 3dbe bbab a83d
00000290: 9395 a1bd 41f4 62be e1fe 6dbd b869 843d
000002a0: eeba b7be 42a5 1bbe 5cae babd 6c13 7fbe
000002b0: 77cf 1b3e a173 0bbd 30f0 b6bd 1915 4bbe
000002c0: 8299 aa3c 23a8 1c3e c59e 103d 2915 6a3e
000002d0: 1ec6 be3d a516 943d 2a68 3ebe 01d4 86be
000002e0: 0a30 f2bc cfd7 c5bd 0e7c 84be 6284 32be
000002f0: 9e09 1e3e d497 06bf da63 1b3e 1fdb a33d
00000300: 8c28 ca3e 76c2 a3bd 37ec aabc 498e 9d3c
00000310: 4276 133e b730 ef3e 5375 39bf 3700 993e
00000320: df3a d3be 2fdc b33e 48d9 e63e 88d7 8dbe
00000330: b9d9 ebbe f88b 7bbe c856 563e da5f 8bbd
00000340: 6097 c4be ac67 8d3e e37e bf3d d4ef 2b3e
00000350: c105 f53d faa8 d33d 6350 fa3e d16e aebe
00000360: c8f0 cebe 78ef 6d3e cd07 3cbe a10e bbbe
00000370: b0a8 96be be88 81bd 17f9 4f3d a9b8 c5be
00000380: 7bdc 3fbd fd2d b73c 9714 5a3c 1583 cfbd
00000390: 65b7 d4bd bdec 963d 154a 953d 3419 4dbe
000003a0: 1f71 113f 3df2 073d 3aad 2fbe 5995 a43e
000003b0: 6441 f6bd a03a de3d df8b fa3d c85c 43be
000003c0: 6944 0b3e cfe7 31be 36f4 27be c5fc 0cbc
000003d0: 4dd8 99be 47f6 fdbd 6649 2cbe a0f5 143d
000003e0: 8968 9a3e cb70 3fbd 6cea 00bc 94c8 ef3d
000003f0: 0a74 763e ff32 533e 48eb 263d 08bb 103d

lstm.hh.rho_weight f4 [128, 32]
-3.028848 -2.8913953 -3.0693543 -2.7319593 -2.9998589 -2.9857073 -2.964405 -2.9055037
-3.0067554 -2.6908462 -3.1321878 -3.0900593 -3.0299864 -2.996182 -2.8499548 -3.0499704
-2.7253237 -2.8098586 -3.023272 -2.8175294 -3.278592 -2.9816875 -2.9668417 -3.0079622
-2.7134724 -2.7795181 -2.6904948 -3.0489597 -2.7529218 -2.63155 -3.0733447 -2.8446193
-2.793996 -2.9091485 -2.7501035 -2.9146702 -2.9284105 -2.8453286 -2.8363974 -2.7316303
-2.9789412 -2.739253 -2.9555876 -2.8104522 -2.9224575 -3.0547514 -2.9528008 -2.9833195
-3.1312168 -2.735602 -2.8639352 -3.1807067 -2.9100897 -2.8932137 -2.9160085 -3.063406
-3.1306849 -2.9058244 -2.8856676 -3.1475103 -2.8365777 -2.9302528 -2.910854 -2.7256734
-2.9913423 -2.7774026 -2.9920056 -3.0024228 -3.1484475 -2.7630394 -3.0262635 -3.0739515
-2.950138 -2.9149902 -2.8883328 -3.0662296 -2.977898 -2.8884308 -3.0416121 -2.986985
-2.9164603 -3.1482725 -3.120222 -2.83259 -2.9161239 -2.8070407 -2.9980247 -2.9342377
-2.8563137 -2.9272435 -2.9261036 -2.933273 -2.6632757 -2.959911 -3.076487 -2.6167989
-2.914964 -2.810765 -2.9447508 -2.640086 -2.8154883 -3.0199165 -3.0723639 -2.880321
-2.880143 -2.9335685 -2.9415908 -2.968417 -2.8574226 -2.9402323 -2.8293517 -2.7914574
-2.851787 -2.8142817 -2.9200716 -2.8378613 -2.9117138 -2.834722 -2.9988487 -2.8532567
-2.9424481 -2.766733 -3.0360262 -3.1055942 -2.9479468 -2.8381329 -2.9488075 -2.8357806
-2.8069024 -2.8896303 -2.9727335 -2.890912 -2.9171283 -2.909486 -3.0822945 -2.9091766
-2.9263728 -2.8114636 -2.7581139 -2.8882914 -3.2703607 -3.062594 -3.0228665 -2.9082794
-2.9736068 -2.9252257 -2.9536889 -3.059388 -3.2005012 -3.1112897 -3.093151 -2.9458356
-2.6976745 -2.8316948 -2.8411405 -2.818707 -3.113463 -2.7782476 -3.0228932 -2.8459868
-2.7674792 -2.9321344 -3.066307 -3.0976553 -2.8542085 -3.1129286 -2.8188245 -2.8822737
-3.0908866 -2.8957443 -2.739714 -2.8867652 -3.1725202 -2.8809712 -2.9408135 -2.7978308
-2.9297721 -2.7627006 -2.9778745 -2.8325806 -2.8106804 -2.9378889 -2.902864 -2.923674
-2.9381688 -3.1446416 -2.951075 -3.0672183 -3.1277413 -3.0719929 -3.199083 -2.6981552
-2.887514 -2.8996792 -3.0033066 -3.179048 -2.825527 -2.874103 -2.888673 -2.991782
-2.8708787 -3.1954339 -2.9103894 -2.971165 -2.9394548 -2.9544656 -2.9049106 -2.9762263
-2.8090189 -2.975092 -2.8760853 -2.9415166 -3.041066 -2.7129471 -2.8301823 -2.9011416
-2.9458692 -2.989874 -3.0015469 -2.8861399 -2.9332135 -2.9391813 -3.0465858 -2.969507
-2.6801727 -3.0613742 -2.9794211 -3.1590629 -2.8741615 -2.7543383 -2.6378465 -2.7973986
-2.9285626 -2.9712346 -2.848978 -2.8328478 -2.8363986 -2.8336203 -2.902386 -2.58881
-2.8744128 -2.807652 -2.905312 -2.8968525 -2.624424 -2.8275638 -2.7552698 -2.820438
-2.810371 -2.5717964 -3.061792 -2.8360708 -2.8627954 -2.856683 -2.8941574 -2.6096117
00000000: a5d8 41c0 9f0c 39c0 4d70 44c0 6cd8 2ec0
00000010: b0fd 3fc0 d415 3fc0 d0b8 3dc0 c6f3 39c0
00000020: ae6e 40c0 d336 2cc0 c475 48c0 88c3 45c0
00000030: 4ceb 41c0 72c1 3fc0 a965 36c0 b732 43c0
00000040: b46b 2ec0 b9d4 33c0 4a7d 41c0 6752 34c0
00000050: 74d4 51c0 f8d3 3ec0 bce0 3dc0 7482 40c0
00000060: 88a9 2dc0 a0e3 31c0 1131 2cc0 2822 43c0
00000070: df2f 30c0 516b 28c0 aeb1 44c0 3e0e 36c0
00000080: d5d0 32c0 7d2f 3ac0 b201 30c0 f589 3ac0
00000090: 146b 3bc0 dd19 36c0 8987 35c0 08d3 2ec0
000000a0: f9a6 3ec0 ec4f 2fc0 5928 3dc0 73de 33c0
000000b0: 8b09 3bc0 0c81 43c0 b0fa 3cc0 b5ee 3ec0
000000c0: db65 48c0 1a14 2fc0 b74a 37c0 b390 4bc0
000000d0: e93e 3ac0 6a2a 39c0 e29f 3ac0 d80e 44c0
000000e0: 245d 48c0 07f9 39c0 c7ae 38c0 cf70 49c0
000000f0: 7d8a 35c0 4389 3bc0 6f4b 3ac0 6f71 2ec0
00000100: 2772 3fc0 f7c0 31c0 057d 3fc0 b227 40c0
00000110: 2a80 49c0 a3d5 30c0 4dae 41c0 9fbb 44c0
00000120: 10cf 3cc0 338f 3ac0 72da 38c0 1b3d 44c0
00000130: e195 3ec0 0ddc 38c0 c6a9 42c0 c32a 3fc0
00000140: 49a7 3ac0 4c7d 49c0 b8b1 47c0 2849 35c0
00000150: c6a1 3ac0 8ea6 33c0 a3df 3fc0 8dca 3bc0
00000160: d8cd 36c0 f557 3bc0 4845 3bc0 bfba 3bc0
00000170: 1c73 2ac0 2f6f 3dc0 2ae5 44c0 a279 27c0
00000180: c58e 3ac0 93e3 33c0 cc76 3cc0 2bf7 28c0
00000190: f630 34c0 5046 41c0 9ca1 44c0 2e57 38c0
000001a0: 4354 38c0 96bf 3bc0 0643 3cc0 8bfa 3dc0
000001b0: 03e0 36c0 c42c 3cc0 1914 35c0 3da7 32c0
000001c0: ae83 36c0 311d 34c0 74e2 3ac0 859f 35c0
000001d0: 8559 3ac0 166c 35c0 23ed 3fc0 c29b 36c0
000001e0: 1251 3cc0 2712 31c0 414e 42c0 0ec2 46c0
000001f0: 29ab 3cc0 f8a3 35c0 43b9 3cc0 6e7d 35c0
00000200: 4aa4 33c0 b4ef 38c0 4441 3ec0 b404 39c0
00000210: 3bb2 3ac0 0535 3ac0 5044 45c0 f32f 3ac0
00000220: b149 3bc0 05ef 33c0 f084 30c0 c4d9 38c0
00000230: 974d 51c0 8a01 44c0 a576 41c0 4021 3ac0
00000240: 934f 3ec0 e636 3bc0 3d09 3dc0 03cd 43c0
00000250: 03d5 4cc0 5f1f 47c0 30f6 45c0 9288 3cc0
00000260: b3a6 2cc0 7d3a 35c0 3fd5 35c0 b265 34c0
00000270: fa42 47c0 cfce 31c0 1577 41c0 a624 36c0
00000280: 611e 31c0 17a8 3bc0 603e 44c0 fc3f 46c0
00000290: 5aab 36c0 393a 47c0 9f67 34c0 2c77 38c0
000002a0: 16d1 45c0 e053 39c0 7957 2fc0 c3c0 38c0
000002b0: 920a 4bc0 d561 38c0 4a36 3cc0 a90f 33c0
000002c0: 6381 3bc0 16d0 30c0 7f95 3ec0 0049 35c0
000002d0: 30e2 33c0 5f06 3cc0 86c8 39c0 7a1d 3bc0
000002e0: f50a 3cc0 cf41 49c0 6ade 3cc0 4e4d 44c0
000002f0: ea2c 48c0 889b 44c0 c7bd 4cc0 93ae 2cc0
00000300: 08cd 38c0 5894 39c0 2d36 40c0 8675 4bc0
00000310: 6fd5 34c0 4ef1 37c0 05e0 38c0 5b79 3fc0
00000320: 7abc 37c0 fd81 4cc0 d243 3ac0 9127 3ec0
00000330: 0720 3cc0 f715 3dc0 0eea 39c0 7e7a 3ec0
00000340: f7c6 33c0 e867 3ec0 c811 38c0 cf41 3cc0
00000350: d3a0 42c0 eda0 2dc0 b521 35c0 4eac 39c0
00000360: 1f89 3cc0 185a 3fc0 5819 40c0 84b6 38c0
00000370: c5b9 3bc0 8c1b 3cc0 43fb 42c0 670c 3ec0
00000380: f387 2bc0 8eed 43c0 d6ae 3ec0 162e 4ac0
00000390: 43f2 37c0 1447 30c0 7ad2 28c0 9408 33c0
000003a0: 926d 3bc0 b528 3ec0 a855 36c0 614d 35c0
000003b0: 8e87 35c0 095a 35c0 b1c0 39c0 10af 25c0
000003c0: 61f6 37c0 92b0 33c0 a2f0 39c0 0866 39c0
000003d0: 90f6 27c0 cef6 34c0 5756 30c0 0e82 34c0
000003e0: 1edd 33c0 5098 24c0 66f4 43c0 2f82 35c0
000003f0: 0a38 37c0 e5d3 36c0 e039 39c0 e103 27c0

lstm.hh.mu_bias f4 [128]
0.22726206 0.050340116 -0.013004457 0.064214855 -0.0346847 -0.24538821 -0.063139915 0.22855167
0.055880457 0.08031686 -0.012973817 0.23514567 0.18209924 0.0057838825 0.03168007 -0.17292316
-0.11813075 0.16379069 0.2258333 -0.11118166 -0.21750551 0.18982822 0.11352342 0.16395305
0.05461753 0.03451489 -0.09422157 -0.14840233 0.08596664 -0.030419407 0.22828692 0.031888578
-0.0654253 -0.078626394 -0.01832342 -0.14314024 -0.14124712 0.07388926 0.35187775 0.4732663
-0.107444115 0.19205159 -0.15316734 0.35037553 0.06133717 -0.0042051747 -0.0389776 -0.097333364
-0.08516179 0.2333014 0.25214905 0.041129168 0.13105607 0.07416781 0.13582163 0.14939624
0.28649506 -0.06993815 0.04759185 0.121677354 0.092132956 -0.09267681 -0.039934315 0.46920305
-1.3102195e-05 -0.040043358 0.1106204 -0.08313121 -0.019193627 0.068971306 0.14058428 -0.18520941
0.12295536 0.0720867 -0.026232645 0.06273603 0.001964474 0.0573601 0.019363225 0.057018813
0.012712294 -0.1699299 -0.17695029 -0.054784022 0.16684853 -0.021314844 -0.18440597 0.41268203
0.27097306 0.03888887 0.05870827 0.13693142 -0.09678131 0.042635553 -0.21105485 -0.14251357
0.08050325 -0.0889955 0.040199105 0.25783163 0.15325294 0.20477614 0.6848541 0.17429903
0.14031641 0.3525155 0.19828783 0.060663782 0.1687295 0.055887464 0.21772875 0.117506884
-0.028620536 -0.058920912 0.21421592 -0.10054596 0.03321036 0.22615092 0.21432522 0.196571
0.19358428 -0.054618053 0.20722967 0.2306808 0.14541583 -0.030094733 0.08468652 0.40928528
00000000: 63b7 683e 7031 4e3d a510 55bc 1483 833d
00000010: 8b11 0ebd 0c47 7bbe 804f 81bd 7309 6a3e
00000020: e8e2 643d 2a7d a43d 2290 54bc 07ca 703e
00000030: 3978 3a3e b986 bd3b f6c2 013d c512 31be
00000040: 89ee f1bd bfb8 273e d840 673e 36b3 e3bd
00000050: c4b9 5ebe 5462 423e f87e e83d 4fe3 273e
00000060: a2b6 5f3d 7c5f 0d3d 3df7 c0bd c8f6 17be
00000070: 470f b03d 1f32 f9bc 0cc4 693e 999d 023d
00000080: b3fd 85bd e006 a1bd ff1a 96bc 5b93 12be
00000090: 16a3 10be 4153 973d 5229 b43e f64f f23e
000000a0: a90b dcbd 2ca9 443e e6d7 1cbe 6c64 b33e
000000b0: af3c 7b3d 90cb 89bb faa6 1fbd b756 c7bd
000000c0: 4e69 aebd 90e6 6e3e ae19 813e 0f77 283d
000000d0: 9033 063e 4be5 973d d314 0b3e 54fb 183e
000000e0: 7baf 923e bc3b 8fbd acef 423d fa31 f93d
000000f0: 34b0 bc3d 57cd bdbd 2a92 23bd 623b f03e
00000100: 80d1 5bb7 8104 24bd f38c e23d b240 aabd
00000110: f43b 9dbc d440 8d3d 53f5 0f3e 89a7 3dbe
00000120: 05d0 fb3d 31a2 933d d8e5 d6bc bf7b 803d
00000130: 68be 003b 6df2 6a3d a09f 9e3c 8f8c 693d
00000140: 3a47 503c 1b02 2ebe 7532 35be 3665 60bd
00000150: 57da 2a3e 789c aebc ebd4 3cbe 0f4b d33e
00000160: fbbc 8a3e f049 1f3d 1578 703d c037 0c3e
00000170: 4835 c6bd 9ea2 2e3d c31e 58be 14ef 11be
00000180: e3de a43d 4643 b6bd d1a7 243d 8202 843e
00000190: 57ee 1c3e d6b0 513e 9952 2f3f 727b 323e
000001a0: 1baf 0f3e e97c b43e f70b 4b3e 967a 783d
000001b0: 6dc7 2c3e 41ea 643d 49f4 5e3e 73a7 f03d
000001c0: 9d75 eabc 0e57 71bd 6b5b 5b3e 0aeb cdbd
000001d0: 9607 083d 1b94 673e 1278 5b3e e949 493e
000001e0: f53a 463e 2eb7 5fbd 0434 543e 9637 6c3e
000001f0: e3e7 143e 3b89 f6bc 2070 ad3d d78d d13e

lstm.hh.rho_bias f4 [128]
-2.6831605 -2.6703885 -2.429084 -2.6780493 -2.7558746 -2.674646 -2.6251173 -2.5373604
-2.5424082 -2.480385 -2.5819113 -2.466732 -2.3625467 -2.5943618 -2.785887 -2.5968714
-2.668493 -2.3530076 -2.523503 -2.475445 -2.9081855 -2.4922585 -2.4439385 -2.306765
-2.677594 -2.6195111 -2.5183687 -2.5945964 -2.3723328 -2.6079192 -2.5156415 -2.6354563
-2.6612062 -2.6220167 -2.649786 -2.6684968 -2.7597992 -2.6663058 -2.3688235 -1.8283972
-2.5742307 -2.7626824 -2.7040274 -0.83304316 -2.8050544 -2.6320767 -2.9438772 -2.4747279
-2.681299 -2.251983 -1.5907155 -2.9445858 -2.7394626 -2.5105963 -2.8328664 -1.8923435
-2.740553 -2.5924954 -2.809023 -2.4957817 -2.657795 -2.6103985 -2.562441 -2.823616
-2.933668 -2.712207 -2.9089274 -3.043447 -2.9470603 -2.978155 -2.5695632 -2.9254534
-2.8609726 -2.6483586 -2.7247248 -3.007266 -2.7782457 -2.9496837 -2.9388182 -2.7195296
-3.157057 -2.9300508 -2.789803 -3.0633044 -2.7436817 -2.774352 -2.73217 -2.6113281
-2.8779356 -2.8084893 -2.8949919 -2.8369296 -2.8452175 -2.9244483 -2.9731357 -2.7206755
-2.276633 -2.6013455 -2.4707048 -2.1620293 -2.3349466 -2.597417 -2.2054756 -2.55418
-2.4179082 -2.131957 -2.321051 -2.5337846 -2.2172148 -2.783049 -2.0922813 -2.2578447
-2.382859 -2.605372 -2.522797 -2.5277963 -2.8904924 -2.7044039 -2.278204 -2.1558871
-2.1954327 -2.4374108 -2.4005084 -2.7368512 -2.6292858 -2.629416 -2.6466897 -2.2783277
00000000: e7b8 2bc0 a5e7 2ac0 1d76 1bc0 2965 2bc0
00000010: 4060 30c0 662d 2bc0 ec01 28c0 1d64 22c0
00000020: d1b6 22c0 a1be 1ec0 093e 25c0 f0de 1dc0
00000030: f733 17c0 060a 26c0 f94b 32c0 2433 26c0
00000040: 97c8 2ac0 ad97 16c0 1381 21c0 b16d 1ec0
00000050: b61f 3ac0 2a81 1fc0 7d69 1cc0 0aa2 13c0
00000060: b35d 2bc0 12a6 27c0 f42c 21c0 de0d 26c0
00000070: 4dd4 17c0 26e8 26c0 4500 21c0 51ab 28c0
00000080: 3451 2ac0 1fcf 27c0 1896 29c0 a7c8 2ac0
00000090: 8da0 30c0 c1a4 2ac0 ce9a 17c0 eb08 eabf
000000a0: 32c0 24c0 cacf 30c0 c90e 2dc0 5142 55bf
000000b0: 0386 33c0 f273 28c0 7c68 3cc0 f161 1ec0
000000c0: 679a 2bc0 7d20 10c0 919c cbbf 1874 3cc0
000000d0: 5b53 2fc0 9cad 20c0 af4d 35c0 5038 f2bf
000000e0: 3865 2fc0 72eb 25c0 08c7 33c0 e3ba 1fc0
000000f0: 5019 2ac0 c510 27c0 09ff 23c0 20b6 34c0
00000100: 37c1 3bc0 cd94 2dc0 de2b 3ac0 d6c7 42c0
00000110: a39c 3cc0 179a 3ec0 b973 24c0 a13a 3bc0
00000120: 2d1a 37c0 b57e 29c0 e461 2ec0 0c77 40c0
00000130: c7ce 31c0 9ec7 3cc0 9915 3cc0 c60c 2ec0
00000140: 390d 4ac0 f485 3bc0 228c 32c0 2e0d 44c0
00000150: 7b98 2fc0 fc8e 31c0 e0db 2ec0 0020 27c0
00000160: 1930 38c0 4abe 33c0 8c47 39c0 4190 35c0
00000170: 0b18 36c0 292a 3bc0 db47 3ec0 8c1f 2ec0
00000180: 5bb4 11c0 727c 26c0 0720 1ec0 b05e 0ac0
00000190: c46f 15c0 153c 26c0 8326 0dc0 af77 23c0
000001a0: 02bf 1ac0 fc71 08c0 198c 14c0 8729 22c0
000001b0: d9e6 0dc0 7a1d 32c0 f0e7 05c0 8780 10c0
000001c0: c380 18c0 6abe 26c0 8275 21c0 6ac7 21c0
000001d0: d4fd 38c0 f414 2dc0 18ce 11c0 0efa 09c0
000001e0: f881 0cc0 8afe 1bc0 eea1 19c0 9228 2fc0
000001f0: 3846 28c0 5a48 28c0 5d63 29c0 1fd0 11c0

l1.mu_weight f4 [16, 32]
-0.42888412 -0.6418449 -0.46918374 0.50414264 -0.5668202 -0.12689699 -0.46457303 0.43859944
-0.5485324 -0.25228786 -0.45304698 -0.6023929 0.48899388 -0.47366816 -0.32306695 -0.4665739
0.4550792 0.5967723 0.5369855 -0.2949531 0.70339733 0.49307764 -0.114720576 -0.63225824
0.6348201 -0.5811377 -0.47548074 -0.5816553 0.28177142 0.45547092 0.511406 0.59106076
0.56757414 0.56253207 0.49100456 -0.48096448 0.46351892 -0.0030727293 0.33191243 -0.3830335
0.69081604 0.28450575 0.49953446 0.5313299 -0.2822569 0.5920201 0.44728246 0.54249936
-0.4256168 -0.57283807 -0.44255593 0.4177176 -0.45529804 -0.5614882 0.23589315 0.4044016
-0.4401811 0.4573707 0.58441657 0.4146144 -0.45711055 -0.5674572 -0.5219587 -0.3934291
0.65788794 0.7355478 0.49314785 -0.45942795 0.5226735 0.22474375 0.31456223 -0.49536976
0.47884405 0.34384686 0.29035646 0.3929298 -0.5749587 0.67238235 0.57204586 0.4592118
-0.5121356 -0.48547313 -0.51768243 0.33699724 -0.71397907 -0.4659971 0.15066856 0.8013126
-0.5425646 0.3145914 0.6100191 0.4793175 -0.52792525 -0.46582884 -0.4869435 -0.46707433
0.4979152 0.45005345 0.221912 -0.3777613 0.4806432 0.051985383 0.23504017 -0.56394434
0.6621701 0.15485975 0.2822199 0.48771706 -0.47577378 0.5012672 0.40852833 0.57153803
-0.5033552 -0.591156 -0.54660106 0.40092534 -0.54141504 -0.46869034 0.13407339 0.5463155
-0.4139186 0.54288816 0.5021757 0.7237654 -0.39881277 -0.53838545 -0.40324318 -0.43362162
0.3707321 0.40547857 0.49374196 -0.6262915 0.5520309 0.23463243 0.32838395 -0.5853087
0.35105085 0.60792047 0.42974558 0.5075878 -0.49693716 0.39415368 0.40736422 0.48899564
-0.5862941 -0.567814 -0.34506726 0.5451067 -0.5958625 -0.45370406 0.3140328 0.68384904
-0.38752186 0.47691056 0.58489203 0.57607704 -0.64494246 -0.21006787 -0.6171808 -0.2646724
0.5694016 0.5894122 0.6329528 -0.47915378 0.5571146 0.13161118 0.39232045 -0.49494454
0.54180753 0.35023832 0.36631867 0.45656788 -0.43117082 0.657978 0.5848219 0.5341219
-0.34099934 -0.55525583 -0.6536235 0.3016384 -0.38790697 -0.3359351 0.30955526 0.37094855
-0.52818125 0.4310841 0.44950783 0.5749626 -0.6457819 -0.40375248 -0.6525852 -0.3188564
0.53294706 0.52639806 0.43299198 -0.5382996 0.47844204 0.31036454 0.49068922 -0.5086794
0.44420707 0.4243871 0.5285762 0.6156687 -0.51029456 0.4867541 0.5769042 0.47959825
-0.57767725 -0.40954706 -0.530656 0.24873231 -0.72606605 -0.59647334 0.18600585 0.39126122
-0.35555533 0.4250052 0.48364767 0.43326733 -0.47799194 -0.39554486 -0.60528064 -0.36391982
0.61002016 0.7408564 0.67902046 -0.41962862 0.5618741 0.19708282 0.3680501 -0.5185364
0.45846927 0.49495476 0.46580538 0.5343119 -0.42783967 0.36111814 0.47914028 0.54338807
-0.64951026 -0.52348095 -0.5804818 0.38070127 -0.6441319 -0.5288244 0.05963614 0.59392583
-0.50767773 0.5591699 0.57087636 0.51073647 -0.55273086 -0.45801347 -0.6992459 -0.31872922
00000000: b396 dbbe f34f 24bf da38 f0be 7e0f 013f
00000010: 211b 11bf 49f1 01be 84dc edbe 1b90 e03e
00000020: 9f6c 0cbf e02b 81be c6f5 e7be 6c36 1abf
00000030: 685d fa3e a284 f2be 0869 a5be c6e2 eebe
00000040: 2400 e93e 12c6 183f e277 093f 1804 97be
00000050: d911 343f ac74 fc3e 9ff2 eabd addb 21bf
00000060: 9283 223f 71c5 14bf 3672 f3be 5de7 14bf
00000070: 5844 903e 7c33 e93e 81eb 023f c24f 173f
00000080: 8a4c 113f 1a02 103f f364 fb3e fa40 f6be
00000090: 5a52 ed3e d85f 49bb 6df0 a93e f81c c4be
000000a0: 52d9 303f bdaa 913e fbc2 ff3e 3c05 083f
000000b0: fa83 90be a18e 173f 3502 e53e 3de1 0a3f
000000c0: 72ea d9be 84a5 12bf b196 e2be 15df d53e
000000d0: d31c e9be b1bd 0fbf f98d 713e ba0d cf3e
000000e0: 6b5f e1be 7e2c ea3e 539c 153f 5748 d43e
000000f0: 650a eabe e044 11bf 169f 05bf 8a6f c9be
00000100: 586b 283f dc4c 3c3f e07d fc3e 243a ebbe
00000110: eecd 053f 3a23 663e 4d0e a13e 1ba1 fdbe
00000120: 0c2b f53e b20c b03e 9aa9 943e 182e c93e
00000130: 7e30 13bf 4021 2c3f 9971 123f cf1d eb3e
00000140: 521b 03bf ef8f f8be d686 04bf e78a ac3e
00000150: 55c7 36bf 2c97 eebe dc48 1a3e d322 4d3f
00000160: 83e5 0abf 2012 a13e 362a 1c3f 1a69 f53e
00000170: 1c26 07bf 1e81 eebe a950 f9be 5e24 efbe
00000180: beee fe3e 686d e63e e63c 633e ee69 c1be
00000190: de16 f63e a0ee 543d 5fae 703e a85e 10bf
000001a0: fb83 293f 8e93 1e3e 207f 903e 0db6 f93e
000001b0: 9f98 f3be 0c53 003f a02a d13e 5150 123f
000001c0: e3db 00bf 0056 17bf 0cee 0bbf 1646 cd3e
000001d0: 2d9a 0abf 2ef8 efbe 894a 093e 55db 0b3f
000001e0: 24ed d3be b8fa 0a3f 968e 003f b048 393f
000001f0: 3031 ccbe a1d3 09bf e475 cebe a703 debe
00000200: 99d0 bd3e e39a cf3e bfcb fc3e a454 20bf
00000210: e651 0d3f 7c43 703e f121 a83e cad6 15bf
00000220: f0bc b33e ada0 1b3f 9d07 dc3e 46f1 013f
00000230: 8c6e febe 83ce c93e 0b92 d03e a35d fa3e
00000240: 5f17 16bf 425c 11bf a8ac b0be 1d8c 0b3f
00000250: 728a 18bf e64b e8be e8c8 a03e bb10 2f3f
00000260: 4469 c6be 9f2d f43e 7cbb 153f c979 133f
00000270: f31a 25bf 081c 57be 90ff 1dbf 2483 87be
00000280: 4ec4 113f b8e3 163f 3209 223f a553 f5be
00000290: 109f 0e3f 15c5 063e 3ade c83e 5f69 fdbe
000002a0: e6b3 0a3f 7052 b33e 1f8e bb3e 44c3 e93e
000002b0: 6cc2 dcbe 3f71 283f e3b6 153f 36bc 083f
000002c0: 7797 aebe 3f25 0ebf df53 27bf 5970 9a3e
000002d0: be9b c6be afff abbe 077e 9e3e f8ec bd3e
000002e0: e336 07bf 0eb7 dc3e e425 e63e c030 133f
000002f0: f651 25bf a5b8 cebe d30f 27bf 2541 a3be
00000300: 386f 083f 06c2 063f 20b1 dd3e 01ce 09bf
00000310: 5bf6 f43e 1ae8 9e3e 9e3b fb3e d038 02bf
00000320: 1c6f e33e 4449 d93e c550 073f 779c 1d3f
00000330: aaa2 02bf d537 f93e feaf 133f e78d f53e
00000340: a8e2 13bf 27b0 d1be 12d9 07bf afb3 7e3e
00000350: 77df 39bf 7ab2 18bf 5178 3e3e 6453 c83e
00000360: 590b b6be 489a d93e aba0 f73e 37d5 dd3e
00000370: 5cbb f4be db84 cabe acf3 1abf b353 babe
00000380: 482a 1c3f c4a8 3d3f 49d4 2d3f 90d9 d6be
00000390: fbd6 0f3f 14d0 493e 1071 bc3e cdbe 04bf
000003a0: 7cbc ea3e b66a fd3e 0b7e ee3e aac8 083f
000003b0: cd0d dbbe 7ae4 b83e e051 f53e 7b1b 0b3f
000003c0: 4e46 26bf d902 06bf 759a 14bf 47eb c23e
000003d0: d4e5 24bf 0961 07bf 0645 743d 860b 183f
000003e0: 2bf7 01bf c225 0f3f f424 123f a0bf 023f
000003f0: c57f 0dbf be80 eabe c801 33bf 7a30 a3be

l1.rho_weight f4 [16, 32]
-2.935282 -2.8347285 -3.1755667 -2.8892512 -2.9473717 -2.8170648 -3.1537 -2.8312473
-2.9259129 -2.9007032 -3.0033438 -3.052976 -2.9004602 -2.903399 -3.041089 -3.1388268
-2.8385267 -3.1669707 -3.1097682 -2.8322651 -2.848157 -2.992502 -3.0361166 -3.095494
-2.8367574 -2.928746 -2.796951 -2.9099326 -2.9641268 -2.948675 -2.9330628 -3.139232
-2.7657487 -2.893805 -2.9223275 -2.8921678 -2.9426157 -2.9970915 -2.98678 -2.9592075
-2.8730478 -2.9365613 -2.9487567 -2.904124 -3.0042918 -2.8832629 -2.884965 -2.6428134
-3.071316 -2.9555483 -3.0288465 -3.1651878 -3.0144837 -2.8767555 -2.887959 -3.1417718
-3.2373698 -2.9023423 -2.9807239 -2.9090848 -3.0746887 -2.9676554 -2.932345 -3.1009777
-3.0781438 -2.804996 -3.116597 -2.9814212 -2.9672868 -3.0324864 -3.1370173 -2.9543643
-3.014275 -3.0303876 -2.829163 -3.0085676 -2.8387835 -3.055272 -3.0522568 -2.8992376
-3.082124 -2.910441 -2.7907093 -2.9694285 -2.8071933 -2.9346318 -2.9889417 -3.0995574
-2.871247 -3.0774405 -2.8946667 -3.032555 -3.0069451 -2.911793 -3.0463374 -2.7676725
-2.9627578 -3.0572515 -2.9535625 -3.0735524 -2.9479814 -2.936704 -3.0036426 -2.9935768
-2.95592 -3.082558 -3.0882657 -3.2101805 -2.9915216 -3.1723862 -3.053781 -3.0328546
-2.8027267 -2.8645198 -3.1713579 -2.8340366 -2.7525108 -2.8500955 -3.192888 -3.0593767
-3.012433 -2.9544182 -3.1066678 -2.8383474 -3.155606 -2.9942832 -3.1079824 -2.9890711
-2.8772843 -3.0154467 -3.0665834 -2.8930569 -3.0847976 -2.9668026 -2.8895195 -2.789542
-2.8015807 -2.826788 -2.8636863 -2.9777932 -2.897589 -2.9936514 -2.9879754 -3.0404954
-3.1775131 -3.0079796 -3.0031538 -3.0008678 -2.9095454 -2.8324091 -3.092014 -2.9679368
-2.890513 -2.731393 -2.9895933 -3.1336813 -2.7231555 -2.9300475 -2.9645193 -2.8191366
-2.8277931 -2.9146528 -2.9676318 -2.996356 -2.9631941 -2.843601 -2.8411727 -3.0109298
-2.994009 -2.970047 -3.1146677 -2.9798317 -2.8413565 -2.832766 -2.7991316 -2.8926387
-2.8882365 -2.778589 -3.015109 -3.199151 -3.1255882 -3.1352565 -2.9893193 -2.9035113
-2.8083842 -2.8465035 -3.2008033 -2.9988916 -2.857321 -3.0125144 -2.974314 -2.9215002
-2.9924693 -3.004114 -3.0636907 -2.9999354 -3.0966702 -3.126613 -3.1603756 -3.1075037
-2.9725935 -3.0167265 -2.9293194 -3.0961683 -2.8944438 -2.9850912 -2.9544444 -2.8864331
-2.9502585 -3.0158973 -2.882462 -2.913823 -3.0045562 -2.9910479 -3.0825324 -2.9550188
-3.1256492 -2.861616 -3.0943024 -2.932698 -2.9114897 -3.1032202 -2.9943974 -3.0905008
-3.0637395 -3.0632513 -2.9448547 -3.100324 -3.0039444 -3.296636 -2.8575528 -3.0474534
-2.9670074 -2.9442303 -2.8781369 -3.0711775 -3.0223064 -2.9718177 -3.0877185 -3.0960155
-2.8373601 -3.0614502 -3.1601582 -2.9228632 -3.107743 -2.9767573 -2.903501 -2.9776802
-2.965442 -2.8552315 -3.0199468 -3.1994016 -2.8280342 -2.7131944 -3.224698 -3.0355563
00000000: a9db 3bc0 316c 35c0 7c3c 4bc0 7ee9 38c0
00000010: bda1 3cc0 ca4a 34c0 39d6 49c0 2833 35c0
00000020: 2842 3bc0 1fa5 39c0 c936 40c0 f563 43c0
00000030: 24a1 39c0 4ad1 39c0 34a1 42c0 8ae2 48c0
00000040: 6caa 35c0 a6af 4ac0 7106 47c0 d543 35c0
00000050: 3448 36c0 2785 3fc0 bc4f 42c0 931c 46c0
00000060: 6f8d 35c0 9370 3bc0 3f01 33c0 563c 3ac0
00000070: 41b4 3dc0 17b7 3cc0 4db7 3bc0 2de9 48c0
00000080: 0702 31c0 1a34 39c0 6a07 3bc0 4719 39c0
00000090: d153 3cc0 59d0 3fc0 6727 3fc0 a863 3dc0
000000a0: 04e0 37c0 9ff0 3bc0 6eb8 3cc0 2bdd 39c0
000000b0: 5146 40c0 6187 38c0 44a3 38c0 db23 29c0
000000c0: 7190 44c0 b427 3dc0 9fd8 41c0 7092 4ac0
000000d0: 4ded 40c0 c31c 38c0 52d4 38c0 ca12 49c0
000000e0: 1131 4fc0 fabf 39c0 2ec4 3ec0 722e 3ac0
000000f0: b3c7 44c0 11ee 3dc0 8aab 3bc0 6b76 46c0
00000100: 4f00 45c0 0e85 33c0 5376 47c0 9bcf 3ec0
00000110: 07e8 3dc0 4214 42c0 e4c4 48c0 4e14 3dc0
00000120: e2e9 40c0 dff1 41c0 0211 35c0 5f8c 40c0
00000130: a1ae 35c0 9489 43c0 2d58 43c0 1c8d 39c0
00000140: 8541 45c0 aa44 3ac0 fb9a 32c0 1e0b 3ec0
00000150: 0ea9 33c0 02d1 3bc0 d24a 3fc0 265f 46c0
00000160: 83c2 37c0 c9f4 44c0 3842 39c0 6215 42c0
00000170: ca71 40c0 d15a 3ac0 31f7 42c0 8c21 31c0
00000180: d39d 3dc0 02aa 43c0 2b07 3dc0 15b5 44c0
00000190: baab 3cc0 f5f2 3bc0 ae3b 40c0 c396 3fc0
000001a0: cb2d 3dc0 a148 45c0 25a6 45c0 9973 4dc0
000001b0: 1775 3fc0 6008 4bc0 2671 43c0 4a1a 42c0
000001c0: e05f 33c0 4b54 37c0 87f7 4ac0 db60 35c0
000001d0: 2329 30c0 f767 36c0 4758 4cc0 d4cc 43c0
000001e0: b4cb 40c0 3015 3dc0 a5d3 46c0 7ca7 35c0
000001f0: 73f5 49c0 56a2 3fc0 2fe9 46c0 f14c 3fc0
00000200: 6d25 38c0 14fd 40c0 e742 44c0 d827 39c0
00000210: 536d 45c0 18e0 3dc0 e3ed 38c0 db87 32c0
00000220: 194d 33c0 18ea 34c0 a346 37c0 2a94 3ec0
00000230: 1972 39c0 fc97 3fc0 fd3a 3fc0 7a97 42c0
00000240: 605c 4bc0 bd82 40c0 ac33 40c0 380e 40c0
00000250: fe35 3ac0 3146 35c0 8fe3 45c0 adf2 3dc0
00000260: 2afe 38c0 25cf 2ec0 7f55 3fc0 3c8e 48c0
00000270: 2e48 2ec0 e685 3bc0 afba 3dc0 bc6c 34c0
00000280: 90fa 34c0 ac89 3ac0 aeed 3dc0 4cc4 3fc0
00000290: f9a4 3dc0 8ffd 35c0 c6d5 35c0 13b3 40c0
000002a0: d89d 3fc0 4015 3ec0 b756 47c0 90b5 3ec0
000002b0: c9d8 35c0 0a4c 35c0 f924 33c0 fe20 39c0
000002c0: ded8 38c0 67d4 31c0 8cf7 40c0 e4be 4cc0
000002d0: a309 48c0 0ba8 48c0 0251 3fc0 21d3 39c0
000002e0: 91bc 33c0 1d2d 36c0 f6d9 4cc0 d7ed 3fc0
000002f0: 59de 36c0 09cd 40c0 295b 3ec0 dcf9 3ac0
00000300: 9e84 3fc0 6743 40c0 8213 44c0 f1fe 3fc0
00000310: d82f 46c0 6d1a 48c0 9843 4ac0 57e1 46c0
00000320: f93e 3ec0 0c12 41c0 f879 3bc0 9f27 46c0
00000330: 913e 39c0 bc0b 3fc0 9e15 3dc0 52bb 38c0
00000340: 09d1 3cc0 7604 41c0 427a 38c0 137c 3ac0
00000350: a64a 40c0 546d 3fc0 3648 45c0 071f 3dc0
00000360: a30a 48c0 b724 37c0 0d09 46c0 53b1 3bc0
00000370: d955 3ac0 299b 46c0 35a4 3fc0 c4ca 45c0
00000380: 4f14 44c0 4f0c 44c0 8078 3cc0 b56b 46c0
00000390: a040 40c0 16fc 52c0 25e2 36c0 7a09 43c0
000003a0: 73e3 3dc0 456e 3cc0 6533 38c0 2c8e 44c0
000003b0: 786d 41c0 4332 3ec0 2e9d 45c0 1e25 46c0
000003c0: 4f97 35c0 cdee 43c0 0840 4ac0 3110 3bc0
000003d0: 43e5 46c0 3183 3ec0 f6d2 39c0 5092 3ec0
000003e0: cdc9 3dc0 1dbc 36c0 cf46 41c0 ffc2 4cc0
000003f0: 83fe 34c0 faa4 2dc0 7461 4ec0 8e46 42c0

l1.mu_bias f4 [16]
-0.5327453 0.5204105 0.46423438 0.62329656 0.47615683 0.38191593 0.5915455 0.4761086
0.4753652 -0.5071295 -0.42055678 -0.5173718 0.32678807 0.5689878 0.57214534 -0.53836757
00000000: ff61 08bf 9f39 053f 21b0 ed3e 5d90 1f3f
00000010: d4ca f33e 7c8a c33e 876f 173f 82c4 f33e
00000020: 1163 f33e 3dd3 01bf 3853 d7be 7a72 04bf
00000030: c450 a73e 2fa9 113f 1e78 123f 75d2 09bf

l1.rho_bias f4 [16]
-2.1572845 -2.3992832 -2.411084 -2.4050379 -2.4630926 -2.4448307 -2.4012165 -2.299082
-2.4664857 -2.4263554 -2.214324 -2.417774 -2.4169288 -2.4103065 -2.4364176 -2.3902926
00000000: f310 0ac0 db8d 19c0 334f 1ac0 24ec 19c0
00000010: 4fa3 1dc0 1b78 1cc0 88ad 19c0 2924 13c0
00000020: e7da 1dc0 6849 1bc0 7cb7 0dc0 cfbc 1ac0
00000030: f6ae 1ac0 7642 1ac0 44ee 1bc0 8efa 18c0

l2.mu_weight f4 [1, 16]
-0.59035456 0.69940454 0.58769226 0.6850409 0.6537574 0.614631 0.7293071 0.61313385
0.6137962 -0.6226669 -0.60649544 -0.66520894 0.6452065 0.61277115 0.6339993 -0.67012155
00000000: 7a21 17bf 2d0c 333f 0073 163f d75e 2f3f
00000010: a55c 273f 7558 1d3f dfb3 3a3f 57f6 1c3f
00000020: bf21 1d3f 1967 1fbf 4943 1bbf 224b 2abf
00000030: 412c 253f 92de 1c3f c74d 223f 168d 2bbf

l2.rho_weight f4 [1, 16]
-3.350444 -3.4524312 -3.3490267 -3.4702096 -3.4375677 -3.254847 -3.350867 -3.4954464
-3.5412316 -3.3882792 -3.3472555 -3.4963756 -3.3324742 -3.448096 -3.3041325 -3.3991356
00000000: ad6d 56c0 a2f4 5cc0 7456 56c0 ea17 5ec0
00000010: 1c01 5cc0 6a4f 50c0 9b74 56c0 65b5 5fc0
00000020: 8aa3 62c0 91d9 58c0 6f39 56c0 9ec4 5fc0
00000030: 4247 55c0 9bad 5cc0 e876 53c0 708b 59c0
