BNN/BNN_model_state_FD001_test.pt (torch, 57845 bytes, 14 tensors)

lstm.ih.mu_weight f4 [128, 14]
00000000: 8e9a 4a3e 0653 8b3e ee19 623c 7501 67be
00000010: 9949 003e 9d98 bcbd 48d4 943d 45aa 39be
00000020: 0d74 993b 2d59 5c3e cb47 11be 94b2 3bbe
00000030: ebd0 c0bd f984 bfbd 3bd5 0ebe dbed 17bd
00000040: 6f78 993d 18ed 4cbd 70cf febd a08c 28be
00000050: be3c 53be a48d 213e c8bd 993c 2b1d e73d
00000060: 5f2b 073e fdc3 d83c 2796 483e e297 413e
00000070: 763f 033d 0808 1a3e beb8 c73d 7153 ec3c
00000080: f835 85bb 2883 febd ee5d 4e3b 5db1 1a3d
00000090: 40ff 023e 6871 64be b598 b53d d5bf ae3b
000000a0: 1011 7fbe 3fd9 313e e8f1 053c 4127 9c3d
000000b0: d46f 84be c76f 6f3e db73 38be be42 fcbe
000000c0: 888c 21be 13a9 23be c400 d43c a03c 793d
000000d0: ff71 77bc d343 143d 8b4c d8bc 66bd 81be
000000e0: b6de 7bbe 70f0 e0bd fa82 1ebe 74de bf3e
000000f0: c1b6 3b3c 8ffe 003e b9e0 41be 1d1a 4e3e
00000100: 1ca1 8e3e ea51 183e cf8c b7bd 106a 7ebc
00000110: e95c 573d 4507 5dbd 5f17 53be ad1b 56be
00000120: b337 133e 4d04 063e 0dae 6fbd 495e d63e
00000130: 154c ce3d 5383 433d 2839 f6be e654 5e3e
00000140: 27b3 103e 1268 2bbe c929 773b 54ac 9d3c
00000150: c4ef e73d 87b6 7b3d a379 d43d 3d07 203e
00000160: 5433 3a3e 8855 dfbd c1cf 24be 1678 cdbc
00000170: 9b5c f9bd 4ae8 d7be 75d4 8bbd 0b13 f73d
00000180: e172 203d 95f7 c03d 98f4 753e 1cc7 4b3d
00000190: 9141 bf3e 57b1 cf3b b5ee c23e 0a5c 1abe
000001a0: 2b8f 783e fd74 fabd 1363 453e 97fb 8ebd
000001b0: 11b5 4c3e 0794 003e 5905 94bd bbaf 5abe
000001c0: 0a03 21bc 8dfe cc3d b4c8 ec3d a129 db3d
000001d0: 1850 873e 9c64 243e bd81 2b3e 4d40 a5bd
000001e0: 8733 b23d b077 8e3e 444d 6d3d 36c1 123e
000001f0: e9d1 64bb c473 04be 5cca 6b3e eec9 0c3e
00000200: 03fb dd3e afed ba3d f488 ab3d e7d1 ecbd
00000210: 68d3 3e3e a451 c43b d2a5 533e 8dba 923c
00000220: 3dfc 793e 4083 b63d 0cea 90be 2278 f2bd
00000230: a226 1abe 701e 9dbc 2a04 92be b5dd cc3e
00000240: 2835 44bd 685d 183e 939a d43c 6f8e 903e
00000250: 8304 273e c3ce 893e dda4 b3be 9855 01be
00000260: c4e9 7d3d 0096 003e f4d8 073e ef1a 943e
00000270: 702c 70bd 94bf 6abd 9b9b 4a3d 69ce 503e
00000280: 5411 713c d1ba fcbd e208 ac3d c6c2 293e
00000290: e36d 863d 3d65 10bd a05d 04be eea5 a6be
000002a0: b7b2 d9bd 62c5 9fbd cf17 873e 1c61 d43d
000002b0: e386 32be 4aad cabe 0ab1 4b3d 6711 483e
000002c0: 6a40 41be a572 e3bd 7246 ba3d eff5 49be
000002d0: 212b b0bc 6417 5fbe 6ed6 553c e4a8 a9bd
000002e0: c9d5 cd3c 8eda 06be 8d26 ad3d 024b ef3d
000002f0: d6b9 503e f276 49be 866d 7b3e 4728 843e
00000300: b7af d33d 1661 d4bd 5d23 6b3d 2d74 99bd
00000310: ddc3 59be c09f 8d3c 617c 61be b880 ed3e
00000320: 11dc 7d3d 1e16 2a3e 2ea1 7ebe 31a8 373d
00000330: ae6b 0b3e 567b 153e 642d 20be aef4 60bd
00000340: 563d a2bd e9a5 61bc 31d0 13be 99be 2ebe
00000350: 96a2 42be 3dfc ae3e 5950 b3bb ff07 f2be
00000360: 65d2 59be 9bec 7a3e d4e8 c0bd f18d 523e
00000370: e8d9 6dbe a062 0ebe 6d69 173e aae2 493e
00000380: 976f 9cbd bca5 7bbe 86f8 8e3d 3153 4abe
00000390: 8695 3fbe 0b98 e43d 514e 17be a184 483e
000003a0: 2dc0 c6be 140e e93b 45a8 373d 0999 82bd
000003b0: 3c18 643b 4706 273e d915 423e 29f2 3e3d
000003c0: e37d 9ebc 60b8 843d 0def 203d ccef 8c3d
000003d0: 9bea ca3d d562 ebbd 9ee5 283d 508f d93e
000003e0: 6917 683d c1ed ee3c f8c4 833b 3357 28be
000003f0: fcf8 c13d 462c 863e e8cb 4cbe 5002 333e
0.1978552 0.2721178 0.013800127 -0.2255915 0.12528075 -0.09208796 0.07267052 -0.18131359
0.004683024 0.21518393 -0.14187543 -0.18329841 -0.09414848 -0.093515344 -0.13948528 -0.03709207
0.07493674 -0.050030798 -0.12441909 -0.16459894 -0.2062864 0.15776688 0.018767253 0.1128486
0.13200139 0.026460642 0.19588529 0.18905595 0.032042943 0.15042126 0.09752034 0.028848382
-0.0040652715 -0.1242736 0.0031489092 0.037766803 0.12792683 -0.22308886 0.08867017 0.0053329268
-0.24908853 0.17368029 0.008175351 0.076246746 -0.25866568 0.23382483 -0.18012945 -0.4926967
-0.15776265 -0.15982465 0.025879271 0.060848832 -0.015102862 0.036197495 -0.026403686 -0.25339812
-0.24596676 -0.1098336 -0.15479651 0.37474406 0.011457146 0.12597106 -0.18933381 0.20127149
0.27857292 0.14874998 -0.08962404 -0.015528217 0.05257884 -0.05396201 -0.20614384 -0.20908995
0.14376716 0.13087578 -0.058515597 0.4186881 0.10073105 0.047732662 -0.48090482 0.21712074
0.14130841 -0.16738918 0.0037714115 0.019247212 0.113250285 0.06145337 0.10374763 0.15627761
0.18183643 -0.10904986 -0.16094877 -0.025081675 -0.12175866 -0.4216941 -0.06827632 0.12064179
0.039172057 0.094222225 0.24019086 0.049750432 0.3735471 0.006338279 0.38072744 -0.15074173
0.24273364 -0.12229345 0.19276075 -0.06981581 0.19990946 0.12556468 -0.072275825 -0.21356098
-0.009827385 0.10009489 0.115617186 0.107012995 0.26428294 0.16054004 0.1674871 -0.08068905
0.08701234 0.2782569 0.057935014 0.14331517 -0.0034915155 -0.12934786 0.23026413 0.13748905
0.4335557 0.09127366 0.08375731 -0.11563473 0.18635333 0.0059911776 0.20668724 0.01791122
0.24412628 0.08911753 -0.28303564 -0.1183932 -0.150538 -0.019179553 -0.28518802 0.400129
-0.047902256 0.14879382 0.025952613 0.28233668 0.16310315 0.2691556 -0.35086718 -0.12630308
0.061990514 0.1255722 0.13266355 0.289268 -0.05863613 -0.05731161 0.049464803 0.20391239
0.014713604 -0.1234032 0.08400132 0.16578206 0.06563928 -0.0352528 -0.1292634 -0.3254847
-0.1062979 -0.0780132 0.26385352 0.10370085 -0.17434268 -0.39585334 0.049729384 0.19537888
-0.18872228 -0.11105851 0.090954676 -0.19722722 -0.02150494 -0.21786267 0.013051612 -0.082841665
0.025126355 -0.1316931 0.084546186 0.116842285 0.20383391 -0.1967428 0.24553499 0.2581198
0.10336249 -0.1037008 0.057406772 -0.07492862 -0.21266122 0.017288089 -0.22020103 0.46387267
0.06197745 0.1661 -0.24866173 0.044838134 0.13615295 0.1459783 -0.15642315 -0.054920845
-0.07921855 -0.013772466 -0.14434887 -0.17064895 -0.19007334 0.34176818 -0.0054722247 -0.47271726
-0.21271665 0.2450432 -0.094194084 0.20561959 -0.23227656 -0.1390481 0.1478631 0.19715372
-0.076384716 -0.24574941 0.06980996 -0.19758298 -0.18709382 0.111618124 -0.14775969 0.19581844
-0.38818493 0.007112274 0.04483821 -0.063768454 0.0034804484 0.16310988 0.18953647 0.04661766
-0.019347137 0.06480479 0.039290477 0.06881675 0.09908029 -0.1149346 0.041234605 0.4249215
0.05666295 0.029166104 0.0040212832 -0.16439514 0.09471318 0.26205653 -0.19999659 0.17481351

lstm.ih.rho_weight f4 [128, 14]
00000000: 5081 36c0 affd 33c0 23fb 39c0 d47e 3cc0
00000010: 8aa4 3ac0 e739 38c0 75dd 33c0 8c23 40c0
00000020: 39d3 30c0 3cfd 2bc0 3194 43c0 e14c 34c0
00000030: f421 30c0 3883 31c0 e1ef 30c0 e8a5 3dc0
00000040: 7148 40c0 e9b6 35c0 b515 30c0 18ad 36c0
00000050: 92b0 37c0 583f 3bc0 30e5 3fc0 5f9d 41c0
00000060: 1c7c 3ac0 1b77 3dc0 f38b 2ac0 de1f 36c0
00000070: 94a5 3ac0 10ad 46c0 bfd0 44c0 479d 4bc0
00000080: 58d7 38c0 73a3 37c0 3908 3bc0 5420 40c0
00000090: ace9 39c0 0d94 3cc0 96dc 2ac0 07c8 3ac0
000000a0: 22c6 30c0 57dd 32c0 232e 49c0 6ae7 38c0
000000b0: 6891 38c0 545a 46c0 747c 48c0 9543 34c0
000000c0: 36bb 42c0 5489 2dc0 820e 3ac0 7171 38c0
000000d0: 1ba9 38c0 bfb0 36c0 6d1b 3fc0 100b 33c0
000000e0: 6251 3ec0 6cb4 2ec0 78d1 45c0 2b41 3ec0
000000f0: 0fc1 35c0 c607 3cc0 8a8b 49c0 2a23 47c0
00000100: d6c2 3ec0 3468 3ac0 eabb 3bc0 9f47 46c0
00000110: 44e5 38c0 6781 3dc0 2322 3ec0 4b50 34c0
00000120: 6ae1 3ec0 11e4 3dc0 c8f8 31c0 b97f 40c0
00000130: ed53 48c0 17b8 3cc0 41b2 4ac0 a4c8 42c0
00000140: 1624 32c0 6f0c 3fc0 931a 38c0 3efe 3ac0
00000150: 825c 3cc0 8801 42c0 1ec2 3fc0 c8fc 43c0
00000160: b21f 3cc0 8c83 2fc0 9764 42c0 ffb3 41c0
00000170: 9295 3dc0 6ab5 33c0 d8e0 31c0 9573 34c0
00000180: 2756 39c0 5992 42c0 9147 2fc0 c69d 36c0
00000190: 27d8 3ec0 9e83 2bc0 4a46 40c0 5b1f 3cc0
000001a0: 5c6a 40c0 931f 37c0 83df 31c0 296f 23c0
000001b0: f841 42c0 aab9 39c0 be08 29c0 4bd1 3ac0
000001c0: caf6 25c0 ba2d 39c0 37f4 37c0 4770 3cc0
000001d0: 8a5e 39c0 a31f 3cc0 105a 3bc0 5ce1 31c0
000001e0: 2226 42c0 27ef 2ec0 9b9c 3ac0 01b2 42c0
000001f0: f247 3ac0 f491 3ec0 bb6d 3ec0 8e59 36c0
00000200: 00bf 37c0 fd52 3cc0 ed6a 29c0 bcb2 34c0
00000210: 8642 2ac0 ba5e 35c0 af29 34c0 f3ea 2fc0
00000220: 56b5 35c0 0aad 31c0 cd16 3dc0 1664 32c0
00000230: 8920 3cc0 99ec 3fc0 8156 3ac0 d62c 38c0
00000240: f1a3 4cc0 6033 3ec0 5445 36c0 358b 34c0
00000250: ffba 2ec0 ff7d 38c0 ac34 32c0 2493 3dc0
00000260: 64db 48c0 694f 3fc0 5f28 2fc0 a661 34c0
00000270: 6e60 31c0 9568 2dc0 c6f0 24c0 f485 2fc0
00000280: 8aa2 3ac0 d76d 34c0 bea6 35c0 ca80 38c0
00000290: 3d90 3dc0 fe68 34c0 a5da 30c0 f60a 30c0
000002a0: d1e7 3bc0 dbeb 36c0 ef05 37c0 fe80 35c0
000002b0: cad1 33c0 db9b 33c0 bdd4 34c0 c9db 31c0
000002c0: 0a6d 2fc0 aa5c 45c0 2bba 39c0 4faf 34c0
000002d0: 83a1 3bc0 0625 3dc0 e1d7 41c0 3549 3cc0
000002e0: 6c9d 2fc0 a77f 3bc0 ca53 41c0 effb 39c0
000002f0: fa1f 41c0 5962 43c0 b7cb 39c0 a129 35c0
00000300: 8b9f 35c0 b907 3ec0 b1b4 2dc0 3075 2fc0
00000310: 5696 44c0 44bf 3ac0 73e3 3bc0 7db6 43c0
00000320: 314c 48c0 477d 31c0 7f99 3fc0 0e47 35c0
00000330: 12b1 31c0 0dc9 45c0 437e 35c0 3eec 3bc0
00000340: db55 44c0 1dfb 37c0 25e6 3fc0 7872 3bc0
00000350: 1b1c 41c0 d36f 3ec0 f559 46c0 ab1a 35c0
00000360: df80 43c0 ed88 38c0 32d1 44c0 2d60 36c0
00000370: af0e 36c0 432d 3bc0 59f6 34c0 44e8 3cc0
00000380: cdae 45c0 e35d 3fc0 a969 38c0 b6cd 44c0
00000390: 8fa2 42c0 1981 3dc0 1b6e 36c0 628d 36c0
000003a0: c300 4cc0 e547 37c0 bbb1 3fc0 9285 31c0
000003b0: f261 3ec0 9fce 40c0 4a32 46c0 2e3d 35c0
000003c0: fec2 39c0 b0d3 34c0 0d0f 37c0 d7e2 32c0
000003d0: 36de 47c0 7b29 36c0 24b2 43c0 a231 26c0
000003e0: 39f1 34c0 c6ab 38c0 32ad 33c0 66a0 34c0
000003f0: 9d1e 3fc0 62c1 3bc0 a718 45c0 b614 3bc0
-2.8516426 -2.8123586 -2.9059532 -2.945241 -2.9162927 -2.878534 -2.8103917 -3.0021696
-2.762892 -2.6873312 -3.05592 -2.8171923 -2.7520723 -2.773634 -2.764641 -2.963251
-3.0044215 -2.839289 -2.751325 -2.8543148 -2.870152 -2.9257412 -2.9983635 -3.0252302
-2.913825 -2.9603946 -2.6647918 -2.845695 -2.916356 -3.104313 -3.0752409 -3.1814744
-2.8881435 -2.8693511 -2.9223769 -3.0019732 -2.9048872 -2.9465363 -2.6697135 -2.9184587
-2.762093 -2.7947595 -3.143441 -2.8891244 -2.883875 -3.0992632 -3.132596 -2.8166249
-3.0426764 -2.7115068 -2.9071355 -2.881924 -2.8853214 -2.8545377 -2.986049 -2.7975502
-2.9737172 -2.729762 -3.09091 -2.9727275 -2.8399084 -2.9379745 -3.1491418 -3.1115212
-2.9806418 -2.91261 -2.9333444 -3.0981214 -2.8889933 -2.961023 -2.9708335 -2.8174007
-2.9825082 -2.967045 -2.7808094 -3.0077956 -3.1301224 -2.948736 -3.1671298 -3.0434961
-2.7834525 -2.985134 -2.876622 -2.9217677 -2.9431462 -3.0313435 -2.996223 -3.0623035
-2.9394345 -2.742404 -3.0373895 -3.026611 -2.962254 -2.8079476 -2.7793484 -2.8195546
-2.8958833 -3.0401824 -2.738743 -2.8533797 -2.981943 -2.6799083 -3.00429 -2.9394138
-3.0064917 -2.8613021 -2.779267 -2.5536597 -3.0352764 -2.901957 -2.6411586 -2.9190242
-2.5931878 -2.893416 -2.8742807 -2.9443529 -2.8963952 -2.939431 -2.927372 -2.7793798
-3.0335774 -2.7333467 -2.9158084 -3.0421145 -2.9106412 -2.9776583 -2.9754474 -2.849216
-2.8710327 -2.9425652 -2.6471512 -2.823409 -2.6603103 -2.8339067 -2.8150442 -2.7487152
-2.8391929 -2.7761865 -2.9545166 -2.7873588 -2.9394858 -2.9988158 -2.9115298 -2.8777366
-3.1975062 -2.9718857 -2.8479815 -2.8209965 -2.7301633 -2.8826902 -2.7844648 -2.9621058
-3.1383905 -2.9892218 -2.736839 -2.81846 -2.7715106 -2.7095082 -2.5771956 -2.7425508
-2.9161706 -2.819204 -2.8383021 -2.8828607 -2.9619286 -2.8189082 -2.763345 -2.750669
-2.936024 -2.8581455 -2.8597372 -2.835998 -2.8096795 -2.8063877 -2.8254845 -2.7790396
-2.7410302 -3.0837808 -2.9019878 -2.8232 -2.931733 -2.9553847 -3.0288012 -2.9419682
-2.7439833 -2.9296663 -3.020739 -2.9060018 -3.0175767 -3.0528777 -2.9030588 -2.8306658
-2.8378627 -2.9692214 -2.7141535 -2.7415276 -3.0716758 -2.917924 -2.9357574 -3.0580132
-3.1296504 -2.7732713 -2.9937437 -2.8324618 -2.7764325 -3.0903962 -2.8358314 -2.936294
-3.0677402 -2.8747017 -2.998422 -2.9288616 -3.0173404 -2.9755752 -3.0992405 -2.8297527
-3.0547407 -2.8833573 -3.0752683 -2.84962 -2.8446462 -2.9246376 -2.8275359 -2.9516764
-3.088794 -2.9901054 -2.881449 -3.0750556 -3.0411718 -2.9610045 -2.8504703 -2.8523793
-3.1875465 -2.863763 -2.9952228 -2.7737775 -2.974728 -3.0126112 -3.0968194 -2.831859
-2.9025264 -2.8254204 -2.8602936 -2.7950952 -3.1229377 -2.8462818 -3.0577478 -2.5967793
-2.827223 -2.8854842 -2.807446 -2.82229 -2.9862435 -2.9336782 -3.0796297 -2.923139

lstm.ih.mu_bias f4 [128]
00000000: 3925 073d 4fcd 48bd 478f 943c 91b4 f4bd
00000010: 08df ab3d 3f1e 1f3e dd1c 423e 3e8c 0b3e
00000020: 412d 653e 3a4e eabc 2a14 eebc 6d1a 253e
00000030: 76d1 033e 1026 0c3e b895 a43d 7f4a d93b
00000040: a5a1 9abe b158 1b3e 9e3e 353d f53f e2bd
00000050: fe8a 993c b6d6 a4bd 2a15 69be 7ddd adbd
00000060: f241 18bd 090e 63bd 82aa a83d 426e 183e
00000070: cf24 b43d 8203 95bd 5314 343e cd2e 7abe
00000080: 07e7 6b3e b203 89bd 9841 853d bc78 093e
00000090: 9788 873d b40f 583c d3da 373e ecd8 933e
000000a0: 81bd ae3d ea22 833d 88e4 5f3d 0ea7 7c3e
000000b0: 57ac 05bc 8a31 8e3d 4820 f4bd 7cb9 873d
000000c0: b810 983d f673 bd3d 28fc 863e 3fd7 3fbc
000000d0: e520 14bd ea73 10bd c49f 3e3d 55e8 413e
000000e0: 8885 eebd 3688 09bd 666e 573d a937 2f3e
000000f0: 78e9 a73d a098 38be 9331 7b3e c61d 55be
00000100: 8a1d 1bbe 8e30 2d3e 6234 433e 46f9 bdbd
00000110: 6cea 373e 56ca 2cbd cca5 723e 26d2 84be
00000120: 722e 213e ce94 5e3e c9d9 e33c 7dd4 253e
00000130: 04fe fdbd d95e 4a3e 9bca 393e 7145 8a3d
00000140: b775 9a3c ac44 8ebd 5c6a 53be 5c7a 8abd
00000150: 99b5 8abe e969 a53d 4d37 1b3d fb69 9ebb
00000160: 3dd4 3fbc 60b9 943c 6cee c0bd 6c3b 473e
00000170: 65f4 1bbe ced2 273e c8ee cfbd 1d46 053c
00000180: c43c 333e c362 143e 6562 b83d a7d6 7dbd
00000190: ea85 873e 376b 6e3e 2c85 8f3d b76f e63e
000001a0: a7d2 833e 7383 a23d be93 c23c 4a0d 22bb
000001b0: cabc 303d 3a06 453e cb15 203e fe13 f93c
000001c0: b161 913e 7d34 363e e226 3e3e 2587 0a3e
000001d0: 7858 583d 27f9 8fbd 7a9a b23d 225a d83e
000001e0: 5ecf d43d 2cec 393e 7e31 f8bd 0fd3 603e
000001f0: 5c51 3d3e e42a 6c3e 1a3b eb3d 8a43 91bd
0.032994483 -0.049023923 0.018134726 -0.11948503 0.08392149 0.15538882 0.18956323 0.13627717
0.22380544 -0.028601754 -0.02906235 0.16123362 0.12872872 0.13686395 0.08036369 0.006631195
-0.3020145 0.15170552 0.04424917 -0.11047355 0.018743034 -0.08048765 -0.2276198 -0.08489511
-0.037172265 -0.055433307 0.08235647 0.1488581 0.08796083 -0.0727606 0.17585878 -0.24431916
0.23037349 -0.06690158 0.06506652 0.13424963 0.06617849 0.013187338 0.17954569 0.28876436
0.08532239 0.06403144 0.054661304 0.24673101 -0.008158765 0.069430426 -0.1192022 0.06627175
0.07425064 0.092506334 0.26364255 -0.0117090335 -0.036164183 -0.035266794 0.046539083 0.18936284
-0.11646563 -0.033577166 0.05259552 0.17111076 0.081988275 -0.18026972 0.2453063 -0.20812139
-0.15147987 0.16913053 0.19062951 -0.09276061 0.17960519 -0.04218515 0.23696059 -0.2594158
0.15740374 0.21736452 0.027813809 0.16194339 -0.12401965 0.19762744 0.18143694 0.06751526
0.018854959 -0.06946692 -0.20646042 -0.067616194 -0.27091673 0.080768414 0.037894536 -0.004834411
-0.011708316 0.0181548 -0.09420475 0.19456261 -0.15229948 0.1638901 -0.10152966 0.008134392
0.17503649 0.144908 0.09003142 -0.061972287 0.26469356 0.23283087 0.070078224 0.45007107
0.25746652 0.07935228 0.02375209 -0.002472716 0.043148793 0.19240656 0.15633313 0.03040504
0.28394845 0.1779346 0.1856952 0.13528116 0.052818745 -0.07029944 0.0872087 0.42256266
0.10391115 0.18156499 -0.12118815 0.21955512 0.18488067 0.23063236 0.11485882 -0.0709296

lstm.ih.rho_bias f4 [128]
00000000: cbb5 1ec0 1c11 27c0 f741 22c0 c6cd 26c0
00000010: aac6 3ac0 3d16 28c0 fda5 30c0 db0c 10c0
00000020: 4cec 2bc0 891e 18c0 a31b 2fc0 cfaa 17c0
00000030: 7393 1ec0 0384 1dc0 cf5c 38c0 c867 40c0
00000040: 0cd0 38c0 f459 23c0 0ebe 19c0 72cf 36c0
00000050: 6d78 20c0 a682 2bc0 4036 2bc0 d624 21c0
00000060: 75ff 3ac0 e751 30c0 5871 3ec0 5897 18c0
00000070: 378c 36c0 226b 31c0 6467 20c0 77f1 2ac0
00000080: 2ef4 2ac0 c0db 2fc0 ebbc 23c0 0b0f 3bc0
00000090: 1180 30c0 6ea2 27c0 3ce0 2fc0 81e4 20c0
000000a0: bad4 26c0 b264 13c0 03b4 39c0 aea6 1bc0
000000b0: 92d1 36c0 d203 24c0 1e61 42c0 fe28 40c0
000000c0: a4f9 39c0 aa3d 22c0 9139 2cc0 853c 35c0
000000d0: dc98 2cc0 a88b 33c0 f046 30c0 a522 2bc0
000000e0: 70dd 34c0 5d1d 37c0 52fa 2cc0 4229 23c0
000000f0: 9c6b 2ec0 4138 39c0 b850 24c0 be48 37c0
00000100: 9651 36c0 6f0a 44c0 bc6c 33c0 ddc5 41c0
00000110: 0647 37c0 11f0 2dc0 bf1e 3ec0 55bb 35c0
00000120: e11f 46c0 6493 2dc0 f719 33c0 ab60 3ec0
00000130: 72af 45c0 c8df 3ac0 8eb1 3bc0 6c50 46c0
00000140: 1758 28c0 89fe 34c0 84a9 34c0 680b 3cc0
00000150: bfb4 33c0 aaf9 3fc0 7b82 2ec0 c58f 32c0
00000160: ddcc 3ec0 3c33 2bc0 41dd 3fc0 2485 36c0
00000170: 375e 4ac0 1964 3cc0 31c1 3cc0 a77a 41c0
00000180: 18e6 1dc0 f6e1 2ac0 6340 25c0 3f16 29c0
00000190: 8dd5 28c0 0443 17c0 6c46 24c0 00f4 3bc0
000001a0: 55f0 40c0 d9be 2ac0 b9a8 19c0 b40e 3bc0
000001b0: 8e96 22c0 6626 31c0 4846 1dc0 0720 18c0
000001c0: 5a86 0ec0 c04a 43c0 fa63 38c0 7d1d 1cc0
000001d0: 764f 36c0 3693 1cc0 b055 1cc0 de40 1ec0
000001e0: 1d0f 1bc0 5fbc 21c0 29a7 18c0 4703 31c0
000001f0: abc7 19c0 1f89 30c0 f248 36c0 1d38 32c0
-2.4798458 -2.6104193 -2.5352762 -2.6063094 -2.9183755 -2.6263573 -2.7601311 -2.2507846
-2.6862974 -2.3768637 -2.7360618 -2.3698003 -2.4777496 -2.4611824 -2.8806646 -3.0063343
-2.8876982 -2.5523653 -2.402225 -2.8564115 -2.5073502 -2.6798491 -2.6751862 -2.5178733
-2.9218419 -2.754999 -2.975668 -2.3842373 -2.852308 -2.7721639 -2.5063105 -2.6709878
-2.6711535 -2.7477875 -2.5584056 -2.9227931 -2.7578166 -2.619289 -2.7480612 -2.5139468
-2.6067338 -2.303021 -2.901612 -2.4320483 -2.8565412 -2.5627332 -3.0371776 -3.002502
-2.9058619 -2.5350137 -2.6910136 -2.8318188 -2.6968298 -2.805399 -2.7543297 -2.6739895
-2.8260155 -2.8611672 -2.7027783 -2.5493932 -2.725318 -2.8940585 -2.5674267 -2.8638148
-2.8487296 -3.0631368 -2.8035116 -3.0277016 -2.86371 -2.7177775 -2.9706266 -2.8395588
-3.0956957 -2.712121 -2.7984598 -2.9746501 -3.0888333 -2.9199085 -2.932712 -3.0986586
-2.6303766 -2.8280356 -2.8228464 -2.9381962 -2.8079069 -2.9996133 -2.726714 -2.790025
-2.9812539 -2.675002 -2.9978793 -2.8518763 -3.1620004 -2.9436095 -2.9492915 -3.023111
-2.4671688 -2.6700416 -2.5820549 -2.6419828 -2.638034 -2.3634653 -2.5667982 -2.9367676
-3.0146687 -2.6678984 -2.400923 -2.9227724 -2.5404391 -2.7679687 -2.4574146 -2.3769548
-2.2269502 -3.0514374 -2.881102 -2.4392998 -2.8486 -2.446485 -2.44273 -2.4727092
-2.4227974 -2.5271223 -2.3852026 -2.765825 -2.4028118 -2.7583692 -2.8482022 -2.784675

lstm.hh.mu_weight f4 [128, 32]
00000000: 510d 88bc 4689 a4bd 9c81 083e 89a2 a2bd
00000010: ca9d 8bbc 421a 4a3d 9814 453d 2991 25be
00000020: af25 da3d 7c5e 563e f4da c3bd 1015 583d
00000030: 8b54 0dbe 8dae bbbd 7cee f33d 2378 313d
00000040: 7217 59be 49d9 0cbe ae40 46be 956b b6bd
00000050: 9eb0 51bc 040f 6fbb 691b 5f3e 99ea 85bc
00000060: dc5c 9ebd 5f4e 46bd 6098 e93d ce3d e83a
00000070: 7cce 0bbc 36cc 0fbd 1f8b 2bbc e23d 9f3d
00000080: e787 f53d fb93 0b3e f8f8 33bd 80f3 a23d
00000090: 3580 893e ad73 8bbe 21d4 3b3e 474b aebc
000000a0: e61b cf3c 510e a83d 8863 cc3d ab56 083c
000000b0: 24ab 68be 46c8 283e 75bc 2e3e f4a6 033d
000000c0: 60ed d53e 4ce6 1abd 46e5 873d 6f65 73be
000000d0: c114 ebbd 591b 1e3e c68d c1bb 3848 f5bc
000000e0: 7aa1 12bd 6d06 c73c aa10 343d b875 723d
000000f0: 5b4b 69be be08 a9bd 8a28 0a3d 8bcf 4fbe
00000100: 3f45 0abe d3cb d1bd b478 3f3e 4356 173d
00000110: 6eb0 be3d d0ee 453e 04cf 553e 3a28 52be
00000120: e919 0a3e e5ca f03d 2d5f 123d 493f 413e
00000130: 87e4 17bd 5e34 4b3e ca14 8f3e b41f 0cbe
00000140: 94a0 05be ccfe d2bd 2358 a8be 7406 a53e
00000150: 94f6 84bd 64f0 983d 1d8d 1abe 3c1d 953e
00000160: 74cd 633c a76a bb3d a31d c93d 0866 803d
00000170: 4dee 843e 8b30 f0bd 75c2 48be d819 273c
00000180: 9001 383e 71d6 d3bb 5271 c5bd 5113 8f3d
00000190: fe1e 2a3b 6f0c 1cbe 9122 1e3e 9e23 4cbd
000001a0: a12f 7bbd 85f9 93ba c6a3 94bc 4d82 f23c
000001b0: 241f c2bd 8d8f 733e 9d91 32be 0b66 3a3e
000001c0: 6a90 7c3e 4459 293d 7282 b5be cc23 17bf
000001d0: 8b53 05be 2578 d73d 5304 3d3d 272f 2e3d
000001e0: aaa0 efbd 8aa4 b1bb 78ee f23d 2632 de3d
000001f0: e58a 903b a3f9 14be fe39 76bd b39a a1bd
00000200: 4cd3 bfba 0b56 4ebe 4de5 6b3d cf38 7bbd
00000210: de0f 093e ef5c 0a3d 8837 c3bc 4178 19be
00000220: 29da 87bc 49f8 c0bd cb24 f1bd ba05 f1bd
00000230: 2224 01be 6aa9 76bd 39cf cd3c e7ce a9bd
00000240: 697e 87bc fb8b 2abe 5817 01be d0a9 d7bc
00000250: e97c c6bd 1ef8 073d 7648 09bd 141c e9b8
00000260: 3f83 adbd 7b8a a33d b183 edbc 7659 9b3d
00000270: c300 d8bd fc97 fabd 500b d33b 546d 8d3c
00000280: 8594 62be 73b5 a63d 3c37 b9bd 855a 8c3d
00000290: 68ea 80bc b144 7bbd dae1 193e ea09 86bd
000002a0: bdca 7dbe 4da3 833c f562 3b3d 253f 09be
000002b0: 7935 b1bd 0719 ad3d 6cb8 4ebe fe15 0ebe
000002c0: 6940 0c3e 2277 f93c d99e d0bd b191 1a3d
000002d0: 09d6 14bc 2c68 09bd f8fe 9e3c b0d0 65be
000002e0: d39f 323d 20ba 82bd 5910 0dbe d619 2fbd
000002f0: 3066 2e3e aca5 25be ebbd 803d 6d6c 1ebe
00000300: f036 83be 02c6 07be c521 73bd a5dd 1f3d
00000310: 9427 ea3d e2f0 103d 8e12 46be e944 983d
00000320: b04f 1abe 49d6 65bd 4759 2d3d 794f f0bd
00000330: b5d9 4abd 6027 d8bd 260b 823e ab6e 23bd
00000340: 9e7d 87be 4747 f13d 192f 12be e3f6 9b3d
00000350: 376b 8bbc 42e1 723e 206d 1c3d 3e48 edbe
00000360: 5b2b 48bd 9136 8f3d 2990 e03d b55e 10be
00000370: b195 debd ca71 89be 90b4 b0bd abfe 23be
00000380: 2f44 adbc 2a32 3c3e 4271 aa3d 6437 b73c
00000390: 93a7 21bd ce2e b73d b567 123e 5442 1ebe
000003a0: 422e 973e facf 643d d4b6 75be f4c3 673e
000003b0: 367d b9bd cddd 783e 5e29 553e ad1d 44be
000003c0: 5654 913d 3b9b 04be 74c2 85bd d76c 763d
000003d0: dbeb 8abe b6cb 5ebd 0824 d2bd 3113 a23d
000003e0: 7194 883e 2db8 df3a 7aed 8339 ea08 f43c
000003f0: fe62 423e 7b5b a63d e657 313c 178d 0e3e
-0.016607912 -0.08033995 0.13330692 -0.07941157 -0.017043013 0.049341448 0.048115343 -0.16168655
0.10651719 0.2093448 -0.09563246 0.05275446 -0.13801782 -0.09164152 0.11910722 0.043327462
-0.2120035 -0.13754763 -0.19360611 -0.089072384 -0.0127984565 -0.0036477456 0.217878 -0.016347216
-0.07732555 -0.048414584 0.11406016 0.0017718615 -0.008533116 -0.03510686 -0.010470181 0.07775475
0.11988812 0.13630669 -0.043938607 0.079566 0.26855627 -0.2723669 0.1834264 -0.02127613
0.025281858 0.08205856 0.099799216 0.0083214445 -0.22721535 0.16482648 0.17064078 0.03214164
0.41782665 -0.037817284 0.06635527 -0.23769163 -0.11478568 0.1544012 -0.0059067933 -0.029941663
-0.035798527 0.024295056 0.043961205 0.059194297 -0.22782652 -0.082536206 0.033730067 -0.20294015
-0.13502978 -0.102439545 0.18698388 0.0369475 0.09310995 0.19329381 0.20879751 -0.20523158
0.13486446 0.11757449 0.035735298 0.18871798 -0.037083175 0.19844195 0.27945548 -0.13683969
-0.13049537 -0.10302505 -0.32879743 0.32231486 -0.064923435 0.07467726 -0.15092893 0.29123867
0.013903964 0.09151202 0.09820106 0.06269461 0.2596306 -0.11728009 -0.1960543 0.010199033
0.17969346 -0.0064647724 -0.09640755 0.06986106 0.0025958414 -0.15239118 0.15442874 -0.049838655
-0.06132472 -0.0011289573 -0.0181445 0.029603148 -0.09478596 0.23785229 -0.1743836 0.18202989
0.24664465 0.041344896 -0.35451084 -0.59038997 -0.1302015 0.105209626 0.046146702 0.042525437
-0.11700566 -0.005421226 0.118618906 0.10849409 0.004411089 -0.14548354 -0.0601139 -0.07890835
-0.0014635115 -0.2015001 0.057591725 -0.061333474 0.13384959 0.033780035 -0.02383019 -0.1498728
-0.016583519 -0.09422357 -0.11774596 -0.117686704 -0.1261144 -0.06022016 0.025123226 -0.082914166
-0.01653977 -0.16654961 -0.12606561 -0.02632609 -0.096917935 0.033195607 -0.03351637 -0.00011115536
-0.08472299 0.079853974 -0.02899346 0.07585423 -0.1054702 -0.1223602 0.0064405575 0.017264046
-0.22126968 0.081400774 -0.09043738 0.06853203 -0.015736774 -0.061344806 0.15027562 -0.0654486
-0.2478437 0.016069079 0.04574867 -0.13402994 -0.08652777 0.08452039 -0.20187539 -0.13875577
0.13696446 0.030452315 -0.10186548 0.0377366 -0.009084233 -0.03354661 0.019408688 -0.22442889
0.04360945 -0.06383157 -0.13775767 -0.04274925 0.17031169 -0.1617648 0.06286224 -0.15471049
-0.2562785 -0.13259128 -0.059358377 0.039029736 0.1143333 0.035385974 -0.19343016 0.074350186
-0.15069461 -0.05611256 0.04232147 -0.11733908 -0.049524028 -0.10554385 0.2539913 -0.039900463
-0.26463026 0.11781173 -0.14275779 0.07615449 -0.017018897 0.23718742 0.038190007 -0.4634418
-0.048869472 0.069928296 0.10964996 -0.14098628 -0.10868395 -0.26844627 -0.086281896 -0.16015117
-0.021150677 0.18378511 0.083223835 0.02236528 -0.03946645 0.08944474 0.14297374 -0.1545499
0.2952748 0.055862404 -0.23995525 0.22633344 -0.09057085 0.2430336 0.20816562 -0.19151945
0.07096164 -0.1294984 -0.065312296 0.06016239 -0.27133068 -0.054393493 -0.10260779 0.07913817
0.26675752 0.0017068438 0.000251632 0.029789407 0.18983075 0.08122917 0.010824179 0.13921009

lstm.hh.rho_weight f4 [128, 32]
00000000: f6cf 3ec0 7c3d 37c0 681f 46c0 26e5 2ec0
00000010: 9644 43c0 bbd9 3cc0 90d3 3cc0 1873 3bc0
00000020: 1d4c 3cc0 e8c9 3ec0 6210 48c0 c776 3cc0
00000030: e14e 3cc0 a44c 36c0 11a1 3ac0 d8fd 43c0
00000040: 76bd 2fc0 1592 3ac0 3ad7 3dc0 0182 39c0
00000050: 0afc 49c0 dba5 43c0 b41d 3dc0 1688 3ac0
00000060: 51fd 2fc0 7321 3ac0 17f9 2fc0 25e6 46c0
00000070: 8793 32c0 b5a2 31c0 7223 40c0 e65b 39c0
00000080: 5d97 40c0 637f 39c0 91d3 3ec0 4638 3cc0
00000090: 76c5 3fc0 3fbd 45c0 9973 38c0 4352 2fc0
000000a0: 43b5 36c0 634c 33c0 68ab 40c0 6635 3cc0
000000b0: c6eb 3bc0 81ed 3fc0 a632 3ac0 a102 3cc0
000000c0: 74dc 42c0 173e 37c0 0c6f 38c0 8f47 44c0
000000d0: abb1 40c0 2fbf 41c0 b64a 3ac0 23e9 37c0
000000e0: 76fe 41c0 24f1 2cc0 f04a 37c0 5e60 46c0
000000f0: 0c1e 44c0 ecd0 3fc0 a6ea 3dc0 e0e1 3cc0
00000100: 1693 32c0 61c9 3bc0 6d45 3cc0 7a65 3fc0
00000110: 7657 3dc0 9a2d 37c0 53a7 35c0 e84e 3dc0
00000120: 208e 32c0 4420 3ec0 4a46 32c0 450f 4ec0
00000130: b08f 35c0 4840 38c0 208a 39c0 4cb3 36c0
00000140: f1aa 3bc0 f8c8 42c0 6cbe 40c0 71ff 3dc0
00000150: e1ad 36c0 b60c 39c0 09c0 40c0 85e8 35c0
00000160: d1f7 33c0 9d30 35c0 0e6c 35c0 af9c 35c0
00000170: d05a 27c0 eeff 45c0 c363 41c0 7ae5 35c0
00000180: 49f9 3bc0 4cab 44c0 54e9 45c0 d3da 32c0
00000190: 938d 3ac0 14af 39c0 9b2a 48c0 748c 33c0
000001a0: 185f 3bc0 0b4e 40c0 d277 40c0 486e 3bc0
000001b0: be8b 37c0 26d0 42c0 879d 37c0 ec20 30c0
000001c0: fdcd 39c0 25ee 3cc0 7e7e 43c0 d855 3cc0
000001d0: 638c 3bc0 8cef 33c0 4eb2 3cc0 2e24 39c0
000001e0: 961e 43c0 92c1 3cc0 7e26 36c0 e766 41c0
000001f0: 9146 3dc0 dbca 3bc0 6265 44c0 1213 35c0
00000200: 4e1a 37c0 f7dd 41c0 efaa 3fc0 3953 33c0
00000210: 0437 35c0 2c93 3ec0 e1e2 36c0 b727 40c0
00000220: 3058 31c0 1146 32c0 b099 38c0 1c14 3ac0
00000230: eb27 4fc0 33fd 3bc0 4bf5 43c0 56ce 3cc0
00000240: 8f42 3dc0 3b03 3ac0 b8f8 40c0 a08c 42c0
00000250: 0c15 42c0 d476 3ec0 876b 45c0 9109 3ac0
00000260: 60f0 2dc0 85fa 2ec0 7ba1 3cc0 e43d 3fc0
00000270: 1532 48c0 cd46 3cc0 beae 43c0 cec2 36c0
00000280: 795a 3bc0 ba0c 39c0 4ba9 42c0 8284 4bc0
00000290: 1628 42c0 146f 50c0 5e53 2cc0 7181 36c0
000002a0: dbf0 42c0 aa34 46c0 15fc 36c0 f8df 40c0
000002b0: 1190 3dc0 3152 33c0 ad98 37c0 14bb 3bc0
000002c0: 41f7 37c0 4b56 2fc0 6e21 3fc0 2b4d 34c0
000002d0: 5f8e 34c0 53c1 3dc0 d697 37c0 b1ad 37c0
000002e0: 12fb 2cc0 55ac 45c0 e4d9 4dc0 c4b9 3cc0
000002f0: 0979 42c0 eddf 3cc0 ee99 54c0 e92f 27c0
00000300: 6b3c 41c0 8428 34c0 bad6 3cc0 686a 47c0
00000310: 9ee7 3bc0 bb74 32c0 2304 3cc0 6e1e 46c0
00000320: 2db3 38c0 9dc5 48c0 3d5f 41c0 9596 3fc0
00000330: e7e8 37c0 cb25 45c0 736f 32c0 27d1 51c0
00000340: bf15 3ac0 4d5f 41c0 521d 3ac0 b532 3ec0
00000350: 7d68 39c0 1ddd 3ec0 0430 31c0 48ec 37c0
00000360: a78b 43c0 619a 3fc0 35b2 39c0 3656 42c0
00000370: c022 46c0 2fd9 43c0 e923 42c0 d2bb 47c0
00000380: 336c 29c0 f6fe 32c0 e6e7 3bc0 2836 4cc0
00000390: 39a3 38c0 7d19 26c0 275b 36c0 2414 3bc0
000003a0: f7c8 35c0 b399 26c0 67aa 30c0 e134 2fc0
000003b0: 61c9 3fc0 5dc1 2dc0 778d 2ec0 3a69 24c0
000003c0: 11bf 37c0 a852 34c0 8c8c 31c0 1cc0 34c0
000003d0: 29e8 29c0 1b61 39c0 5dde 37c0 9fa5 20c0
000003e0: 2b5a 32c0 f60b 23c0 4f9c 38c0 481c 38c0
000003f0: 14d4 34c0 7fb6 35c0 7abc 3bc0 ec16 31c0
-2.981443 -2.8631277 -3.095667 -2.732736 -3.0510612 -2.9507892 -2.9504128 -2.9288998
-2.9421456 -2.9810734 -3.126 -2.9447496 -2.9423144 -2.8484278 -2.9160807 -3.0623684
-2.7459388 -2.9151661 -2.9662614 -2.8985598 -3.1560082 -3.056998 -2.954938 -2.914556
-2.7498362 -2.9082916 -2.7495782 -3.107797 -2.7902544 -2.7755558 -3.0021634 -2.896234
-3.0092385 -2.8984 -2.981663 -2.9409347 -2.996427 -3.0896757 -2.8820555 -2.7393959
-2.8548133 -2.8015373 -3.0104618 -2.9407592 -2.9362655 -2.998871 -2.9093413 -2.9376605
-3.0447054 -2.8631647 -2.8817778 -3.0668676 -3.010844 -3.027294 -2.91081 -2.8736045
-3.031156 -2.702218 -2.8639488 -3.0996318 -3.064334 -2.9971266 -2.9674468 -2.9512863
-2.7902274 -2.9341662 -2.9417374 -2.9905686 -2.9584632 -2.8621583 -2.8383377 -2.957941
-2.7899246 -2.9707193 -2.78554 -3.219682 -2.836895 -2.8789234 -2.8990555 -2.8546934
-2.9323084 -3.0435162 -3.0116224 -2.968716 -2.8543627 -2.8914008 -3.011721 -2.8423169
-2.8120005 -2.8310921 -2.8347201 -2.8376882 -2.6149178 -3.0937457 -3.021714 -2.8421311
-2.9370902 -3.0729551 -3.0923662 -2.794606 -2.914891 -2.901311 -3.1276004 -2.8054476
-2.927679 -3.0047634 -3.0073133 -2.928606 -2.8679042 -3.0439544 -2.8689897 -2.7520094
-2.9031975 -2.9520352 -3.0545955 -2.9427395 -2.9304435 -2.8114958 -2.9483829 -2.8928332
-3.0487418 -2.9493146 -2.8460994 -3.0219057 -2.957432 -2.9342563 -3.068688 -2.829289
-2.8609805 -3.0291727 -2.994808 -2.8019545 -2.831483 -2.9777327 -2.8575976 -3.002424
-2.7710075 -2.7855265 -2.8843803 -2.9074774 -3.2368114 -2.937329 -3.0618465 -2.9500937
-2.9571874 -2.9064472 -3.0151806 -3.039833 -3.0325346 -2.9760027 -3.084688 -2.906834
-2.7177963 -2.7340405 -2.947356 -2.9881525 -3.1280568 -2.9418213 -3.0575404 -2.85564
-2.927397 -2.8914018 -3.0415828 -3.1799626 -3.0336967 -3.2567797 -2.6925883 -2.8516505
-3.0459507 -3.0969644 -2.8591359 -3.01367 -2.961918 -2.8018916 -2.8686936 -2.9332933
-2.8744662 -2.739642 -2.9864154 -2.81721 -2.8211896 -2.9649246 -2.8686423 -2.8699763
-2.702824 -3.0886433 -3.216424 -2.9488382 -3.0386374 -2.9511673 -3.3218951 -2.6122992
-3.0193126 -2.8149729 -2.9506059 -3.1158695 -2.9360118 -2.7883747 -2.9377525 -3.0956073
-2.885936 -3.1370614 -3.021438 -2.9935658 -2.8735902 -3.0804317 -2.7880523 -3.2783906
-2.9075773 -3.0214417 -2.9080396 -2.971845 -2.8970025 -2.9822457 -2.7685556 -2.8737965
-3.0553987 -2.9937975 -2.901502 -3.036512 -3.095871 -3.0601308 -3.0334418 -3.1208386
-2.647229 -2.7968116 -2.936029 -3.1908054 -2.8849623 -2.5953057 -2.8493135 -2.9231043
-2.840391 -2.603131 -2.7604005 -2.7376025 -2.9966662 -2.714927 -2.7273843 -2.5689225
-2.8710368 -2.817545 -2.7742033 -2.8242254 -2.654795 -2.8965518 -2.872947 -2.5101087
-2.7867534 -2.547605 -2.8845403 -2.8767262 -2.8254442 -2.8392637 -2.9333787 -2.767024

lstm.hh.mu_bias f4 [128]
00000000: 58c7 8f3e 1ab3 863d 8b04 653d b640 00bd
00000010: 52bc 253e c634 0cbe 5a5d debd 7f2b 753e
00000020: e19b 463e 5aa2 a43d 04f5 20bd 32da 323e
00000030: 8bfa 193e c445 f13d 07f3 e13d d04b e0bd
00000040: b6e3 0cbe 4533 b53e 53cb 2d3e fa92 f8bd
00000050: 523f 2ebe 7e84 a93d 95d7 243e 3582 21be
00000060: e366 663d 4bc7 b23c 04a5 00be 3fe3 133c
00000070: a642 31bd c827 f1bc 7275 b73e 8e51 5dbd
00000080: 38f8 953d b152 38bd 9703 1a3c 21eb 93bd
00000090: 535b c7bd bda8 2fbd 7456 573e 45bb d53e
000000a0: 03b9 48bd c921 573e bd10 1abe 0374 723e
000000b0: 61b6 a13c b115 303e 0622 35bd f8fc 60bd
000000c0: 4238 bd3d 2734 6a3e 13c8 523d cf60 1c3d
000000d0: 274e 823e 79d1 c63c 8864 4b3d a4ec 8e3e
000000e0: 772d 743e c1d2 813d fd0c 973d 41e1 fe3d
000000f0: 8c1c 763d faa0 c6bd 04d1 6e3d 5a71 583e
00000100: 5ca9 ef3d 4eae 7bbc 7311 1c3e ae1b b2bd
00000110: efb6 0b3e 9ee1 243d 7faa 6e3d 95c5 4fbe
00000120: 4705 5e3e 7a55 253e 7f97 14bc 4364 3e3d
00000130: aa4a a23d dd35 ee3d 2e11 133e 1886 483e
00000140: 9e3f 4ebd af7f 38be 74c5 27be a2fb 01bb
00000150: 4f88 233d e3be c33d 031b ebbd b2c1 543e
00000160: 22f7 503e 98f8 dfbd 4064 a53d eac0 8f3e
00000170: 620b 00be b67e 88bd a490 99be 641c c4bd
00000180: 9c87 703e 5cbc 0bbd eb6a 723e 00f4 4a3e
00000190: 78b4 973e 40b0 0f3e dbca b93e 9044 583e
000001a0: 8b26 723e 8cb4 983d 0d42 2f3e 9ecc 983d
000001b0: 28b4 5cbc 7781 4d3e 5c22 983e 16a1 463e
000001c0: 1fd9 9b3e c675 fdbb c008 193e 06a3 733d
000001d0: f600 793d c886 1b3e e821 863e 6113 973e
000001e0: 70c5 193d 5714 843d d90b 313e 04f3 963e
000001f0: aec3 823e 4fd5 ac3c 5213 573e a4d9 113d
0.28081775 0.0657713 0.055912536 -0.031311713 0.1618512 -0.13692006 -0.10857649 0.23942374
0.193954 0.080387786 -0.039296165 0.17466047 0.15036981 0.11780885 0.11032682 -0.1095196
-0.1375874 0.35390678 0.16972093 -0.121374086 -0.17016342 0.08277224 0.16097863 -0.15772326
0.056250464 0.021823546 -0.12562948 0.009026348 -0.04327645 -0.029437914 0.3583179 -0.054032855
0.073227346 -0.045000736 0.00940027 -0.07222582 -0.097342156 -0.04288553 0.21029073 0.41744438
-0.049004566 0.21008982 -0.15045448 0.23677067 0.019740285 0.17195775 -0.0442219 -0.05492875
0.09239246 0.22871457 0.051460337 0.03817826 0.2545025 0.024269806 0.04965642 0.27914917
0.23845468 0.06339026 0.07375524 0.124453075 0.06008582 -0.096986726 0.0583048 0.2113699
0.117022246 -0.015361382 0.15241031 -0.08696686 0.13644002 0.040254228 0.058268066 -0.20290215
0.216817 0.16145888 -0.009069323 0.046482336 0.07924397 0.11631367 0.14362022 0.19582403
-0.05035364 -0.18017457 -0.16383916 -0.0019833823 0.039924916 0.09557893 -0.114797615 0.20777014
0.20406774 -0.10936087 0.08075762 0.2807687 -0.12504342 -0.06664793 -0.29993165 -0.095757276
0.23489231 -0.03411518 0.23673598 0.19819641 0.29629874 0.14032078 0.3628758 0.21119905
0.23647515 0.074563116 0.1711504 0.07460903 -0.013470687 0.20068918 0.29713714 0.19397387
0.30439088 -0.007734987 0.14944744 0.059481643 0.060791932 0.15188134 0.26197743 0.29506972
0.037541807 0.06449192 0.17289676 0.2948228 0.25539917 0.021097807 0.21003464 0.03560795

lstm.hh.rho_bias f4 [128]
00000000: efb4 23c0 48ec 2cc0 40c6 1dc0 4b1e 27c0
00000010: 1110 36c0 529e 2ec0 0e83 2fc0 8f06 22c0
00000020: 856c 1cc0 33aa 20c0 bea1 26c0 5e93 1ec0
00000030: a153 20c0 5416 22c0 37e2 38c0 a82f 36c0
00000040: 9200 35c0 0ea0 16c0 3094 2fc0 4b30 2ac0
00000050: 503d 1ec0 38d9 2bc0 ded0 1cc0 af78 2ac0
00000060: 4d93 42c0 cebb 29c0 f971 25c0 c2dc 1fc0
00000070: bbf2 31c0 5f8e 35c0 4855 2ac0 2350 27c0
00000080: 4650 2dc0 c2ba 35c0 3224 2fc0 eb1f 31c0
00000090: ff26 3ac0 2596 3bc0 0ced 25c0 3bb1 1bc0
000000a0: 81d3 28c0 c673 10c0 e435 35c0 f930 16c0
000000b0: c437 42c0 37d0 20c0 cc92 3bc0 3359 28c0
000000c0: 5e0d 34c0 bf47 28c0 db27 33c0 3ffc 3ac0
000000d0: 93d7 1ac0 8530 23c0 2155 39c0 f5a6 35c0
000000e0: cfdb 36c0 4fd1 34c0 d3d2 37c0 7be8 12c0
000000f0: 469d 33c0 a677 29c0 9fad 21c0 ccfc 2fc0
00000100: 52c3 3cc0 4a3b 34c0 ca6b 33c0 365b 49c0
00000110: 6e8b 3dc0 3c0f 2ec0 c14e 26c0 eb3e 37c0
00000120: 074c 45c0 cfea 2cc0 c05f 33c0 99df 41c0
00000130: c710 44c0 6f84 35c0 4e6d 3ec0 fa16 3bc0
00000140: 2500 43c0 bff8 39c0 6d55 3cc0 778a 3dc0
00000150: 913a 39c0 3508 40c0 02ab 34c0 53c4 37c0
00000160: 26be 37c0 a078 36c0 56d5 35c0 03d4 2dc0
00000170: 6e75 41c0 8bb5 3bc0 9d7f 46c0 3cde 4ac0
00000180: fc2e 18c0 d3ce 23c0 bb83 31c0 20a2 27c0
00000190: 34a9 31c0 78ae 16c0 9001 17c0 4962 30c0
000001a0: fcfc 26c0 fa31 2ac0 4d4c 29c0 3026 2ac0
000001b0: aead 29c0 69b5 3fc0 ff60 18c0 67db 16c0
000001c0: 9b56 0fc0 8403 36c0 b806 36c0 3054 0ec0
000001d0: 927f 3ac0 92ff 2cc0 af13 0fc0 fb3a 15c0
000001e0: 071c 1ec0 7d8f 1fc0 9767 17c0 28a6 30c0
000001f0: 5694 29c0 8fa6 2ac0 febe 2ec0 a76e 28c0
-2.5579183 -2.7019215 -2.4652252 -2.611224 -2.8447306 -2.728413 -2.742374 -2.5316503
-2.4441235 -2.5103881 -2.603622 -2.4777446 -2.5051043 -2.5326128 -2.888807 -2.8466587
-2.8281598 -2.353519 -2.7434196 -2.6591976 -2.4724922 -2.685133 -2.4502482 -2.663616
-3.0402405 -2.6520877 -2.5850813 -2.497849 -2.78044 -2.8368146 -2.6614552 -2.6142662
-2.7080245 -2.8395238 -2.7365842 -2.767573 -2.9086301 -2.931039 -2.5925932 -2.4326923
-2.6379092 -2.2570662 -2.8314142 -2.346739 -3.0346537 -2.5127084 -2.9308348 -2.6304443
-2.8133159 -2.629379 -2.7993076 -2.9216459 -2.4194076 -2.5498364 -2.8958209 -2.8383152
-2.857166 -2.8252752 -2.8722427 -2.2954395 -2.8064742 -2.6479278 -2.526222 -2.7498045
-2.9494214 -2.8161187 -2.803454 -3.146192 -2.961635 -2.7196798 -2.5985568 -2.8632152
-3.0827653 -2.7018316 -2.802719 -3.0292723 -3.063524 -2.836208 -2.9754214 -2.9232774
-3.0468838 -2.9058073 -2.942714 -2.9615762 -2.8941996 -3.000501 -2.8229375 -2.8713577
-2.8709807 -2.8511124 -2.841146 -2.7160652 -3.0227923 -2.9329555 -3.101539 -3.169814
-2.3778677 -2.5594985 -2.7736652 -2.6192703 -2.7759523 -2.3543987 -2.3594704 -2.7559988
-2.609191 -2.6593003 -2.645282 -2.6585808 -2.6512256 -2.9954474 -2.3809202 -2.3571413
-2.239661 -2.8439646 -2.84416 -2.2238884 -2.9140363 -2.7030988 -2.2355764 -2.331725
-2.4704607 -2.4931328 -2.3656976 -2.7601414 -2.6496787 -2.666416 -2.7304072 -2.6317537

l1.mu_weight f4 [16, 32]
00000000: cd2b a0be eae7 b53e 2cc0 d8be d392 de3e
00000010: 5114 f3be 4048 d03e a456 e5be c43f b73e
00000020: 3ec8 d7be f7fa 9dbe edec ccbe 1b62 08bf
00000030: 4982 ec3e 020f d5be 056e 8ebe 64c0 bdbe
00000040: 8500 573e b47c 043f 59e1 e63e 80b0 74be
00000050: 8161 103f dcf6 edbe 2f12 a1be 34f1 553e
00000060: 0227 283f ffe9 a83e 9cd1 d7be 7593 fcbe
00000070: 2ca7 433e 659b da3e 48ab ea3e 2f1a 203f
00000080: a59d f53e 7b29 debe 31c2 ed3e 4e32 dcbe
00000090: 9a94 c73e 3ad7 08bf 0ffb ac3e 8a20 a4be
000000a0: 893f 163f 6a01 b23e 3837 f23e 671d f13e
000000b0: 4839 94be c0a5 0e3f 23dd d73e f238 ea3e
000000c0: dcbb 57be 212c 03bf 4982 c2be 54e9 ca3e
000000d0: a9e8 adbe ef5f ca3e 345a ea3e b1d9 dabe
000000e0: b9b6 f7be dc4f dabe d116 0a3f 6e7a b13e
000000f0: f3f8 c4be f012 15bf c966 fabe c2bb f5be
00000100: cf6e 133f 5095 66be 0adb ec3e 8db0 d0be
00000110: c9a7 e43e 918d 9fbe b3f8 a23e 9a73 dbbe
00000120: 7559 ba3e 8997 cc3e 489a 873e 9a44 aa3e
00000130: 8782 10bf c9fe 253f 46ba 0b3f e80f c63e
00000140: 165c 99be cd21 d7be fa77 e5be ade9 9b3e
00000150: 8d70 17bf 39a6 ec3e 6ad3 b33e 52a6 10bc
00000160: 3aea 16bf 1fc5 0cbf d9ca 103f 1a2f cd3e
00000170: 9b17 e8be 7598 eabe c8ed e4be 579f 07bf
00000180: 62bc cd3e d38e 12bf 0cd9 413e 0a26 a5be
00000190: 947f cc3e 4a91 fdbe 36e8 6d3e 3150 fdbe
000001a0: efac 0d3f 28a2 5e3e 18b7 7d3e 7ce0 d73e
000001b0: 609c f7be 59c4 e93e 3d14 c13e c60b f93e
000001c0: 0590 8fbe 034c 06bf 3600 f3be 44be bc3e
000001d0: 2c26 d5be 2ffb 023f c03e b83e 50fb 9cbe
000001e0: a0f6 e5be 4cd8 b9be 1b01 ea3e b6cb 253f
000001f0: 0af0 a4be 5dd9 0bbf 410c babe 041f 04bf
00000200: 5114 8c3e c05a 1cbf a10b eb3e c0fc 11bf
00000210: 6d1e f13e a48d a1be f2b5 a73e 41d0 03bf
00000220: 18d5 733e fdc1 293f 7655 ca3e 3f0b e13e
00000230: 0e1b fcbe efae b33e e1fb c03e b036 ce3e
00000240: 84ac b8be d240 00bf 3b3d 8dbe f326 053f
00000250: fcee f0be 188e 053f 745a 083f 89df 2abe
00000260: d60b d9be 77fe d8be 99ae 093f 23cd ff3e
00000270: 3ffe 10bf e09f 5bbe cd9a 13bf b240 a9be
00000280: d8bc ea3e c7e9 dabe 3087 173f 75ac d3be
00000290: a0cd ed3e d4a5 cebe f094 c43e b2fe d4be
000002a0: 4787 d53e 1a42 cd3e b0f5 a63e 01c2 c23e
000002b0: 21fe d7be 7776 193f aa63 0c3f 584d e23e
000002c0: 6c06 eabd 5fc1 f6be 819c 12bf cfb0 8a3e
000002d0: d802 7fbe 2fd4 233f ff7c 043f 61d4 f0be
000002e0: 5d3b 0ebf 0f82 ecbe 5cce ca3e 6f35 fa3e
000002f0: fffc 0fbf c860 ccbe 463b 1abf 4feb c5be
00000300: 1457 e03e ba60 ebbe 7d21 ca3e 6a4d f6be
00000310: eca2 ca3e 0e1d 59be 68df fe3e bec2 debe
00000320: 966f a93e 2a4a f63e 665a fd3e 7f2d 0b3f
00000330: b6ad 02bf a6ae e03e b116 0a3f ac03 ca3e
00000340: e439 b8be 809a adbe c346 ecbe c5b4 613e
00000350: a82e 1abf 5006 b03e 0cc4 cd3e 3423 dbbe
00000360: aacf c8be 0f84 e1be d656 e03e fc38 b63e
00000370: 1e91 ccbe 6886 cebe 1004 10bf 5f57 e3be
00000380: cb8d 043f 5d05 93be e5b7 253f 6008 babe
00000390: 30bc f73e f677 b2be c922 be3e 05d8 e6be
000003a0: ade1 b13e dadc 0e3f 46b9 dc3e 86eb ef3e
000003b0: 5f1b debe e242 a33e f791 e63e 1f6d ea3e
000003c0: 8de8 ddbe 9d9d eabe 2d71 02bf a1cc b53e
000003d0: 50af 05bf d621 e83e 86f0 973e c77c 84be
000003e0: b800 0dbf 5fc2 b1be 8f2c 073f c154 df3e
000003f0: 89f8 f6be c675 f1be e9d4 28bf 95ba cbbe
-0.31283417 0.355285 -0.42334116 0.43471393 -0.47476438 0.40680122 -0.44792664 0.35790837
-0.4214496 -0.30855533 -0.4002451 -0.532747 0.4619315 -0.41613013 -0.27818313 -0.37060845
0.20996292 0.5175278 0.45093802 -0.23895454 0.5639878 -0.464774 -0.31459185 0.20892793
0.6568452 0.32991025 -0.42152107 -0.4933125 0.1910674 0.42696682 0.45833802 0.62539953
0.47971836 -0.43391022 0.4643722 -0.4300713 0.38980561 -0.5345341 0.33785293 -0.32056075
0.58690697 0.34766704 0.47307754 0.47092745 -0.28949952 0.55721664 0.421609 0.4574657
-0.21067756 -0.5123921 -0.37990025 0.3963114 -0.33966568 0.39526317 0.45771945 -0.4274421
-0.48381594 -0.42639053 0.53941065 0.3466372 -0.38471183 -0.5823202 -0.48906544 -0.4799481
0.57590955 -0.22517896 0.46260864 -0.40759698 0.4465926 -0.31162694 0.31830367 -0.42861634
0.36396375 0.39959362 0.26484895 0.33255464 -0.5644917 0.64841896 0.54581106 0.3868401
-0.29953068 -0.42017975 -0.44818097 0.30451718 -0.59156114 0.46220568 0.35122234 -0.008828716
-0.5895115 -0.5498828 0.5655952 0.40074998 -0.4533051 -0.4581944 -0.44712663 -0.5297751
0.40182787 -0.5724918 0.18930453 -0.32255584 0.39941084 -0.4952491 0.23233113 -0.49475244
0.55342 0.21741545 0.24776876 0.42163455 -0.48361492 0.45657614 0.37710753 0.48641795
-0.28039566 -0.52459735 -0.47461098 0.3686391 -0.41630685 0.51164526 0.35985374 -0.30660486
-0.44914722 -0.36297834 0.45703968 0.64763963 -0.32214385 -0.54628545 -0.36337474 -0.51609826
0.2735925 -0.61075974 0.4590731 -0.5702629 0.47093526 -0.31553376 0.32756 -0.51489645
0.23811758 0.6631163 0.39518327 0.43953893 -0.4923939 0.350944 0.37692168 0.40276098
-0.3606912 -0.5009891 -0.27585778 0.52012557 -0.4705733 0.5216994 0.5326302 -0.16686834
-0.42391843 -0.4238164 0.5378204 0.49961194 -0.5663795 -0.21447706 -0.5765808 -0.3305717
0.458472 -0.42756483 0.59190655 -0.41342512 0.46445942 -0.40360892 0.3839488 -0.41600567
0.4170477 0.40089494 0.3260932 0.38038638 -0.42186072 0.5994639 0.54839575 0.44199634
-0.11427006 -0.48194405 -0.57270056 0.2708802 -0.24903429 0.6399564 0.5175323 -0.47037032
-0.5555933 -0.46192977 0.39610565 0.48868892 -0.56245416 -0.39917588 -0.60246694 -0.3865609
0.43816435 -0.45972234 0.39478675 -0.48105937 0.39577425 -0.2120249 0.4977982 -0.43507951
0.33092946 0.48103458 0.4948303 0.54366297 -0.5104631 0.43883246 0.53940874 0.39455926
-0.35981667 -0.33906937 -0.46147737 0.22041614 -0.6022744 0.34379816 0.40188634 -0.42800295
-0.39220935 -0.44046065 0.4381625 0.3559035 -0.39954466 -0.4033692 -0.562562 -0.44402596
0.5177886 -0.2871503 0.64733726 -0.36334515 0.48385763 -0.34857148 0.37135914 -0.45086685
0.3474249 0.5580574 0.43110102 0.46859378 -0.43380257 0.31886965 0.45033237 0.45786378
-0.43341485 -0.45823374 -0.5095394 0.35507682 -0.5222063 0.45338315 0.29675692 -0.25876448
-0.5507922 -0.34718606 0.52802366 0.4361935 -0.48236492 -0.47160167 -0.65949875 -0.39790788

l1.rho_weight f4 [16, 32]
00000000: cf46 42c0 844d 3dc0 a17c 4dc0 5a1c 3bc0
00000010: b252 45c0 3ff3 3bc0 e526 48c0 a4ae 34c0
00000020: ab36 3ac0 caf0 3ec0 38e1 43c0 b48c 4ac0
00000030: 06be 40c0 c945 3dc0 0192 40c0 30ca 45c0
00000040: 9674 42c0 4175 46c0 8d4e 4cc0 3919 39c0
00000050: 5287 38c0 b7df 48c0 3a43 41c0 023f 3bc0
00000060: d48b 3ac0 7f4a 41c0 38ce 37c0 9e38 36c0
00000070: 08ff 42c0 7e82 43c0 b19f 43c0 5744 46c0
00000080: 949d 32c0 da8f 3cc0 1ff1 3ac0 be86 3bc0
00000090: 1108 3dc0 1f74 3dc0 0419 3ec0 a14d 3fc0
000000a0: 4830 3dc0 f60c 3fc0 724f 3dc0 16ff 40c0
000000b0: 13be 41c0 7e38 3ec0 8f53 3ac0 4a42 2ec0
000000c0: 309e 46c0 6f7f 3cc0 57cd 3cc0 de9d 40c0
000000d0: d337 46c0 8c63 3bc0 d946 39c0 52f2 4ac0
000000e0: 40a6 4ec0 37e8 3ac0 67e8 38c0 db73 36c0
000000f0: d5d1 49c0 ba58 3bc0 92ea 3fc0 226b 40c0
00000100: d4b5 4ac0 2319 33c0 83cb 45c0 9377 3fc0
00000110: 64d9 45c0 7518 3dc0 3d37 4ec0 101f 42c0
00000120: ddfa 3ec0 ed03 3dc0 d269 36c0 21e8 3ac0
00000130: 81b8 39c0 6912 44c0 fce6 45c0 1b85 3cc0
00000140: 9b3c 4ac0 9907 3fc0 b5be 3ac0 b7f9 3bc0
00000150: c5d1 3dc0 c2f3 41c0 0cc1 3dc0 40a5 43c0
00000160: 12b5 38c0 6d22 48c0 1a38 3cc0 33e3 4cc0
00000170: 83c9 39c0 7a1b 3fc0 be7f 45c0 01f8 36c0
00000180: 678b 3fc0 a83e 4ac0 d135 3bc0 356a 40c0
00000190: 9f51 3bc0 fcfc 43c0 b8f5 3fc0 6f8b 3bc0
000001a0: e951 3dc0 2b34 39c0 29f5 3fc0 7671 4cc0
000001b0: 1e5d 3bc0 bf3f 4bc0 3484 43c0 1d29 41c0
000001c0: 08d6 38c0 e4f4 3ac0 b5b2 4bc0 0fe0 33c0
000001d0: adfc 3fc0 2bcb 3cc0 ca1f 4bc0 d8da 46c0
000001e0: 2d12 47c0 af93 42c0 1b33 4bc0 c974 39c0
000001f0: 0f69 43c0 0b55 45c0 c9ea 44c0 d7c0 48c0
00000200: 5ba0 3bc0 67cb 42c0 7cf6 3bc0 8355 40c0
00000210: f772 4ac0 c296 3bc0 9ea0 3bc0 6fe7 32c0
00000220: e8d8 38c0 db4f 33c0 2025 3dc0 6af6 3fc0
00000230: de6d 3bc0 3220 3fc0 d887 44c0 cccb 40c0
00000240: f67d 4dc0 5df1 42c0 8c8d 3fc0 02f4 40c0
00000250: 5c6c 3ec0 5e6c 39c0 b65e 48c0 fdeb 44c0
00000260: fbda 37c0 05b4 34c0 d372 44c0 dabb 3ec0
00000270: 2764 38c0 845f 45c0 faec 3dc0 1cb2 2ec0
00000280: 6aa7 3cc0 e03d 44c0 2b70 3bc0 e143 3dc0
00000290: 71b0 4ac0 5f10 38c0 56a7 3fc0 31bf 3cc0
000002a0: f772 46c0 97c7 3cc0 2387 46c0 c27f 40c0
000002b0: 0b8f 3ac0 cf5c 38c0 38a4 33c0 bf5b 38c0
000002c0: 64ef 3bc0 a9b6 34c0 2d32 41c0 5726 50c0
000002d0: 0683 46c0 bf6d 46c0 1ca7 45c0 ed1c 3bc0
000002e0: 39bf 3ac0 447e 43c0 0895 51c0 a9a7 38c0
000002f0: 813a 39c0 6086 49c0 688d 3dc0 b16d 33c0
00000300: a395 43c0 116f 43c0 f6c9 47c0 58b5 3dc0
00000310: fe29 4ec0 9545 40c0 7d73 4ac0 6d3f 3dc0
00000320: fbdc 41c0 2437 40c0 a923 3fc0 f317 43c0
00000330: 2ade 38c0 ec3d 3fc0 8ca7 3fc0 72ed 35c0
00000340: 24a1 3ec0 9423 45c0 e69d 38c0 af33 44c0
00000350: 7e74 45c0 9fdb 38c0 4c4f 40c0 c9d7 3ec0
00000360: ef10 47c0 e9ea 38c0 2fa7 48c0 6e72 3cc0
00000370: add6 3dc0 4d34 45c0 f8bb 45c0 2c90 48c0
00000380: 2890 47c0 ebb7 42c0 3b04 39c0 96f3 43c0
00000390: d06c 3ec0 6054 4ac0 b43a 38c0 3f22 46c0
000003a0: 6a3f 37c0 da46 32c0 31cc 38c0 c875 42c0
000003b0: c642 3ec0 c628 3ec0 456d 4ac0 88f9 44c0
000003c0: 6c21 30c0 8ee2 42c0 343d 44c0 524f 3ec0
000003d0: 7231 47c0 1201 45c0 e7af 39c0 47a0 3fc0
000003e0: 3ce5 38c0 2c91 36c0 31eb 3fc0 069d 49c0
000003f0: 5017 38c0 3834 33c0 3d96 47c0 dd22 43c0
-3.0355718 -2.9578562 -3.2107317 -2.9236054 -3.0831723 -2.9367216 -3.127374 -2.8231592
-2.9095867 -2.9834466 -3.0606213 -3.1648378 -3.011598 -2.9573843 -3.0089114 -3.0904655
-3.0383658 -3.1009066 -3.1922944 -2.8921645 -2.8832593 -3.1386545 -3.0197282 -2.9257207
-2.9147844 -3.0201719 -2.8719616 -2.8472056 -3.0468159 -3.0548396 -3.0566218 -3.0979211
-2.7908678 -2.94628 -2.9209669 -2.930099 -2.9536173 -2.9602125 -2.9702768 -2.989113
-2.9560719 -2.985166 -2.957974 -3.0155692 -3.0272262 -2.972198 -2.91135 -2.722796
-3.103405 -2.945278 -2.950033 -3.0096354 -3.0971572 -2.9279509 -2.8949492 -3.17104
-3.228897 -2.9204233 -2.8891847 -2.8508213 -3.1534321 -2.9272904 -2.998692 -3.0065389
-3.167348 -2.7984092 -3.0905464 -2.9916732 -3.0913935 -2.9546177 -3.2221215 -3.033146
-2.9840615 -2.9533646 -2.8502088 -2.920418 -2.9018862 -3.0636237 -3.0922232 -2.945624
-3.159949 -2.9848387 -2.9178898 -2.9371164 -2.9659283 -3.0305028 -2.9649076 -3.056961
-2.8860517 -3.1271012 -2.9409242 -3.2013671 -2.9029243 -2.986052 -3.0859218 -2.858887
-2.9928834 -3.1600742 -2.9251597 -3.0064824 -2.9268568 -3.062316 -2.9993725 -2.9303854
-2.9581244 -2.893809 -2.9993384 -3.194425 -2.9275584 -3.1757658 -3.054944 -3.0181344
-2.8880634 -2.921197 -3.1827824 -2.8105505 -2.999797 -2.9499004 -3.1738153 -3.1071072
-3.1104844 -3.040264 -3.1749942 -2.897753 -3.0532873 -3.0833156 -3.0768301 -3.13677
-2.9316623 -3.0436647 -2.9369192 -3.0052192 -3.163267 -2.9310765 -2.9316783 -2.7953756
-2.888239 -2.801749 -2.955391 -2.999415 -2.9285808 -2.98634 -3.0707912 -3.0124388
-3.210813 -3.0459816 -2.9930143 -3.014893 -2.9753637 -2.8972392 -3.1307807 -3.0769036
-2.8727405 -2.8234875 -3.0695083 -2.9802155 -2.8811128 -3.0839548 -2.967589 -2.729621
-2.9477181 -3.0662766 -2.9287212 -2.957268 -3.1670191 -2.8759992 -2.9945884 -2.9491694
-3.100767 -2.949682 -3.101998 -3.0077977 -2.9149806 -2.8806646 -2.806898 -2.8805997
-2.9364862 -2.8236487 -3.0186875 -3.25234 -3.101747 -3.1004484 -3.0883245 -2.9236405
-2.9179213 -3.0545816 -3.2747211 -2.8852332 -2.8941958 -3.1488266 -2.9617558 -2.80357
-3.056008 -3.053654 -3.1217017 -2.9641933 -3.221313 -3.004247 -3.1632988 -2.9569962
-3.0291126 -3.0033655 -2.9865515 -3.0483367 -2.8885598 -2.9881544 -2.9946012 -2.8426175
-2.9785852 -3.0802965 -2.8846374 -3.0656545 -3.085235 -2.8884046 -3.00484 -2.9819205
-3.1104085 -2.8893378 -3.135204 -2.9444842 -2.9662278 -3.0813172 -3.0895977 -3.1337996
-3.1181736 -3.0424755 -2.8908832 -3.0617423 -2.9753914 -3.1613998 -2.878583 -3.0958402
-2.8632455 -2.7855744 -2.8874629 -3.0384388 -2.9728255 -2.9712386 -3.1629193 -3.0777302
-2.75204 -3.0450778 -3.0662355 -2.9735913 -3.112393 -3.0781903 -2.9013612 -2.9941576
-2.8889914 -2.8526106 -2.99873 -3.150209 -2.876423 -2.8000622 -3.1185448 -3.049003

l1.mu_bias f4 [16]
00000000: 3b49 f3be 3ad6 ef3e 405c d03e 7641 113f
00000010: d464 d33e 3968 a03e 4d3f 083f d680 d63e
00000020: 44d2 d43e efb5 e4be e833 bdbe 765f e7be
00000030: e50e 853e 4da7 073f 8f30 013f c81f f0be
-0.47516808 0.4684313 0.4069538 0.5674051 0.41287863 0.31329516 0.5322159 0.4189517
0.4156667 -0.44670054 -0.36953664 -0.45190018 0.25987926 0.52989656 0.5046472 -0.46899247

l1.rho_bias f4 [16]
00000000: f005 28c0 3aec 31c0 c05d 35c0 0432 3dc0
00000010: bd39 46c0 09de 42c0 ca84 35c0 6852 32c0
00000020: ffc7 37c0 49cd 35c0 313b 2dc0 4c34 32c0
00000030: dedd 2cc0 0086 31c0 7bf4 38c0 4908 37c0
-2.6253624 -2.7800431 -2.833847 -2.9561777 -3.097274 -3.044802 -2.8362298 -2.7862797
-2.8715818 -2.8406546 -2.7067378 -2.784442 -2.7010417 -2.7738037 -2.889922 -2.8598807

l2.mu_weight f4 [1, 16]
00000000: 83a7 06bf 6532 203f 1e29 0b3f 3cb9 1a3f
00000010: 4572 173f e198 0d3f 55ac 2b3f 6d95 0f3f
00000020: 89cb 0b3f 54e2 0ebf b8ae 0dbf f260 1abf
00000030: 66f9 163f ce78 0a3f 703e 103f 3209 1bbf
-0.5259935 0.62576896 0.54359615 0.60438895 0.59158736 0.553114 0.6705983 0.5608738
0.54607445 -0.558141 -0.55344725 -0.60304177 0.589743 0.54090583 0.5634527 -0.60560906

l2.rho_weight f4 [1, 16]
00000000: a99b 51c0 8a55 52c0 14b6 49c0 0cd4 54c0
00000010: 86ba 50c0 596f 4ac0 07af 4cc0 ea9c 55c0
00000020: 2761 55c0 7e28 50c0 4bc1 4bc0 04f0 55c0
00000030: 30c5 4ac0 f929 48c0 b938 51c0 04b6 4fc0
-3.2751257 -3.286471 -3.1517382 -3.3254423 -3.2613845 -3.1630461 -3.1981828 -3.3377023
-3.3340547 -3.2524714 -3.1836727 -3.3427744 -3.1682854 -3.1275618 -3.269087 -3.2454844
