BNN/BNN_model_state_FD001_test.pt (torch, 57845 bytes, 14 tensors)

lstm.ih.mu_weight f4 [128, 14]
0.036260366 0.21369512 0.013135945 -0.013487481 0.08546938 -0.06948367 0.012314938 0.028359607
-0.036729246 0.2895163 -0.13858199 -0.28011551 -0.012578218 -0.05779817 -0.1664762 0.34570906
0.18061088 -0.08079231 -0.13335696 -0.05500119 -0.09081035 0.12523864 0.14553669 0.15191618
0.20468724 -0.048696805 0.09177715 0.18866949 0.03506146 0.16600543 0.08717693 0.07134368
-0.09157513 -0.16758017 0.08717986 0.052845214 0.06270532 -0.089471206 0.071961135 -0.018429372
-0.26853803 -0.02097197 -0.13427544 -0.010855594 -0.40074497 0.09304606 -0.31240994 -0.3652754
-0.34057856 -0.06000178 -0.032588694 -0.079020634 -0.13312836 -0.014340507 0.21006674 0.05550405
-0.2661112 -0.12450926 -0.23196012 0.42745957 -0.055905458 0.124601744 -0.24513006 0.2596747
0.19201912 0.18934974 -0.11419756 -0.026510155 0.07436257 -0.022228444 -0.24042365 0.12871303
0.0333499 0.17891784 -0.2009823 0.19291909 0.061146256 0.053513218 -0.36915922 -0.057196345
-0.015776783 -0.19489613 -0.11187676 -0.015719835 0.07164688 0.1617587 0.041270923 0.1821244
0.0054671764 -0.09359921 -0.23236239 0.07485362 -0.2716075 -0.31783888 0.014612472 0.050676323
0.018565582 0.1754138 0.23378046 0.3105211 0.29773548 -0.010870251 0.29444763 -0.15835363
0.2584713 -0.10977092 0.20400257 -0.011053426 0.14074712 0.1714367 -0.24862064 -0.280289
-0.020120045 0.07996861 0.118448555 0.08189468 0.2648871 -0.0025028891 0.19205508 -0.091151625
0.05642381 0.10598615 0.05851144 0.13033175 -0.016188594 -0.114550084 0.1981562 0.13224524
0.4062483 0.044385582 0.043269593 -0.12961903 0.16922216 0.0029043711 0.12296483 -0.006467708
0.27471334 0.07278347 -0.2821626 -0.083080865 -0.1751837 0.007978551 -0.39536348 0.36697143
-0.09005457 0.053345542 -0.044863563 0.3252786 0.1709465 0.13340625 -0.36887988 -0.14080766
0.09791429 0.14782973 -0.02690123 0.14645655 -0.3127819 -0.03647655 -0.20715909 0.15815735
-0.21389891 0.016737923 -0.049433753 0.14514622 -0.05177438 -0.0051227403 -0.03180597 -0.12984835
-0.10420277 -0.040821206 0.18325363 0.07824604 -0.23255852 -0.08502155 0.014574669 0.25739408
-0.2481956 -0.061708033 0.09636619 -0.13274553 0.00917641 -0.09453833 -0.05839672 0.002883457
-0.045792326 -0.10034593 -0.17150363 0.16472581 0.18163124 -0.09393982 0.08462942 0.2959106
0.10418415 -0.087112024 -0.01377438 -0.13014606 -0.18639578 -0.00025713208 -0.15634936 0.44632173
0.076224305 0.16193672 -0.21117908 0.051440194 0.15202868 0.10867448 -0.10190344 -0.032446496
-0.15968654 -0.042522993 -0.13213728 -0.18182835 -0.09632229 0.39933977 -0.03388002 -0.4693176
-0.13407207 0.2713255 -0.19341059 0.3581044 -0.16631508 -0.18815327 0.12448381 0.22108445
-0.031593535 0.05164144 -0.076409906 -0.0594457 -0.2168182 0.023188423 -0.25394645 0.374962
-0.19065703 -0.032228857 -0.039109875 -0.112852655 -0.05162812 0.283267 0.18266092 0.24413183
0.15898125 -0.037651174 0.15398908 0.028761813 0.172541 -0.21404932 0.1182716 0.18438315
0.27378333 0.030283544 -0.1189727 -0.19405502 0.039201416 0.10262743 -0.0668095 0.24045569
00000000: c085 143d e5d2 5a3e 2638 573c 98fa 5cbc
00000010: 920a af3d 744d 8ebd 98c4 493c 6852 e83c
00000020: 6871 16bd 7b3b 943e 70e8 0dbe 4d6b 8fbe
00000030: df14 4ebc c6bd 6cbd bd78 2abe c700 b13e
00000040: 0ff2 383e 7076 a5bd ba8e 08be ee48 61bd
00000050: c7fa b9bd 8f3e 003e 9207 153e ea8f 1b3e
00000060: 8899 513e 4d76 47bd a9f5 bb3d 9332 413e
00000070: 9b9c 0f3d 54fd 293e d189 b23d a31c 923d
00000080: be8b bbbd 239a 2bbe 5b8b b23d 3974 583d
00000090: a66b 803d ae3c b7bd 5c60 933d 32f9 96bc
000000a0: d17d 89be 69cd abbc 807f 09be a9db 31bc
000000b0: 722e cdbe ef8e be3d 32f4 9fbe 6105 bbbe
000000c0: 5060 aebe 6dc4 75bd b97b 05bd 92d5 a1bd
000000d0: cd52 08be 72f4 6abc bc1b 573e 3758 633d
000000e0: ba3f 88be b6fe febd f486 6dbe fbdb da3e
000000f0: 1ffd 64bd 332f ff3d 6003 7bbe 15f4 843e
00000100: a9a0 443e e6e4 413e 69e0 e9bd d32b d9bc
00000110: 674b 983d 6d18 b6bc 9e31 76be 59cd 033e
00000120: e899 083d 3d36 373e 4ece 4dbe 958c 453e
00000130: 7f74 7a3d ad30 5b3d 7002 bdbe b746 6abd
00000140: 503e 81bc da92 47be a51f e5bd e2c6 80bc
00000150: 99bb 923d 13a4 253e b30b 293d d27e 3a3e
00000160: 0026 b33b f1b0 bfbd 68f0 6dbe db4c 993d
00000170: 2310 8bbe c7bb a2be 2669 6f3c fa91 4f3d
00000180: d916 983c ad9f 333e 2564 6f3e 9ffc 9e3e
00000190: c970 983e 2319 32bc d7c1 963e 7427 22be
000001a0: 5a56 843e 93cf e0bd 0de6 503e 6e19 35bc
000001b0: 0320 103e 1a8d 2f3e 6996 7ebe 0a82 8fbe
000001c0: cbd2 a4bc 95c6 a33d 2895 f23d 66b8 a73d
000001d0: 489f 873e 8307 24bb 16aa 443e b4ad babd
000001e0: a71c 673d 440f d93d b1a9 6f3d b075 053e
000001f0: f19d 84bc 3c99 eabd 75e9 4a3e 4c6b 073e
00000200: c7ff cf3e a8cd 353d 753b 313d daba 04be
00000210: 9348 2d3e 4357 3e3b fcd4 fb3d 11ef d3bb
00000220: 3aa7 8c3e 800f 953d 9e77 90be 4d26 aabd
00000230: 5b63 33be 78b8 023c 156d cabe aee3 bb3e
00000240: 886e b8bd db80 5a3d dbc2 37bd eb8a a63e
00000250: 990c 2f3e a69b 083e d3dd bcbe e22f 10be
00000260: 4a87 c83d ad60 173e f85f dcbc b5f8 153e
00000270: f324 a0be 6f68 15bd 8321 54be 00f4 213e
00000280: 5108 5bbe f81d 893c 0c7b 4abd 36a1 143e
00000290: 5f11 54bd a9dc a7bb fa46 02bd f7f6 04be
000002a0: 4368 d5bd 2334 27bd d7a6 3b3e 763f a03d
000002b0: d223 6ebe c71f aebd 98ca 6e3c 28c9 833e
000002c0: fd26 7ebe 90c1 7cbd a35b c53d 72ee 07be
000002d0: a758 163c 509d c1bd 6631 6fbd 62f8 3c3b
000002e0: bc90 3bbd 2b82 cdbd a69e 2fbe e2ad 283e
000002f0: 8afd 393e 8563 c0bd 3052 ad3d 9881 973e
00000300: 805e d53d ca67 b2bd f0ad 61bc 0245 05be
00000310: 89de 3ebe afcf 86b9 0c1a 20be 4884 e43e
00000320: 7d1b 9c3d bdd2 253e 543f 58be f4b2 523d
00000330: 68ad 1b3e ba90 de3d c0b2 d0bd 9ee6 04bd
00000340: de84 23be 972c 2ebd ff4e 07be 3631 3abe
00000350: 9f44 c5bd 4376 cc3e c7c5 0abd 654a f0be
00000360: 304a 09be 2deb 8a3e 6d0d 46be 7659 b73e
00000370: 804e 2abe 40ab 40be 5ef1 fe3d f663 623e
00000380: 3968 01bd f985 533d cc7c 9cbd 567d 73bd
00000390: 9705 5ebe a6f5 bd3c 4505 82be 05fb bf3e
000003a0: 993b 43be 6802 04bd ad31 20bd 4b1f e7bd
000003b0: 0278 53bd 5f08 913e 770b 3b3e b2fd 793e
000003c0: fbcb 223e 1e38 1abd 50af 1d3e e59d eb3c
000003d0: 97ae 303e bf2f 5bbe 6138 f23d f0ce 3c3e
000003e0: 542d 8c3e 3215 f83c f5a7 f3bd 5cb6 46be
000003f0: aa91 203d 542e d23d 6bd3 88bd 043a 763e

lstm.ih.rho_weight f4 [128, 14]
-2.910378 -2.7028553 -2.7349677 -2.752028 -2.7785866 -2.850007 -2.7890275 -2.9173799
-2.8472238 -2.5672894 -2.8873048 -2.7832363 -2.7897182 -2.8592405 -2.7520278 -2.8453176
-2.8731608 -2.868363 -2.6588087 -2.7083135 -2.8546307 -2.7631474 -2.9761314 -2.94748
-2.775595 -2.6428223 -2.8805456 -2.663779 -2.6796782 -2.9220738 -2.8069172 -2.8999488
-2.7126887 -2.5948915 -2.7764769 -2.8443277 -2.8325965 -2.6263015 -2.716193 -2.797165
-2.724072 -2.6724985 -3.0721226 -2.8831367 -2.8791654 -2.8934832 -2.977046 -2.7563107
-2.7554698 -2.7158744 -2.8439274 -2.7487767 -2.7822192 -2.6896505 -2.9784575 -2.7238455
-3.004991 -2.9727113 -3.0882645 -2.7945182 -2.9030921 -3.0967352 -3.115291 -2.954937
-2.8693662 -2.965158 -3.0332878 -3.1133735 -2.72876 -2.7562814 -2.850282 -2.6622396
-2.7943783 -2.890636 -2.9646826 -2.919052 -2.9302104 -2.8987474 -3.0367503 -2.9487782
-2.8007948 -2.7655616 -2.8244035 -2.845984 -2.7974758 -2.9194984 -3.0752506 -2.9026852
-2.791105 -2.7712145 -2.900605 -2.8990633 -2.8487082 -2.617363 -2.7242093 -2.631168
-2.9086742 -2.8593664 -2.57513 -2.7632177 -2.594774 -2.6198986 -2.737193 -2.492914
-2.8715794 -2.563102 -2.6530778 -2.6284945 -2.617208 -2.8010569 -2.5755887 -2.767981
-2.7578804 -2.5930336 -2.8337681 -2.7377841 -2.737185 -2.7751842 -2.7220063 -2.7363532
-2.8268282 -2.5865324 -2.741555 -2.8226812 -2.8540459 -2.665219 -2.542662 -2.553079
-2.5188334 -2.6735759 -2.561858 -2.566814 -2.430582 -2.5317667 -2.5141993 -2.3831866
-2.5723598 -2.5396378 -2.6227772 -2.5566795 -2.855241 -2.801506 -2.8464777 -2.7873657
-3.2082214 -2.9453785 -2.6882641 -2.7167506 -2.6148767 -2.7740698 -2.7885926 -2.8041143
-2.930553 -2.931195 -2.594252 -2.5520098 -2.5555558 -2.519302 -2.4428236 -2.4963107
-2.6639738 -2.5507717 -2.6430151 -2.6146896 -2.5515945 -2.6385968 -2.5720096 -2.5923898
-2.9359858 -2.83183 -3.0015063 -2.8312967 -2.8518486 -2.8031461 -2.7471747 -2.8758028
-2.7679822 -2.9535882 -3.0373344 -2.8255734 -2.9595237 -2.9063919 -2.7066348 -2.584482
-2.6209092 -2.661343 -2.73644 -2.575762 -2.760698 -2.7220552 -2.8087122 -2.7299492
-2.598871 -2.6514416 -2.5826957 -2.677202 -2.980022 -2.8519142 -2.8962343 -3.0352354
-2.8964126 -2.9916139 -3.0257201 -2.9319584 -2.7454865 -2.927193 -2.7627668 -2.954346
-3.109496 -3.060507 -2.930501 -2.937435 -2.8104875 -2.8551297 -3.0106118 -2.8199418
-2.9845936 -2.9232364 -3.076566 -2.7707965 -2.7946212 -2.9343011 -2.798922 -2.9304936
-2.9461145 -2.9853692 -2.8147626 -2.8676844 -2.9717953 -2.8389635 -2.7644866 -2.918003
-3.0144515 -2.7415628 -2.8059795 -2.598878 -2.911171 -2.9407463 -2.8496594 -2.8432508
-2.8570716 -2.6849086 -2.7190819 -2.69577 -2.8371074 -2.8500674 -2.7453465 -2.4474533
-2.8387225 -2.8307965 -2.736001 -2.7479093 -2.980205 -2.8303049 -2.9469943 -2.851075
00000000: a243 3ac0 95fb 2cc0 b609 2fc0 3a21 30c0
00000010: 5dd4 31c0 8466 36c0 6d7f 32c0 5ab6 3ac0
00000020: ea38 36c0 784e 24c0 9ac9 38c0 8b20 32c0
00000030: be8a 32c0 ccfd 36c0 3921 30c0 af19 36c0
00000040: dee1 37c0 4293 37c0 ec29 2ac0 0255 2dc0
00000050: 45b2 36c0 68d7 30c0 f078 3ec0 83a3 3cc0
00000060: 59a3 31c0 0024 29c0 dc5a 38c0 5b7b 2ac0
00000070: d97f 2bc0 4203 3bc0 88a4 33c0 c398 39c0
00000080: b19c 2dc0 b412 26c0 ccb1 31c0 7709 36c0
00000090: 4349 35c0 5315 28c0 1bd6 2dc0 c004 33c0
000000a0: 3257 2ec0 370a 2bc0 a89d 44c0 5085 38c0
000000b0: 3f44 38c0 d42e 39c0 ec87 3ec0 6567 30c0
000000c0: 9e59 30c0 e3d0 2dc0 e802 36c0 f5eb 2fc0
000000d0: e10f 32c0 3c23 2cc0 0c9f 3ec0 7c53 2ec0
000000e0: c651 40c0 e740 3ec0 20a6 45c0 63d9 32c0
000000f0: 43cc 39c0 e930 46c0 ee60 47c0 b01d 3dc0
00000100: b2a3 37c0 26c5 3dc0 6321 42c0 8341 47c0
00000110: 01a4 2ec0 ea66 30c0 056b 36c0 2262 2ac0
00000120: 18d7 32c0 2e00 39c0 5cbd 3dc0 bfd1 3ac0
00000130: 9188 3bc0 1485 39c0 1e5a 42c0 c8b8 3cc0
00000140: 3940 33c0 f6fe 30c0 07c3 34c0 9a24 36c0
00000150: d809 33c0 10d9 3ac0 e8d0 44c0 98c5 39c0
00000160: 77a1 32c0 945b 31c0 83a3 39c0 418a 39c0
00000170: 3c51 36c0 e082 27c0 7259 2ec0 0e65 28c0
00000180: b827 3ac0 dcff 36c0 eece 24c0 8fd8 30c0
00000190: c710 26c0 6bac 27c0 2c2e 2fc0 e78b 1fc0
000001a0: f5c7 37c0 dd09 24c0 07cc 29c0 4139 28c0
000001b0: 5680 27c0 8444 33c0 72d6 24c0 9a26 31c0
000001c0: 1d81 30c0 43f4 25c0 755c 35c0 db37 2fc0
000001d0: 0a2e 2fc0 9e9c 31c0 5a35 2ec0 6920 2fc0
000001e0: c1ea 34c0 bf89 25c0 a375 2fc0 cfa6 34c0
000001f0: b0a8 36c0 f392 2ac0 f9ba 22c0 a565 23c0
00000200: 9134 21c0 de1b 2bc0 7bf5 23c0 ae46 24c0
00000210: a88e 1bc0 7708 22c0 a4e8 20c0 2186 18c0
00000220: 8ba1 24c0 6d89 22c0 95db 27c0 a3a0 23c0
00000230: 45bc 36c0 e04b 33c0 b12c 36c0 3364 32c0
00000240: 8053 4dc0 1581 3cc0 850c 2cc0 3edf 2dc0
00000250: 245a 27c0 5c8a 31c0 4d78 32c0 9c76 33c0
00000260: 2e8e 3bc0 b398 3bc0 3a08 26c0 2154 23c0
00000270: 3a8e 23c0 3e3c 21c0 3957 1cc0 8ec3 1fc0
00000280: 8c7e 2ac0 d83f 23c0 2927 29c0 1357 27c0
00000290: 534d 23c0 c5de 28c0 ce9b 24c0 b7e9 25c0
000002a0: 31e7 3bc0 b43c 35c0 ae18 40c0 f733 35c0
000002b0: b084 36c0 bf66 33c0 b6d1 2fc0 270d 38c0
000002c0: 9f26 31c0 9707 3dc0 b063 42c0 32d6 34c0
000002d0: d668 3dc0 5302 3ac0 8139 2dc0 2768 25c0
000002e0: fabc 27c0 7253 2ac0 d521 2fc0 49d9 24c0
000002f0: 47af 30c0 2736 2ec0 f1c1 33c0 7db7 2ec0
00000300: e753 26c0 38b1 29c0 e34a 25c0 4757 2bc0
00000310: aeb8 3ec0 c385 36c0 e75b 39c0 4c41 42c0
00000320: d35e 39c0 9a76 3fc0 66a5 41c0 35a5 3bc0
00000330: 0db6 2fc0 2157 3bc0 2cd1 30c0 0114 3dc0
00000340: fc01 47c0 59df 43c0 548d 3bc0 effe 3bc0
00000350: 07df 33c0 72ba 36c0 ddad 40c0 ed79 34c0
00000360: 9503 3fc0 4e16 3bc0 75e6 44c0 bb54 31c0
00000370: 13db 32c0 97cb 3bc0 8a21 33c0 358d 3bc0
00000380: 248d 3cc0 4a10 3fc0 1225 34c0 2488 37c0
00000390: e531 3ec0 94b1 35c0 59ed 30c0 90c0 3ac0
000003a0: c6ec 40c0 c475 2fc0 2b95 33c0 0454 26c0
000003b0: a050 3ac0 3035 3cc0 d260 36c0 d2f7 35c0
000003c0: 43da 36c0 8bd5 2bc0 7005 2ec0 7f87 2cc0
000003d0: 2b93 35c0 8167 36c0 c2b3 2fc0 13a3 1cc0
000003e0: a1ad 35c0 c52b 35c0 a41a 2fc0 bfdd 2fc0
000003f0: aebb 3ec0 b723 35c0 8e9b 3cc0 0378 36c0

lstm.ih.mu_bias f4 [128]
0.012291949 -0.065207854 0.0716711 -0.1125689 0.07612122 0.17037271 0.2142883 0.16516301
0.26070473 0.06964132 -0.08355191 0.26394507 0.12901093 0.19555973 0.076624505 -0.02083396
-0.26240864 0.102638625 0.09487701 -0.085479535 0.040869307 -0.08477833 -0.07370703 -0.09528622
-0.066906154 0.013977805 0.070153065 0.14421646 0.06586524 -0.094828874 0.08987553 -0.24282067
0.11743576 -0.07770936 0.13681969 0.13066 0.044965032 0.051347166 0.2244117 0.2506983
0.08978668 0.1408909 0.026440931 0.27874637 -0.010212231 0.066521056 -0.14084801 0.056840457
0.119242184 0.1298101 0.23994139 -0.08737503 -0.02464406 -0.051684715 -0.006122297 0.09886424
-0.14687651 0.07267115 0.0428319 0.2143296 0.116398476 -0.17675824 0.15047869 -0.21118566
-0.16209744 0.1716447 0.2718172 -0.066647224 0.15399133 0.00032338392 0.28327444 -0.30731937
0.19652048 0.25791642 0.012409218 0.1622764 -0.100031465 0.21908726 0.22637142 0.049311977
0.00087249925 -0.17807102 -0.21351898 0.019101257 -0.32742938 0.037667304 0.1397325 0.019636562
-0.07975902 0.06755005 -0.0943662 0.22978786 -0.110660054 0.16479824 -0.019516775 0.02470322
0.065311894 0.17178145 0.050694995 -0.020383608 0.2674277 0.15767236 0.07270156 0.44718906
0.25702882 0.18276219 -0.010714492 0.048842773 0.008431527 0.1831566 0.15018359 0.04966989
0.28053194 0.18007575 0.1928323 0.11588281 0.092561856 -0.00082254864 -0.13071555 0.25743338
0.115993045 0.34377906 -0.071113326 0.21735671 -0.010651461 0.15938151 -0.00013413871 -0.08474755
00000000: 2c64 493c b28b 85bd 4cc8 923d 868a e6bd
00000010: 71e5 9b3d 2f76 2e3e 646e 5b3e 7e20 293e
00000020: 177b 853e 1ca0 8e3d 441d abbd cf23 873e
00000030: 711b 043e cf40 483e 4fed 9c3d fbab aabc
00000040: 6d5a 86be 3334 d23d e14e c23d e50f afbd
00000050: 9366 273d 43a0 adbd b6f3 96bd 6c25 c3bd
00000060: 1806 89bd 2a03 653c 69ac 8f3d 7bad 133e
00000070: 5be4 863d a435 c2bd a910 b83d fba5 78be
00000080: 2982 f03d 1626 9fbd 761a 0c3e bccb 053e
00000090: 412d 383d 6851 523d 2ecc 653e 875b 803e
000000a0: 14e2 b73d b445 103e a79a d83c d8b7 8e3e
000000b0: 3451 27bc 313c 883d 763a 10be 8ad1 683d
000000c0: 3f35 f43d f0ec 043e 32b3 753e aef1 b2bd
000000d0: 57e2 c9bc 5ab3 53bd 8d9d c8bb 5679 ca3d
000000e0: cc66 16be 9dd4 943d 8170 2f3d 3879 5b3e
000000f0: 5362 ee3d 1d00 35be 1617 1a3e 0e41 58be
00000100: dffc 25be a1c3 2f3e a02b 8b3e 577e 88bd
00000110: e7af 1d3e db8b a939 5909 913e f758 9dbe
00000120: aa3c 493e 9f0d 843e 0850 4b3c c92b 263e
00000130: 4cdd ccbd 6958 603e e9cd 673e 5bfb 493d
00000140: 6fb8 643a 4058 36be b8a4 5abe 3d7a 9c3c
00000150: d3a4 a7be 0849 1a3d 0916 0f3e dbdc a03c
00000160: b258 a3bd ae57 8a3d 1143 c1bd 824d 6b3e
00000170: bda1 e2bd dfc0 283e a5e1 9fbc 685e ca3c
00000180: 3ec2 853d 7ae7 2f3e 8ea5 4f3d 86fb a6bc
00000190: 49ec 883e dd74 213e 8ee4 943d f7f5 e43e
000001a0: 4899 833e 0326 3b3e d68b 2fbc 5c0f 483d
000001b0: 6324 0a3c 678d 3b3e bac9 193e a872 4b3d
000001c0: e2a1 8f3e c765 383e d575 453e f753 ed3d
000001d0: 1291 bd3d 4ea0 57ba 4cda 05be 4fce 833e
000001e0: c38d ed3d cf03 b03e dda3 91bd c292 5e3e
000001f0: 7783 2ebc e834 233e 96a7 0cb9 2090 adbd

lstm.ih.rho_bias f4 [128]
-2.1881492 -2.4196184 -1.8710768 -2.5088496 -2.8731904 -2.4340014 -2.5228238 -1.818264
-1.98304 -1.608087 -2.5942733 -1.7358766 -2.4173424 -2.00993 -2.5961578 -2.8658755
-2.5709038 -2.202083 -2.3570967 -2.582417 -1.9740622 -2.6466491 -2.1249113 -2.3739731
-2.7468665 -2.319936 -2.7881734 -1.9028306 -2.7215614 -2.40224 -2.5579553 -2.571132
-2.370513 -2.8016703 -2.1603367 -2.9650047 -2.7585108 -2.496577 -2.653807 -2.2953396
-2.2549844 -1.7797085 -2.6390893 -1.9579644 -2.6994946 -2.1286345 -2.875074 -2.8279831
-2.5189261 -2.0112154 -2.5574348 -2.4138556 -1.9220876 -2.7128792 -2.3279269 -2.5942974
-2.8228433 -2.3950052 -2.527707 -1.8646134 -2.6621635 -2.8712332 -2.4994297 -2.77017
-2.7266877 -2.9820254 -2.174406 -2.987402 -2.8446627 -2.8776288 -2.6334383 -2.5396988
-2.8998346 -2.3893554 -2.7113788 -2.740098 -2.8658938 -2.5098686 -2.8742216 -3.054806
-2.6904843 -2.561026 -2.6375546 -2.5800912 -2.320007 -2.8704689 -2.4749396 -2.849514
-2.8952708 -2.5977588 -2.866791 -2.3363535 -3.126181 -2.8796794 -3.0455043 -2.9183118
-1.9580082 -2.511385 -2.5793734 -2.7037961 -2.1435373 -1.834963 -2.0257428 -2.6454208
-2.672696 -2.5649488 -1.8006806 -2.6948364 -2.3544934 -2.612839 -2.212783 -1.9968431
-1.7093422 -2.9248028 -2.5795515 -1.9156896 -2.7053695 -2.1975865 -2.3022027 -2.0411952
-2.0021284 -1.8100952 -1.8840753 -2.580491 -2.1638672 -2.3922791 -2.2872913 -2.388637
00000000: a30a 0cc0 07db 1ac0 727f efbf fe90 20c0
00000010: 5ae2 37c0 aec6 1bc0 f275 21c0 e0bc e8bf
00000020: 41d4 fdbf cbd5 cdbf 9308 26c0 3431 debf
00000030: bdb5 1ac0 b1a2 00c0 7327 26c0 816a 37c0
00000040: b089 24c0 eeee 0cc0 acda 16c0 5246 25c0
00000050: 12ae fcbf b362 29c0 8cfe 07c0 2def 17c0
00000060: a9cc 2fc0 d579 14c0 6f71 32c0 f48f f3bf
00000070: 102e 2ec0 4dbe 19c0 8ab5 23c0 6d8d 24c0
00000080: 7cb6 17c0 914e 33c0 f542 0ac0 a3c2 3dc0
00000090: 718b 30c0 ebc7 1fc0 f9d7 29c0 d8e6 12c0
000000a0: aa51 10c0 7dcd e3bf d7e6 28c0 949e fabf
000000b0: 85c4 2cc0 8c3b 08c0 3601 38c0 adfd 34c0
000000c0: 1636 21c0 c1b7 00c0 03ad 23c0 9c7c 1ac0
000000d0: f706 f6bf d09f 2dc0 c1fc 14c0 f808 26c0
000000e0: 77a9 34c0 c447 19c0 f4c5 21c0 a7ab eebf
000000f0: e360 2ac0 49c2 37c0 a8f6 1fc0 774a 31c0
00000100: 0d82 2ec0 81d9 3ec0 7829 0bc0 9831 3fc0
00000110: f40e 36c0 122b 38c0 418a 28c0 6d8a 22c0
00000120: e496 39c0 33eb 18c0 3b87 2dc0 c45d 2fc0
00000130: ce6a 37c0 b0a1 20c0 3ff3 37c0 f181 43c0
00000140: e530 2cc0 dae7 23c0 b2cd 28c0 3720 25c0
00000150: ff7a 14c0 c3b5 37c0 6965 1ec0 705e 36c0
00000160: 1e4c 39c0 ae41 26c0 8179 37c0 d186 15c0
00000170: 5913 48c0 ab4c 38c0 8be9 42c0 9fc5 3ac0
00000180: 03a0 fabf 88ba 20c0 7414 25c0 ff0a 2dc0
00000190: b72f 09c0 11e0 eabf c5a5 01c0 934e 29c0
000001a0: 740d 2bc0 1f28 24c0 b47c e6bf 3378 2cc0
000001b0: 05b0 16c0 c138 27c0 3d9e 0dc0 8e98 ffbf
000001c0: bacb dabf f82f 3bc0 5f17 25c0 5135 f5bf
000001d0: c624 2dc0 42a5 0cc0 4a57 13c0 f1a2 02c0
000001e0: df22 00c0 33b1 e7bf 6129 f1bf c426 25c0
000001f0: cd7c 0ac0 1a1b 19c0 fb62 12c0 6edf 18c0

lstm.hh.mu_weight f4 [128, 32]
-0.013239507 -0.074526854 0.11532007 0.053042118 -0.06467347 -0.0018515524 0.032286707 -0.17343752
0.09384815 0.19307141 -0.06237002 0.06727361 -0.2541823 -0.07749054 0.06148852 -0.050328594
-0.07117026 -0.12914762 -0.16021742 -0.08613153 -0.0004452003 -0.0731514 0.17104295 0.09963818
-0.057709575 0.016541593 0.11952625 -0.010618648 0.06253672 0.041262813 0.035309784 0.13311137
0.03208562 0.20345059 -0.082081854 0.17793639 0.09480088 -0.19156659 0.08433898 -0.03357903
-0.015535096 0.03837813 0.057743024 -0.009038975 -0.20563576 0.1609252 0.12895529 -0.03167947
0.39268485 -0.0011727017 0.09790302 -0.022231834 -0.058543116 0.06642234 -0.12064559 0.3175459
-0.017529054 0.04461999 0.09037479 0.031558506 -0.18495294 0.17745559 0.046376213 -0.012798815
-0.0036217677 0.049291622 0.2643668 0.0666237 0.1782423 0.00922341 0.32307395 -0.3166051
0.214463 0.22503704 -0.10135937 0.28804582 -0.046936378 0.26953807 0.37422153 -0.020604689
-0.12858447 -0.23744011 -0.40151522 0.17553948 -0.25614968 -0.04350106 0.076717585 0.14452331
0.057135597 0.036717214 0.068455875 0.15094188 0.23074791 -0.10005885 -0.090669386 -0.013573892
0.21340644 -0.22024997 -0.08867804 0.23361017 0.022922412 -0.2705894 0.33468765 -0.07274361
-0.05219708 0.0067557488 0.084071144 0.052639138 -0.17200267 0.29135236 -0.19312923 0.21654853
-0.052127603 0.03701034 -0.34196642 -0.06111893 -0.11320499 0.267749 0.06321521 0.0051280335
-0.21457241 -0.27528298 0.16794388 0.122763634 -0.11280088 -0.13333909 -0.081027426 -0.15006842
0.05190185 -0.075161576 0.052512903 -0.0053968453 0.11186585 0.008248987 -0.064568 -0.14318764
-0.015261088 -0.08816111 -0.14758451 -0.11431334 -0.024954386 -0.045486946 0.012127089 -0.11289386
0.043728165 -0.17288789 -0.1296545 -0.013910256 -0.10468661 -0.022368249 0.009319487 -0.045380782
-0.081195556 0.13660873 -0.06542795 0.07425728 -0.08066283 -0.013820645 0.017817052 0.13138
-0.17338866 0.07911722 -0.009694822 -0.04829126 0.0024613277 -0.061236218 0.124588095 -0.16187218
-0.17589109 0.091997825 0.10290709 -0.0062094056 -0.025215361 0.22876641 -0.13775322 -0.12653011
0.09856586 -0.040199745 -0.18438196 -0.06958791 -0.1242572 -0.03196686 0.080643386 -0.21572973
0.006882477 -0.044307835 -0.06924403 0.03820566 0.15258256 -0.1706488 -0.01088353 -0.12360364
-0.09434142 -0.087534145 -0.018911071 -0.07593327 0.11514683 -0.01169826 -0.21726795 0.053567912
-0.110921234 -0.0074495003 0.06897306 -0.09602874 -0.053072352 -0.091801986 0.20926213 -0.050265644
-0.2268316 0.062810495 -0.1733023 -0.0551451 -0.050845142 0.23397404 0.020815827 -0.34616387
-0.10940619 -0.023524795 0.0943609 -0.10627928 -0.10905063 -0.13236088 -0.06266627 -0.19606186
0.003340804 0.20484154 0.06868377 0.119857915 -0.16857138 0.3030051 0.08505931 -0.16871142
0.25738806 0.057294704 -0.32463863 0.16611022 0.028565405 0.16362754 0.11607783 -0.25806665
0.15262124 -0.0789901 0.00019962015 0.05147397 -0.19699608 -0.13937643 -0.040835112 0.22014464
0.2778744 0.04561174 -0.053383987 0.008690118 0.32048437 0.10204714 0.14530557 0.2349984
00000000: 84ea 58bc 89a1 98bd ee2c ec3d b142 593d
00000010: 8673 84bd caaf f2ba 113f 043d 9b99 31be
00000020: 7533 c03d 83b4 453e b577 7fbd bfc6 893d
00000030: 2f24 82be 5cb3 9ebd 63db 7b3d 5b25 4ebd
00000040: b7c1 91bd 463f 04be 0910 24be ba65 b0bd
00000050: c669 e9b9 67d0 95bd e225 2f3e 1a0f cc3d
00000060: e060 6cbd 3c82 873c 2eca f43d d6f9 2dbc
00000070: 4013 803d 3203 293d fea0 103d 594e 083e
00000080: 366c 033d 5a55 503e 881a a8bd f534 363e
00000090: f726 c23d 082a 44be eab9 ac3d 2a8a 09bd
000000a0: ea86 7ebc 6332 1d3d f383 6c3d 3618 14bc
000000b0: 2e92 52be 93c9 243e db0c 043e 55c2 01bd
000000c0: fd0d c93e 57b5 99ba 6181 c83d 891f b6bc
000000d0: e8ca 6fbd 7008 883d 0915 f7bd 6095 a23e
000000e0: 1799 8fbc 73c3 363d 6b16 b93d 7e43 013d
000000f0: 4e64 3dbe ebb6 353e fcf4 3d3d 1fb2 51bc
00000100: 2e5b 6dbb 03e6 493d 165b 873e 0272 883d
00000110: 2685 363e c91d 173c f369 a53e 101a a2be
00000120: 309c 5b3e 1c70 663e 8095 cfbd be7a 933e
00000130: 5c40 40bd e500 8a3e f799 bf3e 2acb a8bc
00000140: a6ab 03be 8023 73be 6793 cdbe 9fc0 333e
00000150: 0d26 83be 2b2e 32bd 1c1e 9d3d ebfd 133e
00000160: 0407 6a3d ca64 163d 9832 8c3d 8290 1a3e
00000170: 2e49 6c3e a8eb ccbd dfb0 b9bd 0865 5ebc
00000180: 3887 5a3e 3589 61be d59c b5bd 8137 6f3e
00000190: c8c7 bb3c b28a 8abe 2e5c ab3e 9afa 94bd
000001a0: 9bcc 55bd 545f dd3b 7e2d ac3d 239c 573d
000001b0: 7821 30be 232c 953e abc3 45be e6be 5d3e
000001c0: c183 55bd 2798 173d 3916 afbe d857 7abd
000001d0: 05d8 e7bd 6616 893e fa76 813d 1009 a83b
000001e0: dfb8 5bbe e4f1 8cbe 7bf9 2b3e 806b fb3d
000001f0: 2604 e7bd 0b8a 08be b5f1 a5bd 89ab 19be
00000200: 0997 543d 50ee 99bd c517 573d 05d8 b0bb
00000210: ec19 e53d c226 073c 3a3c 84bd c89f 12be
00000220: a409 7abc d08d b4bd 6520 17be 1d1d eabd
00000230: 246d ccbc 8550 3abd b3b0 463c e534 e7bd
00000240: 4e1c 333d 8609 31be 26c4 04be d8e7 63bc
00000250: ef65 d6bd 9e3d b7bc c3b0 183c 33e1 39bd
00000260: db49 a6bd 29e3 0b3e 17ff 85bd 3314 983d
00000270: 8e32 a5bd fd6f 62bc 11f5 913c 7b88 063e
00000280: cc8c 31be 3608 a23d 08d7 1ebc 0ecd 45bd
00000290: 3a4e 213b d4d2 7abd 0b28 ff3d d2c1 25be
000002a0: cb1c 34be 5b69 bc3d f4c0 d23d 4578 cbbb
000002b0: 7290 cebc be41 6a3e 2e0f 0dbe 1c91 01be
000002c0: e6dc c93d 7da8 24bd a0ce 3cbe 1b84 8ebd
000002d0: 8f7a febd afef 02bd 5c28 a53d 41e8 5cbe
000002e0: 6786 e13b 227c 35bd d0cf 8dbd 8a7d 1c3d
000002f0: 9a3e 1c3e 8fbe 2ebe d550 32bc e823 fdbd
00000300: 1336 c1bd 1a45 b3bd 64eb 9abc e782 9bbd
00000310: 1ad2 eb3d 0faa 3fbc 7d7b 5ebe 076a 5b3d
00000320: ac2a e3bd f01a f4bb bf41 8d3d b7aa c4bd
00000330: 6562 59bd ae02 bcbd d048 563e 59e3 4dbd
00000340: 8b46 68be caa2 803d 2876 31be d4df 61bd
00000350: ff42 50bd e496 6f3e f485 aa3c 643c b1be
00000360: 5a10 e0bd 12b7 c0bc 4a40 c13d f3a8 d9bd
00000370: f055 dfbd 9c89 07be 2c57 80bd 71c4 48be
00000380: 64f1 5a3b fbc1 513e 14aa 8c3d 1178 f53d
00000390: fa9d 2cbe 7c23 9b3e 9333 ae3d b0c2 2cbe
000003a0: 5ec8 833e daad 6a3d 0937 a6be cc18 2a3e
000003b0: ff01 ea3c fa8d 273e 37ba ed3d 5021 84be
000003c0: be48 1c3e 90c5 a1bd 2051 5139 5fd6 523d
000003d0: 57b9 49be b2b8 0ebe b842 27bd 996d 613e
000003e0: 8e45 8e3e 60d3 3a3d 2ba9 5abd ff60 0e3c
000003f0: 8716 a43e 17fe d03d fcca 143e 6ca3 703e

lstm.hh.rho_weight f4 [128, 32]
-2.9710398 -2.8370976 -3.0588543 -2.742221 -3.0729222 -3.0400872 -2.8684728 -2.9286726
-2.7717102 -2.9165363 -3.1174197 -3.050441 -2.8734126 -2.712302 -2.8540077 -3.0691092
-2.6414583 -2.9706001 -2.8228083 -2.912695 -3.1234534 -2.932475 -2.8860261 -2.934557
-2.9023845 -2.9512148 -2.8395133 -3.1702363 -2.7554996 -2.7863667 -2.8620362 -2.7874956
-2.9716315 -2.888837 -2.8877048 -2.892633 -2.989858 -2.9857128 -2.7609088 -2.7146292
-2.7891147 -2.8743658 -2.8950045 -3.000669 -2.9557004 -2.9785545 -2.948193 -2.934942
-3.1037724 -2.8023994 -2.8722687 -3.1951196 -2.915881 -2.9892194 -2.9580524 -3.0204856
-3.1013873 -2.9015176 -2.9197326 -3.045459 -2.9214327 -2.9718473 -2.9276178 -2.8025427
-2.3416605 -2.5598395 -2.8657367 -2.8102782 -2.589488 -2.259669 -2.6040254 -2.7569215
-2.715785 -2.8110416 -2.4817765 -2.9888766 -2.5798712 -2.6718068 -2.6532958 -2.128007
-2.5042517 -2.8358781 -2.7933292 -2.4660647 -2.5300202 -2.6755786 -2.6176643 -2.5916479
-2.3835404 -2.3887434 -2.2694106 -2.6351542 -2.3045516 -2.6627338 -2.592189 -2.5537155
-2.8494833 -2.735783 -3.0242815 -2.810216 -2.8772542 -2.902943 -2.992187 -2.8662841
-2.7460158 -2.8762596 -2.8808398 -3.0004425 -2.9229953 -2.965574 -2.8465443 -2.7948496
-2.804357 -2.8153775 -2.9251275 -2.9078503 -2.8836777 -2.91654 -2.8665297 -2.8878326
-2.8908947 -2.8224413 -2.954179 -2.9980998 -3.0166476 -3.0676198 -2.9086215 -2.9138722
-2.794833 -2.9419112 -2.931361 -2.7241004 -2.8621576 -2.8030667 -2.863158 -2.9715886
-2.84537 -2.6926734 -2.9690018 -2.8607895 -3.208342 -2.8825812 -2.8584046 -2.8386662
-2.9110868 -3.0068831 -3.040755 -2.9537668 -3.1627753 -3.064824 -3.056604 -2.7833345
-2.746631 -2.7969139 -3.0106165 -2.998184 -2.9519565 -2.8557847 -2.9905517 -2.8764162
-2.9115825 -2.8934243 -3.138022 -2.9528077 -2.9106946 -3.1748793 -2.8277266 -2.8850868
-3.1997008 -2.9723067 -2.7715116 -3.0689855 -2.9704454 -2.741335 -2.8461797 -2.8843627
-3.0288527 -2.8582087 -2.955811 -2.946836 -2.694713 -2.9651184 -2.8581665 -2.971424
-2.8627481 -3.0305104 -3.102124 -2.9419115 -3.0637639 -2.9352813 -3.2625418 -2.6512516
-3.0748847 -2.9457262 -2.9018705 -3.0966704 -2.9194498 -2.7697694 -2.7380738 -2.9745042
-2.912021 -3.210767 -2.9739795 -2.9816828 -2.952709 -3.1105053 -2.745824 -3.103901
-2.9339602 -2.879505 -3.10135 -2.9606552 -2.9484997 -2.9162893 -2.888588 -2.9323702
-3.030963 -3.042764 -3.0382702 -2.9263356 -3.0212317 -2.9939115 -2.938033 -2.9456701
-2.27611 -2.7124274 -2.924934 -2.8803108 -2.7627788 -2.387811 -2.3383882 -2.837092
-2.8239608 -2.7264466 -2.4108021 -2.9194672 -2.8097918 -2.7860148 -2.695164 -2.095834
-2.4414878 -2.689337 -2.7577686 -2.5782568 -2.5198374 -2.602475 -2.7002163 -2.4676101
-2.476783 -2.3395011 -2.469034 -2.8658051 -2.495652 -2.5061383 -2.7646048 -2.5178611
00000000: 8425 3ec0 0293 35c0 45c4 43c0 8d80 2fc0
00000010: c2aa 44c0 ca90 42c0 0f95 37c0 5f6f 3bc0
00000020: b363 31c0 88a8 3ac0 ce83 47c0 6d3a 43c0
00000030: fee5 37c0 5b96 2dc0 10a8 36c0 496c 44c0
00000040: a70d 29c0 501e 3ec0 e4a8 34c0 9869 3ac0
00000050: a9e6 47c0 acad 3bc0 a7b4 38c0 c8cf 3bc0
00000060: abc0 39c0 b4e0 3cc0 96ba 35c0 27e5 4ac0
00000070: 1b5a 30c0 d553 32c0 9a2b 37c0 5466 32c0
00000080: 362f 3ec0 b5e2 38c0 28d0 38c0 e620 39c0
00000090: d559 3fc0 eb15 3fc0 bbb2 30c0 7cbc 2dc0
000000a0: db80 32c0 9cf5 37c0 c147 39c0 f60a 40c0
000000b0: 322a 3dc0 a3a0 3ec0 32af 3cc0 17d6 3bc0
000000c0: 35a4 46c0 835a 33c0 40d3 37c0 d77c 4cc0
000000d0: cb9d 3ac0 5f4f 3fc0 bb50 3dc0 a34f 41c0
000000e0: 217d 46c0 77b2 39c0 e6dc 3ac0 cde8 42c0
000000f0: c1f8 3ac0 bf32 3ec0 175e 3bc0 dc5c 33c0
00000100: c4dd 15c0 69d4 23c0 3b68 37c0 99db 33c0
00000110: 2cba 25c0 6b9e 10c0 5aa8 26c0 6771 30c0
00000120: 6ccf 2dc0 1be8 33c0 6dd5 1ec0 c149 3fc0
00000130: 9c1c 25c0 e2fe 2ac0 99cf 29c0 4431 08c0
00000140: a945 20c0 077f 35c0 e8c5 32c0 01d4 1dc0
00000150: daeb 21c0 ae3c 2bc0 d087 27c0 8fdd 25c0
00000160: ed8b 18c0 2ce1 18c0 063e 11c0 5ea6 28c0
00000170: c67d 13c0 3b6a 2ac0 6de6 25c0 1370 23c0
00000180: ef5d 36c0 1217 2fc0 d48d 41c0 94da 33c0
00000190: ef24 38c0 d1c9 39c0 fe7f 3fc0 3371 37c0
000001a0: b9be 2fc0 a314 38c0 ae5f 38c0 4007 40c0
000001b0: 5b12 3bc0 f7cb 3dc0 c82d 36c0 d1de 32c0
000001c0: 967a 33c0 252f 34c0 4a35 3bc0 381a 3ac0
000001d0: 2d8e 38c0 97a8 3ac0 3975 37c0 40d2 38c0
000001e0: 6b04 39c0 e1a2 34c0 4511 3dc0 dee0 3fc0
000001f0: c110 41c0 e253 44c0 db26 3ac0 e27c 3ac0
00000200: 8bde 32c0 4648 3cc0 6b9b 3bc0 a957 2ec0
00000210: 972d 37c0 7265 33c0 fb3d 37c0 822e 3ec0
00000220: 8b1a 36c0 c354 2cc0 2004 3ec0 2d17 37c0
00000230: 7a55 4dc0 367c 38c0 1af0 36c0 b5ac 35c0
00000240: 3f4f 3ac0 c670 40c0 bb9b 42c0 840a 3dc0
00000250: e96a 4ac0 1426 44c0 669f 43c0 2722 32c0
00000260: cdc8 2fc0 a300 33c0 f1ad 40c0 3fe2 3fc0
00000270: dbec 3cc0 2dc5 36c0 3365 3fc0 3417 38c0
00000280: 5e57 3ac0 dd2d 39c0 5ad5 48c0 cdfa 3cc0
00000290: d248 3ac0 3931 4bc0 79f9 34c0 43a5 38c0
000002a0: e6c7 4cc0 463a 3ec0 7260 31c0 426a 44c0
000002b0: c71b 3ec0 0872 2fc0 cf27 36c0 6699 38c0
000002c0: b9d8 41c0 e4ec 36c0 022c 3dc0 f698 3cc0
000002d0: 2e76 2cc0 80c4 3dc0 33ec 36c0 d02b 3ec0
000002e0: 4437 37c0 e2f3 41c0 3389 46c0 4748 3cc0
000002f0: b514 44c0 a6db 3bc0 7ccd 50c0 1bae 29c0
00000300: e9ca 44c0 c786 3cc0 3fb8 39c0 d92f 46c0
00000310: 44d8 3ac0 e743 31c0 9a3c 2fc0 475e 3ec0
00000320: 8d5e 3ac0 357d 4dc0 ae55 3ec0 e4d3 3ec0
00000330: 2ff9 3cc0 8512 47c0 95bb 2fc0 50a6 46c0
00000340: 01c6 3bc0 cf49 38c0 857c 46c0 607b 3dc0
00000350: 38b4 3cc0 7ca4 3ac0 a0de 38c0 f4ab 3bc0
00000360: 4cfb 41c0 a5bc 42c0 0573 42c0 1549 3bc0
00000370: dc5b 41c0 3f9c 3fc0 bc08 3cc0 dc85 3cc0
00000380: c9ab 11c0 6998 2dc0 1e32 3bc0 0357 38c0
00000390: 5ed1 30c0 e5d1 18c0 27a8 15c0 ea92 35c0
000003a0: c6bb 34c0 1a7e 2ec0 954a 1ac0 8dd8 3ac0
000003b0: a1d3 33c0 114e 32c0 917d 2cc0 2522 06c0
000003c0: 5641 1cc0 191e 2cc0 487f 30c0 2902 25c0
000003d0: 0445 21c0 f38e 26c0 58d0 2cc0 53ed 1dc0
000003e0: 9d83 1ec0 63ba 15c0 a704 1ec0 5a69 37c0
000003f0: c3b8 1fc0 9264 20c0 49ef 30c0 a324 21c0

lstm.hh.mu_bias f4 [128]
0.2509744 0.046361748 0.10707193 -0.025900377 0.15302289 -0.11421456 -0.07693263 0.25945896
0.23250628 0.16510235 -0.09351999 0.27583063 0.15040775 0.17818847 0.10610938 -0.13525519
-0.10264462 0.29224604 0.21742229 -0.09611114 -0.13645016 0.07571561 0.29258168 -0.16539037
0.025273895 0.08794858 -0.1335891 0.018080592 -0.06316295 -0.052446436 0.26724994 -0.056692306
-0.035697673 -0.05633519 0.08406283 -0.074447475 -0.11733445 -0.0036809468 0.25454098 0.37615764
-0.04069643 0.27612472 -0.17564717 0.2693066 0.017538816 0.16385975 -0.06672547 -0.063132554
0.1370137 0.26144892 0.032041043 -0.040427793 0.24933718 0.0074744225 -0.0031395932 0.18705407
0.2017053 0.16642642 0.06374147 0.17089401 0.09468197 -0.094228305 -0.035228547 0.20072593
0.104525 -0.011856341 0.2345677 -0.060863875 0.11093948 0.082406245 0.108475186 -0.25196683
0.25513524 0.20343049 -0.024328927 0.048644695 0.10294991 0.13885842 0.18899348 0.1771748
-0.06789521 -0.28662834 -0.17169313 0.0836398 -0.025382563 0.052436408 -0.010781219 0.23150873
0.13477853 -0.058027662 0.079752475 0.313189 -0.083500005 -0.065245144 -0.21785446 -0.07911078
0.12086637 -0.0012006138 0.19543946 0.23696451 0.29758358 0.07210222 0.35144326 0.21187294
0.23637243 0.17804639 0.1249626 0.124859296 -0.047468226 0.19127573 0.28684667 0.20581146
0.29974636 -0.004287933 0.15721165 0.044487253 0.100391686 0.21528867 0.042064082 0.13638955
0.05277132 0.23541556 0.20551033 0.29182938 0.056962457 -0.044778954 0.09006278 0.018988343
00000000: b77f 803e d1e5 3d3d 8748 db3d 072d d4bc
00000010: 08b2 1c3e 53e9 e9bd db8e 9dbd ced7 843e
00000020: 2016 6e3e 9710 293e 6987 bfbd ac39 8d3e
00000030: 7d04 1a3e 0a77 363e e04f d93d 5680 0abe
00000040: 5837 d2bd 46a1 953e f3a3 5e3e ebd5 c4bd
00000050: 97b9 0bbe c910 9b3d 44cd 953e 185c 29be
00000060: 330b cf3c 631e b43d 95cb 08be c01d 943c
00000070: 945b 81bd 13d2 56bd fcd4 883e 3136 68bd
00000080: b937 12bd babf 66bd 2229 ac3d eb77 98bd
00000090: 0b4d f0bd 0a3c 71bb 3253 823e bc97 c03e
000000a0: 4db1 26bd 3860 8d3e dadc 33be 8ee2 893e
000000b0: 90ad 8f3c daca 273e 5da7 88bd a44b 81bd
000000c0: 524d 0c3e a2dc 853e 783d 033d 9d97 25bd
000000d0: 3f52 7f3e 00ec f43b a2c1 4dbb 1a8b 3f3e
000000e0: d68b 4e3e b06b 2a3e e38a 823d d7fe 2e3e
000000f0: 9fe8 c13d c5fa c0bd cf4b 10bd 198b 4d3e
00000100: 3411 d63d 1941 42bc 8432 703e 664c 79bd
00000110: 3d34 e33d 9bc4 a83d 3d28 de3d cc01 81be
00000120: 16a1 823e 1550 503e 754d c7bc a93f 473d
00000130: 67d7 d23d e730 0e3e 8287 413e 506d 353e
00000140: a50c 8bbd f3c0 92be 53d0 2fbe 584b ab3d
00000150: 18ef cfbc 8fc7 563d b6a3 30bc a010 6d3e
00000160: 6203 0a3e 6aae 6dbd 4455 a33d 4f5a a03e
00000170: 0d02 abbd 3f9f 85bd 3d15 5fbe d504 a2bd
00000180: ca88 f73d ea5d 9dba 4821 483e d3a6 723e
00000190: e05c 983e 54aa 933d 5ff0 b33e 38f5 583e
000001a0: 9d0b 723e cb51 363e 64ec ff3d 3bb6 ff3d
000001b0: 0b6e 42bd c9dd 433e 91dd 923e 3dc0 523e
000001c0: 5b78 993e ca81 8cbb 17fc 203e 4438 363d
000001d0: 289a cd3d a274 5c3e 634b 2c3d b4a9 0b3e
000001e0: bd26 583d c710 713e 4d71 523e a96a 953e
000001f0: 7751 693d 236a 37bd d672 b83d 718d 9b3c

lstm.hh.rho_bias f4 [128]
-2.3310752 -2.5875347 -1.9166075 -2.5239966 -2.9101558 -2.471711 -2.4810512 -1.8561044
-2.076007 -1.7771155 -2.5172298 -1.7743819 -2.4595237 -1.9482199 -2.7765138 -2.7948506
-2.5416286 -1.8609964 -2.4563313 -2.3536968 -2.1243634 -2.5642285 -2.0366096 -2.4032297
-2.904591 -2.2412708 -2.5277145 -1.8310056 -2.5578465 -2.6488025 -2.35891 -2.4675565
-2.5165906 -2.719547 -1.9983783 -2.6672432 -2.792239 -2.653842 -2.4636343 -2.0472312
-2.317224 -1.6863229 -2.6649628 -1.8567747 -2.9901254 -2.0548704 -2.7502775 -2.6290114
-2.5965545 -2.1536264 -2.6821659 -2.5801775 -1.9385383 -2.5405905 -2.3565588 -2.594445
-2.7394996 -2.5388856 -2.7123077 -1.7435126 -2.7867687 -2.5824034 -2.4707735 -2.5804548
-2.794122 -2.778977 -2.353538 -3.0225785 -3.0236197 -2.7920287 -2.3699992 -2.4127748
-2.7915313 -2.391689 -2.8174582 -2.6283057 -2.9928865 -2.654778 -2.6714733 -2.8386743
-2.9284189 -2.6635234 -2.6751816 -2.650329 -2.3199553 -2.9504893 -2.5948129 -2.9370713
-2.843689 -2.622654 -2.916789 -2.189712 -2.9423673 -2.8890138 -3.1161397 -2.9449327
-1.811497 -2.3634248 -2.472605 -2.5253463 -2.156895 -1.6638141 -2.030147 -2.6628225
-2.4167106 -2.5554783 -1.9430561 -2.5795233 -2.4491189 -2.8745046 -2.0402644 -2.0684638
-1.7975599 -2.7890236 -2.6640716 -1.8296115 -2.6789792 -2.2388701 -2.2263265 -1.9122539
-1.9921548 -1.7517986 -1.8378993 -2.5471818 -2.2264411 -2.4039342 -2.141774 -2.3961165
00000000: 5630 15c0 2b9a 25c0 6553 f5bf 2989 21c0
00000010: fe3f 3ac0 8330 1ec0 8bc9 1ec0 d494 edbf
00000020: 4cdd 04c0 8578 e3bf 4b1a 21c0 f21e e3bf
00000030: d668 1dc0 455f f9bf 67b2 31c0 d5de 32c0
00000040: 0baa 22c0 2135 eebf 8834 1dc0 f8a2 16c0
00000050: 92f5 07c0 521c 24c0 d057 02c0 84ce 19c0
00000060: d2e4 39c0 fb70 0fc0 13c6 21c0 645e eabf
00000070: c2b3 23c0 fb85 29c0 62f8 16c0 72ec 1dc0
00000080: d20f 21c0 0f0d 2ec0 dcca ffbf 1db4 2ac0
00000090: 0bb4 32c0 8cd8 29c0 2fac 1dc0 d605 03c0
000000a0: 664d 14c0 6ed9 d7bf c08e 2ac0 cbaa edbf
000000b0: 375e 3fc0 ff82 03c0 8c04 30c0 b941 28c0
000000c0: f32d 26c0 04d5 09c0 9ba8 2bc0 a121 25c0
000000d0: 0622 f8bf 0999 22c0 dcd1 16c0 630b 26c0
000000e0: f653 2fc0 1a7d 22c0 7396 2dc0 6c2b dfbf
000000f0: 6b5a 32c0 1946 25c0 2721 1ec0 2c26 25c0
00000100: e5d2 32c0 c2da 31c0 5ea0 16c0 ed71 41c0
00000110: fc82 41c0 99b0 32c0 11ae 17c0 e76a 1ac0
00000120: 73a8 32c0 6f11 19c0 3c51 34c0 2936 28c0
00000130: 748b 3fc0 e2e7 29c0 6bf9 2ac0 d7ac 35c0
00000140: 376b 3bc0 2b77 2ac0 2d36 2bc0 fe9e 29c0
00000150: 267a 14c0 d1d4 3cc0 6a11 26c0 faf8 3bc0
00000160: 00ff 35c0 90d9 27c0 acac 3ac0 3e24 0cc0
00000170: bf4f 3cc0 9ae5 38c0 d56e 47c0 c779 3cc0
00000180: 22df e7bf 5a42 17c0 293f 1ec0 469f 21c0
00000190: 910a 0ac0 dcf7 d4bf eeed 01c0 af6b 2ac0
000001a0: 63ab 1ac0 f58c 23c0 10b6 f8bf e916 25c0
000001b0: 5dbe 1cc0 e2f7 37c0 b193 02c0 b661 04c0
000001c0: 7116 e6bf 5d7f 32c0 2680 2ac0 b630 eabf
000001d0: 6574 2bc0 a649 0fc0 227c 0ec0 bcc4 f4bf
000001e0: eefe febf f03a e0bf 4940 ebbf 0705 23c0
000001f0: 037e 0ec0 0fda 19c0 d312 09c0 f959 19c0

l1.mu_weight f4 [16, 32]
-0.3210747 0.35960984 -0.42266136 0.40135625 -0.48766604 0.435778 -0.43680176 0.36232293
-0.41999906 -0.3077371 -0.4132425 -0.5286312 0.42520663 -0.40243918 -0.26972964 -0.359147
0.2565332 0.5149654 0.45504645 -0.3679818 0.55755234 -0.46925312 -0.32674232 0.14922899
0.65659356 0.2731508 -0.41381472 -0.49196258 0.20870301 0.4728922 0.46929118 0.61367184
0.4949803 -0.44197553 0.46848035 -0.3993384 0.4045406 -0.56602496 0.32925695 -0.33118972
0.5908403 0.35089168 0.49196184 0.47136956 -0.25812644 0.54813707 0.41755256 0.45174387
-0.25142905 -0.5152576 -0.38870916 0.51911634 -0.3390816 0.40445316 0.47577867 -0.36913452
-0.49106258 -0.37605536 0.5351117 0.35063514 -0.4029986 -0.6278456 -0.5018221 -0.4701184
0.597528 -0.24086818 0.47624058 -0.37923902 0.46847737 -0.35208 0.31792313 -0.44840193
0.3771778 0.41252312 0.28883684 0.34105617 -0.5330005 0.6498791 0.54846627 0.38583827
-0.3519035 -0.43136242 -0.4648773 0.44291714 -0.598147 0.47657093 0.37853545 0.04283376
-0.60314924 -0.5083125 0.5673376 0.4136595 -0.4798523 -0.51264143 -0.46867755 -0.52854925
0.4196852 -0.58437586 0.19663319 -0.2881703 0.41698447 -0.52779675 0.22755697 -0.5075975
0.56025696 0.2234763 0.26749414 0.42513064 -0.45189992 0.4490351 0.37466577 0.47942558
-0.32653975 -0.5301952 -0.48577175 0.4974477 -0.41867447 0.52197796 0.38203177 -0.25240287
-0.4582881 -0.31565264 0.45509923 0.6545593 -0.3431776 -0.59251845 -0.37985697 -0.5051648
0.29002407 -0.62050486 0.46309003 -0.53834087 0.48797566 -0.346748 0.31909576 -0.52539617
0.24174988 0.6661547 0.4117993 0.44028252 -0.46072704 0.3423062 0.3708617 0.3949683
-0.4046528 -0.5044455 -0.28428513 0.64373857 -0.46960378 0.53285825 0.55209357 -0.11025568
-0.43157712 -0.37293145 0.53417677 0.503764 -0.5860562 -0.26206014 -0.589247 -0.32539633
0.4651348 -0.4242537 0.5896712 -0.37267327 0.47330558 -0.42558044 0.36923108 -0.42255452
0.41469294 0.39749384 0.33439255 0.37452134 -0.3805258 0.5826916 0.53672814 0.42907757
-0.15142763 -0.47851276 -0.573667 0.3968713 -0.24076293 0.63851684 0.5292342 -0.4071867
-0.5538375 -0.40322855 0.38360357 0.48614353 -0.5737867 -0.4375266 -0.60818124 -0.36549172
0.45438567 -0.46700644 0.40203092 -0.44859287 0.41310006 -0.24305208 0.49143347 -0.44930616
0.33795196 0.48696807 0.51300913 0.54700977 -0.4796943 0.43194672 0.53711885 0.387295
-0.39907858 -0.34511885 -0.47221047 0.34214702 -0.6045336 0.35362795 0.42189384 -0.37101465
-0.40086284 -0.39199546 0.4348899 0.36310732 -0.41843376 -0.45136827 -0.57751834 -0.43529174
0.54274637 -0.30301914 0.662424 -0.3389417 0.50899357 -0.39329192 0.37493175 -0.47252694
0.36225402 0.5713864 0.45797417 0.48112354 -0.40857533 0.31902915 0.45517293 0.4578869
-0.487064 -0.47159117 -0.52916247 0.49186164 -0.53272355 0.47045884 0.323975 -0.21027799
-0.56810904 -0.3074909 0.5332976 0.45103547 -0.51094097 -0.5257445 -0.68236434 -0.3930858
00000000: e763 a4be c81e b83e 1267 d8be 917e cd3e
00000010: 5daf f9be 4b1e df3e 7ba4 dfbe 6482 b93e
00000020: 1e0a d7be b88f 9dbe 8594 d3be 6054 07bf
00000030: afb4 d93e 820c cebe 011a 8abe 1ee2 b7be
00000040: 5258 833e c6d4 033f d9fb e83e 1c68 bcbe
00000050: c0bb 0e3f f241 f0be c54a a7be 7ccf 183e
00000060: 8416 283f 6cda 8b3e 86df d3be 85e2 fbbe
00000070: 3eb6 553e ed1e f23e ef46 f03e 9919 1d3f
00000080: 0f6e fd3e 9e4a e2be a8dc ef3e 1576 ccbe
00000090: f21f cf3e 03e7 10bf 5e94 a83e b391 a9be
000000a0: 4f41 173f 13a8 b33e 6ce2 fb3e 5a57 f13e
000000b0: 2629 84be b652 0c3f 73c9 d53e f94a e73e
000000c0: 4fbb 80be ece7 03bf e304 c7be cfe4 043f
000000d0: 1a9c adbe 7c14 cf3e 4399 f33e 33ff bcbe
000000e0: 8e6c fbbe 548a c0be 15fd 083f 7386 b33e
000000f0: d555 cebe 7dba 20bf 6a77 00bf 5cb3 f0be
00000100: 98f7 183f 26a6 76be ced5 f33e 9e2b c2be
00000110: 44dc ef3e d443 b4be d2c6 a23e f094 e5be
00000120: 731d c13e 3b36 d33e 6ce2 933e ea9e ae3e
00000130: b972 08bf 7a5e 263f 4968 0c3f 988c c53e
00000140: b22c b4be 89db dcbe 6604 eebe 09c6 e23e
00000150: 2920 19bf 1b01 f43e 66cf c13e 7472 2f3d
00000160: fd67 1abf c520 02bf 093d 113f 2ecb d33e
00000170: 33af f5be 783c 03bf 81f6 efbe 014f 07bf
00000180: fbe0 d63e a899 15bf 365a 493e 0f8b 93be
00000190: fd7e d53e b01d 07bf b204 693e e9f1 01bf
000001a0: 006d 0f3f f9d6 643e fef4 883e b9aa d93e
000001b0: 6d5f e7be eee7 e53e 31d4 bf3e 4577 f53e
000001c0: 3830 a7be dfba 07bf 13b7 f8be 77b1 fe3e
000001d0: 805c d6be 59a0 053f ab99 c33e f33a 81be
000001e0: bda4 eabe 399d a1be c402 e93e 3391 273f
000001f0: f9b4 afbe 4aaf 17bf 9d7c c2be 7b52 01bf
00000200: 097e 943e 68d9 1ebf 231a ed3e b5d0 09bf
00000210: f2d7 f93e f488 b1be 8560 a33e 5d80 06bf
00000220: 488d 773e 1d89 2a3f 5cd7 d23e b66c e13e
00000230: 6ae4 ebbe c242 af3e 96e1 bd3e 4939 ca3e
00000240: a72e cfbe 5723 01bf d28d 91be 0dcc 243f
00000250: e86f f0be 6669 083f 0156 0d3f bbcd e1bd
00000260: adf7 dcbe dff0 bebe cfbf 083f adf6 003f
00000270: c707 16bf bf2c 86be e4d8 16bf 599a a6be
00000280: 2626 ee3e c837 d9be b1f4 163f 08cf bebe
00000290: 1c55 f23e aee5 d9be db0b bd3e 1159 d8be
000002a0: a252 d43e 5084 cb3e 8035 ab3e 43c1 bf3e
000002b0: 47d4 c2be 472b 153f 0467 093f 0eb0 db3e
000002c0: d80f 1bbe a0ff f4be d7db 12bf b732 cb3e
000002d0: 8f8a 76be d775 233f e47b 073f c67a d0be
000002e0: 4bc8 0dbf f973 cebe b067 c43e cee7 f83e
000002f0: afe3 12bf 7d03 e0be c4b1 1bbf bb21 bbbe
00000300: 3da5 e83e 781b efbe ffd6 cd3e f7ad e5be
00000310: da81 d33e a5e2 78be 2b9d fb3e 750b e6be
00000320: 0a08 ad3e e153 f93e 9154 033f d508 0c3f
00000330: 7e9a f5be 1f28 dd3e 9f80 093f 884b c63e
00000340: 0754 ccbe 6bb3 b0be 92c5 f1be e52d af3e
00000350: b7c2 1abf b90e b53e 7802 d83e a2f5 bdbe
00000360: e53d cdbe a1b3 c8be e4a9 de3e 34e9 b93e
00000370: f33c d6be be19 e7be 3ed8 13bf 8fde debe
00000380: 6df1 0a3f 5325 9bbe 9f94 293f c489 adbe
00000390: 674d 023f 8f5d c9be 0ef7 bf3e 0def f1be
000003a0: 5c79 b93e 6146 123f 977b ea3e d355 f63e
000003b0: c930 d1be ca57 a33e 6d0c e93e 2770 ea3e
000003c0: 7460 f9be 6674 f1be 3177 07bf 4ad5 fb3e
000003d0: 9260 08bf fbdf f03e 0de0 a53e 1d53 57be
000003e0: 986f 11bf 726f 9dbe 3186 083f 1fee e63e
000003f0: 07cd 02bf 3197 06bf 6eaf 2ebf 8b42 c9be

l1.rho_weight f4 [16, 32]
-2.9011319 -2.7968485 -3.2027664 -2.8493528 -2.9961104 -2.9267106 -3.0799868 -2.914385
-2.9077702 -2.9704978 -2.9255157 -3.050998 -2.9139917 -3.0053837 -2.9954875 -3.0325804
-2.9938695 -3.092777 -3.1759305 -2.9172235 -2.9355466 -3.0422559 -2.997946 -3.0070589
-2.8791149 -2.9858685 -2.7851865 -2.926166 -3.033282 -3.0086198 -3.046978 -3.0429509
-2.8732173 -2.9618068 -2.9184937 -2.896474 -3.013303 -2.941852 -2.9336174 -2.8967547
-3.021017 -2.9111707 -2.940125 -2.9622898 -2.9566786 -2.9280539 -2.9356534 -2.6971714
-3.0824084 -2.976994 -3.0193336 -2.9862568 -3.1318252 -2.998754 -2.8629682 -3.1939628
-3.1908393 -2.88972 -2.9485397 -2.8153446 -3.1298342 -3.0126033 -2.9770122 -3.0312777
-3.188717 -2.8222482 -3.1380055 -2.9856992 -3.0344372 -2.8821871 -3.1157782 -2.948046
-2.9869335 -2.946435 -2.8431902 -2.8983898 -2.8850856 -3.097142 -3.052179 -2.7870317
-3.0536697 -2.943759 -2.966408 -2.8780842 -2.9073682 -3.0227284 -2.8739297 -3.098481
-2.7659192 -3.1351876 -3.0128493 -3.177958 -2.9301708 -2.929508 -3.0415614 -2.869408
-2.958925 -3.1371315 -2.9581556 -2.957404 -2.8587332 -2.918519 -2.8746793 -2.8864377
-2.9576406 -2.936673 -2.989249 -3.0729825 -2.952393 -3.1009762 -3.04572 -3.0089731
-2.8574781 -2.86354 -3.2066138 -2.7430713 -2.9257972 -3.0230112 -3.1930275 -3.0128138
-3.1188335 -3.0867882 -3.1725187 -2.8621125 -3.062364 -3.0265367 -3.2013786 -2.9954193
-2.8992093 -3.157496 -3.0095112 -2.9342752 -3.1563568 -2.947806 -2.9660118 -2.8258307
-2.8721185 -2.7900882 -2.9072556 -3.029615 -2.9639423 -2.9778697 -3.0592108 -3.0256429
-3.0463226 -2.9951506 -2.984097 -2.941688 -2.9193995 -2.938525 -3.143236 -2.9719849
-2.8732512 -2.8491914 -2.99791 -3.047771 -2.8178198 -3.1390922 -2.9427469 -2.767524
-2.9175987 -2.9463477 -2.9333715 -3.0063996 -3.0621603 -2.7670314 -2.8827477 -2.9740949
-3.1064837 -3.0218909 -3.112954 -3.003781 -2.891529 -2.932143 -2.8165324 -2.9251726
-2.978112 -2.8459132 -2.9668584 -3.191851 -2.9675229 -3.1434917 -3.0878232 -2.9874175
-2.8917053 -2.9971185 -3.1373634 -2.928748 -2.8978627 -3.1128483 -2.8653924 -2.869453
-3.0983489 -3.0791183 -3.1051285 -3.0133734 -3.0728233 -3.0174682 -3.1914217 -3.012955
-2.9221117 -3.052198 -2.9860144 -3.1066992 -2.9421296 -2.917912 -3.067627 -2.8841362
-3.0379272 -3.0852706 -2.9077685 -3.019537 -3.1325893 -2.908812 -3.0674236 -3.01172
-3.1722283 -2.8954456 -3.0644805 -2.922967 -2.950191 -3.0757635 -2.94514 -3.0375762
-3.0626967 -3.0487576 -2.9075456 -3.1077313 -2.9842234 -3.22677 -2.945078 -3.049319
-2.9034479 -2.877149 -2.9202445 -2.9578109 -2.971724 -3.018041 -3.1657317 -3.0879138
-2.9071567 -3.126617 -3.0604048 -2.937677 -3.1552901 -2.990252 -2.9571424 -3.0053616
-2.8932445 -2.9025462 -3.0237603 -3.1855533 -2.7922251 -2.7521546 -3.1488528 -2.975003
00000000: 25ac 39c0 91ff 32c0 20fa 4cc0 cc5b 36c0
00000010: 46c0 3fc0 3a4f 3bc0 811e 45c0 4985 3ac0
00000020: e818 3ac0 a31c 3ec0 a63b 3bc0 8d43 43c0
00000030: d77e 3ac0 3558 40c0 11b6 3fc0 cc15 42c0
00000040: 8f9b 3fc0 0ff0 45c0 7242 4bc0 cab3 3ac0
00000050: ffdf 3bc0 52b4 42c0 59de 3fc0 a773 40c0
00000060: 6b43 38c0 7818 3fc0 7f40 32c0 4e46 3bc0
00000070: 4b21 42c0 3a8d 40c0 b001 43c0 b5bf 42c0
00000080: cbe2 37c0 3e8e 3dc0 9ac8 3ac0 d45f 39c0
00000090: f5d9 40c0 4e47 3cc0 63c0 3bc0 6e64 39c0
000000a0: 5858 41c0 9f50 3ac0 022b 3cc0 2896 3dc0
000000b0: 393a 3dc0 3c65 3bc0 bfe1 3bc0 759e 2cc0
000000c0: 2e46 45c0 1287 3ec0 c33c 41c0 d51e 3fc0
000000d0: d36f 48c0 96eb 3fc0 df3a 37c0 e369 4cc0
000000e0: b636 4cc0 2cf1 38c0 e0b4 3cc0 9b2e 34c0
000000f0: 344f 48c0 7ece 40c0 5e87 3ec0 7400 42c0
00000100: f013 4cc0 b79f 34c0 15d5 48c0 b215 3fc0
00000110: 3834 42c0 c175 38c0 e968 47c0 c9ac 3cc0
00000120: eb29 3fc0 6492 3cc0 d4f6 35c0 387f 39c0
00000130: 3ea5 38c0 9337 46c0 e756 43c0 ba5e 32c0
00000140: 536f 43c0 8c66 3cc0 a1d9 3dc0 8832 38c0
00000150: 5212 3ac0 6274 41c0 77ee 37c0 834d 46c0
00000160: d204 31c0 eaa6 48c0 86d2 40c0 aa63 4bc0
00000170: eb87 3bc0 0f7d 3bc0 f1a8 42c0 61a4 37c0
00000180: 075f 3dc0 c3c6 48c0 6c52 3dc0 1b46 3dc0
00000190: 7cf5 36c0 04c9 3ac0 bffa 37c0 65bb 38c0
000001a0: fc49 3dc0 73f2 3bc0 db4f 3fc0 bfab 44c0
000001b0: 02f4 3cc0 6576 46c0 14ed 42c0 0493 40c0
000001c0: ece0 36c0 3d44 37c0 2939 4dc0 7b8e 2fc0
000001d0: 4340 3bc0 0479 41c0 905a 4cc0 f1d1 40c0
000001e0: f89a 47c0 f08d 45c0 8c0a 4bc0 da2c 37c0
000001f0: c6fd 43c0 c7b2 41c0 63e3 4cc0 f3b4 3fc0
00000200: a58c 39c0 6a14 4ac0 d59b 40c0 2acb 3bc0
00000210: c001 4ac0 daa8 3cc0 23d3 3dc0 69da 34c0
00000220: cad0 37c0 ce90 32c0 7a10 3ac0 36e5 41c0
00000230: 3bb1 3dc0 6b95 3ec0 1cca 43c0 22a4 41c0
00000240: f3f6 42c0 8cb0 3fc0 72fb 3ec0 9e44 3cc0
00000250: 71d7 3ac0 cb10 3cc0 c72a 49c0 0035 3ec0
00000260: 59e3 37c0 2759 36c0 c2dd 3fc0 ae0e 43c0
00000270: 2957 34c0 e3e6 48c0 f755 3cc0 1d1f 31c0
00000280: f0b9 3ac0 f690 3cc0 5cbc 3bc0 da68 40c0
00000290: 6ffa 43c0 0b17 31c0 f07e 38c0 9257 3ec0
000002a0: a1d0 46c0 a966 41c0 a33a 47c0 f33d 40c0
000002b0: d00e 39c0 3ba8 3bc0 1142 34c0 0736 3bc0
000002c0: 6399 3ec0 7123 36c0 02e1 3dc0 4947 4cc0
000002d0: e5eb 3dc0 f82e 49c0 e59e 45c0 d931 3fc0
000002e0: b311 39c0 cad0 3fc0 90ca 48c0 9b70 3bc0
000002f0: 9576 39c0 e838 47c0 9762 37c0 1ea5 37c0
00000300: 594b 46c0 4610 45c0 6dba 46c0 1cdb 40c0
00000310: 23a9 44c0 331e 41c0 4140 4cc0 41d4 40c0
00000320: e103 3bc0 3657 43c0 dc1a 3fc0 29d4 46c0
00000330: da4b 3cc0 12bf 3ac0 0054 44c0 b095 38c0
00000340: 666d 42c0 1375 45c0 e118 3ac0 1840 41c0
00000350: 587c 48c0 fa29 3ac0 ab50 44c0 05c0 40c0
00000360: ca05 4bc0 fb4e 39c0 7320 44c0 e411 3bc0
00000370: eecf 3cc0 4fd9 44c0 2c7d 3cc0 a667 42c0
00000380: 3903 44c0 d81e 43c0 3a15 3ac0 12e5 46c0
00000390: 84fd 3ec0 6683 4ec0 287c 3cc0 0b28 43c0
000003a0: 17d2 39c0 3623 38c0 49e5 3ac0 c64c 3dc0
000003b0: ba30 3ec0 9527 41c0 599b 4ac0 61a0 45c0
000003c0: db0e 3ac0 7e1a 48c0 acdd 43c0 e602 3cc0
000003d0: 46f0 49c0 4a60 3fc0 d241 3dc0 d857 40c0
000003e0: eb2a 39c0 51c3 39c0 4a85 41c0 1be0 4bc0
000003f0: d1b3 32c0 4d23 30c0 ce86 49c0 7366 3ec0

l1.mu_bias f4 [16]
-0.46549988 0.4648545 0.41196132 0.5658218 0.41041622 0.3054603 0.5323959 0.42571732
0.40827173 -0.4432163 -0.36984557 -0.45211285 0.26044092 0.5213317 0.50258213 -0.4732193
00000000: 0056 eebe 6901 ee3e 98ec d23e b3d9 103f
00000010: 1322 d23e 4b65 9c3e 194b 083f 9ff7 d93e
00000020: fe08 d13e 3fed e2be 665c bdbe 567b e7be
00000030: 8358 853e ff75 053f 39a9 003f cd49 f2be

l1.rho_bias f4 [16]
-2.451718 -2.656063 -2.534399 -2.7266512 -2.844251 -2.5902803 -2.6580803 -2.5212998
-2.6443846 -2.655572 -2.554653 -2.6196346 -2.5173607 -2.5752347 -2.7219667 -2.5664713
00000000: f3e8 1cc0 f0fc 29c0 9833 22c0 7481 2ec0
00000010: 3508 36c0 27c7 25c0 fd1d 2ac0 fa5c 21c0
00000020: 993d 29c0 e4f4 29c0 6f7f 23c0 18a8 27c0
00000030: 701c 21c0 a5d0 24c0 b434 2ec0 1141 24c0

l2.mu_weight f4 [1, 16]
-0.5330626 0.63526565 0.55484474 0.6160346 0.5998035 0.56258905 0.6746496 0.56916416
0.5523124 -0.56740665 -0.56230336 -0.60936314 0.60083425 0.55106175 0.5698835 -0.6173105
00000000: ca76 08bf c5a0 223f 4e0a 0e3f 72b4 1d3f
00000010: b98c 193f d605 103f d6b5 2c3f beb4 113f
00000020: 5864 0d3f 9041 11bf 1df3 0fbf 39ff 1bbf
00000030: 46d0 193f 6212 0d3f e3e3 113f 1008 1ebf

l2.rho_weight f4 [1, 16]
-3.2784755 -3.341045 -3.1461666 -3.3356953 -3.2684803 -3.2185602 -3.1623468 -3.2586355
-3.435924 -3.325798 -3.1873302 -3.2677631 -3.1495566 -3.2336643 -3.1791427 -3.248761
00000000: 8bd2 51c0 aed3 55c0 cb5a 49c0 087c 55c0
00000010: c82e 51c0 e4fc 4dc0 e463 4ac0 7c8d 50c0
00000020: 2ee6 5bc0 e0d9 54c0 38fd 4bc0 0823 51c0
00000030: 5692 49c0 5bf4 4ec0 1377 4bc0 b3eb 4fc0
