BNN/BNN_model_state_FD001.pt (torch, 57845 bytes, 14 tensors)

lstm.ih.mu_weight f4 [128, 14]
0	0xbe4aa423	-0.19789176
1	0x3e4da1b2	0.20081213
2	0xbf1bff25	-0.60936195
3	0x3f14f35d	0.5818384
4	0xbe61b072	-0.22039965
5	0xbf834b8a	-1.0257428
6	0xbf6f58dc	-0.93494964
7	0xbea4e268	-0.32203984
8	0x3f16fa30	0.58975506
9	0xbef1b715	-0.47209993
10	0xbe088860	-0.13333273
11	0xbf1df56f	-0.61702627
12	0xbeedff3f	-0.464838
13	0x3e90857e	0.28226846
14	0xbf93a10c	-1.1533523
15	0xbd40da63	-0.04708327
16	0xbe27c481	-0.16383554
17	0xbe643718	-0.22286642
18	0xbf4555dd	-0.7708414
19	0x3e8e0890	0.27740908
20	0xbe91dda8	-0.28489423
21	0xbf0810f4	-0.5315087
22	0x3f586789	0.8453298
23	0x3f192298	0.5981841
24	0x3f5a3163	0.8523161
25	0x3e369424	0.17829949
26	0x3f2f2128	0.6840997
27	0x3f176437	0.5913729
28	0xbf5dd6bc	-0.86655784
29	0xbeb0f20a	-0.3455966
30	0xbe6b892a	-0.23001543
31	0x3e666f3c	0.2250337
32	0xbe795960	-0.243505
33	0xbe016148	-0.12634766
34	0x3e1a10f8	0.15045536
35	0x3dffb550	0.124857545
36	0xbec0745f	-0.37588784
37	0x3eed3398	0.46328425
38	0xbe545ecd	-0.20739289
39	0xbd49f3e7	-0.04930487
40	0x3d9613ae	0.07327972
41	0x3e8460ee	0.258552
42	0xbfc87b04	-1.5662541
43	0x3eb77952	0.35834748
44	0xbef4ca6b	-0.47810683
45	0x3f9619d5	1.1726633
46	0x3f0e0dbe	0.5548972
47	0xbee46f2e	-0.44616073
48	0xbf2f709e	-0.68531215
49	0xbf9d5720	-1.2292213
50	0xbfc2a078	-1.5205221
51	0xbdd05ae5	-0.10173587
52	0x3e9ea90d	0.3098835
53	0xbfd29c7a	-1.6454003
54	0x3f282780	0.6568527
55	0xbd83bc7a	-0.064324334
56	0xbf187d1e	-0.59565914
57	0x3eb677cb	0.3563827
58	0xbf7d8e39	-0.9904514
59	0x3f800206	1.0000618
60	0x3f17b307	0.5925755
61	0x3dfb0c00	0.12258148
62	0xbecc61d4	-0.39918387
63	0x3f058761	0.52159697
64	0xbdd6c3f5	-0.104865946
65	0xbf85b929	-1.0447131
66	0xbd6de050	-0.05807525
67	0xbea82f62	-0.3284865
68	0x3dc6f638	0.09714931
69	0x3f1d9ece	0.6157044
70	0xbf61e72f	-0.88243383
71	0xbe36c154	-0.17847186
72	0xbe80b46e	-0.25137657
73	0x3ea7ac95	0.32748857
74	0xbf28c17f	-0.6592025
75	0x3e75d56c	0.24007195
76	0xbddc42ea	-0.1075495
77	0xbe082575	-0.13295539
78	0xbf106e25	-0.5641807
79	0xbf152e67	-0.5827393
80	0xbf0cb390	-0.5496149
81	0x3f4f3126	0.8093437
82	0x3efff955	0.49994913
83	0xbeec93ce	-0.46206516
84	0x3e7c89bf	0.24661921
85	0xbf8a4bb2	-1.080435
86	0x3eb3eea0	0.35142994
87	0x3f228a01	0.6349183
88	0x3f8b5ca8	1.0887651
89	0x3ed1f07b	0.41003785
90	0xbee33b86	-0.4438135
91	0x3ed91496	0.42398518
92	0xbf4ab37b	-0.79180115
93	0x3ea77dcc	0.32713163
94	0xbeea7582	-0.45792776
95	0xbee013be	-0.43765062
96	0xbd17db09	-0.037074123
97	0x3d8d6dd7	0.06905716
98	0x3ecd227d	0.40065375
99	0x3f6b3820	0.91882515
100	0xbebbed56	-0.3670451
101	0x3dea915f	0.114535086
102	0x3f40f390	0.75371647
103	0x3db7defd	0.089780785
104	0xbeafdfaf	-0.34350345
105	0xbebafb2b	-0.3651975
106	0x3f2c002e	0.67187774
107	0xbe36aba0	-0.17838907
108	0x3f0cb101	0.54957587
109	0x3f0bfd47	0.54683346
110	0xbf16f95e	-0.58974254
111	0x3e15786e	0.14596722
112	0xbe9b92b8	-0.30385375
113	0x3d5456ef	0.05184072
114	0xbe8c47b7	-0.27398464
115	0x3e18a7a6	0.14907703
116	0xbf16f1ba	-0.58962595
117	0x3edc0864	0.42975152
118	0x3da0305d	0.078217246
119	0xbeb8ff1e	-0.3613214
120	0x3e11af64	0.14227062
121	0x3ed4254f	0.41434714
122	0x3eb74b2d	0.35799542
123	0xbdc73cd8	-0.09728402
124	0x3ee0202a	0.4377454
125	0xbf9fc50c	-1.2482009
126	0xbdcb2f74	-0.0992116
127	0x3f12a573	0.57283705
128	0x3f1b3652	0.6062976
129	0x3e433ab1	0.19065358
130	0xbe60b78b	-0.21945016
131	0x3ee8056b	0.45316634
132	0xbf8d555b	-1.1041673
133	0x3c31060f	0.010804667
134	0xbfac1ed7	-1.3446912
135	0x3d886153	0.06659188
136	0xbe2a064f	-0.16603969
137	0x3f007a0c	0.5018623
138	0x3f698c6f	0.9122991
139	0x3e24915b	0.16071074
140	0xbf5084e7	-0.8145279
141	0x3d7c4d57	0.061597195
142	0xbf36bdeb	-0.7138354
143	0x3e601685	0.2188359
144	0x3e15dc83	0.146349
145	0x3e6ce183	0.23132901
146	0xbf0c9fb4	-0.5493119
147	0xbda31385	-0.079627074
148	0xbe457053	-0.1928113
149	0xbe441af7	-0.19150911
150	0xbf859bc6	-1.0438163
151	0x3ddf8195	0.10913388
152	0x3ebee62c	0.37284982
153	0xbe4442ee	-0.19166157
154	0xbe03a5a9	-0.12856163
155	0x3fa0fbea	1.2576878
156	0xbf1725b0	-0.5904188
157	0xbe9ffa93	-0.3124586
158	0xbf42aebf	-0.7604789
159	0x3f2c232d	0.67241174
160	0xbea8daa5	-0.32979313
161	0xbd9400de	-0.07226728
162	0x3eaa2e72	0.3323856
163	0x3ebb156c	0.3653978
164	0x3eb85b96	0.36007375
165	0xbed67712	-0.41887718
166	0xbe64614d	-0.22302742
167	0x3e4c0acb	0.19925992
168	0x3e1fb530	0.15596461
169	0x3f1545ff	0.5830993
170	0x3f4d2e37	0.80148643
171	0xbdb43145	-0.0879846
172	0x3f06975a	0.52574694
173	0xbe849fe3	-0.25903234
174	0x3eb6a945	0.35676017
175	0xbd8909a9	-0.06691296
176	0x3e47030d	0.19434758
177	0xbee9f62c	-0.45695627
178	0xbea2a1c0	-0.3176403
179	0x3e087f1f	0.13329743
180	0xbef0cbdc	-0.47030532
181	0x3e051d11	0.12999369
182	0xbf2a8a4e	-0.66617286
183	0xbf00d6c7	-0.50327724
184	0xbe62236f	-0.2208383
185	0x3f3f56d6	0.74741876
186	0xbf858f1e	-1.0434301
187	0x3f34c154	0.70607495
188	0x3e23ae49	0.15984453
189	0xbe4083c4	-0.18800265
190	0x3ee1cce2	0.44101626
191	0x3f5576ee	0.833846
192	0xbee0e6f0	-0.4392619
193	0xbf1abaad	-0.60441095
194	0x3ec36418	0.38162303
195	0x3eae9ed6	0.34105557
196	0xbea7cca2	-0.3277331
197	0x3fbf3179	1.4936973
198	0xbf29cfc4	-0.6633265
199	0x3f509b15	0.81486636
200	0x3da0bc24	0.07848385
201	0xbddef27c	-0.10886094
202	0xbf0efa2c	-0.5585048
203	0xbedce973	-0.43146858
204	0xbdc7dd28	-0.09758979
205	0x3ec80252	0.3906427
206	0x3d21a81e	0.03946697
207	0x3f34d07b	0.70630616
208	0xbd50d590	-0.05098492
209	0x3f1ca858	0.6119437
210	0x3e69ee97	0.22844921
211	0x3e4c6ae8	0.19962656
212	0xbe67b31f	-0.22626923
213	0xbdc7e124	-0.09759739
214	0x3ea99243	0.331194
215	0xbf754fdb	-0.95824975
216	0xbe9d6798	-0.30743098
217	0x3f42c48e	0.7608117
218	0xbe78b2e2	-0.24286988
219	0xbf1018f8	-0.562881
220	0x3eae6ff9	0.34069803
221	0xbf2a1ed9	-0.6645332
222	0xbe783f53	-0.24242906
223	0x3ecd365f	0.40080544
224	0xbe4983bf	-0.19679163
225	0xbe3e0a93	-0.18558721
226	0x3f06f52b	0.52717847
227	0x3e919c9a	0.2843979
228	0xbfe685a0	-1.8009529
229	0x3eb6c8e2	0.35700136
230	0x3e839ee4	0.2570716
231	0x3f3717c6	0.7152065
232	0xbedf6402	-0.43630987
233	0x3f6d97c3	0.92809695
234	0xbea787da	-0.32720834
235	0x3f2afb6a	0.6678988
236	0xbef6345b	-0.4808682
237	0x3fa415a1	1.2819101
238	0x3ed2f1e1	0.41200164
239	0x3e4b02e5	0.19825323
240	0x3f1c4eeb	0.6105792
241	0xbec1e370	-0.37868834
242	0x3ebc9645	0.36833397
243	0x3ec2474c	0.3794502
244	0x3e91123d	0.28334227
245	0xbf0ac876	-0.5421213
246	0x3ec0b06a	0.37634593
247	0x3ea07b04	0.31343853
248	0x3e8c0951	0.27350858
249	0x3ed21fd2	0.41039902
250	0xbf236113	-0.6382
251	0xbe85f8b8	-0.2616632
252	0x3e459980	0.19296837
253	0xbebd834f	-0.37014243
254	0x3ebb6f43	0.36608323
255	0x3f278311	0.65434366

lstm.ih.rho_weight f4 [128, 14]
0	0xbfea8e4e	-1.8324678
1	0xbfec2135	-1.8447634
2	0xc00f5924	-2.2398157
3	0xbffa85ce	-1.9572084
4	0xc011ba98	-2.2770138
5	0xc007bd76	-2.1209388
6	0xc00a5878	-2.1616497
7	0xc01856b4	-2.380292
8	0xc00a2566	-2.1585326
9	0xc0111da4	-2.2674341
10	0xc022d52b	-2.5442607
11	0xc01017e4	-2.2514582
12	0xc008d681	-2.1380923
13	0xc0078efa	-2.1181016
14	0xbff76226	-1.9326828
15	0xbfed109c	-1.8520694
16	0xc00ed519	-2.2317564
17	0xc00a4e83	-2.161042
18	0xc00f0dbb	-2.235213
19	0xc0110426	-2.2658782
20	0xbfee515f	-1.8618582
21	0xc0102825	-2.2524502
22	0xc00ed6fd	-2.2318718
23	0xc01c1852	-2.4389844
24	0xc0232859	-2.5493376
25	0xc00908da	-2.1411653
26	0xc0168cfc	-2.352355
27	0xc00fbb30	-2.2458
28	0xc0113782	-2.269013
29	0xbff7983d	-1.9343334
30	0xbfe98b8b	-1.824571
31	0xbfdb68b1	-1.7141324
32	0xbff55a83	-1.9168247
33	0xbfeabe00	-1.8339233
34	0xbfe24951	-1.7678624
35	0xbfd496dc	-1.6608539
36	0xc00704b0	-2.109661
37	0xbfe50ce3	-1.7894558
38	0xbff0381b	-1.8767122
39	0xbff00340	-1.8750992
40	0xc0045bcd	-2.068103
41	0xbfe33190	-1.77495
42	0xc00deef5	-2.2177098
43	0xc0183879	-2.3784468
44	0xc0211355	-2.516805
45	0xc009c593	-2.152684
46	0xc022cb06	-2.5436416
47	0xc00db138	-2.2139416
48	0xc00a3aae	-2.1598315
49	0xc013eb06	-2.3112197
50	0xc0235194	-2.5518541
51	0xc01b9664	-2.431054
52	0xc0159e89	-2.3378012
53	0xc00f17fd	-2.2358391
54	0xc01047e4	-2.2543879
55	0xc00c9f9a	-2.1972413
56	0xc021c263	-2.5274894
57	0xc0446b44	-3.069047
58	0xc0305e13	-2.7557418
59	0xc0239550	-2.5559883
60	0xc03aca08	-2.918581
61	0xc03439a2	-2.8160176
62	0xc021e1d7	-2.5294092
63	0xc024fe61	-2.578026
64	0xc00d94ca	-2.2122064
65	0xc02dbee0	-2.714775
66	0xc0383ea7	-2.878824
67	0xc0209f82	-2.5097356
68	0xc018202e	-2.376964
69	0xc02def3e	-2.7177272
70	0xc035e2c1	-2.841965
71	0xc0233b39	-2.5504897
72	0xc041df0e	-3.0292392
73	0xc034a35c	-2.8224707
74	0xc03391d6	-2.8057761
75	0xc029b32a	-2.6515603
76	0xc0324e5e	-2.7860332
77	0xc0359fc1	-2.8378756
78	0xc0417208	-3.022585
79	0xc03bfd84	-2.9373484
80	0xc03317c5	-2.7983258
81	0xc02b15b1	-2.673199
82	0xc0473190	-3.1124
83	0xc0413f19	-3.0194762
84	0xbff86ce1	-1.9408227
85	0xc014e08d	-2.3262055
86	0xc0049978	-2.071867
87	0xc0023863	-2.0346916
88	0xc010049c	-2.2502813
89	0xc00c00a9	-2.1875403
90	0xc00bfba0	-2.187233
91	0xc010383c	-2.2534323
92	0xc001acb6	-2.0261664
93	0xc0142d75	-2.3152745
94	0xc0124167	-2.2852418
95	0xbfe96ff9	-1.8237296
96	0xc01dd629	-2.4661963
97	0xc0072dd7	-2.1121728
98	0xc02ab631	-2.66737
99	0xc021a7bb	-2.5258625
100	0xc036185a	-2.8452363
101	0xc024089a	-2.563025
102	0xc02b8656	-2.6800742
103	0xc0400d12	-3.0007977
104	0xc0313a2c	-2.7691755
105	0xc01ae182	-2.420014
106	0xc041075a	-3.0160737
107	0xc00f0969	-2.2349494
108	0xc01df8c7	-2.4683092
109	0xc03a18b1	-2.907757
110	0xc02d2446	-2.705339
111	0xc04349e5	-3.0513852
112	0xc00ed954	-2.2320147
113	0xc013ab95	-2.3073475
114	0xc018593d	-2.3804467
115	0xc01e6eba	-2.4755082
116	0xc01de80a	-2.4672875
117	0xc023154d	-2.548175
118	0xc0233ed2	-2.5507092
119	0xc01651a6	-2.3487334
120	0xc0415053	-3.0205276
121	0xc01ec3c9	-2.4806998
122	0xc022d6f3	-2.5443695
123	0xc025584e	-2.5835147
124	0xc0209e66	-2.5096679
125	0xc02b74e3	-2.6790092
126	0xc0240dcd	-2.5633423
127	0xc00427ea	-2.0649362
128	0xc00f0acc	-2.235034
129	0xc00fdbe5	-2.2477963
130	0xbfe7152d	-1.8053337
131	0xc01a9320	-2.4152298
132	0xbfe9dcb9	-1.8270484
133	0xc004dc28	-2.0759373
134	0xbffc8820	-1.9729042
135	0xc0164f05	-2.348573
136	0xc004c9cc	-2.0748167
137	0xbfeb0f87	-1.8364114
138	0xbffd955f	-1.981121
139	0xc01447fd	-2.3168938
140	0xbff6e4e0	-1.9288597
141	0xbff5dd87	-1.920823
142	0xbfe5a22c	-1.7940116
143	0xbfd72be4	-1.6810269
144	0xc005c4e4	-2.0901423
145	0xc00a5239	-2.1612685
146	0xbfdd924e	-1.7310274
147	0xc006d158	-2.1065273
148	0xc000d585	-2.0130322
149	0xbfe2b157	-1.771037
150	0xbfdf0370	-1.7422924
151	0xc006133c	-2.094924
152	0xbff2047e	-1.8907621
153	0xbfdc08eb	-1.7190222
154	0xc00b92ac	-2.1808271
155	0xc00d88b6	-2.2114692
156	0xc0222670	-2.533596
157	0xc01180e0	-2.273491
158	0xc02f6930	-2.7407951
159	0xc0230a1a	-2.5474916
160	0xc0359350	-2.8371162
161	0xc0236b1f	-2.5534132
162	0xc0124651	-2.2855418
163	0xc022d7a6	-2.5444121
164	0xc02f77f4	-2.7416964
165	0xc03049ba	-2.7545
166	0xc0238430	-2.554943
167	0xc0158838	-2.3364391
168	0xc0272f0b	-2.6122463
169	0xc01975f7	-2.397825
170	0xc01f5f1e	-2.4901805
171	0xc0084064	-2.12893
172	0xc014eea0	-2.3270645
173	0xbfe08491	-1.7540456
174	0xbffd46d3	-1.9787239
175	0xc01a1a80	-2.4078674
176	0xc0031de3	-2.0486991
177	0xc006e59b	-2.107764
178	0xc01b8cb2	-2.4304624
179	0xc0135ddc	-2.3026037
180	0xc015eb05	-2.3424695
181	0xc0202e3e	-2.5028224
182	0xc01d6a68	-2.4596195
183	0xc00c9f23	-2.197213
184	0xc003b5ca	-2.0579705
185	0xc023f189	-2.5616171
186	0xc035a087	-2.8379228
187	0xc02faa94	-2.7447863
188	0xc0271a8d	-2.6109955
189	0xc01d667f	-2.4593809
190	0xc02fe26f	-2.7481954
191	0xc0269b79	-2.6032393
192	0xc023baa5	-2.5582669
193	0xc01a646b	-2.412379
194	0xc009eac2	-2.1549535
195	0xc00e060e	-2.2191195
196	0xc04ca9d7	-3.1978662
197	0xc02ca391	-2.6974833
198	0xc0367b66	-2.8512816
199	0xc042891a	-3.039618
200	0xc047069d	-3.1097786
201	0xc0179b2d	-2.3688462
202	0xc034e041	-2.8261874
203	0xc035772c	-2.8353987
204	0xc02c1d42	-2.6892858
205	0xc03d9353	-2.962117
206	0xc025924d	-2.5870545
207	0xc034a2e6	-2.8224425
208	0xc03f9bd2	-2.9938855
209	0xc044d000	-3.0751953
210	0xc0338622	-2.8050618
211	0xc024f5d8	-2.577505
212	0xc0473bf5	-3.1130345
213	0xc0236b6b	-2.5534313
214	0xc03098d1	-2.7593272
215	0xc03a5074	-2.9111605
216	0xc04236a6	-3.0345855
217	0xc033bce4	-2.808404
218	0xc0289308	-2.633974
219	0xc03fa9f0	-2.9947472
220	0xc04c915c	-3.196372
221	0xc03a8030	-2.914074
222	0xc0407f71	-3.0077784
223	0xc04e4d18	-3.2234554
224	0xc032fdaa	-2.7967324
225	0xc0299116	-2.6494803
226	0xc0144c9c	-2.3171759
227	0xc020601b	-2.5058658
228	0xc03276de	-2.788505
229	0xc02d994c	-2.7124815
230	0xc0138db6	-2.3055243
231	0xc0273c9d	-2.6130745
232	0xc034a60d	-2.822635
233	0xc01f2cae	-2.487102
234	0xc033b922	-2.8081746
235	0xc0345132	-2.8174558
236	0xc036c8dd	-2.8560097
237	0xc01b1a92	-2.4234967
238	0xc01ac2ad	-2.418132
239	0xc03ddf2a	-2.9667459
240	0xc0370f74	-2.8603182
241	0xc02de72f	-2.7172353
242	0xc02e57dc	-2.7241125
243	0xc01f5080	-2.4892883
244	0xc0304b06	-2.754579
245	0xc0182563	-2.377282
246	0xc02cf0aa	-2.702189
247	0xc00e5e97	-2.2245233
248	0xc02fecbf	-2.7488248
249	0xc00c26ff	-2.1898801
250	0xc0222930	-2.533764
251	0xc01bff84	-2.4374704
252	0xc01ff370	-2.4992332
253	0xc0240893	-2.5630233
254	0xc01e6121	-2.4746783
255	0xc00a5c0c	-2.161868

lstm.ih.mu_bias f4 [128]
0	0xbebe8a1d	-0.37214747
1	0xbe5586c9	-0.20852198
2	0xbd2b348c	-0.04179816
3	0xbf0188c5	-0.5059932
4	0xbe5a29d3	-0.21305017
5	0xbe8d4340	-0.2759037
6	0x3dade53e	0.0849099
7	0x3e7bb71f	0.24581574
8	0x3ebe642c	0.371858
9	0x3c23ed2e	0.0100052785
10	0xbea2086a	-0.31647044
11	0x3db82ecc	0.08993301
12	0x3ea0128c	0.3126415
13	0xbe23a26c	-0.15979928
14	0x3da36913	0.07979026
15	0xbe839127	-0.2569668
16	0xbe351d8e	-0.17687055
17	0x3e4f6e54	0.2025693
18	0xbdca597c	-0.09880349
19	0xbf0dad69	-0.5534273
20	0xbe723674	-0.23653585
21	0xbda59b36	-0.08086245
22	0xbedd1201	-0.43177798
23	0x3db60302	0.088872924
24	0xbf1f2fff	-0.6218261
25	0xbd62b6cf	-0.05535012
26	0x3ea86881	0.3289223
27	0x3c27a5e1	0.01023242
28	0xbd4f94e6	-0.05067911
29	0xbf18d455	-0.5969899
30	0x3e928e70	0.28624296
31	0xbe9ef95c	-0.3104962
32	0xbdcc7cd5	-0.09984747
33	0xbd67596d	-0.056481767
34	0x3e29d96e	0.16586849
35	0x3e42d002	0.19024661
36	0x3d4e919e	0.05043184
37	0x3e8ad594	0.27116072
38	0x3cfc1452	0.030771408
39	0x3ef76e88	0.48326516
40	0x3e3a1916	0.18173632
41	0x3ed73a9d	0.42036906
42	0x3d8a873e	0.06764077
43	0x3e20147b	0.15632813
44	0x3e3f1a1b	0.18662302
45	0x3ccd445f	0.025057016
46	0xbe1b4a97	-0.15165173
47	0xbcb3c668	-0.021945193
48	0xbd56dfcb	-0.05245952
49	0x3eb79965	0.35859218
50	0x3f3399a4	0.7015631
51	0xbe5050b5	-0.20343287
52	0xbe621d5c	-0.22081512
53	0xbdd392d1	-0.103307374
54	0x3ee45da1	0.44602683
55	0xbdb78733	-0.08961334
56	0xbe91876d	-0.28423634
57	0x3d56f1bc	0.05247663
58	0x3e648e93	0.22320013
59	0x3e75b079	0.239931
60	0xbe132886	-0.14370927
61	0xbe34f79e	-0.17672583
62	0x3efc4938	0.4927461
63	0xbea9784d	-0.33099595
64	0xbebfb9ea	-0.3744653
65	0x3e801c6d	0.25021687
66	0x3f0efc9c	0.558542
67	0x3d6723e0	0.056430697
68	0x3cc92f71	0.024558755
69	0xbd00ade2	-0.031415828
70	0x3f3dee0b	0.7419135
71	0xbee40e0d	-0.4454197
72	0x3e9d56e0	0.30730343
73	0x3e7dfa86	0.24802598
74	0x3f067594	0.5252316
75	0x3eaddfaf	0.3395972
76	0xbf2cea65	-0.6754516
77	0x3e6ceb39	0.23136605
78	0x3e98286a	0.29718333
79	0x3e97bfb8	0.29638457
80	0x3d0ad62d	0.03389566
81	0xbf284d1b	-0.65742654
82	0xbeafd4c4	-0.34342015
83	0xbe8ed98d	-0.27900353
84	0xbea87eae	-0.3290915
85	0xbe73b9e8	-0.23801386
86	0xbc770dd0	-0.015078977
87	0xbda5137d	-0.08060358
88	0x3e5884d5	0.21144421
89	0x3e362090	0.17785859
90	0x3ee87402	0.45401007
91	0x3ee2bc49	0.44284275
92	0x3e55dcd2	0.20885018
93	0x3eca3c21	0.39499
94	0xbf29fcfe	-0.6640166
95	0x3e9f3c48	0.31100678
96	0xbe5d6033	-0.21618728
97	0xbdabdc8e	-0.08391677
98	0xbddea536	-0.10871355
99	0xbddc3c2e	-0.10753666
100	0xbcd82d96	-0.026388925
101	0x3f228d57	0.6349692
102	0x3e56dccd	0.20982666
103	0x3ed1ccd8	0.40976596
104	0x3e9f5d0f	0.31125686
105	0x3f571ae6	0.8402542
106	0x3e4a5bb8	0.1976155
107	0xbda08f2f	-0.0783981
108	0x3d681c84	0.05666782
109	0xbd6f5e77	-0.058439698
110	0xbd984cbc	-0.07436511
111	0xbe93b323	-0.28847608
112	0x3c804938	0.015659913
113	0x3d907678	0.07053846
114	0x3e265c5f	0.16246174
115	0xbecb3405	-0.39688125
116	0xbe9c7aba	-0.30562383
117	0xbe26c660	-0.16286612
118	0x3f26842e	0.6504544
119	0xbd612f87	-0.054976966
120	0xbe991bcb	-0.29904017
121	0xbe10d455	-0.14143498
122	0x3e5c032d	0.21485586
123	0xbda7f407	-0.082008414
124	0xbe77f79f	-0.24215554
125	0xbd782b88	-0.06058839
126	0x3ded8d82	0.11599256
127	0xbea23c9b	-0.31686863

lstm.ih.rho_bias f4 [128]
0	0xbfa04f84	-1.2524266
1	0xbf304281	-0.68851477
2	0xbe1e6ba2	-0.15470746
3	0xbfcc1c08	-1.5946054
4	0xbff43223	-1.90778
5	0xc0017edc	-2.023368
6	0xbef78f4c	-0.48351514
7	0xc002148a	-2.0325036
8	0xbfb27c36	-1.3944156
9	0xbf81ca23	-1.0139812
10	0xbd84edfb	-0.06490704
11	0xbfc72a78	-1.5559835
12	0xbf697ba9	-0.91204315
13	0xbfc6c6fc	-1.5529475
14	0xbff533a5	-1.9156386
15	0xc00bad49	-2.1824515
16	0xbfde0438	-1.7345037
17	0xbff55be5	-1.9168669
18	0xbfb36861	-1.4016229
19	0xbfed3255	-1.8530985
20	0xbfcf6fd3	-1.6206001
21	0xbf9d42a0	-1.2285957
22	0xbfc55815	-1.5417506
23	0xbf5bc8ef	-0.85853475
24	0xbfb57f5b	-1.4179491
25	0xbfd9ba5f	-1.7010001
26	0xbf9778f1	-1.1833783
27	0xc001a4e9	-2.0256903
28	0xbfb42dcc	-1.4076476
29	0xbfb6b7cd	-1.4274842
30	0xbfb6f943	-1.4294819
31	0xbff13924	-1.8845563
32	0xbfe81579	-1.8131553
33	0xc0012640	-2.0179596
34	0xbed80790	-0.4219327
35	0xbfea6e8c	-1.8314986
36	0xc00bcfb0	-2.1845512
37	0xbff90179	-1.9453574
38	0xbf4f3e46	-0.80954397
39	0xbfc7d30c	-1.5611281
40	0xbf9c6ce9	-1.2220737
41	0xbf81bfff	-1.0136718
42	0xbf41c8c3	-0.75696963
43	0xbf80f963	-1.0076107
44	0x3e9b9bed	0.303924
45	0xbfd4fcac	-1.6639609
46	0xbffcf253	-1.9761451
47	0xbff1a6c5	-1.8879019
48	0xbfe860e9	-1.8154575
49	0x3f0844db	0.53230065
50	0xbfb8f8cc	-1.4450927
51	0xbffc6737	-1.9718999
52	0xbff5f2e4	-1.9214749
53	0xbf834255	-1.0254618
54	0xc00dc1c7	-2.2149522
55	0xbfed7687	-1.8551797
56	0xbfe948ef	-1.8225383
57	0xbfed8f65	-1.8559386
58	0x3e42c42b	0.19020145
59	0xbeee05f6	-0.46488923
60	0xbfa509b5	-1.2893587
61	0xc01a1ea6	-2.4081206
62	0xbef16e66	-0.4715454
63	0xc012905a	-2.2900605
64	0xc04e0120	-3.2188187
65	0xc0382994	-2.8775377
66	0xbfea6719	-1.8312713
67	0xc0475c79	-3.115019
68	0xc042e0a0	-3.04496
69	0xc01b21c6	-2.4239364
70	0xc00a132a	-2.1574197
71	0xc0161888	-2.3452473
72	0xc03224e9	-2.7835028
73	0xbfd48929	-1.6604358
74	0xbfc03028	-1.5014696
75	0xbfff896c	-1.9963813
76	0xbfc7e9b2	-1.5618193
77	0xc00b42ca	-2.1759515
78	0xc010d3a2	-2.262917
79	0xbffa0fb5	-1.9536043
80	0xc036957f	-2.8528745
81	0xbf4fba85	-0.8114398
82	0xc008fd0e	-2.1404452
83	0xc04bc989	-3.1841757
84	0xc00362d1	-2.0529063
85	0xc0256f17	-2.5849054
86	0xc00fd558	-2.2473965
87	0xc02703e7	-2.6096132
88	0xc0536615	-3.3031056
89	0xc01e0573	-2.4690826
90	0xbfd6c8f3	-1.6780075
91	0xc0025814	-2.0366259
92	0xc05477dc	-3.3198156
93	0xc047c24b	-3.1212337
94	0xbe292c4d	-0.16520806
95	0xc04f9e0f	-3.2440221
96	0xbf9ade2b	-1.209905
97	0xbf1fb6c1	-0.62388235
98	0xc0168abe	-2.3522182
99	0xbfdb5803	-1.7136234
100	0xbffe8f17	-1.9887418
101	0xbd42fc6a	-0.047604002
102	0xbca3b11b	-0.019981911
103	0xc0282f8f	-2.6279027
104	0xbffaf98e	-1.9607408
105	0xbf8a8654	-1.0822244
106	0x3df24269	0.11829073
107	0xbfcd8cdb	-1.6058611
108	0xc02cf037	-2.7021616
109	0xc021af79	-2.526335
110	0xc00454da	-2.067679
111	0xbfe4a16b	-1.7861761
112	0xbfc34b39	-1.5257331
113	0xc015ca4c	-2.3404722
114	0xc021bdf7	-2.5272195
115	0xc006805d	-2.1015847
116	0xc018662f	-2.3812368
117	0xbfc0455d	-1.5021168
118	0xbd3cca64	-0.046091452
119	0xc001524e	-2.0206485
120	0xbf87b071	-1.0600721
121	0xbfa43f18	-1.2831755
122	0xc00baa0e	-2.1822543
123	0xc0387208	-2.88196
124	0xbfaf5a7e	-1.3699491
125	0xc00131fb	-2.0186756
126	0xc023b89a	-2.5581422
127	0xbfbdb0b7	-1.4819554

lstm.hh.mu_weight f4 [128, 32]
0	0x3ca1d30c	0.019753955
1	0xbeabcd5c	-0.33555114
2	0x3e943bb8	0.28951812
3	0xbdf5fc0f	-0.12010967
4	0xbd08132f	-0.03322142
5	0x3e9d1cc5	0.30686012
6	0xbea53891	-0.3226972
7	0x3e9713f1	0.29507402
8	0x3e9e22f6	0.30886048
9	0x3d2c0f2d	0.04200666
10	0x3ad168b0	0.0015976634
11	0x3daefbc7	0.085441165
12	0xbda9395d	-0.08262894
13	0x3df85afa	0.121267274
14	0x3d60e177	0.05490252
15	0x3ed78a65	0.42097774
16	0xbec5c160	-0.38624096
17	0xbe999cb9	-0.30002382
18	0x3f02764a	0.50961745
19	0xbe758c85	-0.23979385
20	0xbf49f60f	-0.7889108
21	0x3d93b9c0	0.072131634
22	0x3e8433b1	0.25820687
23	0x3ed184a5	0.40921512
24	0x3e244ba3	0.16044478
25	0xbe9fc78c	-0.3120693
26	0xbe0ff3e3	-0.14057879
27	0x3e300359	0.17188777
28	0xbe5b0e10	-0.21392083
29	0xbf6117c1	-0.8792687
30	0xbdc5b978	-0.09654516
31	0xbf09341a	-0.53595126
32	0x3df88609	0.1213494
33	0x3ed5c988	0.4175532
34	0xbee8969f	-0.45427415
35	0x3f073789	0.52819115
36	0x3ef93452	0.4867273
37	0xbf0e9818	-0.55700827
38	0x3e09795d	0.13425203
39	0xbdff3d74	-0.12462893
40	0x3dfa8719	0.12232799
41	0x3e912585	0.28348938
42	0xbe64dcff	-0.22349928
43	0x3e8dbd39	0.27683428
44	0xbc881488	-0.016611353
45	0x3f4b5c8e	0.794381
46	0xbe02d3b1	-0.12776066
47	0xbed23396	-0.41054982
48	0xbe9215bc	-0.28532207
49	0x3eb6e3f4	0.3572079
50	0x3ded5c6c	0.11589894
51	0x3dfa28a4	0.12214783
52	0x3e43a6b5	0.19106562
53	0x3e17b889	0.14816488
54	0x3e42e69a	0.1903328
55	0x3ea66046	0.32495326
56	0xbe62d0ce	-0.22149965
57	0x3ebd6c44	0.36996663
58	0x3e239ebb	0.1597852
59	0xbea3b2e2	-0.31972414
60	0xbf59f414	-0.8513806
61	0xbec97f00	-0.39354706
62	0x3e17592c	0.1478011
63	0xbeba0fe9	-0.36340263
64	0xbcc4f3a3	-0.024041956
65	0xbf223c23	-0.6337301
66	0x3dc978aa	0.09837468
67	0xbe86feaa	-0.26366168
68	0x3efb8db1	0.4913154
69	0x3e046bac	0.12931699
70	0xbd9c8171	-0.076418765
71	0xbecd28b5	-0.4007012
72	0x3f46baf3	0.7762901
73	0xbeb3d773	-0.35125312
74	0xbe1fc6ed	-0.15603228
75	0xbca4e7a8	-0.020129994
76	0xbecb4cdd	-0.3970708
77	0x3e129abe	0.14316842
78	0x3dad44ed	0.08460412
79	0xbee629f6	-0.4495389
80	0xbf08cc66	-0.5343689
81	0xbea7db14	-0.3278433
82	0xbe7eabd1	-0.2487023
83	0xbde53214	-0.11191192
84	0x3e0f9f61	0.14025642
85	0x3ea7fb9e	0.32809156
86	0xbd9e6205	-0.077335395
87	0x3f1f9424	0.6233542
88	0x3d5423e8	0.051792055
89	0x3eb1a949	0.34699467
90	0x3f043ed5	0.51658374
91	0x3dfb2edf	0.12264799
92	0x3ed4fbeb	0.41598448
93	0xbec21451	-0.37906125
94	0xbe8a4c63	-0.27011403
95	0xbe5ad711	-0.21371104
96	0x3e4d53ff	0.20051573
97	0xbec5d6e1	-0.38640502
98	0xbe3c3d76	-0.1838282
99	0x3c6e8c72	0.014559852
100	0xbed217ce	-0.41033787
101	0x3e55f7d6	0.20895323
102	0xbda02f79	-0.07821555
103	0x3eb444ca	0.35208732
104	0xbeaafd95	-0.33396593
105	0xbee88922	-0.45417124
106	0xbeb79ba3	-0.3586093
107	0xbd76e1b5	-0.060273845
108	0xbe52b73a	-0.20577708
109	0x3ef23fa9	0.47314194
110	0xbf03e998	-0.5152831
111	0x3d25faa9	0.04052225
112	0xbd1c88c8	-0.038216382
113	0x3eee0d35	0.4649445
114	0x3e06ed9b	0.13176577
115	0xbe1816ed	-0.14852495
116	0xbdadbdf3	-0.084834956
117	0x3e392aeb	0.18082778
118	0x3e51ab23	0.2047544
119	0x3f0210fc	0.50807166
120	0xbf785df7	-0.9701838
121	0x3f6a42b2	0.9150802
122	0xbe291b5c	-0.16514343
123	0xbd68fc51	-0.056881253
124	0xbee8074b	-0.45318064
125	0xbf6cd00a	-0.9250494
126	0x3d9a1f3a	0.07525487
127	0xbf7e8237	-0.9941744
128	0xbea4f210	-0.3221593
129	0x3d4254e0	0.047444224
130	0xbc288170	-0.010284767
131	0xbb9063da	-0.0044064345
132	0x3e9a5248	0.301409
133	0xbecefea6	-0.40428656
134	0x3cd8e84f	0.02647796
135	0xbd767fbe	-0.06018042
136	0x3e173612	0.1476672
137	0xbd156b06	-0.03647902
138	0xbe449327	-0.19196759
139	0xbe926f13	-0.28600368
140	0x3cc2b6d8	0.023768827
141	0xbe8b1fdd	-0.27172747
142	0xbe9f2c07	-0.31088278
143	0x3f1b644c	0.60699916
144	0xbea9e0fd	-0.33179465
145	0x3d24eed9	0.040266845
146	0x3ed765ff	0.42070004
147	0xbecb6232	-0.39723355
148	0x3e4d0f5f	0.20025395
149	0xbec10daa	-0.37705737
150	0xbe8dbf72	-0.27685124
151	0xbe9c2b9b	-0.30502018
152	0xbe082e90	-0.13299012
153	0x3e9b0486	0.3027689
154	0xbe11e6e0	-0.14248228
155	0x3e3aeb5e	0.18253848
156	0xbea306c3	-0.31841096
157	0x3e74a163	0.23889689
158	0x3e7d0a5e	0.24710986
159	0x3e634a0a	0.22196212
160	0x3ec186f7	0.37798283
161	0xbcfeaed6	-0.031089228
162	0xbefa7333	-0.48916015
163	0x3eb46f26	0.3524105
164	0xbc0e87d8	-0.00869938
165	0xbf386588	-0.72029924
166	0xbe1d410c	-0.15356845
167	0x3e7b39f1	0.24533822
168	0xbee4cc4a	-0.4468711
169	0xbeafd1d8	-0.34339786
170	0xbe9f0b36	-0.3106324
171	0xbe959a42	-0.29219252
172	0x3eb6af53	0.35680637
173	0x3cae520f	0.021279363
174	0xbf1aab06	-0.6041721
175	0xbf0d4b95	-0.55193454
176	0x3edeb333	0.43496093
177	0x3e9c498a	0.30524856
178	0xbf32d5b6	-0.69857347
179	0x3f512387	0.81694835
180	0x3c0aa1b9	0.008461409
181	0xbcef22ed	-0.029191459
182	0xbeee8a3d	-0.46589842
183	0xbee98b01	-0.45613864
184	0xbf3cd49a	-0.73761904
185	0xbeda0cc9	-0.4258788
186	0xbebf52d6	-0.37367886
187	0xbe55b3b5	-0.20869334
188	0xbd661b8c	-0.056178614
189	0xbf6ac269	-0.91702896
190	0x3eaef632	0.34172207
191	0xbf40df79	-0.7534099
192	0x3ec49106	0.38391894
193	0x3dae7c4e	0.08519803
194	0xbed62f94	-0.41833174
195	0xbe79e274	-0.24402791
196	0xbe439123	-0.19098334
197	0x3fcb2620	1.587101
198	0x3c8cd70e	0.01719239
199	0x3e964b35	0.29354253
200	0xbf106558	-0.5640464
201	0xbe7ea7b5	-0.24868663
202	0xbd94ce67	-0.072659306
203	0xbf0b3529	-0.5437799
204	0x3ee33b6b	0.4438127
205	0x3d8a83c6	0.06763415
206	0xbf51fe29	-0.8202844
207	0x3e8da500	0.27664948
208	0xbf1c0003	-0.6093752
209	0x3f0eee0d	0.55831987
210	0x3ee508f2	0.44733387
211	0x3f88251c	1.0636325
212	0x3e178c6a	0.14799657
213	0x3f1f7423	0.62286586
214	0x3eff0cb7	0.49814388
215	0xbda775cf	-0.08176767
216	0xbf88e0ea	-1.0693638
217	0xbe929ac0	-0.2863369
218	0xbe808433	-0.2510086
219	0xbf11c1fd	-0.5693663
220	0xbfaabfeb	-1.3339819
221	0xbf61bf33	-0.8818237
222	0x3d8d3ed4	0.06896749
223	0xbf860388	-1.0469828
224	0xbd4500cc	-0.048096463
225	0xbe2e24db	-0.17006247
226	0xbdf7a4d9	-0.12091989
227	0x3e9d3303	0.3070298
228	0xbe0dd323	-0.13850074
229	0x3ce829a8	0.028340176
230	0xbc02c657	-0.007981858
231	0xbe8b522e	-0.27211136
232	0x3cabd50e	0.020975616
233	0xbd3d49d1	-0.046212975
234	0xbe85d323	-0.26137647
235	0xbda6876f	-0.08131301
236	0xbcf6c9bf	-0.030125497
237	0x3de3e382	0.11127378
238	0x3efbc26f	0.4917178
239	0xbed53375	-0.4164082
240	0xbe27f025	-0.16400202
241	0x3d2b2ce0	0.041790843
242	0x3eb73885	0.35785308
243	0xbe4266fd	-0.189846
244	0xbb8da0d1	-0.0043221493
245	0x3de41855	0.111374535
246	0xbd0e81e1	-0.03479183
247	0x3c588ffb	0.013217921
248	0x3f07a6dd	0.5298899
249	0x3e3c5153	0.18390398
250	0xbce3a8bf	-0.027790425
251	0xbd693c4d	-0.056942273
252	0x3ef2107e	0.47278208
253	0x3eb8ad84	0.36069882
254	0x3e59a8cc	0.21255797
255	0x3eb5fc19	0.35543898

lstm.hh.rho_weight f4 [128, 32]
0	0xc0270041	-2.6093905
1	0xc023391f	-2.5503614
2	0xc034782a	-2.8198342
3	0xc0196a2b	-2.397105
4	0xc024be16	-2.574102
5	0xc026bfb2	-2.6054502
6	0xc02f38e7	-2.737848
7	0xc032c0c0	-2.7930145
8	0xc025d030	-2.5908318
9	0xc0319ac7	-2.7750719
10	0xc02c2760	-2.6899033
11	0xc0263749	-2.5971243
12	0xc021baa1	-2.527016
13	0xc026d68c	-2.606845
14	0xc01af1cf	-2.4210088
15	0xc006b07d	-2.104522
16	0xc015ec55	-2.3425496
17	0xc018e9ba	-2.3892655
18	0xc02b1c7e	-2.673614
19	0xc018bd2a	-2.3865457
20	0xc024b8b8	-2.5737743
21	0xc02391f3	-2.555783
22	0xc0222965	-2.5337765
23	0xc0267ebd	-2.6014855
24	0xc01544f6	-2.332334
25	0xc019fc12	-2.4060102
26	0xc0185b50	-2.3805733
27	0xc01cdb60	-2.4508896
28	0xc012469c	-2.2855597
29	0xc00f3090	-2.237339
30	0xc02c651f	-2.693672
31	0xc00d8107	-2.2110002
32	0xc028ec96	-2.63944
33	0xc01abaaa	-2.417643
34	0xc02906cc	-2.6410398
35	0xc030596b	-2.7554576
36	0xc02bdf09	-2.685488
37	0xc02c988b	-2.6968105
38	0xc02afb80	-2.6716003
39	0xc012e6ba	-2.2953324
40	0xc03a45e3	-2.9105155
41	0xc034c2bc	-2.8243856
42	0xc03afd4b	-2.9217098
43	0xc02d8380	-2.7111511
44	0xc0263688	-2.5970783
45	0xc03f1653	-2.9857376
46	0xc00fa0f1	-2.244198
47	0xc022975d	-2.5404885
48	0xc02ae8db	-2.6704624
49	0xc0263e3c	-2.5975485
50	0xc01d4fc6	-2.457994
51	0xc038a5bb	-2.8851154
52	0xc02d8b1a	-2.711615
53	0xc02ac56a	-2.6682992
54	0xc032a4d6	-2.7913108
55	0xc01f5feb	-2.4902294
56	0xc01aac6c	-2.4167738
57	0xbfecf203	-1.8511356
58	0xc02e122d	-2.7198594
59	0xc02a186d	-2.6577408
60	0xc02a0e02	-2.657105
61	0xc0214c40	-2.520279
62	0xc029b055	-2.6513875
63	0xc0203522	-2.503243
64	0xbfba1dfb	-1.4540399
65	0xbf5ff354	-0.87480664
66	0xbfc572a8	-1.5425615
67	0xbfbd6583	-1.4796604
68	0xbf871b88	-1.0555277
69	0xbfd5d063	-1.670422
70	0xbfc48b19	-1.5354949
71	0xbfa0c906	-1.2561347
72	0xbfca21f9	-1.5791618
73	0xbfe5623f	-1.7920607
74	0xbfe0d694	-1.7565484
75	0xbfa88cbd	-1.316795
76	0xbfc827cf	-1.5637149
77	0xbf6f622c	-0.93509173
78	0xbfc84102	-1.5644839
79	0xbfa19c80	-1.2625885
80	0xbfc66076	-1.5498188
81	0xbf9118dc	-1.1335711
82	0xbfccbdec	-1.599546
83	0xbf642a1c	-0.89126754
84	0xbf758c33	-0.9591705
85	0xbf905f05	-1.1278998
86	0xbff6d91b	-1.9285005
87	0xbfb5517f	-1.4165496
88	0xbf90c62e	-1.131048
89	0xbf2c5da3	-0.6733038
90	0xbfc8451c	-1.564609
91	0xbf71b1ec	-0.9441211
92	0xbf7c36f2	-0.9852134
93	0xbfc4f10a	-1.5386059
94	0xbfbeba72	-1.4900649
95	0xbfaee777	-1.3664387
96	0xc0302c54	-2.7527056
97	0xc022a4ca	-2.541308
98	0xc02ed060	-2.7314682
99	0xc02f0681	-2.734772
100	0xc02c4763	-2.691857
101	0xc02d0dc6	-2.7039657
102	0xc02b63d3	-2.6779678
103	0xc024cf47	-2.5751512
104	0xc04046d0	-3.004322
105	0xc0424726	-3.0355926
106	0xc035767b	-2.8353565
107	0xc0390499	-2.8909056
108	0xc01f10a0	-2.4853897
109	0xc01a9294	-2.4151964
110	0xbffeb87b	-1.9900049
111	0xc03016c5	-2.7513897
112	0xc01a989f	-2.4155653
113	0xc0382827	-2.8774507
114	0xc0252cda	-2.5808625
115	0xc0279ea7	-2.6190584
116	0xc02020cf	-2.5020025
117	0xc015b915	-2.3394215
118	0xc03c5574	-2.9427156
119	0xc020f935	-2.5152104
120	0xc022017b	-2.5313404
121	0xc00ad363	-2.169152
122	0xc03a7da0	-2.9139175
123	0xc040961c	-3.009162
124	0xc02451e1	-2.5674975
125	0xc0101699	-2.2513793
126	0xc022461d	-2.5355294
127	0xc01a1b50	-2.407917
128	0xc038e58e	-2.889011
129	0xc039f744	-2.905717
130	0xc039bb44	-2.9020548
131	0xc0180411	-2.3752482
132	0xc02c4fc1	-2.6923678
133	0xc03c3361	-2.940636
134	0xc021954e	-2.5247378
135	0xc037939b	-2.8683841
136	0xc025b8a5	-2.5893948
137	0xc054fd5e	-3.3279643
138	0xc039f7d0	-2.9057503
139	0xc044a8a8	-3.072794
140	0xc041f0ab	-3.0303142
141	0xc03a476f	-2.91061
142	0xc02e1224	-2.7198572
143	0xc030b90c	-2.7612944
144	0xc0416697	-3.0218866
145	0xc04bf515	-3.1868336
146	0xc03cd290	-2.9503517
147	0xc02a21aa	-2.6583047
148	0xc0397e26	-2.8983245
149	0xc03fc502	-2.9963994
150	0xc0594fac	-3.3954878
151	0xc0370647	-2.8597581
152	0xc02c5bf6	-2.6931129
153	0xc020883d	-2.5083153
154	0xc03ab85e	-2.9175029
155	0xc03588aa	-2.8364663
156	0xc03a5b0d	-2.9118073
157	0xc03d176f	-2.9545553
158	0xc02dd036	-2.7158332
159	0xc02a16cd	-2.6576416
160	0xc038f44d	-2.889911
161	0xc0233eb5	-2.5507023
162	0xc0495e68	-3.146387
163	0xc0254868	-2.5825443
164	0xc032c2aa	-2.7931314
165	0xc03b960a	-2.9310327
166	0xc025f755	-2.593221
167	0xc02e21c0	-2.72081
168	0xc052b5a9	-3.2923377
169	0xc048b773	-3.1361969
170	0xc03d86a5	-2.961343
171	0xc03ba39f	-2.9318616
172	0xc03b3c00	-2.925537
173	0xc03e17bc	-2.9701986
174	0xc0384563	-2.879235
175	0xc04d8fe2	-3.211907
176	0xc04895a4	-3.1341333
177	0xc048d59d	-3.138038
178	0xc0332e75	-2.7997105
179	0xc0364188	-2.8477497
180	0xc03ae80d	-2.9204133
181	0xc027f2f1	-2.624203
182	0xc0227564	-2.538415
183	0xc02f870d	-2.7426178
184	0xc043648a	-3.0530114
185	0xc02b98fc	-2.6812124
186	0xc02d62cc	-2.709155
187	0xc04fa1fc	-3.2442617
188	0xc041a130	-3.025463
189	0xc027ba2b	-2.6207378
190	0xc0483e22	-3.1287923
191	0xc0355e18	-2.833868
192	0xc021875d	-2.523887
193	0xc0264889	-2.5981772
194	0xc03c3b4f	-2.94112
195	0xc03a49a1	-2.910744
196	0xc011e81a	-2.2797914
197	0xc00e0841	-2.2192538
198	0xc0349631	-2.821667
199	0xc01f6063	-2.490258
200	0xc03d4fcd	-2.9579957
201	0xc03f775d	-2.9916604
202	0xc024b044	-2.5732584
203	0xc0410478	-3.0158978
204	0xc016d8c5	-2.3569806
205	0xc01b81a0	-2.4297867
206	0xc0145e7d	-2.318267
207	0xc022aa9e	-2.5416636
208	0xc002dd39	-2.0447524
209	0xc03f9ff1	-2.994137
210	0xc002107d	-2.0322564
211	0xc00b5869	-2.1772711
212	0xc02222a5	-2.5333645
213	0xc0188589	-2.3831503
214	0xc026cead	-2.6063645
215	0xc01cb85a	-2.448752
216	0xbfd2375a	-1.6423142
217	0xc001a950	-2.025959
218	0xc03198d0	-2.774952
219	0xc01b431b	-2.4259708
220	0xc00c6056	-2.1933799
221	0xc014b172	-2.3233304
222	0xc02c38bb	-2.6909626
223	0xc0027531	-2.0384028
224	0xc025fc60	-2.5935287
225	0xc044251c	-3.064765
226	0xc0441605	-3.063844
227	0xc04adf9f	-3.1698987
228	0xc03b69c6	-2.928331
229	0xc041deb5	-3.029218
230	0xc03b85ae	-2.9300342
231	0xc0336016	-2.8027396
232	0xc039c5b1	-2.9026911
233	0xc04369ad	-3.053325
234	0xc02e21b4	-2.720807
235	0xc031bcd1	-2.7771494
236	0xc0332e76	-2.7997108
237	0xc03ef9d4	-2.9839983
238	0xc01eed47	-2.4832323
239	0xc042244e	-3.0334659
240	0xc038a81b	-2.8852603
241	0xc02946a6	-2.644937
242	0xc01a3d04	-2.409974
243	0xc037c785	-2.8715527
244	0xc02888c8	-2.6333485
245	0xc036943a	-2.852797
246	0xc0256aac	-2.5846357
247	0xc019e6bf	-2.4047086
248	0xc03522dc	-2.8302526
249	0xc02f6f28	-2.7411594
250	0xc050b6fa	-3.261168
251	0xc029ebd2	-2.6550183
252	0xc03966e9	-2.8969061
253	0xc037e272	-2.8731961
254	0xc046eed8	-3.1083279
255	0xc03794c5	-2.8684552

lstm.hh.mu_bias f4 [128]
0	0xbe4874e3	-0.19575839
1	0xbe0541a3	-0.1301332
2	0xbcd3fcd0	-0.025877386
3	0xbee11699	-0.43962553
4	0xbe1a01b9	-0.1503972
5	0xbf0c7e77	-0.5488047
6	0xbe0292e0	-0.12751341
7	0x3eade0a7	0.3396046
8	0x3eb2696c	0.34846056
9	0x3db60e3b	0.08889433
10	0xbea560c6	-0.32300395
11	0x3dcefe6a	0.101071194
12	0x3ea7bca5	0.32761112
13	0xbe3255e9	-0.17415585
14	0x3dda1eca	0.10650404
15	0xbeb7882b	-0.35846075
16	0xbd403639	-0.04692671
17	0x3ec09f47	0.3762152
18	0xbb529a90	-0.0032135583
19	0xbf0ffe87	-0.5624775
20	0xbeca70c0	-0.39539146
21	0x3d2b2884	0.041786686
22	0xbdb78cee	-0.08962427
23	0x3d1701f7	0.03686711
24	0xbf0cd753	-0.5501606
25	0x3bfc0d41	0.0076920097
26	0x3e36bed2	0.1784623
27	0xbdd7daee	-0.105398044
28	0xbe177f93	-0.1479476
29	0xbf0fc80c	-0.5616462
30	0x3edb3127	0.42810938
31	0xbe17298d	-0.14761944
32	0xbe6eb4b3	-0.23311119
33	0xbd18bce6	-0.037289523
34	0x3e167b5e	0.14695498
35	0x3c0b397a	0.00849759
36	0xbdc638d9	-0.096788116
37	0x3e5f29b5	0.21793254
38	0x3d5e79b7	0.054315295
39	0x3f1955b8	0.5989642
40	0x3da26f17	0.07931345
41	0x3f0ce277	0.5503306
42	0xbda0bcef	-0.07848536
43	0x3e185370	0.14875579
44	0x3e468da2	0.19389966
45	0x3de95851	0.11393798
46	0xbdae1afe	-0.08501242
47	0xbdfe29b7	-0.124103
48	0xbd12dd11	-0.035855357
49	0x3eb92201	0.36158755
50	0x3f0fc696	0.56162393
51	0xbe2287f9	-0.15872182
52	0x3d1f3b11	0.03887469
53	0xbd7547b2	-0.059882827
54	0x3ee5d3ca	0.44888145
55	0xbc4c5874	-0.012472261
56	0x3d077d35	0.03307839
57	0x3e09db6c	0.13462609
58	0x3e67fc3c	0.22654814
59	0x3e5a464b	0.21315877
60	0xbe23ea1a	-0.16007271
61	0xbdcab27b	-0.09897324
62	0x3ee31784	0.44353878
63	0x3d15cd68	0.036572844
64	0xbde38bb6	-0.11110632
65	0x3d8da972	0.06917085
66	0x3f0604cb	0.52351063
67	0x3d7e2b23	0.062052857
68	0xbc8ead87	-0.017416729
69	0x3d491e27	0.04910102
70	0x3f12dece	0.5737122
71	0xbec9625f	-0.39332864
72	0x3eba5adc	0.36397445
73	0x3e49d319	0.19709434
74	0x3efb459b	0.49076542
75	0x3e6e9414	0.23298675
76	0xbefdd464	-0.49576104
77	0x3e1c57b9	0.15267839
78	0x3e859441	0.2608967
79	0x3ed3e494	0.4138533
80	0xbd0b93ad	-0.03407638
81	0xbf3c4def	-0.7355642
82	0xbe9b396c	-0.30317247
83	0xbe5b84e8	-0.21437418
84	0xbd0b63c3	-0.034030687
85	0xbe6532a6	-0.22382602
86	0xbe26e3c4	-0.16297823
87	0x3dfb3e79	0.12267775
88	0x3ed8e4c7	0.42362043
89	0x3d702c7b	0.05863617
90	0x3f1a81a8	0.6035409
91	0x3f0541d2	0.5205356
92	0x3e70984a	0.23495594
93	0x3e2cc8e4	0.16873509
94	0xbf33e722	-0.70274556
95	0x3e55e35a	0.20887509
96	0xbe384a8f	-0.17997192
97	0xbe356f38	-0.17718208
98	0x3c7eb14e	0.015545202
99	0x3db3d52a	0.08780892
100	0xbb9736ed	-0.004614702
101	0x3f1683ec	0.58795047
102	0x3e986a38	0.29768538
103	0x3e7840fa	0.24243537
104	0x3e96bb3b	0.2943972
105	0x3f564adf	0.83707994
106	0x3e704487	0.23463641
107	0xbcd9ca93	-0.026585853
108	0x3c053481	0.008130194
109	0xbd5300ed	-0.051514555
110	0x3ce43285	0.02785612
111	0xbe363f73	-0.17797641
112	0x3cf541cc	0.029938601
113	0xbdb24edd	-0.08706448
114	0x3e04d69d	0.12972493
115	0xbeeccc5c	-0.46249664
116	0xbe98ddb0	-0.29856634
117	0xbc7f529c	-0.01558366
118	0x3f3e1ac0	0.7425957
119	0xbe16ebee	-0.14738438
120	0xbeaf456e	-0.34232658
121	0xbe444b05	-0.19169243
122	0x3ebd7d0d	0.3700947
123	0xbc81b989	-0.01583554
124	0xbe4f86e0	-0.20266294
125	0xbe76b8ba	-0.24093905
126	0x3e4bbc71	0.19896103
127	0xbe78c35e	-0.24293277

lstm.hh.rho_bias f4 [128]
0	0xbfa88f77	-1.3168782
1	0xbf5e2fac	-0.8679149
2	0xbec52227	-0.3850262
3	0xbfc04c86	-1.5023353
4	0xbfe5e999	-1.7961913
5	0xc01dc7c7	-2.4653184
6	0xbf0ebf14	-0.5576031
7	0xbffa01da	-1.9531815
8	0xbf9fb5c1	-1.2477342
9	0xbf1cf760	-0.61314964
10	0x3cbe746e	0.023248877
11	0xbfd3b0d3	-1.6538337
12	0xbf475947	-0.778706
13	0xbfb9b1cd	-1.4507385
14	0xc00bd1b5	-2.1846745
15	0xc00bf3e6	-2.1867614
16	0xbfd9f308	-1.7027292
17	0xbfb647a1	-1.424061
18	0xbfc8a8d4	-1.5676522
19	0xbfbc6485	-1.4718176
20	0xbfb29e9f	-1.3954657
21	0xbf8355bc	-1.0260539
22	0xbfd564e3	-1.6671413
23	0xbf8cdd71	-1.1005079
24	0xbfbe3142	-1.4858782
25	0xbfeef024	-1.8667035
26	0xbf8277d8	-1.0192823
27	0xbfed62e0	-1.8545799
28	0xbfc3c79c	-1.5295291
29	0xbfc8a7cb	-1.5676206
30	0xbf88efb2	-1.0698149
31	0xc01809f8	-2.3756084
32	0xbfe41986	-1.7820289
33	0xc0061f59	-2.0956633
34	0xbecb8c9b	-0.3975571
35	0xc008c2c1	-2.1368868
36	0xc006a174	-2.1036043
37	0xc035f987	-2.843355
38	0xbf08de24	-0.5346396
39	0xbfd65eca	-1.6747677
40	0xbfa474b3	-1.2848114
41	0xbfb23bf3	-1.3924545
42	0xbf2b1b91	-0.6683894
43	0xbf87113b	-1.0552133
44	0x3e04353d	0.12910934
45	0xbfe171ff	-1.7612914
46	0xbff06cf3	-1.8783249
47	0xbfe42af2	-1.7825606
48	0xc01087c4	-2.2582865
49	0x3ed53ed5	0.416495
50	0xbfa923e9	-1.3214084
51	0xbfee9c11	-1.8641378
52	0xbff7b49a	-1.935199
53	0xbf2ae817	-0.6676039
54	0xc00079ba	-2.0074296
55	0xbfdf0373	-1.7422928
56	0xbfdf54a6	-1.7447708
57	0xbfd11785	-1.6335303
58	0x3e099340	0.13435078
59	0xbde15e79	-0.11004347
60	0xbfafd15d	-1.3735768
61	0xbffe2cf9	-1.9857475
62	0xbe7cb355	-0.24677785
63	0xc005342c	-2.0813093
64	0xc05227a1	-3.2836688
65	0xc0246ebe	-2.5692592
66	0xc00d388f	-2.206577
67	0xc0360890	-2.8442726
68	0xc052a507	-3.2913225
69	0xc033b44c	-2.8078794
70	0xbff84b19	-1.9397918
71	0xc026a0fe	-2.6035762
72	0xc02fe5d1	-2.7484019
73	0xbfe5e94d	-1.7961823
74	0xc0098118	-2.1485043
75	0xc003dc1f	-2.0603101
76	0xbff30de2	-1.8988612
77	0xc01e6971	-2.4751856
78	0xc0105f84	-2.2558298
79	0xbfce9a46	-1.614083
80	0xc02ebe67	-2.7303712
81	0xbf5e1205	-0.86746246
82	0xc0111178	-2.2666912
83	0xc05bfa8e	-3.4371676
84	0xc01f20e6	-2.486383
85	0xc01ffc1c	-2.4997625
86	0xc00a51b7	-2.1612375
87	0xc02ff848	-2.749529
88	0xc04a8bf3	-3.1647918
89	0xc017ea09	-2.3736594
90	0xbfcd7126	-1.6050155
91	0xbfee2663	-1.8605465
92	0xc034f329	-2.8273413
93	0xc054e176	-3.326261
94	0xbe9c7bc0	-0.30563164
95	0xc04d0543	-3.2034461
96	0xbf6ed650	-0.93295765
97	0xbf0a4513	-0.5401165
98	0xc0170ec7	-2.360277
99	0xbfec15b8	-1.8444128
100	0xbffaebb9	-1.9603187
101	0xbd427816	-0.047477804
102	0x3cc9ff79	0.024657952
103	0xc0245c72	-2.5681424
104	0xbfebe9dd	-1.8430744
105	0xbf8311c8	-1.0239801
106	0x3e5f2b44	0.21793848
107	0xbfd91240	-1.6958694
108	0xc0228737	-2.5395029
109	0xc01a0868	-2.406763
110	0xbff0589d	-1.8777043
111	0xbff3f5ee	-1.9059427
112	0xbf8f727b	-1.1206812
113	0xc0194e9a	-2.3954225
114	0xc0254862	-2.582543
115	0xc00907fd	-2.1411126
116	0xc0253605	-2.581422
117	0xbfc14d84	-1.5101781
118	0xbef8f19f	-0.48621842
119	0xc0076e09	-2.116091
120	0xbf60f54c	-0.87874293
121	0xbfaf8b78	-1.3714437
122	0xc011d5e4	-2.2786798
123	0xc0321fb6	-2.7831855
124	0xbfbedc97	-1.4911069
125	0xbff394d5	-1.9029795
126	0xc026b64d	-2.6048768
127	0xbfbcf8b3	-1.4763397

l1.mu_weight f4 [16, 32]
0	0xbeaac3a3	-0.33352384
1	0xbd8530ad	-0.06503425
2	0xbec4d334	-0.38442385
3	0x3ee6e3af	0.45095584
4	0xbf4ccd15	-0.8000043
5	0xbe0a4f79	-0.13506879
6	0xbf385440	-0.72003555
7	0x3f0b44df	0.54401964
8	0xbea2a710	-0.31768084
9	0xbf0a93ea	-0.5413195
10	0xbf1d13f9	-0.613586
11	0xbf0ee19f	-0.5581302
12	0x3ed1a1d4	0.40943778
13	0xbf1e2001	-0.61767584
14	0xbed9b40b	-0.42520174
15	0xbf3bf159	-0.7341514
16	0x3edb8016	0.4287116
17	0x3f3ae54f	0.7300615
18	0x3e47f776	0.19527993
19	0xbe8c9a68	-0.27461553
20	0x3f2e7ee5	0.68162376
21	0xbe0d7e88	-0.13817799
22	0xbe8fc85c	-0.2808255
23	0xbf178d3e	-0.59199893
24	0x3f0e7b11	0.55656534
25	0xbf44a0ea	-0.76808035
26	0xbf426690	-0.7593775
27	0xbf187632	-0.5955535
28	0x3e5b12f7	0.21393953
29	0x3ea2cbe4	0.3179618
30	0x3f358c2f	0.7091703
31	0x3f1a73c1	0.60332876
32	0x3f01a893	0.5064785
33	0xbc0dc4e7	-0.008652902
34	0x3ee270d3	0.44226703
35	0xbee70a57	-0.45125076
36	0x3f3ccf20	0.7375355
37	0xbbb25e6c	-0.005443385
38	0x3f1f1a2d	0.62149316
39	0xbf04fbdc	-0.51946807
40	0x3efcc699	0.49370268
41	0x3f17d1f7	0.59304756
42	0x3f32aadc	0.6979196
43	0x3f06d61f	0.5267047
44	0xbe876009	-0.26440457
45	0x3f419a2b	0.75625867
46	0x3f122678	0.5708995
47	0x3f566f8a	0.83763945
48	0xbedb041d	-0.42776576
49	0xbf3f0fe1	-0.74633604
50	0xbdedb5ba	-0.11606927
51	0x3ed76f3a	0.42077047
52	0xbef68bed	-0.4815363
53	0x3daa0955	0.08302561
54	0x3ed564ea	0.41678554
55	0x3ed107c4	0.40826237
56	0xbed55a6a	-0.41670543
57	0x3f31d6e0	0.694685
58	0x3f66dc77	0.9018015
59	0x3ef1ca03	0.47224435
60	0xbecd3ac5	-0.400839
61	0xbef2c6b0	-0.47417212
62	0xbf421d17	-0.7582564
63	0xbeec6e81	-0.46178058
64	0x3f10ad07	0.5651402
65	0x3e570974	0.209997
66	0x3ed36181	0.41285327
67	0xbecfefa7	-0.40612528
68	0x3f4365ef	0.76327413
69	0x3e4e3924	0.20138985
70	0x3f124807	0.57141155
71	0xbf1a32c8	-0.60233736
72	0x3e7f6087	0.24939166
73	0x3f1db77e	0.6160811
74	0x3eeaf642	0.45891005
75	0x3eba5d59	0.36399344
76	0xbeffeda6	-0.49986
77	0x3f4d3ce7	0.80171055
78	0x3f298304	0.6621554
79	0x3f3d1637	0.7386202
80	0xbef876c1	-0.48528102
81	0xbf20e231	-0.6284514
82	0xbe505511	-0.2034495
83	0x3ea233b8	0.31680083
84	0xbf32205f	-0.69580644
85	0x3e0832ea	0.13300672
86	0x3e9100cb	0.28320917
87	0x3f41a3f4	0.756408
88	0xbef37879	-0.4755285
89	0x3f0d382d	0.5516384
90	0x3f6526de	0.8951243
91	0x3f013d9f	0.5048465
92	0xbee25ca1	-0.44211295
93	0xbea89589	-0.32926586
94	0xbf30ad43	-0.69014376
95	0xbefdd031	-0.495729
96	0x3edb0b24	0.42781937
97	0xbe08f90c	-0.13376254
98	0x3e328a44	0.17435557
99	0xbeae18a5	-0.34003177
100	0x3f3daf58	0.7409568
101	0x3d688d59	0.056775425
102	0x3f03fc11	0.515565
103	0xbf2f08a3	-0.68372554
104	0x3ee77b71	0.45211366
105	0x3ee9f1cb	0.45692286
106	0x3ef32fe5	0.47497478
107	0x3ef2b4ab	0.47403464
108	0xbee401a3	-0.445325
109	0x3f28cabf	0.65934366
110	0x3f075dc0	0.52877426
111	0x3f59f6bb	0.85142106
112	0xbefc1376	-0.49233598
113	0xbf40be4a	-0.7529036
114	0xbe55b4a8	-0.20869696
115	0x3ec7f6a0	0.39055347
116	0xbf0c90f7	-0.549087
117	0x3e44e074	0.19226247
118	0x3ea0fc65	0.31442562
119	0x3f07eab5	0.5309251
120	0xbebe69eb	-0.37190184
121	0x3f42f0a3	0.7614843
122	0x3f4f9d6d	0.8109959
123	0x3f425ed5	0.7592595
124	0xbeb0c1d3	-0.34522876
125	0xbedc93f7	-0.43081638
126	0xbf20e566	-0.62850034
127	0xbefe2c31	-0.4964309
128	0x3e9f52a9	0.31117752
129	0xbe3b4ad4	-0.18290263
130	0x3edce6b6	0.43144768
131	0xbf17f19f	-0.5935306
132	0x3f50ba99	0.81534725
133	0x3e69a9eb	0.22818725
134	0x3f1a446b	0.6026065
135	0xbf32a491	-0.6978236
136	0x3e1692fa	0.14704505
137	0x3f63ebff	0.89031976
138	0x3f1cfb21	0.6132069
139	0x3efc5a93	0.49287853
140	0xbeeb17d0	-0.45916605
141	0x3f0e5529	0.55598694
142	0x3f060850	0.52356434
143	0x3f463330	0.77421856
144	0xbf13f7ce	-0.57799995
145	0xbf3a6b9b	-0.7282044
146	0xbcd5ebd7	-0.026113434
147	0x3f09b2a3	0.53788203
148	0xbf1b290c	-0.6060951
149	0x3e582dda	0.21111241
150	0x3ef528ab	0.4788259
151	0x3f2b54fc	0.6692655
152	0xbeb5071a	-0.3535698
153	0x3f346cbe	0.7047843
154	0x3f63941f	0.8889789
155	0x3f1d2943	0.61391085
156	0xbf10b8b5	-0.5653184
157	0xbe01f231	-0.12690045
158	0xbf56eb10	-0.83952427
159	0xbeaa4c34	-0.33261263
160	0x3eefdb73	0.46847114
161	0x3cc51a31	0.02406034
162	0x3f088544	0.5332835
163	0xbed2be1e	-0.41160673
164	0x3f49a884	0.7877276
165	0x3de530fd	0.111909844
166	0x3f245b65	0.64201957
167	0xbf175e2d	-0.59128076
168	0x3e9adb0c	0.30245245
169	0x3f1e7ff6	0.61914
170	0x3f06f434	0.52716374
171	0x3ed3cb7c	0.41366184
172	0xbeb8e626	-0.3611309
173	0x3f49360c	0.78598094
174	0x3f2935ac	0.6609752
175	0x3f4a3186	0.78981817
176	0xbea0fc62	-0.31442553
177	0xbf2faa24	-0.6861899
178	0xbea23f8f	-0.31689116
179	0x3e91a958	0.28449512
180	0xbebe3dae	-0.37156433
181	0x3e967918	0.29389262
182	0x3eebf760	0.4608717
183	0x3eab80a5	0.33496585
184	0xbee9d871	-0.45672944
185	0x3f251fba	0.64501536
186	0x3f3aec47	0.7301678
187	0x3f156d40	0.5836983
188	0xbf0c2f6c	-0.5475986
189	0xbe8dcbc5	-0.27694526
190	0xbf570df5	-0.8400567
191	0xbeb8e0d5	-0.36109033
192	0x3ef5ea47	0.48030302
193	0xbd42883b	-0.0474932
194	0x3ec737fc	0.389099
195	0xbf04c2f6	-0.51859987
196	0x3f428cff	0.7599639
197	0x3e97e7d1	0.2966905
198	0x3f490067	0.7851624
199	0xbf25c3ee	-0.6475209
200	0x3e839728	0.2570126
201	0x3f3cc0c4	0.73731637
202	0x3f3c15ba	0.7347065
203	0x3f1d97fd	0.6156004
204	0xbefd6288	-0.49489236
205	0x3f29f695	0.6639188
206	0x3f325939	0.6966739
207	0x3f489913	0.7835857
208	0xbf15243a	-0.582584
209	0xbf17cd84	-0.59297967
210	0xbe46ccca	-0.19414058
211	0x3e87ea86	0.26546115
212	0xbf4046d4	-0.75108075
213	0x3d49305d	0.04911839
214	0x3ec0a537	0.3762605
215	0x3ece420a	0.4028476
216	0xbeac6f72	-0.33678776
217	0x3f32317a	0.69606745
218	0x3f4f3091	0.8093348
219	0x3efea847	0.4973776
220	0xbedd72db	-0.4325169
221	0xbea293ac	-0.3175329
222	0xbf585cc7	-0.84516567
223	0xbee81ee1	-0.4533606
224	0x3f08fffa	0.5351559
225	0x3e13f4bd	0.14448829
226	0x3f1c0906	0.6095127
227	0xbec3238b	-0.38113055
228	0x3f524d28	0.8214898
229	0x3e46cbf8	0.19413745
230	0x3f2415ce	0.6409577
231	0xbf22aa69	-0.63541275
232	0x3e810e83	0.25206384
233	0x3f4a377d	0.7899092
234	0x3f26c13b	0.65138596
235	0x3f049ba4	0.5179999
236	0xbecb19dc	-0.39668167
237	0x3f047edf	0.5175609
238	0x3f17187a	0.59021723
239	0x3f53e383	0.8276903
240	0xbf21eb19	-0.63249356
241	0xbf2f92ea	-0.6858355
242	0xbe808dbb	-0.25108132
243	0x3ebec73e	0.37261385
244	0xbf2685a2	-0.6504766
245	0x3e029839	0.12753381
246	0x3e768fce	0.24078295
247	0x3f147cf5	0.5800317
248	0xbeee3c60	-0.46530437
249	0x3f442d41	0.7663155
250	0x3f606f44	0.8766978
251	0x3f0d4f75	0.55199367
252	0xbef76cb0	-0.4832511
253	0xbeb46795	-0.35235277
254	0xbf6a879a	-0.9161316
255	0xbec3e064	-0.38257134
