BNN/BNN_model_state_FD001_test.pt (torch, 57845 bytes, 14 tensors)

lstm.ih.mu_weight f4 [128, 14]
000000 c8 41 8f 3d 79 a8 b5 3d 5e ac 7f bd 8a 3c 18 3d
       0.06994969 0.08870024 -0.06242024 0.03716711
000010 e3 93 38 3e 53 5e 84 bd 93 d8 00 be 52 59 a0 bd
       0.18025164 -0.064633034 -0.12582617 -0.078295365
000020 38 be 10 3d 4a 0a 91 3e 34 86 99 be 5a 4f 85 be
       0.035337657 0.28328162 -0.299852 -0.26037103
000030 a1 6b 09 bc 92 fa e6 bc 62 02 0b be dc b5 75 3d
       -0.008387477 -0.028195653 -0.13575128 0.059987888
000040 58 c5 72 3c 71 0c cc bd 8f a2 84 be 55 90 2d 3c
       0.014817558 -0.099633105 -0.25905272 0.0105934935
000050 44 da 9f be 56 11 30 3e 26 db c2 bc 7e bc d8 3c
       -0.3122121 0.17194113 -0.023786139 0.026457068
000060 17 4f b5 3d 13 f1 90 3d ec 7a 65 3e bb ee bf 3e
       0.08852976 0.07077231 0.22410172 0.37486824
000070 bf ff fc 3c 27 92 f2 3d fd 15 dd 3d 96 e1 04 3e
       0.030883668 0.118442826 0.107952096 0.12976679
000080 a7 07 d9 bb 8c ec 9b bd 9a 93 ca 3d 1f 50 7a 3d
       -0.0066232267 -0.07613477 0.09891434 0.061111566
000090 b9 31 fb 3d 0b 91 45 3d 55 bc b1 bc d5 32 ba bd
       0.12265343 0.048234027 -0.021696249 -0.09091727
0000a0 f7 63 9a be 4e 3a 00 bd 38 03 24 bd 07 09 58 3d
       -0.30154392 -0.031305604 -0.040042132 0.052742984
0000b0 5b 34 96 be 01 d8 54 3e 1a 40 04 be 0e 57 44 be
       -0.2933682 0.20785524 -0.12915078 -0.19173834
0000c0 6a 41 8d be 28 2c 68 3c 1f d0 00 3e f0 00 ea 3c
       -0.2758897 0.014170684 0.12579392 0.0285649
0000d0 52 ae 06 be f7 28 6c 3c d6 15 15 3d 35 97 87 be
       -0.13152435 0.014414064 0.036397777 -0.2648255
0000e0 d8 cd b9 be 96 62 52 bd a7 fc 80 be 36 ec b7 3e
       -0.3628986 -0.05136355 -0.25192758 0.35922402
0000f0 d6 8f 70 bd 88 fe a5 3d ce e0 b0 be 41 39 d3 3e
       -0.058730923 0.081051886 -0.34546512 0.4125462
000100 5a c7 62 3e 2e d9 cd bb 21 a4 22 bd 54 98 17 be
       0.22146359 -0.0062819934 -0.039707307 -0.14804202
000110 71 d6 80 3e bf 7a 15 3e 22 26 48 bd bf 08 10 be
       0.25163606 0.14597605 -0.04886449 -0.14065836
000120 24 85 af 3c e9 72 82 3e fc 31 ff bd 01 62 5f bd
       0.021425791 0.25478294 -0.12460706 -0.054536823
000130 84 0a 61 be f1 d1 9d 3e ac 63 fb be 7c 2f 6c 3e
       -0.21976668 0.30824235 -0.4909948 0.23064989
000140 92 6c ff 3e 79 dd bf bd 02 a6 8b be 21 e0 a5 bc
       0.4988752 -0.093684144 -0.2727509 -0.020248475
000150 ad 03 c1 3c cc cf f8 bb 2f 1b 15 3e 7c e1 f6 3c
       0.023561323 -0.0075931307 0.14561151 0.030136816
000160 ed d2 87 3c f0 9e 3c 3e d3 c2 1c be ab 3c 59 3e
       0.01658007 0.18420005 -0.15308695 0.21214549
000170 ca e1 95 be 4e 96 9c bd 69 97 89 3e 87 f3 16 bc
       -0.29273826 -0.07645856 0.2687333 -0.009213335
000180 52 3e e0 bd 97 2d 85 3e 64 bd 2d 3e ad da d2 bd
       -0.10949387 0.26011345 0.16966778 -0.10295615
000190 a6 6f 45 3e 6b 5a 0c 3e e7 8b fb 3e c9 98 73 be
       0.19280872 0.13706367 0.49130175 -0.23788752
0001a0 5f bf 0e 3e 0c 66 1c 3d 3e fc 90 3e 6b ca 0f bd
       0.1394019 0.038183257 0.28317446 -0.03510515
0001b0 73 4a 2e bc 29 8c ac 3d 9f 78 91 bd b6 9c f1 bd
       -0.010637867 0.08425171 -0.07103085 -0.11797468
0001c0 4c 93 86 bd 67 f8 72 3d 40 73 d4 3d ed 2c c4 3d
       -0.065710634 0.059318926 0.10373545 0.095788814
0001d0 bc ca 8d 3e 16 ed 5a 3d ba 04 3b 3e 5e 3c 83 bd
       0.27693737 0.05344876 0.18263522 -0.064079985
0001e0 5a 85 e7 3d 59 b5 83 3e 1e 17 11 bd 5c c9 78 3d
       0.11304732 0.25724295 -0.035422437 0.060738906
0001f0 03 2e 89 bd 32 d1 30 be 4a 0c 48 3e 6c 8b 3e 3d
       -0.06698229 -0.17267302 0.19535938 0.04651968
000200 0d 29 ee 3e a3 f9 f4 3d 3b dc fb 3d fc 6a 12 be
       0.46515694 0.11961677 0.12297865 -0.14298624
000210 d3 91 71 3e f0 47 80 3c 7d a4 51 3e d1 4f 00 3e
       0.23590784 0.015659302 0.20472904 0.12530448
000220 a5 45 1f 3e d6 de 5c 3c da e4 bf be 57 19 e8 bd
       0.15553911 0.013480863 -0.37479287 -0.11332958
000230 51 02 2b bd 5e 83 35 bd a9 3a 0b be fb e3 83 3e
       -0.041750256 -0.044314735 -0.13596596 0.25759873
000240 5b 58 7f bd 8c 17 98 3e bd 90 6d 3e cf 41 02 3e
       -0.06234012 0.29705465 0.23199745 0.12720416
000250 e0 3d 9c ba 31 09 42 3e ee 7c 7c be aa fa f1 bb
       -0.0011920296 0.18948819 -0.24657032 -0.007384618
000260 f2 c5 c2 bd b9 82 19 bd 22 16 d0 bd e7 b1 76 3d
       -0.09510411 -0.037478182 -0.101604715 0.060228255
000270 53 88 b0 be 37 bb bc bd 41 a3 87 be ec e5 7e 3d
       -0.34479007 -0.09215396 -0.2649174 0.06223099
000280 b4 96 7a be e6 d3 9e 3d 3b 13 42 be 99 78 bc bd
       -0.24471551 0.0775526 -0.18952648 -0.0920269
000290 82 8a a4 bc fc 67 6e bd dd 9f 93 3d d1 75 83 bd
       -0.020085577 -0.058204636 0.07208226 -0.06418956
0002a0 5d ca 34 be 2e c6 92 be 63 30 be 3e 33 89 2a 3e
       -0.1765532 -0.28666824 0.3714629 0.166539
0002b0 d4 5f 76 3d ad 28 76 be 65 c2 c4 3d a9 8f 87 3e
       0.060149983 -0.24038954 0.0960739 0.26476792
0002c0 a2 07 3a be 55 ed 8e be 7e 16 cf 3d c1 a9 a4 bd
       -0.18166974 -0.27915445 0.10111712 -0.080401905
0002d0 ad 70 f0 3d 09 be 34 be da df 9b be bb 42 75 be
       0.11740241 -0.17650618 -0.30444223 -0.23951237
0002e0 71 c2 bd bd a9 a1 d1 3d 6b 2f 1c be 32 8d 11 bd
       -0.092656024 0.10235912 -0.15252464 -0.035535045
0002f0 b2 81 98 3d 35 70 0b 3d c8 56 0a 3e 47 b0 5e 3d
       0.074466124 0.034042556 0.13509667 0.05436733
000300 75 1f ad bd 66 90 89 be a9 8c d7 3d 39 a1 e2 bd
       -0.084532656 -0.2686798 0.10524876 -0.11065907
000310 59 0a 2b be 1d c1 18 3e dc d1 6d be 32 8a ca 3e
       -0.16703166 0.14917417 -0.23224586 0.3955856
000320 3a 9a cd 3d bf b5 c4 3e 0f 29 0c be 01 38 82 bd
       0.10039182 0.3841991 -0.13687538 -0.06358338
000330 eb da 34 3e 96 c2 73 3e eb bb 01 be a7 ea 1a bd
       0.17661636 0.23804697 -0.12669341 -0.03782144
000340 85 4d 26 be d7 f8 bf bd 08 4e 17 be 20 92 b3 bd
       -0.16240509 -0.09373634 -0.1477586 -0.087681055
000350 2c 58 27 be 3e 3f b5 3e 46 4b 19 3d 12 28 b1 be
       -0.16342229 0.35399812 0.037425302 -0.34600884
000360 36 28 24 be f1 9a 81 3e f7 97 b3 bc e3 d0 87 3e
       -0.16030964 0.25313523 -0.021923048 0.26526555
000370 c7 be 56 be 20 51 19 be c5 b1 f9 3d be 03 3d 3e
       -0.20971213 -0.14972353 0.1219211 0.18458459
000380 75 83 5b be 95 22 8d bd 27 e5 95 3c bb 6f e0 bd
       -0.21436866 -0.068913616 0.018297745 -0.10958811
000390 8b e7 41 be ca 8f 8d bc 26 3e 51 3c 32 82 4b 3e
       -0.18935983 -0.017280478 0.012771165 0.19873884
0003a0 ac 26 e3 bc 1a fb a1 bd 04 52 ec be b0 6f d0 3c
       -0.027728401 -0.07909222 -0.46156323 0.025443882
0003b0 2b ff 88 3d dc d1 89 be f4 16 3c 3e 2f 4d 14 3e
       0.066892944 -0.26917922 0.18368131 0.14482568
0003c0 47 dd 39 3e 4f 6b 98 bc ed a5 48 3e 53 45 19 3d
       0.18150817 -0.018605856 0.19594546 0.03741963
0003d0 e6 12 2b 3e 89 50 43 be 76 76 17 3e 18 2d ab 3e
       0.16706428 -0.1907369 0.14791283 0.3343284
0003e0 d3 aa 5d 3e b2 b8 7b bc a8 cc 04 be 8d 26 3a be
       0.21647196 -0.015363859 -0.12968695 -0.18178768
0003f0 99 b3 99 3d 1e b4 72 3e b6 3d dc bd fe bc 99 3b
       0.07504959 0.23701522 -0.10753958 0.004691719

lstm.ih.rho_weight f4 [128, 14]
000000 24 5b 43 c0 86 a6 34 c0 73 23 35 c0 6a ee 3c c0
       -3.0524378 -2.8226638 -2.8302886 -2.9520516
000010 0e b9 3e c0 80 0b 34 c0 3b ae 36 c0 33 54 3c c0
       -2.9800448 -2.813202 -2.8543842 -2.942639
000020 d1 aa 36 c0 fc f9 28 c0 21 29 41 c0 03 09 38 c0
       -2.8541758 -2.6402578 -3.0181353 -2.87555
000030 7a 31 33 c0 ef b3 33 c0 01 08 30 c0 4e fa 39 c0
       -2.7998948 -2.8078573 -2.7504885 -2.9059024
000040 57 1c 40 c0 fb b9 33 c0 67 4b 35 c0 50 81 30 c0
       -3.0017297 -2.8082263 -2.8327272 -2.7578926
000050 db 55 2b c0 60 7d 3c c0 70 8f 35 c0 13 db 3e c0
       -2.6771152 -2.9451523 -2.8368797 -2.9821212
000060 04 f9 33 c0 d0 51 39 c0 47 9b 34 c0 d8 0b 2f c0
       -2.8120737 -2.8956184 -2.8219774 -2.735098
000070 b2 32 2a c0 fc 0c 40 c0 8b 6f 38 c0 15 37 3b c0
       -2.6593442 -3.0007925 -2.881808 -2.925237
000080 f1 b0 3d c0 66 5c 33 c0 78 65 30 c0 1e 3e 34 c0
       -2.9639246 -2.8025146 -2.7561932 -2.8162913
000090 96 6c 35 c0 93 55 37 c0 a1 b3 29 c0 fb 96 3b c0
       -2.8347526 -2.864598 -2.6515887 -2.93109
0000a0 1a 2e 37 c0 03 54 31 c0 d6 2f 3f c0 07 4c 32 c0
       -2.8621888 -2.7707527 -2.9872947 -2.7858903
0000b0 8a 14 36 c0 2c 83 3f c0 34 0a 3b c0 c4 d2 2a c0
       -2.8450036 -2.992381 -2.9224977 -2.669114
0000c0 98 87 2f c0 30 de 2c c0 6f 85 35 c0 78 7d 33 c0
       -2.742651 -2.7010612 -2.8362691 -2.804533
0000d0 80 34 3d c0 71 0a 32 c0 24 bf 3b c0 61 83 28 c0
       -2.9563293 -2.7818873 -2.9335413 -2.6330187
0000e0 63 29 3e c0 7a b0 31 c0 1d 15 48 c0 83 bb 35 c0
       -2.971276 -2.7763963 -3.1262887 -2.8395698
0000f0 d1 d0 34 c0 d3 96 3f c0 46 60 40 c0 d1 df 3f c0
       -2.8252451 -2.9935806 -3.005876 -2.9980357
000100 73 d8 34 c0 9a 94 39 c0 c8 29 39 c0 d0 8e 48 c0
       -2.825711 -2.899695 -2.8931751 -3.1337166
000110 c4 d2 35 c0 44 c8 34 c0 62 2d 44 c0 ab 17 25 c0
       -2.840989 -2.8247232 -3.06527 -2.5795696
000120 1f 85 3c c0 44 02 3c c0 f5 e8 3d c0 2f 30 3e c0
       -2.945625 -2.9376383 -2.9673436 -2.971691
000130 da 80 43 c0 09 8d 42 c0 13 e0 4c c0 45 07 3f c0
       -3.0547395 -3.039858 -3.2011764 -2.9848187
000140 e1 80 35 c0 f3 c6 37 c0 3f b8 2c c0 c5 f6 41 c0
       -2.8359911 -2.871518 -2.6987455 -3.0306866
000150 99 7a 3a c0 5c 39 3a c0 f2 49 3a c0 10 97 40 c0
       -2.9137328 -2.909751 -2.9107633 -3.0092201
000160 84 09 36 c0 5c 71 31 c0 ab 18 33 c0 7d 50 3d c0
       -2.8443308 -2.772544 -2.7983806 -2.9580376
000170 43 05 3d c0 e3 f9 2d c0 c1 cd 32 c0 e5 cd 31 c0
       -2.9534461 -2.7183769 -2.7938082 -2.7781918
000180 73 8e 39 c0 88 f6 3f c0 fd 2f 32 c0 2c d2 2f c0
       -2.8993194 -2.999422 -2.784179 -2.7472029
000190 45 2e 30 c0 d4 b6 3a c0 14 62 30 c0 69 49 39 c0
       -2.752824 -2.917409 -2.7559862 -2.8951056
0001a0 47 2c 41 c0 a6 23 34 c0 da 9e 33 c0 c9 b9 1e c0
       -3.0183275 -2.8146758 -2.8065705 -2.4800894
0001b0 5d cf 41 c0 01 24 36 c0 2d 6a 3e c0 8d 4b 36 c0
       -3.0282815 -2.8459475 -2.9752305 -2.8483613
0001c0 55 5f 28 c0 f9 38 2e c0 fe 47 3d c0 2f c9 42 c0
       -2.6308186 -2.7222273 -2.957519 -3.0435293
0001d0 7c 76 39 c0 e0 c6 35 c0 d5 50 2d c0 af 60 2f c0
       -2.8978567 -2.8402634 -2.7080586 -2.740276
0001e0 d3 7f 38 c0 a2 8b 30 c0 e2 8f 35 c0 e3 cd 43 c0
       -2.8828018 -2.7585225 -2.836907 -3.0594413
0001f0 f1 34 31 c0 8c 01 31 c0 8e d8 36 c0 33 6d 25 c0
       -2.7688563 -2.7657194 -2.8569674 -2.58479
000200 9b f2 24 c0 2b 4d 24 c0 a0 d7 28 c0 b6 64 2f c0
       -2.5773075 -2.56721 -2.6381607 -2.740522
000210 1c 66 28 c0 30 94 31 c0 1e b6 2c c0 eb 07 36 c0
       -2.6312323 -2.7746696 -2.6986156 -2.8442333
000220 4e f2 2f c0 9f fb 33 c0 06 81 23 c0 18 bf 29 c0
       -2.749164 -2.8122327 -2.55475 -2.6522884
000230 66 d0 38 c0 de 48 36 c0 16 c0 38 c0 5c 11 2d c0
       -2.8877196 -2.8481975 -2.886724 -2.7041845
000240 55 7a 4c c0 b7 27 35 c0 5c 43 24 c0 8d 79 2e c0
       -3.1949666 -2.830549 -2.5666113 -2.7261689
000250 32 ac 2e c0 9f ec 37 c0 f8 9d 2a c0 c2 41 3b c0
       -2.72926 -2.8738172 -2.6658916 -2.9258885
000260 5a bf 3b c0 4a 21 36 c0 c2 d0 24 c0 a1 81 2e c0
       -2.9335542 -2.8457818 -2.5752416 -2.726662
000270 81 de 30 c0 80 4b 1f c0 ca dc 1e c0 0c 11 30 c0
       -2.7635806 -2.4889832 -2.482226 -2.7510405
000280 15 f5 2d c0 69 a9 28 c0 cb aa 37 c0 a3 18 2f c0
       -2.7180836 -2.63534 -2.8697994 -2.7358787
000290 b6 e1 28 c0 5d 9e 24 c0 bc 2d 29 c0 a1 e8 21 c0
       -2.6387763 -2.5721657 -2.6434164 -2.5298235
0002a0 d9 e4 36 c0 71 c1 2e c0 86 9b 2c c0 9c 8a 31 c0
       -2.8577178 -2.7305567 -2.6969924 -2.774085
0002b0 54 81 32 c0 48 06 2b c0 1a be 26 c0 d1 aa 25 c0
       -2.7891436 -2.6722584 -2.6053529 -2.5885508
0002c0 4a 77 25 c0 e1 8c 39 c0 a4 fc 3b c0 72 62 2e c0
       -2.5854058 -2.8992236 -2.937295 -2.7247586
0002d0 b2 09 3d c0 a0 c8 3a c0 a2 cf 2f c0 56 e4 3a c0
       -2.9537168 -2.9184952 -2.747048 -2.9201865
0002e0 66 6e 33 c0 b3 cc 2d c0 ba 1b 46 c0 33 53 3f c0
       -2.8036132 -2.7156188 -3.0954423 -2.989453
0002f0 e5 cc 37 c0 39 f5 3f c0 5d b7 3d c0 32 a4 42 c0
       -2.8718808 -2.9993422 -2.9643166 -3.0412717
000300 b7 d2 32 c0 9b 77 3c c0 02 07 3b c0 91 b2 38 c0
       -2.794111 -2.9448001 -2.9223027 -2.8858988
000310 46 49 3c c0 68 75 45 c0 29 e8 38 c0 76 92 3f c0
       -2.9419723 -3.085291 -2.88917 -2.9933143
000320 9e 69 3e c0 20 98 35 c0 e6 46 40 c0 52 e6 2e c0
       -2.9751964 -2.83741 -3.0043273 -2.7328076
000330 b1 a7 39 c0 cc bc 33 c0 6c f8 38 c0 5a 66 34 c0
       -2.90086 -2.8083982 -2.8901625 -2.818747
000340 45 83 3f c0 52 e8 3d c0 cf 6b 43 c0 25 6f 3c c0
       -2.992387 -2.9673047 -3.053455 -2.9442837
000350 f7 3d 36 c0 c2 8b 33 c0 f1 bf 40 c0 69 17 31 c0
       -2.847532 -2.8054051 -3.0117152 -2.7670538
000360 22 10 35 c0 75 1c 3f c0 b9 ec 3a c0 9b 20 2d c0
       -2.8291097 -2.9861119 -2.9206984 -2.705115
000370 4c 70 32 c0 81 28 38 c0 42 fe 2f c0 e2 cb 40 c0
       -2.788104 -2.8774722 -2.7498937 -3.012444
000380 13 df 3f c0 93 40 41 c0 b3 8b 3d c0 c5 43 37 c0
       -2.9979904 -3.0195663 -2.9616516 -2.8635113
000390 5e 35 3d c0 c0 44 38 c0 1d 74 2f c0 1d 45 39 c0
       -2.9563823 -2.8791962 -2.741462 -2.8948433
0003a0 ab 46 48 c0 8e 7b 3d c0 d2 5f 37 c0 96 31 2a c0
       -3.1293132 -2.9606662 -2.8652234 -2.6592765
0003b0 53 64 39 c0 00 fa 3a c0 5d b7 36 c0 61 cb 30 c0
       -2.8967483 -2.9215088 -2.8549416 -2.7624133
0003c0 d9 28 35 c0 ea 18 2e c0 b3 9c 2d c0 38 a7 29 c0
       -2.8306181 -2.7202706 -2.7126892 -2.6508312
0003d0 5c 3a 39 c0 3c bc 2d c0 48 5c 3a c0 45 8a 24 c0
       -2.894187 -2.714614 -2.9118824 -2.5709393
0003e0 06 a9 29 c0 20 2d 2f c0 41 d0 33 c0 57 8f 2f c0
       -2.6509414 -2.7371292 -2.8095858 -2.7431238
0003f0 49 fc 37 c0 77 2b 25 c0 9f 3d 3c c0 88 07 30 c0
       -2.8747733 -2.580778 -2.941261 -2.7504597

lstm.ih.mu_bias f4 [128]
000000 c2 3c 9c bc 5f 87 86 bd c8 16 73 3d 34 e8 ec bb
       -0.01907194 -0.06568789 0.059347898 -0.007229829
000010 31 5c 92 3c 50 9f 49 bc 16 df 1c 3e 50 6d ce 3d
       0.017866226 -0.0123060495 0.15319476 0.100794435
000020 26 34 3f 3e f3 55 86 bd 68 b3 88 3c 23 9e 14 3e
       0.18672237 -0.06559362 0.01668711 0.1451345
000030 b0 66 cb 3e 11 7a d8 bc e5 c5 8e 3d 00 1d 46 3c
       0.39726782 -0.026425393 0.06971339 0.012091875
000040 df a5 88 be c9 5f 71 3d ac d1 af 3b c7 3e b2 bd
       -0.2668905 0.05892924 0.005365571 -0.0870338
000050 28 c7 95 bc fd cc d7 bc ab fe 4d be 23 0f 36 3d
       -0.018283442 -0.026342863 -0.2011668 0.04444803
000060 14 bb 8d bd d5 23 c4 3d 92 30 76 3e e9 44 29 3e
       -0.06920448 0.09577147 0.24041966 0.16530193
000070 57 33 06 be c1 a9 33 be 1b d3 41 3e ba 17 7e be
       -0.13105522 -0.17545225 0.18928187 -0.24813738
000080 62 bc 27 3d 0d de ff bc 71 19 10 3e 02 a4 ed 3d
       0.04095114 -0.031233812 0.14072205 0.11603548
000090 63 5d 89 39 28 a8 69 3e 16 d3 51 3d 78 3e 62 3e
       0.00026200255 0.22818053 0.051226698 0.22094142
0000a0 14 88 a1 3d 3e 0b 50 3c 64 56 97 3c f3 f7 56 3e
       0.07887283 0.012697993 0.018473811 0.20993023
0000b0 d1 f1 72 3e 24 49 13 be cc 9c c1 bd 4c 27 95 3d
       0.23725058 -0.1438337 -0.09453735 0.07282886
0000c0 45 ef 4d 3d 96 f1 04 3e 86 14 a4 3e a1 df 3e bd
       0.050277013 0.12982783 0.32046908 -0.046599988
0000d0 d6 9c 3c be 56 96 8c bd 57 03 53 3d 35 2e 1e 3e
       -0.18419203 -0.06864612 0.051516857 0.15447314
0000e0 35 d5 0e be e2 71 8b bd 96 b1 2b 3e 15 dd 38 3e
       -0.1394852 -0.06808831 0.16766962 0.18053086
0000f0 f4 93 6b 3d 25 8f 3e be 02 dc c5 3e 3a fd 7b be
       0.057514146 -0.18609293 0.38644415 -0.24608317
000100 55 23 07 be 2a db 3a 3e d0 a1 93 3e a8 85 d4 bd
       -0.13197072 0.18247667 0.2883439 -0.103770554
000110 9c 56 3b 3e 50 f8 7d bb 33 37 aa 3e c7 85 72 be
       0.18294758 -0.0038752742 0.3324524 -0.23683845
000120 b5 5a 22 3e 58 3c 79 3e 05 ef c5 3d 47 63 15 3e
       0.15854914 0.24339426 0.0966473 0.14588653
000130 b1 06 87 be cd 83 31 3e ed fb 54 3e 11 ee a9 3d
       -0.26372293 0.17335434 0.20799227 0.08297361
000140 84 6e 08 3d ff 8c b6 bd d2 57 7a be cb 93 8d bd
       0.03330852 -0.089136116 -0.24447563 -0.06912955
000150 a4 b7 88 be 3a 95 c2 3b 88 d4 af bc ee 49 05 ba
       -0.26702607 0.0059381993 -0.021463647 -0.0005084564
000160 3f ec 1a bd 4d d9 13 3e 14 29 15 3d 65 e6 42 3e
       -0.037822958 0.14438362 0.03641613 0.19033201
000170 d0 6e a0 bd 94 ec 36 3e 96 52 59 be cb 8d c8 3c
       -0.07833636 0.17863685 -0.2122291 0.024481675
000180 39 25 a4 bd 12 ad 42 3e f4 b4 90 3d 0d f5 53 bd
       -0.08014912 0.19011334 0.07065764 -0.05174737
000190 78 a8 76 3e 6b eb 02 3f 9a 42 30 bd 89 eb d7 3e
       0.24087703 0.5114047 -0.043032266 0.42171887
0001a0 b8 af 87 3e 54 a6 84 3e 9b b7 b4 bc e2 55 09 be
       0.2650125 0.25908148 -0.022060206 -0.13411668
0001b0 05 3a 15 3e 54 4a 73 3d 88 81 55 bc 39 56 da 3c
       0.14572914 0.059397057 -0.013031371 0.026652442
0001c0 9a d5 88 3e ef 5d 21 3e e5 ec 27 3e 3b 20 3c 3d
       0.26725465 0.15758489 0.16398962 0.045929175
0001d0 f1 68 5d bb 30 48 da 3c a4 56 52 bd 4a 84 7e 3e
       -0.0033784474 0.02664575 -0.05135216 0.24855152
0001e0 56 3a a5 3c 3e 86 1a 3e bd 62 8b bd 73 cf 15 3e
       0.020169418 0.15090272 -0.06805942 0.14629917
0001f0 5a 50 1e bd c8 9c 14 3e ec 56 ac 3d 4c 99 43 bd
       -0.038650848 0.14512932 0.084150165 -0.047753617

lstm.ih.rho_bias f4 [128]
000000 b3 63 1f c0 59 22 1e c0 8c a8 fc bf a5 87 13 c0
       -2.4904602 -2.4708464 -1.9738936 -2.305154
000010 ba e5 2d c0 3f 26 22 c0 68 47 2b c0 b8 10 16 c0
       -2.7171464 -2.5335844 -2.6762333 -2.3447704
000020 d6 cb 14 c0 6b 6f 01 c0 83 0b 20 c0 b5 50 08 c0
       -2.3249412 -2.0224254 -2.5007026 -2.129926
000030 26 3b fc bf 2b b3 2d c0 ac ad 2d c0 25 75 38 c0
       -1.9705551 -2.7140605 -2.713725 -2.88215
000040 e6 88 2b c0 d3 cb 1c c0 59 c6 0b c0 8e 22 17 c0
       -2.6802306 -2.4499404 -2.1839812 -2.361484
000050 93 c2 2a c0 76 ff 14 c0 36 a5 23 c0 e5 1a 16 c0
       -2.6681259 -2.328092 -2.5569587 -2.3453915
000060 c6 52 2f c0 9a af 16 c0 3f 4c 0b c0 fd ed 06 c0
       -2.739427 -2.3544679 -2.1765287 -2.1082757
000070 92 6f 14 c0 1b 7c 18 c0 10 57 03 c0 cf 98 1f c0
       -2.3193097 -2.3825748 -2.0521889 -2.4937017
000080 8a 8e 20 c0 ae 41 30 c0 fd ea 02 c0 f3 2b 32 c0
       -2.5087 -2.7540088 -2.0455925 -2.7839324
000090 b3 03 29 c0 0a 6c 23 c0 2a b1 33 c0 fa f5 1e c0
       -2.6408508 -2.5534692 -2.8076882 -2.4837632
0000a0 85 05 16 c0 c0 ed fe bf 18 e9 18 c0 f0 86 13 c0
       -2.344087 -1.9916306 -2.389227 -2.305111
0000b0 14 59 ff bf 84 dd 25 c0 0c 2e 2a c0 70 b1 2f c0
       -1.994906 -2.5916452 -2.6590605 -2.745205
0000c0 a2 43 35 c0 e1 6f 0c c0 93 7a 0b c0 58 b3 2b c0
       -2.832253 -2.1943285 -2.1793563 -2.6828213
0000d0 38 e8 35 c0 be d0 2a c0 ab ea 26 c0 e8 eb 26 c0
       -2.8422985 -2.6689906 -2.608073 -2.6081486
0000e0 ce b3 3a c0 41 ad 2a c0 4e 24 0b c0 dd 3f 01 c0
       -2.9172244 -2.6668246 -2.1740909 -2.019523
0000f0 c6 85 2b c0 46 6d 3f c0 16 29 f3 bf a7 fd 35 c0
       -2.68004 -2.9910445 -1.8996913 -2.8436067
000100 d0 24 29 c0 af af 45 c0 50 7d 23 c0 cd d5 41 c0
       -2.6428719 -3.0888479 -2.5545235 -3.0286744
000110 9e be 38 c0 eb f8 30 c0 39 bb 33 c0 08 17 3b c0
       -2.8866343 -2.7651927 -2.8083022 -2.9232807
000120 65 ba 36 c0 49 24 27 c0 7e 39 25 c0 d2 89 39 c0
       -2.8551266 -2.6115897 -2.581634 -2.899037
000130 d0 37 29 c0 78 28 3e c0 86 92 3c c0 75 1f 3c c0
       -2.6440315 -2.97122 -2.946443 -2.93942
000140 b9 db 37 c0 3c c0 2c c0 29 e1 31 c0 55 ec 42 c0
       -2.8727858 -2.699233 -2.7793677 -3.0456746
000150 90 9b 34 c0 08 fe 45 c0 be 86 39 c0 0f 21 2b c0
       -2.8219948 -3.0936298 -2.898849 -2.6738927
000160 32 90 46 c0 c3 b9 32 c0 a6 f0 31 c0 8b 73 2e c0
       -3.102551 -2.792588 -2.780313 -2.7258022
000170 8b 0f 52 c0 97 67 3d c0 23 42 28 c0 91 15 3b c0
       -3.2821987 -2.9594476 -2.6290367 -2.9231913
000180 1e 44 1d c0 d2 68 2d c0 68 40 1f c0 f4 57 0e c0
       -2.4572825 -2.7095227 -2.488306 -2.2241182
000190 db da 13 c0 8b fc 01 c0 fa d1 0c c0 83 e6 24 c0
       -2.3102329 -2.031039 -2.200316 -2.5765693
0001a0 20 d6 29 c0 b2 2b fc bf 70 de 05 c0 00 c2 1a c0
       -2.6536942 -1.9700835 -2.0917015 -2.4180908
0001b0 88 a7 1e c0 0b 0f 17 c0 48 65 0b c0 a0 e6 07 c0
       -2.4789753 -2.3602931 -2.1780567 -2.1234512
0001c0 6a 36 fb bf bd 95 39 c0 b2 41 24 c0 c1 7a 18 c0
       -1.9625981 -2.8997643 -2.5665097 -2.3824923
0001d0 80 27 22 c0 14 88 17 c0 94 f4 e7 bf 50 53 11 c0
       -2.533661 -2.3676805 -1.8121514 -2.27071
0001e0 55 9d db bf 12 83 fe bf 46 ca 15 c0 b7 19 16 c0
       -1.7157389 -1.988375 -2.3404708 -2.3453195
0001f0 93 4d 10 c0 c1 0d 15 c0 7a 7c 32 c0 c4 e9 24 c0
       -2.2547348 -2.3289645 -2.7888474 -2.576768

lstm.hh.mu_weight f4 [128, 32]
000000 b2 f8 1b bc 19 b7 87 bd 2d 82 c4 3d 24 19 56 bb
       -0.009519743 -0.0662672 0.095951416 -0.0032668794
000010 75 c3 4b bd be fe 0d be 56 ae d8 3b 8c de 04 be
       -0.04974695 -0.13866708 0.0066125793 -0.1297552
000020 fd 29 9e 3d 75 e6 24 3e de f0 15 be bb d0 5d 3d
       0.077228524 0.16103537 -0.14642665 0.05415414
000030 da b6 fb bd 34 5a cd bd 07 ff b6 3d ab 35 5f bc
       -0.122907355 -0.100269705 0.08935361 -0.013623635
000040 07 5d ff bc 98 a3 d8 bd 7d 51 35 be 59 b8 84 bd
       -0.031172289 -0.10578078 -0.17706867 -0.06480474
000050 bd 95 ad ba a8 79 ba bd 47 04 de 3d 0b f2 89 3e
       -0.0013243478 -0.09105235 0.108406596 0.26942477
000060 e1 73 a0 bd c6 28 d9 3c cb 22 0c 3d 07 d6 a6 bc
       -0.07834602 0.0265087 0.03421287 -0.020365728
000070 4e 9e 95 3d 4b ef 3a bd ff 61 57 3d 84 25 3d 3e
       0.07305585 -0.045638364 0.05258369 0.18471342
000080 1a a3 12 3e 31 e1 7a 3e 8b 3a 67 bd 0d 1f 5b 3e
       0.14320031 0.24499966 -0.056452315 0.21398564
000090 16 15 f0 3d a1 31 da 3d 7d a5 ce 3d b9 fb 87 bc
       0.11722772 0.10653997 0.10090158 -0.016599523
0000a0 23 9b a8 bc cb bb 4c 3e dd 6a 1e 3e f9 42 3d 3e
       -0.020581787 0.19993512 0.15470453 0.1848258
0000b0 0b ef 51 be 06 f6 a0 3e 63 47 07 3e 27 d2 03 3e
       -0.20501344 0.314377 0.13210826 0.12873136
0000c0 3c 78 99 3e 64 7e a2 bc 2d 8a 0b bc 57 16 c4 bd
       0.29974544 -0.019835658 -0.00851683 -0.095745735
0000d0 60 74 52 be 68 5c 02 3e 85 76 85 3d a9 f6 cd bd
       -0.20552206 0.12730563 0.065167464 -0.10056812
0000e0 0d f8 f7 3c 10 cf 14 bd fe 27 33 3e 8c 43 09 3e
       0.030269647 -0.036330283 0.17495725 0.13404673
0000f0 97 f3 41 bd 6b 6e 1f 3e 24 da 64 3c cb 56 46 3c
       -0.047351446 0.15569465 0.013968024 0.012105654
000100 7a 58 94 3d 3b e6 d7 3b 19 09 82 3e 25 e3 4b bc
       0.07243438 0.006588725 0.25397566 -0.012444292
000110 1d 42 37 3e d0 1c 39 3e ab 19 a2 3e 6e fb 9b be
       0.17896314 0.18077397 0.31660208 -0.30465263
000120 d5 f0 76 3e 6d 28 4a 3e ff f2 0c 3e 74 a7 69 3e
       0.24115308 0.19741984 0.1376457 0.22817785
000130 92 dd a1 be 65 fd 72 3e 5f 3b 94 3e 86 4f 2f 3d
       -0.31614357 0.23729475 0.28951547 0.04280045
000140 f1 d9 f3 bd ba 4b 4d be bb d2 da be b7 10 03 3e
       -0.119068034 -0.20048419 -0.427389 0.12799345
000150 de 26 00 be da 77 32 3c 4e 2a 9b bd aa ef 2d 3e
       -0.12514827 0.010892833 -0.07576428 0.16985956
000160 9f 89 3c bc 30 b0 23 3e 09 f2 3b 3e e3 ff f0 3d
       -0.011507421 0.15985179 0.18354048 0.117675565
000170 45 7f 98 3e 80 1e ab bd 39 5c 84 be 82 46 f7 bc
       0.297846 -0.08355427 -0.2585161 -0.030184988
000180 86 f2 82 3e 40 93 8c bd fe 42 ae ba aa 87 0a 3e
       0.25575656 -0.06864023 -0.0013295112 0.13528314
000190 5d e4 e9 bc ed 12 55 be ae eb ee 3c d0 8e 19 be
       -0.028551275 -0.20808001 0.029165115 -0.14995885
0001a0 5e 60 1a 3d 20 36 bd 3d bc 09 2d bc 51 4d ce 3d
       0.03768956 0.09238839 -0.010561403 0.10073341
0001b0 08 4d 7d bd cd a5 9f 3e 31 81 bf 3b d8 36 0b 3e
       -0.06184104 0.31181183 0.0058442582 0.1359514
0001c0 1e 8e 33 3d f2 cd 86 bc 6e 23 de be da 36 26 be
       0.043836705 -0.016455624 -0.43386406 -0.16231862
0001d0 af e9 f2 bd 47 ad 41 bc bc 7f 98 bd 91 62 c6 3c
       -0.11860978 -0.011821098 -0.074462384 0.024216922
0001e0 8a 45 75 be cd 19 b6 bd a1 74 32 3e d5 f2 4d 3e
       -0.23952308 -0.0889164 0.17427303 0.20112164
0001f0 8b eb db 3d eb 33 b6 bd 9e 73 47 be 34 25 bc bd
       0.10738286 -0.08896621 -0.19477698 -0.091867834
000200 53 2e 4c bc bd 89 65 be fa 9b ff bc c5 58 11 bd
       -0.012462216 -0.22415824 -0.031202305 -0.035485048
000210 c7 0e e3 3d b1 6c ab be d9 60 c9 bd 7e 92 81 bd
       0.11086803 -0.33481362 -0.09832925 -0.06326769
000220 55 17 d2 bd ad 2d 4d be ed c5 53 be 36 ea 63 be
       -0.102583565 -0.20036955 -0.20680971 -0.22257313
000230 50 0e 13 3d ca 93 10 be 08 83 9f 3c f2 b7 32 be
       0.03590232 -0.14118877 0.01947166 -0.17452982
000240 16 7a b6 3d 28 f6 ac bd e7 07 14 bd 4f e2 2f 3e
       0.08910005 -0.08445388 -0.03614035 0.17176174
000250 0d 62 17 bd 50 a6 37 bd c0 10 10 be 62 c4 fd bb
       -0.036958743 -0.044836342 -0.1406889 -0.007744358
000260 82 89 1c bd a2 db 89 3d a4 74 35 be f5 65 85 bc
       -0.038217075 0.06731345 -0.17720276 -0.016283968
000270 99 fa 20 be 04 e3 0b bd e2 0d d0 3d c7 82 ab 3d
       -0.15720595 -0.034152046 0.10158898 0.08374553
000280 95 80 c8 be 0a 55 2a be 04 f8 68 be 11 56 81 bd
       -0.391606 -0.16634002 -0.2275086 -0.06315244
000290 c5 25 f1 3b 72 5c 4c bf 1d 17 b2 3c 32 71 c4 3d
       0.007359239 -0.7982856 0.021739537 0.09591903
0002a0 a8 41 cd be 4e 59 34 be 6c da 8a bd c3 2b 71 be
       -0.40089154 -0.17612192 -0.06779942 -0.2355185
0002b0 7c ed 56 3e e1 e7 c7 bc 51 f7 56 be 83 6c 17 be
       0.2098903 -0.02440256 -0.20992781 -0.14787488
0002c0 46 d1 c4 bc 75 10 45 3e 04 a3 41 3d 2b 2a f8 3d
       -0.02402557 0.19244559 0.047274604 0.12117418
0002d0 b5 70 07 3e b9 52 59 3e 40 fa 51 3c cc 56 9d bb
       0.13226588 0.21222962 0.012816012 -0.0048016068
0002e0 6f 09 1d 3c d2 25 f5 3d bd 10 9b be 25 3f 4b be
       0.009584769 0.11970104 -0.30286208 -0.19848306
0002f0 cc 87 d9 bd 76 e3 b8 be 3d 90 55 3e c8 14 8c be
       -0.10621604 -0.3611104 0.20855804 -0.27359605
000300 ec 61 44 be c9 ac 9b bd 60 92 ae bd 1d 77 96 3d
       -0.19177979 -0.076013155 -0.085240126 0.07346938
000310 ee 4c 76 3d bd a9 36 3d 91 c8 36 be ba 07 e7 3d
       0.06013196 0.04459547 -0.17849948 0.112807706
000320 c1 4f 35 be af 8e 96 bd e5 ec e5 3c 2e 10 29 be
       -0.17706205 -0.073514335 0.028067062 -0.16510078
000330 3f e8 b2 bd 1b 25 13 be d2 3a 0e 3e 30 9b 84 bd
       -0.08735704 -0.14369623 0.13889626 -0.06474912
000340 34 70 9a be 90 53 07 3e c9 2a da bd f9 87 a4 bd
       -0.3016373 0.1321547 -0.10652692 -0.08033747
000350 d3 53 e6 3c c0 14 52 3e 23 d0 a7 3b 53 44 65 be
       0.028116142 0.20515728 0.0051212474 -0.22389345
000360 4c 28 f5 3a 39 71 f9 3d e1 a5 25 bc 49 82 32 be
       0.0018704026 0.12179799 -0.010110349 -0.17432512
000370 f6 41 ff bd 11 e8 69 bc 70 ba 56 bd 46 13 84 be
       -0.12463753 -0.01427652 -0.052423894 -0.25795954
000380 a4 41 d2 3b 36 8c d5 3c 0a 1f be 3c ed 45 a3 bd
       0.0064165164 0.026067834 0.02320816 -0.07972322
000390 4a 3c 64 bd fa 7b 63 bc 8c dd a4 3d d6 b3 a7 bd
       -0.05572156 -0.013884539 0.08050069 -0.08188598
0003a0 ed 70 93 3e 4b d1 65 bc b3 8b fe bd 8d d8 1a 3e
       0.28797093 -0.01402695 -0.12428989 0.1512167
0003b0 3b e5 8c be 93 24 98 3d 3b 8b 59 3e 29 cc a1 bd
       -0.2751864 0.07428851 0.21244518 -0.079002686
0003c0 e9 11 00 be dd 0b e4 bd c0 93 51 3d b8 c5 24 3e
       -0.12506832 -0.11135075 0.051166296 0.16091049
0003d0 be cd 35 be 27 1c 36 3d 96 47 ee bd ab 1c 9f 3d
       -0.17754266 0.044460442 -0.11634748 0.0776914
0003e0 15 8d 6a 3e 7c 88 6e 3c f8 55 c6 3d b8 57 c9 bb
       0.22905381 0.014558908 0.09684366 -0.00614449
0003f0 dd ee 6b 3e b5 3c b7 bd d5 cb 80 3d 98 71 8e 3d
       0.23040338 -0.08947126 0.06288878 0.0695526

lstm.hh.rho_weight f4 [128, 32]
000000 20 94 42 c0 42 0d 39 c0 53 c8 48 c0 54 d6 2c c0
       -3.0402908 -2.8914342 -3.1372268 -2.7005816
000010 96 70 3c c0 17 14 36 c0 48 9a 44 c0 15 49 3f c0
       -2.9443717 -2.8449762 -3.0719166 -2.9888356
000020 bc a0 3c c0 29 00 3c c0 66 63 49 c0 60 57 3e c0
       -2.9473104 -2.9375098 -3.1466918 -2.974083
000030 29 f8 41 c0 c9 e1 30 c0 fa 5d 3b c0 93 85 48 c0
       -3.0307715 -2.7637808 -2.9276109 -3.1331527
000040 9c 3d 33 c0 9c a6 3a c0 e2 fa 3f c0 0e 64 3c c0
       -2.8006353 -2.916419 -2.9996877 -2.9436069
000050 a1 a7 4b c0 21 11 40 c0 5b a3 3b c0 c8 f5 37 c0
       -3.1821063 -3.0010455 -2.9318454 -2.8743763
000060 94 93 32 c0 42 db 34 c0 e1 76 2b c0 f2 f6 44 c0
       -2.7902575 -2.8258824 -2.6791308 -3.0775723
000070 87 6b 32 c0 66 3c 32 c0 f5 6f 3d c0 e0 cf 37 c0
       -2.787813 -2.7849364 -2.9599583 -2.8720627
000080 dc 5a 3f c0 d6 c5 44 c0 60 02 34 c0 89 38 38 c0
       -2.9899206 -3.074575 -2.812645 -2.8784506
000090 de 58 33 c0 8d 80 36 c0 f2 9b 34 c0 6b 6d 26 c0
       -2.802299 -2.851596 -2.8220181 -2.6004283
0000a0 6c e7 32 c0 0c c9 32 c0 3c d3 3b c0 d5 93 3b c0
       -2.7953749 -2.793521 -2.9347677 -2.930898
0000b0 fd 01 36 c0 2d 5c 44 c0 97 32 3d c0 85 51 40 c0
       -2.8438714 -3.068126 -2.9562128 -3.0049756
0000c0 f3 2d 3e c0 84 7d 33 c0 a5 e7 30 c0 92 18 36 c0
       -2.9715545 -2.8045359 -2.7641385 -2.8452497
0000d0 da 47 3c c0 16 e2 3a c0 5c 14 3a c0 14 40 42 c0
       -2.9418855 -2.9200492 -2.9074926 -3.035161
0000e0 c0 c5 3d c0 96 db 32 c0 b8 10 3c c0 0f 53 41 c0
       -2.9651947 -2.7946525 -2.9385204 -3.0206945
0000f0 98 df 3c c0 68 c9 3a c0 9e 1f 35 c0 c4 6b 32 c0
       -2.951147 -2.9185429 -2.8300548 -2.7878275
000100 03 ad 32 c0 b5 3a 2b c0 cd 39 35 c0 ac 78 36 c0
       -2.7918098 -2.6754582 -2.8316529 -2.8511152
000110 9f 6a 34 c0 eb 72 2b c0 d9 b4 37 c0 78 c5 2c c0
       -2.8190076 -2.678889 -2.870413 -2.6995525
000120 65 9c 27 c0 09 8a 2e c0 4f 18 2d c0 37 1a 3c c0
       -2.6189206 -2.727175 -2.7046087 -2.9391
000130 cc 5a 2d c0 02 56 26 c0 34 dd 35 c0 21 5d 2b c0
       -2.7086668 -2.5989995 -2.8416262 -2.6775591
000140 22 b6 2a c0 7d 80 3a c0 2a 6d 3a c0 00 f0 28 c0
       -2.6673665 -2.9140923 -2.9129128 -2.6396484
000150 9f 68 2f c0 2d ee 2e c0 58 5a 2c c0 2f 88 28 c0
       -2.7407606 -2.733287 -2.6930141 -2.633312
000160 eb c6 2a c0 7c c0 2e c0 a5 63 30 c0 d7 bf 22 c0
       -2.668391 -2.7304983 -2.7560818 -2.542959
000170 ae b9 27 c0 7d 19 32 c0 53 65 35 c0 f0 a3 2b c0
       -2.620708 -2.7828057 -2.8343093 -2.681881
000180 60 58 3e c0 8a 3f 2c c0 0d 8a 3e c0 d2 82 2f c0
       -2.974144 -2.691378 -2.977176 -2.7423596
000190 ae 6c 30 c0 e5 83 3c c0 b2 78 3f c0 04 e0 36 c0
       -2.7566333 -2.9455502 -2.9917417 -2.8574228
0001a0 e5 ff 33 c0 8e 8b 39 c0 73 7e 40 c0 06 57 45 c0
       -2.8124936 -2.8991427 -3.0077178 -3.0834365
0001b0 d7 9b 38 c0 b2 1c 3f c0 b2 25 3a c0 48 82 31 c0
       -2.8845117 -2.9861264 -2.9085507 -2.7735767
0001c0 80 68 32 c0 41 9e 2e c0 b4 c7 33 c0 14 32 3b c0
       -2.7876282 -2.728409 -2.809064 -2.9249315
0001d0 08 a7 35 c0 4e d5 33 c0 6d 25 3a c0 bb e5 3f c0
       -2.8383198 -2.809894 -2.9085343 -2.9983966
0001e0 1b ce 39 c0 b6 8e 34 c0 90 9f 3c c0 47 ca 3d c0
       -2.9032047 -2.8212104 -2.947239 -2.965471
0001f0 cb 20 40 c0 95 de 36 c0 92 48 3c c0 c8 63 2b c0
       -3.0020015 -2.8573353 -2.9419293 -2.6779652
000200 b0 07 41 c0 32 e6 3d c0 ef af 45 c0 b7 7a 2c c0
       -3.0160942 -2.967175 -3.0888631 -2.69499
000210 d3 1a 37 c0 95 67 38 c0 a9 a0 32 c0 79 f1 40 c0
       -2.8610122 -2.8813221 -2.791056 -3.0147383
000220 ce 79 3c c0 0d 05 35 c0 7c f7 38 c0 ed c3 35 c0
       -2.9449344 -2.8284333 -2.8901052 -2.8400834
000230 54 6b 50 c0 61 c5 38 c0 38 7b 3b c0 9c ca 3d c0
       -3.2565508 -2.887047 -2.9293957 -2.9654913
000240 a9 b5 3f c0 8d 5c 3b c0 e2 3f 3c c0 61 e8 45 c0
       -2.9954627 -2.9275239 -2.941399 -3.0923083
000250 a8 9e 50 c0 3a 3c 40 c0 60 cd 41 c0 d7 d8 36 c0
       -3.2596836 -3.003676 -3.02816 -2.8569849
000260 22 3c 36 c0 08 14 36 c0 b6 1c 41 c0 c3 2b 3a c0
       -2.8474202 -2.8449726 -3.0173774 -2.908921
000270 fc ad 3f c0 51 20 38 c0 c1 2c 42 c0 33 00 38 c0
       -2.9949942 -2.8769724 -3.0339816 -2.8750122
000280 f8 5d 39 c0 52 58 35 c0 38 21 3a c0 2d bc 43 c0
       -2.8963604 -2.8335156 -2.9082775 -3.0583603
000290 87 92 3e c0 e0 7c 53 c0 9e 2c 36 c0 f2 8d 35 c0
       -2.9776933 -3.3044968 -2.8464732 -2.8367887
0002a0 7f aa 4b c0 ae 04 3f c0 a0 4e 34 c0 90 e9 3b c0
       -3.1822813 -2.9846606 -2.817299 -2.9361305
0002b0 4b 72 37 c0 89 bc 32 c0 de 62 28 c0 50 5f 31 c0
       -2.866351 -2.7927573 -2.6310344 -2.7714424
0002c0 8b e8 32 c0 20 02 2f c0 c6 77 38 c0 c4 6c 37 c0
       -2.7954433 -2.7345047 -2.8823104 -2.8660135
0002d0 a5 0c 30 c0 ae fe 43 c0 85 88 38 c0 d3 9f 3f c0
       -2.7507718 -3.0624194 -2.8833325 -2.99413
0002e0 5b 11 32 c0 c6 c7 3d c0 8e 6b 43 c0 6a 1f 3b c0
       -2.7823093 -2.9653182 -3.0534396 -2.9237924
0002f0 59 bf 3c c0 c7 29 3d c0 97 56 51 c0 c7 9b 2a c0
       -2.949179 -2.955675 -3.27091 -2.665758
000300 d6 f5 46 c0 67 59 39 c0 b5 bd 3e c0 a6 a3 46 c0
       -3.1087546 -2.8960817 -2.9803288 -3.1037383
000310 c8 69 2f c0 9f e3 30 c0 e9 25 37 c0 4b b0 40 c0
       -2.7408314 -2.763893 -2.8616889 -3.01076
000320 6a 69 34 c0 85 b3 48 c0 8e 55 3d c0 d0 70 42 c0
       -2.818934 -3.135957 -2.9583468 -3.0381355
000330 72 6a 3b c0 66 35 3d c0 7f aa 31 c0 7f 5a 42 c0
       -2.928372 -2.9563842 -2.7760313 -3.0367734
000340 04 3f 3a c0 e5 46 3d c0 a5 7f 3c c0 57 f9 39 c0
       -2.9100962 -2.957452 -2.9452908 -2.9058435
000350 f3 e2 38 c0 76 3b 41 c0 29 42 33 c0 d9 f6 38 c0
       -2.888852 -3.0192542 -2.800913 -2.8900664
000360 a8 4f 40 c0 1f 91 43 c0 a2 4b 3e c0 6a ad 3e c0
       -3.0048618 -3.0557325 -2.9733663 -2.9793344
000370 0b 31 49 c0 ac 6b 43 c0 f2 07 40 c0 85 c4 43 c0
       -3.1436183 -3.0534468 -3.000485 -3.0588696
000380 65 a7 2e c0 bd 1a 2f c0 f4 4e 3d c0 88 b9 46 c0
       -2.728967 -2.736007 -2.957944 -3.105074
000390 c1 50 40 c0 fa a2 35 c0 17 82 31 c0 bd 0c 3e c0
       -3.0049288 -2.8380723 -2.773565 -2.9695275
0003a0 f2 4c 37 c0 72 e8 32 c0 fe 9f 35 c0 c4 63 32 c0
       -2.8640714 -2.7954373 -2.8378901 -2.7873392
0003b0 db 53 3c c0 84 f7 2f c0 71 d7 38 c0 bd d9 27 c0
       -2.9426181 -2.7494822 -2.8881495 -2.6226647
0003c0 07 8f 3f c0 ac 41 35 c0 1a 1d 3e c0 e5 48 3c c0
       -2.9931047 -2.8321333 -2.9705262 -2.9419491
0003d0 57 3c 27 c0 7b d9 37 c0 c1 92 3c c0 68 97 26 c0
       -2.6130579 -2.872649 -2.9464571 -2.602991
0003e0 5f 10 2e c0 d5 d9 2b c0 e7 3e 41 c0 f7 54 3a c0
       -2.7197492 -2.6851704 -3.0194643 -2.9114358
0003f0 f7 ff 3d c0 e9 ba 2e c0 fe 42 35 c0 f9 73 28 c0
       -2.9687479 -2.730158 -2.8322139 -2.6320784

lstm.hh.mu_bias f4 [128]
000000 62 79 6a 3e c2 37 3b 3d 8a a0 c4 3d 06 ca a0 3d
       0.22897866 0.04570747 0.09600933 0.07851033
000010 37 ad c1 3d e4 c0 99 be e2 fd 12 be 2a 5d 50 3e
       0.09456866 -0.30029976 -0.14354661 0.2034804
000020 9b 60 21 3e 5b b4 19 3d e0 f7 e0 3b 87 aa 21 3e
       0.15759508 0.037525516 0.0068654865 0.15787707
000030 0e cb d5 3e f9 7f 3a bd 64 36 cb 3d e7 dc d2 bd
       0.4175648 -0.0455322 0.099224836 -0.1029604
000040 7c f4 d5 bd 5d ea 81 3e 89 3c 00 3e 6e d0 c7 bd
       -0.10447022 0.25374117 0.12523092 -0.09756552
000050 1b 13 56 be 8b 6a 07 3e 35 64 3a 3e cb 01 de bc
       -0.20905726 0.13224237 0.18202288 -0.027100464
000060 da e7 ba 3c 87 d2 2e 3e 85 bc 3c 3d 0c 49 05 3d
       0.022815634 0.17072497 0.046078224 0.032540366
000070 ff 70 83 be 49 50 08 be 77 f2 b9 3e f3 c1 7e bd
       -0.25672147 -0.13311876 0.36317798 -0.062196683
000080 cd b1 eb bd 2c bf 1d bc 73 20 b4 3d d0 a2 b3 bd
       -0.11508522 -0.009628098 0.08795252 -0.087712884
000090 17 1e 25 be 67 cf 30 3e 05 5c a7 3d bb cd b2 3e
       -0.1612476 0.17266618 0.08171848 0.34922585
0000a0 8c a1 56 bd a0 38 1d 3e 28 39 38 be 09 02 4d 3e
       -0.052400157 0.15353632 -0.17990553 0.20020308
0000b0 f0 e5 86 3e 9f cd 2c bd 0a fd a7 bc 78 50 41 bd
       0.26347303 -0.042188283 -0.0205064 -0.04719588
0000c0 99 d6 8b 3d a8 0e 85 3e 85 19 f3 3d 79 b9 41 3b
       0.06828041 0.25987744 0.11870102 0.0029560013
0000d0 33 54 e3 3d ae de 21 bc 90 83 5f 3d f9 da 77 3e
       0.11100044 -0.009879751 0.054568827 0.24204625
0000e0 3f 0c 5a 3e 59 ec dd 3c 8c 56 40 3e ad 46 0c 3e
       0.21293734 0.027090238 0.18783015 0.13698836
0000f0 7f 95 12 3d 0e 64 d7 bd cf 09 58 3e f0 77 2a 3e
       0.0357871 -0.10517131 0.21097492 0.16647315
000100 93 7c 0a 3e dd c1 f3 ba ee 2d 80 3e 70 b1 c8 bd
       0.13524084 -0.0018597204 0.25035042 -0.097994685
000110 26 5b 0f 3e 63 4e a1 3d 51 57 1e 3e b1 c4 38 be
       0.13999614 0.07876279 0.15462996 -0.18043782
000120 24 dd 5e 3e bc 70 40 3e 42 d1 75 3d fe ce fc 3c
       0.21764046 0.18793005 0.060014017 0.03086042
000130 1d 9d 7f bd 25 a4 bc 3d 8f 72 2e 3e 0e 44 57 3e
       -0.062405694 0.092109956 0.17035888 0.21022055
000140 e5 74 12 bd 58 f1 4b be 97 f8 4e be 3d da 62 bb
       -0.03575601 -0.19916284 -0.20212017 -0.0034614943
000150 a1 a3 32 3d 4e b4 a9 3c ff 00 32 be e6 3c 58 3e
       0.04361308 0.020715859 -0.17383192 0.21116981
000160 0e a9 35 3e 4a cb 89 3c dd 02 57 3e 99 46 8d 3e
       0.1774027 0.016820569 0.20997186 0.27592924
000170 af 42 51 bd 07 0b 54 bd cb 69 d0 be d7 7a a2 bd
       -0.051088985 -0.05176833 -0.40705714 -0.07933586
000180 99 88 a9 bc dd 9f 6e 3c c0 7e 5c 3e 13 3f 4b 3e
       -0.020695018 0.014564482 0.21532726 0.1984828
000190 ae f7 8a 3e 48 22 d8 3e 6f 1a 75 3e 0e f6 3f 3e
       0.2714209 0.42213655 0.23935865 0.18746206
0001a0 60 41 7a 3e 7d 66 82 3e 10 08 f8 3d 8d c8 71 bd
       0.24439001 0.25468817 0.12110913 -0.05902915
0001b0 a6 f8 b7 3d e1 1a 8a 3d 3c 50 fc 3d 4b 93 3d 3e
       0.08982973 0.06743408 0.12319991 0.18513219
0001c0 71 17 93 3e a4 b7 da bc 25 98 03 3e de 4f f7 bc
       0.28728822 -0.026698895 0.12851007 -0.03018945
0001d0 93 7c 93 3b f1 e2 7b 3e f1 52 e2 3d a6 72 00 3e
       0.0045009344 0.2459829 0.11050976 0.12543735
0001e0 96 81 2b bd 07 d1 26 3d 74 cf 67 3e 9f 3e 61 3e
       -0.04187163 0.040726688 0.22637731 0.21996544
0001f0 40 5d f8 3c c6 2f 76 bd 88 dc 36 3e 86 3e 67 3d
       0.030317903 -0.060104154 0.17857563 0.05645611

lstm.hh.rho_bias f4 [128]
000000 09 84 24 c0 91 e5 25 c0 a9 3e 0b c0 f4 0b 15 c0
       -2.5705588 -2.5921366 -2.1756995 -2.3288546
000010 e0 e3 2b c0 4f 4e 20 c0 23 b3 2d c0 7b 7c 1f c0
       -2.6857834 -2.5047796 -2.7140586 -2.4919727
000020 99 f0 08 c0 e9 2b 15 c0 b1 7a 14 c0 aa 79 0b c0
       -2.139685 -2.330805 -2.3199885 -2.1793008
000030 f4 81 fe bf b8 39 1e c0 c6 6b 31 c0 e1 52 2d c0
       -1.9883409 -2.4722729 -2.772203 -2.7081835
000040 45 d1 2e c0 65 b0 03 c0 76 bc 0b c0 ad 0c 15 c0
       -2.7315228 -2.0576413 -2.1833777 -2.3288987
000050 1d de 2c c0 35 20 1d c0 7b 27 20 c0 fb 36 26 c0
       -2.7010567 -2.4550908 -2.5024097 -2.5971057
000060 f3 f3 2f c0 84 5f 18 c0 e3 6e 05 c0 66 04 0a c0
       -2.7492645 -2.3808298 -2.084893 -2.1565185
000070 1d 40 16 c0 94 e8 21 c0 49 b0 0f c0 2c 0e 1f c0
       -2.3476632 -2.5298204 -2.2451346 -2.48524
000080 78 d1 2e c0 91 19 22 c0 88 6e 08 c0 67 5d 28 c0
       -2.731535 -2.5328104 -2.1317463 -2.6307008
000090 d8 5c 2a c0 07 3e 2e c0 65 23 1f c0 09 e5 1c c0
       -2.6619167 -2.7225358 -2.4865353 -2.4514792
0000a0 3f 69 13 c0 90 e8 05 c0 88 34 1c c0 ca 2d 13 c0
       -2.3032987 -2.0923195 -2.4407063 -2.2996697
0000b0 d1 ae 0f c0 20 15 25 c0 42 a9 2e c0 02 0a 1e c0
       -2.245045 -2.5794144 -2.7290807 -2.4693608
0000c0 bc 39 30 c0 46 55 05 c0 ed 87 14 c0 6e 81 36 c0
       -2.7535238 -2.0833297 -2.3207963 -2.8516498
0000d0 32 1e 25 c0 c3 cf 1d c0 9f bc 29 c0 b7 5d 2c c0
       -2.579968 -2.4658058 -2.6521375 -2.69322
0000e0 a9 84 2a c0 eb 39 2e c0 fe 58 14 c0 c8 3c d5 bf
       -2.664347 -2.722285 -2.3179317 -1.6659174
0000f0 51 e2 32 c0 75 e8 2a c0 fd aa e5 bf 3a 63 2b c0
       -2.7950633 -2.670438 -1.7942806 -2.6779313
000100 20 f6 34 c0 15 8d 38 c0 9c ae 22 c0 c0 96 41 c0
       -2.8275223 -2.883611 -2.5419073 -3.024826
000110 e9 dd 3b c0 b0 bd 3c c0 e9 9d 27 c0 17 59 2e c0
       -2.9354193 -2.9490776 -2.619013 -2.7241876
000120 c2 f8 38 c0 66 82 24 c0 31 b1 30 c0 ed 0c 3e c0
       -2.890183 -2.570459 -2.760815 -2.969539
000130 d7 70 3d c0 d3 b0 38 c0 7b 99 30 c0 bb 66 36 c0
       -2.9600122 -2.8857925 -2.7593677 -2.8500202
000140 b7 bf 3d c0 f0 9c 3e c0 dd 6b 2c c0 9c 25 3d c0
       -2.9648263 -2.9783287 -2.6940835 -2.9554205
000150 78 ab 37 c0 6b a4 3e c0 38 7a 2f c0 db 5a 41 c0
       -2.8698406 -2.9787853 -2.7418346 -3.0211704
000160 7d ed 33 c0 c4 37 3c c0 c8 95 31 c0 f6 8b 27 c0
       -2.8113701 -2.9409037 -2.774767 -2.6179175
000170 fa 05 40 c0 07 5e 45 c0 51 48 2f c0 0b 0e 3a c0
       -3.0003648 -3.083864 -2.7387888 -2.907107
000180 a1 6e 18 c0 3e e6 22 c0 39 42 1d c0 22 e8 09 c0
       -2.3817523 -2.5453029 -2.457167 -2.1547933
000190 d0 3d 16 c0 5d 96 f8 bf 0c 0d 06 c0 50 13 24 c0
       -2.3475227 -1.9420887 -2.0945463 -2.5636787
0001a0 58 66 13 c0 9d c8 f8 bf 97 ab 0d c0 db 07 17 c0
       -2.3031216 -1.9436222 -2.213598 -2.3598545
0001b0 b0 8e 1d c0 22 2d 1b c0 cf 11 0d c0 f6 23 07 c0
       -2.461834 -2.4246297 -2.204212 -2.11157
0001c0 d1 4f 01 c0 c1 0a 30 c0 1c 40 2a c0 6d a7 16 c0
       -2.0204966 -2.7506564 -2.660163 -2.3539689
0001d0 d8 fe 22 c0 c2 09 19 c0 d1 11 e3 bf c4 83 09 c0
       -2.5468044 -2.3912206 -1.7739812 -2.1486673
0001e0 dd 45 e2 bf 38 94 f1 bf 8d 95 15 c0 c9 b4 18 c0
       -1.767757 -1.8873358 -2.3372529 -2.3860343
0001f0 94 f1 14 c0 cf 5a 11 c0 dc e6 28 c0 18 85 1c c0
       -2.3272448 -2.2711675 -2.6390905 -2.4456234

l1.mu_weight f4 [16, 32]
000000 b0 07 ae be 60 ca 8f 3e 79 9e e0 be bc c8 f1 3e
       -0.3399024 0.28084087 -0.43870905 0.4722346
000010 e3 19 02 bf 78 cd 87 be e2 d4 f4 be f1 65 be 3e
       -0.5082075 -0.26523948 -0.47818667 0.3718715
000020 45 29 e0 be 3b 69 a2 be 94 11 cc be 10 29 09 bf
       -0.43781486 -0.3172091 -0.3985716 -0.5357828
000030 b7 f1 ee 3e 32 fe d4 be fe 0f a6 be d0 12 cd be
       0.4666879 -0.41600186 -0.32434076 -0.40053415
000040 0f 9e a6 3d e9 08 07 3f 99 66 f2 3e d2 80 b1 be
       0.08135616 0.5274797 0.473439 -0.34668595
000050 13 c1 11 3f 20 e3 d6 be a3 e9 9e be 83 91 13 bf
       0.5693523 -0.41970158 -0.31037626 -0.5764391
000060 7d d7 21 3f 42 d6 04 bf 63 d7 ce be b4 12 02 bf
       0.63219434 -0.5188943 -0.40398702 -0.5080979
000070 6b bf 3d 3e 87 c7 da 3e a9 f3 ea 3e b1 1c 14 3f
       0.18530051 0.42730352 0.45889023 0.5785628
000080 e0 fb 01 3f 1b 85 af be 68 87 f1 3e c0 58 ea be
       0.50774956 -0.3428124 0.4717362 -0.45770836
000090 6e e2 d4 3e 82 c1 e4 3d 55 cd b4 3e fb 58 a7 be
       0.41579002 0.11169721 0.35312906 -0.32685074
0000a0 ec e4 17 3f e9 c4 b1 3e ab ca ec 3e e1 d6 f4 3e
       0.5933368 0.34720543 0.46248373 0.4782019
0000b0 46 d8 93 be dd 41 08 3f 34 74 e8 3e 76 4c f6 3e
       -0.2887594 0.532255 0.45401156 0.4810521
0000c0 d6 f2 8c bd 0c 1b 04 bf 63 8f c6 be d1 05 f7 3e
       -0.06882255 -0.5160377 -0.3878127 0.48246625
0000d0 fc fd ab be 51 9d b0 3e ac f4 d9 3e 5b 0a b7 3e
       -0.33592212 0.34495023 0.42569482 0.35750088
0000e0 f0 f1 eb be 3a 95 d0 3e 86 65 06 3f c0 70 b5 3e
       -0.4608302 0.4073885 0.5249866 0.35437584
0000f0 c8 52 bf be df 78 12 bf e2 f1 f6 be 2f d5 d0 be
       -0.37367845 -0.57215685 -0.48231417 -0.40787646
000100 8d fa 17 3f c9 3b 11 be 4b 4c f4 3e ec 29 e2 be
       0.59366685 -0.14182962 0.47714457 -0.4417261
000110 07 fb f4 3e 83 0f ad 3e 20 72 ab 3e 4b f2 e1 be
       0.4784777 0.33800897 0.33485508 -0.44130167
000120 b5 dd c1 3e b5 13 ce 3e 39 66 80 3e 79 0d ae 3e
       0.37864462 0.4024941 0.2507799 0.33994654
000130 77 ba 11 bf b2 87 1e 3f 96 d5 16 3f 75 77 cf 3e
       -0.5692515 0.61925805 0.58919656 0.40520826
000140 ae 46 23 be f2 8e dc be 58 73 ec be fb 6f ce 3e
       -0.15944931 -0.4307781 -0.4618175 0.4031981
000150 7f 7a 18 bf 89 ba d5 3e 8f 00 a5 3e b6 b5 41 3f
       -0.59561914 0.41743878 0.3222699 0.75667894
000160 f2 87 0f bf d1 1d 89 3e 9c 26 0d 3f a1 ed d5 3e
       -0.5606681 0.2678056 0.5513704 0.4178286
000170 0b c1 e1 be b8 e3 e9 be 22 c9 e5 be aa 15 ed be
       -0.44092593 -0.45681548 -0.44880015 -0.4630559
000180 b2 76 de 3e 44 9d f4 be ed fe 50 3e 47 d9 b4 be
       0.43449932 -0.47776234 0.20409746 -0.3532202
000190 e8 43 de 3e af c3 38 3e 8e 1e 83 3e e8 35 02 bf
       0.43411183 0.18043397 0.2560925 -0.50863504
0001a0 54 db 10 3f c3 4e 63 3e 63 de 7b 3e b7 c0 df 3e
       0.5658467 0.22198014 0.24596553 0.43701717
0001b0 a8 ae fa be 16 8c e3 3e 33 3e d5 3e 72 aa 02 3f
       -0.48961377 0.44442815 0.41649017 0.5104133
0001c0 e1 c7 10 be 21 90 09 bf 80 e2 fb be 73 dc ed 3e
       -0.14138748 -0.5373555 -0.49196243 0.46457252
0001d0 99 64 d7 be bb 5d ee 3e 92 7c aa 3e 6b 3d fd 3e
       -0.42068937 0.46555886 0.33298165 0.4946092
0001e0 8e 0c dc be eb 6b fd 3e 69 aa e4 3e 18 7f 2a 3f
       -0.42978328 0.49496397 0.44661263 0.6660018
0001f0 db 36 a1 be f1 02 0a bf 55 40 ba be 86 62 e4 be
       -0.31487164 -0.5391074 -0.36377206 -0.44606417
000200 34 5c 9e 3e ac d0 04 bf 21 d2 f3 3e 10 a8 1a bf
       0.3092972 -0.5188091 0.47621253 -0.60412693
000210 c8 05 02 3f 20 71 b6 3e 8b 4b b2 3e c7 01 08 bf
       0.5079007 0.35633183 0.3482326 -0.5312771
000220 d0 dd 81 3e 57 54 2b 3f 9a 7a c8 3e a7 8b ea 3e
       0.25364542 0.6692557 0.39156038 0.4580967
000230 57 c6 00 bf 63 f4 ab 3e b1 e1 d5 3e cf a2 db 3e
       -0.5030264 0.3358489 0.4177375 0.4289765
000240 c7 85 67 be 33 7e 03 bf 99 1e 94 be 10 e8 1c 3f
       -0.22609626 -0.5136444 -0.28929594 0.612916
000250 76 bd f3 be 6f 22 f6 3e 47 ab 01 3f 6c 01 21 3f
       -0.47605485 0.48073146 0.50651973 0.62892795
000260 26 6e d0 be 62 37 db 3e 2f 05 07 3f af 5c 04 3f
       -0.40709037 0.4281569 0.52742285 0.51703924
000270 bd b8 0e bf 90 0e 56 be 68 30 14 bf ad 79 88 be
       -0.5575064 -0.20903993 -0.5788636 -0.2665533
000280 ba 45 f9 3e fa 04 ac be 61 7e 19 3f 74 9c e1 be
       0.4868601 -0.33597547 0.59958464 -0.44064677
000290 b4 99 fe 3e 0e a4 7d 3e 22 d1 cd 3e 39 7e d9 be
       0.4972664 0.24769613 0.40198618 -0.42479113
0002a0 4b e0 da 3e 9e 4b cf 3e bd 99 a1 3e c9 4f c7 3e
       0.42749247 0.4048738 0.31562606 0.3892806
0002b0 3e 9e d8 be c3 d2 17 3f a0 56 15 3f 62 76 ec 3e
       -0.4230823 0.5930597 0.58335304 0.4618407
0002c0 b9 0c bf 3c c8 40 f9 be 82 a6 15 bf dc 3b b9 3e
       0.023321496 -0.48682237 -0.58457196 0.36178482
0002d0 f3 10 81 be e2 76 17 3f 53 96 fb 3e 31 dd 9e 3e
       -0.25208244 0.59165776 0.49138126 0.3102813
0002e0 f3 97 08 bf e2 e2 bc 3e c6 70 c1 3e 21 6e ff 3e
       -0.53356856 0.36891848 0.37781352 0.4988871
0002f0 ca 79 0b bf 78 8c c5 be 69 fb 18 bf 7d f4 9d be
       -0.5448271 -0.38583732 -0.5975862 -0.30850592
000300 93 97 ef 3e 93 cc bd be 3c 88 d1 3e 6f b6 02 bf
       0.4679533 -0.3707014 0.4092425 -0.5105962
000310 08 51 db 3e 12 f0 d8 3e 49 8f 02 3f d0 d6 e5 be
       0.4283526 0.4237066 0.50999886 -0.4489045
000320 2f 46 af 3e 89 df f8 3e 02 74 fa 3e cb 17 0f 3f
       0.34233233 0.48608044 0.48916632 0.5589568
000330 55 82 04 bf 76 13 da 3e 1a 4d 14 3f 69 ae d4 3e
       -0.5176137 0.42592973 0.5793015 0.41539314
000340 e9 3d 63 be 9d ac b2 be ea ac f1 be 7d 0b 9f 3e
       -0.22191586 -0.34897318 -0.47202235 0.31063452
000350 5a 8d 1a bf 08 56 99 3e 4f b4 bf 3e 3e 04 ae 3e
       -0.60371935 0.2994845 0.37442252 0.33987612
000360 51 6a be be cb bd bf 3e 85 ba d7 3e 1b 5e bd 3e
       -0.37190488 0.37449488 0.4213449 0.3698586
000370 a8 66 c8 be ef e0 cc be 90 d4 0f bf 94 14 c0 be
       -0.3914082 -0.4001536 -0.5618372 -0.375157
000380 cd d5 0b 3f da a9 42 be d9 5d 28 3f 4a cd ca be
       0.5462311 -0.19010106 0.657682 -0.39609748
000390 ab 05 04 3f 50 e1 a5 3e 5a fc c5 3e 60 80 ec be
       0.5157115 0.32398462 0.3866909 -0.46191692
0003a0 14 81 b7 3e 42 2f 10 3f 59 79 da 3e ee 0b f6 3e
       0.35840666 0.5632211 0.42670706 0.48055977
0003b0 01 ec df be b7 a3 9a 3e 85 0b fa 3e 00 2d f6 3e
       -0.43734744 0.3020303 0.48836914 0.48081207
0003c0 e6 d5 95 be 4d 0c ef be 5c f5 05 bf 4e 9b e4 3e
       -0.29264754 -0.46689072 -0.52327514 0.44649738
0003d0 ea 64 06 bf a4 60 d1 3e e8 54 86 3e f1 43 0c 3f
       -0.5249773 0.40894043 0.26236653 0.5479117
0003e0 5e 57 07 bf f0 f0 02 3f b3 0a 03 3f 2b 3c e6 3e
       -0.52867687 0.5114889 0.511882 0.4496778
0003f0 8d a6 f0 be 47 eb ec be 15 53 28 bf 9b 3d a9 be
       -0.47002068 -0.46273252 -0.65751773 -0.33054814
