BNN/BNN_model_state_FD001_test.pt (torch, 57845 bytes, 14 tensors)

lstm.ih.mu_weight f4 [128, 14]
000000 65 a0 16 bd c7 50 dc 3d 49 04 0d be b9 19 2e bd
       -0.036774058 0.107575946 -0.13771166 -0.042505
000010 57 68 93 3d c2 db 93 be 71 29 a4 be f0 71 a8 bb
       0.071976356 -0.288786 -0.32062867 -0.0051405355
000020 6c 0e b7 bd 8d 47 94 3e 3f d6 38 be 32 45 93 be
       -0.08938298 0.2896084 -0.18050478 -0.2876373
000030 92 43 3d 3b c2 35 17 bc 7f 59 a6 be 18 7d 9d 3d
       0.0028879386 -0.009229125 -0.32490155 0.07689875
000040 15 ff 91 bc 5b 2e 14 3e b8 77 a8 be f2 69 de bd
       -0.017821828 0.14470808 -0.32903838 -0.10860051
000050 2b 83 5f be 9b e4 03 3e d3 c8 8d bc ec 8a 47 3e
       -0.2182738 0.12880175 -0.017307675 0.19486588
000060 f7 c6 1a bd 62 2e d7 3d 2f 1b 82 3e 4f de 86 3e
       -0.037787404 0.10506894 0.25411364 0.26341483
000070 3e d5 ce bd 6e 40 ed 3d 98 67 c5 bd 65 24 13 3e
       -0.100992665 0.115845546 -0.096388996 0.14369352
000080 3a 7d ee bd 19 c8 b1 bd f5 4f 39 3d e1 5f a7 3d
       -0.11644979 -0.08680744 0.04524227 0.08172584
000090 08 7e ba 3d 62 7e 03 3e 64 63 ee 3c a7 ba 4e bd
       0.0910607 0.1284118 0.029100128 -0.050470974
0000a0 28 9b 31 be a8 49 af bb 1a 68 b8 bd 2d 3d 2c bd
       -0.17344344 -0.0053493567 -0.09004231 -0.04205053
0000b0 72 87 42 be ad 76 a9 3e da d3 f8 bd f6 ff df be
       -0.18996981 0.33098355 -0.121497825 -0.4374997
0000c0 e2 7f 43 be d8 28 e8 bd e6 0f 80 bc 4f 14 95 bd
       -0.19091752 -0.11335915 -0.015632581 -0.07279264
0000d0 1f 63 cb 3d 56 67 29 bc c9 2f 12 3d d8 26 a3 bd
       0.09931015 -0.010339579 0.035690103 -0.07966393
0000e0 7d dc a6 be af 55 a0 3c a6 f0 e2 be d6 f2 8e 3e
       -0.32590094 0.019572107 -0.44324225 0.27919644
0000f0 e8 8a 24 3e 7f bf 8c 3d 0f 23 e4 be 19 39 c7 3e
       0.16068614 0.068724625 -0.44557998 0.3891075
000100 4e ea 90 3e 9d eb 72 bd fd 21 89 3d 06 44 cd bd
       0.2830376 -0.05930673 0.06695936 -0.1002274
000110 06 ce ed 3d ea 67 3b 3e 75 71 6a be 5a 38 99 be
       0.116115615 0.18301359 -0.22894843 -0.29925805
000120 7a cf 14 bd 22 a6 0c 3e 7f 8c 6f be f6 1b 3f 3d
       -0.036330678 0.1373525 -0.23393439 0.046657525
000130 61 44 f4 bd 7a 6a 16 be 17 93 e1 be b9 74 8b be
       -0.11927105 -0.14689055 -0.44057533 -0.2723749
000140 05 49 a9 bd 53 c7 35 3e 0a 46 6f 3e c7 c1 25 be
       -0.082658805 0.17751817 0.23366562 -0.16187201
000150 22 86 7d 3e 6e 13 8e 3d 7c 0a 92 3e 7a ae d4 bd
       0.24758199 0.069373 0.28523624 -0.10384841
000160 00 7c 00 3d 49 25 fa 3d 86 83 8d 3d 24 8d 2b 3e
       0.031368256 0.12214143 0.06909852 0.1675306
000170 f9 2f 6e be 28 82 93 be 6a 20 88 3e 33 93 f3 3c
       -0.23260488 -0.2881024 0.2658723 0.029733276
000180 ed 8d b1 be bc e8 cd 3d 14 02 97 3d 9a 15 3a 3d
       -0.34678593 0.10054156 0.07373443 0.045430757
000190 fe 01 06 3d b3 2b 12 3e 47 71 ca 3e bb 41 98 bc
       0.032716744 0.14274482 0.3953955 -0.01858603
0001a0 74 ca aa 3c b9 8c 91 3d 51 b9 ae 3e 99 a8 6a 3d
       0.02084849 0.07106919 0.3412576 0.057289694
0001b0 02 c1 69 bd 94 4a 36 3e c2 16 3f bd 45 f7 cd bd
       -0.057068832 0.17801887 -0.046652563 -0.100569285
0001c0 14 25 1b be 7a 03 e1 3c 21 48 82 bc 51 d7 fc 3d
       -0.15150863 0.027467478 -0.015903534 0.12345756
0001d0 ec 8e ef 3d 7d fc ab 3d cd 27 89 3d d7 be 3d bd
       0.11697182 0.08397768 0.066970445 -0.046324577
0001e0 23 1d f4 3d 32 5d ae 3e 0e fb 20 3d 67 fc e8 3c
       0.1191962 0.34055477 0.039301924 0.028440667
0001f0 0c 47 16 3d 00 fa 56 be d7 b5 85 be 5e b0 1c bd
       0.03668885 -0.20993805 -0.26115295 -0.038254134
000200 43 39 45 3e 22 1a d6 3e ea 7c f7 bd f7 b2 c5 bd
       0.19260125 0.41816813 -0.12084372 -0.096532755
000210 66 a2 8f be f2 1a f1 3d 58 ec 89 be 4d a5 98 3e
       -0.28053588 0.117727175 -0.26938128 0.29813614
000220 84 41 e0 bd e1 d2 66 bd c4 13 4b 3e 66 ba 5d bd
       -0.10949996 -0.056353454 0.19831759 -0.05413284
000230 d7 d2 ed be b7 70 d9 3e 8d bb fd be c2 ab de 3e
       -0.4644992 0.42468807 -0.49557152 0.43490416
000240 9a 19 6a be 31 00 97 3e 5c a7 75 3b 1b 0b e8 3d
       -0.22861329 0.29492334 0.0037483787 0.11330243
000250 35 b6 9e 3d 54 b0 a3 3e 18 ff 6b be ff 1a 89 3d
       0.07749597 0.31970465 -0.2304653 0.06694602
000260 60 c2 d6 3d 32 5a 95 3e 6d 7c 21 be b3 f6 6b 3d
       0.10486293 0.29170376 -0.15770121 0.057608318
000270 e8 b8 c6 be 46 4f bf 3d d0 8b 87 be f8 05 36 3e
       -0.38812947 0.09341292 -0.26473856 0.17775714
000280 6a bc 89 be a4 05 26 3e 73 aa 27 be de 33 97 3c
       -0.2690156 0.16213089 -0.16373615 0.01845735
000290 a7 5a 07 be 75 1e 3d bd d4 c8 69 3d f9 24 36 bc
       -0.13218175 -0.046171624 0.05707629 -0.011117213
0002a0 09 ab e5 3c 6f 24 d5 3d 0f d9 a9 3e 8f 69 9c ba
       0.028035657 0.1040734 0.33173415 -0.0011933314
0002b0 7c a5 69 3d bd aa 4e 3d ea a2 58 3e aa b5 69 3e
       0.057042584 0.050455797 0.21155897 0.22823206
0002c0 0b 90 33 3d b1 3f d4 bc 55 91 80 bd 22 db 52 bd
       0.043838542 -0.025909277 -0.0627772 -0.051478513
0002d0 90 b7 d5 bd e3 f3 b6 be f4 b9 c9 be 8d 86 8d bd
       -0.104354024 -0.35732946 -0.39399683 -0.06910429
0002e0 bf 09 ff bd 92 f4 0a 3e 34 65 01 be 12 ad 97 3e
       -0.12453031 0.13569859 -0.12636262 0.2962423
0002f0 b6 b5 59 3d c1 72 fa 3c 8a 5b c1 3e 1b 23 ab 3e
       0.05315181 0.030572297 0.3776515 0.3342522
000300 0d a9 91 bd 09 7f ae bd b9 8d 9d 3d a6 0f 0c 3d
       -0.07112322 -0.08520324 0.07693047 0.03419461
000310 bf 87 c7 be 6d 61 bb 3d f3 87 e5 be d6 5f df 3e
       -0.38970754 0.09149442 -0.44830284 0.43627805
000320 69 a7 30 3e cf 10 77 3e e5 79 8e be 74 aa 26 3c
       0.17251362 0.24127506 -0.27827373 0.010172475
000330 0b ef 73 3e a4 77 93 3e 87 b7 c5 bd 86 b4 55 3d
       0.23821656 0.28802216 -0.09654146 0.052174114
000340 13 22 94 bd f9 d6 2e 3b 3a 34 1c be 33 94 2a 3d
       -0.07233062 0.0026678427 -0.15254298 0.04164524
000350 83 6b 30 be 84 ed 74 3e de 3d 09 3e ae 74 d3 be
       -0.17228512 0.2391873 0.13402507 -0.41299957
000360 f4 66 9e be 24 62 95 3e 8a 99 3a bd 79 1c fe 3d
       -0.30937922 0.29176438 -0.045556583 0.124077745
000370 88 d4 33 bd 94 a2 72 be 1e 10 e8 3d 6c 3b 98 3e
       -0.043903857 -0.23694831 0.11331199 0.29732835
000380 39 b9 57 bd 8c 41 80 3e df 80 51 3e 6f 48 95 3d
       -0.052666876 0.25050008 0.20459317 0.07289206
000390 f0 0d bd be 6c 65 b6 3c 9a 34 29 bd 55 a1 27 3e
       -0.36924696 0.022265159 -0.04130993 0.16370137
0003a0 33 83 6a be 98 22 96 3e c4 39 97 bd 8f 32 1f be
       -0.22901611 0.29323268 -0.07384065 -0.1554663
0003b0 93 09 88 3e b3 fa 93 3e 2a 39 2c 3e 81 be 7e 3e
       0.26569805 0.28902206 0.16818681 0.24877359
0003c0 b5 f3 16 3e e5 0e bf bd 41 40 53 3e e4 23 61 3e
       0.14741404 -0.09329013 0.2062998 0.21986347
0003d0 2c a3 06 3e 13 eb 4a be 59 47 67 3e 85 37 a0 3e
       0.13148183 -0.19816236 0.2258581 0.31292358
0003e0 b8 96 88 3e 06 64 14 3d e4 7d 6d bd 4a 1d 24 be
       0.2667749 0.036228202 -0.057981387 -0.16026798
0003f0 15 b4 50 be ba fd b0 3e 11 38 78 be fe 00 8b 3d
       -0.20381196 0.34568578 -0.24240138 0.067872986

lstm.ih.rho_weight f4 [128, 14]
000000 23 83 37 c0 c0 29 2a c0 e3 fd 3a c0 e5 2e 3f c0
       -2.867379 -2.6587982 -2.921746 -2.9872372
000010 cc 1b 3e c0 d3 a4 2e c0 1b b2 36 c0 3a cf 31 c0
       -2.9704466 -2.72881 -2.8546207 -2.778273
000020 7b 68 36 c0 ed 1e 29 c0 fa 66 3d c0 b9 f0 34 c0
       -2.850127 -2.6425126 -2.9594102 -2.8271925
000030 20 66 37 c0 d8 ca 37 c0 37 d9 2b c0 4f ab 36 c0
       -2.8656082 -2.8717556 -2.6851327 -2.8542058
000040 45 2c 43 c0 9f 09 31 c0 e8 73 31 c0 70 e7 2e c0
       -3.049577 -2.7662122 -2.7726994 -2.7328758
000050 6d 52 35 c0 6b 4d 37 c0 f2 0f 3d c0 97 be 38 c0
       -2.8331559 -2.8641002 -2.9540982 -2.8866327
000060 fd ee 26 c0 99 c2 34 c0 81 5c 26 c0 c7 5f 30 c0
       -2.6083367 -2.8243773 -2.599396 -2.7558458
000070 34 d1 34 c0 34 49 35 c0 fa c4 2d c0 dc f7 3c c0
       -2.8252687 -2.832593 -2.7151475 -2.9526281
000080 8a 00 39 c0 c7 3b 29 c0 7c 32 36 c0 3f 39 2f c0
       -2.890658 -2.6442735 -2.8468313 -2.737869
000090 ef ee 37 c0 15 fc 31 c0 ac 45 34 c0 35 b7 2e c0
       -2.8739583 -2.7810109 -2.8167524 -2.729932
0000a0 ca 8d 2a c0 37 85 25 c0 06 16 43 c0 4b aa 3f c0
       -2.664904 -2.5862558 -3.0482192 -2.9947689
0000b0 6d 96 3b c0 f1 39 45 c0 06 9a 40 c0 cc ea 29 c0
       -2.9310563 -3.0816615 -3.0094008 -2.6549559
0000c0 e5 90 2b c0 66 6a 35 c0 53 8c 2e c0 7d c0 2c c0
       -2.6807187 -2.834619 -2.7273147 -2.6992486
0000d0 d8 69 39 c0 c9 79 2f c0 48 5d 41 c0 cf 8d 32 c0
       -2.8970852 -2.7418082 -3.0213184 -2.7899053
0000e0 67 6d 3d c0 5c ed 3a c0 02 c6 44 c0 94 c3 31 c0
       -2.9598024 -2.9207373 -3.0745854 -2.7775621
0000f0 31 85 37 c0 26 42 46 c0 f4 3e 4c c0 f2 b8 40 c0
       -2.8675044 -3.0977874 -3.1913424 -3.0112882
000100 fc f0 3b c0 c2 3c 3e c0 f1 52 38 c0 88 51 4b c0
       -2.9365835 -2.9724584 -2.8800623 -3.1768513
000110 81 b8 32 c0 6e 3d 2e c0 7f 69 3b c0 4a 34 3b c0
       -2.7925112 -2.7224994 -2.928314 -2.9250665
000120 6b bf 36 c0 df 38 36 c0 7e f5 34 c0 38 a8 33 c0
       -2.8554332 -2.8472211 -2.8274837 -2.8071423
000130 88 d5 40 c0 28 31 35 c0 d3 90 47 c0 fc ea 38 c0
       -3.013033 -2.8311253 -3.1182144 -2.8893423
000140 32 d1 33 c0 63 56 35 c0 9b b2 3e c0 8e 1b 34 c0
       -2.8096433 -2.8333976 -2.9796512 -2.8141818
000150 25 d9 3b c0 13 a8 40 c0 3d 6b 3c c0 b7 95 3a c0
       -2.9351285 -3.0102584 -2.9440453 -2.9153879
000160 bd 10 29 c0 b9 32 2f c0 6b 0d 3b c0 e9 c2 4a c0
       -2.6416466 -2.7374709 -2.922694 -3.1681464
000170 84 f7 43 c0 20 06 32 c0 16 a9 33 c0 c1 90 37 c0
       -3.0619822 -2.7816238 -2.8071952 -2.86821
000180 39 06 36 c0 05 3f 39 c0 c6 d1 2d c0 4c 65 34 c0
       -2.8441298 -2.8944714 -2.7159286 -2.8186827
000190 27 0d 34 c0 13 72 31 c0 6a b8 34 c0 74 87 41 c0
       -2.8133028 -2.7725875 -2.8237557 -3.0238924
0001a0 35 73 42 c0 4d 49 3b c0 5a 95 3b c0 39 9e 28 c0
       -3.0382817 -2.926349 -2.9309907 -2.6346571
0001b0 95 4d 36 c0 7b 98 31 c0 52 73 34 c0 7b f2 3d c0
       -2.8484852 -2.7749317 -2.8195386 -2.9679248
0001c0 44 9f 28 c0 79 dc 37 c0 a1 bd 3c c0 e4 c8 39 c0
       -2.6347208 -2.8728316 -2.949074 -2.9028864
0001d0 0f ca 2d c0 be 1d 3d c0 d4 d7 37 c0 dd 2a 33 c0
       -2.7154577 -2.9549403 -2.872548 -2.7994912
0001e0 fb 8a 40 c0 d5 0f 34 c0 2f 61 36 c0 23 19 3c c0
       -3.0084827 -2.8134663 -2.8496816 -2.9390342
0001f0 48 82 3a c0 b7 e6 2e c0 9f 8e 34 c0 be 04 30 c0
       -2.9142017 -2.7328317 -2.821205 -2.7502894
000200 43 bf 24 c0 a5 a9 1f c0 f8 cd 34 c0 a1 43 30 c0
       -2.5741737 -2.4947293 -2.8250713 -2.7541277
000210 32 3e 2a c0 4e e5 2d c0 a3 cb 2b c0 3a d4 30 c0
       -2.660046 -2.7171206 -2.684304 -2.7629533
000220 ff 5f 31 c0 b8 a7 2a c0 36 38 29 c0 3c 93 2c c0
       -2.7714841 -2.6664867 -2.6440558 -2.6964865
000230 7b 2b 30 c0 67 62 37 c0 8a 72 34 c0 f0 b4 2f c0
       -2.7526538 -2.865381 -2.819491 -2.7454185
000240 e3 23 4d c0 c3 4d 2f c0 7d 82 25 c0 f1 fb 25 c0
       -3.2053154 -2.7391212 -2.5860894 -2.5935023
000250 ad f4 2b c0 8d 5e 36 c0 1d 98 2d c0 3a c2 36 c0
       -2.6868088 -2.849521 -2.7124093 -2.8556046
000260 a9 c7 3b c0 ce 53 37 c0 9c 15 35 c0 c0 9d 28 c0
       -2.9340613 -2.86449 -2.829444 -2.6346283
000270 25 60 2f c0 2f 17 2b c0 3c 14 2c c0 71 0f 27 c0
       -2.7402432 -2.67329 -2.688735 -2.6103175
000280 65 1d 33 c0 13 00 3d c0 a5 cd 2a c0 52 7e 2f c0
       -2.798669 -2.9531295 -2.6688015 -2.742085
000290 37 55 2e c0 22 13 28 c0 69 a5 2c c0 87 88 24 c0
       -2.723951 -2.6261678 -2.6975958 -2.570833
0002a0 f3 57 2c c0 ad 8d 32 c0 37 e9 35 c0 28 63 1e c0
       -2.692868 -2.7898972 -2.8423593 -2.474802
0002b0 c6 7e 30 c0 70 e2 2c c0 50 36 1f c0 9d 99 2d c0
       -2.7577376 -2.7013206 -2.48769 -2.7125008
0002c0 55 1c 24 c0 9c 85 32 c0 a8 92 34 c0 fc 30 2d c0
       -2.5642292 -2.7894049 -2.8214512 -2.7061148
0002d0 f2 0f 40 c0 76 90 33 c0 3e 5f 33 c0 86 ba 39 c0
       -3.0009732 -2.8056922 -2.8026881 -2.9020095
0002e0 5f a8 33 c0 5f 43 31 c0 35 5c 3e c0 31 79 39 c0
       -2.8071516 -2.769737 -2.9743779 -2.898022
0002f0 f3 c1 34 c0 0d 70 3b c0 49 26 34 c0 da 97 3b c0
       -2.8243377 -2.928714 -2.8148367 -2.9311433
000300 76 66 2e c0 0a fa 36 c0 25 99 2b c0 db ff 3a c0
       -2.7250037 -2.8590112 -2.6812222 -2.9218662
000310 66 1d 3f c0 86 9b 38 c0 6e 50 31 c0 d9 c3 46 c0
       -2.9861693 -2.8844924 -2.770534 -3.1057036
000320 9a f9 3e c0 d2 9f 35 c0 9c e6 3c c0 d7 5f 37 c0
       -2.9839845 -2.8378797 -2.9515753 -2.8652246
000330 5e 8c 30 c0 a3 16 3d c0 dd 70 34 c0 c0 00 3d c0
       -2.7585673 -2.9545066 -2.8193886 -2.9531708
000340 cd 2b 42 c0 44 7f 3d c0 c0 38 3b c0 ce 82 40 c0
       -3.0339234 -2.9608927 -2.9253387 -3.0079837
000350 35 24 3f c0 a3 7e 3d c0 65 bb 41 c0 cb a9 2d c0
       -2.986585 -2.9608543 -3.0270627 -2.7134883
000360 73 98 3f c0 08 40 32 c0 72 93 41 c0 e1 4e 43 c0
       -2.9936798 -2.7851582 -3.0246243 -3.0516894
000370 c9 ce 28 c0 05 d2 38 c0 65 e9 3c c0 90 49 41 c0
       -2.6376212 -2.8878186 -2.9517453 -3.020115
000380 b8 ed 37 c0 82 0f 3a c0 24 84 33 c0 65 1e 3a c0
       -2.8738842 -2.9071965 -2.8049402 -2.9081051
000390 b1 96 3a c0 0d b2 3d c0 25 73 20 c0 92 92 32 c0
       -2.9154475 -2.9639924 -2.5070279 -2.790196
0003a0 da c3 38 c0 25 63 2f c0 38 ff 38 c0 cc c1 2f c0
       -2.8869538 -2.7404263 -2.8905773 -2.7462034
0003b0 58 52 3d c0 26 29 36 c0 f3 e1 3c c0 4c c9 36 c0
       -2.9581509 -2.8462615 -2.9512908 -2.8560362
0003c0 5e 92 39 c0 42 95 38 c0 58 24 27 c0 cd d1 27 c0
       -2.8995585 -2.88411 -2.6115932 -2.6221802
0003d0 9c 94 33 c0 c2 59 3d c0 28 2f 3c c0 76 b2 21 c0
       -2.8059454 -2.9586034 -2.9403782 -2.5265174
0003e0 6c d7 36 c0 22 83 32 c0 ee 3f 30 c0 b6 86 32 c0
       -2.8568983 -2.7892537 -2.753902 -2.789472
0003f0 aa f0 35 c0 49 c7 32 c0 80 eb 39 c0 ca a5 32 c0
       -2.842814 -2.7934134 -2.9049988 -2.791369

lstm.ih.mu_bias f4 [128]
000000 28 8d 05 be c9 52 ef bd 15 ea 06 3e d9 79 20 bd
       -0.13042128 -0.11685712 0.13175233 -0.039178703
000010 2c 05 40 3d 41 13 ac bc d5 04 5e 3e 32 15 b4 3d
       0.046879932 -0.021005275 0.21681531 0.08793105
000020 a5 75 80 3e b8 31 55 be 42 da d0 bb 93 2c 19 3e
       0.25089756 -0.20819747 -0.0063736746 0.1495841
000030 f6 da c6 3e 94 a5 cd 3c 22 ed ce 3d cd fe a8 3c
       0.3883893 0.025103368 0.10103823 0.020629311
000040 b4 0a 48 be 10 0c 96 3d 9b c0 fe 3c d1 fd 4e be
       -0.19535333 0.073265195 0.0310977 -0.20214011
000050 5f a3 a2 bb 77 7f fb bb b6 54 b5 be da 48 1e 3e
       -0.004963323 -0.007675107 -0.35416192 0.15457478
000060 6b a2 13 be 6c b3 10 3c b9 34 77 3e f8 ed 44 3e
       -0.14417426 0.00883184 0.24141206 0.19231403
000070 d0 d5 1b be e0 05 50 be a2 f0 7c 3e 3c ed a7 be
       -0.15218282 -0.20314741 0.24701169 -0.32798183
000080 61 64 55 ba c7 5e fd bd 20 5c 1c 3e db 6a d9 3d
       -0.0008140263 -0.12371593 0.15269518 0.10616084
000090 49 ce e6 3c ce 09 30 3e 42 a1 ad 3d 6e 64 3a 3e
       0.028174536 0.1719124 0.08478023 0.18202373
0000a0 ad 59 f7 3d 43 04 6f 3e 4a a4 56 3d 2e 52 54 3e
       0.12077651 0.2334147 0.052402772 0.20734474
0000b0 6e 08 a8 3e d4 4a 99 bc e0 9b e1 bd 9c 24 9c 3d
       0.3281893 -0.018712439 -0.11016059 0.0762417
0000c0 c8 45 45 3d 64 2c 39 3e 81 02 b8 3e d2 01 0f be
       0.04816225 0.1808334 0.3593941 -0.13965538
0000d0 af 15 42 be b0 17 ad bd 39 27 6f 3e ad 70 9c bc
       -0.18953584 -0.08451784 0.23354806 -0.019096697
0000e0 10 99 28 be e0 54 0d be 34 b2 13 3e 6e 4b 3c 3e
       -0.16464639 -0.13801908 0.14423448 0.18388149
0000f0 ea c5 48 3d ee 44 42 be cb 4e b6 3e 7c 79 81 be
       0.04901687 -0.18971607 0.3560699 -0.25287998
000100 2b 31 7c be 4d 4a 50 3e 81 ee 9e 3e 7f f7 8c bd
       -0.24628131 0.20340843 0.3104134 -0.06883144
000110 45 82 30 3e e7 85 88 bc f6 20 f4 3e d3 d6 8c be
       0.17237194 -0.016665412 0.47681397 -0.27507648
000120 1d dd 31 3e 6e 56 29 3e 03 fd 37 3e 0c 97 30 3e
       0.17369504 0.16536877 0.1796761 0.1724512
000130 44 93 ab be 98 bd 4f 3e a7 d9 63 3e 2e eb 16 3e
       -0.33510792 0.20287168 0.22250997 0.14738151
000140 fb 2a 31 3d 8d 6f 42 be 57 b4 8f be 6a 4a ef bd
       0.04325388 -0.18987866 -0.28067276 -0.11684115
000150 07 1f 8f be b6 a9 5a bd 13 6f 05 bd 6c 6d 40 3e
       -0.2795336 -0.053384505 -0.03257663 0.18791741
000160 e1 a3 4f 3c 4c 01 13 3e 09 b5 99 3d 02 90 51 3e
       0.012673349 0.14355963 0.07505233 0.20465091
000170 50 a9 74 bd 4a 77 42 3e 67 64 89 be dc 19 66 3d
       -0.05973178 0.18990818 -0.26834413 0.056177005
000180 24 e5 fb bd 3a 88 7f 3d c1 ce 70 3d 1f 87 ad bd
       -0.122995645 0.062385775 0.058790926 -0.08473038
000190 e9 22 88 3e 30 d5 1e 3f c6 44 18 3e 26 c7 c2 3e
       0.26589134 0.6204405 0.14869985 0.38042563
0001a0 f0 cb 82 3e 44 d2 bf 3e 55 52 09 3e 1a 25 0e be
       0.25546217 0.37465107 0.13410313 -0.1388134
0001b0 6d 47 8a 3e a2 a2 dd 3d a6 37 51 3e 2a 18 fc 3d
       0.2700762 0.10822035 0.20431384 0.123092964
0001c0 11 3c 38 3d 0a 11 3e 3e f1 42 02 3e 03 84 d2 bd
       0.04497916 0.18561187 0.12720849 -0.102790855
0001d0 ad b8 f2 bc ed 71 1b 3d ee c6 c2 3e 48 0d 1e 3e
       -0.029629076 0.037950445 0.38042396 0.15434754
0001e0 bb 72 4d bd d9 08 2e 3d 67 f4 18 bc f4 43 e2 3d
       -0.050158244 0.042488907 -0.009335614 0.11048117
0001f0 7f 1f a6 bd c6 59 fc 3d 11 2c 21 3d 9c f9 14 be
       -0.08111476 0.123218104 0.039348666 -0.14548343

lstm.ih.rho_bias f4 [128]
000000 da 8a 14 c0 32 3c 11 c0 ec 52 04 c0 0a 83 1f c0
       -2.3209748 -2.269299 -2.0675611 -2.492373
000010 ec 7a 2e c0 32 91 1e c0 c0 7a 22 c0 40 6c 20 c0
       -2.7262526 -2.477612 -2.538742 -2.506607
000020 98 35 19 c0 7b 02 04 c0 13 52 18 c0 9d 7a 0c c0
       -2.393896 -2.0626514 -2.3800094 -2.1949837
000030 94 45 ff bf 1e 81 1c c0 ed c7 27 c0 7a 34 32 c0
       -1.9943109 -2.4453807 -2.6215775 -2.784453
000040 99 f1 1a c0 17 cb 20 c0 50 d8 05 c0 aa 7f 13 c0
       -2.420996 -2.5123956 -2.0913277 -2.304667
000050 6a 4c 2d c0 ee 43 15 c0 8b fe 21 c0 1e 66 16 c0
       -2.707789 -2.332271 -2.531161 -2.3499827
000060 cf e7 1b c0 a2 59 14 c0 09 c7 19 c0 a1 36 00 c0
       -2.4360235 -2.3179708 -2.4027731 -2.0033343
000070 c2 c5 0f c0 21 83 1d c0 b6 83 fb bf ee 9b 24 c0
       -2.2464452 -2.4611285 -1.964957 -2.5720172
000080 62 83 20 c0 8d d4 24 c0 9c d7 f6 bf 23 78 39 c0
       -2.508019 -2.575473 -1.9284549 -2.8979576
000090 5f 81 23 c0 9b 21 29 c0 df 02 35 c0 df 58 26 c0
       -2.5547712 -2.642676 -2.8283002 -2.5991743
0000a0 21 e5 05 c0 e4 fd 1a c0 2b 8c 15 c0 80 de 08 c0
       -2.09211 -2.4217463 -2.3366802 -2.1385803
0000b0 bc 4d 9c bf 00 d2 22 c0 a3 94 2f c0 c2 ca 2e c0
       -1.2211223 -2.5440674 -2.743447 -2.7311254
0000c0 b2 63 27 c0 72 6f f5 bf e2 25 0f c0 af f3 2c c0
       -2.61546 -1.9174635 -2.2366872 -2.7023733
0000d0 08 e5 31 c0 d8 9b 21 c0 9b 7b 1e c0 5a 9c 20 c0
       -2.779604 -2.525137 -2.4762943 -2.509543
0000e0 5d fa 2d c0 a6 ea 1a c0 71 2a ec bf 49 55 f0 bf
       -2.718406 -2.4205718 -1.8450452 -1.8776027
0000f0 d1 e2 33 c0 6b ff 39 c0 58 8e cc bf 2d 41 2c c0
       -2.8107188 -2.9062145 -1.598094 -2.691478
000100 e3 48 33 c0 02 c7 47 c0 f7 b3 29 c0 08 2b 39 c0
       -2.8013237 -3.1215215 -2.6516092 -2.8932514
000110 31 d9 34 c0 79 06 2c c0 80 e9 29 c0 42 01 32 c0
       -2.8257563 -2.687895 -2.6548767 -2.7813268
000120 7d 38 43 c0 47 79 2d c0 4d 60 22 c0 53 b9 35 c0
       -3.0503228 -2.7105272 -2.5371277 -2.8394363
000130 3b 24 27 c0 51 ce 3a c0 8b 5f 38 c0 06 bf 24 c0
       -2.6115863 -2.9188426 -2.8808315 -2.5741591
000140 db df 35 c0 c4 4e 28 c0 e2 cf 32 c0 96 14 44 c0
       -2.841788 -2.6298075 -2.7939382 -3.0637565
000150 a1 34 39 c0 27 1b 3d c0 9a 01 2a c0 d9 7c 23 c0
       -2.8938372 -2.9547822 -2.6563478 -2.554495
000160 44 14 46 c0 10 d0 31 c0 3e a6 34 c0 cb e9 28 c0
       -3.094987 -2.7783241 -2.8226466 -2.6392696
000170 95 25 4d c0 23 5d 47 c0 a0 07 17 c0 17 31 3e c0
       -3.2054188 -3.1150596 -2.3598404 -2.9717462
000180 4f 59 0e c0 a1 c3 15 c0 73 0c 1a c0 f2 17 03 c0
       -2.224201 -2.3400652 -2.4070098 -2.0483365
000190 44 e8 0a c0 c2 72 e2 bf b2 92 02 c0 2b d9 1b c0
       -2.1704264 -1.7691271 -2.0402036 -2.43513
0001a0 00 18 1b c0 fe 2b f8 bf 83 84 f4 bf ce 9d 18 c0
       -2.4233398 -1.9388425 -1.9102939 -2.3846316
0001b0 31 0b 12 c0 66 2c 11 c0 91 fb f7 bf 1c 28 04 c0
       -2.281933 -2.2683349 -1.9373647 -2.064948
0001c0 61 05 04 c0 5f 15 34 c0 b4 3c 16 c0 c3 7d 10 c0
       -2.0628283 -2.8138044 -2.347455 -2.257676
0001d0 c8 a3 23 c0 fc b4 06 c0 70 0c ba bf 1c bb 1a c0
       -2.5568714 -2.1047964 -1.4535046 -2.4176702
0001e0 88 ea fb bf 09 99 02 c0 d2 aa 0f c0 5d 36 17 c0
       -1.9680948 -2.0405905 -2.244801 -2.362693
0001f0 5c 4d 08 c0 e2 74 26 c0 0c 38 35 c0 b1 10 1e c0
       -2.1297216 -2.600884 -2.8315458 -2.4697688

lstm.hh.mu_weight f4 [128, 32]
000000 62 28 f8 3a b2 66 e0 bd 46 9f d5 3d f5 65 ca bd
       0.0018932933 -0.109570876 0.104307696 -0.09882728
000010 85 d6 55 3c e6 a3 89 be 0f 03 cd 3c da 6a 1d be
       0.013051634 -0.26882857 0.025025873 -0.15372792
000020 ff ec a0 3d 76 5e fc 3d c0 70 f4 bd 58 64 60 3d
       0.078577034 0.123227045 -0.11935568 0.054783195
000030 0a b3 bb bd a5 14 86 bd 5f 9b ce 3d d2 38 aa 3c
       -0.09165008 -0.065469064 0.100882284 0.020779047
000040 97 64 80 be d1 0b ef bd 6c 49 2c be 7e 1e ba 3d
       -0.25076744 -0.11672176 -0.16824883 0.09087847
000050 1c 17 c4 bd 9e 0b d3 bc cc 63 3d 3d 46 95 66 3e
       -0.0957472 -0.025762375 0.04623775 0.22517881
000060 dc 5e 8e be fa fd 5d 3e 1e 9f 4e 3d 93 1c 8c bc
       -0.27806747 0.21678916 0.050444715 -0.017103469
000070 3f 7c f1 bd 43 11 e5 bd 90 bb 4c 3d 14 ce 2a 3d
       -0.11791276 -0.11184933 0.04998356 0.041700438
000080 d9 52 1e 3e 54 8d 47 3d 16 7e f0 bd 5d d0 eb 3d
       0.15461291 0.048718765 -0.11742799 0.115143515
000090 f3 0d d0 3d 23 4f 76 be c9 ca d4 3d 43 ea d4 bc
       0.101589106 -0.24053626 0.10390241 -0.025990611
0000a0 d5 9b 2a bd 96 1a 4c 3e 22 15 f6 3d 09 45 3a bd
       -0.04165252 0.19932017 0.120157495 -0.045475993
0000b0 e2 0b ad bd b9 18 2b 3e 4d 6a 0d 3e 7c 67 86 bd
       -0.08449532 0.1670865 0.13810082 -0.06562707
0000c0 49 5e 83 3e 76 f8 92 3c bd 78 b1 3d 85 ee 95 3d
       0.2565787 0.017940741 0.08665607 0.073208846
0000d0 ef 2c b4 bd 3a 41 53 3e d4 18 3a 3c 4d 3c d6 3d
       -0.08797633 0.2063035 0.011358459 0.1046072
0000e0 c2 44 c3 bd 8d d2 ec 3d ef 4f 0b 3d cd 9c f7 3b
       -0.09534599 0.11563597 0.034011777 0.007556534
0000f0 00 35 8b be 27 42 9b 3c 4a ec 4d 3d 19 e2 83 bd
       -0.27188873 0.018952442 0.05027417 -0.06439609
000100 6a fb 7b 3d 37 3c a5 bd 32 7b 94 3e c9 20 e0 bd
       0.061519064 -0.08068126 0.2900024 -0.10943753
000110 2d 76 8d 3e 7f 0a 85 3e e1 13 eb 3e 79 8d b4 be
       0.27629223 0.2598457 0.45913604 -0.35264185
000120 4c 60 9d 3e 32 40 26 3e 8c 97 06 3e f1 67 9f 3d
       0.3073753 0.16235426 0.13143748 0.07783497
000130 b8 e1 c2 be bd 08 03 3e 35 cc bd 3e 0e 28 1f 3e
       -0.38062835 0.12796302 0.3706986 0.15542623
000140 12 8b 75 be fd d0 a7 be 49 2e 90 be 37 b9 6d 3e
       -0.23978832 -0.32776633 -0.28160313 0.23215185
000150 4c f6 d1 bc c7 d0 ed 3d 7c d1 ee bb 2e 12 9b 3e
       -0.025630139 0.11612087 -0.007288156 0.30287308
000160 25 65 e7 bc 5d 7a a9 3e df 54 3a 3e 91 76 f2 3d
       -0.028246472 0.33101168 0.18196438 0.11839021
000170 8c 5c 44 3e 85 62 47 be 02 81 b6 be 57 4a 09 be
       0.19175929 -0.19471176 -0.356453 -0.13407265
000180 5b 80 cd 3d 37 79 b0 bd 69 0b 55 bd bd e5 5e 3e
       0.100342475 -0.0861687 -0.052012835 0.21767326
000190 44 d0 d2 bc 07 cb e2 be da 79 a1 bd 5c f9 ed bd
       -0.025734074 -0.44295523 -0.078845695 -0.11619827
0001a0 6c 8b 9d bc eb ee 5c 3d 43 e6 ef bd f1 67 7f 3d
       -0.01923152 0.053938787 -0.11713841 0.062354986
0001b0 13 e8 e1 bc 18 de b1 3e 5d 32 a4 bd db 16 d2 3d
       -0.027576482 0.34739757 -0.080174185 0.102582656
0001c0 56 88 0a 3e 0f c1 f6 3c b4 10 c6 be 04 5b f6 bc
       0.1352857 0.030121354 -0.38684618 -0.030072697
0001d0 54 96 bb bd 5d cd a4 3c d3 7a d1 bd 4f 56 99 3b
       -0.09159532 0.020117456 -0.10228505 0.0046794782
0001e0 d1 61 01 be e0 f0 e4 bc 62 8d fd 3d da e1 12 3e
       -0.1263497 -0.02794689 0.12380482 0.14343968
0001f0 fb 08 91 bc a0 ce 28 be ce 99 e2 bd 51 1e 66 be
       -0.017704478 -0.16485071 -0.11064492 -0.22472502
000200 df 41 ae bc 67 d8 2b 3e 2a 67 2b bd 78 a5 db 3d
       -0.021271644 0.1678177 -0.04184643 0.1072492
000210 e0 aa 09 3e cd 02 e4 be 51 c8 e9 bd 7a ee 15 bd
       0.1344409 -0.44533387 -0.114151604 -0.036604382
000220 41 46 f2 bd b9 dc 55 be 17 89 70 be 9d fa 80 be
       -0.11829806 -0.2088498 -0.23489796 -0.25191203
000230 a9 0e b9 3c b8 19 3f be b3 75 00 be 47 fe 03 be
       0.022589998 -0.18662155 -0.12544899 -0.12889968
000240 0a b2 4c 3e dd 30 aa bd f6 1b cd bd 7d d2 9d bd
       0.19989792 -0.08310101 -0.10015099 -0.07706163
000250 0c fa a0 3b 55 2f ed bd fc 40 6a be a4 6b 81 bd
       0.0049126204 -0.115812935 -0.22876352 -0.06319359
000260 78 7a a9 bc 19 61 6e bc 3d 6a 4a be 6a 3d 14 bd
       -0.02068828 -0.014549517 -0.19767089 -0.03619138
000270 8d 1d 01 bd be a4 32 3e 48 38 d4 3d 88 33 8d 3e
       -0.031522322 0.17445657 0.10362297 0.27578378
000280 de 30 ab be 0b 9f 4a be 59 ff 56 be ae 6a 3b be
       -0.3343572 -0.19787233 -0.20995845 -0.18302414
000290 74 c7 08 3d ca 43 26 bf 26 1d 7c bd f3 1e 66 3d
       0.03339334 -0.6494719 -0.061551236 0.05618186
0002a0 36 81 c8 be a5 32 43 be 5a e5 af bd 53 28 5c be
       -0.3916108 -0.19062288 -0.08588667 -0.21499757
0002b0 a2 17 2f 3e 43 66 51 3c 68 86 69 be 05 8e 28 be
       0.17098859 0.012780729 -0.22805178 -0.16460426
0002c0 46 51 ca bd 65 1a 35 3e 86 21 d7 3c c1 2d 70 3e
       -0.09878783 0.1768585 0.026261102 0.23454954
0002d0 3d a7 d1 3d ea 16 a1 3d d4 16 8a be eb a8 4b be
       0.10236976 0.07865699 -0.2697054 -0.19888656
0002e0 a6 77 f2 bd 65 cc 1b bc 52 ef 90 be c6 c3 34 be
       -0.118392274 -0.009509181 -0.28307587 -0.17652807
0002f0 24 39 6f bd a7 37 05 bf d7 db 42 3e 9e 01 d0 be
       -0.058404103 -0.52038044 0.19029175 -0.40626234
000300 9a 51 53 be d3 a2 e2 3d a5 3d 12 be b2 cd b4 bd
       -0.20636597 0.110662125 -0.14281328 -0.08828296
000310 25 4c ba 3d 99 68 d2 bd ed 0b 4c be a2 97 35 3e
       0.09096555 -0.10273857 -0.19926424 0.17733625
000320 77 5a 6c be 16 ba 35 be 2b ad a8 bc c7 4e 8a be
       -0.23081385 -0.17746767 -0.020590385 -0.27013227
000330 c0 f8 5d bd 40 bb 4a be 06 e2 52 3d aa 48 95 bd
       -0.054192305 -0.19797993 0.051485084 -0.0728925
000340 1d ba 1b be 39 0f 33 3e 44 11 4a bd 83 6e a5 bd
       -0.15207715 0.17486276 -0.049332872 -0.08077719
000350 be a3 8a 3d b1 3d 70 3e b2 a9 79 bd 03 70 50 be
       0.067695126 0.23461033 -0.06095285 -0.20355229
000360 97 59 3b bc b2 f8 da 3d e2 39 c3 bd 82 f1 83 be
       -0.011434934 0.10691966 -0.09532525 -0.25770193
000370 a8 65 10 bd e4 39 8a 3d 0e 96 b4 bc 2f f7 f9 bd
       -0.035253197 0.06749323 -0.022044208 -0.1220535
000380 2d 99 16 bc 93 2b 1b b9 89 42 04 3d 41 26 c6 bd
       -0.009191793 -0.00014798185 0.032290015 -0.09675265
000390 8d de b9 bc e6 03 b5 3b d5 af 83 3d 5f 38 3a bd
       -0.022689128 0.0055241464 0.06430022 -0.045463916
0003a0 26 8d 68 3e 55 02 89 bd 49 be 35 be f3 a4 c5 3d
       0.22710094 -0.06689898 -0.1774837 0.09650602
0003b0 38 1f 3d be b2 09 a7 3d 3e 2f 5e 3e 76 20 41 be
       -0.1846894 0.08156146 0.21697709 -0.18860039
0003c0 93 8f 15 be 8d 86 ba bd b6 66 b9 3d bd 7c 07 3e
       -0.1460555 -0.09107695 0.09052794 0.13231178
0003d0 3a 9c 26 be e1 92 7d 3d f1 c2 a3 bd 88 6a 10 bd
       -0.16270533 0.061907653 -0.079961665 -0.035257846
0003e0 50 08 71 3e c3 ed 37 3d 24 a9 9c 3d 45 ce 19 bd
       0.23538327 0.04490448 0.076494485 -0.03755023
0003f0 f7 ea 92 3e dc af 96 bd f0 8c 7c 3d 5e 25 c6 3d
       0.2869489 -0.07357761 0.061657846 0.09675096

lstm.hh.rho_weight f4 [128, 32]
000000 f5 dd 41 c0 74 2a 2b c0 90 4e 45 c0 e5 61 2f c0
       -3.0291722 -2.6744661 -3.08292 -2.74035
000010 3d 8c 3d c0 cf cf 3a c0 72 33 3c c0 eb 66 3a c0
       -2.9616845 -2.9189336 -2.94064 -2.9125316
000020 ee 97 36 c0 10 57 39 c0 76 6e 45 c0 56 cf 3f c0
       -2.853023 -2.8959389 -3.084867 -2.9970298
000030 b7 b5 3c c0 be 60 33 c0 0d ce 37 c0 05 7c 3e c0
       -2.948591 -2.8027797 -2.8719513 -2.9763196
000040 4c 09 27 c0 ca 47 37 c0 a4 09 3d c0 d6 10 3f c0
       -2.6099424 -2.8637567 -2.9537134 -2.9854026
000050 1c fb 4c c0 a6 de 3f c0 6f d2 32 c0 12 23 36 c0
       -3.2028265 -2.9979644 -2.7940938 -2.8458905
000060 d5 b8 33 c0 54 77 3b c0 3c 8c 33 c0 ab aa 4b c0
       -2.8081563 -2.9291582 -2.8054342 -3.1822917
000070 00 e2 32 c0 6c 3c 2c c0 64 d9 36 c0 af 74 33 c0
       -2.795044 -2.6911879 -2.8570185 -2.8039968
000080 8d 69 39 c0 8a 95 3a c0 a3 1c 3a c0 cb 82 37 c0
       -2.8970673 -2.9153771 -2.9079978 -2.867358
000090 6f 8c 3f c0 ac 66 3c c0 a5 0e 2b c0 9f 5c 2d c0
       -2.9929464 -2.9437666 -2.6727688 -2.7087781
0000a0 bd 94 39 c0 9f 12 33 c0 eb c8 32 c0 1d 32 3e c0
       -2.8997033 -2.7980115 -2.793513 -2.9718087
0000b0 bb 6d 40 c0 1a 69 3f c0 5d 99 3c c0 da d6 31 c0
       -3.0066974 -2.99079 -2.9468606 -2.7787385
0000c0 24 4b 41 c0 70 46 35 c0 ff f3 34 c0 71 85 35 c0
       -3.0202112 -2.8324242 -2.8273923 -2.8362696
0000d0 30 72 35 c0 a3 db 3d c0 2e 40 36 c0 10 89 32 c0
       -2.8350945 -2.9665306 -2.8476672 -2.7896156
0000e0 9c a1 3a c0 a8 f7 3d c0 e4 e6 39 c0 ba bd 3f c0
       -2.9161139 -2.9682407 -2.9047174 -2.995955
0000f0 6e 60 33 c0 3c ef 3d c0 43 3c 32 c0 a9 3c 2d c0
       -2.8027606 -2.9677267 -2.784928 -2.7068274
000100 40 e6 24 c0 14 20 32 c0 46 0e 35 c0 67 1f 2c c0
       -2.5765533 -2.783208 -2.8289962 -2.6894166
000110 2c 4f 3b c0 95 37 27 c0 84 4f 28 c0 48 ce 2b c0
       -2.9267073 -2.6127675 -2.6298532 -2.6844654
000120 4c 40 28 c0 97 dd 2c c0 f4 ad 31 c0 f8 ef 3a c0
       -2.6289244 -2.7010248 -2.7762423 -2.9208965
000130 c3 d4 37 c0 7b 6b 24 c0 a0 6d 25 c0 dd 1c 30 c0
       -2.872361 -2.56906 -2.584816 -2.7517617
000140 1d 39 2d c0 5b 4d 37 c0 d4 07 36 c0 b2 5d 26 c0
       -2.706611 -2.8640964 -2.8442278 -2.5994687
000150 dc 03 23 c0 25 ab 27 c0 aa 65 29 c0 2e 53 24 c0
       -2.5471106 -2.6198208 -2.64683 -2.567577
000160 21 36 35 c0 e8 49 21 c0 2e 2c 26 c0 1d 1e 29 c0
       -2.8314288 -2.5201359 -2.5964465 -2.642463
000170 e3 ed 23 c0 5c 5f 38 c0 16 5c 2f c0 9f b5 2b c0
       -2.5613945 -2.8808203 -2.7399955 -2.6829603
000180 93 6d 31 c0 06 d5 2c c0 e7 fd 41 c0 d1 34 31 c0
       -2.7723129 -2.700502 -3.031122 -2.7688487
000190 da ef 3a c0 32 63 40 c0 43 92 3b c0 85 c4 32 c0
       -2.9208894 -3.0060544 -2.930802 -2.7932446
0001a0 57 aa 39 c0 bb 68 39 c0 b8 98 3c c0 b6 74 3c c0
       -2.9010217 -2.8970172 -2.9468212 -2.9446235
0001b0 f2 2b 3c c0 78 db 35 c0 db 24 3a c0 7b 5f 2c c0
       -2.9401822 -2.8415203 -2.9084995 -2.6933277
0001c0 bf 10 36 c0 78 25 2e c0 24 3f 3f c0 9c 9f 38 c0
       -2.844772 -2.721037 -2.9882288 -2.8847418
0001d0 b9 e6 37 c0 7a f0 32 c0 ef e8 38 c0 86 66 32 c0
       -2.8734572 -2.7959275 -2.8892171 -2.7875075
0001e0 15 5c 48 c0 ad cc 30 c0 dd 3d 3c c0 6e a0 37 c0
       -3.1306202 -2.7624924 -2.9412758 -2.8691669
0001f0 c8 c2 40 c0 e5 ef 3b c0 41 69 32 c0 20 51 2e c0
       -3.0118885 -2.936517 -2.7876742 -2.7237015
000200 8c ea 40 c0 15 16 38 c0 a7 3c 43 c0 ec 9e 32 c0
       -3.0143156 -2.8763478 -3.050577 -2.7909498
000210 b8 a5 35 c0 d5 f0 36 c0 c5 c0 44 c0 69 62 41 c0
       -2.8382397 -2.8584492 -3.0742657 -3.0216315
000220 0f 05 32 c0 b8 4e 3b c0 99 d6 34 c0 cf 7a 37 c0
       -2.7815588 -2.9266796 -2.825598 -2.8668706
000230 d9 e2 4e c0 a7 dc 41 c0 02 92 3f c0 e1 1b 3d c0
       -3.2325957 -3.0290926 -2.9932866 -2.9548266
000240 89 88 38 c0 91 3d 42 c0 40 52 3b c0 3e 42 3f c0
       -2.8833334 -3.0350077 -2.9268951 -2.988418
000250 c4 40 4c c0 4a 27 41 c0 4f d5 3e c0 34 cd 3e c0
       -3.191453 -3.018023 -2.9817693 -2.9812746
000260 40 04 32 c0 e4 94 2f c0 9c d1 33 c0 49 58 45 c0
       -2.7815094 -2.7434626 -2.8096685 -3.0835135
000270 92 03 4c c0 a8 67 3e c0 b5 4c 3c c0 8b ac 3b c0
       -3.187718 -2.9750767 -2.9421818 -2.9324062
000280 21 cc 33 c0 d3 28 3b c0 0e 5d 40 c0 79 ad 43 c0
       -2.809334 -2.9243667 -3.0056796 -3.057463
000290 4c 5e 45 c0 0e a6 48 c0 63 f9 3b c0 1d b0 3c c0
       -3.0838804 -3.1351352 -2.9370964 -2.948249
0002a0 9c 50 47 c0 66 8c 3b c0 35 03 30 c0 61 ad 38 c0
       -3.114295 -2.9304442 -2.7501957 -2.8855822
0002b0 5f 87 50 c0 c7 9f 32 c0 d7 28 39 c0 e9 fd 3b c0
       -3.2582624 -2.791002 -2.8931177 -2.9373724
0002c0 bf 9e 34 c0 d5 62 33 c0 67 9f 34 c0 fd 89 37 c0
       -2.822189 -2.8029072 -2.8222291 -2.8677971
0002d0 64 05 2f c0 dc 85 47 c0 50 4f 37 c0 c1 96 37 c0
       -2.734704 -3.1175451 -2.8642159 -2.8685763
0002e0 af d3 2d c0 8a a6 46 c0 25 be 3e c0 fb 6a 47 c0
       -2.7160451 -3.1039147 -2.9803555 -3.1159046
0002f0 22 ec 37 c0 58 f0 29 c0 dd 20 51 c0 96 a8 2b c0
       -2.8737874 -2.6552944 -3.2676308 -2.6821647
000300 75 ab 41 c0 9b 48 3a c0 72 d1 3d c0 17 f6 40 c0
       -3.02609 -2.9106815 -2.9659085 -3.0150201
000310 94 00 36 c0 8f c1 2f c0 fd 64 35 c0 d8 d9 3c c0
       -2.8437853 -2.7461889 -2.8342888 -2.9507961
000320 53 69 40 c0 cb 91 4b c0 7b 9d 41 c0 d8 a2 36 c0
       -3.0064285 -3.1807735 -3.0252368 -2.8536892
000330 b6 af 30 c0 34 c0 45 c0 15 af 35 c0 1d 33 4b c0
       -2.7607245 -3.0898561 -2.8388112 -3.1749947
000340 d4 80 2b c0 84 3c 3a c0 60 66 44 c0 b4 46 3d c0
       -2.679738 -2.9099436 -3.0687485 -2.9574404
000350 13 ee 3b c0 80 03 39 c0 f0 44 36 c0 02 13 3a c0
       -2.936406 -2.8908386 -2.8479576 -2.9074101
000360 16 c2 3a c0 f3 95 4b c0 52 fa 44 c0 18 d9 37 c0
       -2.918096 -3.1810272 -3.0777783 -2.8726254
000370 91 f6 4a c0 a7 0f 41 c0 dd 34 40 c0 c1 e5 36 c0
       -3.1712992 -3.0165803 -3.0032265 -2.857773
000380 f6 8b 30 c0 90 09 2f c0 ea 82 51 c0 73 0f 4a c0
       -2.7585425 -2.7349586 -3.2736154 -3.157193
000390 29 b7 3e c0 11 78 34 c0 19 a9 2e c0 81 f8 3f c0
       -2.9799292 -2.8198283 -2.729071 -2.9995425
0003a0 3a 92 38 c0 e5 c2 3d c0 37 40 30 c0 1b 56 3e c0
       -2.883925 -2.9650204 -2.7539194 -2.9740055
0003b0 29 c4 39 c0 c1 6b 3a c0 e6 95 3a c0 51 fd 1e c0
       -2.9025977 -2.9128268 -2.915399 -2.4842112
0003c0 9b c1 3d c0 d1 cc 3f c0 c8 08 3f c0 a9 92 3e c0
       -2.9649417 -2.996876 -2.984911 -2.9777014
0003d0 60 d5 2b c0 9c 46 47 c0 95 50 3a c0 64 f0 28 c0
       -2.6848984 -3.1136847 -2.9111683 -2.6396723
0003e0 db b2 43 c0 3d 27 2c c0 02 20 4a c0 ca 54 3a c0
       -3.0577915 -2.689895 -3.1582036 -2.911425
0003f0 fc 44 40 c0 34 c6 36 c0 b0 e8 34 c0 43 d4 2a c0
       -3.0042105 -2.8558474 -2.826702 -2.6692054

lstm.hh.mu_bias f4 [128]
000000 05 6d e6 3d ad 79 f7 bb 70 95 2b 3e 24 f7 3e 3d
       0.112512626 -0.0075523467 0.16756225 0.04662241
000010 e4 97 fb 3d 22 43 9e be 41 79 9d bd a6 7e 43 3e
       0.1228483 -0.30910593 -0.07689143 0.19091281
000020 5f 1b 63 3e 71 dc d7 bd 18 ac 84 bc 3c 32 26 3e
       0.2217841 -0.10540093 -0.016195342 0.162301
000030 4f 2f d1 3e 7f b3 ce 3b 96 99 05 3e 0b 75 bf bd
       0.40856406 0.0063080187 0.1304687 -0.09348496
000040 1e 61 14 bd c9 6c 89 3e 31 72 18 3e b1 aa 59 be
       -0.03622543 0.2684081 0.1488731 -0.2125652
000050 d2 f3 47 be fc 66 19 3e ea 87 de 3c e1 89 ac 3d
       -0.19526604 0.14980692 0.027164418 0.08424736
000060 15 84 5d bd 6f e8 a9 3d f8 d3 44 3d 91 5c 7d 3d
       -0.05408104 0.08296286 0.04805371 0.061855856
000070 09 34 8d be 36 e3 24 be 87 e4 d4 3e cc 3d 12 be
       -0.27578762 -0.16102299 0.41580603 -0.14281386
000080 b2 81 1f be 39 4d d1 bd 53 64 ce 3d a4 fc c7 bd
       -0.15576819 -0.10219807 0.10077729 -0.09764984
000090 35 50 07 be 44 86 ee 3d 29 c0 eb 3d de 51 9f 3e
       -0.1321419 0.11646703 0.11511261 0.31117147
0000a0 3a 62 10 bc e9 a3 c1 3e cb 28 15 be 68 69 4a 3e
       -0.008812482 0.37820366 -0.14566343 0.19766772
0000b0 b8 cc b3 3e fc 93 a8 3d ba 3e 13 bd f6 ed 2f bd
       0.35117126 0.08231351 -0.035948493 -0.042951547
0000c0 99 6a 87 3d 72 8c 9e 3e f2 65 21 3e 8f 0d b9 bd
       0.06612129 0.30966526 0.15761545 -0.09035789
0000d0 fb 90 d7 3d e5 f5 d5 bc 41 48 72 3e 6a 4d 8a 3d
       0.105257 -0.026118228 0.23660375 0.06753047
0000e0 b2 41 3f 3e 41 42 33 bd bc b6 27 3e c6 71 10 3e
       0.18677405 -0.043764357 0.16378301 0.14105901
0000f0 55 12 e0 3c 57 ee de bd c4 a9 44 3e 9d 6f 21 3e
       0.027352491 -0.108853035 0.19205385 0.15765233
000100 26 c3 ad 3c 82 5c 9e 3c cc 88 8b 3e 81 26 81 bd
       0.021211218 0.01933122 0.27252805 -0.06306172
000110 1a ae 04 3e 97 ab 86 3d cf c0 99 3e ac e7 5f be
       0.1295704 0.06575697 0.30029914 -0.2186572
000120 ac 27 6e 3e 26 ac e0 3d e7 9e 12 3e c5 c5 6c 3d
       0.23257321 0.10970335 0.14318429 0.057805795
000130 d1 7e 0a be 2e 73 f9 3d 61 4a 3d 3e 4a cd 8b 3e
       -0.13524939 0.12180172 0.18485405 0.2730506
000140 f9 8b d2 bc c0 15 99 be cb 46 74 be 76 db 51 bd
       -0.02570151 -0.29899406 -0.2385513 -0.051234685
000150 04 fd f9 3c da 48 1e bd fb 7b 3d be f7 7b cb 3e
       0.030516155 -0.038643695 -0.18504326 0.39743015
000160 38 ac 69 3e 8d 27 87 3c bb d0 7d 3e af 4d 94 3e
       0.22819602 0.016498351 0.24786656 0.28965518
000170 e8 36 05 bd c5 41 25 bd 51 d9 ea be d1 ed 42 bd
       -0.032523066 -0.040345926 -0.45868924 -0.04759008
000180 82 71 84 bd 24 ee db bd 0b 24 4e 3e c5 06 23 3e
       -0.064669624 -0.10738781 0.20130937 0.15920551
000190 7a 4e 97 3e 4f cd 08 3f 13 f0 d8 3e 1a 67 1a 3e
       0.2955206 0.53438276 0.42370662 0.15078393
0001a0 f5 d3 70 3e de 8f bd 3e c9 98 8b 3e 42 61 82 bd
       0.23518355 0.37023824 0.27265003 -0.06366207
0001b0 8b ea 5b 3e e0 f8 ed 3d 02 93 ac 3e 35 2b 8f 3e
       0.2147619 0.11619735 0.33705908 0.27962652
0001c0 64 5d 85 3d f4 ce 4a 3b f7 1e bd 3d 2e 1b 36 be
       0.065119535 0.0030946108 0.09234422 -0.17783806
0001d0 10 50 b2 bc c9 51 81 3e 53 6d 08 3f 54 b2 f4 3c
       -0.021766692 0.2525771 0.53291816 0.02987019
0001e0 ab 9d e6 bd 3b 1b 87 bd ea 0e 91 3e c8 a9 3c 3e
       -0.112605415 -0.06596991 0.2833169 0.18424141
0001f0 f1 7a 53 bc ea 8e ad bd df bf 08 3e ca 58 2d bd
       -0.0129077295 -0.08474524 0.13354443 -0.042321004

lstm.hh.rho_bias f4 [128]
000000 f2 1c 1b c0 42 4b 1b c0 66 d8 04 c0 ad aa 1c c0
       -2.4236417 -2.4264684 -2.075708 -2.4479172
000010 7b 5f 2d c0 59 ee 22 c0 0e 56 23 c0 fb 67 1a c0
       -2.7089527 -2.5457976 -2.5521274 -2.4125965
000020 89 37 0f c0 88 b0 06 c0 fd 78 12 c0 7f c2 13 c0
       -2.2377646 -2.1045246 -2.2886345 -2.308746
000030 cd 64 fc bf ef e1 1a c0 fe bc 29 c0 8d 86 28 c0
       -1.9718262 -2.42004 -2.6521602 -2.6332123
000040 17 ca 1d c0 6c bb 0d c0 31 84 1a c0 32 2f 0e c0
       -2.4654596 -2.2145643 -2.4143183 -2.2216306
000050 a2 39 32 c0 89 5b 12 c0 fb 85 19 c0 8f d7 1a c0
       -2.7847676 -2.2868369 -2.3988025 -2.4194067
000060 f1 3d 24 c0 ff 20 1a c0 f9 d3 08 c0 8b 07 01 c0
       -2.5662806 -2.408264 -2.1379378 -2.0160854
000070 f9 bb 12 c0 a7 eb 1e c0 2e 71 05 c0 e7 4b 15 c0
       -2.292723 -2.483133 -2.085033 -2.3327577
000080 70 53 28 c0 21 f6 2d c0 52 3f f2 bf 92 61 28 c0
       -2.6300926 -2.7181475 -1.8925574 -2.6309552
000090 cb 94 23 c0 05 07 2d c0 0f e8 1c c0 1a cd 10 c0
       -2.5559566 -2.7035534 -2.4516637 -2.2625184
0000a0 34 ca 0f c0 7c cd 12 c0 d6 dc 15 c0 af 02 0f c0
       -2.2467165 -2.2937918 -2.3416038 -2.2345388
0000b0 78 39 a9 bf 55 6b 1b c0 dd 6f 37 c0 f1 c4 18 c0
       -1.3220663 -2.428426 -2.8662026 -2.3870203
0000c0 d0 68 30 c0 e9 18 f9 bf ac 17 1a c0 05 4b 38 c0
       -2.7563972 -1.9460727 -2.4076948 -2.8795788
0000d0 b0 d2 2a c0 e4 81 17 c0 a3 4b 26 c0 f2 61 25 c0
       -2.6691093 -2.367303 -2.5983665 -2.584103
0000e0 53 4b 28 c0 67 9c 20 c0 c9 0e 00 c0 f6 e3 d1 bf
       -2.6295974 -2.509546 -2.0009024 -1.6397693
0000f0 43 51 2c c0 7e 2d 2e c0 a8 61 c3 bf 42 19 27 c0
       -2.6924598 -2.7215266 -1.5264177 -2.6109166
000100 a5 d2 3c c0 3c 94 3e c0 84 24 2a c0 cb fd 3b c0
       -2.9503567 -2.9777975 -2.6584787 -2.9373653
000110 fd fb 39 c0 99 cf 39 c0 b3 54 1e c0 00 bd 3b c0
       -2.9060051 -2.9032958 -2.4739196 -2.9334106
000120 87 e6 34 c0 10 1d 2a c0 3e df 22 c0 b8 ac 38 c0
       -2.8265703 -2.6580238 -2.5448756 -2.885542
000130 d9 5b 22 c0 1f 33 36 c0 de 6d 2e c0 51 f2 27 c0
       -2.536856 -2.8468702 -2.7254558 -2.6241648
000140 5c 86 3e c0 df ca 31 c0 e9 cc 2d c0 bf 1b 45 c0
       -2.9769506 -2.7780073 -2.7156317 -3.0798185
000150 06 1c 2a c0 72 1c 3f c0 e7 2d 32 c0 b5 08 2b c0
       -2.6579604 -2.9861112 -2.7840517 -2.6724064
000160 4a 21 3c c0 0e 47 3c c0 31 97 2d c0 92 e2 22 c0
       -2.9395318 -2.9418368 -2.712353 -2.5450788
000170 96 cd 3a c0 fb c8 39 c0 66 f7 24 c0 02 58 44 c0
       -2.918798 -2.9028919 -2.5776 -3.0678716
000180 67 20 11 c0 e6 72 09 c0 ff 0a 1c c0 13 12 07 c0
       -2.2676027 -2.1476378 -2.4381711 -2.1104782
000190 b1 00 ff bf 9f c2 d2 bf 49 03 f5 bf 45 43 1e c0
       -1.9922086 -1.6465644 -1.9141628 -2.4728558
0001a0 64 7e 15 c0 fe df e4 bf db e5 fe bf 09 ad 1b c0
       -2.3358393 -1.7880857 -1.9913896 -2.4324362
0001b0 46 a5 15 c0 22 be 11 c0 31 57 f4 bf 87 ca fb bf
       -2.3382125 -2.2772298 -1.9089109 -1.9671181
0001c0 ff e8 09 c0 ba 2d 2a c0 af 1d 21 c0 cd 3e 0d c0
       -2.154846 -2.659041 -2.5174367 -2.206958
0001d0 17 b9 24 c0 ac dc 11 c0 05 94 ad bf cc d8 11 c0
       -2.573797 -2.2790937 -1.3560797 -2.2788572
0001e0 d9 94 f3 bf 0b ce ed bf ad 19 14 c0 66 bb 25 c0
       -1.90298 -1.8578504 -2.3140671 -2.589563
0001f0 c4 ae 0f c0 73 37 1c c0 32 01 29 c0 41 37 13 c0
       -2.2450418 -2.4408844 -2.640698 -2.3002474

l1.mu_weight f4 [16, 32]
000000 9c 4b c8 be ed 06 45 3e ec a1 f0 be fe dc d4 3e
       -0.39120185 0.19240923 -0.46998537 0.41574854
000010 be 6c 0d bf ff b8 11 be 06 44 f7 be be 83 c6 3e
       -0.5524405 -0.14230727 -0.48294085 0.38772386
000020 37 16 e9 be 25 a7 8e be d7 85 e0 be 91 4a 10 bf
       -0.4552476 -0.27861896 -0.43852112 -0.5636378
000030 e2 26 01 3f 7a f6 db be f2 18 9a be f6 4b d8 be
       0.50449955 -0.42961484 -0.30097157 -0.42245454
000040 53 b3 84 3e 16 3f 10 3f e3 56 06 3f 6e f6 b4 be
       0.25918064 0.5634626 0.5247633 -0.3534426
000050 35 d8 17 3f c1 c7 e1 be f6 fe 84 be e4 84 1d bf
       0.5931428 -0.44097713 -0.2597577 -0.615309
000060 f2 e9 2c 3f 13 6f 0e bf e0 d4 dd be b4 c3 09 bf
       0.6754447 -0.55638236 -0.43326473 -0.53814244
000070 a1 c2 5a 3e 47 1d eb 3e a0 4e fa 3e 50 d3 0d 3f
       0.21363308 0.45920774 0.4888811 0.5540056
000080 61 b8 0d 3f 2a 0e 87 be 7f 3c ff 3e 85 98 d0 be
       0.55359465 -0.26377994 0.49850842 -0.40741363
000090 63 96 ea 3e ba 1c 2d bc 7d ac b5 3e 11 26 ad be
       0.4581786 -0.010565931 0.3548316 -0.33818105
0000a0 4d 20 1b 3f cb 26 9c 3e 17 12 ff 3e 00 6d 00 3f
       0.6059616 0.30498347 0.4981849 0.5016632
0000b0 59 35 a4 be 69 b8 0b 3f e1 3f de 3e f1 f4 00 3f
       -0.3207195 0.5457826 0.4340811 0.5037375
0000c0 02 19 80 be f3 14 0c bf a4 97 dd be a3 60 fa 3e
       -0.2501908 -0.54719466 -0.43279755 0.48901853
0000d0 2b 80 b6 be f8 d1 bc 3e ed da bf 3e 5d b2 ca 3e
       -0.3564466 0.36878943 0.37471715 0.39589205
0000e0 bb 32 00 bf cc 43 e4 3e 74 d6 0c 3f e6 61 c2 3e
       -0.5007741 0.44582975 0.5501473 0.37965316
0000f0 8f e6 cd be 9f 3e 1b bf df 0a 02 bf 48 da c3 be
       -0.40214965 -0.6064243 -0.5079784 -0.38252473
000100 7c 17 22 3f 16 b8 67 bd 23 72 fe 3e a2 38 c3 be
       0.63317084 -0.056572042 0.49696454 -0.38129145
000110 fc 1a 04 3f 3e 30 51 3e 56 2f a8 3e b3 d3 e3 be
       0.51603675 0.20428559 0.32848614 -0.4449745
000120 72 f6 c4 3e 05 ce b4 3e 84 8e 8f 3e fb 27 b6 3e
       0.38469273 0.3531343 0.28038418 0.35577378
000130 a5 ee 17 bf f2 d7 1f 3f 89 39 0f 3f 48 30 d6 3e
       -0.5934852 0.6243888 0.55947167 0.4183371
000140 62 f9 aa be 8c c6 e8 be f3 d1 00 bf 76 d9 cc 3e
       -0.3339339 -0.4546398 -0.5032036 0.4000966
000150 2e 69 1b bf 63 e5 db 3e 72 9c 86 3e 6a d2 48 3f
       -0.60707366 0.42948446 0.26291233 0.78446066
000160 3c f9 16 bf be 62 96 3e 6b ca 11 3f b8 ef de 3e
       -0.5897405 0.2937221 0.5694949 0.43542266
000170 0c 13 ec be 35 50 f5 be cf 1f ef be 68 15 dc be
       -0.46108282 -0.47912756 -0.46703956 -0.42985082
000180 13 ce f1 3e 19 48 c8 be 25 a9 65 3e 4c fb 96 be
       0.47227535 -0.39117506 0.22427805 -0.294886
000190 2e 09 f0 3e 37 e6 3b 3d e9 18 80 3e ab 34 03 bf
       0.46882004 0.045873847 0.25019005 -0.5125224
0001a0 94 5d 12 3f 1b b3 2f 3e e7 a7 8c 3e 54 6d e7 3e
       0.5717404 0.17158167 0.2747185 0.45200598
0001b0 51 8b 03 bf 35 be e6 3e 40 62 c7 3e 83 d2 06 3f
       -0.51384455 0.4506699 0.38942146 0.52664965
0001c0 5d 87 a3 be 37 83 0f bf 0b d5 07 bf 98 64 ed 3e
       -0.3193921 -0.5605959 -0.5305945 0.4636581
0001d0 1e 04 de be 5a 35 f5 3e cf 5f 8b 3e 60 db 07 3f
       -0.43362516 0.47892267 0.27221534 0.53069115
0001e0 9b 63 ec be 7b a6 06 3f ba a5 ed 3e d9 f7 2e 3f
       -0.46169743 0.5259778 0.46415502 0.68346936
0001f0 fb 87 aa be aa b0 10 bf da a2 c3 be 95 9e d2 be
       -0.3330687 -0.5651957 -0.38210183 -0.41136613
000200 ba d2 b3 3e 89 34 e0 be c2 6c 00 3f 7a b3 0c bf
       0.3512171 -0.4379008 0.5016595 -0.5496136
000210 57 15 0c 3f 85 9d 6b 3e e7 11 b2 3e 2b 4f 0a bf
       0.5472006 0.23009308 0.34779283 -0.5402705
000220 10 a1 87 3e 29 0b 20 3f a4 66 d9 3e 1b 0d f5 3e
       0.26490068 0.6251703 0.4246112 0.4786156
000230 65 49 08 bf a8 19 b1 3e 01 ce ca 3e e1 1d e7 3e
       -0.5323699 0.34589887 0.39610294 0.45139983
000240 bb 0b cf be 4c e2 0a bf e4 d5 aa be 13 db 1e 3f
       -0.40438637 -0.5425155 -0.3336631 0.6205303
000250 7f 56 fd be 19 17 00 3f a7 4c e7 3e 22 1e 2b 3f
       -0.49480054 0.50035244 0.4517567 0.66842854
000260 7e 02 e3 be 54 b6 ed 3e 56 0a 0d 3f 30 56 0a 3f
       -0.4433784 0.46428168 0.55093896 0.5403776
000270 c6 75 16 bf 19 8b 7b be e9 26 1a bf 8e 73 79 be
       -0.5877346 -0.2456478 -0.6021562 -0.24360487
000280 9b 5b 07 3f 9d 9d 7c be 3c c0 1f 3f 05 38 c4 be
       0.52874154 -0.246695 0.624027 -0.3832399
000290 4c b8 09 3f 3b f5 f8 3d f1 dc cd 3e 32 87 dd be
       0.5379684 0.12156149 0.40207627 -0.43267208
0002a0 4d 6c e0 3e 70 af b7 3e 92 15 b2 3e 2a b8 d1 3e
       0.43832627 0.35876036 0.34782082 0.4096082
0002b0 d0 15 e7 be 79 e7 19 3f b1 4e 0e 3f 65 c5 f6 3e
       -0.4513383 0.60118824 0.55588824 0.48197475
0002c0 3c 08 19 be 37 9a 03 bf ec b2 21 bf 05 3b bb 3e
       -0.14944547 -0.5140719 -0.6316364 0.36568466
0002d0 b3 ce 89 be 5a 88 1b 3f 48 53 e1 3e 19 b6 b0 3e
       -0.2691551 0.6075493 0.4400885 0.3451393
0002e0 e0 8b 11 bf 17 e6 cd 3e 8d 13 cd 3e 33 74 05 3f
       -0.5685406 0.40214607 0.4005398 0.5213043
0002f0 03 33 12 bf fe c8 d5 be 1b f1 1e bf fa 50 90 be
       -0.5710909 -0.41754907 -0.6208665 -0.2818678
000300 71 46 04 3f 99 95 95 be 3e a3 e0 3e a9 72 ed be
       0.51669985 -0.29215696 0.43874544 -0.4637654
000310 67 46 f2 3e 1e f2 9a 3e 27 3e 03 3f c9 bb ec be
       0.47319338 0.30262846 0.5126671 -0.4623702
000320 45 58 b7 3e 87 a0 e3 3e 54 cd 06 3f 5b ba 15 3f
       0.35809532 0.4445841 0.52657056 0.5848748
000330 79 26 0d bf a6 e3 e1 3e ec 92 0f 3f 6e 03 e1 3e
       -0.5513683 0.44118994 0.5608356 0.4394793
000340 20 ab cc be 34 d1 c3 be 2a 40 05 bf 36 89 a2 3e
       -0.39974308 -0.38245547 -0.5205103 0.3174531
000350 b8 4e 20 bf 96 6f a5 3e 14 56 a6 3e 32 58 c3 3e
       -0.62620115 0.32311696 0.32487547 0.38153225
000360 f6 94 d3 be da 81 d3 3e 9a 09 e6 3e 77 81 cb 3e
       -0.41324586 0.41310006 0.449292 0.3974721
000370 a1 f5 d6 be 63 1d df be 73 1c 17 bf e0 1c b4 be
       -0.41984275 -0.43577108 -0.59027785 -0.3517828
000380 6a 97 16 3f 5a 56 d7 bd 37 73 2e 3f d8 69 ad be
       0.5882479 -0.10514517 0.68144554 -0.33869815
000390 65 9b 0d 3f 6d 23 42 3e 4e 54 c4 3e ee c4 f0 be
       0.5531524 0.18958826 0.3834557 -0.47025245
0003a0 04 80 bc 3e 3a 70 04 3f 5f b7 eb 3e 4a 13 00 3f
       0.36816418 0.51733744 0.4603834 0.5002943
0003b0 f2 a0 ee be cc a9 9f 3e 41 2b ee 3e b7 ee ff 3e
       -0.46607167 0.31184232 0.46517375 0.49986812
0003c0 c1 0a f2 be 5d 18 fd be 7c 15 11 bf a3 f4 e6 3e
       -0.4727383 -0.4943265 -0.5667341 0.45108518
0003d0 88 8e 0a bf 86 9a d8 3e 2d 66 51 3e 4c 62 14 3f
       -0.54123735 0.42305392 0.20449133 0.5796249
0003e0 1e ec 0f bf 96 78 0b 3f 7b 8c 08 3f fe 50 f1 3e
       -0.5621966 0.54480875 0.53339356 0.47132105
0003f0 90 b8 fc be 5a f8 fc be 42 f5 2d bf ca d7 98 be
       -0.4935956 -0.49408227 -0.6795236 -0.29852134
