BNN/BNN_model_state_FD001_test.pt (torch, 57845 bytes, 14 tensors)

lstm.ih.mu_weight f4 [128, 14]
00000000: acc3 87be a895 9cbd 1cbd d8be 8740 843e
00000010: 5b76 95bb df97 47be e035 dabe e705 183d
00000020: cde5 94be 7ae0 aa3d edfa 3fbf eed9 90be
00000030: 0e10 aa3e 08ed a03d 6a67 1dbe 8b94 2f3e
00000040: 2b02 89bd 5d23 633e 4c7d 4bbe 4e10 7dbd
00000050: 2b86 bbbe 9c5f bc3e e1ef 06be 07eb 6f3d
00000060: 834b dabd 60e5 123d d114 903e 5c90 8e3e
00000070: e1dc f2bd 18d7 003e e41e a4be 2956 aa3d
00000080: 1e58 debd a783 a8be 8218 13be c7da 6e3e
00000090: 7813 603d c805 9abe 215e bfbd 1ce5 03be
000000a0: 18be 993d 69cb 863d 8413 b1be 7e82 3dbe
000000b0: b7b5 e8be a3f0 7f3e 17d8 5fbe 3299 84be
000000c0: a245 90be 40c9 923e 059d 1b3d 9f68 fdbd
000000d0: f086 d9bd e946 77be 9f0a 543e ebdc 913e
000000e0: 9485 66be 7f93 d23d 5fd3 d0be 8ef8 c63e
000000f0: cec5 05be e69a 20bd 3ecc f5be 4267 bd3e
00000100: 4747 efbc 9634 15be ad10 353d e317 3ebe
00000110: f9c1 813e 7985 793e d1d2 b5be b8c2 a3bd
00000120: b44b e0be b371 303f bd04 973d 456f 1a3c
00000130: ed3f 94be 5fba 9b3e bac0 eabe 8147 22be
00000140: 0d36 eabe e133 ad3c 4462 05bf 4189 403e
00000150: 50e6 1bbf e5ee f3bb 3bc3 d4bd 87ca 2a3e
00000160: 598a 8dbe a706 2fbe 6639 00be 6409 23be
00000170: 5fc8 a9be d806 5dbe a711 bd3d f660 b5bd
00000180: 3813 7c3e 4ba9 e1bd 29fd 0a3d 9cbe 883d
00000190: f75f 0c3e 8cc3 63bd e146 ef3d 3df9 1abe
000001a0: 7db8 ad3d 4583 0fbe adc9 bf3d fd3d eebd
000001b0: f039 9d3e fcd5 6bbd 5721 0abe f4b2 c5bd
000001c0: 6e5f 2abe 3bbe a13c cf0c 6ebd bd29 ad3d
000001d0: c67a 9b3d 0218 973c d7aa 68bb 43e0 bf3c
000001e0: b53d 0b3d 3d09 9e3c 192a 603c cea0 bdbd
000001f0: 039a 533e cb42 153e d40f 22be fdf8 763d
00000200: 3631 26bd a04a a53d dc15 20be 132c dbbe
00000210: 0f3e a9bd 11d2 343e f26d 6a3d d956 91be
00000220: f892 743e 2f64 eebe 4566 cb3b 94fc 983e
00000230: 12e9 92be 1347 033e c86b 65be 6509 1cbd
00000240: a72a 4fbe 6d3b d9bc caed 233e 2b29 ccbd
00000250: 9cea 2d3e 8323 1fbe a414 b4bd 87a4 98be
00000260: 6ce2 373f 83c6 293d 7836 05be 076b 123e
00000270: 9f90 60be 482c babd 3e1b 4abe e782 cabd
00000280: 132e 26be b102 d2bd 322b 0ebd 8233 71be
00000290: fa55 643e b18b 8dbe e82a 9cbd 3246 ccbd
000002a0: ed39 fdbe b4f0 38be 4a80 c2bd 9ff0 8f3e
000002b0: 32b6 bfbe d188 703d 4947 80be 3161 023f
000002c0: 8c76 46bd 0b2e d73c ccd7 e2be 035a 24be
000002d0: 05db 023f 8077 8e3c 40de f8bd d38b 193d
000002e0: efab c4bc 75f1 2abe fdfe 43be cc53 80ba
000002f0: 044e 243e 1ef0 32be 9e9d 913d 8c1b 3f3d
00000300: e815 a73e 08fd 73be d017 d53d aa83 ee3b
00000310: 4787 e3be 56a9 823d 0137 bebe 09f3 093f
00000320: cd3e 2dbe 38e1 273e c791 c3be e414 5d3e
00000330: 06b5 a7be 34e0 8f3d 1a89 25bd 9bdd 04be
00000340: 8a3e 223e 8523 333e d0ab e8be 9e0a 3bbe
00000350: 3566 c6be e326 c23e 9794 f1bd c62f edbe
00000360: b1be eebe 6f51 b93e 8f2e ddbe 34ad bebd
00000370: 5c0c 6dbe 21f1 91be 9e39 a03e 5f5c a63e
00000380: b160 11bf 647e 653e a655 1abf bf03 ad3e
00000390: 28fd 13be 9a6a dc3d 1db4 9bbe c495 333f
000003a0: 0d97 8fbe 4689 163d 2001 0bbf b15f f0be
000003b0: 45bb be3e 7bd1 bb3e 268e 613e 8319 763e
000003c0: e16e 913b bf4e 8ebc c878 f2bd 489d af3b
000003d0: bad2 98bd aa37 9c3c acd3 c23b 2cc1 003e
000003e0: e86f 5a3e b09c 5ebe 73c8 f63d dcac c93d
000003f0: 5b75 59be 275e 6abd 6835 b2bc 9b99 e33c
-0.26516473 -0.07645732 -0.4233178 0.2583048 -0.004561228 -0.19491528 -0.42619228 0.037115004
-0.29081574 0.08343597 -0.7499226 -0.28291267 0.33215374 0.0785771 -0.1537148 0.17146508
-0.06689867 0.22181459 -0.19872016 -0.061783127 -0.366258 0.36791694 -0.13177444 0.05857375
-0.10658934 0.03586328 0.28140882 0.27844512 -0.118585356 0.12582052 -0.32054818 0.08317215
-0.10856651 -0.32912943 -0.14364818 0.23325644 0.054706067 -0.30082536 -0.093441255 -0.12880367
0.07506961 0.06581766 -0.34585202 -0.1850681 -0.45451137 0.2499414 -0.21859775 -0.2589813
-0.28178126 0.28669167 0.037991542 -0.123734705 -0.106214404 -0.24148144 0.20707177 0.2848886
-0.22511894 0.10282039 -0.40786263 0.38861507 -0.13063738 -0.039210223 -0.48007387 0.36992842
-0.029208792 -0.14570841 0.044205356 -0.185638 0.25343302 0.24367322 -0.35512403 -0.07996124
-0.43807757 0.6892349 0.07373951 0.009425943 -0.28955022 0.30415627 -0.45850164 -0.15847589
-0.45744362 0.021142902 -0.52103066 0.18802358 -0.60898304 -0.00744425 -0.103888 0.1667882
-0.27644613 -0.17092381 -0.12521896 -0.15921551 -0.33160684 -0.21584642 0.092318825 -0.088563845
0.24616706 -0.11018618 0.03393284 0.06676981 0.13708483 -0.05560641 0.11683441 -0.1513414
0.08482454 -0.14014919 0.093646385 -0.11632917 0.30708265 -0.05757712 -0.1348928 -0.09653273
-0.16637966 0.01974403 -0.058117684 0.084552266 0.075917765 0.018444065 -0.003550222 0.023422366
0.033994395 0.019291515 0.013681912 -0.09259187 0.2066422 0.14576261 -0.1582635 0.060296047
-0.040574275 0.08070874 -0.15633339 -0.42807063 -0.0826379 0.17658259 0.05723376 -0.28386572
0.23884189 -0.4656081 0.00620726 0.29880202 -0.28693444 0.12820081 -0.22404397 -0.038094897
-0.20231114 -0.026517594 0.16008678 -0.0996879 0.16984028 -0.1554089 -0.087929994 -0.29813024
0.7182987 0.04144908 -0.1300906 0.1429864 -0.21930169 -0.09090477 -0.19736955 -0.09888249
-0.16228513 -0.102544196 -0.034709163 -0.23554805 0.22298422 -0.2764564 -0.07625371 -0.09974326
-0.49458256 -0.18060571 -0.094971254 0.28113267 -0.37443691 0.05872423 -0.25054386 0.5092955
-0.0484529 0.026267072 -0.44305265 -0.16049962 0.5111545 0.017390966 -0.12151766 0.037486862
-0.024007766 -0.16693671 -0.19140239 -0.0009790598 0.16045386 -0.1747441 0.07110141 0.04665713
0.326339 -0.23826993 0.104049325 0.007278879 -0.44439146 0.063799545 -0.3715134 0.5388647
-0.16918488 0.16394508 -0.38197157 0.2159 -0.32755297 0.07025185 -0.040413953 -0.12975161
0.1584417 0.17494018 -0.45443583 -0.18265769 -0.38749853 0.37920293 -0.117959194 -0.4632551
-0.4662986 0.3619494 -0.43199584 -0.093103796 -0.23149246 -0.2850428 0.31293958 0.3249235
-0.56788164 0.22411495 -0.6028694 0.3379192 -0.1445204 0.1076252 -0.30410853 0.701504
-0.2804493 0.036752008 -0.5429859 -0.46948007 0.3725225 0.36683258 0.22026882 0.2403317
0.0044382666 -0.017371533 -0.118394434 0.0053593256 -0.07462068 0.019069511 0.0059456434 0.12573689
0.21331751 -0.21739459 0.120499514 0.098474234 -0.21236174 -0.057218697 -0.021753982 0.027783206

lstm.ih.rho_weight f4 [128, 14]
00000000: 82db 2ec0 5bbd 33c0 a8ba 2fc0 bcfa 3dc0
00000010: 0006 39c0 5308 40c0 2a71 35c0 41a2 3dc0
00000020: 1734 3bc0 edf8 30c0 4664 41c0 7573 37c0
00000030: 2a95 38c0 bdcb 39c0 6eac 2fc0 fbc4 3ac0
00000040: 69a9 3ec0 ca3f 32c0 58cc 32c0 724a 42c0
00000050: 28bb 2fc0 8366 34c0 ad5a 40c0 88d7 48c0
00000060: 2ca5 35c0 50e5 2fc0 9a41 2bc0 cc37 36c0
00000070: 2fc5 3ec0 f4d4 4bc0 5bef 3ec0 cb7a 4dc0
00000080: 4022 45c0 9eb9 40c0 a439 31c0 54fd 39c0
00000090: 667c 39c0 5656 4cc0 d9ca 2ec0 e7df 35c0
000000a0: eabf 2ec0 27b4 31c0 fa13 41c0 3f1b 30c0
000000b0: 4d98 35c0 97da 3fc0 343d 44c0 58f4 37c0
000000c0: 1b56 35c0 ee1a 32c0 6cad 38c0 93a4 3dc0
000000d0: d260 33c0 0ad9 35c0 4a81 3ac0 a8af 35c0
000000e0: 7906 42c0 8064 38c0 90c5 46c0 051b 32c0
000000f0: a158 3fc0 d64b 51c0 c1ff 49c0 2af5 43c0
00000100: e307 39c0 34ae 3cc0 8ea6 38c0 4062 46c0
00000110: 2170 30c0 5f18 38c0 f6ea 3ac0 4161 3ac0
00000120: ea7d 42c0 34e4 3ac0 5da2 38c0 9e85 41c0
00000130: ecb9 40c0 7d4a 3cc0 85f7 44c0 d710 4cc0
00000140: 048d 34c0 b688 2fc0 32fb 35c0 1b77 3ac0
00000150: 89e5 3dc0 ce2f 44c0 9fb7 3cc0 befc 3cc0
00000160: f73c 32c0 b5a3 30c0 890b 38c0 5bd6 44c0
00000170: 200f 3ec0 826c 34c0 ed45 2ec0 da0a 37c0
00000180: 70f4 39c0 59e1 37c0 056c 36c0 dcbc 3ac0
00000190: 7638 37c0 63aa 2ec0 695a 31c0 1dce 3bc0
000001a0: 208a 3ac0 2410 3dc0 5df6 44c0 b0a2 2dc0
000001b0: a67b 40c0 07eb 38c0 7907 37c0 eb11 35c0
000001c0: ef88 27c0 8e4e 34c0 4e16 3ac0 5296 40c0
000001d0: 3c54 45c0 6646 46c0 8567 3dc0 8fff 37c0
000001e0: 800b 4dc0 49de 42c0 dd3c 3bc0 c9d8 3bc0
000001f0: 690f 2fc0 546e 2ec0 927e 34c0 b6b7 2fc0
00000200: 0a73 2fc0 f77a 2bc0 acf4 29c0 f33e 3cc0
00000210: 2226 2ec0 6599 37c0 89d4 32c0 624b 3bc0
00000220: 780a 31c0 0554 2cc0 2159 26c0 a899 2fc0
00000230: bb32 31c0 bf46 37c0 44e3 2bc0 06d1 27c0
00000240: 1492 4dc0 24ee 3bc0 7fc5 2dc0 881d 2fc0
00000250: d6b1 37c0 97d8 3ac0 ff45 20c0 5e14 33c0
00000260: 240f 36c0 bc81 33c0 8bf8 34c0 d180 32c0
00000270: f9e8 35c0 b764 2bc0 7faa 30c0 2bbb 3fc0
00000280: 8020 33c0 c659 38c0 0d41 3cc0 97d9 38c0
00000290: 10e5 33c0 e83b 34c0 b296 20c0 078c 28c0
000002a0: 1e3b 37c0 49d0 3ac0 762a 31c0 a780 38c0
000002b0: af45 3cc0 337a 30c0 c8eb 35c0 2c51 3ac0
000002c0: 7c76 3cc0 cae4 40c0 d5a6 3ac0 17b1 2ec0
000002d0: 7b4f 33c0 4678 34c0 f3f3 2dc0 5a23 2fc0
000002e0: fa5e 2fc0 226f 2cc0 74e5 48c0 29cf 40c0
000002f0: d6ad 38c0 2385 3ec0 c147 43c0 3082 46c0
00000300: 6cc8 2ec0 9d1c 36c0 65ca 29c0 3714 3dc0
00000310: 2f69 3ac0 f1aa 35c0 d358 35c0 1ab4 3ec0
00000320: d784 41c0 e43d 42c0 c3f7 3ac0 03bc 3fc0
00000330: 457b 31c0 1868 45c0 e2e8 2bc0 937c 35c0
00000340: e091 40c0 3d6b 3ac0 79c0 40c0 f80c 3bc0
00000350: 4285 3bc0 66eb 30c0 f2ee 3dc0 6839 33c0
00000360: 7d9a 40c0 245c 39c0 db52 48c0 f20d 3ac0
00000370: a963 3ac0 94a6 37c0 4df1 36c0 dd89 3cc0
00000380: 3060 32c0 0286 3ac0 963e 2ec0 ecce 39c0
00000390: 39ae 3ec0 78c8 46c0 1b94 37c0 1529 34c0
000003a0: 76af 41c0 bfa0 38c0 249e 32c0 ddb3 2bc0
000003b0: 694c 3ec0 50af 34c0 9019 3dc0 6244 3ec0
000003c0: fffe 35c0 81b0 34c0 c3e1 3dc0 1ce1 41c0
000003d0: 61dd 37c0 5ae8 32c0 2c7a 45c0 7a21 2dc0
000003e0: c835 33c0 d500 3dc0 0da7 36c0 d3da 33c0
000003f0: ee16 30c0 0baa 30c0 7f2c 39c0 d0f2 32c0
-2.7321477 -2.8084323 -2.7457676 -2.9684286 -2.8909912 -3.000508 -2.835032 -2.9630282
-2.9250543 -2.7651932 -3.0217452 -2.866422 -2.8841043 -2.9030602 -2.7448993 -2.9182727
-2.97909 -2.7851434 -2.7937222 -3.0357938 -2.745798 -2.8187568 -3.0055344 -3.138155
-2.8382063 -2.7483711 -2.675879 -2.8471556 -2.9807851 -3.1848726 -2.983359 -3.2106197
-3.0802155 -3.0113292 -2.769143 -2.906087 -2.8982177 -3.1927695 -2.7311308 -2.841791
-2.7304635 -2.7766206 -3.0168443 -2.751663 -2.8374207 -2.9977167 -3.0662355 -2.8742886
-2.8333805 -2.7828937 -2.8855848 -2.9631698 -2.8027844 -2.841372 -2.9141412 -2.8388462
-3.031645 -2.881134 -3.1058083 -2.7828991 -2.9897845 -3.2702537 -3.156235 -3.0618386
-2.8911064 -2.9481325 -2.8851657 -3.0997467 -2.7568438 -2.8764875 -2.9205909 -2.912186
-3.0389352 -2.9201784 -2.8849099 -3.0237803 -3.0113478 -2.9420464 -3.0776074 -3.1885278
-2.821107 -2.7427192 -2.8434567 -2.9135196 -2.9671347 -3.0654178 -2.9487073 -2.9529262
-2.784971 -2.759992 -2.875704 -3.0755832 -2.9696732 -2.8191228 -2.723018 -2.8600373
-2.9055443 -2.8731291 -2.850343 -2.917777 -2.862821 -2.7291496 -2.7711432 -2.9344552
-2.9146805 -2.9541101 -3.0775368 -2.7130547 -3.007547 -2.889345 -2.859831 -2.8292186
-2.6177328 -2.8172946 -2.9076114 -3.0091748 -3.0832663 -3.0980468 -2.9594433 -2.874973
-3.203827 -3.0448172 -2.9255898 -2.9351065 -2.7353156 -2.725484 -2.8202252 -2.7455878
-2.7413964 -2.6793802 -2.6555586 -2.941342 -2.7210774 -2.8687375 -2.794222 -2.926476
-2.766264 -2.6926281 -2.59919 -2.7437534 -2.7687213 -2.863693 -2.6857462 -2.6221328
-3.212041 -2.93641 -2.7151792 -2.7361774 -2.8702292 -2.9194696 -2.5042722 -2.798118
-2.844674 -2.8047934 -2.8276699 -2.7891123 -2.8423445 -2.6780221 -2.7604063 -2.9957988
-2.7988586 -2.8804793 -2.9414704 -2.8882806 -2.8108559 -2.8161564 -2.5091977 -2.6335466
-2.8629832 -2.9189627 -2.7682166 -2.8828523 -2.9417531 -2.7574584 -2.842516 -2.9112043
-2.9447317 -3.0139642 -2.9164326 -2.7295587 -2.801726 -2.819841 -2.7180145 -2.7365327
-2.740172 -2.694283 -3.1390047 -3.012644 -2.88561 -2.976876 -3.0512545 -3.101696
-2.7309828 -2.8454964 -2.6529782 -2.9543588 -2.91267 -2.8385584 -2.8335464 -2.9797425
-3.023733 -3.0350275 -2.9213722 -2.9958503 -2.7731488 -3.0844784 -2.686089 -2.8357284
-3.0089035 -2.9127953 -3.0117476 -2.9226665 -2.9300084 -2.7643676 -2.967709 -2.8003788
-3.0094292 -2.8962488 -3.130057 -2.9071012 -2.9123328 -2.8695421 -2.8584778 -2.9459145
-2.7871208 -2.9144292 -2.72257 -2.9032545 -2.9793837 -3.1059856 -2.8684146 -2.8150074
-3.0263343 -2.8848112 -2.7909021 -2.682853 -2.9734137 -2.8232002 -2.9546852 -2.9729238
-2.8436887 -2.823273 -2.9669044 -3.0293646 -2.872887 -2.7954316 -3.0855818 -2.7051682
-2.8001575 -2.9531758 -2.853946 -2.810231 -2.7513995 -2.7603786 -2.8933408 -2.79607

lstm.ih.mu_bias f4 [128]
00000000: a3b7 95bd 3469 4bbd d76d 00be 5d7f 053e
00000010: a85b b6bd 4796 bb3d 5132 873e ddca 3f3e
00000020: 20a7 923d 00f7 a63d 9d50 d93d 2f6a 9c3e
00000030: 3ca8 463e 9510 9c3d dfa1 7bbb 8f67 81bd
00000040: c3c2 9bbe ad2e ec3c 69d2 103e 318b d9bd
00000050: 7c31 85bc 7fbf d23c 43d8 88be 81c0 323e
00000060: d5f4 aebd f232 963c 072e 1c3e 26fd 8ebb
00000070: f38c a93e 334f 45bd 69cf cf3d abc3 2cbe
00000080: 7bd8 fe3d c32e 8bbd 7a60 563d 022b 033e
00000090: df20 773d 9228 b33d d93c 303e ecd6 d43e
000000a0: 9bb0 a73d 24e9 1d3d efc2 033e e0ef d13e
000000b0: 27f5 373c b09f f03c b811 01be 36c9 ca3c
000000c0: 8336 babd 23a5 0a3d 8c09 f13e 27ab 3ebc
000000d0: 923a 85bd 5bbe 53bb 1d56 a33d 1e37 6e3c
000000e0: 7166 dabc 847c 01be 701b 6d3d bc9c 4d3e
000000f0: a217 353e f32f 88bd 4923 0e3e 842f 133e
00000100: 17e5 92be 2aed ac3d 8303 ec3d c4c1 9dbe
00000110: acf5 f13c 7779 823c 7914 9e3e 4454 6dbe
00000120: 50fa 8f3d e52e 0e3e 41a1 b63d 1473 693e
00000130: 0406 8cbe 91b6 2b3e 8c36 683d 4fff 91bd
00000140: 25ad c23d a7c1 1abd b9fc 4cbe b33a 0dbe
00000150: 083e 1cbe 1e1a 433d 3586 2fbd 70db 9d3d
00000160: fa6a 9f3d b5cf d73d f69a 05be ef57 423d
00000170: 8a5d 58be f484 893e 94a4 5f3c b4a2 24bd
00000180: 4edd 7abd 6a82 1a3e e9cf c8bd 80e2 363e
00000190: 32a6 153e 4c4c be3e fc13 c63e 2e8c ae3e
000001a0: 811d 1f3e 3781 8f3e e7b1 bb3e 8c78 863d
000001b0: 0b63 653e d95f 083d 353b 30bd 5ded 27be
000001c0: 89dc f4bc b0ed 333e e63a 0f3e 6f27 e0bc
000001d0: 1766 073d b2d2 a73d de48 1fbd 4384 a63e
000001e0: 4a97 0e3e c512 513d 73d0 96bd 3484 403e
000001f0: 5ba0 bf3e 2879 813e 495b 73bd 73e2 f73e
-0.073104165 -0.049660876 -0.125419 0.13036866 -0.08904201 0.091595225 0.26405576 0.1872973
0.07160783 0.0815258 0.10611079 0.30549762 0.19400114 0.0762035 -0.0038396043 -0.0631858
-0.3042203 0.02883085 0.14142765 -0.10622252 -0.016258948 0.025726078 -0.26727495 0.17456247
-0.08542792 0.01833484 0.15251933 -0.0043636737 0.33115348 -0.048171233 0.10146982 -0.16871516
0.12443634 -0.067960285 0.0523381 0.12809375 0.060334083 0.087479725 0.17210712 0.41570222
0.08187982 0.03855242 0.1286733 0.41003323 0.0112278825 0.02937302 -0.12604415 0.024754148
-0.090924285 0.033848893 0.47077596 -0.011637486 -0.06505312 -0.0032309506 0.07975409 0.014539508
-0.026660176 -0.12645155 0.057887495 0.2007932 0.17684796 -0.066497706 0.13880648 0.14373595
-0.28690407 0.08443673 0.11524107 -0.30811894 0.02953609 0.01592706 0.30874994 -0.23176676
0.07030165 0.13885076 0.089174755 0.22797805 -0.2734834 0.16768862 0.056692645 -0.071287744
0.09505681 -0.037782338 -0.20018281 -0.13791923 -0.15258038 0.04763233 -0.0428526 0.0770787
0.07784076 0.10537664 -0.13047394 0.04744714 -0.21129432 0.26859248 0.013650078 -0.04019423
-0.06124621 0.15088812 -0.09805281 0.1785984 0.1461418 0.37167585 0.38687122 0.34091324
0.15538599 0.2802827 0.36659166 0.06565961 0.22401063 0.033294532 -0.043025214 -0.1639914
-0.029890316 0.1757114 0.13987312 -0.027362553 0.033056345 0.08194484 -0.03888785 0.32522783
0.139249 0.05104329 -0.07363977 0.18800431 0.3742703 0.25287747 -0.05941323 0.48414955

lstm.ih.rho_bias f4 [128]
00000000: 4c4f 21c0 9235 2bc0 04ef 23c0 4cb2 29c0
00000010: f976 40c0 eeb1 29c0 d6ca 2dc0 fb33 27c0
00000020: a4b8 31c0 18e2 1bc0 f636 28c0 d993 20c0
00000030: 739b 28c0 a2da 1fc0 dcb2 33c0 7445 42c0
00000040: 1c70 24c0 3ab8 37c0 6745 2dc0 2d8d 31c0
00000050: 9611 2fc0 cfcf 26c0 a869 30c0 2a39 19c0
00000060: 5f00 2fc0 2ce4 2bc0 ee3c 36c0 bb27 32c0
00000070: 6c8f 1ec0 0778 2dc0 a1c9 2fc0 c41d 2fc0
00000080: c1d5 31c0 b55e 33c0 d716 32c0 0649 33c0
00000090: afe3 36c0 9d3a 32c0 bdf2 42c0 17ca fbbf
000000a0: 9663 29c0 5139 2fc0 ba6b 35c0 6442 cfbf
000000b0: fdec 22c0 2452 24c0 a298 3fc0 98a2 37c0
000000c0: 61d2 34c0 8f37 28c0 fa67 edbf bdff 31c0
000000d0: 4dec 2cc0 f883 33c0 f657 27c0 c438 31c0
000000e0: d5e5 3bc0 122b 34c0 b856 2bc0 6863 32c0
000000f0: a85c 2ac0 8f11 3fc0 e824 2ec0 d173 36c0
00000100: 0f70 47c0 10ca 49c0 e32b 3dc0 9b38 3cc0
00000110: c68b 3ec0 974c 34c0 a6aa 3bc0 7899 3cc0
00000120: a6f8 48c0 230a 31c0 a144 2cc0 2f58 41c0
00000130: 2b71 34c0 c5e2 3dc0 1fac 50c0 473d 43c0
00000140: 8779 3dc0 bdec 37c0 e3ef 3cc0 1117 3dc0
00000150: fb58 2ac0 e5c0 44c0 a105 33c0 3899 2fc0
00000160: 7fa2 3cc0 2189 3dc0 b3c4 3bc0 5f75 3fc0
00000170: c6da 3fc0 2dbf 40c0 d4ba 40c0 c52b 2ec0
00000180: 2dbf 36c0 fa11 39c0 8dac 2ac0 19a5 25c0
00000190: 233d 27c0 5652 23c0 8d5c 1ac0 bef9 39c0
000001a0: d5ec 38c0 c18e 23c0 a42c 05c0 e2f0 34c0
000001b0: 2be8 23c0 9109 37c0 bc58 2bc0 b9fb 24c0
000001c0: 785c 27c0 7d43 32c0 278c 27c0 a069 38c0
000001d0: 3637 34c0 a3bc 2dc0 7724 2bc0 3b57 22c0
000001e0: 9f20 2ac0 8fd4 38c0 a3fb 26c0 6c41 31c0
000001f0: d097 1dc0 f40c 43c0 2246 3fc0 ec67 1fc0
-2.520465 -2.6751447 -2.5614634 -2.6515074 -3.0072615 -2.651485 -2.7155051 -2.6125476
-2.7768946 -2.4356747 -2.6283545 -2.509024 -2.6344879 -2.4977193 -2.8077917 -3.035489
-2.5693426 -2.8706193 -2.707361 -2.7742417 -2.7354484 -2.6064336 -2.7564487 -2.394114
-2.7343976 -2.6858015 -2.8474689 -2.783675 -2.4775038 -2.710451 -2.7466815 -2.7361917
-2.7786715 -2.8026555 -2.782644 -2.801332 -2.8576467 -2.7848275 -3.0460656 -1.9671048
-2.6467032 -2.7378733 -2.8347 -1.6192136 -2.5457146 -2.5675135 -2.993691 -2.869299
-2.8253405 -2.628391 -1.8547356 -2.781234 -2.7019227 -2.8049297 -2.6147437 -2.7690897
-2.9359028 -2.8151288 -2.677168 -2.7873173 -2.6619053 -2.9854467 -2.7210026 -2.8508189
-3.1162145 -3.152958 -2.9558036 -2.940955 -2.977281 -2.8171747 -2.9322906 -2.946867
-3.1401763 -2.7662437 -2.6916888 -3.0210073 -2.8194072 -2.966966 -3.2605054 -3.050615
-2.9605424 -2.8738244 -2.9521415 -2.9545329 -2.661681 -3.0742733 -2.7972186 -2.7437267
-2.947418 -2.9614947 -2.9338806 -2.9915388 -2.9977279 -3.0116684 -3.011403 -2.7214215
-2.8554184 -2.8917222 -2.6667817 -2.5882018 -2.6131065 -2.5519004 -2.4118989 -2.905868
-2.889455 -2.555588 -2.0808496 -2.8272023 -2.5610454 -2.859959 -2.677291 -2.577864
-2.6150188 -2.7853692 -2.6179292 -2.8814468 -2.8158698 -2.7146385 -2.6741006 -2.5365741
-2.658241 -2.8879735 -2.6091087 -2.769618 -2.462391 -3.0476656 -2.9886556 -2.490718

lstm.hh.mu_weight f4 [128, 32]
00000000: 1216 1fbe b8f3 ba3d 572e 103e 6e4f 8a3d
00000010: e88e 1bbd a221 6dbc 4f7a 7d3e a088 fdbd
00000020: 91e9 dc3d e934 623e 7e64 183d 4fb1 5d3d
00000030: e869 37be 114f a9bd 1281 8b3d 152f f7bc
00000040: b153 09be 6151 18be 62a1 40be 7b6d c43b
00000050: 6ead 39bd 180d 4ebe cead 203e a368 9d3e
00000060: 974b ce3d c63b 843d d93a de3d f467 c13b
00000070: 5657 d53c 0c2d e1bd 2707 8e3d 2263 1e3e
00000080: af4b 8a3d 4f1a 653e ffc7 34bc bdbb 143e
00000090: d837 1c3e 4b53 80be 8ef6 94bd 4d51 e53c
000000a0: a3aa 793c 4505 13bd caf2 1ebe 8cb9 43bd
000000b0: c3b8 153d fcf7 273e cd00 733e 888e e7bc
000000c0: c97a 263e 70de 63bc 9b13 c43d 9943 693a
000000d0: 8268 b3bd 3cdd 473d fb51 40be 5569 673b
000000e0: 9dd0 e2bd adff a93d 9bf1 143d 5424 c23d
000000f0: dbbf 3a3c 4b8b f73c bb20 023d 001e c23e
00000100: e06e 2cbd 5272 afbc b56f dc3d 5b9f 9c3d
00000110: a952 b03d d4bf 6e3e 103c 253c 5940 fabc
00000120: ca04 16bd 52dd f43d 0602 d4bd b9a0 7e3c
00000130: acea 5abc f757 4cbc c0f8 643e f3ec 01be
00000140: f44b 2bbe ff18 983c c356 2ebe f53b 603e
00000150: c12b 813d 39c8 d6bd 539a 2f3d 0213 6ebd
00000160: 6b4d 183d 2397 0b3e 88e7 a0bc 4828 7ebd
00000170: 0e87 f33e a193 0abd adf3 87bd 510f cc3e
00000180: 4a73 a73d 05eb 55be 27f4 14be 61b6 4f3d
00000190: 4a0d 10be f5a7 cd3c 339d c2bc 0ba9 87bc
000001a0: 38ad f4bd d3d8 4cbd 6c21 fabd bfb6 3fbd
000001b0: ac0e 203e 7430 363e 9f32 6abe 26b0 7a3d
000001c0: 4b86 17bd 358f 023e d167 84be ccb4 91be
000001d0: afe0 a43d 3158 ea3d 4d78 d63d fb99 29bd
000001e0: 6378 5d3c 24e2 c3bd 2c32 05be c74f a93c
000001f0: 704c 8c3e c2df 293e dcd9 563b fc80 503e
00000200: b633 393d 9e57 33bc 1565 573c 576f de3d
00000210: 587c 0e3e 8bdc e5bd 52d5 29be 9b6e d2bc
00000220: 1282 9ebd 1ea0 25be a0df 77be 5d27 59be
00000230: 1854 7f3d 7c56 f6bd 6319 843d 73e6 ffbd
00000240: fecd edbc 144d bfbd 4b96 bdbc 9441 213d
00000250: a72c 98bd a4ec c7bd 1e9c 033a 04b3 0ebe
00000260: bee7 31be f537 8c3c 4a8b eabd 7d0a 113d
00000270: c6a4 8c3d 0527 ad3a de81 e23d e501 0a3f
00000280: 9a3b aabd 061e 963d 634a 72be e5d8 213e
00000290: 26e6 37bd 1172 c2be efe3 f4bc 7af0 9a3d
000002a0: b761 c1be 0652 0cbe 59d6 7ebd 7663 84be
000002b0: 97f5 013e e2f9 23bd 7819 24bd 91ab 9e3d
000002c0: 1be9 95bd 38cb 283e edda 613d 1d39 453e
000002d0: 9ba9 bf3d d24a bebd 3407 0a3e 271b 77be
000002e0: 5444 27be c792 6bbe 6a60 aabe 9642 1cbe
000002f0: 7a7a 653e e1c6 e0be e561 253e 8ca4 923a
00000300: 2431 a03e 5114 e23d c229 59bc 6b0a 073e
00000310: 67c9 773e 3fb2 ae3e d457 98be 91c2 513e
00000320: 491c 8ebe d217 503e c696 933d 7e99 49be
00000330: 00e8 02be dcdc 49be c5e9 ba3e bcf1 3d3e
00000340: d814 d7be 075c 5e3e 025a 96bb 7e76 613e
00000350: 5c1d ca3d ed28 49bd 968c 8a3e 4304 91be
00000360: fbab f7be d6a7 6a3e 5ede 3d3e 1abb 83be
00000370: b58f 903d a2cc c0bd db7b 50be 7003 0b3e
00000380: d93a b1bb 5579 243d 4767 a33b 8563 3abe
00000390: 4186 64bd 81f7 043e eb9d c03d 3956 77be
000003a0: 2743 193f 7e1b 513d caf5 eabd e6f9 903e
000003b0: 92ec 4cbe 0abe c73e 1033 143e 3ddf 29be
000003c0: 3bd1 193e a7ed 7cbe d84e 79be 6511 e03c
000003d0: bf0f acbe 2928 8bbd 9a1a afbe 3e0f ce3c
000003e0: 391c a63e 232c b5bb 1015 06ba 5405 9b3e
000003f0: 97e6 133e 55a1 383e e66f 0b3d cfab 173d
-0.15535763 0.09128517 0.14080177 0.06753431 -0.037978083 -0.014473351 0.24753688 -0.12379575
0.10786737 0.22090496 0.03720521 0.054124173 -0.17911494 -0.08267034 0.068117276 -0.030173818
-0.13410832 -0.14874794 -0.18811563 0.0059944964 -0.04533141 -0.20122182 0.15691301 0.30743894
0.10073011 0.064567134 0.10851068 0.0059022848 0.026042622 -0.1099492 0.06934958 0.15467504
0.06752717 0.22373317 -0.011034011 0.14524741 0.15255678 -0.25063547 -0.07273589 0.027992869
0.015238437 -0.035893697 -0.15522304 -0.047784373 0.036553156 0.16403192 0.23730774 -0.028266206
0.16257776 -0.013908014 0.09574052 0.00088983175 -0.08760168 0.04879497 -0.18781273 0.0035310586
-0.11074946 0.083007194 0.036363225 0.09479585 0.011398281 0.030217787 0.031769495 0.37913513
-0.042097926 -0.021416817 0.10763494 0.07647582 0.08609516 0.23315364 0.010085121 -0.030548261
-0.03662566 0.11956276 -0.103519484 0.015541249 -0.013361614 -0.012472144 0.22360516 -0.12688045
-0.16728193 0.018566607 -0.17025284 0.21897872 0.063071735 -0.10487408 0.042871784 -0.058123596
0.037183207 0.13631873 -0.019641653 -0.062050134 0.47563976 -0.033832196 -0.06638274 0.39855435
0.081762865 -0.20890434 -0.14546262 0.05071104 -0.1406757 0.025104502 -0.023756599 -0.016560098
-0.11947101 -0.050011467 -0.12213406 -0.04680514 0.15630597 0.17791921 -0.22870873 0.061203144
-0.036993306 0.12749942 -0.25860456 -0.2845825 0.080506675 0.114426024 0.10472164 -0.041406613
0.013517472 -0.09564617 -0.1300742 0.020667924 0.27402067 0.16589263 0.0032783663 0.20361704
0.04521533 -0.0109461825 0.013146658 0.1086108 0.13914621 -0.11223706 -0.16585281 -0.025687506
-0.07739653 -0.16174361 -0.242064 -0.21206422 0.062336057 -0.12028214 0.06450155 -0.124951266
-0.029028889 -0.09340873 -0.023142954 0.03936918 -0.07430392 -0.097619325 0.00050205167 -0.13935477
-0.17373559 0.017116526 -0.114523485 0.035410393 0.068673655 0.0013210481 0.110599265 0.5390914
-0.08312149 0.07329945 -0.23661189 0.15805395 -0.04489722 -0.3797765 -0.029893843 0.075653985
-0.37769863 -0.13703164 -0.062216137 -0.25857133 0.12691341 -0.04003323 -0.04006335 0.077475674
-0.07319852 0.16483772 0.055140425 0.19260068 0.093585216 -0.092916146 0.1347931 -0.24131452
-0.16334659 -0.2300521 -0.33276683 -0.15259776 0.22410002 -0.43901733 0.16150625 0.0011187955
0.3128749 0.11039031 -0.013254585 0.13187568 0.24197923 0.34120366 -0.29754508 0.20484377
-0.27755955 0.20321587 0.07206492 -0.19687459 -0.12783813 -0.19713157 0.36506477 0.18549246
-0.4200809 0.21714793 -0.0045883665 0.22017857 0.09868881 -0.049111295 0.27060384 -0.28323564
-0.48373398 0.22915587 0.18541858 -0.25728685 0.0705866 -0.094140306 -0.20359747 0.1357553
-0.0054086265 0.040154774 0.004986677 -0.18202026 -0.055792097 0.1298504 0.094051205 -0.24153985
0.5986809 0.05105161 -0.11472662 0.28315657 -0.2001212 0.39012176 0.14472604 -0.16589065
0.15021221 -0.24700032 -0.24346483 0.027352044 -0.33605763 -0.06794769 -0.34199983 0.025153752
0.32443407 -0.005528943 -0.0005114833 0.30277503 0.14443432 0.18030293 0.03404226 0.037029084

lstm.hh.rho_weight f4 [128, 32]
00000000: 80e5 47c0 f0f9 38c0 855c 43c0 0bd5 27c0
00000010: 322d 3ec0 4ae5 3dc0 e0a2 40c0 6ef3 41c0
00000020: a3bc 39c0 d850 3dc0 0576 4cc0 7ea4 45c0
00000030: 9e1d 40c0 3a66 3ec0 5c06 3dc0 36d5 47c0
00000040: 975d 30c0 0c7f 34c0 a741 3cc0 c01f 37c0
00000050: ee71 48c0 6b83 3cc0 969a 3ac0 4cce 3dc0
00000060: 7a30 31c0 5c35 4dc0 64d6 2fc0 896f 4ac0
00000070: 6517 38c0 d9d1 2dc0 6d30 3dc0 df0c 3fc0
00000080: f794 39c0 905a 45c0 e721 3cc0 da37 41c0
00000090: 5d4d 43c0 d257 3bc0 696a 35c0 51b6 32c0
000000a0: 00d1 38c0 a093 2dc0 662c 3cc0 4a8a 42c0
000000b0: 8f1b 35c0 99a1 48c0 703e 41c0 72a5 3ec0
000000c0: df6a 45c0 f032 32c0 5162 3bc0 dd8f 4cc0
000000d0: 15ba 3dc0 cba6 43c0 594f 3cc0 2e31 3cc0
000000e0: 0009 44c0 5990 40c0 1510 3fc0 eb22 4fc0
000000f0: dd22 3fc0 f0c9 3dc0 7695 3dc0 f41d 31c0
00000100: cbbe 33c0 9fac 39c0 3249 3ec0 5067 3dc0
00000110: c68d 41c0 be17 41c0 3ae4 49c0 e870 3fc0
00000120: 6cbe 36c0 46d3 3ec0 33b9 3dc0 dfa4 4ac0
00000130: 7074 33c0 00c9 39c0 316e 35c0 3160 3dc0
00000140: c09b 3bc0 6aef 4cc0 aa70 49c0 7878 38c0
00000150: ea51 3bc0 be6f 3ec0 2ec2 40c0 2a78 3ec0
00000160: 6e24 3bc0 44ab 40c0 3cf8 42c0 f6f7 2fc0
00000170: cdac 30c0 55dd 3cc0 03d5 3ec0 9cfd 30c0
00000180: b420 40c0 5541 3ac0 802d 3ec0 6c78 2cc0
00000190: 1d05 34c0 f181 47c0 f039 49c0 e55b 42c0
000001a0: 72c4 2ec0 6fc3 3bc0 2eac 3bc0 2ecb 37c0
000001b0: 22cc 3bc0 193f 32c0 426b 40c0 08ca 3ec0
000001c0: ffa1 3dc0 4fa7 31c0 65f4 3ec0 526d 3ac0
000001d0: 215a 3cc0 b464 39c0 be63 40c0 e2cc 38c0
000001e0: c102 45c0 932f 35c0 b7f7 3fc0 c6fe 40c0
000001f0: 2689 40c0 9264 33c0 56f0 42c0 d725 30c0
00000200: a3a4 35c0 68a7 3bc0 a52b 3ec0 52e4 36c0
00000210: bf5c 32c0 6d8c 36c0 cc64 39c0 5f88 43c0
00000220: f6b9 2fc0 268a 31c0 a1dc 39c0 f521 39c0
00000230: cdcc 54c0 eb04 3dc0 a408 3ec0 03b5 45c0
00000240: 6f4d 3bc0 3306 44c0 3ef7 40c0 2a85 4dc0
00000250: 80da 50c0 b310 3cc0 6814 4ec0 9366 41c0
00000260: d815 3ec0 faa8 35c0 bb64 3dc0 517e 3cc0
00000270: 9d59 42c0 8dbe 39c0 ac86 3fc0 5d35 32c0
00000280: 5039 42c0 3c7a 3ac0 9304 3cc0 3f48 43c0
00000290: 2e74 3fc0 86fd 48c0 2193 30c0 02ca 40c0
000002a0: 670b 55c0 4e19 37c0 63ba 3ac0 340b 3dc0
000002b0: 349f 47c0 691c 30c0 408e 36c0 c352 39c0
000002c0: 53bd 3cc0 8ed9 30c0 28a0 39c0 12b6 34c0
000002d0: 4d88 37c0 8956 3fc0 a677 2cc0 f712 37c0
000002e0: b751 2dc0 8cad 43c0 bec1 40c0 3157 47c0
000002f0: bd0c 43c0 391a 3bc0 c1a2 4cc0 56d0 34c0
00000300: f256 45c0 5d4d 3dc0 865b 43c0 2b2d 42c0
00000310: ebc9 32c0 2293 30c0 628d 34c0 91e9 44c0
00000320: 2662 40c0 9060 52c0 c8b9 41c0 08e5 4ac0
00000330: a35d 34c0 5294 4ac0 d4bd 3cc0 9050 50c0
00000340: bcae 35c0 b514 39c0 01ac 45c0 21cb 37c0
00000350: 23c6 3bc0 74d5 45c0 983f 3cc0 61b2 3fc0
00000360: d2cf 3cc0 bc05 41c0 de55 40c0 2975 41c0
00000370: 22e3 49c0 cbc6 44c0 f00c 47c0 007c 43c0
00000380: 6af8 31c0 5c5e 3fc0 f9d5 41c0 bb7c 4cc0
00000390: 38b9 41c0 8215 39c0 1fb6 38c0 70c2 3dc0
000003a0: 9bf4 33c0 b4fb 35c0 1d77 31c0 0d56 45c0
000003b0: 2ea0 31c0 902f 36c0 c665 3cc0 9cf5 2fc0
000003c0: 94f1 39c0 edac 34c0 99fb 39c0 6dcc 3ec0
000003d0: cf3c 31c0 a0d1 3ac0 7d4f 2ec0 6036 30c0
000003e0: 0402 37c0 4f4d 2dc0 0c7b 41c0 a54a 2dc0
000003f0: e12e 41c0 ad83 3fc0 b75e 33c0 ac90 24c0
-3.1233826 -2.890255 -3.052522 -2.622378 -2.9715085 -2.9671197 -3.009941 -3.0304828
-2.9021385 -2.9580593 -3.1947033 -3.0881648 -3.0018077 -2.9749894 -2.9535131 -3.1223884
-2.7557123 -2.8202543 -2.941507 -2.8613129 -3.1319537 -2.945521 -2.9156852 -2.9657164
-2.7685838 -3.2063818 -2.7474604 -3.1630576 -2.876428 -2.715933 -2.9560807 -2.9851606
-2.899717 -3.0836525 -2.9395692 -3.019034 -3.0515969 -2.9272351 -2.8346198 -2.7923777
-2.8877563 -2.7121353 -2.9402099 -3.0396905 -2.829807 -3.1348631 -3.019436 -2.978848
-3.084648 -2.784359 -2.9278758 -3.1962807 -2.9644825 -3.0570552 -2.942343 -2.9405017
-3.0630493 -3.0088103 -2.9853566 -3.2365062 -2.986503 -2.9654503 -2.9622474 -2.7674532
-2.80852 -2.901161 -2.9732175 -2.9594307 -3.0242782 -3.017074 -3.1545548 -2.9912663
-2.8553724 -2.981645 -2.9644287 -3.166313 -2.8039818 -2.902893 -2.8348505 -2.958996
-2.9313812 -3.2021127 -3.1475015 -2.8823528 -2.9268746 -2.9755702 -3.0118518 -2.9760842
-2.9240985 -3.0104532 -3.046401 -2.7495093 -2.760547 -2.951009 -2.9817512 -2.765479
-3.001996 -2.9102376 -2.971527 -2.69485 -2.812812 -3.117306 -3.1441612 -3.0368588
-2.73074 -2.9338033 -2.932384 -2.871776 -2.9343343 -2.7851012 -3.0065465 -2.981081
-2.9630125 -2.7758367 -2.9836667 -2.9129224 -2.943001 -2.8967714 -3.0060878 -2.887505
-3.078293 -2.8310287 -2.9994943 -3.0155501 -3.0083709 -2.8030133 -3.045919 -2.7523096
-2.8381736 -2.9320927 -2.9714139 -2.8576856 -2.7869108 -2.852321 -2.8967772 -3.0551984
-2.7457252 -2.774057 -2.9040911 -2.8926976 -3.325 -2.9534252 -2.9692774 -3.089173
-2.9266012 -3.0628784 -3.0150905 -3.2112527 -3.2633362 -2.9385192 -3.2199955 -3.0218856
-2.9700832 -2.8384385 -2.959273 -2.9452097 -3.0367196 -2.9022553 -2.9925947 -2.784507
-3.034748 -2.9137106 -2.9377792 -3.0512846 -2.991466 -3.1404738 -2.75898 -3.0123296
-3.328821 -2.8609195 -2.9176261 -2.9538088 -3.119092 -2.751734 -2.8524323 -2.8956764
-2.9490554 -2.7632785 -2.9004002 -2.8236127 -2.8676941 -2.9896567 -2.6948028 -2.8605325
-2.7081125 -3.0574675 -3.011825 -3.1146967 -3.0476525 -2.9234755 -3.1974337 -2.8252158
-3.0834317 -2.9578469 -3.0524611 -3.0340068 -2.793574 -2.7589803 -2.8211293 -3.0767558
-3.0059905 -3.2871437 -3.0269642 -3.170229 -2.8182151 -3.1653028 -2.9490862 -3.2549171
-2.83879 -2.8918889 -3.0886233 -2.871773 -2.9339683 -3.0911531 -2.9413815 -2.9952624
-2.9501843 -3.015975 -3.005241 -3.022776 -3.154488 -3.0746334 -3.1101646 -3.0544434
-2.780787 -2.9901342 -3.0286849 -3.195113 -3.0269299 -2.8919377 -2.8861158 -2.9649925
-2.8118045 -2.8434877 -2.772895 -3.0833771 -2.7754016 -2.846653 -2.9437118 -2.7493658
-2.9053698 -2.8230546 -2.9059813 -2.9812272 -2.7693365 -2.9190445 -2.7236016 -2.7533188
-2.859498 -2.7078435 -3.0231352 -2.707681 -3.0184863 -2.9924119 -2.802656 -2.57133

lstm.hh.mu_bias f4 [128]
00000000: f60b 363e a2d1 863d 217b b2bd e4b3 5f3e
00000010: 72d8 34bc a276 4ebe 03ef 12bd 26c3 953e
00000020: e232 293d 34e9 443e 3886 c43d 7f72 a33e
00000030: 23f9 5c3e 9907 693d 996c d63c 8ca8 37be
00000040: 1ad3 0fbe a80a 703e 63ab 883e bed1 efbd
00000050: 9ec6 55be 0846 403e 1e7a fe3d 38d0 ce3d
00000060: 2929 fc3b 414e c33d dab0 5ebd 6a31 17be
00000070: d61a 4f3e 7f9b a4bb e549 923e 0aa7 a53c
00000080: d8a0 08bd 9be6 3bbd 9b9c 72bb 91f6 9cbd
00000090: 2b96 d3bd 2ebc ff3c 8ff5 4f3e 87f0 093f
000000a0: f30e 58bd 4fe6 3f3e 9840 98bd 714a cd3e
000000b0: 4a3e 1f3d 2eb5 063e 814e 4fbd 0d93 c5bd
000000c0: bcfb 94bd e8a6 2e3e 16d7 8a3e 3097 1c3d
000000d0: 21f4 6c3e a8c5 643d c1b9 a93d afc6 d63d
000000e0: 6d80 a83e e710 f3bc dddc a13d 80cf 1c3e
000000f0: 8eb5 1e3e 8d65 853c b39b 4abd 956d 0e3f
00000100: eadd 8dbc 174c ccbd 044e 9d3d 48d3 9abe
00000110: 36ec 5ebc b963 ca3d cfd7 043e 4228 33be
00000120: 540a 053e 741d a93d 7f65 563d a1a1 e63d
00000130: a931 92bd e10c b13d 950f 9a3c 2a4f 683d
00000140: 3f94 d33c fa0a 18be c259 21be 6de1 93bd
00000150: 9142 233e f981 7f3d 00bb 48be 310d 943e
00000160: 8368 963e 233b b7bc 4461 363d 7232 093e
00000170: d176 3cbe ffbb 1c3d d5c3 3dbe 425b 13be
00000180: 9b89 13ba 725a efbc 5a07 483d 9410 df3e
00000190: 6fed 353e 5eae 8d3e 1948 2d3f 56dd d13d
000001a0: fd9d 093e 8c14 8d3e eca2 023f 669e 113e
000001b0: c763 2b3e fab6 2a3d a377 cc3d 9c14 983a
000001c0: e13e 10bc 918c efbb a641 d43d ffc6 d7bd
000001d0: e061 283d 2219 9c3e ff7f 113e 1dfd 483e
000001e0: 18a5 943d 4cf2 8abd 7515 693e 7206 873e
000001f0: de81 e33e f9c3 293d 2654 113d 6b97 163f
0.17778 0.06582953 -0.08714891 0.21845967 -0.011037933 -0.20162442 -0.03587247 0.2925045
0.04130829 0.19229585 0.09595913 0.3192329 0.21579413 0.05689201 0.02617483 -0.1793539
-0.14045373 0.23441565 0.26693258 -0.11709927 -0.20876548 0.18776715 0.12425636 0.10098308
0.0076953364 0.0953641 -0.054367878 -0.14764944 0.20225081 -0.0050234194 0.28572002 0.020221252
-0.033356518 -0.04587422 -0.0037019614 -0.07664216 -0.10331377 0.03121766 0.20308517 0.5388264
-0.05274863 0.187402 -0.07434195 0.40095857 0.038877763 0.13155052 -0.050611977 -0.09647188
-0.07274577 0.17055857 0.27117223 0.03823012 0.23140003 0.055852562 0.08287383 0.10487115
0.3291048 -0.029671146 0.079034545 0.1531353 0.15498945 0.016283775 -0.049464893 0.5563596
-0.017317731 -0.099754505 0.07680896 -0.3023932 -0.013606122 0.09882302 0.1297295 -0.17495826
0.12992221 0.08257571 0.052342888 0.11261297 -0.07138378 0.086450346 0.018806258 0.05671612
0.025827525 -0.14847937 -0.15756896 -0.07220731 0.15943362 0.06237981 -0.19602585 0.28916314
0.2937661 -0.022367066 0.044526353 0.1339815 -0.184047 0.038265225 -0.18531735 -0.14390281
-0.000562811 -0.029217932 0.048835136 0.43567336 0.17766355 0.27672094 0.6768814 0.102472946
0.13439174 0.2755474 0.5102985 0.1422058 0.16737281 0.041678406 0.099837564 0.0011602822
-0.008804054 -0.007310458 0.10364084 -0.10536002 0.041108966 0.30487925 0.14208983 0.19627805
0.07258052 -0.06784496 0.22762091 0.26372105 0.44435018 0.04144666 0.03548064 0.58824795

lstm.hh.rho_bias f4 [128]
00000000: c17a 3ac0 ddf8 37c0 ec71 26c0 b5fd 27c0
00000010: 633b 3cc0 c36f 2dc0 7125 20c0 ab04 35c0
00000020: 1839 2bc0 909a 1fc0 f70c 23c0 2cf6 22c0
00000030: b300 2bc0 0da0 24c0 c38a 3bc0 0379 2fc0
00000040: bc06 2bc0 9e4f 24c0 c4fb 2ac0 ba16 22c0
00000050: 476f 36c0 f1fb 31c0 40f9 2ec0 8905 3ac0
00000060: 2c2b 39c0 110e 2ac0 0445 2bc0 7b2b 30c0
00000070: 7eb2 1bc0 f26d 33c0 2a17 36c0 06b0 30c0
00000080: 90a3 38c0 3163 32c0 5371 33c0 61bf 2ec0
00000090: 8f62 37c0 66d7 3ac0 05ab 20c0 f5cf f3bf
000000a0: f535 23c0 5383 2fc0 707e 2ec0 27ff d2bf
000000b0: 65c2 42c0 74f6 20c0 d5b7 42c0 0abb 23c0
000000c0: 7204 31c0 37ea 29c0 0a23 02c0 fece 3dc0
000000d0: a276 27c0 06b0 1fc0 71ef 37c0 f2ff 2dc0
000000e0: b688 2fc0 195e 39c0 3627 3ac0 048d 29c0
000000f0: 5f42 3ac0 d1a0 26c0 a384 26c0 46f3 29c0
00000100: e572 41c0 5e9c 32c0 8286 33c0 8457 3ec0
00000110: b21f 44c0 8bb1 40c0 c3db 33c0 ab60 44c0
00000120: d13d 46c0 f9c5 33c0 967d 30c0 61b9 44c0
00000130: 9f67 3cc0 3a3e 41c0 b01b 43c0 a3aa 3bc0
00000140: f393 42c0 0467 3ec0 535a 37c0 c8f7 47c0
00000150: 49ab 35c0 dc7d 44c0 8a16 42c0 c0aa 3cc0
00000160: 3ad5 36c0 887e 3dc0 ed02 37c0 6dea 37c0
00000170: f7a5 36c0 f644 3bc0 8f87 4bc0 3b8e 39c0
00000180: 1f69 2ec0 26c7 2dc0 07f8 32c0 1724 26c0
00000190: 2041 2bc0 9041 24c0 3887 0cc0 94a2 36c0
000001a0: e2ca 25c0 a123 16c0 4c50 15c0 7b44 35c0
000001b0: a571 24c0 81b3 38c0 477f 20c0 b9db 29c0
000001c0: c221 24c0 aa1a 2bc0 b46f 3bc0 e25d 33c0
000001d0: 7b3c 36c0 4595 30c0 35b5 30c0 7e3a 20c0
000001e0: 8261 1ac0 b68b 28c0 6dc7 23c0 9b6e 30c0
000001f0: 6ddc 21c0 54a4 35c0 f16e 2bc0 0c19 1dc0
-2.9137423 -2.8745644 -2.6007032 -2.62486 -2.9411247 -2.7099464 -2.5022852 -2.82841
-2.6753597 -2.4938087 -2.5476663 -2.5462751 -2.6719177 -2.5722687 -2.9303443 -2.741761
-2.672286 -2.5673594 -2.6716166 -2.5326371 -2.8505418 -2.7810023 -2.733963 -2.9065878
-2.89326 -2.6571085 -2.6760874 -2.7526538 -2.4327693 -2.8035855 -2.8451638 -2.7607436
-2.884983 -2.7873042 -2.8037918 -2.7304308 -2.8653905 -2.9193969 -2.5104382 -1.9047838
-2.5501683 -2.7423904 -2.7264671 -1.6484116 -3.043115 -2.5150423 -3.0424702 -2.558291
-2.7658963 -2.6549203 -2.0333886 -2.9657588 -2.6166158 -2.4951186 -2.8739893 -2.7187467
-2.7427192 -2.8963683 -2.9086432 -2.649232 -2.910301 -2.6035655 -2.6018455 -2.6554732
-3.0226376 -2.790794 -2.8050847 -2.9740915 -3.0644345 -3.0108364 -2.8102882 -3.0684001
-3.097523 -2.8089583 -2.7576652 -3.0738146 -2.9438245 -3.019423 -3.048565 -2.9322898
-3.04028 -2.9750376 -2.864888 -3.1244984 -2.8385794 -3.0701818 -3.0326257 -2.9479218
-2.8567643 -2.9608479 -2.8595536 -2.8736832 -2.8538797 -2.926084 -3.1801488 -2.899306
-2.725166 -2.71528 -2.7963884 -2.5959527 -2.67585 -2.5665016 -2.195753 -2.853673
-2.590508 -2.3459246 -2.333026 -2.8323047 -2.5694363 -2.885956 -2.5077684 -2.6540358
-2.5645604 -2.6735024 -2.9286928 -2.8026052 -2.8474414 -2.7591107 -2.76106 -2.50357
-2.4122014 -2.6335273 -2.559047 -2.7567508 -2.5290787 -2.8381548 -2.6786463 -2.4546537

l1.mu_weight f4 [16, 32]
00000000: ccb6 e3be 6f1e 18bf e984 f2be fc70 063f
00000010: 4654 0fbf 9e5a c8bd e0c2 dfbe 69c9 dc3e
00000020: 7298 fbbe 6c12 85be 3048 acbe a91c 1abf
00000030: 5248 043f 0243 fabe 26a7 bfbe 1b8c ffbe
00000040: 3528 013f ce03 153f c514 073f 5ec5 edbe
00000050: 36cd 273f 2dff 083f 7073 7cbd 3feb 14bf
00000060: 07bf cd3e fe9f 18bf 26b5 e9be b73b 20bf
00000070: 8b14 623e b08a 193f e724 043f 1b59 083f
00000080: b8fa 163f ba4e 053f 4599 fe3e 6550 01bf
00000090: 7639 ea3e 0de9 30bd 3c1a a03e f2ef c1be
000000a0: ac45 233f d676 963e cfb9 c83e f878 083f
000000b0: b430 9fbe e821 1c3f 4906 fe3e 37ec 123f
000000c0: 1293 f2be e48b 0fbf 0e32 dfbe 8a07 153f
000000d0: 5af4 d3be f633 19bf 86a0 3f3e 85f5 b73e
000000e0: 81a6 5abe eef4 f23e e6d2 113f 0b20 eb3e
000000f0: 2df7 ccbe 6497 34bf 026e 07bf 9085 adbe
00000100: f5a3 2d3f 7f2b 313f 57f7 ff3e c8d3 f7be
00000110: 5b34 043f 8ad1 393e 79d4 943e 7648 fabe
00000120: 2fb1 d63e d6d0 ae3e cd39 373e 5cd7 c83e
00000130: daa0 19bf 9f1f 303f 9135 203f bb9c fc3e
00000140: bfec 10bf d7ff f0be d928 02bf 5e70 013f
00000150: 2a23 2bbf 4208 01bf 0067 d23d b844 413f
00000160: 27c5 a0be f8d5 a73e ccae 173f 108a 063f
00000170: 054d eebe 50b3 1dbf eaed fcbe fb3b cbbe
00000180: 07b6 053f 1258 d13e d2f9 6b3e 186b cebe
00000190: 0ef3 f43e 786f 903c f5aa 593e fa83 0fbf
000001a0: f826 1c3f 7d03 293e f595 333e 7aab fb3e
000001b0: 283a 02bf be49 053f 6ff6 ec3e 2ad4 1a3f
000001c0: 0fff 0ebf 46aa 14bf d97c 0abf c01e 123f
000001d0: f79d ffbe e77b 02bf 5b9a a03d 4b63 003f
000001e0: fe76 3ebe f43e 103f 46fa fa3e 8398 443f
000001f0: 8c9d afbe f792 2dbf ca15 d3be 0ba2 c1be
00000200: f1aa ca3e cb33 bc3e d8ea 003f 4dde 26bf
00000210: 3825 0d3f e177 423e 9504 9c3e ccf6 14bf
00000220: 7c00 993e 5732 1d3f 0c20 a43e 16bf 023f
00000230: bc3d 06bf 95b5 d33e 6719 ed3e f73d 063f
00000240: 3725 24bf 18a3 0ebf 5ece adbe 2033 383f
00000250: 3351 0ebf f9fc fcbe a002 803e b2c1 233f
00000260: 0aa0 25be 0415 ff3e d09a 123f c021 1f3f
00000270: b289 16bf 9a08 b6be e496 20bf d5b4 4fbe
00000280: bc57 163f a82f 093f f0e5 213f 5d6b fdbe
00000290: 7857 0b3f 7b80 c23d 3db1 b83e ab5d f6be
000002a0: b0a1 f33e 72e9 b13e 8e52 803e 5e1f e63e
000002b0: 4564 e7be 47a6 2a3f f195 213f 6726 0f3f
000002c0: f00d c7be 61ca 08bf 164d 23bf 94e1 f03e
000002d0: a12b abbe 9fed bcbe 9446 823e e0a2 a13e
000002e0: 808d 9abe bc4c e23e e7d6 da3e 4d9b 1c3f
000002f0: 7076 14bf d24a 0cbf abd7 26bf 9d12 81be
00000300: c217 0e3f 3828 f93e 47f9 e03e 60ef 0fbf
00000310: af3c f33e 69ed 873e 8308 f13e 359f 01bf
00000320: d9fa c83e da12 df3e 6105 d73e a998 1e3f
00000330: f5f0 0abf 254b 013f 58c7 1f3f d784 023f
00000340: 3daa 1fbf a944 ccbe 1fb1 06bf 8603 d33e
00000350: 93f4 2fbf 7953 22bf cf2f 083e 0983 b13e
00000360: a048 05be c895 e33e a7a6 f03e b2e5 f63e
00000370: 6a3e d9be 51fe 0abf f1f8 1cbf 18dd 9fbe
00000380: 010e 223f 9e15 333f f385 2f3f 648e e2be
00000390: 55f0 0e3f 0062 243e cad6 b13e 364e 03bf
000003a0: 1b5a ce3e ecdd 013f f55e b83e 8d01 093f
000003b0: f262 ecbe 6260 c13e 1a88 083f 08c6 133f
000003c0: 758d 34bf 68a5 02bf 8f7f 12bf c6b3 0c3f
000003d0: 29db 19bf 4358 11bf e199 7b3c 168c 0c3f
000003e0: 1b5a 8ebe bd72 143f 6de3 0e3f 019d 0d3f
000003f0: 485c febe 956c 19bf 0629 35bf 8300 88be
-0.444754 -0.5942144 -0.47367027 0.5251615 -0.55987966 -0.09782909 -0.43703365 0.43122414
-0.49139744 -0.25990617 -0.33648825 -0.6019998 0.5167285 -0.48879248 -0.37432212 -0.4991158
0.50451976 0.5820893 0.52766067 -0.46439642 0.655475 0.5351437 -0.061633527 -0.5817146
0.40184805 -0.5961913 -0.45646018 -0.6259112 0.22078149 0.59977245 0.5161881 0.53260964
0.58976316 0.5207325 0.4972631 -0.505133 0.45746964 -0.043191005 0.31270015 -0.37878376
0.63778186 0.2938754 0.3920426 0.53309584 -0.31091845 0.60989237 0.4961417 0.57391685
-0.4737783 -0.5607283 -0.43592876 0.5821463 -0.41397363 -0.5984491 0.18713579 0.35929504
-0.21352579 0.47452492 0.5696243 0.45922884 -0.4003233 -0.70543504 -0.52902234 -0.33890963
0.67828304 0.69206995 0.49993393 -0.48403764 0.5164239 0.18146339 0.29068354 -0.48883408
0.41932055 0.34143704 0.17893143 0.39226806 -0.60011065 0.6879825 0.62581736 0.49338326
-0.56611246 -0.4707019 -0.5084358 0.50562084 -0.6685053 -0.50403225 0.10273552 0.7549548
-0.31400415 0.32780433 0.59251094 0.52554417 -0.46543136 -0.61601734 -0.49400264 -0.396942
0.52230877 0.40887505 0.23044518 -0.4031608 0.47841686 0.017631277 0.21256621 -0.56060755
0.6099696 0.16505237 0.17537673 0.49154264 -0.5086999 0.52065647 0.46281764 0.60479987
-0.5585794 -0.58072317 -0.5409675 0.5707817 -0.49925205 -0.5097031 0.07841941 0.5015151
-0.1860008 0.5634606 0.49019068 0.76795214 -0.34299886 -0.67802376 -0.4122756 -0.3781894
0.39583543 0.36758265 0.50358343 -0.65182954 0.55134916 0.18991043 0.30472246 -0.5818908
0.29883182 0.6140494 0.320557 0.51072824 -0.5243795 0.41349474 0.46308443 0.524383
-0.64119285 -0.5571761 -0.33946508 0.7195301 -0.5559265 -0.49411753 0.25002003 0.6396743
-0.16174331 0.4982072 0.57267475 0.62160873 -0.58803856 -0.35553437 -0.6273024 -0.20283826
0.5872762 0.5358834 0.6324148 -0.49495974 0.5443034 0.09497162 0.36072722 -0.48118338
0.47584295 0.34748417 0.25062984 0.44945806 -0.45193687 0.6665997 0.6311942 0.5591797
-0.3887782 -0.53433806 -0.637895 0.47047102 -0.33431724 -0.3690004 0.25444472 0.31569576
-0.3018608 0.4419917 0.42742082 0.6117447 -0.5799322 -0.54801667 -0.65172833 -0.25209513
0.55505 0.48663497 0.43940184 -0.5622463 0.47507235 0.26548317 0.47076806 -0.50633556
0.39253882 0.4356907 0.4199629 0.6195169 -0.5427392 0.50505286 0.6241355 0.5098395
-0.6236914 -0.39896134 -0.52614015 0.41213626 -0.68732566 -0.6340862 0.13299488 0.34670284
-0.13015985 0.44450212 0.47002146 0.4822212 -0.4243043 -0.54294306 -0.61317354 -0.3122337
0.6330262 0.6995486 0.68563765 -0.4424926 0.5583547 0.16053009 0.34734184 -0.51291215
0.4030312 0.5072925 0.36009946 0.5351799 -0.4616924 0.37768847 0.53332675 0.57724047
-0.70528346 -0.5103364 -0.5722589 0.5496181 -0.60100037 -0.567753 0.015356512 0.54901254
-0.2780312 0.57987577 0.55815774 0.55317694 -0.4967978 -0.5993131 -0.7076572 -0.2656289

l1.rho_weight f4 [16, 32]
00000000: 4c46 3dc0 4591 3bc0 cf9a 4cc0 4b29 3cc0
00000010: d454 43c0 bfb2 39c0 66f5 4fc0 43b3 3bc0
00000020: 9d75 3fc0 6b06 45c0 30b4 37c0 e3f0 4ac0
00000030: 7ade 3ec0 4cc3 43c0 9e96 46c0 7392 42c0
00000040: 7738 42c0 de65 4ac0 f059 46c0 7e14 35c0
00000050: 5bb1 3cc0 5330 46c0 b5c5 42c0 72de 41c0
00000060: 57e2 3dc0 22ad 46c0 8127 38c0 6ee0 38c0
00000070: f959 3bc0 272e 47c0 2867 40c0 0492 50c0
00000080: dbfa 38c0 9cd6 41c0 94aa 3ec0 35d2 3bc0
00000090: fa74 3dc0 e02a 3dc0 0075 46c0 2717 38c0
000000a0: cb22 3dc0 a5f7 40c0 39a9 43c0 6e63 40c0
000000b0: f9ff 43c0 0c28 3cc0 0ba7 3cc0 39d7 2ec0
000000c0: 483a 46c0 40ed 39c0 8b1f 43c0 18d6 43c0
000000d0: 2ecb 46c0 f9c1 37c0 1a00 3ec0 aeb8 4bc0
000000e0: 27d4 4ac0 77f3 3bc0 a62a 3cc0 f8e2 33c0
000000f0: 6e4e 41c0 b2c7 3fc0 b3db 44c0 b201 46c0
00000100: c5b8 4bc0 3953 37c0 275e 4fc0 dfe5 40c0
00000110: 6933 46c0 b294 40c0 070b 48c0 23f3 40c0
00000120: 8249 42c0 21f7 44c0 09f1 3ec0 d4fb 3ac0
00000130: c80c 3dc0 f944 41c0 a425 42c0 f40e 37c0
00000140: f407 4bc0 ca0a 39c0 ff45 36c0 bab5 39c0
00000150: e3d0 3ac0 e94d 43c0 7675 40c0 25ef 45c0
00000160: 3fc3 31c0 bb08 47c0 4582 39c0 08d5 46c0
00000170: 3cec 40c0 73c5 3ec0 bfa7 41c0 0004 3cc0
00000180: f631 3bc0 14ce 41c0 74f1 40c0 9bf3 42c0
00000190: 73e6 3fc0 49ff 46c0 9cf2 39c0 e412 3ac0
000001a0: be6f 41c0 4230 38c0 8b3e 47c0 6b1a 4bc0
000001b0: 3653 3fc0 8ac5 4fc0 79cb 3cc0 3ecc 3ec0
000001c0: a0a0 3ac0 081c 3ac0 649e 48c0 40ec 33c0
000001d0: d1b6 3fc0 200c 41c0 01d6 4ec0 cd70 48c0
000001e0: 9b12 46c0 efc5 3ec0 b5f1 41c0 f6cb 32c0
000001f0: 7d67 45c0 6e7c 41c0 05e9 4cc0 50cc 41c0
00000200: a5a8 39c0 c638 47c0 642d 3fc0 0652 3bc0
00000210: 441f 4ac0 6be6 3fc0 096d 3dc0 57d2 33c0
00000220: 5951 3fc0 290f 3cc0 ba18 3ac0 6e79 3ec0
00000230: 68ed 3ac0 a1d2 39c0 2d05 42c0 27a6 44c0
00000240: 0fc8 49c0 d89a 41c0 91ec 3cc0 954e 3ec0
00000250: 6417 3dc0 3790 3bc0 089e 4ec0 9f11 43c0
00000260: 3f1d 3ec0 e248 31c0 7226 4dc0 c522 3cc0
00000270: 76b6 37c0 8463 43c0 2007 44c0 7bd8 2fc0
00000280: fdc6 37c0 574f 41c0 4bb2 46c0 9218 3dc0
00000290: cc0f 47c0 506f 2cc0 fc60 3dc0 1e4e 45c0
000002a0: ccb7 50c0 3834 48c0 430c 46c0 879a 42c0
000002b0: 3031 34c0 5f92 36c0 66af 36c0 7cae 37c0
000002c0: e491 37c0 3dbd 36c0 aeb5 43c0 f77b 4ec0
000002d0: 68cc 4ec0 5685 4bc0 095d 42c0 b7d5 3bc0
000002e0: 5e90 3ec0 93b8 3ec0 9b21 4fc0 8cb7 38c0
000002f0: 20f3 33c0 e007 45c0 5e4c 3ac0 125c 3ac0
00000300: b51d 45c0 1df3 43c0 2077 47c0 7a23 3bc0
00000310: 4773 52c0 c2d3 40c0 7785 46c0 b759 39c0
00000320: 9620 40c0 2666 47c0 e0d4 3cc0 e38d 46c0
00000330: ae19 40c0 8ee5 40c0 8a57 47c0 6d76 33c0
00000340: 47c2 3ac0 6988 40c0 b3bd 39c0 bcd9 39c0
00000350: 9988 44c0 ab90 38c0 66f0 45c0 769d 3fc0
00000360: c569 4cc0 2e24 3ec0 b273 48c0 3ed0 3cc0
00000370: 4500 39c0 7e7a 42c0 cb92 42c0 c601 47c0
00000380: af7d 44c0 abd1 47c0 81bf 3ac0 8d6f 44c0
00000390: a883 39c0 c914 4fc0 2eff 3ec0 d99a 43c0
000003a0: 4b25 3cc0 051f 35c0 20c1 3bc0 5055 44c0
000003b0: f491 40c0 69a5 43c0 cf0a 46c0 34f6 4bc0
000003c0: 8bb1 3fc0 b24c 47c0 8eed 4cc0 e2f2 3ec0
000003d0: c60c 49c0 ee20 44c0 432a 3bc0 5aa1 3cc0
000003e0: 83de 3bc0 7a2e 3dc0 b2e8 40c0 81af 4ec0
000003f0: aca9 36c0 4f60 33c0 be09 4cc0 1fec 42c0
-2.9574156 -2.9307415 -3.1969488 -2.9400203 -3.0520525 -2.9015348 -3.249353 -2.9328163
-2.9915535 -3.0785167 -2.8703728 -3.1709526 -2.982329 -3.058795 -3.102943 -3.0401886
-3.0346963 -3.1624675 -3.0992393 -2.8293757 -2.948325 -3.0966995 -3.043317 -3.029202
-2.9669397 -3.1043172 -2.8774111 -2.888698 -2.9273665 -3.112192 -3.0062962 -3.258912
-2.890311 -3.0287237 -2.9791613 -2.934705 -2.9602647 -2.955742 -3.100891 -2.876413
-2.9552486 -3.015115 -3.0572035 -3.0060687 -3.0624983 -2.9399443 -2.9476955 -2.7318861
-3.0973072 -2.9051056 -3.0488002 -3.0599422 -3.106151 -2.8712142 -2.9687562 -3.183147
-3.1691988 -2.936735 -2.940103 -2.810728 -3.020412 -2.9965634 -3.0759094 -3.0938535
-3.1831524 -2.8644545 -3.2401216 -3.0140302 -3.0968878 -3.0090756 -3.125673 -3.01484
-3.0357366 -3.0775836 -2.9834616 -2.9216204 -2.953905 -3.0198348 -3.0335474 -2.8602877
-3.1723604 -2.8912835 -2.8480222 -2.9017167 -2.9189994 -3.0516303 -3.0071692 -3.0927212
-2.7775419 -3.1099079 -2.898576 -3.1067524 -3.0144186 -2.9808013 -3.0258634 -2.9377441
-2.9249244 -3.028203 -3.0147371 -3.0461185 -2.9984405 -3.1093314 -2.9054327 -2.907403
-3.0224452 -2.8779454 -3.1131923 -3.1734874 -2.9894538 -3.2464318 -2.949919 -2.981216
-2.9160538 -2.907961 -3.1346674 -2.8112946 -2.9955332 -3.016365 -3.2318118 -3.1318848
-3.0948856 -2.980831 -3.0303776 -2.7936988 -3.0844414 -3.0232196 -3.2017224 -3.0280952
-2.9009182 -3.1128402 -2.9871454 -2.9268813 -3.1581583 -2.9984386 -2.95978 -2.8097131
-2.98934 -2.9384253 -2.9077592 -2.9761615 -2.9207401 -2.9034808 -3.031566 -3.0726411
-3.1528356 -3.025076 -2.9519389 -2.9735463 -2.9545527 -2.9306772 -3.2283955 -3.0479505
-2.970535 -2.7700734 -3.2054715 -2.9396222 -2.8705115 -3.052949 -3.0629349 -2.747588
-2.8715203 -3.0204675 -3.1046321 -2.9546247 -3.1103392 -2.694294 -2.9590445 -3.082893
-3.261218 -3.1281872 -3.0944984 -3.0406816 -2.8155022 -2.8526838 -2.8544555 -2.8700247
-2.8682795 -2.8553002 -3.0579638 -3.2263162 -3.231226 -3.1800132 -3.0369284 -2.934919
-2.9775615 -2.9800155 -3.236426 -2.8862028 -2.8117142 -3.0786057 -2.910911 -2.9118695
-3.0799382 -3.0617135 -3.1166458 -2.9240403 -3.288286 -3.0129247 -3.101896 -2.8961008
-3.001989 -3.1156096 -2.9504929 -3.10241 -3.0015674 -3.014011 -3.114718 -2.8041031
-2.9181077 -3.0083258 -2.9022033 -2.9039145 -3.0708373 -2.8838298 -3.0927978 -2.9939857
-3.1939557 -2.9709582 -3.1320615 -2.95021 -2.8906415 -3.0387263 -3.0402095 -3.1094832
-3.070171 -3.122172 -2.9179385 -3.0693085 -2.8986607 -3.2356436 -2.984325 -3.0563262
-2.9397762 -2.8300183 -2.9336624 -3.067707 -3.0089083 -3.0569708 -3.0944097 -3.186902
-2.9952114 -3.114056 -3.2019992 -2.9835744 -3.1414046 -3.0645099 -2.9244545 -2.947348
-2.935456 -2.9559617 -3.0142026 -3.229462 -2.854106 -2.8027532 -3.1880946 -3.0456617

l1.mu_bias f4 [16]
00000000: 427e 09bf 0b37 063f 8594 ee3e 0b5b 213f
00000010: bc5e f63e f2f1 bf3e 3eeb 183f fd03 f53e
00000020: 17c4 f43e 7767 02bf 9339 d5be 79fb 04bf
00000030: 5967 a63e 382e 143f ad66 123f cddf 09bf
-0.5370828 0.5242774 0.46597686 0.63029546 0.48119152 0.37489277 0.5973395 0.47854605
0.47805855 -0.50939125 -0.41645488 -0.51946217 0.32500723 0.57883024 0.5718792 -0.5385712

l1.rho_bias f4 [16]
00000000: 64a1 21c0 a9cd 24c0 ef79 27c0 086d 2bc0
00000010: a935 36c0 d1da 2ec0 504f 2fc0 946f 26c0
00000020: f23c 26c0 bb85 28c0 a7f8 1ec0 e79d 2cc0
00000030: c71e 28c0 5631 2fc0 0012 33c0 970f 2cc0
-2.5254755 -2.5750525 -2.6168172 -2.6785297 -2.8470252 -2.7321055 -2.7392159 -2.6005602
-2.5974698 -2.6331623 -2.4839265 -2.6971376 -2.6268785 -2.7373862 -2.7979736 -2.6884515

l2.mu_weight f4 [1, 16]
00000000: e5e4 15bf 1646 333f eba2 163f ee7c 303f
00000010: 81b2 273f 09f4 1c3f 1f99 3b3f f273 1d3f
00000020: 638c 1d3f 095d 1fbf 5537 1bbf 1c98 2abf
00000030: 1db1 253f 81b9 1d3f c7b1 223f 5bfb 2cbf
-0.5855239 0.7002882 0.58842343 0.6894063 0.6550675 0.6130987 0.7328052 0.61505044
0.6154234 -0.62251335 -0.60631305 -0.6663835 0.6472338 0.6161118 0.63552517 -0.6757104

l2.rho_weight f4 [1, 16]
00000000: 4596 5cc0 2210 5ec0 d03e 59c0 031b 60c0
00000010: 8643 5ec0 f862 5bc0 2531 57c0 9949 63c0
00000020: 0124 66c0 88f4 5ec0 edb4 5bc0 7ad0 65c0
00000030: c1de 59c0 4f0f 5dc0 59fd 5cc0 848e 61c0
-3.4466717 -3.4697347 -3.3944588 -3.5016487 -3.4728713 -3.4279156 -3.3623745 -3.551367
-3.5959475 -3.483675 -3.4329178 -3.5908494 -3.4042208 -3.4540594 -3.452963 -3.5243235
