BNN/model_state_FD001.pt (torch, 33863 bytes, 9 tensors)

lstm.weight_ih_l0 f4 [128, 14]
-0.23162486 -0.20469102 0.35277602 0.71792454 -0.5381626 -0.106547765 -0.9665163 -0.3389427
-0.56941456 -0.3233999 0.4300738 -0.34090817 -0.33121848 -0.40190452 -0.117823325 0.512151
0.31269315 0.51027673 0.2083531 0.16788876 -0.31012407 -0.2660295 -0.14143245 0.22748287
-0.716627 0.20241123 -0.683109 -0.31195268 -0.16382053 -0.3205456 0.46358123 -0.2534144
0.5382004 -0.4226719 -0.013640317 0.23828338 0.25537574 -0.28149247 -0.210905 0.45623845
0.33479223 -0.036767036 -1.066705 -0.57777184 -0.66824514 -0.07189238 0.36435217 0.01341002
-0.5096215 -0.17541027 -0.37827596 -0.19767116 -0.8835073 -0.29558674 0.006115541 0.51097053
-0.0898643 -0.6515468 -0.7723589 0.16685198 0.102463745 -0.5213875 -0.06591324 0.2396694
-0.0516289 -0.45680204 -0.12566349 -0.47841474 0.5362678 0.013986121 -0.0008604163 -0.27493235
-0.119529195 -0.44905826 -0.30198634 -0.4782143 -0.17086159 0.30878678 -0.043614388 -0.17406952
0.38864675 -0.18678762 -0.10831764 0.017667927 -0.5403312 -0.43325615 -0.25214574 -0.32035553
-0.20810424 0.03164199 -0.42059335 -0.034925193 -0.16720773 0.10760705 -0.7214925 -0.30621186
0.41430515 -0.079622686 -0.49579847 -0.38163096 -0.13872269 0.25870767 0.3713824 -0.51152974
0.0056474996 -0.336215 0.2720426 -0.57567513 -0.32400158 -0.6708982 0.28361392 -0.38938323
-0.28470084 -0.89091194 -0.1770775 0.5135023 -0.5904557 -0.4759165 -0.334092 -0.12821798
-0.73631257 -0.44248375 -0.2143531 -0.6499617 -0.5905511 -0.3088154 -0.54711044 -0.20054457
0.42606205 -0.12067188 -0.02216058 0.19623737 0.27256772 -0.2641144 0.023379963 0.10230214
0.66405463 -0.25585723 -0.507301 -0.631405 0.3569683 -0.4515362 0.1601306 -0.12849405
-0.53150916 -0.473654 -0.08520916 0.23801354 -0.31052443 -0.60103565 -0.08739234 -0.39682513
0.3524769 0.17763571 -0.02021323 0.38325855 0.6307143 -0.11891731 0.3345103 0.019470332
-0.101181924 -0.17864837 0.49447647 -0.10174394 -0.085926905 -0.33157566 -0.14231199 0.5880599
-0.547554 -0.6437689 -0.30689302 -0.3965708 -0.24707496 0.18988885 0.14132592 0.08797996
-0.1495521 0.2921156 -0.2735184 0.02759918 0.11899765 0.20120138 -0.18405844 0.122486
0.16873872 0.14209004 0.08412725 -0.2883906 0.4258972 -0.17842758 0.22006284 -0.281242
0.16345125 0.40931436 -0.31865537 -0.8004422 -0.16026813 0.3231361 0.24968109 -0.12386069
-0.15016302 -0.123577364 0.49208224 -0.37267476 0.17693336 -0.21927859 0.033267565 -0.052865073
-0.39205256 -0.3399675 -0.40870538 -0.34529653 -0.87728 0.095807575 -0.30663612 0.2082642
0.054117806 0.20431198 -0.21463738 0.03846903 -0.97810864 -0.07315732 0.46615934 -0.12084034
-0.9715146 -0.16978365 0.06363017 0.13995503 -0.024252811 -0.26987264 -0.5690087 -0.2582728
-0.12207219 -0.06142535 -0.16746473 -0.5734698 -0.52934563 -0.61975175 -1.2223823 -0.7841548
-0.3727899 0.022308787 -0.18521805 -0.18994129 -0.5547318 -0.7588668 -0.28047684 -0.110051185
-0.66591907 -0.29007262 -0.66187614 0.14182779 0.122585535 -0.22000198 -0.03403646 -0.38348922
00000000: 112f 6dbe 869a 51be 0f9f b43e e7c9 373f
00000010: 06c5 09bf b735 dabd 9d6d 77bf e689 adbe
00000020: 27c5 11bf ac94 a5be a232 dc3e 848b aebe
00000030: 7895 a9be 6ec6 cdbe 5b4d f1bd 541c 033f
00000040: 5119 a03e 7fa1 023f 845a 553e 08eb 2b3e
00000050: 95c8 9ebe 0535 88be abd3 10be 45f1 683e
00000060: de74 37bf e444 4f3e 3be0 2ebf 43b8 9fbe
00000070: 92c0 27be 8e1e a4be 855a ed3e 88bf 81be
00000080: 80c7 093f 7468 d8be a37b 5fbc 8f00 743e
00000090: 9cc0 823e c81f 90be 7bf7 57be 1698 e93e
000000a0: e369 ab3e 0899 16bd ca89 88bf dbe8 13bf
000000b0: 1d12 2bbf 503c 93bd 5e8c ba3e b3b5 5b3c
000000c0: 8e76 02bf c09e 33be 63ad c1be 4f6a 4abe
000000d0: 892d 62bf 2557 97be e064 c83b f7ce 023f
000000e0: c60a b8bd c5cb 26bf 50b9 45bf 3fdb 2a3e
000000f0: 83d8 d13d a779 05bf 85fd 86bd e56b 753e
00000100: d378 53bd f5e1 e9be eead 00be c7f2 f4be
00000110: d948 093f 0b26 653c 8f8d 61ba efc3 8cbe
00000120: b9cb f4bd f7ea e5be f49d 9abe 81d8 f4be
00000130: 57f6 2ebe 4d19 9e3e 00a5 32bd 483f 32be
00000140: b5fc c63e 4145 3fbe a4d5 ddbd 54bc 903c
00000150: 2553 0abf c0d3 ddbe 3f19 81be a405 a4be
00000160: 4719 55be 089b 013d 0358 d7be b80d 0fbd
00000170: 8138 2bbe 1661 dc3d bcb3 38bf cdc7 9cbe
00000180: ce1f d43e 3811 a3bd 4cd9 fdbe 2265 c3be
00000190: 520d 0ebe 5575 843e d525 be3e 9df3 02bf
000001a0: a90e b93b 5f24 acbe 2b49 8b3e 725f 13bf
000001b0: 89e3 a5be fcbf 2bbf d835 913e 3d5d c7be
000001c0: 4fc4 91be ce12 64bf ce53 35be e374 033f
000001d0: 1b28 17bf 54ab f3be 1b0e abbe 934b 03be
000001e0: fb7e 3cbf 3b8d e2be 617f 5bbe e463 26bf
000001f0: 5b2e 17bf 0d1d 9ebe 6e0f 0cbf 8e5b 4dbe
00000200: ce24 da3e d222 f7bd 1b8a b5bc 73f2 483e
00000210: ff8d 8b3e 013a 87be 5687 bf3c c983 d13d
00000220: 7cff 293f b8ff 82be 7ade 01bf c2a3 21bf
00000230: 8dc4 b63e c12f e7be 47f9 233e f293 03be
00000240: fc10 08bf c782 f2be 2482 aebd d2b9 733e
00000250: 0ffd 9ebe 79dd 19bf c1fa b2bd aa2c cbbe
00000260: da77 b43e 23e6 353e 3796 a5bc 773a c43e
00000270: 7e76 213f eb8a f3bd ef44 ab3e 3f80 9f3c
00000280: 7838 cfbd 99ef 36be 052c fd3e 205f d0bd
00000290: 72fa afbd 49c4 a9be 3cba 11be 188b 163f
000002a0: 802c 0cbf 0ace 24bf 1521 9dbe 540b cbbe
000002b0: 3801 7dbe 3972 423e beb7 103e d62e b43d
000002c0: 3024 19be 2d90 953e 9b0a 8cbe ad17 e23c
000002d0: 0ab5 f33d bc07 4e3e d179 3cbe f1d9 fa3d
000002e0: d8c9 2c3e 0d80 113e e84a ac3d efa7 93be
000002f0: 330f da3e b8b5 36be 2758 613e f4fe 8fbe
00000300: c45f 273e a791 d13e cc26 a3be c8e9 4cbf
00000310: 541d 24be 1872 a53e 66ac 7f3e acaa fdbd
00000320: 56c4 19be 2116 fdbd 34f2 fb3e 3acf bebe
00000330: 052e 353e 918a 60be 9243 083d 0c89 58bd
00000340: 1dbb c8be 3810 aebe d541 d1be b5ca b0be
00000350: 6c95 60bf c336 c43d 69ff 9cbe 3643 553e
00000360: a2aa 5d3d 2937 513e e7c9 5bbe b491 1d3d
00000370: 5465 7abf 81d3 95bd 70ac ee3e 247b f7bd
00000380: 2eb5 78bf c4db 2dbe 8950 823d 5f50 0f3e
00000390: d5ad c6bc bf2c 8abe 8eaa 11bf 553c 84be
000003a0: fc00 fabd 2699 7bbd e07b 2bbe ebce 12bf
000003b0: 3283 07bf 0da8 1ebf 0677 9cbf 5ebe 48bf
000003c0: 51de bebe ebc0 b63c cda9 3dbe f87f 42be
000003d0: e702 0ebf 1845 42bf a99a 8fbe 8462 e1bd
000003e0: ac79 2abf 6684 94be b770 29bf 4e3b 113e
000003f0: 200e fb3d 3348 61be d169 0bbd b358 c4be

lstm.weight_hh_l0 f4 [128, 32]
-0.20828886 0.33560658 0.13752688 -0.19630744 -0.19451189 -0.13426639 -0.5073776 -0.5781266
0.02441431 -0.2695208 -0.20406789 0.11810245 -0.4041641 0.24189736 -0.401753 -0.29479328
0.3232868 0.07050885 0.008278932 0.20934089 -0.34752873 0.2586097 -0.05458694 0.08963409
-0.0851598 -0.10258998 0.18486093 0.44704816 -0.14835171 -0.6030036 1.1139823 0.63301855
0.30355126 0.41079944 0.16273111 0.113596134 0.23409279 0.29635713 0.33500895 -0.17675786
-0.26973283 -0.40995672 0.37919307 0.13778824 -0.38015372 0.45503375 0.21648395 -0.038804445
-0.31484154 -0.049875297 0.17606543 -0.21385363 0.07191182 -0.2707476 0.06473247 0.25620604
-0.019911947 -0.14027777 0.351754 -0.14935249 0.018013224 0.48084792 0.16430078 0.4519095
-0.23470518 0.39216337 -0.43866608 -0.104545414 -0.30563053 -0.08261733 0.324308 0.055522703
-0.18964878 0.014801954 0.052173313 0.11142607 0.26471448 0.7510287 -0.49156326 0.67713785
0.15864767 0.2506797 0.21097812 0.16657853 -0.20971695 0.32632262 -0.16840117 -0.065527774
0.069516934 0.32716158 -0.051246233 -0.1041974 1.1499995 -0.29170185 -0.16812614 0.17575984
0.37562957 -0.5953487 0.5070884 0.37025416 -0.12852277 3.0322482e-05 0.43924177 -0.5465145
-0.18368338 0.10291889 0.101669565 0.29962167 0.88509524 -0.25644857 0.36696622 0.16710787
0.1779232 -0.058745105 -0.076869845 0.08967283 -0.3409196 -0.2374296 -0.1893751 0.16493262
0.06380028 -0.20990327 0.0086347 -0.32928538 -0.37521142 0.17748457 0.2779583 0.12348142
-0.6512531 0.14908403 0.45436814 -0.5986163 -0.8525583 -0.42376015 0.23984355 -0.27802873
0.556083 0.8960317 -0.42839977 0.05714945 0.16561669 0.100424804 -0.21676594 0.3297166
0.87054783 0.35788465 -0.22261669 0.70031285 -0.45348993 0.4639703 -0.03233972 -0.43009368
0.8754002 0.46195284 -0.20854531 -0.0494903 0.39178798 -0.33032107 -0.12501384 -0.03472286
-0.11879963 -0.34745693 0.1846416 -0.07744102 -0.9931131 0.0007111758 0.04825921 -0.6379117
0.07123817 0.9966402 -0.07144092 0.06138265 -0.17097178 0.4952851 0.103940465 1.4916654
0.20512597 0.13918762 0.24198788 -0.06238892 -0.4117781 0.040445384 0.6215595 -0.014781945
0.14172466 1.2222617 0.5014701 0.18525939 -0.11017544 -0.38476744 0.43284288 0.25543338
-0.06759016 0.36090067 -0.22048964 -0.13926928 0.0779458 0.026683401 0.3274809 -0.4023953
0.29205835 -0.39625886 -0.051760275 -0.14796296 -0.2839767 0.49459863 0.22814684 0.14403686
-0.012599186 0.007943382 0.112148434 0.19436914 -0.1727056 -0.08865153 -0.007989793 -0.09034141
0.18119775 0.4106339 0.19944526 -0.3779413 -0.26212978 0.20129162 0.23009078 -0.12083823
0.23232846 -0.75366014 0.62863743 -0.08399092 -0.63868755 -0.27803192 0.031846702 0.08713254
0.1647349 0.13588245 -0.47130615 0.43270966 0.48407218 0.805491 -0.03118414 0.48914447
-0.023145908 -0.09424136 0.23028718 -0.22339271 -0.13946627 -0.10444234 0.6609534 0.023287091
0.38699558 -0.5116777 -0.081354536 0.168441 0.60326135 -0.33418372 -0.33208343 0.5873911
00000000: ad49 55be a0d4 ab3e d9d3 0c3e d104 49be
00000010: 202e 47be 217d 09be 80e3 01bf 1b00 14bf
00000020: 8500 c83c a1fe 89be 2cf7 50be b3df f13d
00000030: 99ee cebe f1b3 773e 92b2 cdbe 25ef 96be
00000040: d985 a53e f266 903d 5ca4 073c 755d 563e
00000050: 49ef b1be 7e68 843e 8e96 5fbd 1492 b73d
00000060: 4368 aebd b21a d2bd 2f4c 3d3e 7fe3 e43e
00000070: 83e9 17be 725e 1abf f996 8e3f 810d 223f
00000080: 126b 9b3e 4e54 d23e fca2 263e 17a5 e83d
00000090: 05b6 6f3e 1fbc 973e 4b86 ab3e 0300 35be
000000a0: 6c1a 8abe d9e5 d1be 9825 c23e 5c18 0d3e
000000b0: 82a3 c2be 2ffa e83e f8ad 5d3e 69f1 1ebd
000000c0: e932 a1be 0a4a 4cbd 7f4a 343e 72fc 5abe
000000d0: 8146 933d 6e9f 8abe 7592 843d 702d 833e
000000e0: 611e a3bc faa4 0fbe 1a19 b43e dcef 18be
000000f0: 7890 933c b331 f63e 773e 283e af60 e73e
00000100: 8e56 70be a3c9 c83e d798 e0be e81b d6bd
00000110: 9b7b 9cbe 4633 a9bd b30b a63e c66b 633d
00000120: 4a33 42be e583 723c afb3 553d 5a33 e43d
00000130: a888 873e 6b43 403f 2eae fbbe e858 2d3f
00000140: 8974 223e 1759 803e a60a 583e 9093 2a3e
00000150: 0ac0 56be c213 a73e 5b71 2cbe 6d33 86bd
00000160: e55e 8e3d b981 a73e 92e7 51bd 7265 d5bd
00000170: 2f33 933f f259 95be 4229 2cbe 63fa 333e
00000180: 8552 c03e c668 18bf 8cd0 013f f491 bd3e
00000190: 799b 03be 095d fe37 4ce4 e03e 60e8 0bbf
000001a0: 7f17 3cbe 24c7 d23d 2238 d03d 0368 993e
000001b0: 9a95 623f 3a4d 83be ffe2 bb3e 531e 2b3e
000001c0: 8031 363e b59e 70bd f06d 9dbd 64a6 b73d
000001d0: 048d aebe bf20 73be 8ceb 41be 19e4 283e
000001e0: b9a9 823d e2f0 56be 8f78 0d3c 1898 a8be
000001f0: b61b c0be 84be 353e 8d50 8e3e d4e3 fc3d
00000200: 86b8 26bf 7ca9 183e f1a2 e83e eb3e 19bf
00000210: 4341 5abf 17f7 d8be 8c99 753e c859 8ebe
00000220: 755b 0e3f 5562 653f 3757 dbbe 8b15 6a3d
00000230: 6c97 293e 85ab cd3d e4f7 5dbe 9dd0 a83e
00000240: 39dc 5e3f a83c b73e a1f5 63be b447 333f
00000250: d52f e8be 848d ed3e a776 04bd 3d35 dcbe
00000260: 3a1a 603f 1585 ec3e e78c 55be 57b6 4abd
00000270: 6f98 c83e d81f a9be a103 00be 8f39 0ebd
00000280: 384d f3bd e0e5 b1be b012 3d3e 6699 9ebd
00000290: a93c 7ebf 336e 3a3a 73ab 453d 2e4e 23bf
000002a0: 51e5 913d d023 7f3f 9e4f 92bd 606c 7b3d
000002b0: 3a13 2fbe 0296 fd3e bdde d43d e4ee be3f
000002c0: 8b0c 523e 3387 0e3e accb 773e 868b 7fbd
000002d0: 94d4 d2be 0faa 253d 861e 1f3f f92f 72bc
000002e0: 4520 113e 1273 9c3f 5860 003f a3b4 3d3e
000002f0: a9a3 e1bd 3d00 c5be 959d dd3e 2ac8 823e
00000300: b66c 8abd f9c7 b83e 09c8 61be 9b9c 0ebe
00000310: 0ca2 9f3d 2697 da3c 94ab a73e c206 cebe
00000320: ac88 953e 71e2 cabe 9502 54bd 9a83 17be
00000330: 6565 91be 083c fd3e 539f 693e 667e 133e
00000340: d16c 4ebc f524 023c 14ae e53d b408 473e
00000350: bdd9 30be ef8e b5bd 9fe7 02bc eb04 b9bd
00000360: e78b 393e 9b3e d23e 613b 4c3e 8681 c1be
00000370: e035 86be 641f 4e3e eb9c 6b3e 097a f7bd
00000380: 83e7 6d3e dfef 40bf 62ee 203f 6e03 acbd
00000390: 0781 23bf 335a 8ebe b071 023d 8c72 b23d
000003a0: 44b0 283e c524 0b3e 0a4f f1be 1f8c dd3e
000003b0: 4fd8 f73e a834 4e3f e275 ffbc 2571 fa3e
000003c0: 7d9c bdbc 9d01 c1bd 67d0 6b3e 0fc1 64be
000003d0: 3fd0 0ebe dee5 d5bd 3e34 293f 92c4 be3c
000003e0: 4924 c63e 4ffd 02bf 359d a6bd cc7b 2c3e
000003f0: 566f 1a3f 211a abbe d706 aabe 435f 163f

lstm.bias_ih_l0 f4 [128]
0.5664223 -0.19476105 -0.15924075 0.24761376 -0.14014687 0.18791234 0.015939768 -0.24343653
0.6716422 0.018767266 0.6694739 0.21196285 -0.10555635 0.02408575 -0.030911533 -0.20958413
0.43253675 0.17098345 -0.2005545 0.4513592 0.5585102 -0.113907896 0.24611615 0.22056597
0.039478507 0.21348697 0.16756617 -0.16604124 -0.27661434 0.1605071 0.109747544 -0.0041819895
0.3163255 0.25524497 -0.120119564 0.4670826 0.21868293 0.11333797 0.004684845 -0.21661653
0.3321647 -0.080450475 0.12731767 0.22776309 0.23423128 -0.057118665 0.3383928 -0.06776821
0.11436517 0.3168665 -0.12828268 0.18846916 0.07531926 0.13187635 0.006803514 0.34035614
-0.14909108 -0.22645423 -0.09813106 -0.0790513 0.26653057 0.007179679 -0.15080017 -0.19960205
0.03349876 0.1989339 -0.016956951 -0.17013097 -0.0101035405 0.09139269 -0.037371363 0.3449018
-0.1482064 0.057647422 -0.36697134 -0.07369601 -0.019638194 -0.38670957 -0.018578999 -0.1743881
0.11816343 0.22318265 0.15971176 0.019371955 -0.10809777 0.13172124 -0.29344144 -0.16403136
0.12028843 -0.018365646 -0.004068393 0.056672677 0.1035904 -0.11891317 -0.1804407 -0.19938602
0.47972426 0.38312548 -0.044343382 0.232929 0.08984874 0.07128902 -0.013528068 -0.13555084
-0.05032943 -0.16504204 -0.26030007 0.15709612 0.6772463 -0.04982257 -0.07017011 -0.24726756
-0.0010660569 0.27152768 0.16997333 -0.12940523 -0.053026516 -0.046670943 0.35168633 0.111003004
-0.055089124 0.2157173 0.019822882 -0.18645471 0.27386585 0.13836677 -0.07832784 0.03553393
00000000: 0d01 113f 716f 47be 0210 23be 768e 7d3e
00000010: a982 0fbe 186c 403e 1e94 823c 6d47 79be
00000020: bef0 2b3f cfbd 993c a462 2b3f ca0c 593e
00000030: ed2d d8bd 7b4f c53c 2f3a fdbc 399d 56be
00000040: 7575 dd3e 4916 2f3e 295e 4dbe 8e18 e73e
00000050: 86fa 0e3f 8b48 e9bd df05 7c3e 0cdc 613e
00000060: 37b4 213d 549c 5a3e 7796 2b3e b706 2abe
00000070: 65a0 8dbe f95b 243e 52c3 e03d 1209 89bb
00000080: 6af5 a13e 78af 823e 3f01 f6bd 7325 ef3e
00000090: 6bee 5f3e bd1d e83d 5483 993b b9d0 5dbe
000000a0: 7e11 aa3e 38c3 a4bd 905f 023e ba3a 693e
000000b0: 53da 6f3e 43f5 69bd d241 ad3e 0fca 8abd
000000c0: 4938 ea3d 533c a23e 895c 03be 0ffe 403e
000000d0: fc40 9a3d 980a 073e 03f0 de3b 2943 ae3e
000000e0: 55ab 18be 9ee3 67be f0f8 c8bd a6e5 a1bd
000000f0: b276 883e 8343 eb3b 5c6b 1abe 7b64 4cbe
00000100: ff35 093d 54b5 4b3e 4ee9 8abc d036 2ebe
00000110: 5289 25bc 172c bb3d b712 19bd f896 b03e
00000120: 6bc3 17be b41f 6c3d abe3 bbbe efed 96bd
00000130: 47e0 a0bc ccfe c5be fc32 98bc cb92 32be
00000140: abff f13d fe89 643e 7b8b 233e efb1 9e3c
00000150: 5d62 ddbd efe1 063e f53d 96be d6f7 27be
00000160: c859 f63d 8d73 96bc 2750 85bb 9c21 683d
00000170: 3427 d43d c088 f3bd 72c5 38be d92b 4cbe
00000180: 6b9e f53e 0629 c43e 68a1 35bd f184 6e3e
00000190: 9e02 b83d faff 913d d4a4 5dbc d7cd 0abe
000001a0: 3b26 4ebd c800 29be 0d46 85be cedd 203e
000001b0: 0360 2d3f c012 4cbd 59b5 8fbd b533 7dbe
000001c0: efba 8bba ad05 8b3e 7d0d 2e3e ce82 04be
000001d0: 5532 59bd 082a 3fbd 3b10 b43e 8b55 e33d
000001e0: 22a5 61bd ffe4 5c3e 9963 a23c fced 3ebe
000001f0: 2538 8c3e 05b0 0d3e 596a a0bd 078c 113d

lstm.bias_hh_l0 f4 [128]
0.6526052 -0.089696765 -0.1500892 0.24151206 -0.15390863 0.079840176 0.14250955 -0.25766087
0.6712658 -0.3114601 0.50281215 0.030767944 -0.38513255 -0.10030284 -0.019885229 -0.1784079
0.32764518 0.38873664 -0.07338994 0.20691061 0.46087784 -0.104759775 0.18463078 0.24416457
-0.124929406 0.12957665 0.23666854 -0.11379594 -0.16655652 0.0017145196 -0.06751589 0.057775468
0.14107715 0.3214029 -0.008309709 0.4742277 0.17008995 0.15833035 -0.072571754 0.012871388
0.5531691 0.040027194 0.25627434 0.2195555 0.52252513 -0.0059255026 0.056550704 -0.21420373
0.03848605 0.40842944 0.19317846 0.069925144 -0.0244607 0.041683227 0.0070313937 0.4314136
-0.03305446 -0.21287024 0.24013585 0.22378989 0.22613603 0.048895907 -0.031319566 -0.23395287
0.08088935 0.042333078 -0.16891348 -0.14864819 -0.060114235 0.070064306 -0.059984926 0.10718131
0.15487742 -0.0735013 -0.2917542 -0.09495773 -0.10040642 -0.36610126 0.1671738 -0.43643123
0.083729565 0.2855627 0.19283727 -0.13070492 0.011417101 -0.10810595 -0.14124312 -0.015646802
0.0567998 -0.018491527 -0.09096267 0.18577479 -0.16506673 0.03522548 -0.1292927 -0.21353766
0.49319857 0.23480934 0.022477023 0.23933005 -0.040840268 0.36203957 0.0036648922 0.021178775
-0.10530655 -0.22693962 -0.16715206 0.1983489 0.71392995 0.026887495 0.13209559 -0.043897774
-0.06991379 0.36948395 -0.005218564 -0.0906819 0.21162695 -0.019142801 0.025062345 0.1528864
-0.104005136 0.047002554 -0.03032727 -0.18366948 0.25228405 -0.11617775 -0.060734518 0.045435313
00000000: 2211 273f f0b2 b7bd fcb0 19be f04e 773e
00000010: 399a 1dbe 3f83 a33d 06ee 113e 20ec 83be
00000020: 13d8 2b3f b377 9fbe 4cb8 003f 0e0d fc3c
00000030: 1830 c5be 936b cdbd 59e6 a2bc 8fb0 36be
00000040: 1cc1 a73e 7d08 c73e 774d 96bd 60e0 533e
00000050: 2ef8 eb3e 4b8c d6bd da0f 3d3e 4706 7a3e
00000060: fdda ffbd beaf 043e 3d59 723e d90d e9bd
00000070: cb8d 2abe bbb9 e03a c545 8abd f8a5 6c3d
00000080: 8776 103e ec8e a43e 7225 08bc f9cd f23e
00000090: 0f2c 2e3e 5a21 223e 80a0 94bd 84e2 523c
000000a0: 7d9c 0d3f 8ef3 233d 6436 833e 28d3 603e
000000b0: 35c4 053f b82a c2bb b6a1 673d 3958 5bbe
000000c0: 8ca3 1d3d aa1d d13e 93d0 453e ea34 8f3d
000000d0: ce61 c8bc 08bc 2a3d 9b67 e63b 3ee2 dc3e
000000e0: 1d64 07bd a8fa 59be 2ce6 753e 2d29 653e
000000f0: 3490 673e 1347 483d f248 00bd 5791 6fbe
00000100: 51a9 a53d 7365 2d3d a8f7 2cbe 3b37 18be
00000110: 583a 76bd e07d 8f3d c1b2 75bd e081 db3d
00000120: 3098 1e3e d987 96bd ce60 95be 3379 c2bd
00000130: e2a1 cdbd a071 bbbe 9c2f 2b3e ea73 dfbe
00000140: 687a ab3d 4635 923e 2277 453e 83d7 05be
00000150: cb0e 3b3c a766 ddbd 09a2 10be b92d 80bc
00000160: e8a6 683d 8b7b 97bc a34a babd bf3b 3e3e
00000170: 4107 29be 9848 103d 4e65 04be 9ea9 5abe
00000180: 8684 fc3e dc71 703e bc21 b83c f012 753e
00000190: 2048 27bd 405d b93e b02e 703b 1c7f ad3c
000001a0: f6aa d7bd dc62 68be e929 2bbe f91b 4b3e
000001b0: 1dc4 363f 2a43 dc3c 1144 073e 27ce 33bd
000001c0: f62e 8fbd 002d bd3e 7d00 abbb 6fb7 b9bd
000001d0: bcb4 583e 5dd1 9cbc 8c4f cd3c 418e 1c3e
000001e0: a500 d5bd c085 403d e570 f8bc da13 3cbe
000001f0: 602b 813e 9aee edbd c2c4 78bd 611a 3a3d

dense_layers.0.weight f4 [32, 32]
-0.5619946 0.004586209 0.24423291 -0.1700434 -0.36869138 -0.36236733 -0.054338865 -0.11373937
0.29376382 0.53648144 -0.85148865 -0.4843805 0.23223327 0.44665444 -0.121878445 0.17127654
0.31067947 0.3387044 -0.8084505 0.32488152 -0.1388932 0.39439207 0.4251028 -0.4518346
0.37942833 -0.3266739 0.04380735 0.3886704 0.22325069 -0.28647265 0.8136734 0.41449007
-0.508813 0.052172404 0.36929685 -0.2146307 -0.28288195 -0.35394663 -0.2757326 -0.17058644
0.22144082 0.5087592 -0.5601073 -0.8323869 0.08287738 0.31124613 -0.3833705 0.2892404
0.15308978 0.27532533 -0.7484697 0.23374608 -0.38701764 0.19495341 0.6369117 -0.21600023
0.4452175 -0.2979994 0.21345305 0.292024 0.099253796 -0.29874438 0.50985295 0.34652075
-0.4393306 -0.1015047 0.09451973 -0.3692811 -0.2564807 -0.40776706 -0.17006285 -0.29869756
0.4200532 0.44324875 -0.8522012 -0.7554466 0.11090236 0.39258054 -0.057431683 0.07754183
0.339901 0.21838982 -0.6143107 0.19831564 -0.3721639 0.2657414 0.5393258 -0.124672845
0.19003493 -0.4576995 0.1329267 0.23281233 0.21215884 -0.41723624 0.69451535 0.11787215
-0.44363865 0.06424881 0.19533682 -0.3989401 -0.34583092 -0.22215316 -0.11062348 -0.07517928
0.34332612 0.26140514 -0.7565279 -0.5112907 0.13844077 0.27233884 -0.13341053 0.0477025
0.28939506 0.25582105 -0.55245674 0.26864412 -0.3677279 0.15649283 0.5699619 -0.32273337
0.44773093 -0.45622447 0.10736315 0.19952184 0.11734653 -0.21766333 0.7635517 0.31042594
-0.02204417 0.32791764 0.1577154 0.14401066 0.20738123 0.055704676 0.7280561 -0.13858113
-0.13823561 0.40245128 -0.32084033 0.2688075 0.12951028 -0.08822227 -0.07617007 -0.30126464
-0.02533623 -0.08416012 -0.19599198 -0.13056463 -0.108017504 -0.11382365 0.19366597 0.3091332
-0.20474268 0.89938337 -0.0131074535 -0.7282101 -0.12611966 0.47227055 0.068048574 0.025036342
-0.30475557 -0.024237344 0.18963933 -0.15618584 -0.21195723 -0.14863078 -0.18938224 0.0013807346
0.34645215 0.48628905 -0.73411053 -0.6435813 0.067769736 0.18061124 -0.10347617 0.23970333
0.27853507 0.22911763 -0.49850276 0.21964526 -0.33964562 0.116047986 0.55250746 -0.2779309
0.2605012 -0.56471187 0.21098672 0.09927521 0.120800644 -0.1809578 0.7373912 0.44165963
-0.2959974 -0.0048500267 0.35514316 -0.14792849 -0.09012659 -0.280062 -0.05473287 -0.1369346
0.4214181 0.4666099 -0.863017 -0.7213874 0.045425173 0.29358703 -0.23139873 0.034574956
0.08538906 0.21412055 -0.5057028 0.2505508 -0.23388167 0.31415036 0.45591256 -0.34664795
0.25654766 -0.523706 -0.0015398415 0.04056405 0.121446095 -0.21638596 0.7369823 0.2889271
-0.29380783 0.025219167 0.1293412 -0.39330056 -0.24230155 -0.5100765 -0.10489347 -0.11497554
0.20849973 0.37537566 -0.8721253 -0.50849843 0.2913631 0.30017105 -0.09323586 0.045189016
0.44380164 0.30275252 -0.578019 0.36983064 -0.17286582 0.36016434 0.44215557 -0.29349002
0.52915466 -0.45504493 0.12714764 0.26181042 0.13414063 -0.4054515 0.6735437 0.48217142
00000000: e1de 0fbf e947 963b 3118 7a3e db1f 2ebe
00000010: 1ec5 bcbe 3688 b9be 6e92 5ebd 30f0 e8bd
00000020: 3668 963e d956 093f 29fb 59bf b900 f8be
00000030: 8fce 6d3e e4af e43e 689b f9bd 1e63 2f3e
00000040: 6111 9f3e aa6a ad3e 9df6 4ebf df56 a63e
00000050: 053a 0ebe c2ed c93e 13a7 d93e dd56 e7be
00000060: 6e44 c23e cd41 a7be 566f 333d cfff c63e
00000070: d49b 643e 8bac 92be e64c 503f 0b38 d43e
00000080: 9241 02bf bbb2 553d 7a14 bd3e 26c8 5bbe
00000090: e7d5 90be 7e38 b5be d32c 8dbe 36ae 2ebe
000000a0: 62c1 623e 0b3e 023f 3163 0fbf 4f17 55bf
000000b0: 9ebb a93d a75b 9f3e 2349 c4be 5117 943e
000000c0: 91c3 1c3e 71f7 8c3e b69b 3fbf 225b 6f3e
000000d0: 2d27 c6be dea1 473e a50c 233f 2a2f 5dbe
000000e0: 8cf3 e33e 6193 98be 7093 5a3e 2b84 953e
000000f0: 9345 cb3d 06f5 98be b985 023f 2b6b b13e
00000100: f1ef e0be b2e1 cfbd 8f93 c13d 6a12 bdbe
00000110: 7051 83be d8c6 d0be f524 2ebe e3ee 98be
00000120: 3711 d73e 80f1 e23e dc29 5abf f364 41bf
00000130: c720 e33d 5100 c93e 7c3d 6bbd 40ce 9e3d
00000140: 8107 ae3e 95a1 5f3e 7743 1dbf 4113 4b3e
00000150: 448c bebe 420f 883e 4111 0a3f 7a54 ffbd
00000160: 8498 423e 9757 eabe f01d 083e 5b66 6e3e
00000170: 2b40 593e fd9f d5be c2cb 313f f466 f13d
00000180: 9b24 e3be e194 833d 6006 483e e041 ccbe
00000190: c010 b1be 1e7c 63be 908e e2bd 98f7 99bd
000001a0: 71c8 af3e e5d6 853e d0ab 41bf f3e3 02bf
000001b0: 6bc3 0d3e ff6f 8b3e c59c 08be b263 433d
000001c0: 972b 943e fafa 823e ce6d 0dbf b98b 893e
000001d0: d546 bcbe a83f 203e 06e9 113f 4f3d a5be
000001e0: fd3c e53e 4196 e9be 36e1 db3d 744f 4c3e
000001f0: 6153 f03d 23e3 5ebe 2078 433f 26f0 9e3e
00000200: fa95 b4bc d2e4 a73e 2580 213e 8877 133e
00000210: bf5b 543e 962a 643d e261 3a3f 36e8 0dbe
00000220: a38d 0dbe 180e ce3e 2f45 a4be 23a1 893e
00000230: 589e 043e e1ad b4bd 0eff 9bbd 5c3f 9abe
00000240: ed8d cfbc 245c acbd 1fb2 48be bcb2 05be
00000250: 4838 ddbd 601c e9bd 5f50 463e b546 9e3e
00000260: 11a8 51be fd3d 663f a5c0 56bc fa6b 3abf
00000270: 8325 01be 72cd f13e 0d5d 8b3d 0419 cd3c
00000280: ec08 9cbe 658d c6bc d030 423e 2eef 1fbe
00000290: 510b 59be ab32 18be 6bed 41be c4f9 b43a
000002a0: 2d62 b13e e1fa f83e abee 3bbf bec1 24bf
000002b0: dcca 8a3d 27f2 383e 50eb d3bd ca74 753e
000002c0: 269c 8e3e d09d 6a3e c13b ffbe b0ea 603e
000002d0: 08e6 adbe 91aa ed3d 2171 0d3f f54c 8ebe
000002e0: 6a60 853e f590 10bf e70c 583e cd50 cb3d
000002f0: 5466 f73d 004d 39be abc5 3c3f 3621 e23e
00000300: f98c 97be f9ec 9ebb 53d5 b53e 917a 17be
00000310: 4a94 b8bd 4964 8fbe 932f 60bd 9538 0cbe
00000320: 1dc4 d73e 7ee7 ee3e afee 5cbf d8ac 38bf
00000330: bf0f 3a3d 0a51 963e caf3 6cbe 789e 0d3d
00000340: 76e0 ae3d 6b42 5b3e bd75 01bf 3248 803e
00000350: ad7e 6fbe 51d8 a03e 5f6d e93e d77b b1be
00000360: 375a 833e 9911 06bf 82d4 c9ba 7d26 263d
00000370: bbb8 f83d 4894 5dbe dfaa 3c3f 41ee 933e
00000380: fb6d 96be 6d98 ce3c 0572 043e b15e c9be
00000390: e61d 78be 6094 02bf 63d2 d6bd 4c78 ebbd
000003a0: f480 553e 3d31 c03e 9b43 5fbf f42c 02bf
000003b0: 8b2d 953e 05b0 993e 71f2 bebd 1e18 393d
000003c0: f839 e33e 6102 9b3e 0ef9 13bf 715a bd3e
000003d0: bd03 31be 7667 b83e 3762 e23e 5344 96be
000003e0: ae76 073f a6fb e8be fe32 023e 040c 863e
000003f0: 295c 093e 5797 cfbe 5c6d 2c3f 2cdf f63e

dense_layers.0.bias f4 [32]
0.09337473 0.2410122 0.009059054 0.30496457 -0.17243466 0.17042796 0.08019793 0.23774144
0.06866197 0.13805719 0.09544286 0.21677683 0.24399672 0.10553492 0.3530325 0.24504285
0.16645543 0.2161353 0.13931943 0.15076527 0.17570816 0.26595008 0.07376617 0.06935367
0.33961904 0.17398693 0.21392654 0.27305508 0.13248065 0.27263442 -0.08726696 0.2140025
00000000: 403b bf3d e7cb 763e 6d6c 143c 5124 9c3e
00000010: b692 30be ab84 2e3e d03e a43d 7e72 733e
00000020: a69e 8c3d dd5e 0d3e 8c77 c33d bffa 5d3e
00000030: 47da 793e b122 d83d adc0 b43e 83ec 7a3e
00000040: 4b73 2a3e 9252 5d3e c1a9 0e3e 3662 1a3e
00000050: d7ec 333e 9c2a 883e b812 973d 4c09 8e3d
00000060: 8ce2 ad3e a129 323e 8f0f 5b3e e0cd 8b3e
00000070: 02a9 073e bd96 8b3e 05b9 b2bd 7923 5b3e

dense_layers.2.weight f4 [16, 32]
-0.24970564 -0.010472964 -0.24292293 0.075286634 0.46673036 -0.06300605 -0.06365784 0.006080049
0.15246455 -0.057010636 0.20873162 0.009056133 -0.10294142 -0.1461928 -0.19224031 -0.019068796
-0.11441201 -0.040547814 -0.11567586 -0.23579434 -0.17987737 -0.28169933 -0.06843751 -0.119061776
0.038846806 -0.051457807 -0.1886396 -0.09049123 -0.23725079 0.18657494 0.16073535 -0.083356455
0.32715082 0.37902138 0.25663054 0.39215788 0.2052277 0.26483467 0.41548228 0.15603752
0.18893605 0.30399662 0.2698347 0.31981054 0.4250165 0.17511198 0.3963017 0.34671137
0.43224227 0.38843423 0.23513351 0.2852106 0.18352976 0.34387922 0.45964345 0.36405292
0.44345802 0.39185897 0.3496239 0.2558977 0.14694378 0.24545413 0.30426657 0.44720876
0.26066166 0.44498837 0.46176818 0.16138253 -0.055585194 0.20567329 0.28721654 0.3860738
0.36603394 0.4363972 0.2080896 0.38212994 0.344087 0.18390533 0.17932385 0.37369636
0.45654562 0.18335879 0.301278 0.14948258 0.4229637 0.36354128 0.28263995 0.40347958
0.38034058 0.44690526 0.33976358 0.30233562 0.39105988 0.34480727 0.009422155 0.232047
-0.03003542 -0.18049207 0.025289081 -0.053538445 0.70850754 -0.08365419 0.14294866 -0.14970843
0.07515762 -0.03812364 0.1651896 0.26270577 0.026674371 -0.13107812 -0.12171675 -0.025280675
-0.21304137 -0.06653553 0.05824327 -0.27238205 -0.122920856 -0.115046956 -0.26565897 0.11445368
-0.11422689 -0.3006783 -0.19547518 -0.025385069 0.05197887 0.0137713915 0.47700414 -0.13939925
0.17838964 0.251948 0.20073415 0.37200636 0.2511919 0.14523038 0.1767405 0.41636932
0.2548431 0.48571512 0.4570555 0.14924566 0.4084443 0.13969529 0.38183674 0.21055537
0.29139584 0.47278637 0.30487567 0.22213453 0.38952038 0.28323442 0.48664033 0.17791629
0.27757066 0.17985061 0.22220221 0.25082615 0.19012192 0.16638593 0.12834074 0.19967894
-0.24808495 -0.08045911 -0.25810087 0.07023984 0.633137 0.17403057 0.061628338 -0.09304915
-0.08897962 -0.2211863 0.20532644 0.29381454 0.046478614 -0.10453672 -0.18465202 -0.025337297
0.06325026 -0.11255555 0.11967675 0.010609629 -0.05511914 -0.17216596 -0.19864793 -0.058408454
-0.1419066 -0.17760828 -0.3096941 -0.18357475 -0.13987152 0.19599426 0.37519136 -0.22648
-0.26321763 -0.19313997 0.059427448 0.019527426 0.6575128 -0.12997672 0.17112127 0.07298765
-0.028344171 -0.21005347 0.16593613 0.09090576 -0.15068506 0.009024937 -0.20452243 -0.021682948
-0.09224142 -0.07609348 -0.023929747 -0.057819393 -0.21364155 -0.050918624 -0.28500253 0.069732085
-0.2577405 0.036343955 -0.07037349 -0.004100726 -0.0327565 0.09661918 0.2134781 -0.23364638
0.4188194 0.39926812 0.27600643 0.31341887 0.103482045 0.24587451 0.41799918 0.20439146
0.11911288 0.28762802 0.1839975 0.13964446 0.24554396 0.29502362 0.4186697 0.4027897
0.42833766 0.42539197 0.32576805 0.30812192 0.29452047 0.16969973 0.33716306 0.26090318
0.25085413 0.4688453 0.39572302 0.40410113 0.41286027 0.17537831 0.20554933 0.27034712
00000000: d6b2 7fbe cb96 2bbc cac0 78be e12f 9a3d
00000010: 48f7 ee3e 5109 81bd 0b5f 82bd 263b c73b
00000020: ab1f 1c3e fc83 69bd bebd 553e 2d60 143c
00000030: f4d2 d2bd 91b3 15be a5da 44be 2a36 9cbc
00000040: d850 eabd 7715 26bd 77e7 ecbd 1274 71be
00000050: c631 38be e53a 90be f728 8cbd a9d6 f3bd
00000060: d41d 1f3d 6cc5 52bd bd2a 41be 7753 b9bd
00000070: dff1 72be 800d 3f3e cf97 243e cab6 aabd
00000080: 5080 a73e 170f c23e 1465 833e ebc8 c83e
00000090: 3627 523e 6998 873e 18ba d43e 4dc8 1f3e
000000a0: 7478 413e 72a5 9b3e c627 8a3e 35be a33e
000000b0: c39b d93e 8e50 333e 0ee8 ca3e 2784 b13e
000000c0: dc4e dd3e dae0 c63e d7c6 703e 2007 923e
000000d0: 3aef 3b3e f010 b03e 6356 eb3e 2565 ba3e
000000e0: ee0c e33e bda1 c83e e701 b33e 0605 833e
000000f0: 6e78 163e 5458 7b3e d4c8 9b3e 8cf8 e43e
00000100: 7275 853e 84d5 e33e e16c ec3e 7641 253e
00000110: 4dad 63bd 059c 523e 0c0e 933e 77ab c53e
00000120: cd68 bb3e 746f df3e 7115 553e 89a6 c33e
00000130: 2c2c b03e ae51 3c3e aca0 373e 2155 bf3e
00000140: 59c0 e93e 68c2 3b3e 1c41 9a3e f611 193e
00000150: b38e d83e 1522 ba3e 2fb6 903e e094 ce3e
00000160: 00bc c23e c4d0 e43e 7ef5 ad3e bccb 9a3e
00000170: 0039 c83e 948a b03e 625f 1a3c bb9d 6d3e
00000180: d70c f6bc ead2 38be 0c2b cf3c 214b 5bbd
00000190: c060 353f e352 abbd 2261 123e 2b4d 19be
000001a0: 3dec 993d 8927 1cbd 7627 293e 5f81 863e
000001b0: 3684 da3c 5839 06be a246 f9bd 6b19 cfbc
000001c0: 8427 5abe c843 88bd 7f90 6e3d a975 8bbe
000001d0: eebd fbbd bd9d ebbd 7404 88be b166 ea3d
000001e0: caef e9bd 82f2 99be a52a 48be 59f4 cfbc
000001f0: cce7 543d 67a1 613c e339 f43e adbe 0ebe
00000200: c6ab 363e 54ff 803e 418d 4d3e 9e77 be3e
00000210: 3a9c 803e 46b7 143e 76fb 343e 5c2e d53e
00000220: cb7a 823e a7af f83e 2e03 ea3e dbd3 183e
00000230: 9c1f d13e 480c 0f3e 1b80 c33e d49b 573e
00000240: d631 953e 0e11 f23e aa18 9c3e 3c77 633e
00000250: 376f c73e 1a04 913e ec28 f93e b02f 363e
00000260: be1d 8e3e c22a 383e fa88 633e 496c 803e
00000270: 52af 423e 1361 2a3e c16b 033e a378 4c3e
00000280: fb09 7ebe bfc7 a4bd cc25 84be e8d9 8f3d
00000290: 4415 223f 1235 323e ff6d 7c3d 8e90 bebd
000002a0: f23a b6bd a97e 62be 1841 523e dc6e 963e
000002b0: 5c60 3e3d 5917 d6bd 6b15 3dbe 2a90 cfbc
000002c0: 5a89 813d 8683 e6bd 1519 f53d 02d4 2d3c
000002d0: 9bc4 61bd 464c 30be 5d6a 4bbe b43d 6fbd
000002e0: f74f 11be f2de 35be 3a90 9ebe 05fb 3bbe
000002f0: 7b3a 0fbe b8b2 483e 1519 c03e 60ea 67be
00000300: 76c4 86be 7cc6 45be 326a 733d fbf7 9f3c
00000310: c252 283f 9e18 05be 6a3a 2f3e 8d7a 953d
00000320: 0932 e8bc 4218 57be 29eb 293e cd2c ba3d
00000330: 2f4d 1abe 54dd 133c 546e 51be 70a0 b1bc
00000340: 12e9 bcbd e6d6 9bbd 5108 c4bc 07d4 6cbd
00000350: dac4 5abe 0c90 50bd daeb 91be b2cf 8e3d
00000360: 90f6 83be 66dd 143d fa1f 90bd 625f 86bb
00000370: ae2b 06bd 47e0 c53d 019a 5a3e ff40 6fbe
00000380: 7f6f d63e df6c cc3e b750 8d3e 7078 a03e
00000390: 65ee d33d 87c6 7b3e fd03 d63e ff4b 513e
000003a0: 74f1 f33d fb43 933e d769 3c3e f5fe 0e3e
000003b0: e06f 7b3e 560d 973e e05b d63e 743a ce3e
000003c0: 134f db3e facc d93e 12cb a63e 28c2 9d3e
000003d0: 63cb 963e c4c5 2d3e a3a0 ac3e 1a95 853e
000003e0: f46f 803e 7e0c f03e 359c ca3e 58e6 ce3e
000003f0: 6c62 d33e 5f96 333e 867b 523e f06a 8a3e

dense_layers.2.bias f4 [16]
0.7258174 0.036689505 0.29588154 0.66132647 0.03927731 0.7597535 0.6060877 0.28968152
0.12149193 0.7621889 0.17952783 0.011164377 0.78721535 0.02687914 0.07203129 -0.07196787
00000000: 2bcf 393f bc47 163d c97d 973e b14c 293f
00000010: 3fe1 203d 357f 423f 9028 1b3f 2351 943e
00000020: c3d0 f83d d01e 433f 25d6 373e cbea 363c
00000030: f286 493f a431 dc3c 2485 933d e463 93bd

dense_layers.4.weight f4 [1, 16]
-0.80998844 0.38340983 0.46351817 -0.86490774 0.4178184 -0.8283986 -0.83805627 0.37194148
0.28080186 -0.70387506 0.510995 0.30551487 -0.8459349 0.40364656 0.30594048 0.15137309
00000000: 675b 4fbf 4b4e c43e 4152 ed3e 986a 5dbf
00000010: 4bec d53e ee11 54bf db8a 56bf 1d6f be3e
00000020: 43c5 8f3e 2831 34bf 91d0 023f 726c 9c3e
00000030: 318f 58bf c3aa ce3e 3ba4 9c3e 8c01 1b3e
