BNN/model_state_FD001_test.pt (torch, 29135 bytes, 7 tensors)

lstm.weight_ih_l0 f4 [128, 14]
00000000: defc 933d 7ea1 aabc f5d3 2fbe f90b 9b3e
00000010: 69bf 57bd 0c1c 283e bf76 55be 0f72 7d3e
00000020: bb79 bfba 4ef8 71bc f908 383e 53c5 9abe
00000030: c781 583e 679a 813e 0ce8 84bc e996 cc3d
00000040: 47d7 7dbd dbed 453e 33df 0dbe c85c ca3e
00000050: c4dc 8cbc ef7d 04be 4494 113e c31c 073f
00000060: be63 5bbe d82d 42be 435f 5dbe f7f4 58be
00000070: 2166 3b3f 517c 98be f14e 48be a33b 913c
00000080: ca4a bbbd 6906 a6be 375a 3c3c 44d0 343f
00000090: 6ef1 203f f909 1b3f 5a0e 333e 682b 183f
000000a0: a3fc bbbe 2d6a 47be 9bbe 823e 926d be3e
000000b0: e3a6 ad3e 43ef dbbd da15 ab3e c7ac 243e
000000c0: 1e33 883e 037b c4be 92ee fa3d fc27 013e
000000d0: b6e0 7c3c 8ac4 683e c9a6 d4bd a31d d2bd
000000e0: 28b2 2c3e a594 943d 46ba 9b3e 6219 72bd
000000f0: 446f 213e 85c0 06be 4cb1 e53d 2d0f 4dbe
00000100: bdf5 5f3e 0741 6dbb f8cf 4c3e 105c abbd
00000110: 34e6 f2bd 2473 01be a6bf 1b3d 2cb5 f3bb
00000120: af88 543d 467f 023e 3cff 73be 557a 973e
00000130: 7879 09be c784 083e cc73 b23d 7f17 e43e
00000140: b7f8 63be 8a04 8ebe 774a 013e 00a4 82bd
00000150: 2864 2b3e 6a69 1f3e c09e 0bbb aad6 bb3d
00000160: dd49 913c 7048 733e fa77 9a3d f068 ac3c
00000170: 970d 8d3e b993 353d c074 b4be 1dfb c0be
00000180: da60 0f3e 35d4 9dbd 71b6 813d efee 19be
00000190: c51e 58be ca5d d23e ee2b 873e 3246 a7bd
000001a0: ac33 aebe abcb 65bd c04b 23bf 2e57 3cbd
000001b0: fb21 dbbd 564f a4be e567 9d3e 18d9 f23e
000001c0: 0d0e 59be c5c7 e7be ae82 843d 9d52 8bbd
000001d0: afaf acbe 0afa 83bd 1f32 41be e207 37be
000001e0: 69a2 8fbe 5bbe 83be bc40 cfbc 51a7 be3d
000001f0: 7a0a 013c eb2e 64be 45dc 593d ae99 863d
00000200: 6fbd 823e 0b80 c5bd 0f98 1d3e c031 803e
00000210: 9f01 debd ac94 cbbd 9040 e53d cb52 703e
00000220: ae75 e03c 9b4b 17be 3be2 04be f179 19be
00000230: 7a12 0dbc 6d91 a1be 843a 673d f9a7 57bb
00000240: 6d2d a0bd fef3 93be f685 62ba ae49 be3e
00000250: e058 b03d 344b 23bf a22a 35be f653 8ebe
00000260: 1a9a f23d cedc 103e 3ea6 893d 184f 98be
00000270: e507 d8bd 8ebb 7fbd 22f4 8abd 743c 23be
00000280: c483 4bbd 1bd1 a13e 0502 f8bd 41a8 9bbe
00000290: b659 cbbc 1c5f 51bd 9372 143e b6bd 503e
000002a0: bec0 233e 82d3 393d 5549 c1bd a01d 243e
000002b0: ae68 7d3d 6b74 5f3c f6d1 68be 00d5 66bc
000002c0: 055e 71bd 2c96 493d 6fb7 613e b437 e6be
000002d0: ce68 60bd d822 563c 899b af3d c6ee bebe
000002e0: fec8 39bd 37b2 7ebe c018 0e3e 15c0 dabd
000002f0: 403c 8dbd a8e8 223e 79e4 f6bd 9afd d0bd
00000300: f89a 4bbe eef5 a33d 961a 493e 91dc 0b3e
00000310: b8c5 323e 06c2 a93d 1d90 973e e3f2 553d
00000320: 0401 2dbd 23f7 2c3d fb74 b63e e725 2fbe
00000330: cd7c 563e 9d39 a83c d7ad 0f3d 1d44 1ebe
00000340: 42ba 0ebe c087 7cbc b60b a43e d35b 10be
00000350: 2883 66bd 81e9 18be 867d c73d ae22 b53e
00000360: 79a5 6abd 9d43 fbbc 13e8 163e b2c9 4abe
00000370: 713a bfbd 89b7 9e3c fe38 543d c096 debc
00000380: 0ed2 81be 4357 4a3e 6035 603e a4f5 a43e
00000390: 14a4 9bbe ee23 a9be 1d4b 6cbe fea3 843e
000003a0: 3198 59bd 9929 2f3e a2ae 1d3e d1cd 1ebd
000003b0: 3fff 80bd 9433 a43c fe79 69bd 303c 413c
000003c0: e735 28be 1ef3 18be f46c e7bb 497f 1b3e
000003d0: 59b8 f2bd 903f 9bbe 3a74 673d 3f7f 633e
000003e0: 41ec be3d 127e 583e 2ce9 5fbe d446 14be
000003f0: 0b5b 73be 8f17 27be 770c 51bd 171b f73d
0.07225965 -0.020828959 -0.17170699 0.30282572 -0.052672777 0.16416949 -0.2084608 0.24750541
-0.0014608422 -0.014768673 0.17972173 -0.3022867 0.21143256 0.25313112 -0.01622393 0.09989721
-0.061972883 0.19329016 -0.13854675 0.3952391 -0.017195113 -0.12938665 0.14216715 0.5277826
-0.21424767 -0.189628 -0.2161837 -0.21187197 0.7320271 -0.29782346 -0.19561364 0.017728632
-0.09145124 -0.32426766 0.011496118 0.7063029 0.6286839 0.6056209 0.17485943 0.5944123
-0.36716184 -0.19474097 0.25536045 0.3719297 0.33916387 -0.10738995 0.3341511 0.16081534
0.266015 -0.383751 0.12252535 0.12612909 0.015434435 0.22731224 -0.10383374 -0.10259559
0.16864836 0.07254914 0.30415553 -0.05910624 0.157651 -0.13159378 0.11215457 -0.2002532
0.21871085 -0.003620209 0.20001209 -0.08367169 -0.11860314 -0.12641579 0.038024567 -0.007437369
0.051888164 0.12743863 -0.23827833 0.2958552 -0.13425243 0.133319 0.08713493 0.44549176
-0.22262846 -0.27737838 0.12626062 -0.06378937 0.16737425 0.15567556 -0.002130434 0.09171803
0.017735416 0.23758101 0.07542415 0.021046132 0.2754943 0.044330332 -0.35245323 -0.37691584
0.1400179 -0.07706491 0.06333626 -0.15032552 -0.21105488 0.4108718 0.26400703 -0.081676856
-0.34023798 -0.056102436 -0.6378746 -0.04598158 -0.10699841 -0.3209178 0.30743328 0.47431254
-0.21196766 -0.452696 0.06470238 -0.068028666 -0.33727786 -0.064441755 -0.18866776 -0.17874101
-0.28053597 -0.25731167 -0.025299422 0.09309257 0.007876033 -0.22283523 0.05318858 0.06572281
0.2553515 -0.09643563 0.15390037 0.25037956 -0.10840153 -0.09940466 0.11193955 0.23469083
0.027399864 -0.14774935 -0.12976925 -0.14987923 -0.008610362 -0.31556264 0.05645229 -0.0032906516
-0.07821164 -0.2889709 -0.00086411776 0.37165588 0.086107016 -0.63786626 -0.17692044 -0.27798432
0.11845799 0.1414673 0.06721161 -0.29747844 -0.10548381 -0.062434725 -0.06784846 -0.1594103
-0.04968621 0.31604847 -0.1210976 -0.30401805 -0.024823051 -0.051116094 0.14496832 0.20384869
0.15991494 0.045367725 -0.09437815 0.16026926 0.06186741 0.013638596 -0.22736344 -0.014088869
-0.058927555 0.04921548 0.2204263 -0.44964373 -0.05478745 0.013069831 0.08574588 -0.37291545
-0.045357697 -0.24872671 0.13876629 -0.10681168 -0.068962574 0.15909064 -0.120552965 -0.10204621
-0.19883335 0.08005892 0.19639048 0.13658358 0.17458236 0.0828896 0.29602137 0.052233588
-0.042237297 0.042227875 0.35636124 -0.17104302 0.20946045 0.020535285 0.035077896 -0.1545567
-0.13938239 -0.015413225 0.32040185 -0.14097528 -0.056277424 -0.14932825 0.097407386 0.3537802
-0.057286713 -0.030671889 0.14736967 -0.19803503 -0.09337319 0.019374626 0.051812164 -0.027171493
-0.25355572 0.1975985 0.21895361 0.3221866 -0.3039862 -0.33035225 -0.23075528 0.25906366
-0.053123657 0.17105712 0.15398648 -0.0387705 -0.06298684 0.020044126 -0.057001106 0.011794135
-0.16426812 -0.14936492 -0.007062549 0.15185274 -0.11851568 -0.30321932 0.056507327 0.2221651
0.093224056 0.21141842 -0.21866292 -0.14480144 -0.23765199 -0.1631758 -0.051037278 0.12065714

lstm.weight_hh_l0 f4 [128, 32]
00000000: e075 f9bd ba99 713d 3b97 b3bb 90e6 0dbe
00000010: dd31 a4bc 82f1 55be cb7f 6f3e 0feb 34bc
00000020: a0c5 08bf 60fa 3abe 14d6 5e3e 7fd7 ba3e
00000030: c627 273d db9b e73d 5169 0cbe 5e3a 093c
00000040: 383f e93d 0f0d 61bd 9a5f a8bd 6db1 82bd
00000050: 23f0 d4bc ab72 843e f44b 25bd 8a8f 833e
00000060: 2aaf 36bc 82fb 19bf 369f 20be 50d7 d63d
00000070: 1c34 afbd 2232 a83c 5265 0dbd 8c32 febd
00000080: 2dc0 1a3e 7658 b5bc 0b63 153d c7b3 c7bd
00000090: 0551 e7bd 198a 283e 3f80 e1bd e3a3 fdbc
000000a0: 6291 233b e444 efbc 6fe6 d7be ca08 39be
000000b0: 5c6a bfbd 2752 ce3d 040f aa3e 08e1 2cbe
000000c0: a8cc 3cbd 1b07 a33d bf5c 353e 8ab0 3dbe
000000d0: ac37 6abe 8ed4 d8be 1fa4 b33d 0757 d93c
000000e0: f20e 0bbb de4c b5bd 713d 123e a80d b83c
000000f0: d137 91bd af72 1a3e cf78 b73d fb99 f33d
00000100: 3bc0 4bbe e9d2 62be 6bf7 51bf 09af 273d
00000110: d332 a63d 4929 1cbe d307 2f3e a641 ba3d
00000120: f6a3 0abf 25e5 b13d a9d9 c23c a82f 71bc
00000130: 0aae 4f3e b4ac e93d a3bc 8c3c 650d 1a3e
00000140: e58a a23e 1c07 ed3c 6b59 e4bd 0d7d 5e3e
00000150: 7b32 efbd ccd4 013e 1f1e 32bd abf8 e63d
00000160: f4d5 0bbd 93b0 84be 6cac 45bd ce39 a13d
00000170: 80f1 1a3e 1a9d dbbd 9e8c 8f3d e121 dfbc
00000180: 8f34 123e 1845 f63d 83ab 923d 3ea5 6e3e
00000190: df8b 8abe 0b1d d13d 2033 41be e378 fbbd
000001a0: a1fa 333e 8a32 903d ae42 3bbe a5bf 64be
000001b0: 6baf e4bd b89d dbbd cd89 afbc a19e 26bd
000001c0: 49ea 253e c7fc 92bd b50f 8abd 190c edbd
000001d0: 05c6 40be 512d 51bd 2542 36be 4e71 c9bd
000001e0: cc44 4a3d 7e91 89bd dfa9 83bd fe10 213f
000001f0: 7098 ecbd 1acf 0c3e 27a4 333e 1ba0 efbd
00000200: 3478 33be dc9c 4b3d b767 6b3d a0dd 933d
00000210: 293a 75bd a7ba e23d b7c2 42bd e6e8 5b3b
00000220: 48c4 ce3d b966 963e f18a b6be 6c95 01be
00000230: 7f2d bebe ca9a 8ebc a629 96bd 140b a5bc
00000240: b64c 8b3e 0fdc 9fbe 49b8 833e ecae b23b
00000250: 2f92 df3c 65ce 1fbe 7716 583c a0f3 0d3d
00000260: 0bf1 bf3d d94b ca3d e49d 3cbe 2746 193e
00000270: 19dc 9e3c a9bf ea3d 786d 4abd 217b c43d
00000280: 6992 29bd 532a 173e 548e 03be fc37 5f3e
00000290: eead b8be 1bb5 2e3e fe70 25be ad1a ce3d
000002a0: 205a 903b 7896 843e c4e5 d5be 0c45 1fbe
000002b0: 0564 48be c2b0 00be f2b6 8b3e 494b 233e
000002c0: 9099 ff3d 7eca 503d db77 a73e d8dc 03bd
000002d0: df05 8abe ec4d f2be 58b1 3dbe f9f0 bdbc
000002e0: 4022 37be 50e1 93bd f64c 0f3d d0dd c23e
000002f0: 6aae 8fbe dbc1 073e 364c 6f3e 32cc 413e
00000300: dd0e f83d 6ebe 893e 599f 60be dfca 14bc
00000310: 8717 6cbd 8f0e 263e b921 a0be a78a 443d
00000320: e0ae 363e 3cf6 e3bc 3ea3 27bf 0f3d 4ebe
00000330: d874 99be eb8a 233e e664 813c 6261 e6bd
00000340: 6b5e f2bc 4692 f1bd 3c84 113e 1040 34be
00000350: 0b4a e1bc 0202 b4be a2b8 55bc a5f5 ef3a
00000360: b4ae d5bd 5195 a2bb e67c f93d ce86 9e3b
00000370: 709f 2bbe b0ad 08be d398 43bc 5cfb 3fbe
00000380: 2a9b 50bd 21de 39be e49d 003e 7dd5 98bd
00000390: dfd1 073e d363 35be 05f2 873e 778a 31bf
000003a0: 7ae3 7ebc f77f 19be b7f7 8fbd f907 bb3e
000003b0: 78a2 783e f8c4 02bd 2f70 dcbd c66f 573e
000003c0: ab18 9bbd 834c d93d ac2f c03e 423b 0a3f
000003d0: 3e10 bd3d 39f5 413d 94d1 a53d b39f 133e
000003e0: f92c 623e 23ef fbbe 0700 d2be 2b3d 3ebe
000003f0: 70ed 3e3e 8a29 093e 006f d13e 4cdd eb3e
-0.12180686 0.058984496 -0.0054806746 -0.13857484 -0.020043308 -0.20892909 0.23388593 -0.01104237
-0.5342655 -0.18259573 0.21761352 0.36492535 0.040809415 0.11309024 -0.1371205 0.008375732
0.11389011 -0.054944094 -0.082213596 -0.063814975 -0.025993412 0.25868735 -0.040355638 0.2569545
-0.011150161 -0.60149395 -0.15685734 0.10490286 -0.08554861 0.020531718 -0.034520455 -0.12411985
0.15112372 -0.022136908 0.036471408 -0.09751087 -0.1129475 0.1645893 -0.11010789 -0.030961936
0.002495848 -0.029207654 -0.42167994 -0.18069759 -0.09346458 0.10074263 0.3321458 -0.16882718
-0.046093613 0.0796034 0.17711161 -0.18524376 -0.228728 -0.42349666 0.08771538 0.026530756
-0.0021218625 -0.08852552 0.1428125 0.02246745 -0.07090724 0.15082811 0.08958589 0.11894604
-0.19897549 -0.22150768 -0.82018155 0.04093841 0.08115163 -0.15250124 0.17092828 0.09094553
-0.54156435 0.08686284 0.02378543 -0.014720835 0.20281234 0.11409894 0.017179793 0.15044172
0.31746593 0.028934054 -0.111498676 0.2172739 -0.1167955 0.12678832 -0.043485757 0.112778984
-0.03413959 -0.25915965 -0.048260137 0.078723535 0.15131187 -0.10723324 0.070092425 -0.027237834
0.14277862 0.12024897 0.071616195 0.23305222 -0.27059838 0.10210618 -0.18867159 -0.12278917
0.17576076 0.070408896 -0.18287155 -0.22338732 -0.11166271 -0.10723442 -0.021428013 -0.040678624
0.16202654 -0.0717712 -0.06741277 -0.11574573 -0.18825538 -0.051068608 -0.1779867 -0.09836064
0.049382016 -0.067172036 -0.06428885 0.62916553 -0.11552513 0.13750878 0.17543088 -0.117004596
-0.17526323 0.04971014 0.057471957 0.07220006 -0.05986992 0.11070757 -0.047548976 0.0033555566
0.100960314 0.29375246 -0.3565288 -0.12654656 -0.37144086 -0.017407794 -0.073321626 -0.020146884
0.27206963 -0.3122258 0.25726536 0.005452981 0.027291385 -0.15606077 0.01318895 0.034656167
0.09372147 0.09877748 -0.18419605 0.14968167 0.01939206 0.114623375 -0.049420804 0.095937975
-0.041399393 0.14762239 -0.12847263 0.217987 -0.36070198 0.17061274 -0.16156384 0.10063682
0.004405275 0.2589605 -0.4177686 -0.15553683 -0.19569404 -0.12567428 0.27288014 0.15946688
0.124804616 0.05097436 0.3270863 -0.032193035 -0.26957604 -0.47325075 -0.18524683 -0.023186194
-0.17884159 -0.07220709 0.034985505 0.38059855 -0.28062755 0.13257544 0.23368916 0.1892555
0.1211221 0.269031 -0.21935786 -0.009081571 -0.057639625 0.16216491 -0.31275728 0.04798379
0.17840147 -0.027827375 -0.6548346 -0.2014048 -0.29971957 0.15970962 0.015795182 -0.11249043
-0.029586038 -0.117954776 0.142106 -0.17602563 -0.027501127 -0.35157782 -0.013044508 0.0018307461
-0.104337126 -0.0049616476 0.121820256 0.0048378473 -0.1676004 -0.13347507 -0.011938292 -0.1874823
-0.050929226 -0.18151142 0.1256023 -0.07462595 0.13263653 -0.17713861 0.26551834 -0.69351906
-0.015557164 -0.14990221 -0.0702967 0.3652952 0.24280727 -0.031926125 -0.10763585 0.21038732
-0.075730644 0.106102966 0.3753637 0.5399667 0.092316136 0.047353003 0.080966145 0.14416389
0.22087468 -0.49205884 -0.41015646 -0.18578021 0.18645263 0.13394752 0.40905 0.46067274

lstm.bias_ih_l0 f4 [128]
00000000: b469 a6bd 2e74 fc3d 24b1 64bd 7bfc 263e
00000010: d8cd 453e 9b9c 8d3e ade8 8e3d 633c 40be
00000020: 33be 113d 3b49 643e 0c91 b53e be59 113e
00000030: 8e59 233e a46c 6c3d 4beb 2d3e 1f6a ee3d
00000040: 922b af3e bc8e 9cbd 19dc 263e a4bf c73d
00000050: c21b a13e 730b a3bd 0e35 023e f480 e7bd
00000060: 81cc 893d 4a57 1e3d f56f 0bbd 93df a43d
00000070: 5379 e63b fef0 673e 4f43 b33d 8512 65bd
00000080: 8796 363e b8fa d63d 63ea 123e c3bc 923e
00000090: 41c5 cc3e 6576 283e 0612 4d3e 2d1e 5d3e
000000a0: d115 003d 368c 1f3e 8bee 413e e83e aa3d
000000b0: 8780 573e 0f14 673e 4333 a73e 1d45 033d
000000c0: 9121 b03d 04b8 0e3e e1a1 fc3c 329b 823e
000000d0: 6c2f ce3d dc41 c83c f582 273d 7636 fc3d
000000e0: 01f7 02bd e7a9 a0bd b778 ccbd b165 ec3d
000000f0: 8f1e 773e 9f7b b0bc 60fd 0dbd 4ae7 08bd
00000100: 9154 903c fea1 8c3e 8d85 143e 578e 213e
00000110: e06c f4be 8358 3c3e 50b9 2dbe a8ed 763e
00000120: 8963 32be 9652 8b3e e8ab 83be 3872 4ebe
00000130: 3555 d6bd ce9a b6bd 7a9c a73d 8154 293e
00000140: 6ecb 5a3e d6d8 8fbd a46a d83d ca45 a23a
00000150: 2574 91be 9f80 4c3d f91f a6be 8e39 80be
00000160: a374 1f3e 9dc8 1bbd eef8 eb3d 5477 a03d
00000170: d244 a2bd ffea 353d 720c 033e a331 163e
00000180: 5dc6 813e 705e 453e 97b1 8b3e 7897 3fbd
00000190: 63b4 b83e e992 163e c46b 253e 9866 b93e
000001a0: 12e3 063c 989c 3c3e 93ab 813c d7a8 13bd
000001b0: 838a 2e3e 695b 41bc 51ca 6c3e 79f6 4a3d
000001c0: 1ed2 493e 8113 1a3e d49a c13e 2a7b 093d
000001d0: cff4 c43d 6fa5 aabd ec78 ef3e 3a77 123e
000001e0: 5b46 4c3e 3b3f 4e3d 9f7c 55be 5e28 e63c
000001f0: b476 b53e 04a5 e53e f1fe debd 078c 0abc
-0.0812563 0.12326847 -0.055832997 0.16307251 0.19316804 0.27658543 0.06977973 -0.18773036
0.03558178 0.2229356 0.35462224 0.1419439 0.15952131 0.057720795 0.16984288 0.11641335
0.3421293 -0.07644412 0.16294898 0.097533494 0.3146649 -0.07961168 0.12715551 -0.11303893
0.06728459 0.038657464 -0.034042317 0.08050456 0.007033506 0.22650525 0.087530725 -0.055925865
0.17830859 0.104970396 0.14347224 0.2865964 0.39994243 0.16451414 0.20026407 0.21593542
0.031270806 0.1558083 0.18938653 0.0831278 0.21045123 0.22566245 0.32656297 0.032048333
0.08600152 0.13937384 0.030838909 0.2550903 0.10067639 0.024445467 0.040896375 0.12315075
-0.031973843 -0.07844906 -0.09983962 0.115428336 0.24132751 -0.021543322 -0.034665465 -0.0334237
0.01761845 0.2746734 0.1450407 0.15776955 -0.47739315 0.1839314 -0.16965222 0.24114096
-0.17420782 0.27211446 -0.25717092 -0.20160758 -0.10465471 -0.089162454 0.081841424 0.16536142
0.21366665 -0.0702378 0.10567215 0.0012380418 -0.28408924 0.04992735 -0.32446268 -0.2504391
0.15571837 -0.038033117 0.11522089 0.0783526 -0.07923283 0.044413563 0.12797716 0.14667372
0.25346652 0.19274306 0.27283928 -0.04677531 0.36075124 0.1470448 0.1615439 0.36211085
0.008232849 0.18419111 0.015828883 -0.03604969 0.17045026 -0.011801579 0.23124053 0.04955146
0.1970906 0.15046503 0.37813437 0.033564724 0.09617006 -0.08332335 0.46771944 0.14303294
0.19948713 0.05035327 -0.2084832 0.02809542 0.35442126 0.4485246 -0.1088847 -0.008456237

lstm.bias_hh_l0 f4 [128]
00000000: b242 a13b 28d1 693e 8236 3fbd ecbc 203e
00000010: 73b6 373e a88e 2c3e 0510 493e 3ecc 4ebe
00000020: 0c33 103d 49bd dbbd db78 403e c6c4 20bd
00000030: f3dd f5bd 7289 88bd e235 393e ba21 173e
00000040: fcef 723e efb0 103e ce89 943e bc71 16be
00000050: ef3a 5e3e a74f 90bd 947d 863d 8c2b b7bd
00000060: 02e9 c6bd 4d5a 39bd 0f9a 0f3d e8ef 073e
00000070: 9ed0 ef3d 0bac 8a3d cbc5 b7bd 22ab c53b
00000080: 29c2 483b b83c 2f3e 84b4 823e 4065 963e
00000090: 1fe4 b33e a588 563e 48eb fb3d fd0e e43e
000000a0: 102c 813e 6075 8d3e 24fe a23e df6f 993d
000000b0: 305d ff3e 1ac0 8d3e f32d 373d 3344 eabd
000000c0: 51d2 253c a67b 6c3e 3860 b43e e8d2 0b3e
000000d0: 74f7 6a3a 44a7 86bd 0672 283d 8059 5b3e
000000e0: f827 ac3d cdd7 84bd 3e25 743e 6a27 d63e
000000f0: b4c2 4d3e 5542 a53c 29b3 ad3d 4dcd 8abd
00000100: cf23 853d c8cf f13d 26bb e2bb 9b8d 373e
00000110: d103 07bf 5d81 263e 69e1 44be 3071 603b
00000120: 82f8 033e 2559 103e 7652 3abe a437 64be
00000130: 8ddf 3dbe f565 8cbd e801 893e deff c5bd
00000140: f788 373e e0c9 00bc ec20 0e3e d769 18be
00000150: 2c86 28be 9275 42be 4a65 30be 2201 d1bd
00000160: d6e3 bc3d 7b4c 1cbd 750d e83c 7a6f 543e
00000170: 041f b2be 3b51 4b3e 676c 373e f5b3 073e
00000180: 80ac 883e b7f5 353d 10e8 ad3e 605f 25bd
00000190: ae95 6b3e 7327 e03e 0807 373e acd2 043f
000001a0: 7a76 3fbd e472 fa3d 152e df3d 6f84 aa3b
000001b0: 001b 543e 7fef 843d 95f4 dd3e 0f7f 813e
000001c0: f251 033e be62 7e3e 49d0 4f3e b70b 943d
000001d0: f5bd b83e d188 64bd ad7a 103e df59 3d3e
000001e0: 9b2f 1a3e 0567 f2bd a36b 84be e1f9 fc3c
000001f0: fb69 aa3e dca2 463e 62f6 babd e263 bd3a
0.004921281 0.22833693 -0.046682842 0.15697068 0.17940693 0.16851294 0.19635017 -0.201951
0.035204932 -0.10729463 0.18796103 -0.039250158 -0.12005224 -0.066668406 0.18086961 0.1475896
0.2372436 0.14129995 0.29011387 -0.14691824 0.21702169 -0.070464425 0.06566921 -0.08943853
-0.097124115 -0.045252133 0.03505903 0.1327511 0.117097124 0.06771096 -0.08973273 0.0060323635
0.0030633307 0.17113006 0.25528347 0.29374123 0.3513498 0.20950563 0.12300736 0.44542685
0.2522893 0.27628613 0.3183452 0.07492041 0.49875784 0.27685624 0.044721555 -0.11438789
0.010120944 0.23094043 0.3522966 0.13654673 0.0008963265 -0.06574872 0.041124366 0.2142086
0.08406061 -0.06486473 0.23842332 0.41826946 0.20093805 0.020173231 0.08481438 -0.06777439
0.065009706 0.11807209 -0.0069192825 0.17925112 -0.527402 0.16260286 -0.19226612 0.0034247153
0.12887767 0.14096506 -0.18195519 -0.2228685 -0.18542309 -0.06855384 0.26759267 -0.096679434
0.17923342 -0.007860631 0.13879746 -0.14884125 -0.16457433 -0.18990162 -0.17226139 -0.10205294
0.09223144 -0.038158875 0.02832673 0.2074565 -0.34789288 0.19855206 0.17912446 0.13252242
0.26694107 0.044423785 0.33966112 -0.04037416 0.23006317 0.43780097 0.17873776 0.5188396
-0.046743847 0.12228945 0.10897461 0.0052037756 0.20713425 0.06490993 0.43350664 0.2529225
0.12824228 0.24842355 0.20294298 0.07228797 0.36082426 -0.05579454 0.14109297 0.18491314
0.15057223 -0.11836056 -0.2586337 0.03088087 0.33283982 0.19398063 -0.09129025 0.0014449323

dense_layers.0.weight f4 [16, 32]
00000000: 133c 3abf 66a2 273f f76c 0c3f e9ad 493f
00000010: a6ad 54bf 12d6 253f 3b45 0ebf 83bc 123f
00000020: 3be7 18bf 8050 523f a8ab 45bf 37b9 683f
00000030: 0251 29bf f4e6 9ebe 5558 463f 49d7 313f
00000040: 13f3 2d3f fba8 47bf d05e f43e dcb1 463f
00000050: 6579 07bf 6fd0 03bf 9eb9 2dbf 13e1 4fbf
00000060: 01fa 5d3e 062c 27bf d9a7 3ebf 6b07 4d3f
00000070: 0e3f 29bf 81c9 2d3f d5e0 5f3f 24e9 373f
00000080: ce1e 043d bcfb c83d 7e90 8f3e 8a8c 9b3d
00000090: effb 97bd c85c 0d3d f28f febd c6d0 243e
000000a0: ea27 723e 4e17 b13d e123 3d3e 2c6a 77bf
000000b0: e699 a2bc 699a 7bbe fb69 09be e9a5 7ebb
000000c0: a32e c1be 5ba6 dcbd bf4b 73be ee01 b7be
000000d0: ecf7 72bd c5d5 c3bd 4163 773e 7825 2c3e
000000e0: c159 7dbe be8b 6b3f c5f4 8b3e fccc 133d
000000f0: d6f9 b9bd 1b46 863b 279a 0cbf 4486 fcbe
00000100: a626 05bd 1c0d c1bd 9675 8c3d c331 c6bd
00000110: 3bbd 79bd b126 e0bd 980f 21bd 2b82 953d
00000120: 313b e23e bc74 513c 8a85 18be e3c1 7bbf
00000130: f00b 313b dd8a d5bd ceb5 ea3d 73ac 65be
00000140: 8172 13be 3c0b 81bd 8988 f9bd fa32 a7be
00000150: 4713 89bd a15e 353d 431d d53d 54d9 5b3e
00000160: f0e1 cfbe cf95 333f 359f 4f3e 6e41 963b
00000170: 8a2d e23d 7e65 5abe cc11 56be 5717 11bf
00000180: 3303 11bf 9b64 213f a03f ec3e c109 fc3e
00000190: e29b 3fbf 37d0 2f3f 976a 0fbf 628d 103f
000001a0: ac93 e1be b9bd e43e 485c 1ebf 6abc 4a3f
000001b0: b835 39bf 82e0 d2be b5c4 2b3f 42bb 043f
000001c0: beb9 1b3f de2d 41bf 2a60 1c3f 63e7 233f
000001d0: 7ff7 38bf 1c93 26bf 6f30 01bf cc62 21bf
000001e0: 7709 863e 9319 1bbf 5270 15bf 5196 0a3f
000001f0: c565 28bf bcf6 233f ceb3 463f b64f 0f3f
00000200: 981f 22bf 87b7 2e3f 7c4b 293f 9a08 363f
00000210: c443 17bf ba13 1f3f be70 0fbf 531a d93e
00000220: 6938 28bf 95d2 113f ca6a fcbe bd14 483f
00000230: 6f60 1bbf d724 85be 0c9a 323f c035 133f
00000240: 3470 353f b740 2fbf a1ef 013f b737 113f
00000250: 97f4 32bf 3317 2abf 77fc 0abf b66e d8be
00000260: 6f0c 4a3e 14b0 1abf 1c8c 1abf dffb 033f
00000270: b67a 25bf 4aa4 203f 592b 2e3f 1169 033f
00000280: c3e3 f3be e77a 043f e2d4 ff3e 8861 353f
00000290: a43f 27bf a64e 3c3f 819b 28bf 7be1 253f
000002a0: a676 d1be 2ea8 273f 0c2b 1abf de2f 203f
000002b0: c598 45bf 264e 01bf 9107 343f 00f3 453f
000002c0: 20e3 223f 3175 3ebf 0af2 193f 5b6c 1f3f
000002d0: 04ad 3dbf 751b 2abf 64a5 03bf 5140 21bf
000002e0: 4e5d 013e bdb3 3abf b23b e7be f93f fa3e
000002f0: 9fbb 23bf 0565 273f 18f6 4f3f 02d0 3a3f
00000300: 7b59 00bf 1326 243f 2c81 303f b14c 483f
00000310: 69a0 0cbf 062e 2f3f 19fa 13bf fba5 0a3f
00000320: 0113 d2be bcbc 2d3f eef4 41bf aefc 333f
00000330: 7213 58bf 3598 02bf ae43 243f 3601 133f
00000340: 4ac4 f13e 7a5f 68bf cdf1 2f3f 73b7 2a3f
00000350: e5d8 29bf 015e 1dbf ab12 29bf 520c 39bf
00000360: 52ff e33d 62b5 50bf 3763 48bf 474d ef3e
00000370: ecb3 32bf d0fd 393f 1e02 5d3f eee8 1f3f
00000380: 99a9 6d3e afc0 b4bd 007e 96be 8944 79be
00000390: c5db f03d 3a8a 99be 599c 413e 9485 bf3d
000003a0: 8d21 ee3d 2e4e 50be c8d3 d63b aaea 8cbe
000003b0: 2693 963e 717c 34bd 05b4 51bb 6f7e d8be
000003c0: 2173 1fbd 5dee fa3d 541e 1bbe c6dd 88bd
000003d0: b128 a93e 9a35 503e 4128 173e 5980 363e
000003e0: d451 143d 953a 683e 21a9 5c3d ff49 17be
000003f0: 8d36 f03d adf2 5cbe 4622 88be 9154 07be
-0.72747916 0.65482175 0.5485377 0.7878099 -0.83077466 0.6477977 -0.5557439 0.57318896
-0.5972783 0.82154083 -0.7721505 0.90907615 -0.66139233 -0.31035578 0.77478534 0.69469124
0.67949027 -0.7799222 0.47728586 0.7761514 -0.5291961 -0.5148992 -0.67861354 -0.8120281
0.216774 -0.6530155 -0.74474865 0.80089444 -0.6611184 0.67885596 0.8745244 0.7184012
0.03225594 0.098136395 0.28039926 0.07595165 -0.074210994 0.03451231 -0.12429799 0.16095266
0.23648039 0.08647023 0.18470718 -0.9664638 -0.019848775 -0.24570622 -0.13419335 -0.0038856214
-0.37730893 -0.10773917 -0.23759364 -0.3574366 -0.059318468 -0.09562258 0.24158956 0.16811168
-0.2474127 0.92010105 0.27335182 0.03608416 -0.090808555 0.0040977127 -0.5492272 -0.49321187
-0.03250756 -0.094263285 0.06858365 -0.0967746 -0.06097148 -0.1094488 -0.039321512 0.07300218
0.44185784 0.012784179 -0.14894691 -0.9834272 0.0027015172 -0.10426877 0.11460458 -0.22429065
-0.14399149 -0.06300971 -0.12184245 -0.3265608 -0.0669313 0.0442797 0.10405972 0.21469623
-0.40602064 0.70150465 0.20275576 0.0045854365 0.11043842 -0.21327779 -0.20905226 -0.5667624
-0.56645507 0.63044137 0.46142292 0.49226192 -0.74847233 0.68677086 -0.5602202 0.56465733
-0.44057977 0.44675997 -0.6185956 0.7919375 -0.72347593 -0.4118691 0.67097026 0.5184823
0.60830295 -0.7546061 0.61084235 0.64024943 -0.7225265 -0.6506822 -0.5046453 -0.6304138
0.26179096 -0.605859 -0.5837451 0.54135615 -0.6578029 0.6404836 0.7761811 0.55981004
-0.6332946 0.6824879 0.66130805 0.71106875 -0.5908778 0.62139475 -0.56031406 0.42402896
-0.65711075 0.5696195 -0.49300224 0.78156644 -0.6069402 -0.2600467 0.69766307 0.5750389
0.70874333 -0.6845812 0.5075627 0.5672564 -0.69904464 -0.6644165 -0.5429148 -0.42271966
0.19731306 -0.60424924 -0.6037004 0.515562 -0.6464037 0.62750685 0.68034893 0.51332194
-0.47634706 0.51750034 0.49967104 0.70851946 -0.6533148 0.7355751 -0.6586228 0.6479718
-0.40910834 0.65490997 -0.60221934 0.6257304 -0.7718623 -0.5050987 0.70324045 0.77323914
0.63627815 -0.7439757 0.6013495 0.6227471 -0.74092126 -0.66448146 -0.5142424 -0.62988764
0.12633249 -0.7293051 -0.4516273 0.48876932 -0.6395816 0.6538852 0.81234884 0.72973645
-0.50136536 0.64120597 0.689471 0.7824202 -0.54932266 0.684296 -0.57803494 0.54159516
-0.41030124 0.6786611 -0.7576436 0.70307434 -0.8440467 -0.510135 0.6416577 0.5742372
0.4722007 -0.90770686 0.68728334 0.6668617 -0.6634658 -0.61471564 -0.6604411 -0.72284424
0.11132683 -0.8152677 -0.7827639 0.46738645 -0.6980579 0.7265291 0.86331356 0.624648
0.23209228 -0.08825814 -0.29393005 -0.2434255 0.11760668 -0.2998827 0.18907298 0.0935165
0.11627493 -0.20342323 0.006556008 -0.27522784 0.2940914 -0.04406399 -0.003199817 -0.4228396
-0.038928155 0.122524954 -0.15148288 -0.06682925 0.33038858 0.20332947 0.1476145 0.17822398
0.03621085 0.22678597 0.05387223 -0.14774321 0.11729155 -0.21576948 -0.2658865 -0.13215853

dense_layers.0.bias f4 [16]
00000000: 5b74 453f 11ad 5b3e 4395 633e 5700 c23e
00000010: 3b29 2b3f 0f4c 123f bcc6 d93e 035a 3c3e
00000020: 2736 193f a6e4 5e3e 8da6 983e b0b5 313f
00000030: a595 343f fb7a 743d 4603 c93e afda 263f
0.7713067 0.21452738 0.22224908 0.37890884 0.6685979 0.57147306 0.42534435 0.18393712
0.59848255 0.2176691 0.29814568 0.6941786 0.7054084 0.059687596 0.3926031 0.65177435

dense_layers.2.weight f4 [1, 16]
00000000: 94dd 1f3f 06bd c6be 9fb0 84be 5197 5b3f
00000010: 54cd 4e3f 2486 4d3f 72ad 223f 5476 3ebe
00000020: 674d 333f 6f23 a0be 21a1 b6be c438 353f
00000030: 2e0f 533f 3ece ddbe 5bd0 00bf ed8b 2c3f
0.62447476 -0.38816088 -0.25916 0.85777766 0.80782056 0.8028281 0.63545907 -0.18599826
0.7003998 -0.31277034 -0.35669807 0.7078974 0.8244504 -0.43321413 -0.50317925 0.6740101
