BNN/model_state.pt (torch, 36759 bytes, 5 tensors)

linear_relu_stack.0.weight f4 [20, 420]
0	0x3e2b56dc	0.16732353
1	0xbd938456	-0.072029755
2	0x3e9d64a7	0.30740854
3	0xbe926871	-0.28595307
4	0xbe8db4c8	-0.27676988
5	0xbdc2d755	-0.095137276
6	0x3ea6ac64	0.325534
7	0xbeb18a86	-0.34675997
8	0xbe49b946	-0.19699582
9	0xbe0d0bc2	-0.13774016
10	0x3ea96114	0.33081877
11	0x3dfc7ca2	0.12328459
12	0xbee95534	-0.45572817
13	0xbeab2933	-0.3342987
14	0x3d64c6bf	0.0558536
15	0xbd19a787	-0.037513282
16	0x3e97d132	0.2965179
17	0xbe9ae6a5	-0.30254093
18	0xbe91cb09	-0.28475216
19	0xbe163e7a	-0.1467227
20	0x3ea3a8fc	0.31964862
21	0xbeaf5dd8	-0.34251285
22	0xbe53f92b	-0.20700519
23	0xbe4513f0	-0.19245887
24	0x3e8e4c80	0.2779274
25	0x3d6f29ba	0.058389403
26	0xbeac1ef6	-0.3361737
27	0xbe897ee4	-0.26854622
28	0x3db4ae9f	0.08822369
29	0xbd49e03c	-0.049286112
30	0x3e4a9823	0.19784598
31	0xbe8f46db	-0.27983746
32	0xbe90c7ec	-0.28277528
33	0xbdcdc345	-0.1004701
34	0x3e9e89db	0.3096455
35	0xbe9ac3a7	-0.30227396
36	0xbe1ca573	-0.15297489
37	0xbe4979df	-0.19675396
38	0x3e61de4d	0.22057457
39	0x3cb9e31b	0.0226913
40	0xbe9f2e67	-0.3109009
41	0xbe97610d	-0.2956623
42	0x3cf6c8d7	0.030125065
43	0xbd4762b4	-0.048678115
44	0x3e42dbfb	0.19029228
45	0xbe4c8f14	-0.19976455
46	0xbe85c51e	-0.2612695
47	0xbe0de82b	-0.13858096
48	0x3e767c61	0.24070884
49	0xbe9a0cb9	-0.30087832
50	0xbe66f0a4	-0.22552735
51	0xbe25c9c9	-0.16190256
52	0x3e80696c	0.2508043
53	0x3c895934	0.016766168
54	0xbe86dac8	-0.26338792
55	0xbe568981	-0.20950891
56	0x3da1632c	0.07880244
57	0xbde38263	-0.11108854
58	0x3e357933	0.17722015
59	0xbe1b8f08	-0.15191281
60	0xbe9573a0	-0.29189777
61	0xbe3cc063	-0.18432765
62	0x3e76d78b	0.2410566
63	0xbea62a41	-0.32454112
64	0xbe518969	-0.20462574
65	0xbe275e5a	-0.16344586
66	0x3e47a7f3	0.19497661
67	0xbc067ef3	-0.008208978
68	0xbe7a62e9	-0.24451794
69	0xbe0840a2	-0.13305905
70	0x3d3246bb	0.043524485
71	0xbdb5b24d	-0.08871899
72	0x3e5284de	0.20558497
73	0xbe01f49a	-0.12690964
74	0xbe86aae9	-0.2630227
75	0xbe54cb1e	-0.20780608
76	0x3e4344bc	0.19069189
77	0xbea9a83a	-0.3313616
78	0xbe2dabf3	-0.16960125
79	0xbe4658f8	-0.19369876
80	0x3e170332	0.14747313
81	0xbd84a200	-0.064762115
82	0xbe97caa8	-0.29646802
83	0xbe4634bc	-0.19356054
84	0xbceb8863	-0.028751558
85	0xbdbd6cea	-0.09249289
86	0x3e45559a	0.19270936
87	0xbe37e4c8	-0.17958367
88	0xbe8b6e86	-0.2723276
89	0xbe434112	-0.19067791
90	0x3e6fa2be	0.23401925
91	0xbe58b115	-0.21161301
92	0xbe59a2dd	-0.21253534
93	0xbe602e3d	-0.21892639
94	0x3e29412f	0.16528772
95	0xbd490e48	-0.049085885
96	0xbe7debde	-0.24797007
97	0xbdf3d1c5	-0.11905245
98	0x3d8f0be0	0.06984687
99	0xbe08cc9c	-0.13359302
100	0x3de4e095	0.11175648
101	0xbe446b5c	-0.1918158
102	0xbe885f7c	-0.2663535
103	0xbe3c9a47	-0.18418227
104	0x3e7888d9	0.24270953
105	0xbe815100	-0.2525711
106	0xbe4d6fa1	-0.20062114
107	0xbe5d0ee9	-0.21587719
108	0x3e0ed939	0.13950051
109	0x3c14e1e7	0.009087062
110	0xbe4565f5	-0.19277175
111	0xbdbe7a82	-0.0930071
112	0xbd0cedae	-0.034406357
113	0xbdb746c0	-0.08949041
114	0x3dabf597	0.08396452
115	0xbe19d3b2	-0.15022162
116	0xbe8765c4	-0.2644483
117	0xbe5f7b34	-0.21824342
118	0x3e53f0af	0.20697282
119	0xbe2892e6	-0.16462287
120	0xbe606516	-0.21913561
121	0xbe6a9fc5	-0.2291251
122	0x3e0d9146	0.13824949
123	0xbd5c48ac	-0.053780243
124	0xbe589888	-0.21151936
125	0xbda78ff8	-0.08181757
126	0xbd3d7214	-0.04625137
127	0xbdab0d76	-0.08352177
128	0x3d84dc05	0.06487278
129	0xbdb231f9	-0.08700938
130	0xbe8a8432	-0.27053982
131	0xbe6cf42c	-0.23140019
132	0x3e05a50d	0.13051243
133	0xbe20b564	-0.15694195
134	0xbe82a670	-0.25517607
135	0xbe701546	-0.23445615
136	0x3e2d214e	0.16907236
137	0x3c91ca3b	0.017796626
138	0xbe2adbdc	-0.16685432
139	0xbdcc0108	-0.09961134
140	0xbb197fed	-0.0023422197
141	0xbd27aee6	-0.04093828
142	0x3d8cbc40	0.06871843
143	0xbdbfbec5	-0.09362558
144	0xbe9790b6	-0.29602593
145	0xbe57aa8e	-0.21061155
146	0x3e42c194	0.19019157
147	0xbe4df6c1	-0.2011366
148	0xbe7fb089	-0.24969687
149	0xbe80c895	-0.25153032
150	0x3ddea068	0.10870439
151	0xbd92ce5a	-0.07168265
152	0xbddb6485	-0.10712532
153	0xbd89cfce	-0.06729089
154	0x3d0abbd6	0.03387054
155	0xbda518db	-0.080613814
156	0x3d4a1159	0.04933295
157	0xbdb37321	-0.087621935
158	0xbea112c9	-0.31459644
159	0xbe339d96	-0.17540583
160	0x3de55439	0.11197705
161	0xbe248cbb	-0.1606931
162	0xbe765552	-0.24055985
163	0xbe57c0a5	-0.21069582
164	0x3e156d69	0.14592518
165	0xbc9e902b	-0.019355854
166	0xbe4733df	-0.19453381
167	0xbd91c452	-0.07117523
168	0x3d87af18	0.06625193
169	0xbd9edc99	-0.077569194
170	0x3daad4a0	0.08341336
171	0xbd919005	-0.07107548
172	0xbe927f4f	-0.28612754
173	0xbe3f9d9c	-0.18712467
174	0x3e010f80	0.12603569
175	0xbe3882ec	-0.18018693
176	0xbe43fe09	-0.19139875
177	0xbe80502c	-0.25061166
178	0x3df31dbc	0.11870906
179	0x3c8ab892	0.016933713
180	0xbdff680a	-0.12471016
181	0xbcfee45e	-0.031114753
182	0x3cefcf11	0.029273542
183	0xbca7f500	-0.020502567
184	0x3e024333	0.12720947
185	0x3b0946db	0.0020946774
186	0xbe836d87	-0.256695
187	0xbe634a87	-0.22196399
188	0x3e0dabc4	0.13835055
189	0xbe1901cb	-0.1494209
190	0xbe65db0e	-0.22446844
191	0xbe6e0a27	-0.2324606
192	0x3e2f228d	0.17103024
193	0xbd56ff21	-0.052489404
194	0xbe15ac12	-0.14616421
195	0xbd39378b	-0.045218986
196	0x3cef5504	0.029215343
197	0xbd79d796	-0.060996614
198	0x3d7ccb4f	0.061717328
199	0xbce8a3e0	-0.028398454
200	0xbe999234	-0.29994357
201	0xbe695ced	-0.22789355
202	0x3dd2af8a	0.10287388
203	0xbd8fa792	-0.070143834
204	0xbe92b35c	-0.28652465
205	0xbe88f732	-0.26751095
206	0x3d24bcfd	0.040219296
207	0xbb8e3021	-0.0043392335
208	0xbe26470f	-0.16238044
209	0xbd991f7d	-0.07476709
210	0x3d0f9bb2	0.035060592
211	0xbd465ed3	-0.048430275
212	0x3ce02c0c	0.027364753
213	0xbc3564e9	-0.011071422
214	0xbe887015	-0.26648012
215	0xbe88e266	-0.26735228
216	0x3d140342	0.03613592
217	0xbe12b1af	-0.14325593
218	0xbe958a99	-0.29207304
219	0xbe9c0427	-0.30471918
220	0x3df4c950	0.1195246
221	0xbca29267	-0.0198452
222	0xbe119738	-0.14217842
223	0xbdb6b6c0	-0.089215755
224	0x3d9e17d3	0.07719388
225	0x3ccc23b2	0.024919365
226	0x3cc0458d	0.023470664
227	0xbc8da3ed	-0.01729008
228	0xbeabb072	-0.33533055
229	0xbe6f8728	-0.23391402
230	0x3c5f0557	0.013612113
231	0xbd99b140	-0.07504511
232	0xbe8ced51	-0.27524808
233	0xbea8bd7f	-0.32957074
234	0x3d3c720d	0.046007205
235	0x3cb662bb	0.022263875
236	0xbe3a9abf	-0.18223093
237	0xbd50ea45	-0.051004667
238	0x3d10f00a	0.03538517
239	0xbca6c6fd	-0.020358557
240	0x3d20b660	0.039236426
241	0x3d1f2448	0.03885296
242	0xbe948818	-0.2901008
243	0xbe850e42	-0.2598744
244	0xbd10e1aa	-0.03537146
245	0xbc1f8b73	-0.009737837
246	0xbe7f595d	-0.24936433
247	0xbe8cc44e	-0.2749352
248	0x3d5d0324	0.053958073
249	0x3bab97b7	0.0052365917
250	0xbe0ab860	-0.13546896
251	0xbdfb2557	-0.122629814
252	0xbbd055fc	-0.0063579064
253	0x3cc84171	0.024445267
254	0xbcfb554f	-0.030680327
255	0x3d278836	0.040901385

linear_relu_stack.0.bias f4 [20]
0	0x3ef5940e	0.4796452
1	0xbd82545f	-0.06363749
2	0x3ed50fa7	0.41613504
3	0x3ca357fa	0.019939411
4	0x3ed8ed2c	0.42368448
5	0xbd3c302e	-0.045944385
6	0xbc341c2f	-0.010993048
7	0x3ed9fa09	0.42573574
8	0xbdcfd6f8	-0.10148424
9	0xbddf3a80	-0.1089983
10	0x3ed31af3	0.41231498
11	0xbc40cc0c	-0.011767399
12	0x3ec5d28e	0.38637203
13	0xbbc8fe71	-0.0061338474
14	0xbdc84259	-0.0977828
15	0x3eab5d0a	0.3346942
16	0x3ec0d00f	0.37658736
17	0x3cb22666	0.021746825
18	0x3ee08a47	0.43855497
19	0x3ed535ce	0.41642612

linear_relu_stack.2.weight f4 [10, 20]
0	0xbf1b7948	-0.60731936
1	0x3f0f030c	0.55864024
2	0xbece5723	-0.40300855
3	0x3ddc2217	0.107486896
4	0xbdf93a13	-0.1216928
5	0xbe32bc51	-0.1745465
6	0x3e846dee	0.2586512
7	0xbe841ef8	-0.25804877
8	0x3df77257	0.120823555
9	0x3e58908a	0.21148887
10	0xbecb6358	-0.3972423
11	0x3ebec1c5	0.3725721
12	0xbe01465f	-0.126245
13	0xbdb54e7a	-0.08852859
14	0x3ed9a7b3	0.42510757
15	0x3bce2fb6	0.0062923087
16	0xba487d67	-0.0007648081
17	0x3f01cd64	0.50704026
18	0xbee4ac17	-0.44662544
19	0xbe5d1e84	-0.21593672
20	0x3e994d3d	0.2994174
21	0xbf81ae40	-1.0131302
22	0x3eb16bc7	0.3465254
23	0x3e3bc1b2	0.18335608
24	0x3ec4cf71	0.38439515
25	0xbd8d0d28	-0.06887275
26	0xbf1a1753	-0.6019184
27	0x3e4aba72	0.19797686
28	0x3e1722b5	0.14759333
29	0xbf03e90b	-0.5152747
30	0x3e28840a	0.16456619
31	0xbf8c0f36	-1.0942142
32	0x3ecf484c	0.40484846
33	0x3e37d92a	0.17953935
34	0x3e3e6b55	0.18595631
35	0x3e3c412a	0.18384233
36	0x3ed3535e	0.41274542
37	0xbe1956af	-0.14974473
38	0x3ec9ae9d	0.39391032
39	0x3ec66b2e	0.38753647
40	0x3e4a8aef	0.19779561
41	0x3f6a8cc6	0.91621053
42	0xbe629f28	-0.22131026
43	0x3e1c2ed2	0.15252236
44	0xbec7f608	-0.39054894
45	0xbe2bc2d8	-0.16773546
46	0x3dd45e6f	0.10369574
47	0xbcf340fb	-0.029694071
48	0xbe115206	-0.14191446
49	0x3effbb6c	0.4994768
50	0xbe8978e4	-0.26850045
51	0x3f3f7bd6	0.74798334
52	0x3d00af88	0.0314174
53	0xbe1478b0	-0.14499164
54	0xbe58a5f9	-0.21157064
55	0x3edc516d	0.43030873
56	0xbdc29f10	-0.09502995
57	0xbeb669b7	-0.3562753
58	0xbe802c6e	-0.25033897
59	0xbe5c4f27	-0.21514569
60	0x3ebaa390	0.36452913
61	0xbf7facf0	-0.99873257
62	0x3ef9f890	0.4882245
63	0xbd85a343	-0.0652528
64	0x3efbab40	0.4915409
65	0xbd6ce477	-0.05783507
66	0xbf0731e2	-0.5281049
67	0x3ed9699a	0.4246338
68	0xbdd64148	-0.1046167
69	0xbe5317bc	-0.20614523
70	0x3eb16213	0.34645137
71	0xbf62cec5	-0.88596755
72	0x3e94e4d4	0.29080832
73	0xbe3057ea	-0.17221037
74	0x3d90fb55	0.07079188
75	0x3f3dba84	0.74112725
76	0x3f5806e2	0.843855
77	0xbe22d6e2	-0.15902284
78	0x3f025dc5	0.5092433
79	0x3e863e98	0.2621963
80	0x3dcf2db7	0.10116141
81	0xbd433267	-0.04765549
82	0xbe4e4185	-0.20142181
83	0x3de73105	0.112886466
84	0x3e44ef90	0.19232011
85	0x3e522fce	0.20526049
86	0x3e86d649	0.26335362
87	0x3cca76f6	0.024714928
88	0xbe529f16	-0.20568499
89	0xbe8bd1b1	-0.2730842
90	0xbe6c6f1d	-0.23089261
91	0x3c8d256f	0.017229764
92	0xb9b6760d	-0.000348017
93	0xbdc7b79f	-0.0975182
94	0xbeaf98da	-0.34296304
95	0xbe921218	-0.2852943
96	0x3e5b2f10	0.21404672
97	0x3da6df8c	0.08148107
98	0xbe76e7c2	-0.24111846
99	0xbd1be16b	-0.038056772
100	0xbee09ed4	-0.43871176
101	0xbc85756d	-0.016291345
102	0xbe2cfdea	-0.16893736
103	0xbd59309c	-0.053024873
104	0xbde362df	-0.111028425
105	0xbd89fa04	-0.0673714
106	0x3e484574	0.19557744
107	0xbe7ef049	-0.24896349
108	0x3dbde380	0.09271908
109	0x3ed9ac2a	0.42514163
110	0xbe71a43a	-0.23597804
111	0x3d88a730	0.066725135
112	0xbf01510e	-0.50514305
113	0xbba0b480	-0.00490433
114	0xbe6b842e	-0.22999641
115	0x3e298414	0.1655429
116	0xbf285747	-0.65758175
117	0xbdaf93ee	-0.08573137
118	0xbe8fad71	-0.28062013
119	0xbecc11ac	-0.39857233
120	0x3de100cf	0.10986482
121	0x3f5bd6b1	0.8587447
122	0xbdb57aa1	-0.0886128
123	0x3e2a8c76	0.16655144
124	0xbe6e7793	-0.23287801
125	0xbd2d2f53	-0.04228146
126	0x3eda0484	0.4258157
127	0xbe5656f2	-0.20931605
128	0xbdb6e028	-0.08929473
129	0x3e8a7ea2	0.27049738
130	0xbdb7bf4f	-0.08972036
131	0x3f7f3959	0.9969688
132	0x3db0344e	0.08603726
133	0x3e33807f	0.17529486
134	0x3d8c4226	0.06848554
135	0xbeef45d4	-0.46732962
136	0x3c99d7c5	0.018779645
137	0x3e612b6b	0.21989219
138	0x3e1eb0f4	0.1549719
139	0x3e1f7aed	0.15574236
140	0x3eddbabc	0.4330653
141	0xbf229ed8	-0.63523626
142	0x3e9f833d	0.31154814
143	0x3c8303ab	0.01599296
144	0x3ea9fbf6	0.33200043
145	0xbe1a196d	-0.15048762
146	0xbe06d1dc	-0.13165992
147	0x3f109dfd	0.5649107
148	0xbe0d0c0d	-0.13774128
149	0xbec82882	-0.39093405
150	0x3f0a799c	0.5409181
151	0xbf08ec38	-0.5348544
152	0x3ed08177	0.40723774
153	0xbdd61015	-0.10452286
154	0x3e3e3af6	0.1857718
155	0x3f15c1f1	0.58499056
156	0x3eff39fc	0.49848926
157	0x3e5ad9cd	0.21372147
158	0x3ec92c43	0.39291582
159	0x3f018722	0.5059682
160	0xbc8c6a33	-0.017140483
161	0x3e162de0	0.14665937
162	0xbe838b7a	-0.2569235
163	0x3db56048	0.08856255
164	0x3ca77764	0.020442672
165	0xbe39554a	-0.18098941
166	0x3dbe9601	0.09305955
167	0x3db1fe9e	0.086911425
168	0x3c8306c0	0.01599443
169	0xbd9677d2	-0.07347073
170	0xbdbca921	-0.09211946
171	0xbe641846	-0.22274885
172	0xbd94a1c6	-0.07257418
173	0x3de83d74	0.11339846
174	0xbe249735	-0.16073306
175	0xbdc28f20	-0.09499955
176	0xbdd27ee3	-0.10278108
177	0x3cc60ca4	0.02417595
178	0x3de1d6ee	0.11027323
179	0x3d746162	0.059663184
180	0xbd67e372	-0.056613393
181	0xbfb638d4	-1.4236093
182	0xbd307769	-0.04308263
183	0xbe389d13	-0.18028669
184	0x3d977316	0.07394998
185	0x3e3416d2	0.1758683
186	0xbf5cfdaa	-0.8632456
187	0x3e6984fc	0.22804636
188	0xbd2b80bb	-0.041870814
189	0xbe9f4dfa	-0.3111418
190	0xbbda8a8d	-0.0066693486
191	0xbf84b23a	-1.036689
192	0x3eaefdd9	0.34178045
193	0xbdd209de	-0.10255788
194	0xbaff8f6f	-0.0019497703
195	0x3e9135c2	0.28361326
196	0x3f6458b3	0.89197844
197	0xbf332768	-0.69982004
198	0x3df33ac8	0.11876446
199	0x3c13a9f4	0.009012688

linear_relu_stack.2.bias f4 [10]
0	0x3d9e4b0d	0.077291586
1	0x3e3e5f2c	0.18590993
2	0x3ed93a0e	0.42427105
3	0x3ec19f73	0.37816963
4	0xbddc12a3	-0.10745742
5	0xbdbf64b4	-0.093453795
6	0xbe717057	-0.2357801
7	0x3f19c6fa	0.6006924
8	0xbe839555	-0.2569987
9	0x3e8a4f6c	0.2701372

linear_relu_stack.4.weight f4 [1, 10]
0	0xbf083e18	-0.5321975
1	0x3ed77616	0.4208228
2	0x3f8fb816	1.1228054
3	0x3f1b0fef	0.6057119
4	0xbe237e8b	-0.15966241
5	0xbf23d232	-0.6399261
6	0xbf068191	-0.5254145
7	0x3efbb328	0.49160123
8	0xbe0f830c	-0.14014834
9	0x3f84a082	1.0361483
