BNN/model_state.pt (torch, 226817 bytes, 11 tensors)

lstm.weight_ih_l0 f4 [256, 14]
0.081967495 -0.013657209 -0.021972774 -0.14311838 0.20978147 0.12851381 0.06855369 0.120772116
0.35479084 0.09574508 0.0402909 0.12674944 -0.33673623 -0.076571934 -0.38839936 -0.42275378
-0.3798395 -0.34989986 0.06481113 0.13989335 -0.1626483 -0.1895989 -0.15409091 -0.047670633
-0.04746411 1.9826863e-05 -0.087056905 0.19133668 -0.3402812 -0.0353095 -0.31963196 0.236524
-0.08991832 -0.025891792 0.069381215 0.3473507 -0.21459179 0.0005441781 -0.08636368 -0.352927
0.3647015 0.040880892 -0.067680836 -0.07430556 -0.2661093 -0.04379504 0.36176187 0.07985204
-0.36573038 0.20972648 0.27518964 0.26952657 -0.11333791 -0.5322283 0.15932325 0.2149459
-0.13830812 0.026191246 0.0532758 0.03832132 0.10175789 -0.011434511 0.32520935 -0.34764826
0.061580393 0.01960073 0.21526814 -0.06965898 -0.083976105 -0.30596668 -0.78778243 -0.46207166
-0.60053587 0.27772194 -0.12894705 -0.18817703 -0.46922028 0.22068146 -0.26078373 -0.09218083
-0.30124763 -0.19844855 0.30340138 0.37094414 -0.24411997 -0.43782067 -0.23642074 -0.3872757
0.23361577 0.029598804 -0.015725905 0.11653899 0.0831309 -0.047959942 -0.10353324 -0.03110469
0.007204843 0.61592054 0.11610254 0.025248496 -0.41367126 -0.26714745 0.39770085 -0.038357366
-0.041296463 0.124754444 0.23050825 0.033680335 -0.10093891 -0.28828925 0.19169226 0.21856758
-0.053989857 0.03527918 0.054824922 -0.0031262434 0.06662756 -0.21424446 -0.1860213 -0.13021244
0.08243511 -0.27831656 -0.1105586 -0.001773759 0.07809216 -0.48966044 -0.25153518 -0.15365572
-0.43057138 0.14944673 -0.0934389 -0.25573346 -0.26073375 0.35179427 -0.21092616 -0.24422449
-0.039319154 -0.17279015 -0.05986331 0.14340763 -0.2885199 -0.14815107 -0.09313337 -0.29041624
0.11133366 0.36246818 0.06164378 -0.124310106 0.14202872 0.2820694 0.13304208 0.15068169
-0.03895454 -0.15573633 0.3885407 0.4828021 0.38219395 -0.22937267 0.1989431 0.21053605
0.21247262 -0.22110057 0.3946906 0.077452004 0.45507386 0.20365122 -0.101771735 -0.40617263
0.18384925 0.09630153 -0.0046916367 0.0068542524 0.2443587 0.0075431997 -0.013521393 0.1752254
0.3282659 0.07163475 0.19006722 -0.15427192 0.09956653 -0.14506775 -0.32876727 -0.30426693
-0.1500975 0.29697475 -0.20284356 -0.087566316 -0.3384983 0.28619772 -0.22460403 -0.062486008
-0.05449841 -0.06068882 -0.17321204 0.26594 -0.0011915124 0.12418358 0.13118464 -0.12489088
0.1561788 0.53283006 0.17023873 -0.0503405 0.27573842 0.5950171 0.15210968 0.36990014
-0.10835821 -0.10513126 0.08418346 0.36763802 0.1115274 -0.33825454 0.1492671 -0.3397948
0.19271488 -0.1556715 0.52345264 -0.3254238 0.036722977 0.2915638 -0.0590814 -0.5638207
-0.3280288 0.33623624 0.01454187 -0.38245726 0.18704218 -0.05306225 0.07281438 -0.35225832
0.052434362 0.059980877 0.111142464 -0.0901864 0.635167 -0.27792615 0.23288698 -0.014912352
-0.26116532 -0.3967135 0.27059034 0.01704283 0.15838198 0.108938426 0.6035095 0.03576754
0.030858375 -0.15173171 0.11745878 0.20403425 0.12438798 -0.020005705 -0.28478786 -0.024047865
00000000: 93de a73d 7dc2 5fbc 3f00 b4bc a08d 12be
00000010: f4d0 563e 2099 033e e165 8c3d 5f57 f73d
00000020: 25a7 b53e ff15 c43d 1208 253d 9bca 013e
00000030: b168 acbe bfd1 9cbd 48dc c6be 2f73 d8be
00000040: 537a c2be 1326 b3be b3bb 843d 3440 0f3e
00000050: 478d 26be 3726 42be 02ca 1dbe 4842 43bd
00000060: ba69 42bd dd51 a637 e44a b2bd c3ed 433e
00000070: 5639 aebe b2a0 10bd cda6 a3be 5933 723e
00000080: 1927 b8bd 061b d4bc bd17 8e3d f3d7 b13e
00000090: f3bd 5bbe 2da7 0e3a 71df b0bd d9b2 b4be
000000a0: 28ba ba3e b972 273d 409c 8abd 832d 98bd
000000b0: 7a3f 88be 6e62 33bd da38 b93e 7789 a33d
000000c0: 0341 bbbe 8ac2 563e a8e5 8c3e 63ff 893e
000000d0: b51d e8bd 1d40 08bf a225 233e c71a 5c3e
000000e0: a5a0 0dbe 068f d63c ba37 5a3d d1f6 1c3d
000000f0: 7166 d03d d157 3bbc d781 a63e f4fe b1be
00000100: b93b 7c3d b691 a03c 406f 5c3e 5ea9 8ebd
00000110: aafb abbd aaa7 9cbe 1cac 49bf a894 ecbe
00000120: b8bc 19bf 9231 8e3e b20a 04be 7bb1 40be
00000130: a43d f0be 52fa 613e 7285 85be 4ec9 bcbd
00000140: 213d 9abe 1936 4bbe 6d57 9b3e 64ec bd3e
00000150: 96fa 79be 082a e0be 4718 72be 0049 c6be
00000160: f938 6f3e 3179 f23c 9dd3 80bc feab ee3d
00000170: 8940 aa3d a571 44bd 3c09 d4bd 43cf febc
00000180: 9b16 ec3b f8ac 1d3f 2bc7 ed3d efd5 ce3c
00000190: b8cc d3be 8dc7 88be 729f cb3e 9d1c 1dbd
000001a0: 7b26 29bd 427f ff3d 5b0a 6c3e 64f4 093d
000001b0: 0fb9 cebd a69a 93be fa4a 443e 2ed0 5f3e
000001c0: 7824 5dbd e780 103d 1990 603d a9e1 4cbb
000001d0: 0874 883d e662 5bbe 5e7c 3ebe 6956 05be
000001e0: bdd3 a83d 827f 8ebe 8c6c e2bd 7a7d e8ba
000001f0: c8ee 9f3d c6b4 fabe 38c9 80be ed57 1dbe
00000200: da73 dcbe 9008 193e e55c bfbd 7fef 82be
00000210: e57e 85be 611e b43e 07fd 57be fc15 7abe
00000220: 1f0d 21bd e7ef 30be 3b33 75bd 73d9 123e
00000230: e1b8 93be eab4 17be b5bc bebd 70b1 94be
00000240: e702 e43d 6e95 b93e 307e 7c3d 4c96 febd
00000250: fa6f 113e 676b 903e 2f3c 083e 4d4c 1a3e
00000260: cc8e 1fbd 5879 1fbe ceee c63e d631 f73e
00000270: edae c33e abe0 6abe bdb7 4b3e c396 573e
00000280: 6c92 593e 3068 62be e314 ca3e 289f 9e3d
00000290: 71ff e83e f289 503e b36d d0bd dcf5 cfbe
000002a0: fa42 3c3e bd39 c53d 4dbc 99bb a399 e03b
000002b0: 2b39 7a3e f22c f73b d588 5dbc 4a6e 333e
000002c0: 7812 a83e 3db5 923d fba0 423e 75f9 1dbe
000002d0: 89e9 cb3d a48c 14be 2f54 a8be e0c8 9bbe
000002e0: 29b3 19be 130d 983e 39b6 4fbe f855 b3bd
000002f0: a64f adbe 8288 923e 99fe 65be 54f1 7fbd
00000300: ba39 5fbd d794 78bd 7f5e 31be 4a29 883e
00000310: 862c 9cba f653 fe3d 4455 063e cac6 ffbd
00000320: 56ed 1f3e 8d67 083f 1053 2e3e d731 4ebd
00000330: 962d 8d3e 0a53 183f a4c2 1b3e 8d63 bd3e
00000340: e9ea ddbd 0f4f d7bd 6168 ac3d 0d3b bc3e
00000350: 7a68 e43d b32f adbe 7ad9 183e 96f9 adbe
00000360: 0d57 453e 5a68 1fbe fe00 063f f39d a6be
00000370: d56a 163d da47 953e 57ff 71bd 8e56 10bf
00000380: 64f3 a7be 2827 ac3e 0641 6e3c 70d1 c3be
00000390: fc87 3f3e cd57 59bd b51f 953d 345b b4be
000003a0: 6ac5 563d 82ae 753d a99e e33d a6b3 b8bd
000003b0: 4e9a 223f 564c 8ebe ed79 6e3e f052 74bc
000003c0: 76b7 85be 081e cbbe d18a 8a3e 689d 8b3c
000003d0: e32e 223e 1c1b df3d 997f 1a3f fc80 123d
000003e0: b4ca fc3c 8f5f 1bbe 3b8e f03d 5bee 503e
000003f0: 20bf fe3d 01e3 a3bc b7cf 91be 0700 c5bc

lstm.weight_hh_l0 f4 [256, 64]
-0.06441295 -0.2817803 -0.20008753 -0.09547654 -0.11665235 -0.061660152 -0.17350645 0.1862064
0.19866896 -0.010487456 -0.083596416 -0.039128616 0.14940763 0.15503548 -0.075019374 0.0009749709
-0.0145577965 0.059823867 0.17474325 0.15337175 -0.06077731 -0.16958559 0.11955221 -0.10905452
-0.1057375 0.012987481 0.036255393 -0.061634462 0.21398763 -0.05994402 0.13503283 0.20081337
0.1612401 0.2535702 -0.012304706 -0.1120151 0.21665129 0.02742908 0.09704399 0.04470015
-0.26444924 0.22064438 -0.024561908 -0.030572884 0.16026612 0.053044964 -0.18938749 -0.14031988
0.18955112 -0.1489759 0.004092945 -0.22498251 -0.10275946 -0.2134182 -0.15904191 0.08900851
-0.11794314 -0.23405479 0.047176506 0.1697595 -0.047218543 0.0031831851 0.037817687 -0.23400848
0.03794894 0.02471345 -0.14438903 -0.19223195 -0.040102553 0.054608222 -0.29663184 0.14471333
-0.48219764 0.009992544 -0.15712948 -0.1710522 -0.17515022 -0.06549654 0.004830326 0.12625235
0.094043925 0.07292096 0.02130692 0.12097695 -0.148869 -0.08668341 -0.039556243 -0.10295272
0.06816946 0.21209379 0.17579444 -0.021976238 0.13975962 0.07395153 0.15150084 0.0077576
0.06849452 0.015213063 -0.087747775 0.024802351 -0.032890517 -0.02987424 0.067602254 0.01840836
0.045132935 -0.07000659 0.048830878 -0.07678744 0.008242887 -0.062019423 0.0874598 -0.009461209
0.003710928 0.14501883 0.0647256 -0.23850794 0.07144284 0.10945496 -0.15624799 0.09776395
-0.076213524 -0.012328976 0.051479526 -0.09184486 -0.005825513 0.14505316 -0.0130096255 0.045151576
-0.1315325 -0.04888412 0.00924089 0.055465065 0.04197613 0.4780524 0.13593568 -0.15802711
-0.16026305 0.10071945 0.03014038 -0.07138959 -0.0176555 0.015882844 -0.1387707 0.09117354
-0.09160381 0.16804071 0.14844765 0.06255399 0.028383264 -0.28735244 0.1331293 0.15250349
-0.028490722 0.03350349 -0.028699046 -0.26729488 -0.04763355 0.040395197 0.4297093 0.048686672
0.18923861 -0.064377435 0.23221704 0.1014255 0.036070734 -0.23689385 -0.055186957 0.22562414
0.12875666 -0.16148046 0.27131215 0.034729138 -0.0037818498 -0.03423179 0.11470305 0.07145073
-0.22155449 0.059503134 -0.24175574 0.2743392 -0.0675558 -0.06531035 0.052274305 0.54549986
-0.18593659 0.15469101 -0.05061198 0.13825919 0.41354027 -0.29992154 0.14151667 -0.4547999
-0.107584 -0.14614561 -0.018331088 -0.13617027 -0.22000705 -0.09966375 -0.024583403 0.15511124
-0.18118177 -0.19391295 -0.25936097 -0.12683144 -0.02745503 0.11649501 0.05286024 -0.10120688
-0.19369549 0.018734034 0.060571417 0.119062915 -0.04302186 0.052723024 0.14897308 -0.11304596
-0.027053023 0.17110772 -0.002093195 0.045634832 0.3330018 0.33090866 -0.03362398 -0.15289895
0.21495035 0.25841412 -0.22593866 -0.039772574 0.19447008 0.18676834 -0.046529062 -0.009039832
-0.058186293 0.047102515 0.14607686 0.20931293 -0.080213025 -0.08879228 0.029519135 0.06941753
-0.09573209 0.051662985 0.0060240217 0.11567427 0.06693189 -0.057508357 -0.16165614 0.023249464
0.010196379 -0.11595867 -0.014571401 0.24648267 -0.010707556 0.14461297 0.022549706 0.11148803
00000000: f0ea 83bd 8245 90be bfe3 4cbe 3489 c3bd
00000010: 6de7 eebd 5b8f 7cbd adab 31be e4ac 3e3e
00000020: e06f 4b3e 94d3 2bbc 9934 abbd 5445 20bd
00000030: 50fe 183e 9fc1 1e3e c2a3 99bd 3195 7f3a
00000040: d383 6ebc df09 753d e5ef 323e 7c0d 1d3e
00000050: a1f1 78bd d8a7 2dbe cad7 f43d fa57 dfbd
00000060: e78c d8bd 72c9 543c 8980 143d 6b74 7cbd
00000070: 931f 5b3e dc87 75bd 0c46 0a3e 05a2 4d3e
00000080: 201c 253e f4d3 813e ad99 49bc 2c68 e5bd
00000090: d6d9 5d3e f3b2 e03c 00bf c63d 8117 373d
000000a0: e465 87be 9af0 613e 0e36 c9bc fc73 fabc
000000b0: cd1c 243e ad45 593d cbee 41be 04b0 0fbe
000000c0: b019 423e 238d 18be 1c1e 863b d161 66be
000000d0: 8d73 d2bd 4d8a 5abe e2db 22be 184a b63d
000000e0: 2c8c f1bd 0fac 6fbe 273c 413d 6fd5 2d3e
000000f0: 3b68 41bd fc9c 503b b8e6 1a3d eb9f 6fbe
00000100: 5970 1b3d dc73 ca3c b8da 13be 74d8 44be
00000110: 9342 24bd dfac 5f3d 21e0 97be bb2f 143e
00000120: 9ce2 f6be c4b7 233c 8de6 20be 4f28 2fbe
00000130: 945a 33be 0d23 86bd b647 9e3b 4c48 013e
00000140: 1a9a c03d 9657 953d da8b ae3c c3c2 f73d
00000150: 1d71 18be 1287 b1bd ba05 22bd e0d8 d2bd
00000160: 6e9c 8b3d 1d2f 593e 7503 343e 8307 b4bc
00000170: 251d 0f3e e673 973d 0923 1b3e 7733 fe3b
00000180: db46 8c3d 3640 793c 1bb5 b3bd 4d2e cb3c
00000190: 35b8 06bd d2ba f4bc 0d73 8a3d 21cd 963c
000001a0: 50dd 383d 9d5f 8fbd e302 483d bc42 9dbd
000001b0: 2d0d 073c 1408 7ebd 201e b33d 3003 1bbc
000001c0: 0a33 733b d17f 143e db8e 843d 6d3b 74be
000001d0: a050 923d ec29 e03d 79ff 1fbe 7738 c83d
000001e0: d615 9cbd 79ff 49bc 32dc 523d 2819 bcbd
000001f0: f2e3 bebb d188 143e 5326 55bc dcf0 383d
00000200: 75b0 06be b73a 48bd 1a67 173c 562f 633d
00000210: 2aef 2b3d 49c3 f43e b932 0b3e dcd1 21be
00000220: ff1b 24be 0046 ce3d f5e8 f63c b534 92bd
00000230: 44a2 90bc bd1c 823c e819 0ebe 31b9 ba3d
00000240: c79a bbbd dd12 2c3e a902 183e 4e1c 803d
00000250: 0584 e83c dc1f 93be 0c53 083e e029 1c3e
00000260: 6065 e9bc f53a 093d 431a ebbc e0da 88be
00000270: 661b 43bd 6f75 253d db02 dc3e ad6b 473d
00000280: c4c7 413e 51d8 83bd 4eca 6d3e 2cb8 cf3d
00000290: e8be 133d 4d94 72be b80b 62bd 040a 673e
000002a0: c9d8 033e 225b 25be 6de9 8a3e 2440 0e3d
000002b0: e9d8 77bb a236 0cbd 6fe9 ea3d c354 923d
000002c0: 2edf 62be 8fb9 733d d18e 77be 3076 8c3e
000002d0: b25a 8abd 6fc1 85bd 951d 563d e1a5 0b3f
000002e0: 2966 3ebe 5267 1e3e 824e 4fbd d193 0d3e
000002f0: 8dbb d33e 518f 99be bfe9 103e 88db e8be
00000300: 0055 dcbd 32a7 15be 142b 96bc 3870 0bbe
00000310: 8749 61be 821c ccbd 2263 c9bc 7bd5 1e3e
00000320: b787 39be 1e91 46be f6ca 84be 1ae0 01be
00000330: 5fe9 e0bc f094 ee3d fb83 583d 8d45 cfbd
00000340: 1c58 46be 1e78 993c bc19 783d 42d7 f33d
00000350: b137 30bd 19f4 573d 668c 183e a484 e7bd
00000360: 4d9e ddbc dd36 2f3e fc2d 09bb 97eb 3a3d
00000370: 367f aa3e dc6c a93e 4cb9 09bd 8b91 1cbe
00000380: f21b 5c3e db4e 843e 775c 67be 91e8 22bd
00000390: 2a23 473e 3340 3f3e 4295 3ebd ce1b 14bc
000003a0: c054 6ebd 91ee 403d 2c95 153e 2156 563e
000003b0: ba46 a4bd bad8 b5bd 1dd2 f13c c72a 8e3d
000003c0: 300f c4bd 919c 533d 2865 c53b a2e6 ec3d
000003d0: 9613 893d e28d 6bbd 3089 25be a975 be3c
000003e0: b70e 273c bd7b edbd e3bc 6ebc f465 7c3e
000003f0: bf6e 2fbc 6c15 143e 29ba b83c d653 e43d

lstm.bias_ih_l0 f4 [256]
-0.3186536 -0.081975214 0.060424384 -0.13545369 0.091282904 -0.08741522 -0.008604416 -0.26440233
0.07544786 -0.148832 -0.22073957 -0.014719537 -0.14041892 -0.0554731 -0.43853223 -0.01964827
-0.10703762 -0.15278515 -0.1588289 0.036194388 -0.27775487 0.05693483 -0.0064067617 -0.0669123
0.06212747 0.020978313 0.34176168 0.027249362 -0.20809068 -0.0002497041 0.23282713 -0.17965767
-0.32684156 -0.24426407 0.030047674 -0.20309906 0.1871796 -0.11563245 -0.29564348 0.14875494
-0.07005503 -0.2211938 0.024515433 0.039239343 -0.17039286 0.009386599 0.026828703 0.00017201001
0.31306633 -0.015538064 0.0025440552 -0.14888996 0.17158945 0.13744296 -0.25352618 0.018790687
0.06186129 -0.06356931 0.08041519 -0.23843747 0.34046814 -0.1010346 0.3837741 0.0051426655
-0.14086634 -0.022568714 -0.14759614 0.1667514 -0.2522361 -0.10195093 0.38956705 -0.0063769673
0.059873525 -0.20046315 -0.17396593 -0.115028106 -0.45997933 -0.15283538 -0.17523241 -0.07584499
0.30533737 0.05709114 -0.040280625 -0.29444003 -0.02563258 -0.02433964 -0.17290969 0.01822767
-0.022830026 -0.18532847 -0.24071999 -0.3701066 -0.15619634 0.11919262 -0.077135935 0.2367723
-0.04158547 -0.23201595 -0.13643181 0.31473222 -0.32007426 -0.10887377 -0.09120382 -0.21096425
-0.09252586 -0.14359438 -0.2718922 0.22504543 -0.095619224 -0.17587398 -0.058517005 -0.17788827
-0.025590844 -0.1685735 -0.33245346 -0.28632975 0.28047928 0.122399375 -0.11912917 0.059405383
-0.082141116 -0.21749102 0.12534563 -0.061892588 -0.047493417 -0.17147256 -0.2289216 -0.22093798
-0.012019364 -0.03369643 -0.26242173 0.13168746 0.3081209 -0.28451857 0.0784316 -0.019786868
0.036702026 -0.2212361 0.041240066 -0.023020094 0.11619144 0.17094454 0.1170697 -0.06856595
0.110224545 0.12187823 -0.022089593 0.14351903 0.025192324 0.06538471 -0.2597492 -0.20417266
-0.1866443 0.13010503 -0.22027034 0.10664348 0.18881539 -0.14270563 -0.1123563 0.22418886
0.07984196 0.11824137 0.07906511 -0.11009201 0.12790059 0.18279848 -0.1654257 -0.3482092
-0.03440478 0.003992918 -0.24359156 0.061937794 0.07694718 0.37942636 -0.021974146 0.035497278
-0.106057785 -0.20700896 0.25659528 -0.02897105 0.02644858 -0.051529 0.12827557 -0.16504931
-0.25642312 -0.030230638 -0.12809566 0.09281488 0.00959193 0.18362445 -0.04982538 0.28974724
-0.34427214 -0.1297527 0.062118668 -0.1336455 0.083387874 -0.15233578 0.05392183 -0.16096324
0.13516666 -0.13917571 -0.082612365 -0.094939075 -0.20159063 -0.22876184 -0.20208986 -0.12529784
0.14294486 -0.1001165 -0.16062321 0.022995831 -0.14007415 -0.05977445 0.06218126 -0.17355372
0.15087692 -0.155741 0.36743027 -0.029682249 -0.3200749 0.18707119 0.26838154 0.08359613
-0.32542226 -0.14173785 0.07151967 0.057355616 0.068085305 -0.06571963 -0.21902706 0.03400926
0.037133332 -0.10181149 -0.07828926 0.06928426 -0.037724193 0.11448837 0.008087947 0.022388669
-0.010156362 -0.11640565 -0.015632909 -0.16411966 5.654455e-05 0.03701473 -0.13189165 0.03321462
-0.13950057 -0.22376588 0.11502425 -0.10389258 -0.07434429 -0.22611654 0.12836528 -0.15943643
00000000: 9126 a3be 9fe2 a7bd 8f7f 773d 5fb4 0abe
00000010: 88f2 ba3d c006 b3bd 89f9 0cbc be5f 87be
00000020: 6884 9a3d 6a67 18be 8e09 62be 372a 71bc
00000030: fac9 0fbe c337 63bd 4c87 e0be 69f5 a0bc
00000040: 8a36 dbbd b673 1cbe 0ba4 22be 9140 143d
00000050: e335 8ebe 7f34 693d d0ef d1bb 5109 89bd
00000060: 6079 7e3d b6da ab3c 63fb ae3e 0e3a df3c
00000070: b915 55be b8ea 82b9 3c6a 6e3e 2ef8 37be
00000080: c757 a7be 5c20 7abe 8a26 f63c 33f9 4fbe
00000090: 02ac 3f3e b5d0 ecbd 955e 97be 3753 183e
000000a0: 0379 8fbd a180 62be 97d4 c83c 6fb9 203d
000000b0: 777b 2ebe 40ca 193c dec7 db3c 965d 3439
000000c0: 3b4a a03e 5d93 7ebc 2aba 263b 9c76 18be
000000d0: 25b5 2f3e d9bd 0c3e 2fce 81be edee 993c
000000e0: 4462 7d3d a030 82bd b8b0 a43d f428 74be
000000f0: d751 ae3e 3aeb cebd 0a7e c43e ce83 a83b
00000100: 443f 10be 06e2 b8bc 7123 17be e1c0 2a3e
00000110: 1725 81be a6cb d0bd 5575 c73e e1f5 d0bb
00000120: f13d 753d 3646 4dbe 2024 32be db93 ebbd
00000130: 6982 ebbe e180 1cbe 2070 33be 9e54 9bbd
00000140: 2e55 9c3e 66d8 693d 4cfd 24bd d8c0 96be
00000150: 6bfb d1bc ed63 c7bc 3d0f 31be 3252 953c
00000160: 0906 bbbc bfc6 3dbe 4d7f 76be 9d7e bdbe
00000170: eff1 1fbe 431b f43d 72f9 9dbd 7074 723e
00000180: 8755 2abd 9795 6dbe c8b4 0bbe 9524 a13e
00000190: c6e0 a3be 36f9 debd 12c9 babd 0307 58be
000001a0: 337e bdbd 680a 13be 7435 8bbe 4f72 663e
000001b0: 03d4 c3bd 4f18 34be 87af 6fbd 5828 36be
000001c0: e4a3 d1bc 889e 2cbe 5737 aabe d099 92be
000001d0: fb9a 8f3e 86ac fa3d fff9 f3bd 0f53 733d
000001e0: 9a39 a8bd f7b5 5ebe 9b5a 003e 1583 7dbd
000001f0: 7588 42bd 8196 2fbe 6d6a 6abe 913d 62be
00000200: deec 44bc 4505 0abd 245c 86be 14d9 063e
00000210: 06c2 9d3e 6bac 91be bfa0 a03d 1218 a2bc
00000220: dd54 163d b78b 62be 58eb 283d a394 bcbc
00000230: c7f5 ed3d 160c 2f3e 3dc2 ef3d 4e6c 8cbd
00000240: 68bd e13d 4b9b f93d 3cf5 b4bc a7f6 123e
00000250: 2260 ce3c 6be8 853d d9fd 84be a312 51be
00000260: af1f 3fbe 413a 053e 8c8e 61be e667 da3d
00000270: d258 413e 6d21 12be 0f1b e6bd c491 653e
00000280: 2e84 a33d 8828 f23d e3ec a13d eb77 e1bd
00000290: 5ff8 023e 862f 3b3e 5b65 29be 7a48 b2be
000002a0: 07ec 0cbd 06d7 823b 1170 79be 7cb2 7d3d
000002b0: 7c96 9d3d 2c44 c23e 2003 b4bc 9865 113d
000002c0: d334 d9bd 28fa 53be 7560 833e b254 edbc
000002d0: b1aa d83c 1310 53bd ac5a 033e b002 29be
000002e0: e449 83be 3ea6 f7bc 822b 03be ba15 be3d
000002f0: 7827 1d3c 0c08 3c3e b315 4cbd c059 943e
00000300: 7044 b0be e4dd 04be 2570 7e3d 5eda 08be
00000310: 43c7 aa3d e9fd 1bbe 23dd 5c3d 8cd3 24be
00000320: 2169 0a3e 1484 0ebe ac30 a9bd 6b6f c2bd
00000330: c66d 4ebe 8b40 6abe a5f0 4ebe 144e 00be
00000340: 2360 123e e109 cdbd 697a 24be c161 bc3c
00000350: 996f 0fbe 0ed6 74bd c7b1 7e3d 11b8 31be
00000360: 7b7f 1a3e 927a 1fbe d21f bc3e 3028 f3bc
00000370: dbe0 a3be 978f 3f3e 4e69 893e 7334 ab3d
00000380: bf9d a6be ba23 11be e878 923d b9ed 6a3d
00000390: 4f70 8b3d 0398 86bd a148 60be 4b4d 0b3d
000003a0: 1f19 183d 8b82 d0bd 1f56 a0bd e8e4 8d3d
000003b0: af84 1abd e178 ea3d 4f83 043c 7168 b73c
000003c0: df66 26bc 1666 eebd 9610 80bc fc0e 28be
000003d0: 402a 6d38 c29c 173d 9b0e 07be 0e0c 083d
000003e0: 3dd9 0ebe e222 65be d591 eb3d a2c5 d4bd
000003f0: d241 98bd 188b 67be 3072 033e 4e43 23be

lstm.bias_hh_l0 f4 [256]
-0.32977864 -0.1613354 0.14144358 -0.27946246 0.14640823 0.08896443 0.031717893 -0.15766405
0.15287954 -0.111865744 -0.31533143 -0.047052488 -0.103492185 -0.06265727 -0.51857823 -0.14408691
-0.078186005 -0.12920408 -0.06991094 0.17303084 -0.16523276 0.06613066 -0.018586988 -0.12703273
0.20420057 -0.07330936 0.24785098 -0.1089246 -0.086771004 -0.00731957 0.1837709 -0.27459043
-0.20963381 -0.16665742 -0.0325344 -0.085557014 0.057014775 -0.08983282 -0.18134497 0.13368563
0.12997966 -0.118205816 0.06922375 0.037429664 -0.25014204 0.118079975 0.067644686 -0.029393215
0.25461495 0.04732704 0.0049254643 -0.27674308 0.10733693 0.04441904 -0.11876927 0.22043848
0.00862407 -0.0909259 0.043511946 -0.23045602 0.34195176 0.052164577 0.17143422 0.028818145
-0.17135742 -0.15991986 -0.3055355 0.13927625 -0.37774515 -0.22180389 0.43233564 -0.05536406
0.107179046 -0.05357538 -0.06853074 -0.03484 -0.46050355 -0.04276828 -0.11693591 -0.18957333
0.4933266 -0.048211843 -0.08006715 -0.25356457 0.13347399 -0.15017597 -0.1458031 -0.14576723
0.008074108 -0.2192653 -0.18566091 -0.3474252 -0.25832412 0.2710316 -0.11637336 0.40982908
-0.25699586 -0.2109882 -0.24999015 0.11228734 -0.20541465 -0.14866973 0.015078004 -0.2558442
0.05910792 -0.2155953 -0.2752074 0.29078615 -0.11646771 -0.058862682 -0.047280118 -0.1604062
-0.115686476 -0.16630441 -0.17805932 -0.4803837 0.2948577 0.108349845 -0.10594294 0.0034635626
-0.100533426 -0.360558 0.09448904 -0.12047408 -0.17687865 -0.10800038 -0.30734742 -0.20821415
-0.055972338 -0.016513761 -0.15862001 -0.057574794 0.3360572 -0.23385455 0.014788731 0.0880267
0.15501074 -0.20386244 -0.18308954 0.053229485 0.105720855 0.071978144 0.016044784 -0.01730093
-0.06197319 -0.064892255 0.17484143 0.1822261 0.039978903 0.20079485 -0.28351423 -0.0248223
-0.1741985 0.23225735 -0.22977147 0.24200742 0.028720574 -0.062792204 -0.1839435 0.032908544
-0.08234398 -0.034282852 0.2852884 0.013758358 0.1107938 0.07222764 -0.02988074 -0.14174052
-0.020577837 0.024065694 -0.2921068 0.016449092 0.0879025 0.15927722 -0.11860847 -0.18287368
0.03421971 -0.0062342007 0.26448283 -0.08610915 0.036630586 -0.17715172 -0.0036360156 -0.11726102
-0.14106673 0.017246984 -0.15216917 0.08200003 -0.13028626 0.30149248 -0.106320046 0.116535895
-0.21160263 -0.07132872 0.0241252 -0.17677546 -0.027400613 -0.116127685 0.06926726 -0.31209928
0.12016919 -0.0774358 -0.31465068 -0.033099666 -0.10245771 -0.09737239 -0.25735462 -0.17496347
0.36221528 -0.15549196 -0.21711668 0.05043574 -0.015400819 -0.1674764 -0.042817537 -0.09256879
0.17603956 0.026526254 0.42504913 0.120300576 -0.30051294 0.09336632 0.16642104 0.080199786
-0.24624823 -0.13312295 0.105225384 -0.10418262 0.20497899 -0.09480284 -0.08180851 0.066701494
-0.13445807 -0.26276055 -0.06904479 -0.0116558 -0.13352594 0.03888042 -0.03910696 -0.047840714
0.058291778 -0.009543032 -0.02453745 -0.288649 0.086238906 0.12760577 0.024557685 0.12471465
-0.027627714 -0.1998815 0.06546979 -0.1624237 0.0671378 -0.075769335 0.24761754 -0.12759241
00000000: bfd8 a8be 1b35 25be 96d6 103e b415 8fbe
00000010: 0aec 153e fc32 b63d 9fea 013d af72 21be
00000020: 748c 1c3e de19 e5bd 1f73 a1be 1cba 40bd
00000030: b6f3 d3bd 7452 80bd 8bc1 04bf 858b 13be
00000040: fc1f a0bd 134e 04be 782d 8fbd ff2e 313e
00000050: c732 29be 836f 873d bd43 98bc de14 02be
00000060: f419 513e 3823 96bd a6cc 7d3e dc13 dfbd
00000070: ffb4 b1bd 01d9 efbb 702e 3c3e 1e97 8cbe
00000080: 3faa 56be 3ea8 2abe ca42 05bd 8438 afbd
00000090: 5388 693d 45fa b7bd 7fb2 39be e3e4 083e
000000a0: 6319 053e e415 f2bd 2ec5 8d3d d94f 193d
000000b0: 9e12 80be ead3 f13d 4c89 8a3d 0aca f0bc
000000c0: e45c 823e 00da 413d ca65 a13b 45b1 8dbe
000000d0: 77d3 db3d bdf0 353d 4e3d f3bd a0ba 613e
000000e0: f94b 0d3c 5c37 babd 9539 323d aafc 6bbe
000000f0: 4d14 af3e 86aa 553d 748c 2f3e 0814 ec3c
00000100: 5278 2fbe 08c2 23be 266f 9cbe 6f9e 0e3e
00000110: d067 c1be 8f20 63be 195b dd3e 6dc5 62bd
00000120: b080 db3d dc71 5bbd d859 8cbd 63b4 0ebd
00000130: 1fc7 ebbe cb2d 2fbd 187c efbd 831f 42be
00000140: 4e95 fc3e c879 45bd 3ffa a3bd 37d3 81be
00000150: 68ad 083e bbc7 19be 684d 15be 0144 15be
00000160: 4349 043c 1587 60be e51d 3ebe b7e1 b1be
00000170: 0f43 84be a7c4 8a3e 2855 eebd 1ed5 d13e
00000180: f694 83be 4a0d 58be 6bfd 7fbe e8f6 e53d
00000190: 3858 52be e13c 18be bc09 773c 03fe 82be
000001a0: 251b 723d 04c5 5cbe fce7 8cbe ece1 943e
000001b0: 9f86 eebd ff19 71bd cca8 41bd 8641 24be
000001c0: 08ed ecbd b44b 2abe 2f55 36be daf4 f5be
000001d0: 97f7 963e 86e6 dd3d 9df8 d8bd f0fc 623b
000001e0: 78e4 cdbd 0f9b b8be 7883 c13d 1dbb f6bd
000001f0: ad1f 35be 4e2f ddbd a45c 9dbe 1736 55be
00000200: 4043 65bd de47 87bc 496d 22be 8cd3 6bbd
00000210: b00f ac3e 9177 6fbe 6f4c 723c 5847 b43d
00000220: 23bb 1e3e 51c1 50be d37b 3bbe 2907 5a3d
00000230: 2d84 d83d 4769 933d 5a70 833c aeba 8dbc
00000240: 9ad7 7dbd 3be6 84bd a209 333e 7b99 3a3e
00000250: ebc0 233d 2a9d 4d3e c728 91be 2358 cbbc
00000260: 1761 32be dfd4 6d3e 3649 6bbe cbd0 773e
00000270: 6947 eb3c 3399 80bd af5b 3cbe 1ccb 063d
00000280: f6a3 a8bd 2d6c 0cbd 5211 923e bc6a 613c
00000290: dce7 e23d 16ec 933d 74c8 f4bc 6d24 11be
000002a0: da92 a8bc 6b25 c53c 068f 95be 3fc0 863c
000002b0: 3a06 b43d 9119 233e ffe8 f2bd 3d43 3bbe
000002c0: f729 0c3d 4448 ccbb 4b6a 873e fe59 b0bd
000002d0: f409 163d 4367 35be 384a 6ebb 8c26 f0bd
000002e0: cc73 10be 8c49 8d3c 3cd2 1bbe a2ef a73d
000002f0: c369 05be 395d 9a3e 53be d9bd 5faa ee3d
00000300: 5cae 58be cb14 92bd 36a2 c53c a004 35be
00000310: 4077 e0bc 5ad4 edbd fedb 8d3d 7acb 9fbe
00000320: 441b f63d a996 9ebd e519 a1be 8493 07bd
00000330: 59d5 d1bd 2d6b c7bd fcc3 83be a029 33be
00000340: 4874 b93e 4939 1fbe d653 5ebe b595 4e3d
00000350: b753 7cbc ef7e 2bbe 7161 2fbd b594 bdbd
00000360: b743 343e 964d d93c 0aa0 d93e 2660 f63d
00000370: d5dc 99be d736 bf3d 476a 2a3e c93f a43d
00000380: 7f28 7cbe 6251 08be 6880 d73d b35d d5bd
00000390: 03e6 513e fe27 c2bd 388b a7bd cb9a 883d
000003a0: 60af 09be 8d88 86be 5b67 8dbd f8f7 3ebc
000003b0: 06bb 08be 1341 1f3d 9f2e 20bd a0f4 43bd
000003c0: 5cc3 6e3d 615a 1cbc c302 c9bc cdc9 93be
000003d0: 069e b03d 16ab 023e 332d c93c 656a ff3d
000003e0: 8453 e2bc bcad 4cbe 0615 863d 6652 26be
000003f0: 8b7f 893d f42c 9bbd 748f 7d3e 96a7 02be

lstm.weight_ih_l1 f4 [256, 64]
-0.058838774 -0.06999131 0.123965755 -0.15764695 0.01827922 0.035755757 0.010686925 -0.057837237
-0.13759954 -0.10575302 -0.20310988 -0.20788814 -0.12350497 0.005952238 -0.069716185 -0.04195979
-0.2708497 -0.019639589 -0.062411476 0.13356109 -0.36451647 0.06008789 0.4142068 0.11469175
-0.06645045 0.1303858 -0.20456658 0.28011099 0.1175032 0.26334426 0.13845928 -0.26740295
0.15114589 0.008752048 -0.14500816 -0.16852726 0.07671895 0.00954477 -0.1389473 -0.0074165817
0.12465308 -0.3764507 -0.008775089 0.11607117 -0.090656765 -0.06781401 0.043764126 -0.09093276
-0.24883999 0.04040733 -0.25539795 -0.096949525 -0.017095612 -0.14547126 -0.21302612 -0.16470222
-0.15788367 -0.04285603 -0.06851731 0.11350233 -0.053065468 0.0719569 -0.081207424 -0.0729722
0.42054105 0.32728693 0.061680652 -0.0024677333 -0.092664205 0.039816983 -0.111917675 0.009945807
-0.25017166 0.22649485 0.29637486 -0.091545075 0.02808487 -0.14944047 0.020974463 0.19663411
-0.09487279 -0.04263356 -0.16723251 -0.27801245 -0.23360096 -0.054521598 0.16148187 0.031029679
0.14569746 -0.09995004 0.2429054 -0.050861895 -0.25492772 0.10750845 -0.23148988 0.042996366
-0.050346185 -0.14676937 0.09207257 0.07344744 -0.18466215 -0.2756452 -0.019421894 0.06579098
0.14557444 0.10833542 0.06320125 -0.17749143 0.051657315 0.022054225 0.039464794 -0.047814082
-0.087626055 -0.08165199 0.099466495 0.08270739 -0.19875576 0.4110691 -0.18309917 -0.08797842
0.13501424 0.26972845 0.30421442 -0.19967124 0.13840215 -0.021896997 -0.09423244 0.10077846
0.37298927 0.008975623 0.03768671 -0.23934536 0.047048174 -0.043257747 -0.06601306 0.14336798
0.034608677 0.13837758 0.050915077 -0.030703519 0.30186048 0.055931926 0.062482487 0.177716
0.3480933 -0.17686267 -0.09807581 -0.111275256 0.07863374 0.19740784 0.05186305 -0.17785347
-0.08195846 0.094912276 0.0029889501 0.14790127 -0.18565224 0.048477232 -0.14405738 0.09883908
-0.14224535 -0.2342886 0.112049274 -0.007929708 0.19083011 -0.039150357 0.14534095 0.08720993
0.04423068 0.1503325 -0.042004794 -0.23695187 -0.10871887 -0.13273306 -0.18806306 -0.032381553
0.19892308 -0.093057305 0.2805314 0.0006649439 -0.062475167 0.13130051 0.14082667 0.12477206
0.1750709 0.14756477 -0.12539986 -0.083965056 -0.20758966 0.0993487 0.12648818 -0.01389858
0.4008289 0.10273249 0.012673092 -0.12210369 0.21635821 -0.09500782 0.03193021 0.124585256
0.13825414 0.076363824 0.1417306 -0.037779067 0.15962869 -0.03448717 -0.119355746 0.055328414
0.04525273 -0.19352007 -0.16780148 -0.21448006 -0.07027259 0.15719791 0.00032722618 0.14510573
0.27709898 0.07062684 0.17382587 0.0561723 -0.032786217 0.032394502 -0.10018447 0.02278388
-0.059417855 -0.06611057 0.012540117 0.21470656 -0.063682385 -0.028899077 -0.08449805 0.24950217
0.109923586 0.18983074 -0.050277352 -0.14152217 0.11936974 -0.042400964 -0.10629256 0.041481175
-0.054859437 -0.1660638 0.24087556 -0.12524697 -0.14888673 0.14708717 -0.039203547 -0.024211662
0.10730795 0.23239617 0.07370578 -0.25717765 0.038846485 -0.00414286 0.049639758 0.20803487
00000000: ed00 71bd 9b57 8fbd c2e1 fd3d 346e 21be
00000010: 4ebe 953c a174 123d 3618 2f3c bde6 6cbd
00000020: e5e6 0cbe 0a95 d8bd 09fc 4fbe a1e0 54be
00000030: 2cf0 fcbd fe0a c33b 5cc7 8ebd 07de 2bbd
00000040: d0ac 8abe 34e3 a0bc 2da3 7fbd 3dc4 083e
00000050: e7a1 babe b81e 763d ea12 d43e 82e3 ea3d
00000060: 2c17 88bd db83 053e e779 51be b56a 8f3e
00000070: 85a5 f03d 0fd5 863e 45c8 0d3e 0ae9 88be
00000080: fdc5 1a3e c064 0f3c 057d 14be 6992 2cbe
00000090: d31e 9d3d ab61 1c3c 3348 0ebe cc06 f3bb
000000a0: 1d4a ff3d 25be c0be 64c5 0fbc b9b6 ed3d
000000b0: 41aa b9bd 12e2 8abd 0342 333d f43a babd
000000c0: e9cf 7ebe 2882 253d 85c3 82be 798d c6bd
000000d0: 190c 8cbc 6bf6 14be 8523 5abe b3a7 28be
000000e0: 42ac 21be ce89 2fbd ce52 8cbd e973 e83d
000000f0: 2d5b 59bd 245e 933d 1450 a6bd 7372 95bd
00000100: 2851 d73e 2792 a73e daa4 7c3d b2b9 21bb
00000110: bbc6 bdbd 2217 233d 1835 e5bd bdf3 223c
00000120: 8016 80be 44ee 673e 72be 973e fc7b bbbd
00000130: 3e12 e63c ec06 19be a3d2 ab3c 745a 493e
00000140: aa4c c2bd 87a0 2ebd 003f 2bbe a657 8ebe
00000150: 1735 6fbe 0a52 5fbd 815b 253e f431 fe3c
00000160: b731 153e 9bb2 ccbd 31bc 783e 9054 50bd
00000170: e385 82be 642d dc3d af0b 6dbe f51c 303d
00000180: cd37 4ebd b64a 16be 8b90 bc3d 9d6b 963d
00000190: 1318 3dbe 5e21 8dbe aa1a 9fbc 6cbd 863d
000001a0: 7711 153e f6de dd3d a86f 813d 50c0 35be
000001b0: 9f96 533d 10ab b43c d6a5 213d b3d8 43bd
000001c0: 4a75 b3bd 2939 a7bd 17b5 cb3d 7e62 a93d
000001d0: a186 4bbe a677 d23e 597e 3bbe 082e b4bd
000001e0: 2c41 0a3e d919 8a3e fec1 9b3e 9e76 4cbe
000001f0: 4bb9 0d3e 5561 b3bc f0fc c0bd f064 ce3d
00000200: 73f8 be3e 7e0e 133c 615d 1a3d f316 75be
00000210: 96b5 403d 092f 31bd db31 87bd 0ecf 123e
00000220: d4c1 0d3d dab2 0d3e 548c 503d f285 fbbc
00000230: 758d 9a3e e018 653d a3ed 7f3d 2ffb 353e
00000240: 4939 b23e 7d1b 35be f8db c8bd 48e4 e3bd
00000250: ba0a a13d 4825 4a3e 596e 543d 381f 36be
00000260: d6d9 a7bd 5e61 c23d 43e2 433b 6e73 173e
00000270: 9f1b 3ebe 1090 463d c783 13be 256c ca3d
00000280: c4a8 11be 5ae9 6fbe 177a e53d 9beb 01bc
00000290: f868 433e 205c 20bd 42d4 143e 1f9b b23d
000002a0: 3b2b 353d c3f0 193e 380d 2cbd 83a3 72be
000002b0: 00a8 debd 2deb 07be 9a93 40be 85a2 04bd
000002c0: 7eb2 4b3e d494 bebd d0a1 8f3e a14f 2e3a
000002d0: f6e5 7fbd a473 063e de34 103e 7e88 ff3d
000002e0: c945 333e 381b 173e d268 00be dff5 abbd
000002f0: 6292 54be 5577 cb3d 1e86 013e dfb6 63bc
00000300: 7239 cd3e 6965 d23d cda2 4f3c 8011 fabd
00000310: 028d 5d3e 7693 c2bd 40c9 023d 8e26 ff3d
00000320: 7e92 0d3e a364 9c3d d421 113e 39be 1abd
00000330: b475 233e 6b42 0dbd c970 f4bd 0ca0 623d
00000340: ed5a 393d 202a 46be 27d4 2bbe a9a0 5bbe
00000350: 13eb 8fbd 7df8 203e 8e8f ab39 9996 143e
00000360: ebdf 8d3e cea4 903d 69ff 313e ed14 663d
00000370: d74a 06bd 19b0 043d 842d cdbd 42a5 ba3c
00000380: 2360 73bd fb64 87bd 1075 4d3c 09dc 5b3e
00000390: e96b 82bd c2bd ecbc 500d adbd 7f7d 7f3e
000003a0: 9e1f e13d fd62 423e a0ef 4dbd 30eb 10be
000003b0: 1f78 f43d a2ac 2dbd eaaf d9bd 2ae8 293d
000003c0: 4ab4 60bd a10c 2abe 15a8 763e be40 00be
000003d0: c375 18be 059e 163e e693 20bd 8957 c6bc
000003e0: 45c4 db3d 43f9 6d3e 0ef3 963d caac 83be
000003f0: 7e1d 1f3d d4c0 87bb 0f53 4b3d 1807 553e

lstm.weight_hh_l1 f4 [256, 64]
0.3291695 0.043144535 0.13310856 -0.053587027 -0.0064172526 0.03278145 0.041010793 -0.11666651
0.048408438 0.0932236 0.23776768 -0.06427248 0.015512855 0.011721859 0.032216147 0.068764105
0.18706164 -0.0012542368 0.006686463 0.15415902 0.027255276 -0.124272205 -0.117475234 0.073324434
-0.044916272 -0.083779626 0.08223836 -0.21681744 0.057903036 0.019744433 -0.071615234 0.0011966286
0.18846431 0.122214474 -0.10056938 -0.043190353 0.0121263005 -0.050361678 0.08073206 -0.25114873
-0.09315653 -0.07283443 -0.0024966383 -0.0051221643 0.029951664 -0.07537921 0.11867812 0.25691375
-0.04255356 -0.0004047627 0.0012839396 0.1244942 0.0244701 0.0086885635 0.060237557 -0.10987888
0.064116955 0.025069697 0.09996065 -0.115368485 -0.079402365 -0.12011859 0.061350755 -0.046498574
0.28088355 0.0281954 0.31059128 -0.20481214 0.275877 0.086600125 -0.2985971 0.2719418
-0.056313526 -0.015726686 -0.042361986 0.08846118 0.26639065 0.035200723 0.033942338 -0.23416196
-0.30984363 -0.045116942 0.100269906 -0.012677024 0.21090354 -0.15532704 0.23427528 0.08823179
-0.088403635 0.3229418 -0.14527817 0.0085571045 0.004125336 0.05416985 0.011352851 0.32586712
-0.06502433 -0.20002379 0.12233852 0.22011906 -0.018027795 -0.06406919 0.12995222 -0.016736727
-0.098227225 0.110829905 -0.17573123 -0.0931736 0.03390295 -0.08497854 0.19454661 -0.18402858
0.2881263 -0.11806403 -0.1351186 0.10311262 0.22872797 0.007521765 0.22405955 -0.2875311
-0.1380151 0.023249248 0.12464298 -0.07330814 0.18820813 -0.08065319 -0.023922225 -0.09712365
0.17999332 0.16492668 0.10119971 -0.0905517 0.2059565 0.19442962 -0.24230266 0.20177017
-0.07662582 0.0028678523 0.012244419 0.11549356 0.15424773 0.21253729 -0.06580403 -0.18495247
0.059808567 0.10290773 0.07573567 0.0086351335 0.28838077 -0.09779295 0.21359856 -0.15211096
-0.223394 0.17574634 -0.25977397 0.015193498 0.022971515 -0.10215533 0.030860294 0.14028838
0.010869398 -0.21462785 0.19789268 0.2846861 0.03256674 0.07795559 0.1027744 0.16149542
-0.29160935 0.108664334 -0.2129943 -0.14106989 -0.051293477 -0.13544662 0.15194997 -0.09127627
0.09535437 -0.11545773 -0.18691887 0.16450767 0.12471812 0.06693409 0.066209495 -0.25611812
-0.22840354 0.13934499 0.22176458 -0.17692609 0.1613581 -0.2303492 -0.10722094 -0.09628361
0.24722075 0.1493205 0.23112436 -0.2843336 0.24588147 -0.00289324 -0.1583735 0.29933473
-0.20465744 0.036132354 0.013101954 -0.048480317 0.2682795 0.13983203 0.0027090742 -0.29775712
0.024420964 -0.14633842 0.0651226 -0.070566274 0.08900811 -0.117080964 0.2616841 -0.09975401
-0.10320742 0.204612 -0.15417339 0.13368614 0.1859237 -0.03927542 0.17437264 0.111741334
-0.05989584 -0.09977431 0.13179293 0.12658916 0.11188457 0.033567738 0.2694423 0.05757847
-0.06735533 0.08281456 -0.29740506 -0.11887746 0.11907189 -0.03971321 0.17737085 0.0012261047
0.1719803 -0.14807422 -0.12809414 0.14306356 0.32120413 0.091956764 0.09195025 -0.17388439
-0.2470505 0.21733685 0.20509024 -0.25394988 0.16765618 -0.19798252 -0.03936889 -0.11849982
00000000: e888 a83e 53b8 303d 9c4d 083e 127e 5bbd
00000010: d147 d2bb d745 063d effa 273d daee eebd
00000020: ed47 463d 04ec be3d 5f79 733e 4aa1 83bd
00000030: a129 7e3c 0a0d 403c 14f5 033d 32d4 8c3d
00000040: 168d 3f3e 3465 a4ba 1e1a db3b dddb 1d3e
00000050: 7546 df3c 6d82 febd db96 f0bd 1f2b 963d
00000060: 20fa 37bd a794 abbd 966c a83d 6405 5ebe
00000070: bc2b 6d3d 14bf a13c 02ab 92bd 31d8 9c3a
00000080: cafc 403e 954b fa3d 52f7 cdbd 5ee8 30bd
00000090: 64ad 463c 0c48 4ebd da56 a53d 9196 80be
000000a0: dac8 bebd 382a 95bd a49e 23bb d4d7 a7bb
000000b0: 315d f53c 6a60 9abd 840d f33d 338a 833e
000000c0: a44c 2ebd 5436 d4b9 dd49 a83a d1f6 fe3d
000000d0: 8575 c83c 7a5a 0e3c a8bb 763d 2e08 e1bd
000000e0: c04f 833d f75e cd3c 2bb8 cc3d 5046 ecbd
000000f0: b59d a2bd bc00 f6bd ee4a 7b3d 4a75 3ebd
00000100: f8cf 8f3e 0afa e63c d205 9f3e 46ba 51be
00000110: c03f 8d3e 685b b13d b8e1 98be f53b 8b3e
00000120: 03a9 66bd 40d5 80bc c383 2dbd 232b b53d
00000130: 5b64 883e a22e 103d 1f07 0b3d 27c8 6fbe
00000140: d3a3 9ebe 8bcc 38bd 4f5a cd3d 4bb3 4fbc
00000150: 19f7 573e 0d0e 1fbe dce5 6f3e deb2 b43d
00000160: f70c b5bd a158 a53e cdc3 14be 1933 0c3c
00000170: d42d 873b 34e1 5d3d 4f01 3a3c 0ed8 a63e
00000180: 7a2b 85bd 09d3 4cbe 9e8c fa3d e466 613e
00000190: 07af 93bc b536 83bd 3212 053e 761b 89bc
000001a0: 5b2b c9bd cafa e23d e3f2 33be cdd1 bebd
000001b0: d2dd 0a3d 3b09 aebd 3a37 473e fd71 3cbe
000001c0: 4a85 933e 8ecb f1bd 885c 0abe b62c d33d
000001d0: aa37 6a3e 2379 f63b de6f 653e 4737 93be
000001e0: d553 0dbe 3575 be3c d244 ff3d 9422 96bd
000001f0: a2b9 403e 802d a5bd 8bf8 c3bc c4e8 c6bd
00000200: 2b50 383e 8ae2 283e cb41 cf3d 2b73 b9bd
00000210: 43e6 523e 8f18 473e 301e 78be d79c 4e3e
00000220: ffed 9cbd 94f2 3b3b d19c 483c e387 ec3d
00000230: 1ef3 1d3e 60a3 593e 43c4 86bd 2e64 3dbe
00000240: d4f9 743d 4ac1 d23d 4e1b 9b3d 607a 0d3c
00000250: a5a6 933e ac47 c8bd 95b9 5a3e fac2 1bbe
00000260: 66c1 64be d9f6 333e 1801 85be 26ee 783c
00000270: c22e bc3c d036 d1bd bace fc3c c2a7 0f3e
00000280: 8f15 323c 67c7 5bbe 61a4 4a3e 60c2 913e
00000290: b464 053d 2ea7 9f3d 627b d23d 0e5f 253e
000002a0: d24d 95be 688b de3d 2e1b 5abe a074 10be
000002b0: 1c19 52bd 85b2 0abe c698 1b3e 0eef babd
000002c0: 2749 c33d 1a75 ecbd a967 3fbe b374 283e
000002d0: 376c ff3d bd14 893d d898 873d ea21 83be
000002e0: 9ee2 69be 74b0 0e3e 4116 633e 1d2c 35be
000002f0: 0f3b 253e a9e0 6bbe a796 dbbd 5730 c5bd
00000300: 7027 7d3e 79e7 183e ddab 6c3e 2c94 91be
00000310: 5ac8 7b3e 839c 3dbb aa2c 22be 6742 993e
00000320: b891 51be 85ff 133d 94a9 563c 4c93 46bd
00000330: ee5b 893e 2130 0f3e b98a 313b 9f73 98be
00000340: 790e c83c bdd9 15be ff5e 853d 0d85 90bd
00000350: e249 b63d 25c8 efbd 75fb 853e d54b ccbd
00000360: 695e d3bd cf85 513e a1df 1dbe 05e5 083e
00000370: c862 3e3e 43df 20bd be8e 323e a4d8 e43d
00000380: 5755 75bd 7956 ccbd baf4 063e 97a0 013e
00000390: bd23 e53d 537e 093d 57f4 893e 67d7 6b3d
000003a0: 97f1 89bd ae9a a93d 7a45 98be 0776 f3bd
000003b0: f7db f33d 52aa 22bd b4a0 353e 3fb5 a03a
000003c0: 9b1b 303e c5a0 17be 1c2b 03be 417f 123e
000003d0: de74 a43e d453 bc3d 6a50 bc3d c00e 32be
000003e0: cefa 7cbe 8d8d 5e3e 2d03 523e b805 82be
000003f0: 10ae 2b3e eebb 4abe 4641 21bd 09b0 f2bd

lstm.bias_ih_l1 f4 [256]
0.06265493 0.30240643 0.22343913 0.21396752 0.07186954 0.050579555 0.12686817 0.12083038
0.19985752 0.007316038 -0.090149485 0.41026077 -0.015766399 0.23999679 0.15846302 0.098991536
0.09931706 0.11855876 0.014050983 -0.036864173 0.07079833 0.3407373 0.25285947 0.38646397
0.10691286 0.102310225 0.19254653 0.022605175 -0.015811063 0.28420067 0.13315558 0.031419307
0.04628493 0.07608473 0.0043365476 0.27866304 0.18593 0.10986871 0.040785752 -0.05918456
0.14523223 0.10055304 0.1803057 0.09898755 0.051139183 0.14966701 0.20130263 0.07707578
0.22522534 0.082700945 0.15321216 0.32750148 0.1601158 0.1072119 0.046903547 0.1554864
0.3723864 0.3640755 0.051208124 0.090836994 0.058854986 0.13682029 0.2168018 0.10242972
0.20959778 0.10885295 0.2381375 0.08541839 0.15830882 -0.10293813 0.23909931 0.036704753
0.091376156 -0.04521478 -0.13700421 0.3369529 0.077331 0.14842647 -0.05678099 0.2371378
0.0775378 0.0076805344 0.015378642 -0.00113671 -0.026062144 0.029396331 0.11449007 -0.090821765
-0.10350757 0.16188757 0.1993459 0.029735267 -0.020631375 0.108317494 -0.06320877 0.11288258
0.016490098 0.13130386 -0.04416161 0.24161094 0.01985961 -0.055977114 0.10283688 -0.09160887
0.018597862 0.092990905 0.2455495 0.17196003 -0.05377443 0.065351464 -0.040181715 -0.016060736
0.10626964 -0.008347923 0.19208415 0.17375205 0.11365348 0.07060368 0.11533944 0.19627441
0.104846984 0.101161 0.003718603 0.091542244 0.19169423 0.12079464 0.112113416 -0.04073609
0.15164389 0.30643487 0.23052405 -0.2459705 0.23552574 0.39428344 -0.20076686 0.27794248
-0.13593088 0.11865062 -0.111559875 0.41396436 0.26917166 0.24995144 0.31408507 -0.2775535
0.003261732 0.010264946 0.27997455 0.11646637 0.25641334 -0.27230862 0.37739074 -0.30153
-0.12342214 0.28433296 -0.21464776 -0.041146334 0.13921586 -0.17233968 0.2807036 0.12067318
0.11222792 -0.1620237 0.2866835 0.34217915 0.38295695 0.16848096 0.24611458 0.099120885
-0.26054063 0.351132 -0.25489736 -0.11584363 -0.19245394 -0.34668592 0.25471905 0.04697433
0.30439115 -0.23250243 -0.32041928 0.20444508 0.24084409 0.22314946 0.29063338 -0.21416503
-0.36864644 0.08684836 0.31248304 -0.29164067 0.3461747 -0.35162225 -0.42463937 -0.20934305
0.37485585 -0.03751274 0.22361827 -0.0057225907 0.15167812 -0.0030100127 0.092506245 0.17237288
-0.04999782 -0.10177079 -0.19649278 0.06000088 0.13910934 0.059099514 0.018344624 0.04839765
0.25064376 -0.08384074 0.036316644 -0.01364708 0.028861327 0.091048025 0.18415314 -0.016972914
0.058716785 0.053796276 0.051473457 -0.08564534 -0.056717996 0.026038472 0.19607425 0.22327884
-0.06708327 -0.010996473 0.05513101 0.008125483 -0.07627618 -0.052481472 0.14771727 -0.06912833
0.14660576 -0.013735332 0.09193736 -0.047696546 -0.12714615 -0.053457927 0.008892447 0.19690986
0.2347614 -0.026324993 0.20747131 0.15160017 -0.007399251 0.09285557 0.106119744 0.0012221672
-0.029296033 -0.028653523 0.1604995 0.13264248 0.08540625 0.20166565 -0.04889575 -0.08327709
00000000: 3a51 803d 04d5 9a3e 3acd 643e 4d1a 5b3e
00000010: 5630 933d 822c 4f3d bbe9 013e eb75 f73d
00000020: 73a7 4c3e 60bb ef3b 4ba0 b8bd b30d d23e
00000030: 8928 81bc b8c1 753e 2144 223e 13bc ca3d
00000040: be66 cb3d efce f23d 1836 663c e3fe 16bd
00000050: b7fe 903d 1f75 ae3e cc76 813e 9bde c53e
00000060: 21f5 da3d 0688 d13d eb2a 453e 7d2e b93c
00000070: 3486 81bc c082 913e f059 083e 88b1 003d
00000080: 4495 3d3d 50d2 9b3d 9919 8e3b ecac 8e3e
00000090: 6f64 3e3e d902 e13d f60e 273d 826b 72bd
000000a0: c2b7 143e c1ee cd3d 0fa2 383e fcb9 ca3d
000000b0: 5277 513d 4f42 193e 4722 4e3e e8d9 9d3d
000000c0: 79a1 663e 1d5f a93d a6e3 1c3e 46ae a73e
000000d0: 65f5 233e ea91 db3d ef1d 403d d437 1f3e
000000e0: 6ea9 be3e 1b68 ba3e 9cbf 513d bf08 ba3d
000000f0: ed11 713d 9e1a 0c3e 4b01 5e3e acc6 d13d
00000100: cda0 563e 4cee de3d 51da 733e d6ef ae3d
00000110: b51b 223e 3ad1 d2bd 73d6 743e b957 163d
00000120: 6c23 bb3d 2233 39bd d54a 0cbe 1785 ac3e
00000130: b75f 9e3d 1cfd 173e 2f93 68bd 40d4 723e
00000140: 23cc 9e3d feac fb3b b3f6 7b3c a9fd 94ba
00000150: 4780 d5bc 93d0 f03c c579 ea3d c300 babd
00000160: c7fb d3bd dbc5 253e 5521 4c3e 6097 f33c
00000170: 2103 a9bc 90d5 dd3d 9973 81bd fb2e e73d
00000180: 3e16 873c 8574 063e cee2 34bd dc68 773e
00000190: 9fb0 a23c 4248 65bd 249c d23d 6e9d bbbd
000001a0: 8b5a 983c 0472 be3d 5471 7b3e 4a16 303e
000001b0: 9442 5cbd fdd6 853d 9595 24bd ce91 83bc
000001c0: e6a3 d93d bac5 08bc b5b1 443e 0fec 313e
000001d0: 28c3 e83d aa98 903d 1637 ec3d 29fc 483e
000001e0: 04ba d63d 802d cf3d ceb3 733b 807a bb3d
000001f0: 7e4b 443e 2e63 f73d b89b e53d e3da 26bd
00000200: 8948 1b3e 08e5 9c3e 7f0e 6c3e b1df 7bbe
00000210: a92d 713e 85df c93e d495 4dbe 7a4e 8e3e
00000220: 7731 0bbe 19ff f23d 8179 e4bd 23f3 d33e
00000230: ded0 893e 45f3 7f3e c2cf a03e 7e1b 8ebe
00000240: c8c2 553b 4e2e 283c d358 8f3e ec85 ee3d
00000250: 9c48 833e 096c 8bbe 5c39 c13e 2462 9abe
00000260: bfc4 fcbd 1794 913e 9fcc 5bbe 0f89 28bd
00000270: 9a8e 0e3e d079 30be 62b8 8f3e 8023 f73d
00000280: c0d7 e53d 8ae9 25be 2ec8 923e 1b32 af3e
00000290: ef12 c43e 4686 2c3e 7605 7c3e e4ff ca3d
000002a0: 9565 85be 93c7 b33e e881 82be 6d3f edbd
000002b0: a512 45be d180 b1be 896a 823e 2868 403d
000002c0: 28d9 9b3e 1e15 6ebe ff0d a4be 0d5a 513e
000002d0: d59f 763e 4b81 643e e6cd 943e 144e 5bbe
000002e0: 3abf bcbe 8edd b13d c7fd 9f3e ed51 95be
000002f0: cf3d b13e d507 b4be 556a d9be 065e 56be
00000300: 1bed bf3e f5a6 19bd 30fc 643e 9284 bbbb
00000310: 8251 1b3e a243 45bb ea73 bd3d 8482 303e
00000320: 84ca 4cbd 346d d0bd 6735 49be 7cc3 753d
00000330: ae72 0e3e 5512 723d 7747 963c 9d3c 463d
00000340: 6154 803e b2b4 abbd c3c0 143d 0198 5fbc
00000350: 976e ec3c 6377 ba3d a492 3c3e c80a 8bbc
00000360: 0381 703d 7c59 5c3d d5d5 523d d366 afbd
00000370: 2151 68bd a24e d53c b0c7 483e 35a3 643e
00000380: f462 89bd 8d2a 34bc 0ed1 613d bf20 053c
00000390: b036 9cbd d0f6 56bd 3243 173e 2793 8dbd
000003a0: d21f 163e 280a 61bc a849 bc3d 745d 43bd
000003b0: 9a32 02be b3f6 5abd a0b1 113c bda2 493e
000003c0: 4b65 703e 83a7 d7bc 5c73 543e 133d 1b3e
000003d0: 6b75 f2bb 102b be3d 4f55 d93d 2031 a03a
000003e0: 3cfe efbc cbba eabc fb59 243e 6ed3 073e
000003f0: 79e9 ae3d 7181 4e3e e946 48bd 2e8d aabd

lstm.bias_hh_l1 f4 [256]
0.027859172 0.19340304 0.13767469 0.100375384 0.19601913 0.06172251 0.14208363 0.18772246
0.012826219 0.036315627 -0.1375026 0.2329262 -0.05631072 0.16236 0.1770355 0.13125369
-0.06936675 0.06306613 0.047686893 0.03479973 0.14203833 0.3423989 0.23778157 0.222922
0.11919112 0.18269762 0.16215847 0.085282825 0.06873448 0.19783887 0.18837099 0.2021553
0.07785154 0.27535588 0.22794063 0.07643304 0.21166609 0.033423193 0.11401597 -0.18256177
0.09597277 0.30982372 0.12407437 0.176937 0.07809204 0.35297555 0.1027072 0.11173135
0.07884488 0.14503966 0.082550585 0.2385621 0.10774495 0.087402076 0.09088471 0.101126954
0.27106655 0.15783074 0.11872854 0.051230233 0.22169949 0.2586061 0.33655578 0.015741227
0.13319193 0.24735561 0.317497 0.06974709 0.15295939 0.07771592 0.08139305 -0.0079133725
-0.12919034 0.026018368 -0.14689438 0.31543198 0.21565431 0.15553805 -0.09303966 0.26341444
0.06547823 -0.17911085 0.13680592 -0.05429339 0.1550989 0.049815603 0.13552631 -0.07567585
0.017852329 0.2960855 -0.022958668 -0.023908194 -0.07778287 -0.017700639 -0.025723208 0.10909953
-0.152271 0.14822261 0.16050565 0.26174158 0.04118224 -0.0568398 0.099713236 -0.09628688
-0.020342931 0.09901464 0.20183381 -0.025840001 -0.07497696 -0.055746924 -0.030551689 0.056291815
0.05730015 0.05702276 -0.020281723 0.0531521 0.3266785 0.16598216 -0.018417291 0.07438419
0.050610885 0.019397372 0.12398517 0.24969774 0.2178015 0.2599867 -0.04061865 0.1677042
0.0636124 0.21845755 0.25078848 -0.15901291 0.21369867 0.2944735 -0.23618928 0.18653688
-0.09568838 0.051533885 -0.15866129 0.37848732 0.10006427 0.2783141 0.25662178 -0.30376145
-0.1541913 0.032098792 0.13556565 -0.05479045 0.23141201 -0.34211165 0.35804492 -0.41535538
-0.14659408 0.26697698 -0.26000655 -0.002316543 0.110350214 -0.32375762 0.27450627 0.298296
0.078341395 -0.32068935 0.09532438 0.3637347 0.20808809 0.21697617 0.17310703 0.08331965
-0.20955564 0.2789299 -0.23305008 -0.25685725 -0.26708654 -0.39247027 0.29850993 0.033054665
0.13777885 -0.22697517 -0.28381708 0.35227245 0.28995398 0.36732373 0.21921857 -0.25078315
-0.2651938 0.109030336 0.18444498 -0.28657898 0.34028193 -0.27939162 -0.38906255 -0.25020579
0.42361405 0.16587335 -0.0015717171 -0.025450896 0.018006843 -0.13137008 -0.04448413 0.18350035
0.05139585 -0.12865779 -0.07393644 0.12372248 0.017942837 -0.037666205 -0.0599554 0.040024143
0.024730392 0.011956483 0.09059705 -0.117736936 0.18017073 0.08936148 0.21337005 -0.0876916
0.06574162 -0.0046985564 0.048861798 0.09643582 0.0385398 0.026288606 0.18159562 0.019673262
0.108118445 0.038646135 0.12962325 0.041366395 -0.080008 -0.14872554 0.15454343 -0.19663975
0.10342678 0.19585349 0.19296493 0.12181143 0.0503832 -0.0049181683 0.17080691 0.06858121
0.19557376 0.017367767 0.040341053 0.010258966 0.026773218 -0.047947146 0.15751731 -0.01857091
0.14206645 0.03614658 0.0999306 0.05003835 -0.02072137 0.13431795 -0.06561237 0.017497152
00000000: eb38 e43c 720b 463e 98fa 0c3e 9c91 cd3d
00000010: 3db9 483e bed0 7c3d 5f7e 113e 513a 403e
00000020: 1025 523c b2bf 143d 7bcd 0cbe 3584 6e3e
00000030: 12a6 66bd b341 263e cb48 353e 5e67 063e
00000040: 2810 8ebd d128 813d 5553 433d 298a 0e3d
00000050: 7f72 113e e94e af3e 037d 733e aa45 643e
00000060: 791a f43d 1615 3b3e df0c 263e c3a8 ae3d
00000070: aac4 8c3d 4696 4a3e 53e4 403e cd01 4f3e
00000080: a170 9f3d 72fb 8c3e 4569 693e ed88 9c3d
00000090: ffbe 583e c2e6 083d 3481 e93d 79f1 3abe
000000a0: 5f8d c43d 37a1 9e3e b41a fe3d f92e 353e
000000b0: b8ee 9f3d 36b9 b43e 2758 d23d 68d3 e43d
000000c0: 6d79 a13d 4785 143e 4810 a93d a049 743e
000000d0: 62a9 dc3d dcff b23d c321 ba3d a61b cf3d
000000e0: 3cc9 8a3e 629e 213e f327 f33d cbd6 513d
000000f0: 3105 633e 0568 843e 0a51 ac3e bff3 803c
00000100: 7763 083e ca4a 7d3e f78e a23e 90d7 8e3d
00000110: 63a1 1c3e 8629 9f3d 66b1 a63d 17a7 01bc
00000120: 794a 04be 7924 d53c 7b6b 16be 4d80 a13e
00000130: 7cd4 5c3e 5e45 1f3e 948b bebd 42de 863e
00000140: 7319 863d d668 37be da16 0c3e bf62 5ebd
00000150: 3fd2 1e3e 720b 4c3d 69c7 0a3e f1fb 9abd
00000160: 0c3f 923c 8598 973e d113 bcbc 1edb c3bc
00000170: a04c 9fbd ee00 91bc 7ab9 d2bc 936f df3d
00000180: eeec 1bbe abc7 173e 985b 243e fe02 863e
00000190: b5ae 283d dad0 68bd 7436 cc3d 0e32 c5bd
000001a0: 38a6 a6bc 30c8 ca3d 86ad 4e3e 69ae d3bc
000001b0: 858d 99bd e356 64bd 8947 fabc 3f92 663d
000001c0: 90b3 6a3d b390 693d db25 a6bc 04b6 593d
000001d0: 6842 a73e 3af7 293e dcdf 96bc bd56 983d
000001e0: 5c4d 4f3d 3de7 9e3c f0eb fd3d c4b0 7f3e
000001f0: 5b07 5f3e fa1c 853e be5f 26bd a6ba 2b3e
00000200: 3847 823d 56b3 5f3e 5967 803e 48d4 22be
00000210: d3d3 5a3e 3bc5 963e 9adb 71be 8603 3f3e
00000220: 45f8 c3bd 3215 533d 1b78 22be 17c9 c13e
00000230: 7fee cc3d 307f 8e3e ee63 833e 9f86 9bbe
00000240: 53e4 1dbe 067a 033d b9d1 0a3e f36b 60bd
00000250: 45f7 6c3e 4229 afbe aa51 b73e 76a9 d4be
00000260: c21c 16be 35b1 883e 941f 85be 24d1 17bb
00000270: 4bff e13d 8fc3 a5be 168c 8c3e 41ba 983e
00000280: 7471 a03d 6531 a4be 6e39 c33d 6f3b ba3e
00000290: 0b15 553e 002f 5e3e f842 313e 7ea3 aa3d
000002a0: c195 56be e6cf 8e3e aea4 6ebe cb82 83be
000002b0: 91bf 88be ddf1 c8be 4bd6 983e 5464 073d
000002c0: e615 0d3e 2e6c 68be 7950 91be 0e5d b43e
000002d0: d974 943e db11 bc3e d57a 603e a666 80be
000002e0: 7bc7 87be 4c4b df3d 25df 3c3e 7bba 92be
000002f0: 6f39 ae3e 6b0c 8fbe 3533 c7be f91a 80be
00000300: f1e3 d83e b4da 293e 1302 ceba 667e d0bc
00000310: 1683 933c e185 06be fe34 36bd 84e7 3b3e
00000320: 7484 523d debe 03be fd6b 97bd 3662 fd3d
00000330: dbfc 923c e147 1abd cb93 75bd 5bf0 233d
00000340: 6497 ca3c 20e5 433c f28a b93d 1020 f1bd
00000350: ad7e 383e 2703 b73d ae7d 5a3e a797 b3bd
00000360: 8ba3 863d 59f6 99bb 4f23 483d 2580 c53d
00000370: e9db 1d3d 345b d73c 34f4 393e d229 a13c
00000380: 346d dd3d 694b 1e3d f5bb 043e cf6f 293d
00000390: 3cdb a3bd 824b 18be a240 1e3e ee5b 49be
000003a0: 6bd1 d33d d18d 483e 9998 453e 4578 f93d
000003b0: 9d5e 4e3d 9628 a1bb 02e8 2e3e 4e74 8c3d
000003c0: 7d44 483e d946 8e3c a93c 253d 3915 283c
000003d0: 8253 db3c 3a64 44bd 384c 213e 0522 98bc
000003e0: de79 113e 700e 143d 6aa8 cc3d 03f5 4c3d
000003f0: ddbf a9bc a58a 093e c75f 86bd 3056 8f3c
