BNN/model_state_FD001_test.pt (torch, 29135 bytes, 7 tensors)

lstm.weight_ih_l0 f4 [128, 14]
00000000: 6589 e73d 556f 623d aac1 a9bc 458b e93d
00000010: c6db 06be fec2 b2bd 3ac0 99bd 793e df3d
00000020: 62ab bb3d ce4d 83be 9914 353e 73c2 a7bd
00000030: 5d34 e93d 30fb 81bc 0fc5 e2bd 28b8 5cbe
00000040: c248 25bc fddf bb3d ca95 81be db5c 28be
00000050: 3509 54be 43dc 2e3c 5c54 8abe 68ac cdbd
00000060: d7d1 92be 001e 76be e13c 87bd 2a4f dabb
00000070: 184f 02bd fc2b 84be 676f f73c 0e7c dfbc
00000080: 1f6b 243c 6ab4 cbbd 04ac 4ebe 95c0 783e
00000090: 0aa2 bebd 40d6 893c a2c7 53bd 030c 6bbe
000000a0: fdca 333e 703d cc3d 77b2 c53c 015d db3d
000000b0: 3bfb 893d 2b09 e53b 3fe4 3b3d ef57 4ebd
000000c0: a9bc 513d afb5 80bc a8e1 53be f179 17be
000000d0: 355d 3bbe 16a7 f93d f6ac 283e 4cc6 c83d
000000e0: 9c32 f8bc 34e9 9abd 7161 b53d 8fdd 76bb
000000f0: 3e9a 8cbd 8722 3abe eccd d7bc bdb4 823d
00000100: 5710 65bc 6901 bfbd ec02 d43d 5bcf f6bd
00000110: 343c 18bd 8e5c 46bd 60bb 763e 69c7 8c3d
00000120: 205a 3f3e aeb5 16be 2893 9fbe a97a 88be
00000130: c668 15be 1434 943d f92e 58bd 2dce 933c
00000140: 02d3 2fbc dc91 17be 397b 643c 4e8e 98bd
00000150: 512b c03d 3f6a 04be e0d0 533d 3c4a c7bd
00000160: 8d25 9fbe 90bc 33be e58f 3fbd df8a 3dba
00000170: 69d0 d5bd 747c e6bd b107 d3bd eba2 32be
00000180: 73ff cf3d c038 efbc 69c4 a5be a283 c4be
00000190: 7ac6 96be e87b 853e 7766 4abe c949 4ebe
000001a0: 5a28 3bbe da72 bd3d d3bb 9cbe 2fd3 24be
000001b0: 3e3c c1be 9bd8 86be 4e6d c23e d619 433e
000001c0: 01df 983d 0632 61be 162e 02be 7200 96bd
000001d0: 8ee5 dabd d4e4 a7be 9136 e9bd 2d0e efbd
000001e0: 907d 00be 6d41 7abe ec7b 603c 3a8d 4bbe
000001f0: 3db9 53be 49ed bdbd c87c 21be 1848 33be
00000200: 1f8e ab3d d425 ef3d afbe fd3d a1f1 b83d
00000210: 4a10 71be 8fe4 843e b2d1 2fbd c162 e1bc
00000220: 19fa 4ebe 4f65 2abe 55cc 243e 6535 99bb
00000230: 79d6 a0bd 1d7e a6be 3ddb 573d 2de9 42bd
00000240: c431 b6bd 6b3e 763d 8a02 b93c a5cb 853e
00000250: 0b30 0e3e 6934 e6bd 8c0e 84bd 58ea d9bd
00000260: 1b6a 503c cf71 d9bd 367a 213e e0f8 41be
00000270: d136 b23d e91f 253d 4604 91bd 8f78 65be
00000280: 9f8f 053e 9831 e63c 2943 ddbd e9b3 93be
00000290: 3965 a73d 367f d9bd 5cbe 3bbe 60a2 113e
000002a0: 3781 a9be 1c41 8cbe 6bfb 8abe 9b5f 973d
000002b0: 6dc3 7dbd 8082 0fbe 0185 57be fca9 e4bc
000002c0: ced8 93be 4e66 09bd c93a 1cbd ffee 61be
000002d0: e826 a23c 38f3 f33d cbcf 89bd c873 98bd
000002e0: 067b b23d 88c1 2f3e 1a65 8abd 4f2c f2bd
000002f0: fd82 04be 9b55 d43d 649b f7bd 1342 0dbe
00000300: f58e e03d a8d1 433e ae19 e03c 9ae0 87bd
00000310: 6f03 3ebe 772d 00be c2f4 2ebe a086 f83d
00000320: e1ab 34be 0988 07be 5eda 7b3c 56c9 903d
00000330: 8632 b8bd 9161 37be 4ce5 a3be bfe8 aebe
00000340: ce7b df3d d382 673e b6fb f33d fd86 e93c
00000350: 40c8 4fbe 576c a0bd 439c 20be 7079 103c
00000360: 3046 2cbd 655e 98bc c007 56bd 2d3e 6ebe
00000370: 1715 0cbe 76dc cd3c 7e66 debd 697c c03c
00000380: 10ea 55be 3d7f f73d dcba f43d aae7 f43d
00000390: d881 4bbe c3ee 5ebe 6531 42be 82a0 6e3e
000003a0: 496a 433d 836d e33d 88dd 963d 71d9 c43d
000003b0: 7902 a63c 9bb5 91bd 4945 24be 6ab1 4abe
000003c0: 30e4 1f3d 824c e9bd 0976 9dbd c406 20be
000003d0: cb32 3fbd e354 24be e767 21be 60a4 41bb
000003e0: abc3 84bd 397d 423d a021 c0bd 4564 e0bd
000003f0: 71fd 2ebe ccea 9bbd 89bd 1cbe 8f8d 9bbd
0.11305503 0.055281956 -0.020722229 0.11403517 -0.13169774 -0.08728598 -0.075073674 0.109005876
0.09163548 -0.25645298 0.17683639 -0.08191385 0.11386941 -0.015866846 -0.11072742 -0.21554625
-0.010088148 0.09173582 -0.25309592 -0.16441672 -0.20706637 0.010672632 -0.27017486 -0.100426495
-0.2867572 -0.24034882 -0.066034086 -0.006662269 -0.03181371 -0.25814807 0.030204488 -0.027280834
0.010035305 -0.099465206 -0.20182806 0.24292214 -0.0930825 0.016825795 -0.051704057 -0.22953801
0.17557903 0.09972656 0.02413295 0.107110985 0.067373715 0.0069896183 0.04587197 -0.05037683
0.05120531 -0.015711633 -0.2069155 -0.1479261 -0.18297274 0.12190072 0.1647223 0.09803447
-0.03029757 -0.07564011 0.08856476 -0.003766868 -0.06865357 -0.18177234 -0.026343308 0.06382129
-0.0139809465 -0.09326441 0.1035212 -0.12051269 -0.03716679 -0.04842811 0.24094915 0.06873972
0.18686724 -0.14717743 -0.3116696 -0.26656082 -0.14590749 0.072364956 -0.05277917 0.018042648
-0.0107314605 -0.14801735 0.013945394 -0.074490175 0.09383262 -0.12931155 0.05171287 -0.09730956
-0.31083336 -0.175524 -0.046768088 -0.0007230471 -0.10440142 -0.11254206 -0.103042014 -0.17444961
0.10156145 -0.029201865 -0.32376412 -0.38381678 -0.294483 0.26071095 -0.1976565 -0.20145334
-0.18277112 0.09250422 -0.30612049 -0.16096185 -0.37741274 -0.26337132 0.37974018 0.19052824
0.074644096 -0.21991739 -0.12712893 -0.07324304 -0.10688315 -0.3279177 -0.11387361 -0.11672626
-0.12547898 -0.2443902 0.01370142 -0.19878092 -0.20676132 -0.09273774 -0.15770257 -0.1750797
0.08376717 0.11677137 0.12389886 0.09030462 -0.2354137 0.25955626 -0.04292459 -0.02751291
-0.20212592 -0.16640209 0.16093571 -0.0046755546 -0.078534074 -0.32518092 0.052699316 -0.047585655
-0.08896211 0.06011812 0.022584219 0.2613193 0.13885514 -0.11240465 -0.06448087 -0.10640401
0.01272061 -0.106174104 0.15769276 -0.18942595 0.08701862 0.040313635 -0.07080893 -0.2240927
0.13043068 0.02809982 -0.108038254 -0.28848198 0.081736036 -0.10619967 -0.18334335 0.14222097
-0.33106396 -0.27393425 -0.27144942 0.07391282 -0.06195395 -0.14014626 -0.2104683 -0.027913086
-0.28876346 -0.03354483 -0.038142 -0.22063826 0.019793943 0.11911625 -0.067290865 -0.074439585
0.08714871 0.1716367 -0.06757565 -0.118248574 -0.12940593 0.103678904 -0.12090185 -0.13794737
0.10964767 0.19122946 0.027355995 -0.06634636 -0.18555997 -0.12517343 -0.17085555 0.12135053
-0.17643692 -0.13235487 0.015371887 0.07069652 -0.089940116 -0.17908312 -0.32010877 -0.34161946
0.10912286 0.22608499 0.119132444 0.02850675 -0.20291233 -0.07833164 -0.15684609 0.008818015
-0.042059124 -0.018599698 -0.052253485 -0.23265906 -0.1367992 0.025129538 -0.108593926 0.023496823
-0.20890069 0.12084816 0.11949703 0.11958249 -0.1987375 -0.21770768 -0.18964155 0.23303416
0.047708783 0.11104872 0.073664725 0.09611786 0.02026485 -0.071147166 -0.16042055 -0.1979424
0.039035976 -0.11391546 -0.07688529 -0.15627581 -0.0466793 -0.16048007 -0.15762292 -0.0029547438
-0.06482633 0.047482703 -0.093814135 -0.10956625 -0.17088868 -0.07613143 -0.15306677 -0.075953595

lstm.weight_hh_l0 f4 [128, 32]
00000000: 541a 72be b31c aa3e b718 493e 07c1 123e
00000010: 9aad 7abe be6a df3c 2308 1bbd 45b7 483e
00000020: ac09 af3d ca00 563d 369f 78bc 4142 3fbe
00000030: f4e6 46be 8d72 5abe 66ad 8f3d 0867 713e
00000040: 1ad1 a53e b95a 4bbe 019f 303e 9d72 9dbe
00000050: b10f 8abe e910 8a3d 2553 fbbd 17de 8abd
00000060: f96f 003e f860 71be cc3a 82be 8f29 df3e
00000070: ac8a 303d 5db9 cdbd 89d4 6a3e 80d5 643d
00000080: ceed 93bb fb1b 0e3e 41e5 8e3e 6f51 9abd
00000090: 30e1 3fbe 7b3a 943e bc6e 11be a75b b13d
000000a0: 106c 0f3e ac5b 9e3c 2d8e 3a3d 973f 4cbe
000000b0: 734e 2cbe b440 e3bd 7c85 6a3e 4e19 443d
000000c0: afeb b83d d9ef 2e3e 3dbc 403e 1bfa 85be
000000d0: 1b13 9cbe c606 383e 040a cdbc 93d9 d7bd
000000e0: cd7c 953e 3f12 83be 53c6 453d f067 39bc
000000f0: 0867 8b3e 814c 35bd 9bf9 7a3e fac5 833e
00000100: cfbd 60be 48bf bebd cf72 d8bd 9f84 7d3e
00000110: 6383 6eba dbf1 61bd 53f2 c13c 6330 913e
00000120: 27f6 f4bd 44ab 183e 103b 84bd 5074 ee3c
00000130: 2b7b d63d 5075 ca3d e8ca 0f3e cebe 403e
00000140: 2bfd ee3d 00f2 643d 1414 c1bd ca47 aebc
00000150: 1efb 28be 01b5 843d 7557 51bd dcc0 05be
00000160: 5e6c 60bd 47d9 1fbe 6bd0 a33c d069 313e
00000170: a353 1b3e 28b3 a1bd 6ab2 df3c db7c 35be
00000180: 90c6 67bd f264 703b c2d6 6d3e 80d3 683e
00000190: e3be 8abe f404 ae3d b4ec dbbd e6cc 0f3e
000001a0: a0fd 2c3e fa77 413e 6eb3 ebbd adb3 33be
000001b0: aca3 87bd d35c 80be 15d7 c33d f87d 0c3e
000001c0: 2418 8b3e b2e5 04bc a8a8 4d3d c8a5 f7bd
000001d0: 6ba6 6fbe e989 1fbe 3307 babe b232 a0bd
000001e0: 856f 8f3e f39c 73be 4052 b8be 0e14 9b3e
000001f0: ef08 fd3d ed3e 25be 0c81 763e 2f68 1dbe
00000200: c125 59be fcf9 53bc c5b3 cb3d 6b9f 0b3d
00000210: 5335 9dba e412 e63d 7e3f 80bd 5e6f 9b3d
00000220: 7f80 893e 6afc a93e 42ba 87be a172 27be
00000230: e56e 8fbe 6ab8 dcbd 86bd 05be abaf 103d
00000240: 21b7 a93e 1b83 7dbe 47c5 a73e 39a1 c8bd
00000250: ace4 5fbd c333 6ebe 60f7 14bc e5fe 05be
00000260: 3b6c f13d 5289 6e3d 5958 99be 582c 093a
00000270: e24f aa3e cd20 7bbe 2d3c 0dbc 960e 083d
00000280: 3729 38be 6cb2 333e 2366 5d3d b7b7 0d3e
00000290: 3eb9 92be 4c0b 5a3e 8a12 debd ed02 073e
000002a0: cf77 5c3e 5340 023e 03d2 cdbd d080 7bbe
000002b0: 29dd 77be e701 99be 6377 ba3c e951 a83e
000002c0: 6ae3 ee3d 2ade c83c 6672 7e3e 28f7 22be
000002d0: b161 7fbe ae8c dfbd 2606 4bbe 1d38 d4bd
000002e0: d4e0 80bb 5700 35be ea46 d6bc 9137 5e3e
000002f0: 5624 723e 39fe 08be 43a3 a13e 97aa 043e
00000300: 6ebf 8cbd b710 413e c077 843d 926d 433c
00000310: 2654 3bbe 971c 773e a897 8cbe e3c0 303e
00000320: 4059 b73e d5c8 943d 7947 60be eab2 bbbe
00000330: 505c 97be 3e04 c2bd c96a 1fbb 9a9f 1d3e
00000340: 51c6 153e 7dec aebd 08b0 573e 8402 87be
00000350: 154f 3ebe f1ca 6fbd c717 2bbe d523 24be
00000360: db92 3a3e 62d9 6bbe ec52 323c 92e0 ab3c
00000370: ac6a 003e a9f1 b5be 6f73 503e 6f76 e1bc
00000380: 08e6 893d 1097 3fbd 5b03 e6bc 391e b13c
00000390: 36ed e8bb 05b2 2e3c d6bf b33d 593d 8abd
000003a0: b449 cf3d 9b5b 943d c461 91be 9dcc 42bd
000003b0: efca 1cbc e141 f6bc 1cd8 2c3e afe0 2f3e
000003c0: c609 2bbd 7be7 13bd e2ad fd3c 08d5 35be
000003d0: 8071 fbbd d611 2fbe 5bf8 14bc 6ffe d93d
000003e0: 70c3 a93d 5ae8 01be a3d4 41be 8d99 903c
000003f0: b49e cf3d 26f0 3dbd 546f 8b3d 5ae5 843e
-0.23642856 0.3322502 0.19638334 0.14331447 -0.24480286 0.027272578 -0.037849557 0.19601162
0.08546767 0.052246846 -0.015174678 -0.18677618 -0.19424039 -0.2133276 0.07015495 0.2357446
0.32386094 -0.19858827 0.17248155 -0.30751505 -0.26965097 0.067415066 -0.12271718 -0.067806415
0.12542714 -0.23572147 -0.25435483 0.43586394 0.043100998 -0.10045121 0.22932638 0.055867672
-0.0045144325 0.13877861 0.27909282 -0.075350635 -0.18738246 0.28950867 -0.14202398 0.086600594
0.14006066 0.019330822 0.045545746 -0.19946133 -0.16826801 -0.110963255 0.22902483 0.047875695
0.09029328 0.17083682 0.18821807 -0.26167378 -0.30483326 0.17971334 -0.02502919 -0.10539546
0.29196778 -0.25599858 0.04828484 -0.011316285 0.27227044 -0.044262413 0.2450928 0.25736982
-0.21947406 -0.09313828 -0.10568773 0.24757622 -0.00090985576 -0.055162292 0.02367512 0.2835723
-0.11961012 0.14909083 -0.06456578 0.029108196 0.10472711 0.09885657 0.14042246 0.18822786
0.11669382 0.05589485 -0.09427658 -0.021274466 -0.16502044 0.06479836 -0.051108796 -0.13061851
-0.054790847 -0.15610228 0.019996842 0.1732552 0.15168624 -0.078954995 0.027306754 -0.1772341
-0.05658585 0.0036681262 0.23226455 0.22736931 -0.2709876 0.084970385 -0.10738507 0.14043006
0.16893625 0.18893424 -0.11508833 -0.1754901 -0.06623015 -0.2507082 0.09562508 0.13719928
0.27166855 -0.008111404 0.05020967 -0.12092167 -0.23403327 -0.15579952 -0.36333618 -0.07822169
0.2801477 -0.2379034 -0.36000252 0.30288738 0.123552196 -0.16137286 0.24072665 -0.15371774
-0.21205808 -0.012938019 0.09946398 0.03408758 -0.0011994041 0.11234072 -0.0626211 0.07589601
0.26855847 0.3320039 -0.2650929 -0.16352321 -0.28014293 -0.10777362 -0.13060579 0.03532378
0.3314753 -0.24757044 0.32767698 -0.09796376 -0.054661438 -0.23261933 -0.009092182 -0.13085516
0.117882214 0.058236428 -0.29950216 0.0005232743 0.3326407 -0.24524231 -0.008620304 0.033217035
-0.17984472 0.17548531 0.054052483 0.13839613 -0.28656954 0.21293372 -0.1084338 0.1318471
0.21530078 0.1271985 -0.10049822 -0.24560857 -0.2420546 -0.29884264 0.022762006 0.32874992
0.116644695 0.024519999 0.24848327 -0.15914595 -0.2493961 -0.109155044 -0.19826564 -0.10362265
-0.0039330516 -0.17675911 -0.026156861 0.21700884 0.23646674 -0.13378228 0.3156987 0.129557
-0.0687245 0.18854032 0.06468153 0.011927979 -0.18293819 0.24132 -0.27459455 0.1726108
0.3581028 0.07264868 -0.21902265 -0.36659938 -0.29562616 -0.094734654 -0.0024325124 0.15392914
0.14626433 -0.085412 0.21063244 -0.26369107 -0.18584855 -0.05854315 -0.16708289 -0.16029294
0.18220083 -0.23032144 0.010884028 0.020981107 0.12540692 -0.35535935 0.20356534 -0.027522294
0.06733328 -0.046774924 -0.028077772 0.021620857 -0.007108356 0.01066256 0.08776824 -0.067499824
0.1012148 0.07244035 -0.28394902 -0.047558416 -0.0095698675 -0.03006071 0.16879314 0.17175554
-0.041757368 -0.03610943 0.030966703 -0.17757046 -0.12277508 -0.17096648 -0.009092416 0.106442325
0.0828923 -0.12686291 -0.1892877 0.017651344 0.10137692 -0.0463716 0.068083435 0.2595623

lstm.bias_ih_l0 f4 [128]
00000000: 252f 6e3d 33d3 423e 25aa 563c 4ce2 233e
00000010: 4d03 443d dca8 013e 7ee1 3f3e 2b46 23be
00000020: dad6 573e d076 8b3d 6308 a23d 83ba 973e
00000030: 23e9 533e ce27 a23d 7f1d 873d 4024 633d
00000040: bc96 d83d cb9e 2ebd bd74 aebd de04 cc3c
00000050: 0bc0 0f3e 4e39 06bd 0ad2 fe3d 987c dcbd
00000060: 75e0 453d d3a7 643e 0fa2 a23d d625 d0bd
00000070: 93ec 4abd 2a3e 4f3e 4ab0 853e 810a 86bd
00000080: ea12 473e 38ec 033e 3598 52bb acdf a33d
00000090: dd7f 193e 9eff 993d d99b 5d3e 3621 07bd
000000a0: 434f b53d a895 8ebd 0fb2 543d 5c35 573e
000000b0: 8bcd 21be 0652 df3d ed79 a93e 047a 733d
000000c0: 9b13 633b 7335 903e 8a8a 27be 5eb6 733e
000000d0: 0f2a 733d 1715 e43c c732 8c3d 190f f93d
000000e0: c28e 5d3d 7b2d dabd 97fd 14be 43a3 fbbd
000000f0: 62be 533d 1526 e1bd f6e4 163e 41cd c13d
00000100: e43f 7a3d 3ffb af3e 5ec4 813e 8bd5 12be
00000110: fbcb c0bd d6fe 843e 8b3e 8fbe b01f b33d
00000120: cc51 023d 6bc8 a83d e361 8ebd d76c 94be
00000130: 6e38 20bd 45f9 8abd 998a 083c ebfa 8c3e
00000140: 874c e23d de15 b0bd 6280 0e3c c352 3ebd
00000150: e49b 83bd c8ba 423e 39c7 dabc 85f6 11be
00000160: a983 543e 3e8b 32be db6d 0c3e e5e5 7bbd
00000170: 3316 623e 68ad 54be 265e 9b3e 94c7 323e
00000180: 07ce 1e3e 9b3c cd3e 922f 613e 7ae1 98bd
00000190: 2fdd 463e b9b9 b13d 8147 8f3e e01f 66bd
000001a0: 43fc 683e c78e 503d eb35 963d f7d7 193e
000001b0: 79f8 1e3e 0eac 15bd 49b2 fc3d c662 e93d
000001c0: 2e65 8cbc 2e95 523e 042b a73e b73e f43d
000001d0: 0aee 023d d623 e73c a9b8 8e3e 9b46 c83d
000001e0: 9a8c 373e 8d43 c03e 334c e3bc f788 8b3d
000001f0: 9312 b93e c7cc a73e ad1d 003e 4233 963d
0.05815043 0.19025879 0.013102089 0.16004294 0.04785471 0.12662071 0.18738362 -0.15944736
0.21078053 0.06809771 0.07911756 0.29634485 0.20694403 0.079177484 0.06597423 0.055454493
0.10575625 -0.042631906 -0.0851836 0.024904665 0.14038102 -0.032769494 0.124424055 -0.10765952
0.048309762 0.22329645 0.079410665 -0.10163467 -0.04954202 0.20238557 0.2611106 -0.06544972
0.19440809 0.12883079 -0.003213418 0.080016464 0.14990182 0.07519458 0.21641482 -0.032990657
0.088530086 -0.069621384 0.051927622 0.21016449 -0.15801065 0.109043166 0.33100834 0.059442535
0.0034649137 0.2816578 -0.16361442 0.23800036 0.059366282 0.027842088 0.068456225 0.12161083
0.054091223 -0.10653206 -0.14549862 -0.12286999 0.051695235 -0.10993592 0.14735779 0.09462977
0.061096087 0.34371373 0.2534513 -0.14339273 -0.09413906 0.25975674 -0.27977404 0.08746278
0.03181629 0.08241352 -0.06952264 -0.28989288 -0.039116316 -0.06785826 0.0083338255 0.27535185
0.11049753 -0.08597921 0.008697601 -0.046465646 -0.06426218 0.19016564 -0.026706325 -0.14254196
0.2075335 -0.17435929 0.13713782 -0.06149854 0.22078781 -0.20769274 0.30345267 0.17458946
0.1550828 0.400853 0.21990803 -0.07464881 0.19420312 0.08678002 0.2798424 -0.056182742
0.2275248 0.050917413 0.07334503 0.1502379 0.15524472 -0.036541037 0.12338693 0.11395793
-0.01713809 0.2056472 0.32650006 0.119260244 0.031965293 0.02821533 0.2787526 0.09779092
0.17924729 0.37551537 -0.027746296 0.06813233 0.36146984 0.3277342 0.1251132 0.073339954

lstm.bias_hh_l0 f4 [128]
00000000: c4ca 133e 1e35 973e ec49 b63c baa2 1d3e
00000010: bfa5 0b3d 93f2 973c afbe a03e 03d6 31be
00000020: 1574 573e 5036 86be b749 b3bd f3d3 eb3d
00000030: aabe 94bd ec2f 39bd b5b2 9d3d 796b b13d
00000040: 1116 643a b450 333e f0f4 2b3d fad0 60be
00000050: 9a0d 2f3d de83 c1bc 68e5 803d 2d27 acbd
00000060: 41c5 edbd 68bb 0e3e 9413 183e b24a 4abd
00000070: 22e5 773d 4d8c 323d 20b8 ab3d b2d0 64bb
00000080: 1efb 9c3c 93ab 473e 4768 de3d 8581 b23d
00000090: 5a7b cf3d 3624 f63d 427f 0e3e 8737 493e
000000a0: 167d 9e3e dc4e 503d f139 393e d9cd 4e3e
000000b0: 7f6c 053e 1215 243e 5c63 493d 9229 b2bd
000000c0: ae4e 94bd 3917 bf3e d6a1 213e 8ca5 f43d
000000d0: 1889 25bd 1e65 7fbd 4faa 8c3d d8c5 593e
000000e0: 9235 2e3e 655b bebd 0664 453e 644a 383e
000000f0: 2d3c 393c 74b6 8bbd fe9e 883e 1fe7 763d
00000100: 982e de3d da99 3f3e a2da cf3d 79ac f9bd
00000110: ba9b 13be 9726 743e 8ed2 9abe 07dc 19be
00000120: 4278 ab3e 06a1 47bd 268e ba3b 8e4f 9fbe
00000130: 4586 f5bd f188 41bd 45be 463e 071a 5a3c
00000140: a5c7 9b3d 0b5a c1bc 064f 2b3d 0243 49be
00000150: 7f50 623d 7c6b 4bbd b681 003e 1d7e bf3b
00000160: d280 133e 34ac 32be 31cc 4d3d af74 8a3d
00000170: 5a15 44bd ed5b 5bbd 278e b53e e649 243e
00000180: 6c9a 2c3e 274c 813e 4bce 923e 73c5 8bbd
00000190: 4314 823d 7c4c c13e 2115 983e ccea cd3d
000001a0: 64b0 303e f2f4 33bc bb7c 2a3e 5116 443e
000001b0: d288 443e fc89 243d fabb a63e fb78 a23e
000001c0: c219 b0bd 4372 9b3e 55f0 1a3e 81c6 213e
000001d0: 45de 973e 9c53 643d a515 44bd f005 0f3e
000001e0: e975 053e 09c4 533e 3488 9fbd 643d 913d
000001f0: d805 ae3e a4e4 953d f121 123e 597a aa3d
0.14432818 0.29532713 0.022252046 0.15394107 0.034093615 0.018548286 0.3139548 -0.17366795
0.21040376 -0.26213312 -0.08754294 0.115150355 -0.07262929 -0.045211717 0.07700101 0.08663077
0.0008700798 0.17511255 0.041981637 -0.21954718 0.04273758 -0.02362245 0.06293756 -0.0840591
-0.11609889 0.13938677 0.14851218 -0.04938764 0.060521252 0.043590833 0.083847284 -0.003491443
0.01916271 0.19499044 0.10859733 0.0871611 0.10130949 0.120186254 0.13915733 0.19650088
0.30954808 0.050856456 0.18088509 0.20195712 0.13029669 0.16023663 0.049167022 -0.08699335
-0.072415695 0.37322405 0.15784392 0.11945638 -0.040413946 -0.062352292 0.06868421 0.21266878
0.17012623 -0.09294776 0.19276437 0.17997128 0.011305851 -0.068219095 0.266838 0.060279008
0.10848731 0.18711033 0.10149123 -0.121911 -0.14414874 0.23842846 -0.30238765 -0.1502534
0.33490187 -0.04873755 0.005693215 -0.31115383 -0.119885005 -0.047249738 0.1940852 0.013311869
0.076064385 -0.023602506 0.04182341 -0.19654468 0.05525255 -0.049663052 0.12549481 0.0058438913
0.1440461 -0.17448503 0.05024356 0.06760537 -0.047871925 -0.053554464 0.35460016 0.16043815
0.16855782 0.25253412 0.28673014 -0.0682477 0.06351521 0.37753665 0.2970362 0.100545496
0.17254788 -0.0109836925 0.16649143 0.19149138 0.19192818 0.040170655 0.3256529 0.31732926
-0.08598663 0.30360612 0.15130742 0.1579838 0.29661766 0.0557438 -0.047872204 0.13967109
0.1303326 0.2068025 -0.077896506 0.070917875 0.33988833 0.07319 0.1427076 0.08324117

dense_layers.0.weight f4 [16, 32]
00000000: b3b7 4cbf 4614 2a3f df95 1a3f 5c59 493f
00000010: aa42 54bf 8547 203f 724a 0ebf 9fd5 2d3f
00000020: dff4 163f bded 4f3f 4075 44bf 4746 ffbe
00000030: 21ec 1bbf 9bd7 0bbf b0d3 3c3f 84e6 273f
00000040: 3af4 273f 721d 21bf 1a3d f03e efd4 10bf
00000050: 7eb4 01bf 5dbb 07bf 6206 2cbf 4db6 4ebf
00000060: 937d 233f 9589 10bf 585c 43bf 34c2 4a3f
00000070: 5a25 213f cf18 18bf 10fd 4a3f 8130 d6be
00000080: 7886 453d 20b2 8bbd 3d46 55bd 99db 77bd
00000090: f766 653d eac9 e4bd 9983 913c 1679 34be
000000a0: 11bf 86be a58d 80bd 245b 9f3e a837 343d
000000b0: 0fa3 ab3d 90a9 853d ffe6 86be 279f 193c
000000c0: c9d6 8ebe 6ada 453d 3ede 92be ceaf 1c3e
000000d0: 7e4c 173c a705 0f3d c4c7 9f3e a8aa 5e3e
000000e0: 19ad c9bd 5f84 903e 95e1 273e e930 02be
000000f0: 1c84 8dbe a41a 623e e5e8 8bbe b116 233e
00000100: 1ecf 1d3d cb9c 6abe b787 7ebe 503c 65be
00000110: 32c3 ce3c 0e7a 60be 5d2c 963d dd93 9dbe
00000120: d539 c83b def5 bebd bc86 31bd e8a2 853c
00000130: 41b1 803d c205 4e3e ffa8 073d 62d6 2dbe
00000140: 296b 00bd 291f de3c 4f07 2cbe b62f f43d
00000150: f2aa 1bbd c2fe 043e fae1 343e ce12 743e
00000160: 5e17 98be fc2d a63d 0261 fe3d 54e8 01be
00000170: 4b2a dcbd b12a d03c 7288 c93b e088 9fbc
00000180: 9329 1abf c28d 1b3f bda6 f73e ffdd e93e
00000190: 8bbe 35bf 05d1 213f 83b3 07bf bbac 213f
000001a0: 89e8 0e3f 8a86 d13e a37f 15bf a8f6 e0be
000001b0: e7c0 22bf 483b 1abf 8f9b 1b3f f1e2 e73e
000001c0: a3b9 0e3f 651d 16bf acd2 123f 5b00 05bf
000001d0: 6c9b 2bbf 0ba7 23bf 9ab8 eebe 6a1d 18bf
000001e0: 2437 223f f373 febe 3813 12bf 62d9 003f
000001f0: f808 e33e c9f3 e4be 67bd 2a3f 8c70 dbbe
00000200: 540f 2dbf 32a2 2a3f 77a7 303f 90a3 2e3f
00000210: b937 0fbf 5cb1 123f c54c 09bf a13c ff3e
00000220: 8e78 bf3e df6c 093f 0ebc edbe 90c2 f3be
00000230: 3e81 06bf 4e56 ebbe cb83 233f e8b9 033f
00000240: f2c2 293f 4d9e 04bf 45d6 f33e d1c4 1fbf
00000250: 6af3 26bf 3d3b 28bf 53a4 02bf b5ff c8be
00000260: dc2a 143f 6393 ffbe cba0 18bf 6487 f73e
00000270: f3f9 f93e 1b5f fbbe 7c87 133f b357 ffbe
00000280: b458 03bf b955 fd3e 00c0 053f 3085 2c3f
00000290: 74a9 1dbf 1681 2e3f 7011 21bf 6c7b 373f
000002a0: ec4e 1a3f 374e 1e3f 696e 11bf 0cd8 1ebf
000002b0: 9876 2fbf b462 32bf 9b2f 243f 771c 353f
000002c0: edf0 153f 6094 13bf 127e 103f 7cf2 0cbf
000002d0: 786c 30bf 1472 27bf 3be8 f3be a229 18bf
000002e0: c565 003f d8b4 1ebf 7af2 e0be 9a1e e73e
000002f0: a195 f23e 72b9 e4be 27f5 333f a744 8abe
00000300: 7216 13bf 243c 1f3f 0530 403f 7e9b 4a3f
00000310: 3281 0ebf 4c40 313f ec21 14bf 8683 273f
00000320: ca22 3c3f b077 2c3f 7cb0 42bf 9638 3abf
00000330: 8a99 4bbf 5e82 2dbf 208b 2a3f 135d 0b3f
00000340: 0697 e83e 2919 47bf 90aa 343f ba33 21bf
00000350: bb04 26bf 720a 25bf 9b5e 29bf c0bd 39bf
00000360: 524e 093f 8ed6 3bbf 4cc3 57bf 9ef1 eb3e
00000370: 66ab 0c3f 8c79 0dbf 810f 4a3f ee89 0abf
00000380: 013b 803e 413e 7abd 2289 90be bb1f 63be
00000390: d032 9b3d 8988 85be 8c5a 1e3e d148 cdbd
000003a0: 777a 86be c289 3dbe 82d0 febc 3ce4 bd3e
000003b0: 568b 813e 80da 723d 536b da3c 083f 7dbe
000003c0: 365a af3c 231a 533d 057e 98bd 4b47 853e
000003d0: 61cc 533e f9f0 3b3e 6efa ce3d 5594 fd3d
000003e0: 9526 0bbc a958 ae3d 9ba7 7f3d 6a43 f3bd
000003f0: 81af 5cbe 05d5 b63d a42b d9bd 55cd 8f3e
-0.799678 0.66437185 0.60384935 0.78651977 -0.8291422 0.6260913 -0.55582345 0.67904085
0.58967394 0.81222135 -0.7674141 -0.49858305 -0.6090718 -0.5462586 0.7376051 0.65586114
0.65607035 -0.62935555 0.46921617 -0.5657491 -0.50666034 -0.5302027 -0.6719724 -0.8074692
0.63863486 -0.56459934 -0.7631278 0.7920258 0.6294762 -0.59412855 0.7929239 -0.4183388
0.048223943 -0.06821084 -0.052068938 -0.06051216 0.056006398 -0.111713246 0.017762946 -0.17624316
-0.26317647 -0.062770166 0.31124222 0.04399839 0.0838071 0.06526482 -0.2634811 0.009376324
-0.27898243 0.048304 -0.28685182 0.15301439 0.009234546 0.0349175 0.31207097 0.21744788
-0.09847469 0.2822599 0.16394646 -0.1271397 -0.27639854 0.22080475 -0.27326122 0.15926625
0.0385276 -0.22911374 -0.24856459 -0.22386289 0.02523956 -0.2192156 0.073326804 -0.30776873
0.0061104097 -0.09324239 -0.043341383 0.016313031 0.062838085 0.20119384 0.03312015 -0.16976312
-0.031352196 0.027114468 -0.16799663 0.11923163 -0.038004823 0.12987807 0.17664328 0.23835298
-0.29705328 0.081142396 0.124208465 -0.12686282 -0.10750254 0.025410982 0.0061502988 -0.019474447
-0.6021969 0.6076318 0.483694 0.45677182 -0.7099387 0.63209563 -0.5300829 0.6315419
0.5582357 0.40922958 -0.58397883 -0.43938184 -0.63575596 -0.60246706 0.6078424 0.4529033
0.5575201 -0.586386 0.5735271 -0.5195367 -0.6703403 -0.6392676 -0.46625215 -0.5941988
0.6336539 -0.49697837 -0.57060575 0.503317 0.4434278 -0.44717243 0.66695255 -0.42859304
-0.67601514 0.6665374 0.6900553 0.68218327 -0.559444 0.5730188 -0.53632766 0.49850944
0.37396663 0.5368175 -0.46432537 -0.47609377 -0.5254096 -0.45964283 0.63872975 0.51455545
0.6631309 -0.5180405 0.47624412 -0.62409693 -0.6521517 -0.6571539 -0.5103199 -0.3925759
0.578779 -0.49917135 -0.5962035 0.48345482 0.4882351 -0.49095997 0.5762861 -0.49871597
-0.51307225 0.49479464 0.52246094 0.6739073 -0.6158669 0.6816572 -0.6291723 0.716727
0.60276675 0.61838096 -0.568091 -0.6204841 -0.68540335 -0.6968186 0.6413514 0.7074656
0.5857075 -0.5764828 0.5644237 -0.550575 -0.6891551 -0.65408444 -0.47638115 -0.59438527
0.5015529 -0.61994696 -0.43934995 0.45140535 0.47379783 -0.44672734 0.7029595 -0.27005503
-0.57456124 0.6220114 0.7507327 0.7914351 -0.55665886 0.69238734 -0.5786426 0.65435064
0.73490584 0.6737013 -0.76050544 -0.72742593 -0.79531157 -0.6777705 0.6661854 0.54438895
0.45427722 -0.77772766 0.7057276 -0.62969553 -0.6485097 -0.64469063 -0.6615998 -0.7255516
0.5363513 -0.7337426 -0.84282374 0.46082777 0.54949033 -0.5526359 0.7892991 -0.54116714
0.25045016 -0.061094526 -0.28229624 -0.22180073 0.07578051 -0.2608073 0.15464228 -0.10023654
-0.26265308 -0.18509582 -0.031105284 0.37088192 0.25301617 0.05929041 0.026662504 -0.24731076
0.02140532 0.051538598 -0.07445911 0.26030955 0.20683433 0.18353643 0.101063594 0.12381808
-0.008493085 0.08513004 0.0624157 -0.118780926 -0.21551324 0.08927349 -0.10604027 0.28086343

dense_layers.0.bias f4 [16]
00000000: 4de3 463f 734b 7bbb 8d35 933c 75ba b13e
00000010: f113 253f faa5 0a3f 540a df3e cc47 b43d
00000020: 1b65 173f 29bb 41bd 77cd 913d 8528 2f3f
00000030: dec6 2c3f 7166 7ebe e844 d43d a4ed 243f
0.77690583 -0.0038344532 0.017969871 0.34712568 0.64483553 0.5415951 0.43562567 0.08802757
0.5913865 -0.04729763 0.071192674 0.684212 0.6749095 -0.24843766 0.10364705 0.6442511

dense_layers.2.weight f4 [1, 16]
00000000: 9b6b 1e3f f844 d4bd fd81 5bbc afd0 573f
00000010: e927 4c3f 6e35 483f 695d 213f f21b 59bd
00000020: 60b3 333f 6ba8 8cbc be55 b3bd 2c9e 333f
00000030: 7c4f 4c3f f848 d9bd 4e4f 1dbe 2b7c 273f
0.6188294 -0.10364717 -0.013397691 0.843028 0.797484 0.7820653 0.6303316 -0.053005166
0.7019558 -0.017170152 -0.087565884 0.70163226 0.79808784 -0.10609621 -0.15362284 0.6542384
