BNN/model_state.pt (torch, 10207 bytes, 3 tensors)

linear_relu_stack.0.weight f4 [5, 420]
000000 73 84 82 3f d3 32 f4 3e aa 4d 96 3f f7 71 8e bf
       1.019667 0.47695026 1.1742451 -1.1128529
000010 8c 50 68 bb b9 b6 1a bf 96 14 5b 3f 27 03 86 bf
       -0.00354484 -0.6043506 0.85578287 -1.0469712
000020 bb 90 b9 3d 93 c6 30 bf 68 58 84 3f ac 2a 37 3f
       0.09060808 -0.69053 1.033948 0.7154949
000030 05 13 bf bf d1 25 94 bf 5b 7f 75 3f b9 36 f1 3e
       -1.4927679 -1.1574041 0.95897454 0.47112063
000040 ec 7e 90 3f f9 61 82 bf a9 2c 8f bd 59 31 18 bf
       1.1288733 -1.0186149 -0.0699094 -0.594503
000050 3c 2f 5e 3f 34 04 83 bf 2c f6 7d 3d ea f4 2e bf
       0.86790824 -1.0235658 0.062002346 -0.6834246
000060 f2 6f 74 3f b9 9b 2e 3f 3b a5 be bf 1b db 85 bf
       0.95483315 0.68206364 -1.4894174 -1.0457491
000070 38 e0 5b 3f 46 54 cf 3e cf 68 8a 3f 54 5a 70 bf
       0.85889006 0.40493983 1.0813235 -0.9388783
000080 e2 56 21 bd 44 ec 2e bf 7d 18 5c 3f b7 fd 62 bf
       -0.0393895 -0.6832926 0.85974866 -0.8866839
000090 25 02 02 3d 50 c2 37 bf 1d 03 76 3f 7f 10 0f 3f
       0.031740326 -0.7178087 0.960985 0.55884546
0000a0 ed b2 b1 bf 83 7a 89 bf 3a e7 53 3f c3 79 e0 3e
       -1.3882729 -1.0740513 0.827747 0.43842897
0000b0 58 c2 79 3f 87 83 67 bf 4b 9c b9 bd 7a 51 1a bf
       0.9756217 -0.9043507 -0.09063014 -0.60280573
0000c0 41 78 4a 3f 76 97 54 bf f8 50 74 bd 33 45 2c bf
       0.7908974 -0.8304361 -0.05964753 -0.6729309
0000d0 d5 62 68 3f 82 1e 09 3f f6 fb aa bf f1 08 81 bf
       0.90775806 0.53562176 -1.3358142 -1.0080854
0000e0 6e dd 3a 3f c3 f3 d2 3e d1 e1 68 3f 85 df 5a bf
       0.72994125 0.412016 0.9096957 -0.85497314
0000f0 0d e3 30 be 77 07 26 bf 79 d7 42 3f 38 b2 52 bf
       -0.17274113 -0.6485514 0.76110035 -0.8230319
000100 16 85 ec ba f2 fe 35 bf c6 30 51 3f 5b 0a 0d 3f
       -0.0018045034 -0.7109214 0.8171505 0.55093926
000110 99 ca 9f bf 77 1e 69 bf dd 64 29 3f 7f f0 cf 3e
       -1.2483703 -0.9106211 0.6616953 0.4061317
000120 3d 9a 4b 3f 4b ee 53 bf 4f 49 ee bd 83 a6 18 bf
       0.79532224 -0.8278548 -0.11635076 -0.59629077
000130 fc 1b 27 3f b0 0f 32 bf 1a 2d a0 bd c5 39 2a bf
       0.65277076 -0.6955519 -0.078211024 -0.664944
000140 8e dc 2f 3f ff 4e 06 3f 72 8d 9b bf 12 6a 6f bf
       0.68695915 0.5246429 -1.2152541 -0.93521225
000150 6c ec 2e 3f 60 5e b5 3e 3b ba 51 3f aa 69 43 bf
       0.683295 0.35423565 0.8192479 -0.76333106
000160 bb cb 63 be 5a 5f 29 bf 00 54 26 3f 4b d5 28 bf
       -0.22245686 -0.6616112 0.64971924 -0.6595046
000170 65 e8 e9 bd 55 54 32 bf 64 6b 30 3f 2c e4 cf 3e
       -0.11421279 -0.6965993 0.68913865 0.4060377
000180 9c 34 8e bf 92 f7 4d bf 43 27 16 3f 52 ec a8 3e
       -1.1109805 -0.8045589 0.5865366 0.32992798
000190 a6 47 40 3f 5b 93 31 bf 9c 8e 74 be 6c ae 1f bf
       0.75109327 -0.6936547 -0.23882526 -0.6237552
0001a0 69 6d 0a 3f ae a4 1b bf c0 4d f8 bd 5c 8a 2c bf
       0.54073197 -0.60798156 -0.12124205 -0.6739862
0001b0 af 4b 1c 3f 87 f0 c7 3e 38 d5 7e bf e7 5a 5b bf
       0.61052984 0.39050695 -0.99544096 -0.8568558
0001c0 3a 8c ff 3e c1 03 92 3e d2 f7 1e 3f bd 4d 13 bf
       0.49911672 0.2851849 0.62096894 -0.57540494
0001d0 1e 89 85 be 12 7a 15 bf e9 eb e7 3e b8 e7 05 bf
       -0.26081175 -0.5838939 0.45297173 -0.523067
0001e0 cb cf 03 be 57 6a 33 bf c7 90 fe 3e c7 68 ca 3e
       -0.12872235 -0.70084137 0.4971983 0.39533064
0001f0 0d d1 73 bf 80 5c 45 bf 27 34 eb 3e ea 2b 99 3e
       -0.9524086 -0.7709427 0.45938227 0.29916316
000200 1e 4a 20 3f 2f 17 07 bf 28 cf 84 be 5b 32 1d bf
       0.62613094 -0.5276975 -0.25939298 -0.6140496
000210 5f b8 f5 3e a1 ad fd be f0 b4 1f be 5b 95 21 bf
       0.47992226 -0.4954653 -0.15596366 -0.63118523
000220 0e fc 00 3f 6f 29 b6 3e d3 96 64 bf 57 89 38 bf
       0.50384605 0.35578486 -0.8929264 -0.72084564
000230 b6 3a df 3e fa 01 30 3e 61 59 0b 3f f8 2a 09 bf
       0.4359948 0.17188254 0.54433256 -0.5358119
000240 0b 4f 94 be 5e 8b 2b bf da 5a b3 3e 5d 09 d9 be
       -0.28966555 -0.6700953 0.35030252 -0.42389956
000250 bd e3 45 be 8a cb 2e bf f3 c9 bd 3e 83 9b 97 3e
       -0.19325157 -0.68279326 0.37068138 0.29610834
000260 39 e4 4e bf 8f 46 25 bf 4b ad 9d 3e f8 ba 51 3e
       -0.8081699 -0.6456079 0.30796275 0.20481479
000270 eb d3 e0 3e a3 8e ca be 9b 15 b3 be c0 27 15 bf
       0.4391168 -0.39561948 -0.3497742 -0.5826378
000280 88 e6 9b 3e 2d a0 b7 be 3f 91 98 be 7f 42 33 bf
       0.3044932 -0.35864392 -0.29798314 -0.7002334
000290 48 e2 a0 3e b9 1a 86 3e 22 72 31 bf 9d 78 12 bf
       0.3142264 0.26192263 -0.6931478 -0.5721529
0002a0 e1 98 82 3e ec 5d 40 3e 40 e7 b3 3e 11 f6 a7 be
       0.25507262 0.18785828 0.35137367 -0.3280492
0002b0 21 36 cc be dc bb 1e bf b3 f1 7a 3e 00 f6 a3 be
       -0.39885047 -0.620054 0.24506263 -0.3202362
0002c0 83 b1 8a be 4e 40 22 bf 3c d2 8c 3e 6c 9c 17 3e
       -0.27088556 -0.6337937 0.27504146 0.14805764
0002d0 82 90 16 bf f4 e0 fa be 4c 8f 2d 3e 27 89 2c 3e
       -0.5881425 -0.4899975 0.16949195 0.16849194
0002e0 05 29 b9 3e 4e b9 8f be 35 2e da be 2c 96 18 bf
       0.36164108 -0.28071064 -0.42613378 -0.59604144
0002f0 da 5b 55 3e d0 19 60 be 52 59 ae be f9 50 23 bf
       0.2083582 -0.21884847 -0.3405252 -0.6379543
000300 a1 01 1c 3e a1 11 8a 3d 99 23 f8 be f5 47 d5 be
       0.15234996 0.06741644 -0.4846466 -0.4165646
000310 a5 bd 14 3e ea 79 0b 3d b9 83 5e 3e cf 84 0c be
       0.14525469 0.034051813 0.21729936 -0.13722537
000320 ab 26 dc be 49 ef 16 bf ce c0 ef 3d 6c 93 fd bd
       -0.4299825 -0.5895887 0.117066965 -0.12381634
000330 a7 70 b1 be 3d 3e 23 bf 04 7a 03 3e 29 5d 77 3d
       -0.3465626 -0.63766843 0.12839514 0.06039158
000340 fb cf be be 80 23 cb be 59 fa fe 3c f5 51 51 3d
       -0.37268052 -0.39675522 0.031125234 0.05110355
000350 1a b7 08 3e 86 65 ed bd 26 70 01 bf cc 7e 11 bf
       0.13351098 -0.1159163 -0.5056175 -0.568341
000360 0d 7c 0f 3c 46 d2 b6 bc d0 9f d5 be eb 9d 1f bf
       0.008757603 -0.022317063 -0.4172349 -0.6235034
000370 4f 1e 59 3d d1 b1 46 bd af da ab be 22 79 92 be
       0.05300742 -0.048509423 -0.3356528 -0.28608042
000380 39 8c cf bc 09 dd 7f bc 81 6b 88 3d 53 fe 36 bd
       -0.025335418 -0.015616664 0.0666113 -0.044676136
000390 f7 96 00 bf 39 b9 12 bf 80 ff 63 bd 0c 77 11 3c
       -0.50230354 -0.5731388 -0.055663586 0.008878481
0003a0 e4 2a d9 be 5f e8 27 bf 6f a3 78 bd aa 9b a6 bd
       -0.42415535 -0.65588945 -0.060702737 -0.08135159
0003b0 2e b4 20 be 49 b0 19 be aa dd e6 bd 6b c2 02 be
       -0.15693733 -0.15008654 -0.11272748 -0.12769477
0003c0 e3 36 d4 bc b9 44 15 3d ba 3c 1e bf 99 e7 1a bf
       -0.025905078 0.036442492 -0.6181141 -0.6050964
0003d0 b6 1a 1c be 8c a1 7e 3d 79 2f fa be e4 51 1f bf
       -0.15244564 0.06216578 -0.48864344 -0.6223433
0003e0 c4 21 92 bd 64 17 23 be bf b3 10 bd 96 62 d2 bd
       -0.071353465 -0.15926892 -0.03532767 -0.1027271
0003f0 56 bd 19 be f1 f9 be bd fe 48 02 be 1c 2c 1c 3e
       -0.15013632 -0.09325016 -0.12723157 0.15251201

linear_relu_stack.0.bias f4 [5]
000000 60 3c 35 3f cb 16 24 3c 2d a7 e8 3e a0 58 75 bd
       0.7079525 0.0100152 0.45440045 -0.059898973
000010 87 6b 0a 3f
       0.54070324

linear_relu_stack.2.weight f4 [1, 5]
000000 06 16 81 3f 06 f1 d0 be 43 ba aa 3f 14 f2 1d be
       1.0084846 -0.40808886 1.3338093 -0.15424377
000010 1d 19 99 3f
       1.1960789
