BNN/model_state.pt (torch, 36375 bytes, 5 tensors)

linear_relu_stack.0.weight f4 [20, 420]
00000000: 5c89 08bd aabd 193d 8b27 033b 860a ce3c
00000010: a0e6 e13b 1a94 513c 9e66 103d b151 1f3c
00000020: 8011 d53b aa2f 4a3d a067 073d fc64 2a3d
00000030: adef 5c3d 1643 153b 4711 07bd 6184 40bd
00000040: d714 313c 3240 f43b 6c22 e63c 9ef8 93bb
00000050: 518a 973c 9cf9 18bc c4a8 293d afc3 52bc
00000060: 1300 f03c 3cea c5bc 8b48 ebbb dc2a e7bc
00000070: c1ef 1abc f9c4 a73b c88d 293d 0ba1 1bbd
00000080: aa02 0e3d e480 a73c 5671 86bc b6cc 2a3d
00000090: 304b ac3b 98ca b83c 68d2 85bb 4fec 48bd
000000a0: 1761 30bd 6297 1cbd 2736 38bd eff8 353c
000000b0: 0f27 c33b 7d78 4c3c 548b f23c a818 c83c
000000c0: 2d79 9b3c 83c2 51bd 54bf c03c d04c d638
000000d0: 0534 95bc 0e74 2a3c 410f b9bc e6dd 29bc
000000e0: ecb2 0abc ebd1 3abd 7cab 9b3c b919 13bd
000000f0: 90c2 6bba 0e43 6cbc fd53 43bc 5356 473b
00000100: d8ab d73c 287a e53c 6a68 2f3b 9582 83bb
00000110: bef6 6c3c f158 53ba 5f83 39bd 4ee5 cebc
00000120: dee4 243c cd95 debc 4d9f b6bc 30b0 c23c
00000130: d2cb 2e3d 4645 50bc 1112 64bb da1c 2c3d
00000140: 3477 ae3c 7fbb 233c 7209 873a d72a 15bb
00000150: 009d c53c f913 95bc 9f49 c03b 0b80 c2bc
00000160: ccdd a23a 6ed4 4d3d 035a 32bd 007c d83c
00000170: 1721 80bc 572a 983c 6107 09bd 7a05 09bd
00000180: 6c1c a53c 3d71 d9bc 8b3b eebc 508a b83c
00000190: a509 3ebb 8718 15bd 75af 533d 47e3 9b3b
000001a0: cc24 ac3c 7cb3 17bd 7adf 2f3d 8bcf 2fbd
000001b0: 9687 76bc 6a56 69bc 30b5 4f3d 86c1 f8bc
000001c0: 043e cb3c 1394 8a3a 1690 21bd db2d 093d
000001d0: e77e a53b b661 5c3d 2c09 dcbc b90e 3a3b
000001e0: 8525 2abd 2d7a 433d 97b6 d93c 043d 51bd
000001f0: 360d 113d 676e 00bb 8679 81bc 7da6 083c
00000200: 5ce6 afbc abd4 573d f69d 143d 9e2a 0bbc
00000210: 7e1e 063c 9f00 9f3c 4650 863c 6c67 09bd
00000220: 98f2 18bb 1e4d fa3c d2ac 563c 17a0 993b
00000230: e0af cfbb 4f82 613c 3ed2 ccbc e35b 2abd
00000240: 8958 23bd 0298 1dbc acea c2b9 fe03 a8bb
00000250: 9c34 e43c 9a60 573d 2a33 783b 4534 0dbd
00000260: d13e c93a 9468 393d 62d2 35bd cea9 b4bc
00000270: 5c81 e03c 246c 5dbc 05b6 063d 9f41 843c
00000280: c621 fe3c b1e9 2f3c 7899 c13b cfcf 32bc
00000290: 07e4 ecbc b080 073d d597 20bd 1288 8d3c
000002a0: 0711 083b b611 29bd b626 28bb 767c 6bbc
000002b0: d49a f73c 6842 3e3d b042 843b 668a 0fbd
000002c0: 0ddf c1ba 8029 8c3c 98ef d9bc c61e 333c
000002d0: b2d1 5d3d b84e e23b 704d e63c 003b 293d
000002e0: 947b b43c da61 b1bc d806 ee3c c6bb 543d
000002f0: bb44 08bd 130d a2bc 6274 3f3d 70df c73c
00000300: f8e3 b4bc fe86 293d 6f8c b4bc 000c db3c
00000310: 2df0 0f3c 59c0 3bbd 7cac b53c 9aa3 bdbc
00000320: acbf 3c3d e23a 4a3d 4e87 393c 524d 3c38
00000330: 200b 92bc 5cb8 043d 448d 2a3d cb76 69bc
00000340: 5c9f 323d fe40 b2bc 8e7e 05bd b8ef 1d3d
00000350: 5fcb 29bd 4a83 623c 74cf 143d 8cb2 ad3c
00000360: d65d 8e3b 799b 6d3c a894 ab3c d4bc 0e3b
00000370: 126b eabc e0d2 b03b 2915 fbbc 74a4 303d
00000380: f050 843c d07b afbb 4a0b e7bc d7b2 bfbb
00000390: dcba f8bc f4ae e33c 9a40 5bbd 62e3 82bc
000003a0: 7a80 553d cc28 15bb 940e d638 c334 2cbc
000003b0: b47b 2cbd c8db 9dbb 360e 9cbc 950d 413b
000003c0: 38a0 ce3c 5300 71bb ae81 8e3c d691 8c3c
000003d0: e0b4 e33c baaf 4f3c 6418 ee3c 41e4 57bc
000003e0: 88a9 ffbc c6c9 5cbd c863 923c e208 32bc
000003f0: 27dc 41bc 60a9 973c 9050 6b3b c5fb 99b9
-0.03333412 0.037534393 0.0020012583 0.025151502 0.0068939477 0.012791658 0.035254113 0.009724067
0.0065023303 0.049361862 0.03305781 0.041600212 0.05393951 0.0022775582 -0.03297546 -0.047001246
0.010808191 0.0074539417 0.028092586 -0.0045157215 0.018498572 -0.009336855 0.041420713 -0.012864037
0.02929691 -0.024159543 -0.0071802787 -0.02821868 -0.009456576 0.0051199165 0.04139498 -0.03799538
0.03467051 0.020447202 -0.016411465 0.041699134 0.0052579865 0.022557542 -0.0040839203 -0.049053486
-0.043061342 -0.038230307 -0.04497352 0.011106714 0.005955584 0.0124798985 0.029607452 0.02442582
0.01897868 -0.05121089 0.023528732 0.000102186226 -0.018213281 0.010403646 -0.022590281 -0.010367846
-0.00846551 -0.04561035 0.019002669 -0.035913203 -0.00089935306 -0.014420284 -0.01192188 0.0030416443
0.026327059 0.02801235 0.0026765116 -0.0040133693 0.014463125 -0.00080622645 -0.0452913 -0.025255825
0.010064332 -0.02717104 -0.022292757 0.023765653 0.042674847 -0.012711829 -0.0034800807 0.042019702
0.021297075 0.009993433 0.0010302498 -0.002276113 0.024122715 -0.018198 0.0058681513 -0.023742696
0.001242572 0.050251417 -0.043542873 0.026426315 -0.015640778 0.018574877 -0.033454303 -0.03345249
0.020155154 -0.026543254 -0.029081127 0.02252689 -0.0028997448 -0.036400344 0.051681 0.004757318
0.02101364 -0.037036404 0.042937733 -0.042922538 -0.015046975 -0.014241794 0.050709903 -0.030365717
0.024809845 0.0010572694 -0.03944405 0.033490997 0.0050505283 0.053804122 -0.026859842 0.0028390123
-0.041539688 0.047723938 0.026576323 -0.05108358 0.03541299 -0.0019597055 -0.015805017 0.008340475
-0.021472149 0.05269305 0.036283456 -0.008494047 0.008185981 0.019409476 0.0163957 -0.033545896
-0.0023337957 0.03055435 0.013102727 0.0046882736 -0.0063381046 0.013763978 -0.025002595 -0.041591536
-0.039879356 -0.009618761 -0.00037177408 -0.005127429 0.027857117 0.05258236 0.0037872293 -0.034473676
0.0015353804 0.04526575 -0.04439009 -0.022053625 0.027405433 -0.013514552 0.03288843 0.016144572
0.031021964 0.010736869 0.0059081875 -0.010913803 -0.028917326 0.03308171 -0.0392073 0.017276797
0.0020762102 -0.041276656 -0.002565784 -0.0143729355 0.030225195 0.04645005 0.00403627 -0.035044096
-0.0014791206 0.017109632 -0.026603505 0.01093263 0.05415506 0.0069063567 0.028113097 0.041316032
0.022031583 -0.021653105 0.029055998 0.051936887 -0.03326867 -0.019781625 0.04674185 0.024398535
-0.02208136 0.041388504 -0.02203962 0.02673912 0.00878529 -0.045837734 0.022176974 -0.0231493
0.04608123 0.04937256 0.011323763 4.4894703e-05 -0.01782757 0.03240238 0.041638628 -0.014249514
0.04360901 -0.021759506 -0.032591395 0.03855869 -0.041453715 0.013825247 0.036330655 0.021203302
0.004344682 0.0145024 0.020944908 0.002178003 -0.028615508 0.005396232 -0.030649738 0.043125585
0.016151875 -0.005355336 -0.028203625 -0.005850177 -0.030362539 0.027793385 -0.053528406 -0.015977565
0.052124478 -0.0022759913 0.000102070306 -0.010510626 -0.04211016 -0.0048174597 -0.019049745 0.0029457558
0.025222883 -0.0036773875 0.01739582 0.017159384 0.027796209 0.012676174 0.029064365 -0.013176979
-0.031208768 -0.053903364 0.017869845 -0.010866376 -0.011832274 0.018513381 0.0035906173 -0.00029370017

linear_relu_stack.0.bias f4 [20]
00000000: 8524 653c ab9e af3e 3bd1 8b3e df97 a8bb
00000010: 99b2 8e3e 4be3 d73e eb46 1e3d 293a 4f3e
00000020: 7b0b 9d3e f6ae 06bd 28b8 983e 408f 473e
00000030: b1cb 813d aa33 8d3e a629 e13d ec60 953e
00000040: 1949 7a3e 121b 8a3e c866 a7bc 7037 923e
0.013985758 0.34300742 0.27308068 -0.0051450576 0.27870634 0.42165598 0.03864185 0.2023703
0.3067282 -0.0328817 0.29828 0.1948824 0.06337679 0.2757848 0.10994272 0.29175508
0.24441947 0.26973778 -0.020434752 0.2855792

linear_relu_stack.2.weight f4 [5, 20]
00000000: 6230 a23c 1510 843e 338e a73d 0511 30be
00000010: b824 d33e 1961 453e 8f9e b3be 4bdf 7d3e
00000020: e634 1c3e 4431 903d 1aa2 db3d 7a75 393e
00000030: ef2d b83e 9143 043f fbd0 84bf 6eaf 803e
00000040: 7736 cb3e c344 be3e 739a 34be b27b c83e
00000050: f264 1f3e eba4 f13e 5da7 f53e 7655 e0bc
00000060: f0e9 893e 3728 fb3e 72ea 17bf 0dfc d13d
00000070: 41fb dc3e 6b90 41be d900 ec3e 9f51 7c3e
00000080: 3038 253e 704c 6e3f b541 babe 0105 d43e
00000090: ae86 2a3e e501 323e 09b3 653c 58bc e53d
000000a0: b9e3 5abe 793d 1e3e 9434 ae3e 81ea 40bc
000000b0: 7bf3 eb3d 0e5d 3ebd 4b9f e4be 6937 913e
000000c0: cfd3 0d3e 02bc 63bc 25d6 aa3e c639 bf3e
000000d0: 4255 083f de18 193f 6ad4 a2bf 79a0 b83c
000000e0: 70df 593e 59cc 393e 33e9 01be ad3f 783e
000000f0: fbd2 2abe 86cf 993e 62fe f63e 71ea 513e
00000100: 212d b13e a952 ca3e 7a7f 04be f632 5c3e
00000110: fc03 8a3e 0075 5cbe b44d bb3e 4404 ac3e
00000120: 8faa 8c3d b892 783f c964 5dbd 816c ab3e
00000130: a02a d33e 8478 ad3d 79ff 15bc 942c 9c3e
00000140: cde5 5dbd c9ef 2b3e dbf0 883e 288c 643e
00000150: 904a 373e b604 d43e d1c4 e4be a146 383e
00000160: cedb bf3e 9b30 29bd 658c ec3e c1ab 743d
00000170: 63bb af3e daac 523f 6f19 19bf a228 dc3e
00000180: eb05 d63e ec64 8c3e fdd1 6d3e 65a8 a93e
0.019798461 0.2579352 0.08181419 -0.17193992 0.41238952 0.19275321 -0.35081908 0.24792211
0.15254554 0.07040647 0.10724278 0.1811122 0.35972545 0.516656 -1.0376276 0.25133842
0.3968999 0.37161836 -0.17637043 0.39156872 0.15565851 0.47196135 0.4797925 -0.027384501
0.26936293 0.4905412 -0.5934211 0.10253153 0.43160442 -0.18902747 0.46094397 0.24640511
0.16134715 0.93085384 -0.36378255 0.41410068 0.16652939 0.17383535 0.014019736 0.11217564
-0.21375932 0.15453137 0.3402449 -0.01177466 0.115210496 -0.046475463 -0.4465278 0.28362587
0.1385033 -0.013899805 0.33366504 0.37348765 0.53255093 0.5980357 -1.2721074 0.022537457
0.21276641 0.18144359 -0.12686615 0.2424304 -0.16682045 0.3004114 0.48240954 0.20499589
0.34604743 0.3951619 -0.12939253 0.21503815 0.26956165 -0.21529007 0.3658272 0.33597004
0.06868469 0.97098875 -0.054051194 0.3348122 0.41243458 0.08470252 -0.009155148 0.3050276
-0.054174233 0.1679069 0.26746258 0.2231909 0.17899537 0.41409844 -0.4468141 0.17995693
0.37472385 -0.04130612 0.46200863 0.05973411 0.34322652 0.82295 -0.59804434 0.4299975
0.4180139 0.27420747 0.23224635 0.33136287

linear_relu_stack.2.bias f4 [5]
00000000: 0480 093e 479e 213f 5934 b03d 25c4 253f
00000010: ec2e 013f
0.1342774 0.6313214 0.086037345 0.6475242 0.5046222

linear_relu_stack.4.weight f4 [1, 5]
00000000: aea1 373f 733d 163f 70f4 4b3f 5416 aa3e
00000010: 3bd1 343f
0.7173108 0.58687514 0.7966986 0.3322016 0.7063176
